Assets/Brains/AdrianTests/AdrianColTest8/Zombie Walker/Zombie Walker-499978.onnx (onnx, 280597 bytes, 9 tensors)

network_body._body_endoder.seq_layers.0.weight f4 [128, 239]
000000 e9 6c 14 bd 93 94 54 bd 11 9d bc bd 84 34 f8 bc
       -0.036236677 -0.051899504 -0.092096455 -0.030298479
000010 2d 2e e3 bb e1 58 b1 3d 33 cd b7 bd e1 62 e2 bd
       -0.006932995 0.086595304 -0.089746855 -0.11054016
000020 8e b2 c6 bc 17 8f cf bd 7d 19 f2 bb a4 21 1f bb
       -0.024255063 -0.10134714 -0.0073882923 -0.0024281526
000030 47 c2 e9 bd 21 27 ca bd 18 38 8a 3d 8f 68 e6 3a
       -0.114140086 -0.098707445 0.0674898 0.0017578768
000040 4c 02 0c 3d 2e 5a c8 bd 37 45 78 3d 4c a2 54 3d
       0.034181878 -0.097828254 0.060612883 0.05191259
000050 3a ec 13 be 36 a6 3c 3b af b9 2e be 8d 14 53 3d
       -0.14445582 0.0028785593 -0.1706302 0.05153327
000060 98 f9 b0 bb 95 fb 22 3d 2d 49 18 3e dc 05 f4 bd
       -0.0054008476 0.03979071 0.14871664 -0.1191518
000070 7f 2e fa bc 96 99 a7 bd 7a 66 27 3e 8a 57 97 be
       -0.03053975 -0.08183591 0.16347685 -0.29558975
000080 36 39 03 3c 79 94 a4 bd df ab e5 3b 95 cf bc 3d
       0.008009246 -0.080361314 0.007009014 0.09219281
000090 b7 eb 67 3d 2b 6d 44 bd 42 d6 a5 bd 59 b2 40 bc
       0.05662128 -0.047955673 -0.08097507 -0.011761271
0000a0 fd 9b 8f bc 5a 35 6d 3d 55 4f 7c 3d e0 bf cb bb
       -0.017530436 0.05791221 0.061599094 -0.0062179416
0000b0 df 7e df bd f0 cc 82 3d c5 4c 25 be d2 a4 97 3d
       -0.109128706 0.06386745 -0.16142567 0.07404484
0000c0 bb 70 08 3e e3 1d 9e 3d 6f 1b 11 3e 5b 02 15 bd
       0.13324253 0.07720544 0.14170621 -0.0363792
0000d0 54 db 46 bc 1a d8 2b bd a3 bb 82 bd 25 53 b4 bd
       -0.012137253 -0.041954137 -0.06383445 -0.08804921
0000e0 99 d9 c8 bc 70 f2 8c bd 86 34 84 bd 63 3b 47 3d
       -0.024517821 -0.06882179 -0.064553306 0.04864062
0000f0 1f ac 2a 3d d6 be 89 bc 6a a8 3f 3d 5a 3a 01 3e
       0.041668054 -0.01681463 0.04679147 0.12619916
000100 2f f5 c3 bd 34 a1 9f 3d 19 11 05 bd b5 ed 52 bd
       -0.095682494 0.07794419 -0.03248701 -0.051496226
000110 bc ac 24 bd 27 e1 1c bd 87 cc b1 bd e4 51 99 bd
       -0.040203795 -0.03830066 -0.086815886 -0.074863225
000120 b3 11 69 bd 3f 93 4f bb a3 f8 12 3e 95 9f b0 bb
       -0.056901645 -0.003167346 0.1435266 -0.0053901174
000130 fa 92 b0 3d 8b 2e b3 bd 4c 46 88 bd 69 31 ba 3d
       0.086217836 -0.08749112 -0.06654033 0.090914555
000140 bc a5 06 be 8d 3d c5 bd 7a 31 30 bd 57 7e 31 3d
       -0.1314916 -0.096308805 -0.043015935 0.043333378
000150 51 27 8d 3b 73 c5 05 3e a0 b8 04 be 04 5f b6 bd
       0.0043076654 0.13063602 -0.12961054 -0.089048415
000160 2f 50 91 3e f9 e9 a4 3d ae e5 a6 bd f2 b2 79 3d
       0.28381488 0.08052439 -0.08149277 0.06096167
000170 74 3e e8 bd 49 04 16 3d 0e 45 a2 bc a5 83 13 be
       -0.11340037 0.03662518 -0.019808318 -0.14405687
000180 18 5c 2b bd e5 41 c1 bd bb fc f5 bd 03 c1 d6 3c
       -0.041835874 -0.094363965 -0.12011095 0.026215082
000190 06 af cb 3d 7d ad f0 3d 37 b9 2b be 1b 85 ae 3d
       0.099454924 0.1175184 -0.16769873 0.085214816
0001a0 c7 0d ee 3d f6 19 49 3d 99 0f cc 3d 08 50 d8 bd
       0.116237216 0.049097024 0.099639125 -0.1056214
0001b0 67 99 5e bd 38 ea d9 3d 0f e1 51 3e 69 a2 56 bd
       -0.054345515 0.10640377 0.2049601 -0.05240098
0001c0 3a 70 b8 3b a4 1c 8c bc e6 b3 bf bc 5a eb 99 3d
       0.005628613 -0.0171035 -0.023401212 0.07515593
0001d0 8c 39 53 be ff cc d3 bc 5c 85 8d bd 5e 18 09 bd
       -0.20627421 -0.025854586 -0.06910202 -0.033470504
0001e0 94 78 11 be b3 09 54 bd 3d 37 22 3d 6e f1 85 bd
       -0.14206153 -0.051767062 0.03960346 -0.0654019
0001f0 5f 0a a1 bd b9 7f 38 3e 15 84 4e bb 24 82 42 3d
       -0.07863306 0.18017472 -0.0031511832 0.047487393
000200 ab f6 af bd cf 93 96 3c 92 c4 18 3e 14 78 f8 bc
       -0.0859197 0.018381028 0.14918736 -0.030330695
000210 11 5f 31 be 8b f9 ce 3d 79 d8 94 bc d6 c7 78 be
       -0.17321421 0.1010619 -0.018169628 -0.24294981
000220 4d 6e e9 3d fe 3c be bd 54 b7 e1 bc df ad 3c bd
       0.11397991 -0.09288977 -0.027553238 -0.046064254
000230 08 8c 43 3d 3f 00 41 bd 34 7e 8d bd b1 97 69 bb
       0.047740966 -0.047119375 -0.06908837 -0.0035643394
000240 e0 7d cc bc 0e 22 4f 3e 0b 4d 01 be 7a 57 a1 3b
       -0.024962366 0.20227835 -0.12627046 0.004923758
000250 85 5c a1 3d fd e6 6c 3d 8e 76 3b be 57 93 74 3e
       0.07878975 0.057837475 -0.18306944 0.2388433
000260 49 ee 8b be e2 ad 40 3c 8f 49 05 3e e1 93 25 be
       -0.27330235 0.011760207 0.13016342 -0.16169693
000270 d3 e4 86 bd 21 fd f1 bc 81 8b fb bd 6a 28 b2 bd
       -0.065866135 -0.029539647 -0.12282468 -0.086991146
000280 ef e4 b0 3d be 6b 0b be 0d f2 53 be 67 28 35 be
       0.086374156 -0.13615319 -0.20697804 -0.17691194
000290 85 6f 29 bc 09 a6 e9 3d ee e6 fe bd 82 cb 24 be
       -0.01034153 0.11408622 -0.1244639 -0.16093257
0002a0 dd 1a 19 3d cd e7 d6 3c 3b 62 39 be 80 3d fc bd
       0.037379134 0.026233578 -0.18103878 -0.12316418
0002b0 26 db 04 3e f7 c0 d9 bd e4 c0 bd bc 77 29 25 3d
       0.12974223 -0.10632508 -0.023163266 0.040322747
0002c0 62 ce 19 bd a8 1e c4 bd 14 50 8a 3c f6 92 a4 3d
       -0.037550338 -0.0957616 0.016883887 0.08035843
0002d0 39 35 d3 3b 10 a2 a2 bb cc b0 cb bd 03 a7 42 3e
       0.0064455536 -0.004963167 -0.09945831 0.19009022
0002e0 c3 00 72 be ab ef 0a bd 59 79 58 bd ff cf b5 bd
       -0.23633103 -0.03391997 -0.0528501 -0.08877563
0002f0 76 b4 06 bd 16 66 69 3c e2 b8 01 bd 03 df 59 bd
       -0.032886945 0.014245531 -0.03167046 -0.053191196
000300 17 5c 8f 3d d9 6c 94 bc 6a 06 c9 3d 28 bb 3f 3d
       0.069999866 -0.018118309 0.098156765 0.046809345
000310 31 56 7c 3d 92 ac 24 3d 28 7d 53 3e 53 03 06 bd
       0.061605636 0.04020364 0.20653212 -0.032718014
000320 c2 8f 37 3c f6 0d df 3c 99 14 d0 bc 4f 9d 7f 3d
       0.011203708 0.027228337 -0.025400447 0.06240588
000330 0b 7e 20 be 63 cc dd 3d 41 b0 3a bd d4 23 9b 3e
       -0.15673082 0.10829999 -0.045578245 0.30300772
000340 92 f0 49 bd 99 24 0e bc a8 d7 9b 3d e0 b1 04 3d
       -0.04930169 -0.008675718 0.076094925 0.032396197
000350 cd 46 55 be be f4 94 bc 31 fa 8b 3b 19 ca 0c be
       -0.2082779 -0.018183108 0.0042717685 -0.13748969
000360 d7 ea c7 bc 88 6a fd bd 4c f4 8c 3d 10 e4 1f be
       -0.024403973 -0.12373835 0.068825334 -0.15614343
000370 ef 61 63 3c 1a 7e d0 bd 02 de 96 3e a8 21 86 3d
       0.01387833 -0.10180302 0.29466254 0.06549388
000380 24 90 04 be 26 40 79 3c f5 f9 ae bc 2c ca 7d bd
       -0.1294561 0.015213048 -0.021359423 -0.061960384
000390 9d 49 61 bd 9f 9f 89 bc 34 64 33 be 32 13 22 be
       -0.055001844 -0.016799746 -0.17518693 -0.15827635
0003a0 3e 00 0d 3d ad d6 69 bc 8d 65 89 bd 05 e9 d2 3d
       0.03442406 -0.014272374 -0.067088224 0.10298351
0003b0 1a 4f da 3b 3b e3 9a 3e 47 b8 16 3e 22 01 bd 3d
       0.0066622617 0.30251488 0.14718734 0.09228732
0003c0 38 2e a9 bd 4b 4d 92 bc 94 6f 18 bd 08 4d 90 3e
       -0.08260769 -0.017859122 -0.037215784 0.2818377
0003d0 2d 78 64 3e e6 da d9 bd c6 7d c0 bd d1 6f fb 3d
       0.22311468 -0.10637455 -0.093989894 0.12277187
0003e0 c4 19 eb 3d c5 ab 69 bd 1a 82 2d bd 74 6c 1e 3c
       0.11479524 -0.057048578 -0.042360403 0.009669412
0003f0 7a 34 73 3b f8 21 8f bd a4 23 50 bd 5e 13 07 3b
       0.0037110136 -0.06988901 -0.05081524 0.002061091

network_body._body_endoder.seq_layers.0.bias f4 [128]
000000 50 4f f5 bc 6b c3 d1 bb a2 73 a2 bd 99 ea 1a bd
       -0.029945046 -0.0064014695 -0.079322115 -0.037821386
000010 a3 25 0c be 85 5b 49 bd 8f c5 c0 3c 6b b8 d4 bc
       -0.13686232 -0.049159545 0.023531703 -0.025966844
000020 de c0 5d bc 32 b5 06 be 30 d2 bd bc ae 35 84 bc
       -0.013534753 -0.13155058 -0.023171514 -0.016138878
000030 2c 6c 81 bd ec 8e 03 bd 1a 38 81 3c 8e d4 c9 3c
       -0.0631946 -0.032118723 0.015773822 0.024637487
000040 97 fa 35 bd 78 0e 35 bd 57 b1 c9 bb 46 6b 2a bc
       -0.044428434 -0.04420325 -0.0061551738 -0.010401553
000050 c5 a0 b0 bd a9 9f 28 bc a5 49 49 bd f6 40 56 bb
       -0.08624414 -0.010291972 -0.0491425 -0.0032692528
000060 e8 66 c7 3c e7 9b 8a bc ab 5d 7b bd 53 60 fd bc
       0.024341062 -0.016920043 -0.061368626 -0.03092972
000070 56 5b c3 bd 22 31 e4 bd 91 23 74 3c f6 e2 da bd
       -0.09538905 -0.11142184 0.014901058 -0.106878206
000080 33 ae bc 3c 43 b0 97 bd c5 d2 83 bd e1 4f 27 bd
       0.023032283 -0.07406666 -0.064366855 -0.040847663
000090 94 e2 6a 3c 58 b7 86 bd 16 61 2b 3b 44 01 09 bd
       0.014336247 -0.06577939 0.0026150397 -0.033448473
0000a0 7f 14 e2 bd c7 93 7e bc 72 9b ec bd 68 14 7d bd
       -0.110390656 -0.015538163 -0.11553086 -0.06178704
0000b0 8a 11 5d bd e7 67 ff bc 2e 95 dd bd 14 13 5a bd
       -0.053971805 -0.031177474 -0.108194694 -0.05324085
0000c0 ce a2 d3 bc 08 94 63 3c a2 01 66 bc 32 da 76 3b
       -0.025834467 0.013890274 -0.014038475 0.0037666676
0000d0 b8 6a 94 bd 17 1f 63 3d 0a 5b 40 bd 91 8a 80 bd
       -0.072469175 0.05544957 -0.04696182 -0.062764294
0000e0 05 68 0c 3c 5e 98 3a bd 97 c0 6e bd 02 ab f8 bc
       0.008569722 -0.045555465 -0.058289137 -0.03035498
0000f0 7b 68 b6 bc 15 5d bb bc d7 f6 b2 bc c0 df 95 3d
       -0.022266617 -0.022871533 -0.021846218 0.073180676
000100 ab 0a 53 bc c6 d7 d5 bc 1e 99 38 bd 31 6b ba 3c
       -0.012880961 -0.026103865 -0.0450679 0.022756191
000110 b4 ad c4 bd 3a 4c 41 bd e6 1c 5b bd 5f e3 b1 bb
       -0.09603444 -0.047191836 -0.053494357 -0.005428716
000120 15 79 81 bd 7a ae 98 bd 28 15 05 3d 4e f8 f4 bc
       -0.06321923 -0.07455154 0.03249088 -0.029903557
000130 2c 10 97 3c 05 8a f6 bc 1d 32 98 3c 43 ce 87 bc
       0.018440329 -0.03009511 0.018578583 -0.016577845
000140 48 40 35 3d ae a5 14 bd b4 eb 60 bc 36 fe 53 3c
       0.044250757 -0.036290817 -0.013728071 0.012939027
000150 20 44 0d 3c 19 39 d8 bc f2 f7 4c bd df e8 16 bd
       0.008622199 -0.026394414 -0.050041147 -0.036843177
000160 8a 7f 37 bd 6d 9d 6a bd 1d de 52 bd b0 93 62 bd
       -0.044799365 -0.05727904 -0.051481355 -0.055316627
000170 89 34 7f 3d a1 4c 0d 3c b3 53 49 bd f9 5f a8 bc
       0.06230596 0.008624227 -0.049152087 -0.020553576
000180 d4 d5 40 bd b8 98 15 bd 8b 61 d4 bd 1d 4d a3 bd
       -0.047078922 -0.036522597 -0.10370167 -0.079736926
000190 d8 96 55 bd 6a b2 3e bd 06 ef 49 bd 1b d9 1c bc
       -0.05214581 -0.046556868 -0.049300216 -0.009573246
0001a0 73 4e ea bc 7c 3f 1c bd a6 af ad bc 94 2c 0e 3d
       -0.02860186 -0.03814648 -0.02120192 0.03471048
0001b0 03 fe 34 bd da 1f 18 be d0 b8 75 3d 71 4f 90 3c
       -0.044187557 -0.148559 0.059990704 0.017616006
0001c0 18 fe 8f bd 07 4d ce 3b 72 1e 26 bd 41 65 94 3c
       -0.070308864 0.0062958035 -0.04055638 0.018114688
0001d0 36 a1 81 bd 9e 92 4f bd f6 43 80 bc 7e 49 06 bd
       -0.06329577 -0.050676934 -0.015657406 -0.03278493
0001e0 3d 1a 97 bd 4e b2 26 bc 57 7a a8 bd 73 f9 ab 3d
       -0.073780514 -0.010174347 -0.082264595 0.08397188
0001f0 a9 56 60 bd 16 69 29 3d b9 8f ca 3c f8 00 49 bb
       -0.054770146 0.041359983 0.024726735 -0.0030670743

network_body._body_endoder.seq_layers.2.weight f4 [128, 128]
000000 ac 03 e1 3c b4 fa 19 bd a0 57 c0 bd a7 ef b0 bd
       0.027467571 -0.037592605 -0.09391713 -0.0863946
000010 a7 85 dc 3c 37 d1 62 3d 4c d8 7e 3d 0b 9f 38 be
       0.0269192 0.055375304 0.062217996 -0.1802942
000020 47 3a 8b be 15 e1 e9 3d 91 bd 1f 3d b2 44 eb 3d
       -0.271929 0.11419884 0.038999144 0.11487712
000030 45 e4 74 3e 87 7e ba bd 7e c0 92 3d e3 70 b9 3d
       0.23915203 -0.091061644 0.07165621 0.090547346
000040 ac 22 37 bc e8 5c 1f 3e 24 81 60 3e 4e d0 f3 bd
       -0.0111777 0.15562785 0.21924263 -0.11904965
000050 e7 10 4c 3c 10 4b 9d 3d 3d f2 17 3e 5c 31 27 be
       0.012455202 0.07680333 0.148385 -0.16327423
000060 8b 18 81 3d 80 30 b4 3c 3f 45 2a 3d fc ba 32 be
       0.06303509 0.021995783 0.041569944 -0.17454141
000070 d0 40 be 3d 30 79 9d bd 9b aa 42 3e c9 d6 c9 3d
       0.09289706 -0.0768913 0.19010393 0.0985542
000080 8e 32 92 bd b0 d5 12 3e 92 51 4b 3e 53 e4 f4 3d
       -0.07138549 0.14339328 0.19855335 0.11957612
000090 f8 f6 28 be a8 7f 16 3d 60 b1 28 be e1 12 89 bd
       -0.16500461 0.036742836 -0.16473913 -0.06693054
0000a0 c3 c5 3d 3e 99 4a f7 bc 08 13 85 bd 8d e0 23 3e
       0.18532471 -0.030186938 -0.064977705 0.16003628
0000b0 a7 46 91 bc 10 3a 5c be 7f 97 e3 3d 7e bf 3c bd
       -0.017733885 -0.21506524 0.1111288 -0.04608106
0000c0 d8 d4 d5 bd 68 91 26 be 52 22 c2 ba b2 ef f8 3d
       -0.10440987 -0.16266406 -0.0014811254 0.12155093
0000d0 f7 ed f7 3d ef 7d 24 bd 6d b6 ea bc eb b5 eb b9
       0.12105935 -0.040159162 -0.02865144 -0.00044958232
0000e0 69 3f 87 bd 34 98 06 be 66 9d dd bd d0 e0 30 3e
       -0.066038914 -0.13143998 -0.10821037 0.17273259
0000f0 12 16 2f 3e 46 97 c8 3c ea cb 42 bc c5 bb 96 3a
       0.17098263 0.024486195 -0.011889437 0.0011500051
000100 17 9f ef 3c 37 37 37 bc b5 30 51 3d 7f ce d9 bd
       0.029250665 -0.011182598 0.05107184 -0.10635089
000110 39 56 8d bd fc 96 b3 3e 8f ef 8c 3c 11 dd b3 bd
       -0.06901211 0.3507613 0.017204074 -0.087823994
000120 d0 a6 89 3e 7b 2a 64 3d ec 61 97 3c c3 49 d6 3d
       0.2688508 0.055704575 0.01847931 0.10463288
000130 4a 2c 42 3e 9c d7 e7 3d 33 e3 ee 3d 82 49 19 3e
       0.18962207 0.11320421 0.116644286 0.14969447
000140 f5 ea 8f 3e 7e 11 44 3e e1 23 ae bd 40 c6 10 be
       0.28108945 0.19147298 -0.08502937 -0.14138126
000150 d0 27 4a be a3 24 5f 3e 0b b0 1f 3e cd 14 96 bd
       -0.1974175 0.2179132 0.15594499 -0.07328186
000160 ce a4 03 3c 35 0f 13 be 0b e4 17 be 56 88 63 bd
       0.008034898 -0.1436127 -0.14833085 -0.055549942
000170 1e eb 3c be 7e b6 55 3d 71 c9 4e 3e 70 92 83 bd
       -0.18449065 0.05217599 0.20194031 -0.06424415
000180 5b 1b 9e 3d e7 19 a9 3d eb eb a3 3e ef ce 78 be
       0.077200614 0.082568936 0.3201593 -0.24297689
000190 73 c2 37 3e 3d 48 1c 3e d9 68 eb 3d 8a 49 14 3a
       0.1794527 0.15261932 0.114946075 0.000565671
0001a0 e5 a6 a0 3c 0a b1 cb bd d3 de 4a 3d 77 d2 ba bd
       0.019610832 -0.09945877 0.049528908 -0.09122174
0001b0 6f 60 5a bd 1d 99 fd 3d d9 e0 78 bd 72 48 23 3e
       -0.053314622 0.1238272 -0.060761306 0.15945604
0001c0 d7 af 7b 3d 7e 3d 71 3b a3 69 a4 3d 41 dd 90 3c
       0.06144699 0.0036810334 0.08027961 0.017683627
0001d0 58 3e 34 3e 95 b0 58 be 19 0a 39 3e be 09 64 3d
       0.17601907 -0.2116111 0.18070258 0.055673353
0001e0 dc 88 37 bb ee e0 1e 3e c5 3e 02 bd f0 e9 0a bd
       -0.0028005159 0.15515491 -0.031798143 -0.033914506
0001f0 2a f2 fc ba 10 99 2f 3e a6 c0 40 3e 1b c2 d5 bc
       -0.0019298245 0.17148232 0.1882349 -0.026093533
000200 a2 2a 3b 3e 33 6b 2a 3e 03 11 2e bd 02 70 22 bb
       0.18277982 0.16642456 -0.042496692 -0.0024786
000210 fc 36 84 bd 90 99 c7 bd bc 58 18 3e cd 8a d2 bb
       -0.064558 -0.097460866 0.148776 -0.0064252377
000220 1e e2 05 be db 40 09 bd 06 6a f7 3c 9c e5 12 be
       -0.13074538 -0.033509117 0.030201923 -0.14345402
000230 b8 42 eb 3d 96 10 21 3e 67 97 59 3d d1 2f 9b bc
       0.11487335 0.15728983 0.053122904 -0.0189437
000240 7c 55 e7 3d c7 26 c5 3c db e5 a7 3d 40 f7 05 bd
       0.11295602 0.024066342 0.08198138 -0.0327065
000250 b1 69 ac be 96 52 fc bd 93 a0 07 bd 49 09 04 3c
       -0.33674386 -0.123204395 -0.03311212 0.008058854
000260 2b 8b 4b 3e 56 be ae bb dd ad 0d bd 5f 5d 1b 3e
       0.19877307 -0.0053327484 -0.034589637 0.15172337
000270 ad e9 48 be 65 5d 40 3d 05 b1 d4 3d 93 be 57 bd
       -0.1962039 0.046964068 0.10385326 -0.05267198
000280 29 90 05 be 3a dc e7 bc 8b 68 36 bc b5 8c 6b 3d
       -0.13043274 -0.028303254 -0.011133323 0.057507236
000290 e2 0d 13 3e 32 84 07 be 12 f1 e5 bd ba 1d fd bd
       0.14360765 -0.13234022 -0.11227621 -0.123591855
0002a0 75 bb 17 bd c3 2d 84 3c 4a 66 26 3d fc c4 31 3d
       -0.037044007 0.016135102 0.040624894 0.04340075
0002b0 3b 5e 3e be d3 ca b5 bd d0 be b4 bc f5 3e 82 bd
       -0.18590634 -0.08876576 -0.022063643 -0.06359664
0002c0 4c e4 90 be 84 01 5a 3e bf 73 d5 39 3f 40 54 be
       -0.28299177 0.2128964 0.00040712763 -0.20727633
0002d0 a5 3f aa bd 66 10 82 3d 3b bd 0c 3e fe c4 64 bc
       -0.083129205 0.06350784 0.1374406 -0.013962982
0002e0 ee 94 1e be ab 9b 83 3d 3a 21 51 3d 09 64 bc 3d
       -0.154865 0.06426176 0.051057078 0.09198768
0002f0 4d 1d c7 bb 6f d9 4f be a2 de 83 be ef ad ea 3c
       -0.006076491 -0.20297788 -0.25755793 0.028647391
000300 e3 5b e4 3c f6 6d a8 bd 2b e3 4d bd 24 04 ab bd
       0.027875846 -0.082240984 -0.050265472 -0.08350399
000310 ef 08 58 be c8 d6 b9 3d e7 f1 e8 bb 1b 4a 8f be
       -0.21097158 0.090741694 -0.007108915 -0.27986225
000320 6f 09 8f bc b1 9c e3 3c 0e 3f fd bd 95 0a fd 3c
       -0.017460553 0.027784677 -0.12365542 0.030888835
000330 1f f1 dd 3d 0f 3b d2 bc fa 9e c8 bd 52 b7 86 bd
       0.10837006 -0.025662927 -0.097959474 -0.06577934
000340 57 27 c0 bd 0f 30 31 be 1c b2 30 3e 99 31 4a be
       -0.093825035 -0.17303489 0.17255443 -0.19745483
000350 16 53 84 3d 13 0f 20 be 0b 31 a6 3d 13 6c 77 bd
       0.0646116 -0.1563075 0.08114823 -0.060405802
000360 e6 e5 cf 3c 73 e9 3f 3e ed 70 f6 3d d9 b6 0c be
       0.025378179 0.18741398 0.12033258 -0.13741626
000370 e3 67 86 3e 81 2e 27 be 22 94 5e bd 49 6b 04 3e
       0.26251134 -0.16326334 -0.05434049 0.12931551
000380 4f bb 27 3b d5 4b 10 3e 42 2a 28 be 4f fb 3c 3e
       0.0025593822 0.14091428 -0.1642237 0.18455242
000390 cf c5 b4 3d 16 0f cb bd d2 21 97 3d 45 93 0b bd
       0.088267915 -0.09914987 0.073794976 -0.034075994
0003a0 80 bb 2b 3e ee c2 53 3d 20 db df 3d 87 5b d5 bd
       0.16770744 0.05169957 0.10930467 -0.10417848
0003b0 92 52 bb bd 75 f9 44 3c 04 b4 0f 3d 5a 7b 20 bd
       -0.091466084 0.012022366 0.035083786 -0.039180137
0003c0 57 34 e8 3d 27 ff 41 be b3 2f be 3d 1e 03 21 be
       0.11338108 -0.18944989 0.09286442 -0.15723845
0003d0 69 ff 21 bc 3b d8 c1 3d 20 6d 6c be 06 7e 03 3e
       -0.009887555 0.09465071 -0.23088503 0.12841043
0003e0 d4 f4 2e be ee 91 4e be a3 11 d2 3d cd 55 34 be
       -0.17085582 -0.20172855 0.1025727 -0.17610855
0003f0 99 59 af 3d ce b9 d5 bd 86 e8 91 3d 13 7d 8a bc
       0.08562011 -0.1043583 0.071244285 -0.016905343

network_body._body_endoder.seq_layers.2.bias f4 [128]
000000 79 ca 3f bd 40 35 00 3d af 80 c2 bc 9c 65 fc bc
       -0.046823952 0.031300783 -0.023743002 -0.03081017
000010 7e f0 8a bd a6 16 73 b9 17 d7 c0 bd 31 cd b7 bc
       -0.067841515 -0.00023182723 -0.09416025 -0.02243671
000020 c9 a5 a3 3b f1 47 55 bd 3c 5d 11 bd 2c 1b a0 bd
       0.0049941284 -0.05207056 -0.035489306 -0.078176826
000030 e0 0b 1e bb bc cd 7a bd c6 21 1e 3d ed a5 eb bd
       -0.0024115965 -0.06123136 0.038606428 -0.11506257
000040 4b 14 a8 3d c1 7f ad 3c 4a 21 d9 3c 6c 63 59 3d
       0.082069956 0.021179082 0.026505131 0.05307333
000050 f5 55 9b bb 68 f5 79 3d ba 2e 29 bd 32 bb f7 bc
       -0.0047404715 0.061025053 -0.041304328 -0.030240629
000060 bb 30 6c bb 74 da 8f bd 23 c1 dd 3b 40 d4 08 3c
       -0.0036039788 -0.070240885 0.0067674085 0.008351386
000070 54 b9 8f bc 4e 75 f9 bc 03 a7 8a bd f7 38 eb bb
       -0.017544426 -0.030451443 -0.06770136 -0.0071784216
000080 70 42 5d 38 ea f2 60 bd f5 ea a1 bc 77 a0 a1 3c
       5.275238e-05 -0.05491916 -0.019765357 0.019729836
000090 6f 68 b0 bc 1e 69 81 bc e5 3d fe 3c c1 0c 33 3d
       -0.021534173 -0.015797194 0.031035373 0.043713335
0000a0 ed ef 11 bd a3 4a 85 bb ca ac 15 3d 88 d7 4a 3c
       -0.0356292 -0.0040677353 0.036541738 0.012380488
0000b0 e4 15 10 3c 80 70 7a 3d 91 86 22 bd 59 cd 9c 3c
       0.008794282 0.061142445 -0.039679114 0.019140886
0000c0 39 4d 23 3d 36 fc 0c 3c 6b 39 0b bc 0a 1a bc bd
       0.039868567 0.008605054 -0.008497576 -0.09184654
0000d0 26 5d 19 3c 00 24 6c bd fa dd 5f bc cd d2 0e 3d
       0.009360587 -0.05765152 -0.013663763 0.034869004
0000e0 bb 2e cc 3c 64 ee ca 3c ff 05 f4 3d 11 ce 48 bd
       0.024924627 0.024771877 0.11915206 -0.049024645
0000f0 72 bf d2 3b 4b f3 c5 bd 52 25 63 bd cf 38 85 bc
       0.0064315135 -0.09665545 -0.055455513 -0.01626244
000100 51 70 f6 bd 22 1c d2 bd 7b 6e 6f bd be 2d 8e 3c
       -0.120331414 -0.10259272 -0.05845497 0.017355796
000110 70 f7 88 3b af 8a 9f 3d 82 23 33 bd b1 ca 2b bc
       0.0041798875 0.07790124 -0.043735035 -0.010485337
000120 08 02 6b 3d f8 6e b7 bd 4f e0 cb bc 9b 61 63 3d
       0.057374984 -0.089567125 -0.024887232 0.055513006
000130 cf 23 ad bd 19 a0 54 bd 5c 2a 21 bd ea 0d 94 bd
       -0.084540956 -0.051910494 -0.039347038 -0.072292164
000140 75 94 b1 bd 3b b0 63 3d b1 a0 78 bd 0f 0f 7b 3a
       -0.08670894 0.05558799 -0.060700122 0.0009577134
000150 e6 92 15 bd c8 e6 0d 3b 8f 90 8f bd 4e 6e 79 bd
       -0.036517046 0.002165245 -0.07009994 -0.06089621
000160 1d fa d9 3b 41 c9 95 bd d0 bd 18 bd 69 2d ba bd
       0.0066521303 -0.07313777 -0.037290394 -0.090906925
000170 b3 b1 10 3d 66 03 01 3d 95 73 91 3d 21 20 e9 3c
       0.035325717 0.03149738 0.07102124 0.028457703
000180 72 c1 78 3a 19 4a 5e 3d 5c b8 6b bd fe 04 c8 ba
       0.0009489275 0.054269884 -0.057548866 -0.0015260277
000190 3c 08 39 3d 54 7c 7a bd 5a e3 60 bd 65 0c dd 3c
       0.04517387 -0.061153725 -0.05490432 0.02698345
0001a0 04 da b4 3d 2a c7 3f bd 9d 99 67 bd ff 0c 29 bd
       0.08830646 -0.046820797 -0.05654298 -0.04127216
0001b0 4c 0d ae bc 46 d2 8e 3c 67 b2 31 ba 68 db 87 3d
       -0.021246575 0.01743425 -0.0006778598 0.06633645
0001c0 37 ca 93 3d 7b 31 89 bd 29 1d b6 bd ac dd 96 bd
       0.07216304 -0.06698891 -0.088922806 -0.07366499
0001d0 6f dc c2 bc b5 6f df bc 61 38 10 3b 91 a3 36 bb
       -0.023786752 -0.027274946 0.002200626 -0.002786849
0001e0 2d 88 64 bd 24 2f 6e 3c ea 74 5d bd 76 11 03 bb
       -0.05579393 0.014537606 -0.054066576 -0.0019999421
0001f0 d3 df 93 bd a9 0d 8f 3c 70 94 d2 3d 16 07 a8 3c
       -0.072204255 0.017462568 0.102822185 0.020511191

network_body._body_endoder.seq_layers.4.weight f4 [128, 128]
000000 b1 4d 6d 3d e5 da a2 3c ad cd c3 3d 38 a2 2b bc
       0.05793542 0.019879768 0.09560714 -0.010475688
000010 e3 a6 b2 3c 0c e6 67 bc 42 6b ac bd 3c b5 a6 3d
       0.021808093 -0.014153969 -0.08418895 0.081400365
000020 9a 9f 85 bc 5c 20 e1 3b 1a 26 26 be 4c 07 44 3d
       -0.016311456 0.0068703126 -0.16225472 0.04785852
000030 af 59 00 be a0 cc 38 3c e9 05 aa 3c 47 95 67 bd
       -0.12534212 0.011279255 0.020754771 -0.056538846
000040 19 0c fa bd f9 4f 0c be d1 18 f3 3d e3 f4 86 bd
       -0.12209339 -0.13702382 0.11869968 -0.06589677
000050 f3 6c 05 3e 1e 32 67 bc aa ff ef 3d 4b ca 3b bc
       0.13029842 -0.01411107 0.11718686 -0.011461805
000060 85 8d 71 3d 08 d0 6b 3c 6d fc 06 3e b2 3e c5 3d
       0.058972854 0.01439286 0.1318223 0.09631099
000070 a9 ba 92 be 8b 9f eb bd b4 07 c2 bc 6a ca 6b 3d
       -0.28658035 -0.1150504 -0.023685314 0.057566084
000080 9c 75 d3 bd 27 89 8d bd a8 9f ac 3d 20 67 e7 3d
       -0.103251666 -0.06910925 0.084288895 0.112989664
000090 62 81 c3 3d 3a e7 83 3d db d0 75 be e0 90 1c bd
       0.09546162 0.06440587 -0.24005453 -0.0382241
0000a0 6a b1 a7 bc a1 e8 72 bc 94 ce 6f 3d a6 74 a7 be
       -0.02047034 -0.014825971 0.058546618 -0.32706183
0000b0 3a 1d 00 bd 60 fd 40 3d 4f 31 69 3d fa 7a 00 be
       -0.031277873 0.047116637 0.05693179 -0.12546912
0000c0 42 33 fd bd 70 7c 10 be 37 cf 36 bd d2 06 cd bb
       -0.12363292 -0.14109969 -0.04463121 -0.0062569166
0000d0 6f e2 c6 3c 18 18 f3 3d c9 98 37 3e a4 a6 b6 bb
       0.024277894 0.1186983 0.17929377 -0.0055740643
0000e0 58 5c 34 3e b1 c6 5d bc 2a d1 88 3d 08 2c df 3c
       0.17613351 -0.013536141 0.0668052 0.027242675
0000f0 29 23 d2 3d a7 da 51 3e 35 7c db 3c 16 70 19 3d
       0.102606125 0.20493565 0.026792625 0.03746041
000100 db 82 08 3e 95 7d b1 bd 64 78 3d 3d ec 2a 30 3c
       0.13331167 -0.08666531 0.04625739 0.010752421
000110 62 63 31 bc 0b 66 21 3e c5 d1 ad 3c 3e ed ce 3d
       -0.010826917 0.15761583 0.02121819 0.10103844
000120 ed 59 1d 3e 8e 34 89 bd 89 33 49 be 38 14 1f be
       0.15366335 -0.06699477 -0.19648565 -0.15535057
000130 b3 91 98 3d e3 3d d1 be aa 10 2a bd 3e f3 23 3e
       0.07449665 -0.40867528 -0.0415198 0.16010758
000140 ba 92 69 3e c9 3d 86 39 f5 97 19 3e c6 c3 8a bd
       0.22809878 0.00025604505 0.14999373 -0.06775622
000150 9c 42 24 3e 4b a6 2e bd 1e d9 2f bd 2b 2c f1 3d
       0.16041034 -0.042639058 -0.04293167 0.117760025
000160 12 1a 45 be 66 19 33 3e 60 41 2a be 87 a3 0c bd
       -0.19248226 0.17490157 -0.16626501 -0.03433564
000170 a1 12 e5 bd 1d e6 92 bc 39 63 0b be d3 ac 3d be
       -0.11185194 -0.017931992 -0.13612069 -0.18522958
000180 58 df 97 be 02 1c 5b be 3d c8 fb 3d d9 e4 01 3e
       -0.29662585 -0.21397403 0.12294052 0.12684955
000190 56 4c 69 bd 36 01 35 3d c3 5a 78 bd d2 b9 eb bd
       -0.056957565 0.044190608 -0.060633432 -0.11510052
0001a0 6b 0f 18 bd 39 08 88 bd af 82 3e 3e 57 0d 6c bb
       -0.03712408 -0.06642193 0.1860454 -0.0036018693
0001b0 36 7e d8 bd 4f 64 38 bc ba 8c 49 be 5d c5 80 3d
       -0.10570948 -0.011254384 -0.19682589 0.06287644
0001c0 b1 cb c2 3d 5d a8 df 3d 15 10 98 bd ce d6 e2 bd
       0.09511507 0.109207846 -0.074249424 -0.11076127
0001d0 8f 65 ad be 76 c0 64 3e 9a 9e c1 bd 09 b2 24 bd
       -0.33866546 0.22339043 -0.09454079 -0.04020885
0001e0 08 43 18 3e 98 fb ac 3d f3 d8 8c bd 4d d5 cc 3d
       0.1486932 0.08446425 -0.06877317 0.100016214
0001f0 29 ef 03 be 08 26 f7 3d b6 e9 8c 3d b1 85 48 be
       -0.12884201 0.12067801 0.06880514 -0.19582249
000200 6d ce 56 bc c8 68 0c be d0 02 9d bc af 27 e2 3d
       -0.013110739 -0.13711846 -0.01916638 0.11042725
000210 35 af f9 3d 15 f4 68 3c e9 c8 aa bd 95 91 08 3c
       0.12191621 0.01421835 -0.08339102 0.008335491
000220 59 03 c1 be b5 24 ac 3d 7d e3 d4 bd fb 2a b3 3d
       -0.37697867 0.08405439 -0.103949524 0.08748432
000230 40 64 1c 3d f6 ca a3 bd c9 ab e7 bd d9 d6 28 bd
       0.038181543 -0.07997696 -0.11312062 -0.04122052
000240 19 19 1a bd 6d 01 e6 be e2 a5 1e 3e dc d7 0e bc
       -0.03762159 -0.44922963 0.15492967 -0.008718457
000250 e8 f5 b0 bd 8b 6d 11 be 8d e8 8a 3d 32 7a 74 be
       -0.08640653 -0.14201944 0.06782637 -0.23874739
000260 7b 5a c0 bd 0a 33 33 be df c6 0c be 8d ab 7f 3d
       -0.09392258 -0.17499939 -0.13747738 0.062419463
000270 c1 7b f8 bd 8c c8 74 bd 6d e6 ae bd ca 09 ab 3c
       -0.12132979 -0.05976157 -0.08540044 0.020878691
000280 17 3f 11 be 59 65 f0 3c e4 27 f9 3d 14 07 d7 bb
       -0.14184223 0.029345201 0.12165812 -0.006562123
000290 62 95 3a 3c 08 7d ff bc 45 1e 25 3e 42 53 da bb
       0.011388155 -0.03118755 0.16124828 -0.006662757
0002a0 e6 b4 66 bd 4a ca 22 3d 0d 96 6e be f5 8f 0c 3e
       -0.056324862 0.0397437 -0.23299427 0.1372679
0002b0 4e f6 01 bc 8a 8c 81 bc c2 48 91 bd 3e cb 33 be
       -0.007932259 -0.015814085 -0.070939556 -0.17558
0002c0 9e 61 8e 3d 5c 3a 0d 3e 63 5d fc 3d ee c6 a5 bd
       0.06952213 0.13791794 0.123224996 -0.080945835
0002d0 bd bc 84 3e f1 93 81 be f8 d0 41 3e b3 5f bb bd
       0.25925246 -0.25308183 0.18927372 -0.091491126
0002e0 ee 5d 07 3d 23 e2 ad 3d 41 45 7b bb f6 6a 96 3d
       0.033048563 0.08490398 -0.003834084 0.0734462
0002f0 a8 c9 91 bd ed 9a 93 3c b1 19 39 bc fa 0e b8 3d
       -0.07118541 0.01801821 -0.011297629 0.089872316
000300 15 08 83 bd d1 89 82 bc b4 22 63 bd c7 fa 0e bc
       -0.06398026 -0.015934857 -0.055453017 -0.008726782
000310 36 6e 0d 3e c1 42 3c 3d 45 f5 09 be 1c 23 00 3d
       0.13811573 0.0459621 -0.13472469 0.031283483
000320 c7 ac 6d 3d b7 f4 a7 be 8f 70 47 3d 46 8c 72 be
       0.0580261 -0.3280389 0.04869133 -0.23686323
000330 79 c5 61 bd 5a 35 0a 3e b4 db e9 bd f3 e9 c8 bd
       -0.055119965 0.13496915 -0.11418858 -0.09810247
000340 44 ed a3 be 0b 82 54 3e 78 be 4a 3c 6e 1d ef 3d
       -0.32016957 0.20752732 0.012374513 0.11675535
000350 16 19 c8 bd 7d 44 15 bd 11 d3 95 be e2 ee aa bd
       -0.0977041 -0.03644227 -0.29262593 -0.083463445
000360 8d d4 5e bd 2f 0f 05 bd 2b f7 f7 3d 59 b0 8d be
       -0.054401923 -0.032485183 0.121076904 -0.27673605
000370 0a e4 b9 3d f7 2c bd bc c2 cd 1c 3e 2f ec b3 3d
       0.09076698 -0.02309273 0.15312865 0.08785283
000380 30 3f ba 3d 9a fc 10 3e 37 ee b1 bd 9c 67 c5 bd
       0.09094083 0.1415886 -0.08688014 -0.096389025
000390 a8 d1 0a be 43 a0 b5 3d 73 ef 2c 3e 67 dc b6 3e
       -0.1355654 0.08868458 0.16888218 0.3571503
0003a0 06 65 79 3e f9 9d 52 be bb b3 a7 3d 08 5d bf 3c
       0.24354944 -0.20568074 0.08188578 0.02335979
0003b0 c9 a7 48 3e ad 46 06 be 1e 48 08 3e 1b 8b 70 3e
       0.19595255 -0.13112898 0.1330876 0.23490565
0003c0 ca 84 85 be 77 d9 80 3d d1 a0 2c 3e 5f a6 18 be
       -0.26077873 0.06291478 0.16858222 -0.14907216
0003d0 c5 6b 38 3e c1 78 ae 3d 62 08 39 3d 71 a9 8c bd
       0.18009861 0.08519126 0.04517401 -0.06868256
0003e0 c6 9b 44 be af f3 9e 3d 2b cd ce bd 68 11 82 be
       -0.19200048 0.07761323 -0.100977264 -0.25403905
0003f0 f6 32 d0 3d 3f 71 60 be 58 a7 16 bf bf 62 d1 bc
       0.1016597 -0.219182 -0.58849096 -0.025559781

network_body._body_endoder.seq_layers.4.bias f4 [128]
000000 57 c4 c6 bd 6d d3 97 bb 27 a9 53 bd aa ca e5 bd
       -0.097054176 -0.004633358 -0.051674988 -0.11220296
000010 bd 45 f1 bc 88 99 38 bd 56 48 fc bb c4 6a 8b 3d
       -0.0294522 -0.045068294 -0.007699053 0.06807473
000020 db 6d 06 be 66 76 06 be 80 ef 5c 3d 9d 37 13 3e
       -0.13127844 -0.13131103 0.053939342 0.14376684
000030 a1 a8 d7 bd 77 de af bc 52 ce 7e 3d e3 f6 02 3d
       -0.1053021 -0.021468384 0.06220848 0.03197373
000040 72 f7 48 3d 40 b5 f6 3b e6 22 80 bd aa 12 61 bd
       0.049064107 0.007528931 -0.06256656 -0.05494944
000050 83 8c 4c 3d 42 bf 35 3d f0 e8 75 3c e4 be 84 3b
       0.04993869 0.04437185 0.01500915 0.0040510762
000060 97 bd 9c bc d8 bd b1 bc 90 2e 95 bd 1b df a3 3a
       -0.019133372 -0.02169697 -0.07284272 0.0012502404
000070 04 4a 35 3c a6 9e 2f be d1 ee 8a 3d 1d 46 ee bd
       0.01106501 -0.17150363 0.06783832 -0.11634467
000080 32 b4 69 3b eb 0b 7e bd 80 24 ac 3d b2 11 d0 bc
       0.0035660383 -0.062023085 0.08405399 -0.025399063
000090 f0 de ae bd 88 17 d9 3c dc e0 4e bd f1 73 15 3d
       -0.08538616 0.026500478 -0.05050741 0.036487523
0000a0 98 51 78 bd a3 a8 6f bd 52 f1 3a bd 80 ab 93 bd
       -0.06062469 -0.058510434 -0.045640297 -0.072104454
0000b0 ed 9e fc 3c bc 83 b8 3d 9c fc 5d 3d 92 59 d8 3b
       0.0308375 0.09009501 0.054195985 0.0066024745
0000c0 da 8d ec 3b ad 1c 73 bd a6 f7 60 bd f3 fe c6 bd
       0.0072190585 -0.05935352 -0.054923676 -0.097165965
0000d0 ad 2c 2b bc d8 19 1d be 75 38 47 3d f6 19 74 bd
       -0.010447663 -0.1534189 0.048637826 -0.05959507
0000e0 d6 65 ff 3c 74 cd a6 bc 4b 70 09 3e f3 3f 2a 3c
       0.031176489 -0.02036164 0.13421743 0.010391223
0000f0 28 81 49 be 50 35 0d 3e 8a 62 bc 3d 58 89 ec 3c
       -0.19678175 0.13789868 0.09198482 0.028874084
000100 cd 45 d9 bc 76 a6 c8 3b cd 7f 9c 3d 8e 90 0b 3d
       -0.026522541 0.0061233593 0.076415636 0.034073405
000110 f5 9a 86 bd 17 2f dd bd 45 19 96 bd 95 bf 12 bd
       -0.065725245 -0.10799997 -0.073290385 -0.035827238
000120 ab 83 22 bc 60 fe 43 3d c2 70 10 3b a2 0c a4 3d
       -0.009919087 0.047850013 0.0022039865 0.08010222
000130 d2 74 4b bd 3f 6d 12 3d 7b f8 e5 3d e1 b1 ba bd
       -0.049671955 0.035748716 0.112290345 -0.09115959
000140 1b c7 96 bd be 57 e2 bd 5c 92 80 3a 71 ac dc bd
       -0.07362195 -0.11051892 0.0009809243 -0.10775078
000150 2d c7 99 bc d5 32 85 3d 5d 7f d9 bb 3a b8 33 bd
       -0.018771732 0.06503836 -0.0066374973 -0.043876864
000160 f7 3d b2 bd 59 c7 82 bd 74 14 d8 bc 0a 96 33 bd
       -0.08703225 -0.06385679 -0.02637694 -0.04384426
000170 05 9e a7 3d 29 2d 25 bd b2 0e 27 bd 68 eb c7 3d
       0.08184437 -0.04032627 -0.0407855 0.09761697
000180 c0 22 b6 bd 3e c2 f2 b9 9c 51 84 bc c0 81 c3 bc
       -0.08893347 -0.0004630256 -0.016152196 -0.02386558
000190 bb cb 15 be 44 c1 6b bd 60 31 08 bd 48 0a fc bc
       -0.14628498 -0.05755736 -0.033250213 -0.030766621
0001a0 56 47 a2 bd 17 43 0c 3e da a1 a1 bd 2f 4f 08 bd
       -0.079237625 0.13697468 -0.07892199 -0.03327864
0001b0 60 7c 39 bd 9e 70 93 3d 8f 2c bc bd 37 26 bd bc
       -0.04528463 0.071992144 -0.091881864 -0.023089511
0001c0 d1 22 0c 3d f1 ae ad 3c da 91 03 be fe fe d2 bc
       0.03421289 0.021201583 -0.12848607 -0.025756355
0001d0 01 da c7 bc 22 17 cf bc c9 51 21 bd 11 52 02 bd
       -0.024395945 -0.025279585 -0.039384637 -0.031816546
0001e0 2b 3f 61 bd 7d 07 27 bd 24 ab d0 3d 97 4f 05 be
       -0.054991882 -0.040778626 0.101888925 -0.13018642
0001f0 8f aa 2f bd 3c 28 b4 3c e3 e3 63 bc 7a 16 a9 bd
       -0.042887267 0.021991841 -0.013909313 -0.0825624

action_model._continuous_distribution.log_sigma f4 [1, 39]
000000 7e c2 6f be d3 70 af be 08 90 45 be d3 19 99 be
       -0.23414037 -0.34265766 -0.19293225 -0.29902515
000010 20 aa a8 be 64 e8 12 be fd 43 4c be 38 40 a6 be
       -0.32942295 -0.14346462 -0.1994781 -0.3247087
000020 08 17 55 be a9 1a a1 be 93 f4 32 be ba dc b4 be
       -0.20809567 -0.31465653 -0.1747611 -0.3532465
000030 79 ff 2a be 85 57 bf be e4 de d9 be 4d a9 72 be
       -0.16699018 -0.3737146 -0.42552865 -0.23697396
000040 f5 1c cc be 57 25 8d be 23 03 a5 be f9 1a e9 be
       -0.39865842 -0.2756755 -0.32228956 -0.4552839
000050 98 15 8a be 28 a3 9d be 30 4f 8f be 30 22 bb be
       -0.269696 -0.3078854 -0.27990103 -0.3654952
000060 c3 91 c7 be 2e b5 7b be ef 46 ef be 02 1d ce be
       -0.38978395 -0.24580833 -0.46733806 -0.40256506
000070 49 16 82 be 1c 60 d2 be d3 65 b7 be 07 99 f3 be
       -0.25407627 -0.4108895 -0.35819873 -0.47577688
000080 08 7b 43 be b4 6d 9e be 18 ab 8a be df 27 a1 be
       -0.19089901 -0.30943072 -0.2708366 -0.31475732
000090 86 b3 a7 be dd 01 95 be 16 00 97 be
       -0.32754153 -0.29102984 -0.29492253

action_model._continuous_distribution.mu.weight f4 [39, 128]
000000 f2 ee 33 bc df b8 50 be 49 e4 ee bc b4 ce 9d 3d
       -0.010982262 -0.20383023 -0.02916159 0.07705441
000010 ec e5 8c bd 5c 45 26 bd 67 eb 3b bc af e5 1d 3d
       -0.068797916 -0.04059349 -0.0114696985 0.03854912
000020 c2 f9 15 3d ae 33 0d bd 70 3b be 3c 95 49 d7 3d
       0.03661514 -0.034473114 0.023221701 0.105120815
000030 e8 ab fb bd 4e c0 d5 3a 86 07 8b 3c 23 1b f3 3c
       -0.12288648 0.0016307922 0.01697136 0.029676026
000040 d5 c6 cc bd d8 7a d9 3d b7 b3 17 be 8b 65 1d 3e
       -0.09998862 0.10619134 -0.1481465 0.15370767
000050 fb 04 a3 3d 98 46 8d bd 08 6a cf bc ac 90 82 ba
       0.07959934 -0.0689823 -0.025319114 -0.0009961328
000060 b9 7a e8 3d ff d8 58 bd 15 69 0f 3d 17 9d e9 3d
       0.113515325 -0.05294132 0.035012323 0.11406916
000070 22 c7 fe bc 72 97 46 3d e0 57 35 bc 2a 66 ac 3d
       -0.031100813 0.048484273 -0.011068314 0.08417924
000080 79 3c 13 3e 08 c6 7c b9 66 81 13 be 03 d9 08 be
       0.14378537 -0.00024106365 -0.1440483 -0.13364033
000090 02 2f d7 bd a6 91 91 3d e1 34 2e bd 73 3b 9e bd
       -0.10507013 0.07107858 -0.042530898 -0.07726183
0000a0 12 be e8 3d 3f 31 a5 ba 82 75 49 bd be 9c 96 bc
       0.11364378 -0.0012603177 -0.04918433 -0.018385287
0000b0 3b 7d 41 be da 79 fa bc de e7 7a 3d 04 ea a4 bd
       -0.18895428 -0.030575681 0.061256282 -0.080524474
0000c0 a0 70 a1 bd 7c 88 ea 3d 17 40 02 bd 0a fe 0d 3e
       -0.0788281 0.114518136 -0.031799402 0.1386644
0000d0 0d b3 be bd 0e 54 30 be 90 54 10 3d 9f 58 d3 bd
       -0.09311495 -0.17219564 0.035236895 -0.103196375
0000e0 85 66 a2 3b 32 21 b7 3d 1e 33 a2 be 95 13 ee 3d
       0.004956069 0.089418784 -0.31679624 0.11624829
0000f0 6b 37 15 be 15 a7 ab bd e1 1f 65 3d ef a5 80 3d
       -0.14571922 -0.08381478 0.055938605 0.06281649
000100 a9 a4 56 bb 6a 2f 8e bc 00 fe 20 3e 9e 16 38 bd
       -0.0032751954 -0.017356593 0.15721893 -0.044943444
000110 4f 36 00 3c b3 cf c3 bc 16 d3 1a 3e de 2b 50 3c
       0.007825448 -0.02390275 0.15119585 0.012705771
000120 58 de d2 3b 08 1f 0d 3c cf f7 5c bd 72 15 d1 3d
       0.006435197 0.008613355 -0.053947266 0.102091685
000130 ff fa 0c 3c 05 1b 1e 3d 73 5c 7e bd 35 74 a2 3c
       0.008604764 0.038599987 -0.062099885 0.019830802
000140 32 29 bf bc ab 89 da 3c 08 00 bd bd 6e b1 6f bd
       -0.023335073 0.026676973 -0.092285216 -0.05851882
000150 95 d9 9c 3c 0c 4e da 3c c7 1d 82 3d 7c a5 9d bd
       0.01914672 0.026648544 0.06353336 -0.07697579
000160 94 79 f1 3d ee e8 6f 3b d8 80 a9 bd 34 9a 9c 3d
       0.11790767 0.0036607343 -0.08276528 0.076465994
000170 75 c2 87 3d cb 27 d7 3b 4c b5 4c be 46 1d ac 3c
       0.066288866 0.006566023 -0.19991034 0.021010052
000180 81 b4 3b bc a8 09 a7 bd 60 5c 54 bc ab f9 eb bd
       -0.01145661 -0.08156139 -0.012961477 -0.1152223
000190 ea 63 3d bd 8a 65 b0 bd fa 44 4d bd f0 86 a9 3a
       -0.046237864 -0.08613117 -0.05011461 0.0012933891
0001a0 76 08 85 b9 3a 56 9b 3d 9d 69 8f 3d b4 c5 5d bd
       -0.0002537404 0.07584806 0.07002566 -0.054143623
0001b0 5d 7e 12 bd 47 d3 4a be f5 ce fe 3b cc df 15 3e
       -0.03576504 -0.19807158 0.007776136 0.14636153
0001c0 5b ca aa 3d 30 65 b0 bd 2b ff 4a bb c0 2c e8 3d
       0.083393775 -0.0861305 -0.0030974846 0.113366604
0001d0 9c 00 31 3d e3 c9 51 3d f2 c6 14 3d 2f 4e 62 bd
       0.04321347 0.051217925 0.03632254 -0.055250343
0001e0 02 b8 c3 3c 5c 20 fa bd d2 58 cf bc 04 02 3a 3d
       0.023891453 -0.12213203 -0.025310908 0.04541208
0001f0 ac 03 9c bd 89 c0 fa bb f0 78 ab bd d6 c5 ae 3d
       -0.07617888 -0.0076523465 -0.08372676 0.08533828
000200 41 0a c5 3b dd 49 88 bb 92 4d 12 be 99 46 05 3e
       0.0060131853 -0.004159196 -0.14287403 0.13015212
000210 2c ca 99 3c a2 64 2f 3d 67 d6 48 3e 37 55 24 be
       0.01877316 0.04282058 0.19613038 -0.16048132
000220 6d bd ac 3c 3b cf 38 3d a7 7d 6a 3e 17 69 69 3e
       0.021086419 0.045119505 0.22899495 0.22793995
000230 80 00 b8 bc 0d b0 a1 3d ba 79 02 3c 28 3d ab 3d
       -0.022461176 0.07894907 0.007963592 0.08361274
000240 06 c6 86 3d df e6 2f 3d cf ef 23 bd 95 9b ec bc
       0.06580739 0.042944785 -0.04002362 -0.028882781
000250 10 cc 38 be d9 c9 b1 bd 95 47 58 bd 39 5b d7 bb
       -0.18046594 -0.086810775 -0.05280264 -0.006572154
000260 a6 31 74 be 90 05 8e bd b4 ab 25 bd e6 97 1b be
       -0.23847064 -0.06934655 -0.040446952 -0.15194663
000270 b1 b8 4c 3d 76 ed 95 bd 7b b4 8c bb cc 53 90 bd
       0.049980823 -0.07320683 -0.004293976 -0.07047233
000280 76 b4 af bd 2d fc 32 bd e9 24 ae bc f2 18 1a 3c
       -0.08579342 -0.043697525 -0.021257835 0.0094053615
000290 9f 12 77 3d 2d 31 83 3d 83 e1 75 bd 91 15 e4 ba
       0.060320493 0.06405864 -0.060029518 -0.0017401447
0002a0 83 0b 6b 3d ca a2 0f be 96 40 d9 3d 02 db 8c 3d
       0.057384025 -0.14026943 0.10608022 0.0687771
0002b0 e4 54 a1 be cf 52 33 be 90 1a eb 3d a6 72 56 3c
       -0.3151008 -0.17512058 0.11479676 0.013088858
0002c0 93 88 c9 3d 08 da 2b be c0 e8 d5 3b a7 c5 8d 3d
       0.098405026 -0.16782391 0.00652799 0.06922465
0002d0 fd c1 4f 3e 9c 8e 1a be e7 97 a3 3d 81 a8 38 3d
       0.20288844 -0.15093464 0.079879574 0.045082573
0002e0 cf 13 80 3d 23 82 78 bc 05 75 33 3e c8 63 8f 3c
       0.06253778 -0.015167746 0.17525108 0.017503634
0002f0 e7 e8 e8 3b 3f c8 4b 3e 0c 72 a2 3c 4f cd 8b 3b
       0.0071078422 0.19900607 0.019829772 0.004266418
000300 d5 b7 ac 3d 9d 9f 4f be 12 fd d6 bc c9 61 ec 3d
       0.08433501 -0.20275731 -0.02624372 0.115420885
000310 66 fb 55 be 24 26 89 3c 71 37 a3 bd 7e 91 08 be
       -0.20896682 0.01674182 -0.07969559 -0.13336751
000320 17 b5 35 bc f6 35 0b 3e ac 66 a2 bd 2c 2b 58 bc
       -0.011090538 0.13594803 -0.07929739 -0.013193887
000330 b4 74 b1 bd 3c e4 f3 3d e6 3f be bd 84 f1 9d bb
       -0.086648375 0.119087666 -0.092895314 -0.0048200507
000340 e5 c4 a2 3d bc b9 a4 bd 6c 68 82 3d 1f e9 2c 3d
       0.07947711 -0.080432385 0.06367573 0.04221451
000350 05 d1 23 3d ec b5 25 bd 09 7b 49 3d ee cb ca 3d
       0.03999426 -0.040456697 0.0491896 0.09902178
000360 4b 0e 1b bd 99 a0 05 be c1 4b d5 3d 4a 67 b8 3c
       -0.037855428 -0.13049544 0.104148395 0.02251019
000370 93 2a 1f bd 17 27 fe 3d 40 52 05 3e b5 07 33 3d
       -0.03885896 0.124097995 0.13019657 0.043708522
000380 b4 54 c2 3c e8 87 76 bd 7a 7f 8d 3c 4c a0 8e b9
       0.02372203 -0.060188204 0.0172727 -0.0002720378
000390 d4 64 37 3d d1 e5 47 bd e9 04 5c bd 2d e1 36 be
       0.04477389 -0.048803154 -0.05371562 -0.17859335
0003a0 11 47 bf bd 63 77 a2 3c 15 df e5 bd 4b a9 a0 3c
       -0.09339727 0.019832319 -0.1122419 0.019611975
0003b0 29 a3 52 3e a1 92 d8 bd 06 61 a8 3d da db 59 bd
       0.20570053 -0.10574842 0.08221631 -0.053188182
0003c0 ed 04 21 bd 2e ca b1 3d 66 a0 f4 ba ed 9d d6 bb
       -0.03931134 0.08681141 -0.0018663525 -0.006549588
0003d0 c6 d0 54 3d bf c9 89 3d 5d da 34 bd dc ba 0d 3e
       0.051956914 0.06727933 -0.04415356 0.13840812
0003e0 f0 19 b8 ba 8a 95 2f be 35 d1 ef 3d 60 e4 89 bd
       -0.0014045816 -0.17146888 0.11709825 -0.06733012
0003f0 ce 0e b0 bd ed a7 a4 3d 2d 70 ed ba d9 ba 11 3d
       -0.08596574 0.08039842 -0.0018115096 0.035578582

action_model._continuous_distribution.mu.bias f4 [39]
000000 4f 83 03 be 3b e3 d7 3d a3 19 bb bc 3f 95 46 bc
       -0.12843059 0.10541388 -0.022839373 -0.012120544
000010 81 2b 9b 3b 20 5c 17 3d cb f1 c1 3c ef 44 ec bd
       0.0047354107 0.03695309 0.023674866 -0.115365855
000020 fd a7 ee bb e8 cc 57 3d 4b da 8e 3d f0 f1 b6 3d
       -0.0072832094 0.05268565 0.0697523 0.08932865
000030 e5 83 6c 3d 4f d3 e2 bb e9 2b cf 3d 11 c3 eb 3d
       0.057742972 -0.0069221626 0.10115797 0.11511815
000040 4d d4 d7 3d 01 83 01 3d 50 e1 e4 bd 22 ae 23 3c
       0.1053854 0.031619076 -0.111757874 0.009990247
000050 bc 20 9c 3d 7a 44 d8 3d 86 66 be 3d f6 de 7b 3d
       0.07623431 0.10559936 0.092968985 0.06149193
000060 61 fc 8a bd 5f 4c 47 3d d2 bd 27 be 98 5c 36 3d
       -0.06786419 0.048656818 -0.16381004 0.044521898
000070 b3 b6 da 3c d1 1a 2f bc 97 1d c9 3d 2f 86 e7 bd
       0.026698446 -0.010687546 0.09820097 -0.1130489
000080 60 42 fd bd 94 98 1c 3e cd 87 96 bd d7 9c 27 bd
       -0.12366176 0.15292579 -0.07350121 -0.04092106
000090 87 17 0a bd 74 b0 4b 3d 64 aa 65 3d
       -0.033713844 0.049728826 0.0560707
