Assets/Brains/ArvidTests/balance9/Zombie Walker/Zombie Walker-19499984.onnx (onnx, 207976 bytes, 7 tensors)

network_body._body_endoder.seq_layers.0.weight f4 [128, 228]
0	0x3daf2282	0.08551504
1	0x3f671efd	0.9028166
2	0xbf7571e0	-0.95876884
3	0xbe44eb7f	-0.1923046
4	0x3d19a15e	0.037507407
5	0x3ed87647	0.42277738
6	0xbe906d12	-0.28208214
7	0xbe3907f8	-0.18069446
8	0x3eb48dfb	0.35264573
9	0x3e25520f	0.16144584
10	0x3f8781aa	1.0586445
11	0x3f8aa4e8	1.0831575
12	0xbe9ad237	-0.30238506
13	0x3d8f1f08	0.069883406
14	0x3e6950d2	0.22784737
15	0x3f5c49c3	0.8605005
16	0x3e908a31	0.28230432
17	0x3dfddb83	0.12395384
18	0xbedb9c45	-0.42892662
19	0xbe9a84c6	-0.30179423
20	0xbdd0b7df	-0.10191321
21	0xbf1c1351	-0.60966974
22	0x3e887ce5	0.26657787
23	0xbfbb3e9d	-1.4628483
24	0xbec57487	-0.38565466
25	0x3f13c4f7	0.5772242
26	0xbf71a4d7	-0.9439215
27	0xbf2cf531	-0.6756163
28	0xbdf40f7b	-0.11917015
29	0x3cabbfdd	0.020965511
30	0x3ecbebb6	0.3982827
31	0x3e5d4063	0.21606593
32	0x3f8438a4	1.0329785
33	0x3bd75057	0.0065708566
34	0x3ea750df	0.32678887
35	0x3cee38a3	0.02907974
36	0xbf4fdcf2	-0.8119651
37	0x3f70d21c	0.940706
38	0x3e9caa2e	0.30598587
39	0x3e9c9622	0.30583292
40	0x3e815168	0.2525742
41	0xbf602eba	-0.875713
42	0xbf976d7e	-1.1830289
43	0xbc1f6dff	-0.009730815
44	0x3e11da57	0.14243446
45	0x3f917373	1.1363357
46	0xbec6450e	-0.3872456
47	0x3d247b9a	0.040156938
48	0xbed3e1ca	-0.413832
49	0x3f077496	0.5291227
50	0xbefe4656	-0.49663037
51	0xbf107a81	-0.56436926
52	0xbc4e97aa	-0.012609402
53	0x3e0fac27	0.14030515
54	0x3f65bf04	0.8974459
55	0xbe1e343c	-0.15449613
56	0xbf553397	-0.83281845
57	0xbf6e3cda	-0.930616
58	0xbec18f1f	-0.37804505
59	0xbe4dcb6b	-0.20097129
60	0x3d90d226	0.07071333
61	0xbe3db3c3	-0.18525605
62	0x3eb19aed	0.34688511
63	0xbdaed97c	-0.085375756
64	0xbe3e7da1	-0.18602611
65	0x3f090e7a	0.53537714
66	0x3f646bb7	0.8922686
67	0xbeba6203	-0.36402902
68	0x3e6010ec	0.21881455
69	0xbf6c6be9	-0.9235216
70	0xbf118b52	-0.5685321
71	0xbf6a7d64	-0.9159758
72	0xbe7e6c6a	-0.24846044
73	0xbd295135	-0.04133721
74	0xbe320117	-0.17383228
75	0xbea1d0fc	-0.31604755
76	0xbe28130c	-0.16413516
77	0x3ea8195c	0.32831848
78	0x3e04b4b8	0.12959564
79	0xbe814b8c	-0.2525295
80	0x3e4a08cc	0.19729918
81	0x3f6fbd42	0.9364816
82	0x3e1569e4	0.14591175
83	0xbf6ee086	-0.93311346
84	0xbf74f1db	-0.9568154
85	0xbf0c198c	-0.5472648
86	0xbf6fbacc	-0.93644404
87	0xbf329fd0	-0.69775105
88	0xbd050dec	-0.03248398
89	0xbf0330f8	-0.51246595
90	0xbe3ca123	-0.18420844
91	0xbeebd619	-0.4606178
92	0xbf74da4d	-0.956456
93	0xbea12843	-0.3147603
94	0xbe8181a1	-0.25294212
95	0x3e662843	0.22476296
96	0x3f5d8138	0.865253
97	0x3e967fd8	0.29394412
98	0x3f60d670	0.87827206
99	0xbf26bca1	-0.65131575
100	0x3ecc60ab	0.39917502
101	0xbf64bf5e	-0.89354503
102	0xbeafae8a	-0.3431285
103	0x3c2c2caf	0.0105087
104	0xbcbd5778	-0.023112997
105	0x3f4a6ed2	0.7907535
106	0x3d0df2f5	0.03465553
107	0xbea8fbb7	-0.33004543
108	0x3ef8f12e	0.48621505
109	0xbe9eb6d2	-0.30998856
110	0xbf1d51a5	-0.61452705
111	0x3f6c912a	0.92409
112	0xbef5dfe8	-0.4802239
113	0xbebffa02	-0.37495428
114	0x3c8d045f	0.017213998
115	0xbf236119	-0.63820034
116	0xbf7d6cb7	-0.9899401
117	0xbf43f114	-0.7653973
118	0xbcff14e2	-0.031137887
119	0xbe1b6702	-0.15176013
120	0x3f35021b	0.7070634
121	0xbd4ebe2e	-0.05047434
122	0x3d9b06ae	0.075696334
123	0x3d0ac81f	0.033882257
124	0xbea07311	-0.3133779
125	0xbf1d0b63	-0.613455
126	0x3f675800	0.9036865
127	0xbe19333b	-0.14960949
128	0xbeea4f71	-0.45763734
129	0xbf2819cd	-0.6566437
130	0xbc37cd17	-0.011218331
131	0xbf5efc84	-0.8710406
132	0xbf49da10	-0.7884836
133	0xbd897e87	-0.06713586
134	0x3d18dc91	0.037319724
135	0x3e669375	0.22517188
136	0xbe5bf362	-0.21479562
137	0x3e575c8b	0.21031396
138	0x3dd3e38f	0.10346138
139	0x3f049bb9	0.51800114
140	0xbf3a07e2	-0.7266828
141	0x3f50ae14	0.8151562
142	0xbebe6eec	-0.37194002
143	0xbb845d09	-0.004039411
144	0xbe9a1a04	-0.30097973
145	0x3f12bb45	0.57317
146	0xbf6ec654	-0.93271375
147	0xbf88081b	-1.0627474
148	0xbee66a22	-0.45002848
149	0xbf2f06cb	-0.6836974
150	0x3f0b8a90	0.54508305
151	0xbe94c4d3	-0.29056415
152	0xbf0675b4	-0.5252335
153	0x3d5ddf18	0.054167837
154	0x3de7c116	0.11316125
155	0x3ef74234	0.48292696
156	0xbf5cfd07	-0.8632359
157	0x3ea38e29	0.31944397
158	0xbf52cf4f	-0.8234758
159	0xbf14259c	-0.5786989
160	0xbd509961	-0.050927524
161	0xbf4f3a66	-0.80948484
162	0xbf606506	-0.8765415
163	0xbf1898f6	-0.596084
164	0xbed24135	-0.41065374
165	0x3f105b34	0.56389165
166	0xbc575e56	-0.01314505
167	0xbdaf17ce	-0.08549462
168	0x3cc1d665	0.023661802
169	0xbf10a3a0	-0.5649967
170	0x3edb5832	0.42840725
171	0xbe9868f6	-0.2976758
172	0xbecd99b4	-0.4015633
173	0xbf16ace5	-0.58857566
174	0xbf34ce24	-0.70627046
175	0xbf1c1d23	-0.6098196
176	0xbf5bbb15	-0.8583234
177	0xbf2c1006	-0.6721195
178	0xbeeb6b6b	-0.4598039
179	0xbecc6e8c	-0.3992809
180	0x3e85c820	0.26129246
181	0xbe008c43	-0.12553506
182	0xbd5c3e09	-0.0537701
183	0x3db9a601	0.09064866
184	0xbe9948ff	-0.29938504
185	0x3f1484d4	0.5801518
186	0x3eb4e72c	0.3533262
187	0xbe1aba82	-0.1511021
188	0xbd91849c	-0.07105371
189	0x3ef2e873	0.4744297
190	0x3f05f9c8	0.5233426
191	0xbd12ef74	-0.03587289
192	0xbe8efeb2	-0.27928692
193	0x3e911225	0.28334156
194	0x3f291ea3	0.6606237
195	0xbf3588b4	-0.7091172
196	0xbed988be	-0.42487139
197	0x3f03dd27	0.51509327
198	0xbec57e27	-0.3857281
199	0x3ec6b56d	0.38810292
200	0xbe801e21	-0.25022987
201	0xbf51d569	-0.81966263
202	0xbfaf5325	-1.3697249
203	0x3e34b932	0.17648771
204	0x3f1dc148	0.6162305
205	0x3f00d222	0.5032064
206	0xbe8e7af9	-0.27828196
207	0x3e97bd2c	0.29636514
208	0x3de48b57	0.111593895
209	0xbd0e0e16	-0.034681402
210	0xbeaca8da	-0.33722574
211	0xbf0b899b	-0.54506844
212	0x3e3eea9e	0.18644187
213	0xbf4611e1	-0.7737103
214	0x3f9c4f8c	1.2211776
215	0x3d2625d2	0.040563412
216	0xbf25a92a	-0.6471125
217	0xbef09885	-0.46991363
218	0x3f1a9272	0.6037971
219	0x3e80d0c8	0.25159287
220	0x3eb7f074	0.3592564
221	0xbe949549	-0.29020146
222	0x3e94853e	0.29007906
223	0x3e0aba2e	0.13547584
224	0xbdfe5f65	-0.12420539
225	0x3db23385	0.08701233
226	0xbf0bbe6c	-0.54587436
227	0xbea31537	-0.31852123
228	0x3e89cecb	0.26915583
229	0x3eb4a5cf	0.35282752
230	0xbf9422d8	-1.1573133
231	0xbe773cce	-0.24144289
232	0x3e1ae958	0.15128076
233	0x3eba1726	0.36345786
234	0xbde15e36	-0.110042974
235	0x3e233892	0.15939549
236	0xbe1853c2	-0.14875701
237	0xbe493d79	-0.19652356
238	0x3e87f628	0.2655499
239	0x3e078699	0.13234939
240	0x3ca208ff	0.01977968
241	0xbedbdb1e	-0.4294061
242	0xbdeeefd6	-0.11666839
243	0x3f0d7fef	0.55273336
244	0x3d7604b3	0.060063075
245	0xbc3d4753	-0.01155265
246	0xbdcdf420	-0.10056329
247	0x3e444589	0.1916715
248	0xbe395c0b	-0.18101518
249	0xbf43da9b	-0.7650544
250	0x3dcb85f9	0.09937663
251	0xbef4001d	-0.47656336
252	0xbd99d255	-0.07510821
253	0x3e9a604b	0.3015159
254	0xbf86e378	-1.0538168
255	0xbf4dae4e	-0.8034409

network_body._body_endoder.seq_layers.0.bias f4 [128]
0	0xbf65eff4	-0.89819264
1	0xbf881294	-1.063067
2	0xbe18ab9f	-0.14909218
3	0xbf09c54e	-0.5381669
4	0xbeb4c4fb	-0.35306534
5	0xbf503021	-0.8132344
6	0xbf49a573	-0.7876808
7	0xbf701921	-0.93788344
8	0xbf89da88	-1.0769815
9	0xbe75c960	-0.240026
10	0xbe862e79	-0.2620733
11	0xbf010f32	-0.5041381
12	0xbf79d3c9	-0.97588784
13	0xbf929f3a	-1.1454842
14	0xbe704fc7	-0.23467933
15	0xbdbf0565	-0.09327201
16	0xbf42bb08	-0.7606664
17	0xbf6bdecb	-0.9213683
18	0xbea9c346	-0.33156794
19	0xbedc6e10	-0.4305272
20	0xbf6fc340	-0.936573
21	0xbf30d28e	-0.6907128
22	0xbf4a1ed8	-0.78953314
23	0xbf11e4fe	-0.5699004
24	0xbf116e4a	-0.5680891
25	0xbf53860a	-0.826264
26	0xbf0dd5b5	-0.55404216
27	0x3df7527c	0.120762795
28	0xbf8087be	-1.0041425
29	0xbf71cd6f	-0.9445409
30	0xbf7ddd94	-0.99166226
31	0xbf4d5362	-0.8020536
32	0xbf74f01c	-0.9567888
33	0xbf308894	-0.689584
34	0xbf6d73e7	-0.9275498
35	0xbf7c7c7c	-0.9862745
36	0xbf77426c	-0.96585727
37	0xbf64d6f6	-0.89390504
38	0xbf87ca17	-1.0608548
39	0xbd756867	-0.05991402
40	0xbf8d2a8b	-1.1028608
41	0xbee1e9e6	-0.44123763
42	0xbf77f324	-0.9685538
43	0xbefde1b2	-0.49586254
44	0xbf80d56b	-1.006513
45	0xbf6a0bca	-0.9142424
46	0xbf598db7	-0.84981865
47	0xbf5b1c04	-0.85589623
48	0xbdbefdbc	-0.0932574
49	0xbf739c7c	-0.9516065
50	0xbf455bd9	-0.77093273
51	0xbf42c653	-0.7608387
52	0xbf816f0f	-1.0112017
53	0xbf5f79ff	-0.87295526
54	0xbf880d63	-1.0629085
55	0xbe8eab73	-0.2786518
56	0xbebb4e46	-0.36583155
57	0xbe97ffaa	-0.29687244
58	0xbf5776db	-0.84165734
59	0xbf70bcb5	-0.94037944
60	0xbd495db0	-0.049161613
61	0xbf193d70	-0.5985937
62	0xbf765e89	-0.96238
63	0xbed1b31b	-0.4095696
64	0xbe01bc82	-0.12669566
65	0xbf75a5bd	-0.9595602
66	0xbf774c86	-0.9660114
67	0xbf87d588	-1.061204
68	0xbf8c1d18	-1.0946379
69	0xbf6b09fe	-0.9181212
70	0xbf6fa8ac	-0.9361675
71	0xbebbaa55	-0.3665339
72	0xbdeed188	-0.11661059
73	0xbf87fec8	-1.0624628
74	0xbf7619b3	-0.96132964
75	0xbf35d5b0	-0.71029186
76	0xbeba3de2	-0.36375338
77	0xbebf8082	-0.3740273
78	0xbf7c3387	-0.98516124
79	0xbefab8b8	-0.48969054
80	0xbf158a21	-0.58413893
81	0xbf66cf85	-0.901604
82	0xbf86ca8a	-1.053056
83	0xbe8a6aa4	-0.27034485
84	0xbe6b3e81	-0.22973062
85	0xbf1d18c6	-0.61365926
86	0xbf64a456	-0.89313257
87	0xbecbe2b4	-0.39821398
88	0xbec75ecd	-0.38939515
89	0xbf803661	-1.0016595
90	0xbf821781	-1.0163423
91	0xbf5d022c	-0.8633144
92	0xbecb6db9	-0.3973215
93	0xbf6c54e7	-0.9231705
94	0xbf5ae0a2	-0.8549901
95	0xbf89953f	-1.0748671
96	0xbf66f946	-0.9022411
97	0xbf849277	-1.0357198
98	0xbf857cb4	-1.0428681
99	0xbf877cb3	-1.058493
100	0xbf7ff899	-0.99988705
101	0xbf178e61	-0.5920163
102	0xbf6ff3c7	-0.9373135
103	0xbe66e0a3	-0.2254663
104	0xbf91cdb2	-1.1390898
105	0xbcc30108	-0.023804203
106	0xbf82f188	-1.022996
107	0xbf811586	-1.0084693
108	0xbf367b31	-0.71281725
109	0xbf748247	-0.9551129
110	0xbf856f8b	-1.0424665
111	0xbf937a8b	-1.1521772
112	0xbf03b7b4	-0.51452184
113	0xbf7acc38	-0.97967863
114	0xbeca25e9	-0.39482048
115	0xbf77cd6e	-0.96797836
116	0xbf0a0507	-0.5391392
117	0xbf834575	-1.0255572
118	0xbf868b7f	-1.0511321
119	0xbf7b6303	-0.98197955
120	0xbf8524fb	-1.040191
121	0xbf7084eb	-0.93952817
122	0xbf7dd2e2	-0.99149907
123	0xbec334a1	-0.3812609
124	0xbf83e443	-1.0304035
125	0xbf38bad0	-0.72160053
126	0xbf7925ae	-0.9732312
127	0xbee2be7f	-0.44285962

network_body._body_endoder.seq_layers.2.weight f4 [128, 128]
0	0xbd1c129b	-0.03810368
1	0x3d881483	0.06644537
2	0x3ebf5549	0.37369755
3	0xbe8d9dd8	-0.27659488
4	0xbf6dcc5c	-0.9288995
5	0x3e2da719	0.16958274
6	0xbe86814c	-0.2627052
7	0xbd4eeec0	-0.05052066
8	0x3ec08433	0.3760086
9	0xbcc81a4f	-0.024426607
10	0xbe80f58b	-0.25187334
11	0xbf0c40ca	-0.5478636
12	0x3df582d1	0.11987842
13	0x3e56df38	0.20983589
14	0x3f2c9233	0.6741058
15	0x3f7e3497	0.99298996
16	0xbef30ba2	-0.47469813
17	0xbd7ae6a9	-0.06125513
18	0xbe54e616	-0.20790896
19	0xbef06e11	-0.46958974
20	0xbe2668fa	-0.16250983
21	0x3eeef65e	0.46672338
22	0x3c91a98f	0.017781047
23	0x3e89c3e8	0.26907277
24	0x3eca5342	0.39516646
25	0x3d802dce	0.062587366
26	0xbe59c8aa	-0.21267954
27	0xbf96f139	-1.1792365
28	0xbf262ef8	-0.6491542
29	0x3d97ab17	0.0740568
30	0xbc6fe34d	-0.014641595
31	0xbef376e0	-0.47551632
32	0xbd835b89	-0.06413943
33	0xbe398cf5	-0.18120177
34	0x3d8be20f	0.06830227
35	0x3f16e211	0.589387
36	0x3e3776c1	0.17916395
37	0xbeebf7b5	-0.46087423
38	0xbdfdbb7e	-0.12389277
39	0x3dadcae7	0.08485966
40	0x3cb43f5e	0.022002872
41	0x3e880865	0.26568905
42	0x3d19f2ec	0.037585184
43	0x3e55cd8a	0.20879188
44	0xbf01833c	-0.5059087
45	0xbf926f8b	-1.144029
46	0xbd57572b	-0.052573364
47	0x3e8dfa52	0.27730042
48	0x3f532159	0.8247276
49	0xbe042a9e	-0.12906882
50	0x3da0eb3a	0.07857366
51	0xbe9b1356	-0.3028819
52	0x3d84448d	0.064583875
53	0xbf044827	-0.51672596
54	0xbddf4ba6	-0.10903101
55	0x3f01d68b	0.5071799
56	0xbf39bc81	-0.7255326
57	0x3e773119	0.24139823
58	0xbef5bbb0	-0.47994757
59	0xbe7afd4b	-0.24510686
60	0xbdb5778b	-0.08860692
61	0xbef7b9e8	-0.48384023
62	0x3e624dc3	0.22099976
63	0xbf2fdf6b	-0.68700284
64	0x3e41147e	0.18855473
65	0xbbda7d00	-0.006667733
66	0xbe447acd	-0.1918747
67	0x3e6f8b07	0.23392878
68	0x3e8f08d2	0.27936417
69	0xbe3e89f8	-0.18607318
70	0xbddfcb92	-0.109275
71	0x3e84f580	0.25968552
72	0x3f3efd81	0.74605566
73	0x3cefb59a	0.029261399
74	0x3d74d0b1	0.059769336
75	0xbf08ed0e	-0.53486717
76	0x3e05e8d4	0.13077098
77	0xbec5bb4f	-0.38619468
78	0x3daaef46	0.08346419
79	0xbe1e5e46	-0.1546565
80	0xbc03a8be	-0.008035837
81	0x3e4b9415	0.19880708
82	0xbe28bd12	-0.16478375
83	0x3e610753	0.2197545
84	0x3dda7491	0.106667645
85	0x3e6655a0	0.22493601
86	0xbeb28e52	-0.34874207
87	0xbe550a40	-0.20804691
88	0x3e80c449	0.25149754
89	0x3e96ab7b	0.29427704
90	0xbe84e887	-0.25958654
91	0xbf1991b8	-0.59987974
92	0x3d242dab	0.040082615
93	0x3e5a3da3	0.21312575
94	0x3e85942a	0.26089603
95	0xbf04c798	-0.51867056
96	0x3f32b375	0.6980508
97	0x3e2e197e	0.17001912
98	0xbce3e3d5	-0.0278186
99	0x3ee936ca	0.45549613
100	0xbe7046ec	-0.23464555
101	0x3def2525	0.11677007
102	0x3e121578	0.14266002
103	0x3f0b0ec0	0.5431938
104	0x3df7ff34	0.12109223
105	0xbf7f6822	-0.9976827
106	0x3e88632c	0.26638162
107	0xbe56094e	-0.20901987
108	0xbece841d	-0.4033517
109	0xbe415859	-0.18881358
110	0x3d428947	0.0474942
111	0x3e93a766	0.28838652
112	0xbf4c778f	-0.7986993
113	0xbec1ffac	-0.37890375
114	0x3da195d7	0.07889908
115	0x3ea82bc6	0.32845896
116	0xbec7d477	-0.39029285
117	0xbe8b8b7c	-0.27254856
118	0x3ee043a0	0.43801594
119	0xbd529f21	-0.05142129
120	0xbececeb7	-0.40392086
121	0x3d54fbb5	0.05199786
122	0xbb959320	-0.004564658
123	0x3eb89748	0.36052918
124	0x3e592d4d	0.21208687
125	0x3e84fc71	0.25973848
126	0x3e187da8	0.14891684
127	0x3ee2b413	0.4427801
128	0x3e6fa440	0.234025
129	0x3d650d8a	0.055921115
130	0x3de1fd80	0.110346794
131	0x3f01a48a	0.5064169
132	0x3e884669	0.2661622
133	0xbf1982da	-0.5996529
134	0x3e534b5b	0.20634215
135	0xbe02cd03	-0.12773518
136	0xbe60af68	-0.21941912
137	0x3e7aae20	0.24480486
138	0x3e32f520	0.1747632
139	0x3e5daba4	0.21647507
140	0x3e0b7a1d	0.13620801
141	0x3d9bf719	0.076154895
142	0x3ea28cd5	0.3174807
143	0xbf22b248	-0.63553286
144	0xbeff6e64	-0.4988891
145	0xbe13a519	-0.14418449
146	0x3d9a3284	0.07529166
147	0xbf288993	-0.6583492
148	0x3ebfec88	0.37485147
149	0xbec2d4ec	-0.38053071
150	0xbeaac677	-0.33354542
151	0x3ed75cf4	0.42063105
152	0xbe33fe58	-0.17577493
153	0xbcdc6806	-0.026905071
154	0xbe614a73	-0.22001056
155	0x3eb55a33	0.3542038
156	0xbe3fb3dc	-0.18720955
157	0x3e6f1d0b	0.23350923
158	0x3e9b07e4	0.30279458
159	0x3e7feb4c	0.24992102
160	0x3d5d0b07	0.053965595
161	0xbecbae17	-0.39781258
162	0xbea10c4e	-0.314547
163	0xbcff1002	-0.031135563
164	0x3e86c0fa	0.26319104
165	0x3f04baae	0.5184735
166	0x3dc04dfb	0.093898736
167	0xbd0cbb11	-0.034358088
168	0x3f278bb7	0.6544756
169	0xbe2eaf42	-0.17059043
170	0x3e4a5d45	0.19762142
171	0xbe87c60e	-0.2651829
172	0x3eb946fc	0.3618697
173	0xbf2940b3	-0.6611435
174	0x3eea08e2	0.45709902
175	0x3deeebdd	0.11666081
176	0x3d02a201	0.03189278
177	0x3efab8ee	0.48969215
178	0xbeb7868c	-0.3584484
179	0xbd7318c0	-0.059349775
180	0xbe41354f	-0.18867992
181	0x3dbbeba9	0.09175808
182	0xbebe05d4	-0.37113822
183	0xbf1f7755	-0.6229146
184	0xbeeef422	-0.46670634
185	0xbe5f75d7	-0.21822296
186	0x3d5cdce8	0.05392161
187	0x3ed6cab8	0.41951537
188	0xbf04e7cf	-0.5191621
189	0xbe27d288	-0.16388905
190	0x3e0674c3	0.13130479
191	0xbe6d8492	-0.23195103
192	0xbed3d557	-0.41373703
193	0xbecbb923	-0.39789686
194	0x3e1e60a1	0.15466549
195	0xbe5122ef	-0.20423482
196	0x3ea48334	0.3213135
197	0xbd98ea34	-0.07466546
198	0x3ec6ea3c	0.38850582
199	0x3d876e7e	0.066128716
200	0xbd84e794	-0.064894825
201	0x3e515cbf	0.20445536
202	0xbe96efcf	-0.29479834
203	0xbed0a857	-0.40753433
204	0xbeba2834	-0.36358798
205	0xbf9cba9c	-1.2244449
206	0xbe8beb69	-0.2732804
207	0x3d8c5723	0.068525575
208	0xbeaa0a6a	-0.3321107
209	0x3e138bef	0.14408849
210	0x3f1e6d30	0.61885357
211	0x3eeb4307	0.45949575
212	0xbf0a2399	-0.5396057
213	0xbf63924f	-0.88895124
214	0xbccc8a59	-0.024968313
215	0x3f0a6d22	0.54072773
216	0xbe4d4444	-0.20045573
217	0x3e9eeba2	0.3103915
218	0x3f117781	0.56822973
219	0x3f1372cf	0.5759706
220	0xbf90950c	-1.1295485
221	0xbeac3de6	-0.33640975
222	0x3d880a58	0.06642598
223	0xbd4c57a4	-0.049888268
224	0x3f01044b	0.50397176
225	0xbd4d4d72	-0.050122686
226	0x3d89afa7	0.06722956
227	0x3e04fcc8	0.12987053
228	0xbf128646	-0.57236135
229	0x3e809d6f	0.25120112
230	0x3f2b6c16	0.669618
231	0x3ebc565b	0.36784634
232	0xbe455077	-0.19268976
233	0xbdc37523	-0.095438264
234	0x3f1aeaeb	0.60514706
235	0x3e91b5f7	0.2845914
236	0x3d76ce08	0.06025508
237	0x3ea72a29	0.32649353
238	0x3dbf7876	0.09349148
239	0xbc79f543	-0.015256229
240	0x3e13f01e	0.14447066
241	0x3dc48ba8	0.0959695
242	0xbee185ce	-0.44047397
243	0xbbbce403	-0.005764486
244	0x3f295b96	0.66155374
245	0x3eca8428	0.39553952
246	0x3e29d498	0.16585004
247	0xbe3eba60	-0.18625784
248	0x3e61a752	0.22036484
249	0xbcfc5a6f	-0.03080484
250	0x3eb1e623	0.34745893
251	0x3ee9d6ff	0.45671842
252	0x3e9434b4	0.2894646
253	0xbed2eb53	-0.41195163
254	0xbe99663f	-0.2996082
255	0xbf761a5c	-0.9613397

network_body._body_endoder.seq_layers.2.bias f4 [128]
0	0xbefac641	-0.4897938
1	0xbfbe387c	-1.4860988
2	0xbfc69b83	-1.5516208
3	0x4051815d	3.2735207
4	0xbf3b1daa	-0.7309214
5	0xbf3b20dd	-0.7309702
6	0xbe95d867	-0.29266664
7	0xbf7fa916	-0.9986738
8	0xbf853dd8	-1.0409498
9	0xbfd04738	-1.6271734
10	0x3f08b0b3	0.5339462
11	0x3e1bd4ab	0.15217845
12	0xbf10ced0	-0.5656557
13	0xbe4ee560	-0.20204687
14	0xbfaef9cb	-1.3669981
15	0xbf50b104	-0.81520104
16	0xbf8bfb62	-1.0936091
17	0xbf196f8e	-0.59935844
18	0x3e98e23c	0.29860103
19	0xbf103536	-0.56331193
20	0xbdfa7ebe	-0.122312054
21	0xbee5d226	-0.44886893
22	0xbed809a5	-0.42194858
23	0xbf867055	-1.0503031
24	0xbff62fd0	-1.9233341
25	0x3e06c949	0.13162722
26	0xbfa5f521	-1.2965432
27	0xbfa0198b	-1.2507795
28	0xbece83c6	-0.4033491
29	0xbfa558e6	-1.2917755
30	0xbf572b26	-0.84050214
31	0xbf96fe13	-1.1796287
32	0xbf1435a2	-0.5789434
33	0xbf83b7d7	-1.0290478
34	0xbf828e69	-1.019971
35	0x4008fb20	2.1403275
36	0xbf90995f	-1.1296805
37	0x3f57ac04	0.8424685
38	0xbf015b71	-0.50530154
39	0xbf1f5c3f	-0.6225013
40	0xbfa49977	-1.2859334
41	0xbe320fba	-0.17388812
42	0xbe00ca79	-0.12577237
43	0xbfc163f4	-1.5108628
44	0xbff4dc47	-1.9129723
45	0xbf9e998d	-1.239061
46	0x3edf8d08	0.43662286
47	0xbf38ac6f	-0.7213811
48	0xbfa5c992	-1.2952139
49	0xbf3b87ea	-0.73254263
50	0xbf9ce963	-1.2258724
51	0xbf80e8da	-1.0071061
52	0xc0023075	-2.0342076
53	0x3f356ae0	0.70866203
54	0xbfbf9a21	-1.4968911
55	0xbfd91c15	-1.6961695
56	0xbfa8b104	-1.3179021
57	0xbdb6fa58	-0.08934468
58	0x3f5734f6	0.84065187
59	0xbf1f4b2d	-0.62224084
60	0xbe8e0ecb	-0.2774566
61	0xbfa8e5f9	-1.3195182
62	0xbed4ac1b	-0.41537556
63	0xbf93268e	-1.1496141
64	0xbfb39113	-1.4028648
65	0xbfcfbe1b	-1.622989
66	0xbf7e9ca2	-0.9945775
67	0x3d63a6a1	0.05557883
68	0xbf85f666	-1.046582
69	0x3eb55f80	0.35424423
70	0xbf4f7d6f	-0.8105077
71	0x3facdc1c	1.3504672
72	0xbf2bd3ce	-0.67120063
73	0xbf9a8b08	-1.2073679
74	0xbf9759a5	-1.1824232
75	0xbf8edf11	-1.1161824
76	0xbfcecc1f	-1.6156043
77	0x3e99f91d	0.3007287
78	0xbf85179d	-1.0397831
79	0x3e5640d3	0.20923166
80	0xbf18546e	-0.5950383
81	0xbf609766	-0.87731016
82	0xbf64f8a8	-0.8944192
83	0xbfb03a99	-1.3767883
84	0xbfa02d41	-1.251381
85	0xbf85031e	-1.0391576
86	0xbfc1ffb4	-1.5156159
87	0xbfce9a54	-1.6140847
88	0xbfa053a2	-1.2525523
89	0xbf684e9a	-0.90744936
90	0xbf44e1d9	-0.76907116
91	0xbf97f154	-1.1870522
92	0xbeb33cf3	-0.35007438
93	0xc003c4f0	-2.058895
94	0x3a60c29b	0.00085739203
95	0xbfca1006	-1.578614
96	0xbf852c23	-1.0404094
97	0xbff0d68a	-1.8815472
98	0xbfe7159d	-1.8053471
99	0xbf08502a	-0.5324732
100	0xbfb727b9	-1.4308997
101	0xbfc53b87	-1.5408791
102	0x3f445c31	0.7670317
103	0xbfc05d97	-1.5028561
104	0xbe8042b5	-0.25050893
105	0xbf66fd92	-0.9023067
106	0xbf58942e	-0.84601104
107	0x3f2311e0	0.6369915
108	0x3e03e99c	0.12882084
109	0xbfb95d7e	-1.4481657
110	0xbf794e85	-0.97385436
111	0xbfdc7460	-1.7223015
112	0xbf8ab391	-1.0836049
113	0xbfb1e3d1	-1.3897649
114	0xbe23a8c0	-0.15982342
115	0xbe969bbb	-0.29415688
116	0xbf3b6287	-0.73197216
117	0xbd9d79cd	-0.07689247
118	0xbf1fca89	-0.6241842
119	0x3f66e004	0.9018557
120	0x3f8b2655	1.0871073
121	0xbfc1ba2f	-1.5134944
122	0xbfc79bde	-1.5594442
123	0xbf893869	-1.072034
124	0xbfbd6546	-1.4796531
125	0xbf9b7903	-1.2146305
126	0xbf8580f7	-1.0429982
127	0x3f09e4ce	0.53864753

action_model._continuous_distribution.log_sigma f4 [1, 39]
0	0xbfb004bf	-1.3751448
1	0xbf82c225	-1.0215498
2	0x40029354	2.0402422
3	0x3ff3352d	1.9000603
4	0x3f57cf29	0.84300476
5	0x4005e8d9	2.092337
6	0xc00fcbd0	-2.2468147
7	0xbf06c401	-0.5264283
8	0xc0214cff	-2.5203245
9	0xbff6b7b3	-1.927481
10	0xbf2dc59a	-0.6787964
11	0x4018db95	2.3884022
12	0x4010a087	2.2597978
13	0x3ffa6625	1.9562422
14	0x3fbf58f3	1.494902
15	0xbe84f834	-0.25970614
16	0xbf78d3da	-0.9719826
17	0xbf549eb6	-0.83054674
18	0xbfd6e3a6	-1.6788223
19	0xbfc8f59a	-1.5699952
20	0x3efffc01	0.4999695
21	0xbfefd2a6	-1.873616
22	0xbf9c66f0	-1.2218914
23	0x3f2783c3	0.6543543
24	0xbe9faea3	-0.31187925
25	0x40186c77	2.3816202
26	0x3f87f40f	1.0621356
27	0x3f9792d0	1.1841679
28	0x400362cb	2.0529048
29	0x3e64ce99	0.22344436
30	0x3f58641b	0.8452775
31	0x3e4549b1	0.19266392
32	0x3f7b9842	0.982792
33	0x3f94bdd4	1.1620431
34	0x3f58cb0c	0.84684825
35	0x3fbd3e5a	1.4784653
36	0xbe7b71f8	-0.24555194
37	0x3e991607	0.29899618
38	0x3ea54f55	0.32287088

action_model._continuous_distribution.mu.weight f4 [39, 128]
0	0x3dbcca38	0.09218258
1	0xbe85d8e4	-0.26142037
2	0x3f6fa04e	0.9360398
3	0x3ef27840	0.47357368
4	0xbea0c640	-0.31401253
5	0x3e7eec0c	0.24894732
6	0xbe8617a7	-0.2618992
7	0x3ef45393	0.47720012
8	0x3f445b73	0.7670204
9	0xbe07b683	-0.13253216
10	0x3cd0e2e8	0.025498822
11	0x3d4e7e76	0.05041357
12	0x3d948803	0.07252505
13	0x3e6d9270	0.23200393
14	0xbf444f3e	-0.76683414
15	0xbed96049	-0.42456272
16	0x3e85f668	0.26164556
17	0xbecd565b	-0.40104946
18	0x3e8209c3	0.25398073
19	0xbf3e9a30	-0.7445402
20	0x3e30b22b	0.17255466
21	0xbdb838d1	-0.08995212
22	0x3f226cdc	0.63447356
23	0xbe5766ee	-0.21035358
24	0x3d9d2b7e	0.07674311
25	0xbe9e4831	-0.30914453
26	0xbf35d5b0	-0.71029186
27	0x3d9dda22	0.07707621
28	0x3f1800f6	0.59376466
29	0x3f5bd174	0.85866475
30	0xbdc78f73	-0.09744158
31	0x3f099be3	0.5375349
32	0xbca708d2	-0.020389948
33	0x3eac0e36	0.33604592
34	0x3e64bbb1	0.22337224
35	0xbe71cb63	-0.23612742
36	0x3f2a6106	0.66554296
37	0x3ed22ba8	0.41048932
38	0xbe8aed84	-0.27134335
39	0xbe89973d	-0.26873198
40	0x3e83565e	0.2565183
41	0x3f56579c	0.8372743
42	0x3e9f18aa	0.31073505
43	0xbe2e12e6	-0.16999397
44	0xbdd997b5	-0.10624639
45	0xbefc3850	-0.49261713
46	0x3e15d837	0.1463326
47	0xbeef3e1d	-0.46727076
48	0xbed1b886	-0.40961093
49	0x3eae2ad1	0.3401704
50	0x3e5d3f0f	0.21606086
51	0xbeb0c1af	-0.3452277
52	0xbf78c91f	-0.97181886
53	0xbf372b20	-0.7155018
54	0x3f1460ba	0.57960093
55	0x3ea3ed03	0.32016763
56	0x3f748b67	0.9552521
57	0x3f29fcd1	0.6640139
58	0xbec2eb4e	-0.38070148
59	0x3f49fd81	0.7890244
60	0xbeec5218	-0.46156383
61	0x3e1430df	0.14471768
62	0x3ec1525d	0.3775815
63	0x3e7f9f46	0.24963102
64	0xbecc737e	-0.39931864
65	0xbed79b9f	-0.42110917
66	0xbeb62bec	-0.35580385
67	0xbe85529d	-0.2603959
68	0x3f8dbf87	1.1074075
69	0xbf2f1d0e	-0.6840371
70	0x3f26efa7	0.6520943
71	0xbeb7d66a	-0.35905772
72	0xbdde6fef	-0.108611934
73	0xbe828db6	-0.25498742
74	0x3d877f04	0.06616023
75	0xbe0a557b	-0.1350917
76	0xbe1779a7	-0.147925
77	0x3ea8c70a	0.32964355
78	0x3e19ef39	0.15032662
79	0x3eddb5e1	0.43302825
80	0xbe4fdb17	-0.2029842
81	0x3d53cb5b	0.051707607
82	0xbed571ff	-0.41688535
83	0xbe362a2b	-0.17789523
84	0xbd88c48c	-0.06678113
85	0x3d860c2f	0.065452926
86	0x3f1e1380	0.61748505
87	0x3e997280	0.2997017
88	0x3ec85582	0.39127737
89	0xbed82aad	-0.4222006
90	0xbf44ae63	-0.76828593
91	0x3e599342	0.2124758
92	0xbf514472	-0.81745064
93	0x3e529beb	0.2056729
94	0x3eca816e	0.39551872
95	0x3ee9fa9c	0.45699012
96	0x3ded66a8	0.11591846
97	0x3ea01fb0	0.31274176
98	0xbe5c671e	-0.21523711
99	0xbe3d42b7	-0.18482481
100	0x3e3512fc	0.17683023
101	0xbfa938ca	-1.3220456
102	0xbee7c14c	-0.4526466
103	0xbed2876a	-0.41118938
104	0x3e866b6a	0.26253825
105	0xbe89f2e7	-0.26943132
106	0xbef3d348	-0.47622132
107	0xbfa6a6c8	-1.3019648
108	0x3f2ea921	0.6822682
109	0x3efda81e	0.49542326
110	0x3eeedb60	0.46651745
111	0xbe6c6300	-0.2308464
112	0xbd29368f	-0.041311797
113	0xbeb7b88e	-0.35882992
114	0xbf238010	-0.6386728
115	0xbec1c3a3	-0.3784457
116	0x3f026af8	0.5094447
117	0x3e0fcd71	0.14043213
118	0x3f8c2a57	1.0950421
119	0xbec07cba	-0.3759516
120	0x3e163124	0.14667183
121	0xbccfec3e	-0.025381204
122	0xbe495e0d	-0.19664784
123	0xbea7480a	-0.3267215
124	0x3dd73eab	0.1051
125	0xbf1a9835	-0.603885
126	0x3ebf67ee	0.3738398
127	0xbf76b34b	-0.9636733
128	0xbef278e7	-0.47357866
129	0x3d682c0f	0.056682643
130	0x3ebfc5ce	0.374556
131	0x3ddbc588	0.107310355
132	0x3ec412cd	0.38295594
133	0xbecec49a	-0.4038437
134	0xbe595b91	-0.21226336
135	0xbea66c5a	-0.3250454
136	0xbf4dd7e8	-0.8040757
137	0xbd2cf378	-0.042224377
138	0xbf620b8e	-0.8829888
139	0xbf489a38	-0.7836032
140	0xbf51747b	-0.8181836
141	0x3e83ce87	0.25743505
142	0xbead6d92	-0.33872658
143	0x3e959bc5	0.29220405
144	0x3da05930	0.07829511
145	0xbf45d840	-0.77283096
146	0xbd315833	-0.043297004
147	0xbf25b03b	-0.6472203
148	0xb9d150aa	-0.00039923686
149	0xbeaa1123	-0.332162
150	0xbf17f832	-0.5936309
151	0xbe90dd7c	-0.2829398
152	0x3e651a30	0.22373271
153	0x3ed4e9e7	0.41584703
154	0x3e2b5819	0.16732825
155	0xbe262282	-0.16224101
156	0x3eaca81b	0.33722004
157	0x3e5bf510	0.21480203
158	0x3f65e546	0.8980297
159	0x3e4fd9e0	0.20297956
160	0xbc98ae60	-0.018637836
161	0x3f5f7755	0.8729146
162	0xbb89a463	-0.0042005046
163	0xbf1783c4	-0.59185433
164	0xbeb7fbf4	-0.35934412
165	0x3f37a72a	0.7173945
166	0xbeb88fd4	-0.36047232
167	0x3e9aa380	0.30202866
168	0x3e7e3bba	0.24827471
169	0x3ecc9974	0.39960825
170	0x3f769bbe	0.96331394
171	0x3df079cd	0.11741982
172	0x3f030816	0.51184213
173	0x3eae1049	0.339968
174	0x3f117f19	0.5683456
175	0xbf177b9e	-0.59173
176	0xbea32272	-0.31862217
177	0x3e89bcff	0.26902005
178	0xbd625b4d	-0.055262852
179	0x3f1de5c8	0.61678743
180	0x3e1b70ac	0.151797
181	0xbf085b52	-0.53264344
182	0xbd933138	-0.07187122
183	0x3e5549f8	0.20828998
184	0xbeaebbde	-0.34127706
185	0x3e849928	0.258981
186	0x3ec0d3d4	0.37661612
187	0x3f0766ad	0.52891046
188	0x3df1419d	0.11780093
189	0xbe33f622	-0.17574361
190	0x3f27271d	0.6529406
191	0xbe54f96d	-0.20798273
192	0xbe0cb828	-0.13742125
193	0x3e100f9d	0.14068456
194	0xbed0efaf	-0.40807864
195	0xbfc462f6	-1.53427
196	0xbe13be38	-0.14428031
197	0xbad0b2dd	-0.0015922446
198	0x3ef117a4	0.4708835
199	0x3f232293	0.6372463
200	0x3f35cd08	0.7101598
201	0x3e0cbd19	0.1374401
202	0x3ee98e53	0.45616397
203	0xbdefebd6	-0.11714904
204	0x3e0f03bd	0.1396627
205	0x3eb15f37	0.34642956
206	0xbeb8185b	-0.35956082
207	0xbc0b2772	-0.008493291
208	0xbe53378d	-0.2062666
209	0x3de18a1e	0.11012672
210	0x3d4a35a6	0.04936757
211	0x3f6f92d6	0.9358343
212	0xbedddf33	-0.4333435
213	0x3f60ef54	0.87865186
214	0x3edaeb9e	0.42757887
215	0xbc1c35c4	-0.009534303
216	0x3e99461a	0.29936296
217	0x3ca1f37e	0.019769426
218	0x3f1ddc5d	0.6166437
219	0x3f30db33	0.6908447
220	0x3ec4c93a	0.38434774
221	0xbcdd85f5	-0.027041415
222	0xbed061f3	-0.4069973
223	0x3e9effe8	0.31054616
224	0x3ec71d49	0.3888953
225	0xbe8899eb	-0.2667993
226	0x3e37019f	0.17871712
227	0xbe9a8773	-0.30181465
228	0xbe7086e5	-0.23488958
229	0x3eab6aa2	0.33479792
230	0x3ebe5160	0.3717146
231	0x3ea3272e	0.3186583
232	0x3c14c34a	0.009079764
233	0xbeaa2f29	-0.33239105
234	0xbf261191	-0.64870554
235	0x3d52b652	0.051443405
236	0x3f3683a5	0.71294624
237	0xbd205711	-0.039145533
238	0x3e944255	0.28956857
239	0xbf3435cb	-0.7039458
240	0x3e63e8d2	0.22256783
241	0x3f13bbc5	0.5770839
242	0x3ed3de80	0.41380692
243	0x3e72f7b9	0.23727311
244	0xbf21a0a2	-0.6313573
245	0x3ddc1a4e	0.10747205
246	0xbe51133b	-0.20417492
247	0xbf2ed8f7	-0.6829981
248	0x3ecd55b8	0.4010446
249	0x3e58b2f7	0.2116202
250	0x3d8d9e03	0.06914904
251	0x3d8b3dda	0.067989066
252	0x3f58c9a1	0.8468266
253	0xbe4ffc9e	-0.2031121
254	0xbd5fb363	-0.054614436
255	0xbc85c89c	-0.01633101

action_model._continuous_distribution.mu.bias f4 [39]
0	0xbdbc1afe	-0.09184836
1	0xbc1461c8	-0.009056516
2	0x4063bf3c	3.558547
3	0xbfe5e031	-1.7959043
4	0xbf782660	-0.96933556
5	0x4028d09f	2.6377332
6	0xbdc2b25c	-0.095066756
7	0xbf9548ea	-1.1662877
8	0xbd34cd0d	-0.044140864
9	0x3f3c87f2	0.73644936
10	0xc041eb7a	-3.0299973
11	0xc0a0acbe	-5.0210867
12	0x4036553e	2.8489528
13	0x3f3d9aab	0.7406413
14	0x3f8964bf	1.073387
15	0x3fec9a97	1.8484677
16	0xbfbb52e4	-1.4634671
17	0xbea0a021	-0.3137217
18	0x3e2ddd98	0.16979063
19	0x3f11c344	0.56938577
20	0xc03cf01c	-2.952155
21	0xbe9ebd3e	-0.31003755
22	0xbf9214e0	-1.141262
23	0x40250a66	2.5787597
24	0x3f280d05	0.65644866
25	0xc024bb5c	-2.5739355
26	0x3fe63a4d	1.7986542
27	0x3fc2a7b1	1.5207425
28	0x401d70bc	2.4600058
29	0x3fb7fdb6	1.4374301
30	0x3f857679	1.042678
31	0x3ea875dd	0.32902423
32	0x3f44588c	0.7669761
33	0x3f6be29e	0.92142665
34	0x3fae715c	1.3628345
35	0x3ff7b03a	1.9350655
36	0x3f6d7aaf	0.92765325
37	0x3f8aa37d	1.0831143
38	0x3f73e734	0.9527466
