Assets/Brains/ArvidTests/fresh7/Zombie Walker/Zombie Walker-5000005.onnx (onnx, 222824 bytes, 7 tensors)

network_body._body_endoder.seq_layers.0.weight f4 [128, 257]
0	0xbdea8741	-0.11451579
1	0xbee90142	-0.45508772
2	0xbe5e0bac	-0.2168414
3	0x3c845723	0.016154831
4	0x3db17621	0.086651094
5	0x3da12cf4	0.07869902
6	0x3dd6d794	0.10490337
7	0x3ec75334	0.38930666
8	0xbe3e97fc	-0.18612665
9	0xba98cc62	-0.001165759
10	0xbdb62514	-0.08893791
11	0x3c7eaad7	0.015543661
12	0x3d0a73b6	0.033801757
13	0xbee8ea58	-0.4549129
14	0xbe9bb0a0	-0.30408192
15	0xbec71907	-0.38886282
16	0xbd6a897f	-0.057260033
17	0xbcde5f13	-0.027144944
18	0x3de67b0c	0.11253938
19	0x3d0d021d	0.034425844
20	0xbd9574be	-0.072976574
21	0x3dfe7506	0.12424664
22	0xbdcda1df	-0.1004064
23	0xbd987ea2	-0.07446028
24	0xbc29da1d	-0.010366944
25	0x3d5a9ff9	0.053375218
26	0xbd8910e5	-0.066926755
27	0xbed7de8d	-0.4216198
28	0xbe842509	-0.25809506
29	0x3daf1a8d	0.08549986
30	0xbea72de6	-0.32652205
31	0xbe8764c2	-0.2644406
32	0xbec55d79	-0.38547876
33	0x3cb61392	0.022226129
34	0xbe54cc99	-0.20781173
35	0x3e099e8e	0.1343939
36	0xbe39c722	-0.1814237
37	0xbd87b86b	-0.06626972
38	0xbd39e550	-0.045384705
39	0x3c58bb80	0.013228297
40	0xbe17a507	-0.14809047
41	0xbe69410c	-0.2277872
42	0xbd779c50	-0.060451806
43	0xbea18fb4	-0.3155495
44	0xbe041179	-0.1289729
45	0xbd8c85ae	-0.06861435
46	0x3d569f6f	0.05239814
47	0xbed4c1d6	-0.41554135
48	0xbe6f6d6c	-0.23381585
49	0x3ea050e9	0.3131173
50	0x3e400c49	0.18754686
51	0xbdf8cdf1	-0.12148655
52	0xbe42c6dd	-0.19021173
53	0x3ec62996	0.38703603
54	0xbed361b7	-0.41285488
55	0xbd20cd64	-0.039258376
56	0xbed1f48f	-0.41006896
57	0x3dd2c030	0.10290563
58	0xbe68285b	-0.22671644
59	0x3ed6995d	0.41913882
60	0xbeccd184	-0.40003598
61	0xbe19d401	-0.1502228
62	0xbeafbc1b	-0.343232
63	0xbc54fcdd	-0.01299974
64	0xbe8f6f28	-0.28014493
65	0xbe4270e4	-0.18988377
66	0x3e8a1028	0.2696545
67	0x3dce6dd9	0.100795455
68	0x3e8fc0ef	0.28076884
69	0x3b05f1d9	0.0020438342
70	0x3d105f06	0.03524687
71	0x3a8e9fa5	0.0010881318
72	0xbe0a49b9	-0.13504685
73	0x3e083b3c	0.13303846
74	0x3dad818b	0.08471974
75	0x3e94603c	0.2897967
76	0xbe4059bd	-0.18784232
77	0x3d978985	0.07399277
78	0xbe491fba	-0.19641009
79	0xbea87867	-0.3290436
80	0x3aaacca9	0.0013030964
81	0xbef75634	-0.48307955
82	0xbe81b508	-0.25333428
83	0x3eb15d86	0.34641665
84	0xbdf3b050	-0.11898863
85	0xbe002691	-0.12514712
86	0x3f07a230	0.52981853
87	0x3e27bd50	0.1638081
88	0x3d686f29	0.056746636
89	0x3cbdf3d1	0.02318755
90	0xbdf55b9d	-0.119803645
91	0xbd9b1e30	-0.07574117
92	0xbedc5fa5	-0.4304172
93	0x3cc654ea	0.024210412
94	0x3d282797	0.04105338
95	0xbe8047e5	-0.2505485
96	0xbe497b3f	-0.19675921
97	0x3cd83fe3	0.026397651
98	0xbf0b0d4d	-0.5431717
99	0xbe7786d0	-0.2417252
100	0x3e61b446	0.22041425
101	0x3d7876ee	0.060660295
102	0xbe0c34dd	-0.1369204
103	0x38e2c29c	0.000108127686
104	0x3de3afb5	0.11117498
105	0x3ddf5075	0.10904018
106	0xbe1cf768	-0.15328753
107	0xbe219500	-0.15779495
108	0xbe05c8a9	-0.13064827
109	0xbe78f160	-0.24310827
110	0xbd0f7107	-0.0350199
111	0x3e7d0db2	0.24712256
112	0xbe66fd3a	-0.22557536
113	0xbe5448f9	-0.20730962
114	0xbd8df24b	-0.06930979
115	0xbef7b860	-0.48382854
116	0xbecdb81e	-0.40179533
117	0x3e04b7d2	0.12960747
118	0xbd07a0dc	-0.03311239
119	0xbd918d0e	-0.07106982
120	0xbd1576ed	-0.03649037
121	0x3e57a24a	0.21058002
122	0x3a5dec9d	0.0008465739
123	0xbdb8aff1	-0.09017933
124	0x3d2764b2	0.040867515
125	0x3da131eb	0.07870849
126	0x3c46bb00	0.012129545
127	0xbeb8e237	-0.36110088
128	0xbd66efdc	-0.05638109
129	0xbe471a3f	-0.19443606
130	0x3d972124	0.07379368
131	0x3dbc19db	0.09184619
132	0xbebe3d2e	-0.3715605
133	0xbe9bf734	-0.3046204
134	0xbd3677c9	-0.04454783
135	0xbe315a79	-0.17319669
136	0xbef1e73c	-0.4724673
137	0x3e8b55d7	0.27213928
138	0x3c8204f3	0.0158715
139	0xbe19613d	-0.149785
140	0xbe0dc59b	-0.13844912
141	0x3c962313	0.018327272
142	0x3e4b1792	0.1983321
143	0xbec0a26f	-0.37623927
144	0xbcccea28	-0.025013998
145	0x3e84f113	0.25965175
146	0xbeada6e0	-0.33916378
147	0xbeab3b82	-0.33443838
148	0xbd1dac03	-0.03849412
149	0xbec57084	-0.38562405
150	0xbea1a14a	-0.31568366
151	0x3cf16883	0.02946878
152	0x3e50dbe6	0.20396385
153	0xbecb1478	-0.39664054
154	0x3db18892	0.08668627
155	0xbe051bd7	-0.12998901
156	0xbd6ffa5f	-0.05858838
157	0xbdfc8414	-0.123298794
158	0x3c2aa1c7	0.010414547
159	0x3d3d9d06	0.046292327
160	0x3ea313ad	0.3185095
161	0x3f007fea	0.5019518
162	0x3e031221	0.12799884
163	0xbe7b9b12	-0.24570873
164	0x3de84430	0.11341131
165	0x3ccd26a1	0.025042834
166	0xbee97084	-0.45593655
167	0xbebe23f6	-0.3713681
168	0xbe02b420	-0.12764025
169	0x3d8843df	0.066535704
170	0xbe7c41a4	-0.24634415
171	0x3e8da120	0.2766199
172	0xbe090eae	-0.13384506
173	0xbecb82f6	-0.39748353
174	0xbd944955	-0.072405495
175	0xbe434827	-0.19070493
176	0xbd4b4bff	-0.049633022
177	0xbdc2bdca	-0.09508856
178	0x3e36d3c9	0.17854227
179	0xbdb2f317	-0.08737772
180	0xbea08c59	-0.31357077
181	0xbb954861	-0.0045557474
182	0xbd79e05f	-0.061004993
183	0xbef129c0	-0.47102165
184	0xbea385a4	-0.31937897
185	0x3e4c3ccc	0.19945067
186	0x3ee9f1fc	0.45692432
187	0x3ea8a3c3	0.3293744
188	0xbde0fbd7	-0.10985535
189	0x3ebc26ab	0.3674825
190	0x3daa738a	0.083228186
191	0xbe79592e	-0.24350426
192	0xbe9f1db5	-0.31077352
193	0x3e23508e	0.15948698
194	0xbe975889	-0.29559734
195	0xbef55d3c	-0.47922695
196	0xbe5f6e64	-0.21819454
197	0xbf01fa4e	-0.5077256
198	0xbe083faf	-0.13305543
199	0xba92dfee	-0.0011205652
200	0xbf027509	-0.5095983
201	0xbea86082	-0.3288613
202	0x3e6638d4	0.22482616
203	0x3e9c0735	0.3047425
204	0x3ed01917	0.40644142
205	0xbdde35a4	-0.10850075
206	0x3eb0ceb6	0.34532708
207	0x3e728efa	0.23687354
208	0xbe864f29	-0.2623227
209	0x3d54cfd6	0.05195602
210	0x3e566ebc	0.2094068
211	0x3ce6f6dc	0.028193884
212	0xbeabe9da	-0.33576852
213	0xbeabdf14	-0.33568633
214	0xbdb73369	-0.089453526
215	0x3e94965a	0.2902096
216	0xbcec5845	-0.028850684
217	0x3caf5c6a	0.021406371
218	0x3dc53fa1	0.09631277
219	0x3e97cfde	0.29650778
220	0xbe0ba856	-0.13638434
221	0xbe8ec320	-0.27883244
222	0x3b6d8251	0.0036241005
223	0xbe5e8900	-0.21731949
224	0x3d2c6336	0.042086802
225	0xbda8fdb9	-0.08251519
226	0xbe22fbf8	-0.15916431
227	0xbe3dfd71	-0.18553711
228	0xbcd6f981	-0.02624202
229	0xbf0024e8	-0.50056314
230	0xbe8d9edc	-0.27660263
231	0xbc07b4fc	-0.008282896
232	0xbdc62e5f	-0.09676813
233	0x3e9b724f	0.30360648
234	0xbe84241a	-0.25808793
235	0xbe42295f	-0.18961094
236	0xbea06578	-0.31327415
237	0xbd00acd8	-0.031414837
238	0xbe75482b	-0.23953311
239	0x3dae2715	0.08503548
240	0xbde47d6e	-0.11156736
241	0xbe103b96	-0.1408523
242	0xbe0f3ed3	-0.1398881
243	0xbe5ab471	-0.21357895
244	0xbba5d1b0	-0.005060397
245	0xbd08d02f	-0.033401664
246	0xbee908a8	-0.45514417
247	0xbeab5ea4	-0.33470643
248	0xbe3589de	-0.17728373
249	0x3b84f369	0.004057337
250	0x3e3ee684	0.18642622
251	0xbe6028e0	-0.21890593
252	0xbd4ad9e1	-0.04952419
253	0xbe501fc8	-0.20324624
254	0xbdef996f	-0.11699187
255	0xbd5b41d9	-0.053529594

network_body._body_endoder.seq_layers.0.bias f4 [128]
0	0xbe719075	-0.23590262
1	0xbf101941	-0.56288534
2	0xbf068c1f	-0.5255756
3	0xbe3e0edf	-0.1856036
4	0xbebae70b	-0.36504397
5	0xbf01c66d	-0.506934
6	0xbeccbdcc	-0.39988554
7	0xbeb3a162	-0.35084063
8	0xbeb82af8	-0.35970283
9	0xbe36e7ac	-0.17861813
10	0xbeabeef0	-0.33580732
11	0xbefc7280	-0.49306107
12	0xbea83f6f	-0.32860896
13	0xbef0aa11	-0.4700475
14	0xbf00e33f	-0.5034675
15	0xbf588158	-0.8457236
16	0xbe15ee58	-0.14641702
17	0xbed1f7fb	-0.41009507
18	0xbc12fa4c	-0.008970808
19	0xbefea3ed	-0.4973444
20	0x3d5a0fc6	0.0532377
21	0xbf0354fc	-0.5130155
22	0xbe45e9cd	-0.19327469
23	0xbe2f37a0	-0.17111063
24	0xbeb1afd5	-0.34704462
25	0xbed92b43	-0.4241582
26	0xbea09559	-0.31363943
27	0xbf2cbd7f	-0.6747665
28	0xbeeb9465	-0.46011654
29	0xbefb73a6	-0.4911167
30	0xbecf25d3	-0.40458545
31	0xbe86daad	-0.2633871
32	0xbf416752	-0.7554828
33	0xbe1f4240	-0.15552616
34	0xbe731f0e	-0.23742315
35	0xbee45a36	-0.44600075
36	0xbf27ee9e	-0.65598476
37	0xbefa0a25	-0.48835865
38	0xbe5c8889	-0.21536459
39	0xbedec94d	-0.43512955
40	0xbeb249f9	-0.34822062
41	0xbf11a03d	-0.5688513
42	0xbdb34e9e	-0.087552294
43	0xbf057b41	-0.52141196
44	0xbdd8a6ac	-0.10578665
45	0xbdd268d0	-0.10273898
46	0xbe21279d	-0.15737768
47	0xbdbf1ef2	-0.09332074
48	0xbe3df744	-0.18551356
49	0xbefabb1b	-0.48970875
50	0xbf0cc6b7	-0.54990715
51	0xbca1cd9e	-0.019751366
52	0xbdbd57b7	-0.09245246
53	0xbcf70491	-0.030153545
54	0xbefa5ffe	-0.4890136
55	0xbe8e0229	-0.27736023
56	0xbec26362	-0.37966448
57	0xbe05aa6a	-0.13053289
58	0xbef86424	-0.485139
59	0xbeec7b24	-0.461877
60	0xbea12253	-0.314715
61	0x3c0806b4	0.008302379
62	0xbf0e14dd	-0.55500585
63	0xbd228aed	-0.03968327
64	0xbecb632c	-0.397241
65	0xbe788d30	-0.24272609
66	0xbeb3a7cd	-0.3508896
67	0xbebbdbac	-0.36691034
68	0xbef5dfd5	-0.48022333
69	0xbecab267	-0.39589235
70	0xbecabf7f	-0.39599225
71	0xbe4271f0	-0.18988776
72	0xbed8abb0	-0.42318487
73	0xbcd15330	-0.025552362
74	0xbeb5cb97	-0.3550689
75	0xbed50702	-0.4160691
76	0xbf3f9357	-0.748342
77	0xbde27378	-0.1105718
78	0xbe3b8492	-0.1831229
79	0xbf06a85e	-0.5260066
80	0xbe928fd0	-0.28625345
81	0xbea061a7	-0.31324503
82	0xbe25b7bc	-0.1618337
83	0xbd698d2e	-0.057019405
84	0xbee19985	-0.4406244
85	0xbef06eeb	-0.46959624
86	0xbe87ccb2	-0.26523358
87	0xbe994b65	-0.29940334
88	0xbf0a4cf1	-0.54023653
89	0xbec9fa5e	-0.39448828
90	0xbf0d4f89	-0.55199486
91	0xbf226544	-0.6343577
92	0xbf160933	-0.58607787
93	0xbefb3bfb	-0.490692
94	0xbeb4a712	-0.35283715
95	0xbe3288a2	-0.17434934
96	0xbe32eba0	-0.17472696
97	0xbefa0aeb	-0.48836455
98	0xbee5b206	-0.44862384
99	0xbf083d76	-0.5321878
100	0xbe8363d3	-0.25662097
101	0xbf08e56d	-0.53475076
102	0xbe1aec0e	-0.1512911
103	0xbee70492	-0.45120674
104	0xbeb91cfe	-0.36154932
105	0xbea19076	-0.31555527
106	0xbdccd0fb	-0.10000797
107	0xbeb9c231	-0.3628097
108	0x3d875c01	0.06609345
109	0x3c46a5a8	0.012124456
110	0xbef5bc2f	-0.47995135
111	0xbe32f0b5	-0.17474635
112	0xbf1b08e8	-0.60560465
113	0xbe708879	-0.2348956
114	0xbede1bde	-0.43380636
115	0xbeecbb07	-0.4623644
116	0xbdfc8466	-0.123299405
117	0xbebeb279	-0.3724554
118	0xbe76d84d	-0.2410595
119	0xbeee1423	-0.46499738
120	0xbf071505	-0.5276645
121	0x3d664aa8	0.05622354
122	0xbeed80ee	-0.46387428
123	0xbf19d423	-0.6008932
124	0xbe9a5a37	-0.30146953
125	0xbe994348	-0.29934144
126	0x3c8c240c	0.017107032
127	0xbe789b38	-0.24277961

network_body._body_endoder.seq_layers.2.weight f4 [128, 128]
0	0x3e74c563	0.23903422
1	0x3e2304f7	0.15919863
2	0xbf3c8ff2	-0.73657143
3	0xbe1b8913	-0.15189008
4	0x3d634baa	0.05549208
5	0xbf019853	-0.50623053
6	0x3cf1b6dc	0.02950614
7	0xbe8c0ed8	-0.27355075
8	0x3d65c5d6	0.056096874
9	0x3d94f4f4	0.072732836
10	0xbe7accb7	-0.24492155
11	0x3d403fa6	0.0469357
12	0x3e4c3845	0.1994334
13	0x3db6281d	0.0889437
14	0x3ccc226d	0.02491876
15	0xbe128ab7	-0.14310728
16	0xbe50d567	-0.20393907
17	0x3def606a	0.116883114
18	0xbf13e02a	-0.5776392
19	0x3e2a754e	0.1664631
20	0xbe53cca1	-0.20683528
21	0x3c7150e2	0.014728757
22	0x3ed7fc9f	0.42184922
23	0x3eba6352	0.364039
24	0x3e97bf2a	0.29638034
25	0x3dfe3ec4	0.12414315
26	0xbe6ece47	-0.23320876
27	0xbcc7b7c8	-0.024379626
28	0x3e390d87	0.18071567
29	0xbe654098	-0.22387922
30	0xbe2d0ed0	-0.16900182
31	0xbed19a09	-0.40937832
32	0x3c8cb21d	0.017174775
33	0xbf108dae	-0.56466186
34	0xbe60ad81	-0.21941186
35	0x3e9ab94f	0.30219504
36	0xbf0abc37	-0.54193443
37	0xbb91d37f	-0.004450261
38	0xbdd18e89	-0.102322645
39	0xbdfeea1a	-0.12446995
40	0x3def72ca	0.11691816
41	0xbd6e7c70	-0.05822414
42	0x3df9af7a	0.121916726
43	0x3eca1aa2	0.39473444
44	0x3eab8b89	0.33504894
45	0xbeef30fa	-0.46717054
46	0xbc3a9ab8	-0.011389427
47	0xbe1f75dd	-0.15572305
48	0xbe83be4b	-0.2573112
49	0xbe94e9aa	-0.29084522
50	0x3e298c90	0.16557527
51	0x3e7fd7b3	0.24984626
52	0xbb1c94ba	-0.002389236
53	0xbe68dd98	-0.22740781
54	0xbe8ec99a	-0.27888185
55	0xbf099df1	-0.53756624
56	0xbccc71ce	-0.02495661
57	0x3e19a7a2	0.15005353
58	0xbdd4a23f	-0.103825085
59	0xbed24407	-0.41067526
60	0xbf0ef8d5	-0.5584844
61	0xbf4b0558	-0.7930503
62	0xbd5f554a	-0.054524697
63	0x3e03b662	0.12862542
64	0x3d411f15	0.047148783
65	0x3c6a02ee	0.014282925
66	0xbde12015	-0.10992447
67	0xbf0bf8a4	-0.5467627
68	0xbe740f4d	-0.23833962
69	0xbe9ec109	-0.3100665
70	0x3ea05014	0.31311095
71	0x3e2bb75f	0.1676917
72	0x3dbba6f0	0.091627
73	0x3e41be0d	0.18920155
74	0xbe58e580	-0.21181297
75	0xbdb4afbc	-0.08822581
76	0x3eb1521f	0.34632966
77	0x3d976a6c	0.07393345
78	0x3ed0752f	0.40714404
79	0xbdf2f09d	-0.118622996
80	0x3c135716	0.008992931
81	0x3dc430bb	0.09579607
82	0xbd85eff4	-0.06539908
83	0x3bf66dc2	0.0075204084
84	0x3e8c1fa6	0.27367896
85	0x3c92c97f	0.017918346
86	0x3dffec7b	0.12496277
87	0xbde2c534	-0.1107277
88	0x3e660d5d	0.22466035
89	0xbdd10aa9	-0.102071114
90	0x3db79b43	0.08965161
91	0x3db86a82	0.0900469
92	0x3c0ffcd3	0.008788305
93	0xbf00047c	-0.5000684
94	0x3ee83528	0.45353055
95	0xbdc406f7	-0.09571641
96	0xbf5cb132	-0.8620788
97	0xbf04d8f6	-0.51893556
98	0xbc6899ba	-0.0141968075
99	0xbd8c932e	-0.0686401
100	0xbdfcfb25	-0.123525895
101	0x3c149dea	0.009070853
102	0xbebe8c4f	-0.37216422
103	0x3e51bc1a	0.20481911
104	0x3e2eb636	0.17061695
105	0x3c345955	0.011007627
106	0x3f151314	0.58232236
107	0x3e858578	0.2607839
108	0x3d9d0250	0.07666457
109	0xbe196a3b	-0.1498193
110	0xbe654d7b	-0.22392838
111	0xbebb440e	-0.3657536
112	0x3e2ee690	0.1708014
113	0xbef56aca	-0.47933036
114	0x3e3e4b0f	0.1858332
115	0xbd2cc55b	-0.0421804
116	0xbf662123	-0.8989431
117	0xbeb665b0	-0.35624456
118	0xbe9c0acf	-0.30476996
119	0xbe9f6fb6	-0.31139916
120	0xbda8078a	-0.08204563
121	0xbb25834f	-0.0025255268
122	0x3e0ecf44	0.13946253
123	0xbc824939	-0.015904056
124	0x3e72f121	0.23724796
125	0x3e03703f	0.12835787
126	0x3e09e4fb	0.13466255
127	0xbc901fff	-0.017593382
128	0x3cf3b797	0.029750628
129	0x3b654676	0.0034984625
130	0xbdf26ae8	-0.11836797
131	0xbc11e404	-0.008904461
132	0xbe42a770	-0.19009185
133	0xbdbf66aa	-0.093457535
134	0xbd294c00	-0.041332245
135	0x3eed28d4	0.46320212
136	0xbe34281d	-0.17593427
137	0xbe900a97	-0.2813308
138	0x3e8cdd3d	0.2751254
139	0xbda7f8c6	-0.08201747
140	0xbdc4ffd3	-0.09619107
141	0xbeebfc6a	-0.46091014
142	0xbed6501e	-0.41858
143	0x3d2f0243	0.042726766
144	0x3cf26a49	0.029591696
145	0xbde31a53	-0.11089005
146	0xbe9de0d2	-0.30835587
147	0x3efa6e21	0.48912147
148	0xbf52faf2	-0.8241416
149	0x3ea173af	0.31533572
150	0x3d825a20	0.06364846
151	0xbe036731	-0.12832333
152	0x3ed954fc	0.4244765
153	0xbd02dd87	-0.031949546
154	0x3c4e4b73	0.012591231
155	0x3e14a41e	0.1451573
156	0x3e354134	0.17700654
157	0xbe987e9f	-0.29784104
158	0x3d956a14	0.072956234
159	0x3d75580a	0.059898414
160	0xbdecfd9c	-0.1157181
161	0xbed7e257	-0.4216487
162	0x3cf15c96	0.029463094
163	0x3d8caad3	0.0686852
164	0xbdefb244	-0.11703923
165	0x3e2f0676	0.17092308
166	0xbf28c698	-0.6592803
167	0xbe07a7e8	-0.13247645
168	0x3d864fa1	0.06558157
169	0xbe374174	-0.17896062
170	0xbe20d301	-0.15705492
171	0xbe5d4d58	-0.21611536
172	0xbf33db45	-0.70256454
173	0xbf2833ea	-0.65704215
174	0xbe6fe15f	-0.23425816
175	0xbf0004e8	-0.50007486
176	0x3e2ff054	0.17181522
177	0xbe02ebdc	-0.12785286
178	0xbd52bcff	-0.051449772
179	0xbf8f8f24	-1.1215558
180	0xbf672e81	-0.90305334
181	0xbf000c09	-0.50018364
182	0x3cd66da6	0.026175331
183	0xbeb0d67e	-0.34538645
184	0xbeac7d05	-0.33689132
185	0x3cb35b24	0.021894045
186	0xbeeb0665	-0.45903316
187	0x3d1a4c0e	0.037670188
188	0xbe80f359	-0.2518566
189	0xbe789e24	-0.24279076
190	0xbe9f86ea	-0.3115762
191	0xbf4dd00c	-0.8039558
192	0xbdc4f7d6	-0.096175835
193	0x3da89031	0.08230627
194	0x3e8b01de	0.27149862
195	0xbba8039e	-0.0051273843
196	0x3e7e7d35	0.2485245
197	0x3ea8b196	0.32947987
198	0xbe4c611b	-0.19958918
199	0xbecc3c96	-0.39889973
200	0x3db9a925	0.09065465
201	0xbe2a7936	-0.16647801
202	0xbdb11364	-0.086462766
203	0x3cb6713b	0.02227079
204	0x3e6f4746	0.23367032
205	0x3e46284a	0.19351307
206	0xbed82d51	-0.42222074
207	0x3e84a285	0.25905243
208	0xbe3179b9	-0.1733159
209	0x3ef55e89	0.47923687
210	0x3b282128	0.0025654528
211	0xbe8a9d1b	-0.27072987
212	0x3d3d7377	0.046252694
213	0xbde36d1d	-0.11104796
214	0x3ea48b67	0.32137606
215	0x3ed55735	0.41668096
216	0x3c2f9545	0.010716741
217	0xbf00d107	-0.5031895
218	0xbe95a790	-0.29229403
219	0xbe87b9c7	-0.26508924
220	0xbeb15d08	-0.3464129
221	0xbed6a07e	-0.4191932
222	0x3d40f584	0.047109142
223	0x3d8bf86c	0.06834492
224	0xbee89a1a	-0.4543007
225	0x3e142563	0.14467387
226	0xbe2cd68b	-0.16878717
227	0x3dc7da37	0.09758418
228	0xbeb8b21e	-0.36073393
229	0xbd981533	-0.074259184
230	0xbe89a6e3	-0.26885137
231	0x399fe436	0.00030496874
232	0xbd333295	-0.04374941
233	0x3e1488e9	0.14505352
234	0xbef4a754	-0.4778391
235	0x3eaa3b7c	0.33248508
236	0xbe449195	-0.1919616
237	0x3e42955a	0.19002286
238	0x3e532c82	0.20622447
239	0x3eb9c79c	0.36285102
240	0xbe2e93ab	-0.17048518
241	0xbeaec9c1	-0.341383
242	0x3e8879f7	0.26655552
243	0x3de845fa	0.11341472
244	0xbd2f3608	-0.042776138
245	0x3e4a985d	0.19784684
246	0xbd782d04	-0.060589805
247	0xbe9b6b62	-0.30355364
248	0x3da73f36	0.081663534
249	0x3e020ceb	0.1270024
250	0x3e5b1ee0	0.21398497
251	0xbd98d00a	-0.07461555
252	0xbdd9f3ce	-0.10642205
253	0xbea222a5	-0.31667057
254	0xbf5b8acf	-0.8575868
255	0xbe8b2020	-0.27172947

network_body._body_endoder.seq_layers.2.bias f4 [128]
0	0xbe3ad752	-0.182462
1	0x3dade01f	0.08490013
2	0x3e2d7d52	0.16942337
3	0xbb871fa0	-0.004123643
4	0xbf3fae75	-0.74875575
5	0xbf810106	-1.0078437
6	0xbf5fd216	-0.8742994
7	0xbe5b248c	-0.2140066
8	0xbed66f88	-0.41881967
9	0xbf308e68	-0.68967295
10	0x3cda2d8f	0.026633052
11	0x3deb54f4	0.11490813
12	0xbd0a5a02	-0.033777244
13	0xbec2ca90	-0.38045168
14	0xbe2f327a	-0.17109099
15	0xbe8a5df3	-0.27024803
16	0xbe384ba0	-0.17997599
17	0xbf2a080a	-0.66418517
18	0xbeae22cc	-0.34010923
19	0xbf2c2616	-0.67245615
20	0xbdd54d51	-0.104151376
21	0xbe5a7239	-0.21332635
22	0xbf0db132	-0.55348504
23	0xbed8e5aa	-0.4236272
24	0xbeea2701	-0.45732883
25	0x3e21d18c	0.15802592
26	0xbeaf5171	-0.34241822
27	0x3ea73b42	0.32662398
28	0xbf015927	-0.5052666
29	0xbe93c3fc	-0.28860462
30	0xbdfbc0ae	-0.1229261
31	0xbe63b075	-0.22235282
32	0xbd530cf4	-0.051526025
33	0xbded7fb7	-0.11596625
34	0xbe30d851	-0.17270018
35	0x3c9c464a	0.019076485
36	0x3eb1247f	0.34598157
37	0xbe475589	-0.19466223
38	0xbf79eb1f	-0.9762439
39	0x3d7d6291	0.06186158
40	0xbee2a62f	-0.44267413
41	0x3d98ca4c	0.0746046
42	0xbea72c11	-0.32650807
43	0xbf2cc09e	-0.6748141
44	0x3d1833cb	0.03715877
45	0xbcadf54d	-0.021235133
46	0xbed3ed72	-0.41392094
47	0x3ee30028	0.44336057
48	0x3e1bf8de	0.15231654
49	0xbf1c90fb	-0.6115872
50	0xbea3f66e	-0.32023948
51	0x3da10fd4	0.07864347
52	0x3eb52858	0.35382342
53	0xbeb195d3	-0.3468462
54	0xbbd1ac59	-0.0063987193
55	0xbf28d2b0	-0.65946484
56	0xbd491bc7	-0.049098756
57	0x3f00c221	0.5029622
58	0xbdace777	-0.08442586
59	0xbf611bf3	-0.8793327
60	0xbeb7bd92	-0.35886818
61	0xbbeeea1f	-0.007291093
62	0xbf1f516b	-0.6223361
63	0xbf257e19	-0.64645535
64	0xbe65a422	-0.22425893
65	0xbec19c75	-0.3781468
66	0xbca653ba	-0.020303596
67	0xbf167244	-0.58768106
68	0x3f2e2ba9	0.6803537
69	0x3ddd8822	0.10816981
70	0xbf067a7a	-0.52530634
71	0xbf6731ac	-0.9031017
72	0x3d148977	0.03626391
73	0x3d71b576	0.059010945
74	0xbec07b16	-0.37593907
75	0xbef9eee4	-0.48815072
76	0xbe556589	-0.20839514
77	0xbe843b39	-0.25826433
78	0xbe6ce5d1	-0.23134543
79	0x3e393175	0.18085273
80	0xbe86b7da	-0.26312143
81	0xbe541909	-0.20712675
82	0xbf2828c0	-0.6568718
83	0xbe712488	-0.23549092
84	0xbed86937	-0.42267773
85	0xbef86dd2	-0.48521286
86	0x3e7b3b7d	0.24534412
87	0xbe225f24	-0.15856606
88	0xbec9c293	-0.3940626
89	0xbf155bfa	-0.5834347
90	0xbeab624c	-0.33473432
91	0xbedc93ff	-0.43081662
92	0xbe56226e	-0.20911571
93	0xbdb0c505	-0.086313285
94	0x3d0a5b34	0.033778384
95	0xbf26674d	-0.65001374
96	0xbea72b1c	-0.32650077
97	0x3dee2604	0.11628345
98	0xbf12b21b	-0.5730302
99	0xbd946949	-0.07246644
100	0xbcf855bd	-0.03031432
101	0xbda5a854	-0.08088747
102	0xbce743c3	-0.028230553
103	0xbf134c46	-0.5753826
104	0xbeac1e3d	-0.3361682
105	0xbe61eadd	-0.2206225
106	0xbf07c919	-0.53041226
107	0xbf820838	-1.0158758
108	0x3e505e5e	0.20348498
109	0xbeb41099	-0.35168913
110	0x3e8000fa	0.25000745
111	0xbf0df7c4	-0.55456185
112	0xbee41224	-0.4454509
113	0xbf694256	-0.91116846
114	0xbcff9048	-0.031196728
115	0xbe81d6b8	-0.2535913
116	0x3dba0114	0.09082237
117	0x3ea1f77b	0.31634125
118	0xbef1133b	-0.47084984
119	0xbecc11c0	-0.39857292
120	0xbec21c47	-0.379122
121	0xbf25c9c9	-0.64761025
122	0xbd08a8ea	-0.033364214
123	0xbefab684	-0.48967373
124	0xbf220c20	-0.6329975
125	0xbe74b78d	-0.23898144
126	0xbf0a023b	-0.53909653
127	0xbd0ab6d9	-0.033865783

action_model._continuous_distribution.log_sigma f4 [1, 39]
0	0xbfa773aa	-1.3082173
1	0xbf8f2b12	-1.1185019
2	0xbfc50ddc	-1.5394855
3	0xbf948d17	-1.1605557
4	0xbf9f57c9	-1.2448665
5	0xbfa7f55a	-1.312175
6	0xbf921223	-1.1411785
7	0xbfa5f4a4	-1.2965283
8	0xbf71eca6	-0.9450172
9	0xbf7a7caa	-0.9784647
10	0xbfb172de	-1.386318
11	0xbf80a95e	-1.0051687
12	0xbf9d5cb5	-1.2293917
13	0xbf8b6353	-1.0889686
14	0xbfaccd81	-1.3500215
15	0xbf9d566e	-1.2292001
16	0xbf9e935f	-1.2388724
17	0xbf7bc225	-0.98343116
18	0xbf4c8634	-0.7989228
19	0xbf9c6b39	-1.2220222
20	0xbfab0e0d	-1.3363663
21	0xbf944706	-1.1584175
22	0xbfac8ca2	-1.3480418
23	0xbf9937c3	-1.1970142
24	0xbf949b34	-1.1609864
25	0xbf8e3029	-1.1108447
26	0xbf8bd521	-1.0924417
27	0xbf932d8e	-1.1498277
28	0xbfac0fe9	-1.3442355
29	0xbf9464b6	-1.1593235
30	0xbf998a89	-1.1995403
31	0xbf8a4699	-1.0802795
32	0xbf925d5f	-1.1434745
33	0xbf962a46	-1.1731651
34	0xbf894189	-1.0723125
35	0xbf9490fa	-1.1606743
36	0xbf9f2487	-1.2433022
37	0xbf806284	-1.0030065
38	0xbf97382c	-1.1814017

action_model._continuous_distribution.mu.weight f4 [39, 128]
0	0x3ecf14b2	0.40445477
1	0x3d11053c	0.035405383
2	0xbe8f2b89	-0.27962902
3	0x3eb12d1c	0.34604728
4	0xbc820393	-0.015870845
5	0xbda610f1	-0.081087
6	0xbe3d21ad	-0.18469878
7	0x3e1e2673	0.15444355
8	0x3d90f5b2	0.07078113
9	0xbf1d7227	-0.6150231
10	0xbd1ad52f	-0.037800964
11	0x3e690541	0.2275591
12	0x3d3fe49e	0.046848886
13	0x3c4819d3	0.012213188
14	0xbd8b778b	-0.068099104
15	0x3d3c9521	0.046040658
16	0xbdcef426	-0.10105161
17	0xbe876338	-0.26442885
18	0x3e8e7d4d	0.27829972
19	0x3e32fd1d	0.17479368
20	0x3ec1d55d	0.37858096
21	0x3f071b40	0.52775955
22	0xbe565e7f	-0.20934485
23	0xbe7853f8	-0.24250782
24	0x3d9d5476	0.07682125
25	0xbe869e09	-0.26292446
26	0x3eacfc4e	0.33786243
27	0xbe4e5c0c	-0.201523
28	0x3e226243	0.15857796
29	0xbd4e93b0	-0.050433815
30	0xbdb34950	-0.087542176
31	0x3e9e12aa	0.30873615
32	0x3c4b22dc	0.012398448
33	0x3d8ce654	0.06879869
34	0xbd906cde	-0.07052015
35	0xbd50d936	-0.0509884
36	0x3d198839	0.037483428
37	0x3ca3f968	0.020016387
38	0x3d128620	0.035772443
39	0x3e9f37ad	0.31097165
40	0xbdb9ffa3	-0.09081962
41	0x3ea0710b	0.31336245
42	0xbcd3c657	-0.025851412
43	0xbe28379b	-0.16427462
44	0xbed7c3bc	-0.4214152
45	0x3e243ba5	0.16038378
46	0x3dd6d940	0.10490656
47	0x3ea703b2	0.32620007
48	0xbe831279	-0.2560003
49	0x3cc92f6f	0.02455875
50	0xbe3b3672	-0.18282488
51	0xbe366dbd	-0.178153
52	0xbeb06f36	-0.34459847
53	0x3ec1891d	0.37799922
54	0x3c1fb320	0.009747297
55	0x3eff159a	0.49821168
56	0xbe8322d7	-0.25612518
57	0xbe0a4550	-0.13503003
58	0xbe3433a1	-0.1759782
59	0xbd24b8c3	-0.040215265
60	0xbe8cfb5b	-0.2753552
61	0x3ea11cb6	0.31467217
62	0x3dcc308f	0.09970199
63	0xbf0ed581	-0.5579453
64	0x3f17774e	0.5916642
65	0x3d464e26	0.048414372
66	0x3df83f26	0.121214196
67	0x3e8c4b94	0.27401412
68	0x3deedff5	0.1166381
69	0x3eab79ab	0.33491263
70	0x3f0f0a8c	0.5587547
71	0xbf11478c	-0.56749797
72	0x3d217f3b	0.039427977
73	0x3f336d4b	0.7008864
74	0xbca1ebde	-0.01976579
75	0xbebf98d3	-0.37421283
76	0x3e644504	0.22291952
77	0x3d8e5250	0.069492936
78	0x3e55e18d	0.20886822
79	0x3e7e9148	0.24860108
80	0x3f0810d5	0.53150684
81	0xbd0a3218	-0.03373918
82	0x3d9e17f0	0.077194095
83	0xbc3d8f8d	-0.01156987
84	0xbdadbc71	-0.08483208
85	0x3e2a85d3	0.16652612
86	0x3d93c554	0.07215372
87	0x3dd62d91	0.1045791
88	0x3e251f3d	0.16125198
89	0x3e5ec98d	0.21756573
90	0xbebb80da	-0.36621743
91	0xbd8f0229	-0.06982834
92	0xbf16879e	-0.58800685
93	0xbec0f4aa	-0.37686664
94	0x3ea34e35	0.31895605
95	0xbce0b1c9	-0.027428525
96	0xbe15b955	-0.1462148
97	0x3d00c220	0.031435132
98	0x3d5b3c73	0.053524446
99	0x3eabee58	0.3358028
100	0xbd32b278	-0.043627232
101	0xbcbd74c5	-0.02312697
102	0xbf0d676b	-0.5523593
103	0xbc436c72	-0.011927711
104	0x3ea42171	0.32056764
105	0xbdcde238	-0.100529134
106	0xbf21b15e	-0.63161266
107	0x3e4b4d76	0.19853768
108	0xbe548570	-0.20754027
109	0x3e12559c	0.1429047
110	0x3d37d8ad	0.044884373
111	0x3e8037c6	0.25042552
112	0x3e485609	0.1956407
113	0xbe9f6dcf	-0.31138465
114	0x3ecbaeae	0.39781708
115	0xbea1d923	-0.31610975
116	0xbe213250	-0.15741849
117	0x3da1a1bd	0.07892177
118	0x3e6ab743	0.22921471
119	0x3e1e01e0	0.15430403
120	0xbd8c9adf	-0.06865477
121	0xbda9bb4a	-0.08287676
122	0xbe0015f9	-0.12508382
123	0x3e0a9da0	0.13536692
124	0xbe859af6	-0.26094788
125	0x3e7db908	0.24777615
126	0x3f3dfec5	0.7421687
127	0x3de775df	0.11301779
128	0xbe268a13	-0.16263609
129	0x3c904fd3	0.017616188
130	0x3f242eca	0.64133894
131	0x3e95d18e	0.2926144
132	0x3e0d4baf	0.13798402
133	0x3e0e6a03	0.13907628
134	0xbcf83d80	-0.030302763
135	0x3ef469e9	0.47737053
136	0x3db9cad3	0.09071889
137	0xbf449af6	-0.7679895
138	0x3e624ddf	0.22100018
139	0x3ee3c3c8	0.44485307
140	0xbf0aea02	-0.5426332
141	0xbeb7d114	-0.359017
142	0x3c9883ab	0.018617472
143	0xbd91277b	-0.070876084
144	0xbe875cc5	-0.26437965
145	0x3ed01f32	0.406488
146	0x3e0fc569	0.1404015
147	0xbef62b05	-0.48079696
148	0xbdc68b13	-0.09694495
149	0x3b917dc9	0.0044400436
150	0x3c39c262	0.011337848
151	0x3ea54ca7	0.32285044
152	0xbe616146	-0.22009763
153	0x3f0733da	0.52813494
154	0x3eb2f33a	0.34951192
155	0x3c3d49b1	0.011553214
156	0xbe6d1bdb	-0.23155157
157	0xbe3da3a1	-0.1851945
158	0x3eefb62a	0.46818668
159	0xbdb50025	-0.08837918
160	0x3d5bd719	0.05367193
161	0x3dda3db0	0.10656297
162	0xbe8bce34	-0.27305758
163	0x3f0d8f09	0.5529638
164	0x3e0c0c82	0.13676646
165	0xbe8d2636	-0.27568215
166	0xbe4e7062	-0.20160058
167	0x3edbf4c0	0.42960167
168	0xbedcaa03	-0.4309846
169	0x3d8bfe7d	0.06835649
170	0xbe341b31	-0.17588498
171	0x3e54801c	0.20751995
172	0x3e092852	0.13394287
173	0xbd8747dc	-0.06605503
174	0x3df7f955	0.12108103
175	0x3ccc0a17	0.024907155
176	0xbeaa7058	-0.33288836
177	0xbd855a33	-0.06511345
178	0xbee7d195	-0.45277086
179	0x3d7452f3	0.05964942
180	0xbe0578fe	-0.13034436
181	0x3e32e840	0.17471409
182	0x3ebae60d	0.3650364
183	0xbdcd695a	-0.1002986
184	0x3e96d085	0.29455963
185	0xbe4175b2	-0.18892553
186	0x3e2b94a1	0.16755916
187	0xbeb52c6b	-0.3538545
188	0x3ac3f0f9	0.0014949135
189	0x3dc49fbd	0.0960078
190	0xbf176b45	-0.59148055
191	0x3ea6efde	0.3260488
192	0xbe00bffb	-0.12573235
193	0xbf0535fa	-0.52035487
194	0x3e5f0c57	0.21782051
195	0xbcb0ef8a	-0.021598596
196	0x3d3529bb	0.04422925
197	0xbe64c9c9	-0.223426
198	0x3ea233da	0.31680185
199	0xbf33c514	-0.7022259
200	0xbf134e0a	-0.57540953
201	0xbf14f99c	-0.58193374
202	0x3e9a85c6	0.30180186
203	0x3ef9e7fe	0.48809808
204	0x3f037d8e	0.51363456
205	0xbe9bf9a7	-0.30463907
206	0x3e5718b1	0.21005513
207	0xbe864ca6	-0.26230353
208	0xbe483bb9	-0.19554032
209	0x3ef7375d	0.48284426
210	0xbe079269	-0.13239445
211	0xbcecf8e8	-0.028927281
212	0xbde76676	-0.1129884
213	0xbf0f8749	-0.56065804
214	0xbd81c63e	-0.0633664
215	0xbc9958cd	-0.018719101
216	0xbf2e1d87	-0.68013805
217	0xbf04bbdc	-0.5184915
218	0xbe8e89b2	-0.27839428
219	0x3dd4dd2a	0.10393746
220	0x3e4d6bab	0.20060603
221	0x3d8bd63b	0.068279706
222	0xbea915d7	-0.33024475
223	0xbef2c744	-0.47417653
224	0x3cf252f1	0.029580565
225	0x3d92e67e	0.07172869
226	0xbdb24248	-0.087040484
227	0xbd78bf84	-0.06072952
228	0x3f00653f	0.5015449
229	0x3ee80597	0.45316765
230	0x3f1224dc	0.5708749
231	0x3e39b1f2	0.18134287
232	0x3dcc3da8	0.099726975
233	0x3eb529b3	0.35383376
234	0xbd849f6b	-0.06475719
235	0xbe101f1f	-0.14074372
236	0xbde257e7	-0.11051922
237	0x3dfbcf54	0.12295404
238	0x3cc5a1d0	0.02412501
239	0xbe7e0cc8	-0.24809563
240	0xbe2458bd	-0.16049476
241	0x3dd0686a	0.101761654
242	0xbe89385f	-0.2680082
243	0xbed2892c	-0.4112028
244	0x3e6f4e76	0.23369774
245	0x3edb776a	0.42864543
246	0xbf696ef8	-0.9118495
247	0xbe28536f	-0.16438077
248	0xbdf5da8f	-0.12004577
249	0xbe8bfb2e	-0.27340072
250	0x3e541497	0.2071098
251	0x3e6d419e	0.23169562
252	0x3dd28fa7	0.10281306
253	0x3e38c015	0.18042023
254	0x3cf9de85	0.030501613
255	0x3ed1df16	0.40990514

action_model._continuous_distribution.mu.bias f4 [39]
0	0x3f199cc1	0.6000481
1	0x3f5fe16e	0.87453353
2	0xbe539970	-0.20664
3	0x3e36f234	0.1786583
4	0x3ecfc68f	0.40581176
5	0xbf515059	-0.81763226
6	0xbf38ae7e	-0.72141254
7	0xbe1b7c24	-0.15184075
8	0x3ecea8ee	0.40363258
9	0x3d30630d	0.043063212
10	0x3e26b203	0.16278844
11	0x3dd1d990	0.10246575
12	0x3f45ab85	0.77214843
13	0xbe9cbf0a	-0.306145
14	0x3d7a2974	0.06107469
15	0x3dce7510	0.10080922
16	0x3ea36912	0.319161
17	0x3eb89871	0.36053804
18	0xbfa15948	-1.2605371
19	0xbedfd18d	-0.43714562
20	0xbee368b5	-0.44415823
21	0xbde36148	-0.11102539
22	0xbe015c18	-0.12632787
23	0x3f06d933	0.5267517
24	0x3e90c557	0.28275558
25	0xbe4eb018	-0.20184362
26	0x3e8d6518	0.2761619
27	0xbe2f7400	-0.17134094
28	0x3ee2d137	0.44300243
29	0x3ded3308	0.11581999
30	0xbea576e4	-0.3231727
31	0xbed22aa4	-0.41048157
32	0xbda980e4	-0.08276537
33	0x3e990e6c	0.29893816
34	0xbe8296c4	-0.2550565
35	0x3dd48ef8	0.103788316
36	0xbf35f758	-0.7108054
37	0x3f5d4fa9	0.86449677
38	0xbe118e22	-0.14214376
