Assets/Brains/AdrianTests/AdrianWalkTest/Zombie Walker/Zombie Walker-27987.onnx (onnx, 827693 bytes, 11 tensors)

network_body.observation_encoder.processors.0.normalizer.running_mean f4 [246]
00000000: 10cb 9540 1bea 3cbd 0e26 b7be de84 023f
00000010: 43e0 f334 0000 0000 543b a340 06ef ceba
00000020: 2a3d 403f 7b84 c040 f8d7 40bb 10c1 4f3d
00000030: 8cd5 003e 6859 7a3f 032e dbbb 996b e0bc
00000040: c991 863e a2d0 6b3f 4baa 24b8 2235 3f3f
00000050: b8cf c040 0000 0000 794f 853d 4836 36be
00000060: 21a4 f73e 1824 553f 6432 82bd 1127 11be
00000070: 1c8e c43a 13dd 9abb d94a 283c 0000 0000
00000080: 05f1 63bb 267e f6be c331 443f 629e 773f
00000090: 9609 833e bba4 393f f6ad 0ebe 95ea c03e
000000a0: cc83 053e 7ce3 45bd e51c 8abc 861b 723d
000000b0: afe5 7e3f a014 1d3f 0000 0000 da7f 623d
000000c0: 639b 9dbe 1c58 1a3f addc 8a3f 8a1a be3d
000000d0: f77e 503f d220 09bd 8d5a 3b3e 2e4b 913d
000000e0: bf61 3a3e d4d8 7ebd d1a3 293e 5de5 6c3f
000000f0: 1c8d 183f 0000 0000 4333 f3bd 11cf 3bbf
00000100: cf3d 883f a8a2 763f eebc 923e fcdd 053f
00000110: 64c3 a9be de23 2b3f cffc 873e 80e3 033e
00000120: 1fd6 d23a 3b12 69bc ce83 7d3f 1c97 113f
00000130: 0000 0000 2609 163d 046a f1bd 156d 8d3e
00000140: 6035 f93d 947c b4bd b4ba 34bf f992 29be
00000150: 3246 7abe dbc0 19bd 5002 05be 7f96 97bc
00000160: 1745 e4bd 77c7 7b3f a44c 333f 0000 0000
00000170: 7c8a eb3b 1ccb dcbc a112 e63d 3779 413f
00000180: e0e6 213f b77e 353e 7e1f 77be 8e06 0bbf
00000190: 244f a3bd b763 c43d d284 fe3c b21f 1d3c
000001a0: 445a 7d3f 66a7 543f 0000 0000 4186 4abb
000001b0: ec96 193c ca4c 943c 19b3 b53e f103 a53c
000001c0: 354b 1ebf 6610 8dbe 121a 39bf 833e efbd
000001d0: 11a8 b9bd c272 223d a3ec 053e d870 7b3f
000001e0: 4abb 243f 0000 0000 0139 d33d ea84 f7bd
000001f0: de4b 993e 76e2 533f 57e7 14be eca6 b13e
00000200: ecae e13d 3cce 80be 9e2d 0ebd 46eb 23bd
00000210: c237 47bb 45c5 8bbd f30c 7f3f 7abe 4e3f
00000220: 0000 0000 a5d6 353d 4af0 35bc 0592 f83d
00000230: 9441 523f 3bfd bdbd 3f94 843c b04d 333d
00000240: de6a 0cbf 3935 c4bd f89f 63bc 6888 9f3c
00000250: bddf 54bd 9a49 7f3f aaac 403f 0000 0000
00000260: e6c9 833c 717a d73c 8195 043c e335 dc3e
00000270: b27d 15be 1ca5 973d 826a 1a39 4d4f 39bf
00000280: f8a2 fdbd 22f1 91bd 9fe5 023d 0503 0c3e
00000290: 8018 7b3f 18d2 283f 0000 0000 2fd7 9bbc
000002a0: 102d 03bf 20d7 313f 387e 403f 1d92 0a3f
000002b0: 7995 abbe 093f f9be 89ed 5f3e 9798 9a3d
000002c0: 03e0 8e3a ebf3 0d3e 8159 df3b e859 7c3f
000002d0: 8ed2 303f 0000 0000 7c4f b13d 5752 2cbf
000002e0: 930a 333f b3b0 433f 6f37 8d3f 4858 d43e
000002f0: b2fb 38bf f208 7f3d 19a1 0d3e 2a51 1e3c
00000300: 4554 7e3e 9aae ad3c f5de 753f 9a57 2e3f
00000310: 5bdc 1538 936b 2a3e 9470 4fbf 8e6f 413f
00000320: b2b0 433f 6e37 8d3f 4958 d43e a84f 5cbf
00000330: 31ec 51bd 3285 6a3e 5edc 9538 0171 a1bd
00000340: 4b1d 08bf 3e48 4b3f e7d6 933f 77ed 65bf
00000350: 071b 6e3e f508 173e 0c01 a83e 2f91 683e
00000360: f5ca 923e 8d0d 07bf 77e8 a7be 47e9 303f
00000370: 6717 363f 5edc 9538 564b c2be 4e4b 1ebf
00000380: 6c53 383f 6e3e 843f fb7c 05c0 0f4e fbbc
00000390: f86c f33d ee9c 283e 0d4c 803e 2583 23bb
000003a0: 68a5 2dbf 1f44 4db9 8acc 343f d430 043f
000003b0: 0000 0000 0c54 37bf 95b4 22bf d4a2 3d3f
000003c0: 7208 813f 1926 05c0 d56d 97bd 463f 2fbd
000003d0: 39fe cd3d a72b 6b3e
4.681038 -0.046121698 -0.3577122 0.5098399 4.542545e-07 0.0 5.100992 -0.0015787787
0.7509333 6.016172 -0.0029425602 0.050721228 0.12581462 0.97792673 -0.0066888346 -0.027395057
0.262831 0.92115223 -3.9259245e-05 0.7469045 6.0253563 0.0 0.06509299 -0.17794144
0.48367408 0.832582 -0.063572675 -0.14175059 0.0014995965 -0.004726061 0.010271751 0.0
-0.003478111 -0.4814312 0.7663843 0.9672605 0.2559325 0.72516984 -0.13933548 0.37678972
0.13038558 -0.04831265 -0.016859481 0.05910828 0.9956922 0.61359596 0.0 0.05529771
-0.30782613 0.60290694 1.0848595 0.09282406 0.8144373 -0.033478566 0.18296261 0.070944175
0.1820135 -0.062218502 0.16566397 0.9253748 0.59590316 0.0 -0.11875012 -0.73362833
1.0643862 0.96341944 0.28659767 0.52291846 -0.33156884 0.66851604 0.26560065 0.12879753
0.0016085542 -0.014225538 0.99029243 0.568712 0.0 0.03662982 -0.11787799 0.27622285
0.121683836 -0.08812824 -0.70597386 -0.16559972 -0.2444084 -0.037537437 -0.12989163 -0.01850438
-0.1114599 0.98351234 0.7003882 0.0 0.0071881395 -0.026952319 0.11234022 0.75575584
0.6324291 0.17724119 -0.24133107 -0.54306877 -0.07974079 0.095893316 0.031069193 0.009590076
0.9896586 0.8306793 0.0 -0.0030902775 0.0093743615 0.018103022 0.35488203 0.020143481
-0.61833507 -0.27551574 -0.72305405 -0.11681845 -0.09065259 0.039660223 0.13078551 0.9821906
0.6434828 0.0 0.10313607 -0.12085898 0.29940695 0.82767427 -0.14541374 0.34697664
0.11019692 -0.25157344 -0.034711473 -0.040019296 -0.0030398224 -0.068247356 0.99629134 0.80759394
0.0 0.044394154 -0.011104653 0.12137226 0.82131314 -0.092768155 0.01618397 0.04377526
-0.54850566 -0.09580464 -0.01389312 0.019474223 -0.051971186 0.9972168 0.75263464 0.0
0.016087484 0.026303502 0.008092285 0.43009862 -0.1459873 0.07404539 0.00014726262 -0.7238663
-0.123845994 -0.071260706 0.031957265 0.13673027 0.9808426 0.6594558 0.0 -0.019023506
-0.51240635 0.6946888 0.75192595 0.541292 -0.33512476 -0.48680905 0.21867956 0.075486355
0.0010900501 0.13862579 0.0068160896 0.98574686 0.6907128 0.0 0.086577386 -0.6731314
0.6993801 0.76441497 1.1032542 0.41473603 -0.72259057 0.06226439 0.13830985 0.009662906
0.24836834 0.02120142 0.9604333 0.6810242 3.572959e-05 0.16642599 -0.81031156 0.75560844
0.7644149 1.1032541 0.41473606 -0.86059046 -0.05125064 0.22902372 7.14592e-05 -0.07882882
-0.531697 0.7940711 1.1549958 -0.8981547 0.23252498 0.1474951 0.328133 0.22711633
0.2867047 -0.5275505 -0.32794544 0.6910595 0.7112946 7.14592e-05 -0.37948102 -0.61833656
0.7200229 1.0331552 -2.0857532 -0.03067687 0.118860185 0.16466114 0.25058022 -0.0024949994
-0.67830515 -0.000195757 0.706246 0.51637006 0.0 -0.7161262 -0.63556796 0.7407658
1.0080702 -2.0804503 -0.07393996 -0.04278495 0.10058255 0.22965871

network_body._body_endoder.seq_layers.0.weight f4 [256, 246]
00000000: 53fc aabd 0368 593d 0bef 44bd 8a5f b6bd
00000010: 658e 26bc 9d3a c4bd 7eb4 0ebe 7482 593d
00000020: ee7a 0cbe 8348 d1bc 9f23 ec3d 0b1b 2d3e
00000030: 4974 7f3b 5afc ffbc cc34 263e 0b7b 2d3e
00000040: 0341 c03c 21fb 94bd 60d1 9fbc 894b 1c3d
00000050: 8d3f 383d f19e cf3a 6fbc da3d c719 673d
00000060: e840 98bc 6cd7 79bd fad1 a3bd 3591 f43d
00000070: 8ad5 313d 6d6b c43c 4f24 bc3c 9c1c 033c
00000080: 7d56 783d 24d1 863d baf5 ae3d d5df 5e3d
00000090: 1edd 893d b454 e83c 8d37 303c af12 82bd
000000a0: 436e cebd 540c 493d f9d0 b7bd 044e 053c
000000b0: b4eb 0a3b 5f85 b3bd a6f3 6abd 9384 d5bc
000000c0: 974c f93d aa95 fa3c 6419 83bd 4943 9ebd
000000d0: b9e3 aaba 09cc 2b3d a64a c8bd 9bd8 60bc
000000e0: 8170 813d 03df debd 1018 c03d 7a9c 423d
000000f0: 84e8 9fbc 5c69 98bd d2b9 20bd 369e 53bc
00000100: 7cc4 713d 058e b93c 6eac 733d 83dd 1c39
00000110: 2492 82bc d1e4 05bd 7fcf 49bc 1f2f d9bc
00000120: ff0c cbbd 0fa3 a3bc 5e25 d0bb 8297 11bc
00000130: 2670 c4bb 2e9a 11bb 5ccb 6dbd 1466 cfbc
00000140: 7fee 953c 77f0 4d3c bbd7 133e 83b1 38bc
00000150: 272a ec3c c206 9e3c b147 df3c 7417 eabc
00000160: c19c 99bd 8d99 673d d5b8 243c 8f3d 473c
00000170: 7e9c 3bbd 923e c73c 581e 0a3d a43a 543a
00000180: 9422 44be 5546 c53c 0c14 433c 940e 91bb
00000190: fb6c 583d c638 94bc bf30 0c3b 0ab1 0c3e
000001a0: 2c5f 44bd a4fb 01be e84f 9ebc 1d11 013e
000001b0: bd4f 6d3d 92c9 7abd 3dd5 a5bc 756a 1dbc
000001c0: 126d 83bd 946b 5d3c d1d3 273d 53ef acbd
000001d0: 19ed 3f3d 4a84 1b3d cb2a 07be 6d17 4c3d
000001e0: 110c 95bd 023c 8d3c ee19 e13d 2ec9 87bd
000001f0: ab90 80ba 9071 91bb d463 b03c 1bf9 68bd
00000200: 2dcd 363d 6646 133c bd12 9fbd 69a2 043d
00000210: fb60 4c3c 221d 6abd 4157 153e 9704 ca3c
00000220: ff2d 873d 45fc 81bd 1fac 143c e6cf b0bd
00000230: 516e 6abd 78d9 41bc c2ba d33c 17e3 30be
00000240: 5a51 6d3c 7069 0bbd 905f c7bd c4bd 573d
00000250: 27a3 a13c db30 dcbb 9c54 403d c6c4 b73d
00000260: e209 bdbc ebce 6e3d fcc8 a23d ab36 383c
00000270: 7ec6 453d 3424 30bd 98a2 bfbb b717 5bbd
00000280: 081b 8738 ab52 3c3d b378 883d e5cc 133c
00000290: e9d0 d43d a0fa 7dbc ed4a 38bd 2fe3 8e3d
000002a0: 1050 cc3d 9107 dfbc 3991 163d 2c8a eebc
000002b0: 1b2c 93bd 4eb1 8dbd 831d 0f3d 6e4a 373d
000002c0: a561 4e3c 12cf bc3b c9ee 12be 78e9 17bd
000002d0: 980c b3bd 9328 02be cbec 1b3a 2679 12be
000002e0: 05c4 5c3d 093f 873d 8e81 af3d aee7 47bd
000002f0: a901 ef3d 93e9 763c 6239 883d 9c31 983c
00000300: 1153 5ebd c419 44bd a2a6 b93d 4433 ad3c
00000310: ddea 2abd 3f40 713d 40da 813c f4fd 7fbd
00000320: 9966 503d 6994 ddbb ef2c 04bc ba44 b13b
00000330: 9963 0e3d 38d2 bf3c d91d 9b3b a534 b1bd
00000340: 069c e6bc f08f 06bc f48f ecbc 9fae 6a3d
00000350: 9bce 5c3c ce9a 6abd 4d01 a5bd 75a5 a1bc
00000360: fd7d e7bc 3eb7 083d f72b 08bc 0755 8f3d
00000370: d6d9 edbd 224e be3d 56b0 ddbb 2606 bdbd
00000380: e271 a4bc 4909 793d 38eb 923c 40f2 bbbc
00000390: 5e2a cf3d b0a0 fdbc 5e31 56bc c00b fabc
000003a0: 2f4c 91bc 1e0f 2fbe 67ab 713d 76e4 363c
000003b0: 525f 05bd 2985 523d 6af4 57ba 9795 033d
000003c0: a896 c03d 1542 c73d d78b 43bd 190a 833d
000003d0: f724 08bd 1fe4 bc3c abac 123d d476 083c
000003e0: bae1 bb3d 41f7 333c ce2c df3c 09cc 20bd
000003f0: a074 2d3e 8879 cdbd dd9c 31be b171 db3d
-0.08348908 0.05307771 -0.04807953 -0.089049414 -0.010165785 -0.09581492 -0.1393604 0.053102925
-0.13718769 -0.025547272 0.11530232 0.16904847 0.0038979223 -0.03124826 0.16231078 0.16941468
0.0234685 -0.072744615 -0.019509017 0.038157973 0.04498248 0.0015840215 0.10680472 0.056421068
-0.018585637 -0.060996458 -0.07999034 0.119417585 0.043416537 0.023977006 0.022966532 0.0080024265
0.060629357 0.06582859 0.08542962 0.05441268 0.06731628 0.028360702 0.010755432 -0.0635122
-0.100796245 0.049084023 -0.08975405 0.008136276 0.002119762 -0.08765673 -0.057361268 -0.026064193
0.121728115 0.030588944 -0.06401327 -0.077276774 -0.0013037837 0.04194263 -0.09779863 -0.013723518
0.063202865 -0.1088238 0.093795896 0.04751251 -0.019520052 -0.07441971 -0.039239712 -0.012916138
0.059025273 0.022650728 0.059490614 0.00014959839 -0.015938826 -0.03268892 -0.012317537 -0.026511727
-0.09914588 -0.019975213 -0.0063521108 -0.00888622 -0.0059948144 -0.0022217142 -0.058055267 -0.02531723
0.0183022 0.012569538 0.14437763 -0.011272791 0.028828694 0.019290332 0.027255865 -0.028575636
-0.075006016 0.05654292 0.010053833 0.012160673 -0.04580354 0.024321828 0.033720344 0.00080958963
-0.19153816 0.024081388 0.011906635 -0.0044267867 0.052838307 -0.018093478 0.002139136 0.1373941
-0.047942325 -0.1269365 -0.019325212 0.12604184 0.057937372 -0.06122739 -0.020243281 -0.009607901
-0.06417288 0.013514418 0.04097349 -0.08444085 0.046856973 0.037967958 -0.13199918 0.049827028
-0.07277692 0.017240528 0.10991274 -0.06630169 -0.0009808739 -0.0044385865 0.021531977 -0.05687819
0.044629265 0.008988952 -0.07767246 0.03238145 0.012474294 -0.05715669 0.14584066 0.024660392
0.0660057 -0.06346945 0.00907424 -0.086334035 -0.057234112 -0.011831634 0.025845889 -0.17274128
0.014484728 -0.0340361 -0.09735024 0.05267121 0.019731117 -0.006719691 0.04695569 0.089730784
-0.023076002 0.0583028 0.07948491 0.011243503 0.048285 -0.043003276 -0.00584824 -0.053489413
6.4423366e-05 0.045977276 0.066636465 0.009021019 0.10391409 -0.015501648 -0.04499333 0.069769256
0.09976208 -0.027225288 0.03675959 -0.02911862 -0.07186147 -0.06918584 0.034940254 0.044748716
0.012596522 0.0057619894 -0.14348902 -0.037087888 -0.087426364 -0.1271079 0.00059480657 -0.14304027
0.053897876 0.0660382 0.085696325 -0.04880493 0.116702385 0.015070337 0.0665157 0.018578343
-0.054278437 -0.047876135 0.09064986 0.02114261 -0.04172789 0.05889916 0.01585114 -0.062498048
0.050879095 -0.0067620766 -0.008067354 0.005409804 0.034762952 0.02341567 0.0047337827 -0.08652619
-0.02815057 -0.008213028 -0.028877236 0.057295438 0.013476993 -0.05727654 -0.08056889 -0.019732216
-0.028258318 0.03337788 -0.008311263 0.069986396 -0.116138145 0.092922464 -0.0067654056 -0.09229688
-0.020073835 0.06079987 0.017934427 -0.022942662 0.10115503 -0.03096041 -0.0130732935 -0.030523181
-0.017736522 -0.1709561 0.059001353 0.011162868 -0.032561608 0.051396523 -0.00082380197 0.032125082
0.094037354 0.09729401 -0.047740784 0.0639841 -0.033238377 0.023057995 0.0358092 0.008329112
0.09173913 0.010984243 0.027243044 -0.039257083 0.1693902 -0.10032946 -0.17344995 0.10715044

network_body._body_endoder.seq_layers.0.bias f4 [256]
00000000: c9c2 19ba e09f 85ba 18fe 10bb 19ee 56ba
00000010: 7459 01ba 27b1 37ba 8744 1fbb e95c 3c39
00000020: caec 9eb9 e249 cbb9 f621 6238 3419 36ba
00000030: c0a3 703a c8f5 07b8 9f09 1d3a 040e d2ba
00000040: 1b2e aeb8 92e3 86b9 1422 a7b8 7a50 9f39
00000050: 7307 75ba 8c48 b639 a875 14ba 1d8f c339
00000060: 6262 8bba e257 e2ba 12f3 32ba f67b 82ba
00000070: f821 46b9 3f3f 013a 35df cbb9 a0dd c3b8
00000080: 1eeb 373a b1cd 9aba ee16 ae39 448e f3b8
00000090: 800d 423a 8c5b 683a 4882 6539 b035 d9b9
000000a0: 4659 81ba 7411 0ab9 17b4 c9ba cdc6 19ba
000000b0: 3166 8638 842a ef38 db15 253a 3e05 deba
000000c0: 5be7 32ba 9d96 06b9 2ab6 d839 aa6a 3fba
000000d0: afe2 1c3a 3686 0abb 4d9e b3ba 5a4e bfba
000000e0: 705a 3eb9 1034 17ba 8826 27ba 8704 8fb8
000000f0: dbb0 91ba 9995 91b9 8319 26ba 1106 dfba
00000100: 857b c8b8 c4af cdb9 aa1f 1cb9 ff37 85ba
00000110: eb73 4dba aff0 35ba 8f4c ea39 5946 8db8
00000120: eb5e 91b9 91b5 b3ba 0264 02ba 0f25 8c3a
00000130: 6bb3 883a e411 53b9 d3f9 0cba 4f44 ddb9
00000140: 09f9 4a39 a253 d8ba 81a7 1eba 8917 ccb9
00000150: 839b 253a 3f7e 1ebb 434e 4b3a 6db7 07ba
00000160: e338 04ba aa7d cab9 6154 30ba dd6e 9638
00000170: ee24 cbb7 b3f8 a2ba 7da7 1cba c027 83ba
00000180: 6b21 d0ba 0369 84ba 68ba 02ba 11e2 dbba
00000190: 5760 4f3a 31b0 883a 842b 79b9 3764 793a
000001a0: 24c7 663a 5d78 00ba 8108 6d3a 7003 7eba
000001b0: 223c 9aba 7afd 3e39 7cf8 92ba ffbd 5dba
000001c0: df3c 4fba 2223 33b9 8e85 5eb9 65d5 11b9
000001d0: cacc 11bb 6f7a 4cba 7eed d8ba e2b5 3dba
000001e0: 7dcc adba 45f6 3bba 3220 eb37 4700 42ba
000001f0: 9e60 3a39 3d7d 4dba 5465 06bb 768a 08ba
00000200: eb22 cfb8 e163 b8ba 0b55 9bb9 905b 1c3a
00000210: d1a0 b3b9 c272 24bb 7173 d7ba 6ea8 01ba
00000220: 3070 54ba 5f19 123a d67a 6e3a 80ab ba39
00000230: 621e 60b9 543a 8dba 8d24 adba e92e 5a3a
00000240: 41cf c739 7cfc 3437 da74 9bba 2cb2 fc3a
00000250: 9abb 4a39 08d4 b3ba 4409 a2ba d60e 8bba
00000260: 5e72 9a39 85d9 18ba 6e5d 863a fea1 11ba
00000270: f828 22ba b53f 86ba f651 4cba c1b5 33b9
00000280: d7da 12ba 6e51 ca39 9bf9 523a d20c ffb9
00000290: 9c2e 3bba 05b5 fd38 6931 54ba de4c 0fba
000002a0: 6655 b0ba d4f8 72ba 377a 21ba b44c 04ba
000002b0: c48a 303a 8084 47ba 97bf 473a e0b8 8bb9
000002c0: f8bf 4a39 226e c4b9 a493 9fba d699 76b9
000002d0: 874b 45b9 06f4 1e39 8b18 b139 f0db 873a
000002e0: 5c04 acba 3010 d2ba ca40 c1b9 b6d3 c2b7
000002f0: 724f 34ba 50c1 09ba 3fe1 21b9 0e45 6bb9
00000300: 01a6 c339 9404 63b9 d6dd 31bb 29a3 51ba
00000310: 87d9 03ba d65e 20ba c97a e839 00af 08b9
00000320: 1cfa b7b7 79e2 0dba 83fe 06bb 7c1f 35ba
00000330: 115f 95ba 5563 f237 e0ac 86ba b0d1 6bb9
00000340: 0799 59b9 921b ab39 a8d6 e7b8 4835 0bb9
00000350: 23cb eeba 15eb 32ba a075 41b7 6932 1bba
00000360: 1424 23ba 3d5e 4bba 15cf d6b8 6087 9fba
00000370: 7eb7 8bba 70e3 24b9 a464 ab3a a8b4 7ab9
00000380: f08f 22bb 9567 edb9 f31c 51ba 73a7 92ba
00000390: 8367 90ba 0ee3 91ba 2424 1936 bb37 ff39
000003a0: d2b0 9439 8b46 afba 4e25 72b8 98b9 a6b9
000003b0: 497a 00b8 a609 783a 9379 513a 0684 59b9
000003c0: b23c d7b8 bb6e 5cba a0db 31ba a507 ecba
000003d0: 7a3b 45ba 86af 643a 0350 16ba 8c15 a2ba
000003e0: 98b0 45ba 29f1 bfba a3bb a73a 1396 04bb
000003f0: 9823 f5b7 8e5e 8bba f959 f5b9 3e6f 62ba
-0.0005865512 -0.0010194741 -0.0022124108 -0.00081989315 -0.0004934289 -0.0007007294 -0.002430232 0.00017963689
-0.0003031253 -0.00038774224 5.3914227e-05 -0.00069465046 0.0009179674 -3.241541e-05 0.00059905084 -0.0016025905
-8.3055544e-05 -0.00025728025 -7.969528e-05 0.00030386803 -0.00093471183 0.00034767797 -0.0005663284 0.00037299926
-0.0010634179 -0.0017268623 -0.00068263814 -0.0009955156 -0.00018895406 0.0004930384 -0.0003888548 -9.3396055e-05
0.0007015931 -0.0011810568 0.0003320495 -0.00011613642 0.00074025244 0.0008863739 0.00021887675 -0.00041429466
-0.0009868525 -0.00013167207 -0.0015388754 -0.00058661104 6.4086526e-05 0.00011404327 0.0006297507 -0.0016938818
-0.0006824636 -0.00012835344 0.00041334453 -0.0007301966 0.0005984706 -0.0021137125 -0.0013703794 -0.0014595494
-0.00018153503 -0.0005767951 -0.0006376286 -6.819615e-05 -0.0011115329 -0.00027768014 -0.0006336199 -0.0017015358
-9.5597505e-05 -0.00039231603 -0.00014889115 -0.0010163783 -0.00078374025 -0.00069404667 0.00044689 -6.736507e-05
-0.00027727275 -0.0013710727 -0.0004974009 0.0010692197 0.0010429447 -0.00020129193 -0.0005377803 -0.000422033
0.00019356994 -0.0016504417 -0.00060521817 -0.00038927447 0.00063174235 -0.0024184135 0.00077554974 -0.0005177174
-0.0005043877 -0.0003862207 -0.00067264406 7.173207e-05 -2.4216683e-05 -0.0012433737 -0.00059758854 -0.0010006353
-0.00158791 -0.0010102097 -0.0004986883 -0.0016775747 0.0007910779 0.0010428486 -0.00023762701 0.00095135294
0.0008803478 -0.0004900748 0.00090420997 -0.0009689843 -0.0011767189 0.0001821424 -0.001121297 -0.00084587926
-0.0007905494 -0.00017083858 -0.00021221323 -0.00013907773 -0.0022247308 -0.00078002264 -0.001655027 -0.00072368805
-0.0013259795 -0.0007170181 2.8029175e-05 -0.0007400554 0.00017774335 -0.00078387914 -0.0020507174 -0.00052086206
-9.877033e-05 -0.0014067852 -0.00029627266 0.00059645716 -0.00034261358 -0.0025092815 -0.0016437602 -0.00049460575
-0.00081038754 0.00055732386 0.00090972835 0.00035604462 -0.00021373623 -0.001077483 -0.0013209746 0.000832303
0.00038110654 1.0787622e-05 -0.0011860386 0.0019279174 0.00019334108 -0.0013719806 -0.001236238 -0.001060928
0.0002945838 -0.0005830753 0.0010251233 -0.000555545 -0.00061859144 -0.0010242375 -0.00077941956 -0.00017138479
-0.00056020677 0.00038589112 0.00080480584 -0.00048646942 -0.0007140429 0.000120976976 -0.0008094521 -0.0005466471
-0.0013453185 -0.00092686457 -0.0006159874 -0.000504683 0.0006734545 -0.00076109916 0.00076197967 -0.0002664989
0.00019335735 -0.00037466089 -0.0012174738 -0.00023517697 -0.0001881552 0.0001515896 0.00033778357 0.0010365229
-0.0013123858 -0.0016026553 -0.000368601 -2.3225188e-05 -0.00068782934 -0.0005254941 -0.00015438067 -0.00022437071
0.0003731698 -0.00021650112 -0.002714028 -0.000799703 -0.00050296675 -0.0006117647 0.0004434197 -0.00013035163
-2.1931766e-05 -0.000541247 -0.0020598478 -0.00069092936 -0.001139613 2.8894903e-05 -0.001027491 -0.00022489461
-0.0002075174 0.00032636203 -0.00011054921 -0.00013275922 -0.0018218498 -0.0006825191 -1.1531083e-05 -0.00059202925
-0.00062233326 -0.0007757878 -0.00010242887 -0.0012171082 -0.0010659543 -0.00015724986 0.0013076258 -0.00023909158
-0.0024805032 -0.00045281337 -0.0007977031 -0.001118882 -0.0011017177 -0.001113029 2.2819813e-06 0.00048678913
0.000283605 -0.0013372464 -5.773204e-05 -0.00031800265 -3.0631465e-05 0.0009461887 0.0007990833 -0.00020743915
-0.00010263304 -0.0008408834 -0.0006784741 -0.0018007649 -0.00075238163 0.0008723665 -0.00057339686 -0.0012366041
-0.0007541268 -0.0014644015 0.0012797009 -0.0020231053 -2.922285e-05 -0.0010633038 -0.00046797076 -0.0008637792

network_body._body_endoder.seq_layers.2.weight f4 [256, 256]
00000000: 82ca d63b aa65 6cbd aaec 13bd 2e9a 7bbb
00000010: 5c12 293e 6e7a ab3c 9eb4 b33d 6467 b5bd
00000020: ab0d 753d 3634 093e 4917 d03b 7eb8 aa3d
00000030: f1c3 283d 39d7 09bb ae50 553d d6c4 c53d
00000040: a646 eb3d 4bfb 263c 521b 1f3c c950 d13c
00000050: 8959 8f3d 822f 1abc 16c5 35bd 15d2 01bd
00000060: e676 22bd f37c 343c f5cf b03d 2cc2 03be
00000070: 575e 823d b463 88bd 89a8 7e3d 9c09 00bd
00000080: 6a95 0dbd 72b1 c03c ea00 e5bd 82a8 c23c
00000090: 165c 50bc 344b 6a3d e999 193d b13b 7a3d
000000a0: ae39 bfbc fcf7 e6bc b9f8 883b 1901 51bd
000000b0: 945b 423d b351 c5bc 3ba4 cf3d 97da 57bd
000000c0: 5cb1 8d3c 14e3 5abd bcbb d73c 9957 813c
000000d0: c351 cb3c 7f4e 373d 9668 303d b4d9 b23c
000000e0: f864 753d 1cf7 003d 47ac f7bc 1dec 883d
000000f0: 064c 233d 1e60 f3bd 2372 c83c 6066 2e3d
00000100: 6749 01be c60e ba3d c122 7fbd dc05 483d
00000110: 1073 b0bc 8ae8 05bc 0179 6a3c 1c00 35bd
00000120: 4d22 833b 1213 8dbc e436 8d3d fd2b db3c
00000130: e231 a13c 52c2 703c c7d5 1c3d 8466 e8bc
00000140: d389 efbd 7623 06bc d13c d4bd 54d4 2fbd
00000150: 06f5 7dbc 5b61 c23d 3db3 41bd 1f24 573d
00000160: 70ed 8f3d 504a cb3c f884 3d3d 9ed5 3a3d
00000170: c2c8 1b3e 84d9 b6bd 74ee 733d 1566 31bc
00000180: b9d2 943d bea2 033d c507 ac3d b7c1 1e3d
00000190: 0641 4cbd 50bd ddbc bc93 a43d 6cd3 d1bc
000001a0: cf5a c9bc 7653 213e 8bda 09be cede b43b
000001b0: 5a2e d0bc fdef 8fbd f033 933d 1b43 c9bc
000001c0: af63 933d 5d69 c2bd d969 25be 8c68 90bd
000001d0: 7f84 e93c 5155 27bc 00a5 d83d 6c8d bbbd
000001e0: 273b 893b 50c0 2dbd d3cd 253d c064 d83c
000001f0: 136d 09bd 6396 12bd fe96 023d 82e0 1e3d
00000200: 5edf 903c ca55 263d 82b6 fbbc f1c7 d2bd
00000210: 1285 01bd 09ee b2bd 7f32 49bd 46b5 673d
00000220: 10ca 273d 9018 903d f6b3 dd3a 4f35 46bd
00000230: a5a2 a6bd e9c5 43bb 8051 303d 8081 af3b
00000240: 20be a8bd 28d2 65bd 2602 123d 5d0c af3d
00000250: c43e 763c 001d 533d 0810 9c3d b207 723d
00000260: d65b c53b 2dc2 b43d c458 6d3d 6a82 c9bc
00000270: 4056 6f3c a3c3 afba f552 9bbd 2cc7 a3bc
00000280: f1c7 6b3b eea9 17be d850 c63c 9d46 9fbd
00000290: 6a3c 473c fac0 b03d 85a5 95bc 7ccb ff3c
000002a0: a2e9 e9bb dc0e 06bc eadb 083d 1689 843d
000002b0: c531 ca3c 1982 cf3d b64f 083e dca5 7fba
000002c0: 3bfd 7bbd 1729 103d 489d 26be 4b43 dbbd
000002d0: d14b ac3d 5927 5bbd 02f9 6ebd 1fb6 373d
000002e0: bcea 8e3c 4fb1 d33d 7620 ecbc ff2d ec3c
000002f0: aab9 a2bd 6a9f 02b8 e9b0 3cbd fa35 213d
00000300: bf0c 033e 53b5 edbb dbaa 803b 77f2 7a3d
00000310: 3a2a f9bc b32f 613d 26dc d4bd a687 cbbc
00000320: 9cb0 eb3b d245 f63c 9277 e2bd 1c9a 7dbd
00000330: 25e1 1bbc cb9b 15bd 3448 913d 352e ff3d
00000340: 732f 013e 500b 0fbb f86c 3ebc 8d40 8d3c
00000350: 42c1 383d 45a0 953d 61b6 b4bd 4262 69bc
00000360: 6e58 44bd 2360 08bd 598f a23c 1a81 293e
00000370: e33b f2bc 802e a23b 9123 7bbd 8d93 533c
00000380: 9810 3f3c 3fa4 12bd 9b6e 553d 3ae8 0bbc
00000390: d18c 99bc ca55 a0bd 1e53 33bd f6bb 5abc
000003a0: 85de a93d 82a5 a13d e37d e7bc 7803 61bd
000003b0: c938 7d3b a40d a23d 2376 533d 29a8 a7bd
000003c0: d99c edbb b07f 5b3d 35ca 003d 21e6 90bd
000003d0: 262c 863c 1f01 d9bd f2ac f9bd 5a52 ebbd
000003e0: 98da 28bd a7db c0bb 6896 de3c 40f2 90bc
000003f0: 3947 81bd d120 f83c 55c1 dcbc 5e6f 8bbc
0.0065549025 -0.057714142 -0.036114372 -0.0038391459 0.1651091 0.020932402 0.08774684 -0.08857611
0.059827488 0.13398823 0.006350432 0.0833597 0.04120249 -0.0021032824 0.052078895 0.09656684
0.114880845 0.010191749 0.0097111035 0.025551217 0.06999499 -0.009410741 -0.04437741 -0.03169449
-0.03966417 0.011016118 0.08633415 -0.1286704 0.0636565 -0.06659642 0.062172446 -0.031259164
-0.03456632 0.023522113 -0.11181815 0.023761991 -0.0127172675 0.057200626 0.037500296 0.061092082
-0.023342934 -0.02819442 0.0041800407 -0.051026437 0.047450617 -0.024086809 0.10138746 -0.052698698
0.017296486 -0.053439215 0.026334636 0.01578884 0.02481926 0.044752594 0.04306849 0.021832325
0.059910744 0.031485662 -0.030233515 0.0668566 0.039867423 -0.11883567 0.024468487 0.0425781
-0.12625657 0.09084849 -0.062289003 0.048833713 -0.021539241 -0.008173117 0.014311076 -0.044189557
0.0040018917 -0.017221007 0.06895235 0.026754374 0.019677106 0.014694767 0.03828981 -0.028369196
-0.1169621 -0.0081871655 -0.10363162 -0.0429271 -0.015500313 0.09491225 -0.047290076 0.052524682
0.070277095 0.024815708 0.046269387 0.045613877 0.15213302 -0.089282066 0.05955358 -0.010827561
0.07266755 0.032137625 0.083999194 0.03875896 -0.0498667 -0.02706781 0.080359906 -0.02561351
-0.024579434 0.15754494 -0.13462274 0.0055197245 -0.025412727 -0.07028196 0.07187641 -0.024568131
0.071967475 -0.09492753 -0.16153659 -0.07051191 0.028505562 -0.010213212 0.10578346 -0.091578335
0.0041879597 -0.04241973 0.040479492 0.026415229 -0.033551287 -0.03578795 0.03188228 0.038788326
0.017684635 0.04060916 -0.030726675 -0.10292042 -0.031621046 -0.08736808 -0.049120422 0.05656936
0.040964186 0.07035935 0.0016914594 -0.048390683 -0.08136491 -0.0029872602 0.043046474 0.005356014
-0.082393885 -0.056108624 0.03564658 0.0854728 0.015029613 0.05154133 0.07620245 0.05908937
0.0060229106 0.088260986 0.05794598 -0.02459832 0.014607966 -0.0013409745 -0.07584182 -0.019992433
0.0035977329 -0.14810917 0.024208471 -0.0777714 0.0121604 0.08630557 -0.018267402 0.031224959
-0.007138447 -0.008182254 0.03341285 0.064714596 0.024681935 0.10132236 0.13311657 -0.0009752193
-0.061520796 0.035195436 -0.16270936 -0.107061945 0.08412898 -0.05350432 -0.05834294 0.04485142
0.017445914 0.10336553 -0.028824072 0.028830526 -0.07945569 -3.114288e-05 -0.046067152 0.039358117
0.12797831 -0.0072542815 0.0039266176 0.06126639 -0.030415643 0.05497713 -0.103935525 -0.024844956
0.0071926843 0.03006259 -0.110579625 -0.06191455 -0.009514128 -0.03652553 0.0709385 0.12459985
0.12615757 -0.002182681 -0.01162266 0.017242694 0.04510618 0.073059596 -0.088238485 -0.014244618
-0.047935896 -0.033294808 0.019843744 0.16553155 -0.029569572 0.004949391 -0.061313216 0.012913597
0.011661671 -0.03580117 0.052107435 -0.008539254 -0.018743904 -0.07828863 -0.04378044 -0.013350477
0.08294395 0.07892896 -0.02825827 -0.05493495 0.0038638583 0.07912758 0.051626336 -0.08186371
-0.0072513637 0.05358857 0.03144284 -0.070751436 0.016378473 -0.10595917 -0.1219119 -0.11490317
-0.041224092 -0.0058855596 0.027171329 -0.017693639 -0.06312413 0.030289086 -0.026947657 -0.017020877

network_body._body_endoder.seq_layers.2.bias f4 [256]
00000000: 6358 0bba d183 b2b9 a307 0dba 9d7c b9b9
00000010: 1160 2cb9 8e69 c9b8 006b 01bb f2a8 a6b9
00000020: a182 d8b9 3563 993a 7cbc 0db8 c40b c1ba
00000030: a0cf 2c35 50c5 6f39 c01b 9c3a 9d90 c6ba
00000040: 3891 4e3a 6078 12ba ea8a a9ba 97b7 0039
00000050: bfb1 4bba 7bd3 403a 1be1 c339 6223 b039
00000060: d881 b13a 49df 41b8 9f4f 0e3a 655d c4b9
00000070: 18d4 06ba e503 e1b9 7b10 3eba 76f3 7a38
00000080: 0a79 cd39 21d4 bab9 2360 dd38 7a35 d639
00000090: 0cee 67ba 62b1 b9ba c50e 8438 e16e 7d39
000000a0: 1ec4 0eba 949e fc38 4142 29ba 7808 cab8
000000b0: b815 a739 2932 4bb8 29b1 e7b9 1a01 74b9
000000c0: ca9e 92ba 1742 10b9 9865 4dbb 3c44 60b8
000000d0: 4bd0 28ba 10b1 3738 0695 2fb9 4ca8 28b7
000000e0: 9a07 b338 1868 e839 9a8c adba cccc 8db7
000000f0: fb1c ce39 3831 95ba 60c0 02ba be43 f9b8
00000100: 84d8 293a 8e43 87ba 4efb 54b9 2d7a 80ba
00000110: 9e5c 7d39 6c8d 2dba 638e 81ba fe23 9439
00000120: 9327 81b9 c04f 44bb 72fd 473a a2fe b0b9
00000130: 4ec0 b93a 748f c6b7 1e55 4d3a 5082 f3ba
00000140: fec5 89b8 2515 49b9 eb72 45ba 101f 4838
00000150: d66b dbb9 b530 5c3a 90a2 c5b9 d9ce 0dba
00000160: 746a ab38 bbd5 bab9 8919 93ba dfa0 89ba
00000170: 4819 bfb9 59e6 e039 7038 85b9 68b4 3bba
00000180: 9d17 50ba 40df 5e3a 4c64 98ba 9f35 6db8
00000190: cbbc cdb9 8c04 09ba e285 8239 5e66 b73a
000001a0: be32 f7b9 d651 2e3a 24d7 b1b9 d0df a937
000001b0: 3e97 94ba 259c ddba 47fc afba b576 81b9
000001c0: 139f f3b8 f4df d1b6 c46a 2fb9 ea16 9bb9
000001d0: f12d d2ba 58fd d7b9 227f 7939 13d7 7cba
000001e0: ae2c c7b8 6f51 e4b9 755a 3bba 5208 b1b9
000001f0: 3a7b b638 dc1f 2dba 9439 2aba 3100 363a
00000200: 63b2 97ba 5676 7db8 94cf a1b9 9a30 f839
00000210: 290e e0b9 0463 ecb7 3858 26b9 8ca2 01b9
00000220: 2ecd dc39 c8cf 0fba 2bf1 c8b9 a92e 133a
00000230: 68b9 cab9 2a11 20b9 bafc c538 03e7 b2ba
00000240: 4ab8 6fb9 743d 57ba 05c8 a6b9 4ab7 0dba
00000250: 78a1 1aba b0cd 2ab8 0614 4cba 02f5 e039
00000260: 4cbc f8b9 7201 b63a ea71 aab9 dd76 00ba
00000270: 4b6a f5b9 c1e1 8aba c4c7 8cb9 9711 f3b8
00000280: fd51 8eb9 e7b6 b63a 967a 87b9 53c2 71b9
00000290: 1177 2aba fa5d 0a39 348e a3b9 9076 55b9
000002a0: 30d6 9cb9 d6b6 25ba be34 2738 f017 d3b9
000002b0: 3772 863a 675c 38b9 f6e3 38ba 5e18 6db9
000002c0: 05e1 8bb9 260e a4b8 9cd3 13b9 28a8 82ba
000002d0: d278 c837 0909 efb9 f922 db3a 8dd4 5c3a
000002e0: 585f cb38 c8b3 e1ba ec7a a0b9 bc00 66b9
000002f0: 5eed 55b9 8ab5 f739 662e 68ba a9b7 cab8
00000300: f597 b7b9 a953 87b8 7a4d b3b8 3866 f3b9
00000310: 9c08 16b8 96da 43ba 737b fbb9 feea 4eba
00000320: 34cc 9638 fa41 34ba 5c7d 27ba 52e0 a6b9
00000330: ee4e a3ba a686 4d38 0536 11ba 2cf6 1db9
00000340: fc4c 5839 23b5 92ba e376 423a 5bf6 2a3a
00000350: c502 11ba 04e4 27b9 25b0 a7ba 677e d9b9
00000360: 4dc6 8bb8 8c54 a0b9 3736 8c38 6051 9536
00000370: 4187 81ba 1041 12ba 1a81 0f3a ab8b 1dba
00000380: 5698 faba 4c52 caba d393 3bb9 bd9b ca39
00000390: b80d 59b9 55e7 beb9 86d2 113a 6394 edb9
000003a0: f24e 03ba 2688 28b9 4e43 a8ba 5f1c 06bb
000003b0: 2f82 36b9 bc89 3939 4110 12ba 0a81 a6b8
000003c0: 7635 bcb8 c167 6938 e010 9dba 050c 83ba
000003d0: b2fb 4c3a 18f9 aeba 5177 bd38 f409 1bb9
000003e0: 0c8d 8bba e813 cd39 cb6d 2439 75b7 f4b9
000003f0: 0131 0c39 2b6c 03ba 5073 8dba a3ea 6cba
-0.00053156 -0.00034049017 -0.0005379861 -0.00035378794 -0.00016438986 -9.604088e-05 -0.0019747615 -0.0003178786
-0.00041296057 0.001170254 -3.379256e-05 -0.0014728238 6.437713e-07 0.00022866321 0.0011910126 -0.0015149299
0.00078799156 -0.0005587395 -0.0012935076 0.00012275424 -0.00077703217 0.0007355732 0.00037361015 0.00033595698
0.0013542725 -4.6222736e-05 0.00054287346 -0.00037453618 -0.0005143299 -0.00042918246 -0.00072503806 5.9831385e-05
0.00039190828 -0.00035634733 0.00010556008 0.00040857104 -0.00088474224 -0.0014167244 6.2970015e-05 0.00024169266
-0.0005446094 0.00012045834 -0.0006456711 -9.633688e-05 0.00031868904 -4.8445687e-05 -0.00044191748 -0.00023270064
-0.0011186239 -0.0001375753 -0.0031341072 -5.346931e-05 -0.00064397295 4.3795502e-05 -0.00016744816 -1.0052765e-05
8.536801e-05 0.00044328044 -0.0013240755 -1.6903876e-05 0.00039312974 -0.0011382466 -0.00049877726 -0.00011885863
0.0006479102 -0.0010319815 -0.00020311514 -0.0009802036 0.00024162463 -0.00066205 -0.0009884353 0.00028255576
-0.00024634282 -0.0029954761 0.0007629014 -0.00033759052 0.0014171691 -2.367024e-05 0.0007832813 -0.0018578265
-6.569548e-05 -0.0001917673 -0.0007532078 4.7712645e-05 -0.0004185128 0.0008399592 -0.00037695887 -0.0005409546
8.173744e-05 -0.00035635926 -0.001122282 -0.0010500214 -0.00036449195 0.00042896232 -0.00025409786 -0.00071603665
-0.0007938089 0.0008501895 -0.001162657 -5.655514e-05 -0.0003924131 -0.0005226813 0.00024895283 0.00139923
-0.00047149317 0.0006649768 -0.00033920363 2.025059e-05 -0.0011336578 -0.0016907497 -0.0013426625 -0.0002469324
-0.00011616773 -6.254757e-06 -0.00016729074 -0.00029580976 -0.001603542 -0.0004119675 0.00023793851 -0.00096450857
-9.497382e-05 -0.00043548222 -0.0007146963 -0.0003376627 8.701389e-05 -0.00066041737 -0.0006493565 0.00069427775
-0.0011573549 -6.043011e-05 -0.0003086297 0.00047338457 -0.0004273516 -2.81795e-05 -0.00015863858 -0.00012362952
0.0004211454 -0.0005485979 -0.00038326657 0.0005614558 -0.0003866658 -0.00015265183 9.440766e-05 -0.0013649169
-0.00022861469 -0.00082107564 -0.00031811013 -0.00054060353 -0.00058986945 -4.072272e-05 -0.0007784966 0.00042907154
-0.00047442538 0.0013885929 -0.000325098 -0.00049005245 -0.00046809236 -0.0010595844 -0.00026851718 -0.00011590419
-0.00027145437 0.0013940007 -0.0002584054 -0.00023055942 -0.00065027276 0.00013195715 -0.00031195732 -0.00020357431
-0.0002991422 -0.0006321495 3.9865023e-05 -0.0004026289 0.0010257427 -0.0001758203 -0.0007053012 -0.00022611159
-0.000266798 -7.822765e-05 -0.00014097843 -0.0009968327 2.389812e-05 -0.00045592364 0.0016718797 0.00084240065
9.6975535e-05 -0.0017219717 -0.00030609162 -0.00021934783 -0.00020401689 0.00047246768 -0.00088570116 -9.66632e-05
-0.00035017697 -6.4528846e-05 -8.549816e-05 -0.0004642473 -3.5770805e-05 -0.00074712315 -0.00047966428 -0.0007893293
7.190593e-05 -0.00068762864 -0.00063892244 -0.0003182912 -0.0012459436 4.900121e-05 -0.00055393606 -0.00015064393
0.00020628044 -0.0011192899 0.0007418228 0.0006521695 -0.0005531724 -0.00016011304 -0.0012793584 -0.00041483642
-6.664973e-05 -0.0003058057 6.6858185e-05 4.4500193e-06 -0.0009882228 -0.0005579153 0.0005474255 -0.0006009887
-0.0019118886 -0.0015435903 -0.00017888779 0.00038644476 -0.00020699843 -0.0003641198 0.00055626815 -0.0004531472
-0.0005009017 -0.00016072448 -0.0012837441 -0.0020463688 -0.0001740537 0.00017694285 -0.000557188 -7.939532e-05
-8.9744964e-05 5.5648157e-05 -0.0011983179 -0.0009998089 0.0007819488 -0.0013349382 9.034447e-05 -0.0001478566
-0.0010646894 0.00039115478 0.0001568116 -0.00046675993 0.00013369696 -0.00050133717 -0.0010791812 -0.0009037649

network_body._body_endoder.seq_layers.4.weight f4 [256, 256]
00000000: c549 7b3c 71e3 993d c2d4 1c3c 9493 13bc
00000010: a38d 213c f88d a7bc 2ef7 783d aabb 31be
00000020: 1862 823c 627f 19be 718e da3c 9a53 f8bc
00000030: 19f0 08be 6cde c63d e0eb 5bbd e91f 5a3d
00000040: 37c1 c93d 1f8c c73d 7633 d7bd 4d95 553d
00000050: 05a3 4ebc 3067 61bc 13ed e63b f8f4 eabb
00000060: 7923 d4bc eceb abb7 f087 3ebd 1a2f 97bd
00000070: 5f52 0dbe 196c 5dbd 7d02 713c 4851 b7bc
00000080: 1a17 d23d 14bf 70bd 9483 3b3d e5b2 9bbd
00000090: 3e10 42bb bb67 43bd 8f76 4a3d 86ce aa3d
000000a0: 9362 893d 0ced 72bd 3a03 b3bd 6dbb 8b3d
000000b0: a997 cabc 0459 a6bb 3122 97bd 8bcb 97bc
000000c0: 45b8 38bd b9ca 50bd bb40 3c3d 3558 3dbd
000000d0: e929 09bd cb0b c5bc e85f 5fbc 1969 233d
000000e0: 1f98 483b 51cc 9bbb dbd2 d9bd dbca a5bb
000000f0: 0ce5 6e3c 129e 29bd f227 c9bb c246 06bb
00000100: 1302 88bc 285c 0ebd 3399 dfbc 5c22 30bd
00000110: 9592 96bd 4278 e63c 64b3 16bd c468 6a3d
00000120: 9430 063d 03f4 1abd ac16 e4ba f645 48bc
00000130: 9753 8ebc 96f0 49bd 47c5 a83c 4106 ac3d
00000140: a367 6fbd 9136 293b cd36 8e3d a59a e3bd
00000150: e7cf b03c be54 74bd 1874 ad3d 0292 b1bc
00000160: 7a1c cf3b e81c bf3d d26a 86bd e00b 22bd
00000170: 9d46 783c 8cfe 813c b6f2 d43c f8c4 5ebd
00000180: 90c1 57bd f770 ec3c e528 3fbc aac6 5abc
00000190: 7127 e43d 783a 803c 4cd7 be3c 6fe7 423d
000001a0: 9c23 343e 8c6b 03be e2ae 473d 1b5b 13bd
000001b0: fa94 c9bc 5582 293d bb5a 1a3c 0c26 c1bd
000001c0: 9e89 443d f407 19bd 5f85 f73b 0e03 84bd
000001d0: f1d3 c8bd b674 b43b 1ca1 8cbd ac9c 61bd
000001e0: 73cb 4e3d a84b 99bd d453 63bd 6835 c5bc
000001f0: f86e bf3c 07e8 5fbd e143 cbbd 11d8 403d
00000200: 32ed 73bd 7486 973d f904 ec3d df50 c9bc
00000210: 3069 533d 3d76 bcbd c0de b63c 5e7a 0abc
00000220: 9621 163e f435 443c 73d2 32bb a43a 09bd
00000230: b094 1dbe e28e ef3c 0cd4 993b dde6 04bd
00000240: 5eac 04bc 464f c0bd 61f4 0abd de50 ffbc
00000250: eb06 b5bd 15f5 07bd 9e4d 92bd 7ce5 7abd
00000260: 0207 8abd 6248 6b3c e277 cb3c f1ae d03c
00000270: 43d8 b9bd 6f97 b23d 8efb 0139 98bd a5bd
00000280: 006c 36bd 7551 c13c e028 b23b 5db3 7b3d
00000290: d667 10bc 2316 c03d 8c18 4d3d 6ade a1bb
000002a0: 0431 a23b c884 f63c 8925 673d 8098 ad3d
000002b0: ba07 9ebd f189 50bd c61d c0bb 42d4 8bbd
000002c0: d815 ebbd 85bb a1bd 7bb0 d4bc 7ea1 dbbc
000002d0: defd 4ebc a98a fcbc 80c9 14bd 8e52 f83b
000002e0: 750d 10bd e5e5 83bd 629b a4bd f386 d3bd
000002f0: 810f 833c 3c12 2f3d 7c8b 31bb fa26 14bc
00000300: 60d9 cdbd c9bc 64bd ae11 573d 660e 733d
00000310: e6bd d4bd 90d0 bd3d 6fa8 8e3d 2628 94bd
00000320: e7b9 6d3d bea6 96bd e5d5 06bd 983d 253c
00000330: 3555 8e3d 79b1 f3bc 6398 90bd 9b10 523d
00000340: b649 143d 44f8 3e3d 5cf1 2b3c 7aec c9bc
00000350: 4b40 3f3d cd4a b33c 058c 10bd 1f1f 323c
00000360: 9031 073d bcbf 26bd 736b d23c b09f 933c
00000370: c627 65bc bbeb 0bbd b4db 8dbc 565c b0bc
00000380: c6b9 ebbd 6fc5 2b3d e292 4cbd fcad 1cbc
00000390: 663c 623c 579a 16bd 14a2 213a 98d2 443d
000003a0: 9923 82bd 0039 ca3d 0267 d43c 62dc 54bd
000003b0: 1454 82bc e2ab a33d c76a d63c 8987 2d3d
000003c0: 324c bd3d 4b92 a0bd baf0 09bd 4221 75bd
000003d0: 1a7f 3abd 8a00 04bb 3892 913d a6a6 6a3d
000003e0: ead2 803d bfab 2a3e a77b a03d a9a0 ad3d
000003f0: fb41 16bc 5c75 8dbd e3e7 dd3d ba35 9cbc
0.015337412 0.07514084 0.00957221 -0.009007353 0.009860429 -0.020453438 0.060782604 -0.17356744
0.015915915 -0.14989999 0.02667925 -0.030313302 -0.1337284 0.09710392 -0.053691745 0.05325309
0.09851306 0.09743523 -0.10507862 0.052144337 -0.012612109 -0.013757512 0.0070473044 -0.007170316
-0.02589582 -2.0494648e-05 -0.04651636 -0.07382031 -0.13800953 -0.054058168 0.014710066 -0.022377625
0.102583125 -0.058775976 0.04577978 -0.07602481 -0.0029611732 -0.047706347 0.049429473 0.083401725
0.06708255 -0.059308097 -0.0874085 0.06822858 -0.02473052 -0.0050765295 -0.07379568 -0.018529674
-0.045097608 -0.05097458 0.04596017 -0.0462267 -0.033487234 -0.024053475 -0.013633706 0.03989515
0.003060825 -0.004754581 -0.106359206 -0.0050595826 0.014580976 -0.041410513 -0.006138795 -0.0020488952
-0.016602552 -0.034755856 -0.02729473 -0.043001518 -0.07352177 0.028133515 -0.036792174 0.05722882
0.03276117 -0.037830364 -0.0017401776 -0.012223711 -0.017373843 -0.049301706 0.020601882 0.0839963
-0.058448445 0.0025819878 0.06944046 -0.111134805 0.02158351 -0.05965113 0.08469409 -0.021676067
0.0063205333 0.09331685 -0.06563343 -0.039562106 0.015153554 0.015868448 0.02599464 -0.054387063
-0.05267483 0.02886246 -0.011667465 -0.013353029 0.11140335 0.01565288 0.02329602 0.047583994
0.17591709 -0.12833995 0.048750766 -0.035975557 -0.02460717 0.04138406 0.009421046 -0.09431085
0.047982804 -0.0373611 0.007553741 -0.06445895 -0.098060496 0.005507077 -0.06866667 -0.055081055
0.050486993 -0.074851334 -0.055499867 -0.024073318 0.023368344 -0.054664638 -0.09925056 0.047081057
-0.05955238 0.07398692 0.11524386 -0.024574695 0.051613986 -0.0920224 0.022323012 -0.008452026
0.1466125 0.011975754 -0.0027286082 -0.03350319 -0.15388751 0.029242937 0.0046944674 -0.03244673
-0.008097736 -0.0939012 -0.033924464 -0.03116649 -0.0883921 -0.033192713 -0.071437106 -0.06125401
-0.06739618 0.014360519 0.024837438 0.025474044 -0.09074452 0.0872029 0.0001239611 -0.08092803
-0.04453659 0.023598412 0.0054370016 0.06145035 -0.008813819 0.09379222 0.050072238 -0.004939844
0.004949691 0.030092612 0.05643228 0.08476353 -0.077163175 -0.0509128 -0.0058629243 -0.06827594
-0.11478776 -0.07897095 -0.025963059 -0.026810404 -0.012633769 -0.030827837 -0.036324978 0.0075782007
-0.035169084 -0.06440333 -0.080374494 -0.10328474 0.015998604 0.042742 -0.0027091196 -0.009042496
-0.100512266 -0.055844102 0.052507095 0.059339903 -0.10387783 0.09268296 0.0696572 -0.0723422
0.05803862 -0.07356022 -0.03291883 0.010085486 0.06949846 -0.029747711 -0.070603155 0.051285367
0.03620311 0.046623483 0.010494556 -0.024648894 0.046692174 0.021886254 -0.035289783 0.010871678
0.03300625 -0.040710196 0.025686001 0.01802048 -0.0139865335 -0.034160357 -0.017316677 -0.021528404
-0.11510043 0.041936334 -0.049944766 -0.0095629655 0.013808345 -0.036768284 0.0006165814 0.0480524
-0.06354446 0.09874153 0.025928024 -0.051967986 -0.015909232 0.079917684 0.026173962 0.042365585
0.09243049 -0.07840403 -0.03367684 -0.05984617 -0.04553137 -0.0020141923 0.07107967 0.057287835
0.06290229 0.16667078 0.07836085 0.08477909 -0.009171004 -0.0690715 0.108352445 -0.019068588

network_body._body_endoder.seq_layers.4.bias f4 [256]
00000000: df13 1cba f440 8d3a ec9a 2839 68f9 2eba
00000010: 3f4f 45b9 72c6 6e39 bce1 d6b8 f8d3 b939
00000020: 8ce0 2b3a a979 d8b9 8e6a 83b9 e699 54ba
00000030: b315 d6ba d4f4 cc36 bcca 96b9 4d9e 70ba
00000040: 5d3f a139 3d1b 17b8 21e2 38ba a60d 92b9
00000050: d21d 89ba f60d 05ba 6451 45b9 da9c 15b9
00000060: 7107 1dba a6c3 04bb 8a0a 90b9 ff5b ee38
00000070: 110b 5f3b 751f 01ba 0ba7 dfb9 0068 1e38
00000080: 0c2d a13a 1fb4 9b39 ad0c 6239 3ed1 723a
00000090: dbee e4b9 953b e539 9698 063a 7b99 d3ba
000000a0: 8399 02bb ac1d 6d39 a5ae 6bb9 d5bb 11ba
000000b0: 8971 81ba 0d40 9239 188b 2bba 5b44 a6b9
000000c0: 30d3 53ba 625d dcb9 d9a7 4c38 ab6f d037
000000d0: fa14 35b9 a7b9 69b9 f6bd dab9 6627 65ba
000000e0: 7894 40b9 f996 aaba 730c e737 38ae c139
000000f0: 16aa d9ba c0a4 66b9 7605 4fb9 9823 d9b9
00000100: e231 a5ba 00e4 283a 440e 58b9 bb85 97b9
00000110: 5c60 54b9 2143 45ba 0793 abb7 5c02 e938
00000120: a9ba b83a da28 44ba e6ed 8338 db66 77ba
00000130: 2a9b a339 f253 473a e97b 4c3a 09b5 c2ba
00000140: 9905 f138 32b1 1bba ea88 9639 6089 81ba
00000150: 56e5 9a39 98b9 ca39 f75e 3db9 14d1 b5b9
00000160: 40f8 6e3a 9522 c0b9 6293 cab9 7bdf 3fb9
00000170: 014b 3eb9 d901 93ba 4660 cbb9 a208 f939
00000180: 0032 26ba a89c 2eba c45e 99ba ded8 e4b9
00000190: 4ed2 0739 ae79 c5b9 40e3 f4b9 c619 89ba
000001a0: a431 9539 6a6c 3837 fd75 533a 34ed c43a
000001b0: 4aab 02ba cbef 97ba d606 99b9 6ac6 f1b9
000001c0: 3cea 79ba 6a7f 91b9 ede4 40b9 3891 1c3a
000001d0: 0899 a5ba ce69 0e3a 2063 9c3a ee8c d1b9
000001e0: 07c7 eeb8 e498 8cba e317 0db9 71f8 c4b9
000001f0: cfac 893a aa4c b138 8e4a 9b39 dabb d2ba
00000200: 4b3f 7f39 3d24 dbba 2b39 9139 3111 8039
00000210: b247 aeba 1471 b63a b859 e237 f2e4 9938
00000220: 24e9 8dba d910 9b3a 2f05 3139 0def c2ba
00000230: a493 e0b7 5631 1d3a 8778 3aba 7b2e 07ba
00000240: b423 243a 41e7 7f3a 123c efb9 ea36 14ba
00000250: 10ae 89b8 843a 9438 12d6 1139 367f 7338
00000260: ad45 cd39 c295 fab8 1865 e239 92f2 ffba
00000270: 25ca 7938 2f12 94b9 2f85 9aba 6563 f5b9
00000280: 71fb 9eba 3b17 cc3a ab59 473b f199 9d3a
00000290: 88cf a539 6c94 6338 06de d638 abec 7b3a
000002a0: beb7 183b ee23 333a ff6e 7b3a d97a b339
000002b0: 5db6 11ba 5cfe 2e39 5d9a 3fb9 71eb 7db9
000002c0: 405e 4f38 95ca 0aba a850 11ba 940e 60b8
000002d0: 68f9 e1b8 177e caba 4c1c feb9 2eec 3839
000002e0: 1920 90b9 4bd4 20b9 a6ac 953a 2a83 0a3a
000002f0: ff94 39ba c424 ccb7 7c0c 97ba 1a58 00ba
00000300: 66b2 7638 8bc4 a8b9 7285 123a d50a b039
00000310: 6582 2eba 3865 ac39 ca28 0d3a 4237 aab9
00000320: 5cfe 233a 71ec 83b9 b748 36bb b67e 61b7
00000330: 26a1 b338 8a3d 64b9 f478 b6b7 2bdf 6aba
00000340: 764f 4239 8325 f7ba b412 a739 4646 fcb9
00000350: 34e3 02b9 43e2 ce39 0d64 bdba 5c21 01b9
00000360: 3597 a8b9 0530 fcb9 d3ad 54ba 4b80 493a
00000370: 7d9e 88ba db64 c1b8 eed1 96ba b411 41ba
00000380: f6f1 2139 1b45 4c38 fafb 21bb d7b4 e2b9
00000390: 2c52 9bb9 a72d 8037 f157 303a d08a 30ba
000003a0: fcc3 333a 235f 93b9 750f 97b8 90bc 3c3a
000003b0: 0ba9 a739 ee38 beb6 bf09 b3ba baeb 4ab9
000003c0: 643d 28ba 091b c0b9 8b97 09b9 e419 98b9
000003d0: d153 7139 30cb 463a 3407 91ba fb60 1ebb
000003e0: e4a9 c5b9 a257 efb9 c6b9 8cb7 9c89 88ba
000003f0: 858b 11ba b859 08ba eeb7 7039 8b25 7cb9
-0.0005953889 0.0010776804 0.00016079441 -0.00066747377 -0.00018816906 0.00022771375 -0.000102463615 0.0003544388
0.00065565924 -0.00041289374 -0.00025065657 -0.0008110091 -0.0016333371 6.1081755e-06 -0.00028761278 -0.0009178862
0.00030755522 -3.6026573e-05 -0.0007052739 -0.0002785746 -0.0010461158 -0.00050756277 -0.00018817704 -0.00014268179
-0.00059901836 -0.0020258217 -0.00027473673 0.0001136586 0.0034033696 -0.0004925647 -0.0004265833 3.7766993e-05
0.001229675 0.00029698104 0.00021557762 0.0009262747 -0.0004366551 0.00043722676 0.00051344314 -0.0016143763
-0.0019927926 0.00022613135 -0.00022476407 -0.00055593 -0.0009875755 0.00027895012 -0.0006543859 -0.00031712916
-0.00080804806 -0.00042031246 4.879371e-05 2.4847532e-05 -0.0001726932 -0.00022289772 -0.00041721732 -0.00087415276
-0.00018365856 -0.0013014964 2.7543143e-05 0.00036941632 -0.0016606476 -0.00021995883 -0.00019743093 -0.00041415985
-0.0012603367 0.0006442666 -0.0002060468 -0.000289006 -0.00020253792 -0.00075249566 -2.0453253e-05 0.00011110745
0.0014093715 -0.0007482894 6.290879e-05 -0.0009437629 0.0003120539 0.00076037564 0.00078004465 -0.0014854978
0.00011492818 -0.0005939185 0.00028712238 -0.000988286 0.00029544038 0.0003866672 -0.00018059822 -0.00034678786
0.00091159716 -0.0003664686 -0.0003863825 -0.00018298432 -0.00018147753 -0.0011215761 -0.00038790907 0.00047499413
-0.0006339848 -0.0006660917 -0.0011701216 -0.00043649127 0.00012952948 -0.00037665426 -0.0004670862 -0.0010459952
0.0002845648 1.0992497e-05 0.0008066593 0.0015024305 -0.00049846305 -0.001159185 -0.00029187527 -0.00046114932
-0.00095335 -0.00027751486 -0.00018395828 0.0005972567 -0.0012634108 0.0005432636 0.0011931397 -0.00039968587
-0.00011385796 -0.0010726717 -0.00013455706 -0.00037569136 0.0010503771 8.4542975e-05 0.0002961945 -0.0016077713
0.00024342274 -0.0016719174 0.0002769915 0.0002442687 -0.0013296513 0.0013919198 2.6983078e-05 7.338253e-05
-0.0010826928 0.0011830583 0.00016881966 -0.0014872268 -2.6771631e-05 0.00059964263 -0.0007113297 -0.00051567674
0.00062614237 0.00097619375 -0.00045630388 -0.0005653935 -6.565091e-05 7.068089e-05 0.00013908025 5.805419e-05
0.0003915256 -0.000119488235 0.000431814 -0.0019527248 5.9554488e-05 -0.00028242308 -0.0011788959 -0.00046804096
-0.0012129379 0.0015570888 0.0030418437 0.0012024028 0.00031625875 5.4259246e-05 0.0001024567 0.00096101564
0.0023302878 0.0006833662 0.000959143 0.0003423307 -0.0005558485 0.0001668869 -0.00018272684 -0.00024215669
4.9440423e-05 -0.00052944693 -0.000554333 -5.341934e-05 -0.000107752916 -0.0015448955 -0.00048467738 0.00017635591
-0.00027489735 -0.00015337874 0.0011419251 0.0005283827 -0.0007079392 -2.4335815e-05 -0.0011524106 -0.00048959407
5.8817117e-05 -0.00032189893 0.0005589343 0.00033577406 -0.00066570035 0.0003288181 0.0005384801 -0.00032466097
0.0006255859 -0.0002516243 -0.0027814338 -1.3440547e-05 8.5654014e-05 -0.000217667 -2.1752414e-05 -0.0008959646
0.00018530883 -0.0018855784 0.00031866657 -0.00048117543 -0.00012482406 0.0003945996 -0.0014449373 -0.00012314826
-0.00032156115 -0.00048100963 -0.000811306 0.00076866586 -0.001042321 -9.221743e-05 -0.0011506656 -0.00073650037
0.00015444294 4.870175e-05 -0.002471684 -0.00043240815 -0.00029625127 1.5280048e-05 0.00067269715 -0.0006734552
0.0006857512 -0.00028108907 -7.20312e-05 0.0007199729 0.0003197867 -5.6690687e-06 -0.0013659521 -0.00019352036
-0.00064178393 -0.00036641237 -0.00013121792 -0.0002901099 0.00023014775 0.0007583378 -0.0011064769 -0.0024166692
-0.00037701346 -0.00045650924 -1.6775808e-05 -0.0010416987 -0.0005552101 -0.00052013574 0.00022956703 -0.00024046579

action_model._continuous_distribution.log_sigma f4 [1, 39]
00000000: 7bf6 a9bf 86d3 e3bf 9b9b dabf 72b2 98bf
00000010: 3d85 70bf 50e3 d3bf 62f1 b9bf d975 fabf
00000020: 6ecb 4bc0 f4b6 0cc0 5561 ccbf 18be cabe
00000030: 83f3 a13d 97c5 ffbf 925e 1bbf 7d52 17c0
00000040: c041 c1bf a50c d4bf 09c1 22c0 fd26 0fc0
00000050: 4ebf e6bf 9eae 03c0 5210 74bf c8a3 e0bf
00000060: 130a 66bf 031b 87bf 37f8 10c0 574d f6bf
00000070: 9385 d0bf 239b 38bf 0858 63bf e1ff 01c0
00000080: 8527 f5bf 656a 183f 8ebf e9bf 9b82 0ec0
00000090: 8e13 483f 8064 3bbf 39a2 e6bf
-1.3278345 -1.7798927 -1.7078737 -1.1929457 -0.93953305 -1.6553745 -1.4526789 -1.9567214
-3.1842914 -2.1986666 -1.5967203 -0.39598155 0.07907774 -1.9982175 -0.6069118 -2.3644097
-1.509819 -1.6566359 -2.543032 -2.2367547 -1.8027132 -2.0575328 -0.953374 -1.7549982
-0.8985912 -1.0555118 -2.2651498 -1.9242352 -1.6290764 -0.7211172 -0.888062 -2.0312426
-1.9152685 0.59537345 -1.8261583 -2.2267215 0.7815484 -0.73200226 -1.8018256
