Assets/Brains/AdrianTests/AdrianUpdatedColTest1/Zombie Walker/Zombie Walker-999979.onnx (onnx, 302101 bytes, 9 tensors)

network_body._body_endoder.seq_layers.0.weight f4 [128, 281]
00000000: 55d5 14bd 999e 29bd bb83 193d 4184 34bc
00000010: c80a 61bd 6b90 4e3d 8f24 dbbd a63f 25bd
00000020: 4411 753c 98b6 25bd 5114 d9bc cea1 ca3d
00000030: c13a 8c3d 9ecf b43d 3403 70ba 5ead 453d
00000040: 4167 c03d 94ba 5cbd 5283 aabd c56a 963b
00000050: 52f1 9abc 9321 183d aa38 a43d 001d d33c
00000060: 945f 813c 7eb1 2b3d e99e 8bbc b422 5bbc
00000070: a07a f03d e503 e83d 0b93 803c b377 11be
00000080: 4a32 b63b 4204 1b3e 3d5d 77bd 5a20 57bc
00000090: cd6e bbbd 5f05 693d b0c0 213c fec6 bd3d
000000a0: 7fb8 7dbc e379 783d 527c d23c aa00 ddbd
000000b0: 8cdc 9d3c a9fc 05be 36a6 47bb 5e60 b4bd
000000c0: 9dde f93b 118f be3c fdab 81bd 0a83 1b3d
000000d0: 9483 0a3e b353 1e3b b361 6ebd 5c41 d43c
000000e0: ed08 56bd 5a1f f23c f002 303a fc18 363d
000000f0: fdf1 8cbd 23de 0d3e 0008 d7bb 0db1 a93b
00000100: a07a b2bc a600 663d 1d08 b73d 4ff0 823d
00000110: c533 393d b10b a6bd 3051 0c3e 8eeb e93c
00000120: 2b79 8f3d dbe9 6cbd b58c f93c db77 a4bd
00000130: 3650 853d 4cbd 6fbd 9a68 763d 700c fc3c
00000140: b96e 203c 8213 893d 9e67 813d 694f 273d
00000150: 2d4c 8dbd 4f47 f53c 115e 9d3d 66fc 053d
00000160: a449 bdbd b666 2d3b eba7 2dbd 910d a2bc
00000170: 0fe7 af3d 3654 ac3c 1495 1d3c d59a bc3d
00000180: c7b7 2dbd e61b 033d 6b2d 4a3d 516e ebbc
00000190: a725 dabb 309a 85bd a18a 623b 7b8a 5f3c
000001a0: cf75 abbd fd20 943d 1e8b 39bd 49b4 3cbd
000001b0: 7497 653d d6ab 06bd 2eb9 c0bc b6ad 11bd
000001c0: c400 193d e5c3 18bb 7984 b73d 673d 663d
000001d0: ebbe a43d 3fb7 e73d 8935 10bc 313b 493d
000001e0: dc67 cf3b bd11 35bd dc0c 45bd 1a96 50bd
000001f0: 1398 553d 2c91 b13b 6f01 4b3b 0765 673d
00000200: 7607 e13c da02 0abe ad23 3c3d 04b2 8bbd
00000210: 6f78 2f3d 5f55 2c3c 9fde 033d 2881 e5bc
00000220: 078c 62bd 49e6 fa3b a602 7b3d 50d5 c93d
00000230: d571 8abd 1e70 27bc 3e8e 97bd a67f ae3d
00000240: 0751 e93c 91e6 11bd 4fdc 14be 51d8 fc3c
00000250: 86e5 9e3c 61e0 dcbc c8e7 8b3c 71e1 01be
00000260: 42a8 a9bd 07f4 d9bd bd35 623d 107f 86bd
00000270: f3d5 91bd 16cd 6d3d 8945 19bc ca42 823d
00000280: 1342 8d3d c879 b83d d158 3cbb 33f7 cebb
00000290: 6647 09bd 48be 8dbc 3364 e23c 64cb da3c
000002a0: c8de ba3b c9bb 4a3d 3339 8f3d d197 063d
000002b0: 399b 493c 8597 2dbd 9b2b 86bd f200 27bd
000002c0: 62e2 3a3d 14c6 6d3d 5525 c23d da15 633b
000002d0: 7ea1 02be b2b5 51bc ce23 7e3d 344d 9b3d
000002e0: 7e82 81bc 8078 57bd 15df c8bb e09f 92bd
000002f0: fb86 9a3d 878e 353d 745b 2dbc d200 143e
00000300: ac92 b8bd 6589 523c fddf 30bd b3c4 ce3d
00000310: 40e4 883d efd5 42bd 262f b7bd d3a7 55bc
00000320: 39e4 e5bc ad4b bd3c b1be a63b b052 89bd
00000330: ccd6 89bd d33d 2c3d ce67 1c3d 682a 3c3d
00000340: 427b 9e3d 9ced 7ebd 59f5 95bd c279 03bc
00000350: 3a9c 043d 2906 0cbd 876d 70bd 1590 9dbc
00000360: 6dca b43c 1ab7 e03c 9864 8c3d c744 afbc
00000370: 7f41 02bd 45d1 84bd fc7e 753c a534 dabc
00000380: dda8 263d 453a 66bd 3da9 22bc 845d 323d
00000390: 6af2 0e3c 32f3 ee3d 1dfc c1bc 67f5 353c
000003a0: d597 003d 6c8a 8d3d 570d 25bd dadc f53d
000003b0: 44dc ff3c 9415 b23d cb06 213d f894 0e3d
000003c0: f271 293e 593e fabc 8aa3 cb3d 229a 51bd
000003d0: b988 99bc 6ef1 383d e5eb 683d df38 d3bd
000003e0: 83d7 b53c bffb 2fbd a4d9 89bd d24a 813d
000003f0: 938a 15bd dc00 c9bd 632d d3bc bcc1 2abd
-0.03633626 -0.041411016 0.037479144 -0.01101786 -0.054941922 0.050430696 -0.107003324 -0.040343903
0.01495773 -0.040457338 -0.026498945 0.09894143 0.06847144 0.08828662 -0.0009155751 0.04826104
0.09394694 -0.053888872 -0.083258286 0.0045903646 -0.018913899 0.037141394 0.0801862 0.025770664
0.015792646 0.041917317 -0.017043548 -0.013374973 0.11742139 0.11328868 0.015695116 -0.14205818
0.005560194 0.15138343 -0.060391653 -0.013130272 -0.09151993 0.056889888 0.0098726 0.092664704
-0.015485882 0.060663115 0.025694046 -0.10791142 0.019270204 -0.13084663 -0.003046406 -0.08807443
0.0076254145 0.023261579 -0.06331632 0.037966765 0.13526756 0.0024158775 -0.058198642 0.025910072
-0.052254606 0.029555965 0.0006714305 0.04445742 -0.06882093 0.1385427 -0.006562233 0.005178577
-0.021786988 0.056152962 0.08937094 0.063934915 0.045215387 -0.08107699 0.13702846 0.028554704
0.07005533 -0.05784021 0.030462602 -0.08030673 0.0650944 -0.058530137 0.06015835 0.03076765
0.009792023 0.06693174 0.063185915 0.040847216 -0.06899295 0.02994123 0.07683957 0.03271141
-0.092425615 0.0026458926 -0.042396467 -0.01978186 0.08588993 0.021036249 0.0096180625 0.09209219
-0.04241159 0.032009028 0.04935972 -0.028739126 -0.0066573205 -0.065235496 0.0034567493 0.013643856
-0.083720796 0.072328545 -0.045298688 -0.04607037 0.05605264 -0.03287872 -0.0235258 -0.035566054
0.037354246 -0.0023310122 0.08960814 0.0562109 0.08044227 0.11314248 -0.008801826 0.049128715
0.0063295197 -0.04420637 -0.048107967 -0.050924398 0.052146982 0.005418917 0.0030976196 0.05649283
0.027469378 -0.1347765 0.04593246 -0.06821063 0.042839464 0.010518401 0.03219473 -0.028015688
-0.05530932 0.0076568467 0.061281823 0.09855139 -0.06759993 -0.010219602 -0.074001774 0.08520441
0.02848102 -0.035620276 -0.14537166 0.030864866 0.019396555 -0.026962461 0.017078295 -0.12683655
-0.08284046 -0.10642248 0.05522703 -0.06567204 -0.07120886 0.058056913 -0.009354957 0.06360395
0.06897368 0.09007603 -0.0028739462 -0.0063160895 -0.033515356 -0.017302647 0.02763567 0.026708312
0.005702827 0.049495492 0.06993332 0.032859627 0.012305074 -0.04238083 -0.06551286 -0.040772386
0.04562605 0.05805023 0.09479777 0.0034650476 -0.12756917 -0.012799667 0.062045865 0.07583085
-0.015809294 -0.052605152 -0.006130109 -0.071594 0.07545277 0.044325378 -0.010580886 0.14453438
-0.090123504 0.01285014 -0.043182362 0.10096111 0.0668416 -0.047567304 -0.0894454 -0.013040501
-0.028062927 0.023107374 0.00508865 -0.067052245 -0.067304224 0.042051148 0.038184933 0.04593888
0.07738353 -0.06223832 -0.07322187 -0.008024635 0.03237555 -0.034185562 -0.058698203 -0.019233743
0.02206918 0.02743106 0.06855124 -0.0213951 -0.031800743 -0.064852275 0.014983889 -0.026636431
0.040688384 -0.056207914 -0.009928045 0.043546215 0.008724788 0.116674796 -0.023679787 0.011105872
0.0313948 0.069111675 -0.040295925 0.12005015 0.03123296 0.08695522 0.03931312 0.034810036
0.16547373 -0.030547308 0.09943302 -0.051172383 -0.018741952 0.04515212 0.05686559 -0.10313582
0.02219749 -0.042964693 -0.06730965 0.06313099 -0.036509108 -0.09814617 -0.025778478 -0.041688666

network_body._body_endoder.seq_layers.0.bias f4 [128]
00000000: 5c82 85b9 a82f 173a fb63 293a 0d80 7639
00000010: 9599 5239 8600 94ba 368f a4b9 7355 b338
00000020: 7442 733a 74d6 563a 3a4f c73a 02c0 f039
00000030: 03ad f53a 2a2b 3eba fa9f 4fba 1be0 70ba
00000040: ab93 45b9 b9a9 933a f265 883a eb9c e6b8
00000050: 3695 bb39 abac 023b 483c 71b9 a99d 1839
00000060: 3211 383a c086 abba f5b0 d1b9 80e6 643a
00000070: 20d4 883a 7dc1 ceb9 fe94 c3b9 9a55 b7b7
00000080: 9fea fc39 ecdf 1139 2d57 1039 404c b3b9
00000090: 8098 7e3a 516c d039 bd46 d6b9 0bf7 2339
000000a0: 3844 5539 695c dcb9 33a7 0dba b877 5b3a
000000b0: 65ee 0aba d571 693a bbf1 68b9 88c4 3639
000000c0: aede a23a df21 b8b9 c38a 1339 13aa 0539
000000d0: 86e3 47ba 76c0 9638 71da 7b3a 0152 d8ba
000000e0: ec3e f537 e48a 89ba 5081 afb9 2012 d03a
000000f0: e6ab 23b9 69c8 7e3a ba4b f537 4d08 28ba
00000100: 1846 0f3a a388 15b7 f2b3 ee39 be01 b6b9
00000110: 2d98 ed39 e4fa c43a de5a df39 889b 263a
00000120: fa81 6fb9 96d5 123a 5241 aeb9 1fed e3b7
00000130: 62f5 943a fb5b 7039 5941 49ba 5e4e 9aba
00000140: 9208 f637 3191 c03a f3ce a3ba 8a0b 4139
00000150: ce63 79b8 443f aa3a 7553 09b8 3a31 9a3a
00000160: 5901 c3b9 325b 76ba 4f4d afba 458c 893a
00000170: d6b4 133a 028f f139 9380 483a 7b4c 48b9
00000180: 7d0e dc38 5b21 6eba 19ba 5a39 739c abb8
00000190: 0f90 6c38 341c 113a 48a8 15b9 1c4c 65ba
000001a0: 6212 ea39 b502 f3ba 681f db39 1851 303a
000001b0: e06c dd39 2504 e5b9 cb7a a13a a799 d73a
000001c0: 94b3 b7b8 8b32 7eb8 1529 a1ba b35c 86b9
000001d0: 8436 77b8 d6a0 803a d1d1 a5ba 1d38 9c39
000001e0: c75e da39 be99 4eba c315 c639 2296 f439
000001f0: 5391 543a cc95 7a38 76e3 a9ba 7a63 bcba
-0.00025464862 0.0005767294 0.00064617366 0.00023508091 0.00020084374 -0.001129166 -0.00031387218 8.551301e-05
0.00092796166 0.0008195408 0.0015206106 0.00045919424 0.0018743578 -0.0007254357 -0.00079202617 -0.0009188668
-0.00018842395 0.0011265791 0.0010406359 -0.00010996483 0.0003577859 0.0019939344 -0.00023006008 0.00014554583
0.0007021605 -0.0013086423 -0.0003999543 0.0008731857 0.0010439195 -0.00039435542 -0.00037304306 -2.1855161e-05
0.00048239992 0.00013911695 0.00013765386 -0.0003419835 0.00097120553 0.00039753554 -0.00040869965 0.00015636922
0.00020338676 -0.0004203052 -0.0005403638 0.00083720265 -0.0005299806 0.0008905207 -0.00022215296 0.00017430086
0.0012425983 -0.0003512045 0.00014070705 0.00012747226 -0.0007625151 7.188406e-05 0.00096074404 -0.0016503931
2.9235576e-05 -0.0010493663 -0.00033474946 0.0015874542 -0.00015608929 0.00097191945 2.9241539e-05 -0.00064099283
0.0005465462 -8.912905e-06 0.00045528967 -0.00034715043 0.00045317542 0.0015028385 0.00042601576 0.00063555734
-0.00022841236 0.0005601285 -0.00033236534 -2.7170927e-05 0.0011364634 0.00022922449 -0.0007677279 -0.0011772623
2.9329476e-05 0.0014691708 -0.0012497589 0.00018410213 -5.9459177e-05 0.0012988825 -3.274107e-05 0.0011763938
-0.00037194302 -0.00093977444 -0.001337448 0.0010494074 0.00056345516 0.0004607365 0.00076485536 -0.00019101978
0.00010493116 -0.000908395 0.00020859427 -8.183056e-05 5.640095e-05 0.00055355136 -0.00014272437 -0.0008746998
0.00044645654 -0.0018540235 0.00041794335 0.0006725951 0.00042233523 -0.00043681372 0.001231992 0.001644899
-8.759569e-05 -6.060539e-05 -0.0012295569 -0.00025627538 -5.894016e-05 0.0009813558 -0.0012651031 0.00029796446
0.00041650815 -0.0007881186 0.00037781717 0.00046651164 0.0008108813 5.9744154e-05 -0.0012961465 -0.0014372908

network_body._body_endoder.seq_layers.2.weight f4 [128, 128]
00000000: 4b19 97bd cb27 153d 1b9d 1a3c fe11 963d
00000010: 517b 443c b661 84bb 4d6b 20bc a5bc a73d
00000020: 0222 533d c981 7a3a 28a0 44bd fb74 013e
00000030: e86c 50bd d4c2 a83d f986 6c39 a628 073e
00000040: a87e 26bc 8ae8 dbbd 3d49 d13b b961 133e
00000050: e69b a8bb 3478 123e 65f4 74bc a11a 18bd
00000060: b3bf 98bd fab8 273c 74e3 463e 042b e73d
00000070: a1d0 c7bc 53b3 febc c195 ae3d a1f7 04be
00000080: 39fb 9a3d d7aa 2c3e d428 ceba 054f b7bd
00000090: 7f9e 413e f793 0abd 56d5 b2bd cdda 02be
000000a0: 0567 73bd a918 95bd 793b dcbb 101a d7bd
000000b0: bec0 e23d a7bb b9bc 43a6 1c3d 93ab 8d3d
000000c0: 63c2 d53d 0284 0a3d 4d89 dc3d f893 873d
000000d0: 84be d83c bbf6 c1bd 985a 953c a3c9 11bc
000000e0: 5b4c 28bd 4653 1abe 1285 483b 2843 99bd
000000f0: b5fd 873c 95c9 a13d 3edb f93d 3dd3 693d
00000100: df06 cdbc b7d9 88bd 2c79 903d 6d72 01be
00000110: b75c e03d fcd3 08be 74c4 1bbd 6193 883c
00000120: 778c 80bd 0ec0 23bd d12b b73d 233a 1e3c
00000130: d22b 77bd 54eb 01bd 9ab6 20be 5ad0 163e
00000140: 4bdd 053e bb3d 993d 7424 debc b46c 0abe
00000150: 9861 a4bc 2377 f53c c39d 0b3d 4ca3 b3bd
00000160: 49d6 c73c 612f 59bd 1348 9d38 f851 13be
00000170: 7024 953d 9212 053e 6c26 5dbd fed4 563d
00000180: 02f6 a43d b533 3d3d ecc5 103d b636 e63c
00000190: d5e2 89bd a2f3 073d 198b 363c 1921 e03d
000001a0: d739 09bd 15d2 55bd 8f99 cb3d 5213 0f3d
000001b0: 845f af3c 799d 93bd 58d4 cfbc 540e 563a
000001c0: ff7b 1abd 408c 063e a10c 33bd 7d8b 9bbd
000001d0: 7a97 603d 4329 20bc 1675 4e3d faa5 e6bd
000001e0: 9cde d3bd 773e 2b3d 35f9 3cbd 29e7 ed3c
000001f0: 42e6 0e3e a493 2b3d 3d88 353c fa4b 8b3b
00000200: e05b df3d 27e6 913c 865b 8d3d b3b3 a238
00000210: 750d 733d dc0a 273d e3f8 493d f159 89bd
00000220: 36ea ec3c 84c1 f4bd 9369 06bd 0c82 1d3d
00000230: fb2e 14bd 217f 10bd 393f 633d 2a82 853d
00000240: dfd1 143d 6f80 1a3d 15dd 05bd 8700 cdbd
00000250: 26f2 f93c 7124 1a3d edc3 923d 2647 923d
00000260: 3b3a 6ebe 1652 0abd a289 943d 91f6 a33d
00000270: 5e3f c33d df9a b23c 73e9 babd e37a 873c
00000280: 885c 4abd f6d0 153e bc97 13be 1f24 44bc
00000290: d32f b7bc a76d c5bd 426c d0bd ab7b 43bc
000002a0: 3547 82bc c5e9 17bd 35a5 a33d 0d5d 35bc
000002b0: b028 8e3c 02bd e3bd 6a6e fd3d 3ca5 0c3e
000002c0: 6c1b 563d 8e88 ea3d 46b7 03bc 6fcb f33c
000002d0: 08af 183d d8da 193d 3938 223e 80ba 7c3c
000002e0: b1f3 e93d 72a6 ce3d 83c1 90bd 9ce0 d1bd
000002f0: 0e7b 5bbd 86d3 45be 73bd ebba 948d d23d
00000300: 42a9 cf3d 9679 0f3e a19e 8d3c dc40 2e3d
00000310: f601 33bd 6f7c 93bd 56a3 08be f608 73bd
00000320: 087c d0bd f323 4d3d 9d42 503d cdb5 b8bd
00000330: fc77 9b3d f6cd 69bc 497d 183c b532 233e
00000340: 98f7 d53d 35d5 ab3d f623 133d 9083 223c
00000350: 6e71 81bc 3dfa dbbd 14e4 313d b45e 81bd
00000360: 502d 243d 5152 4cbd 3a63 67bd 7c2a adbd
00000370: 5979 7c3c c648 1c3e 5368 e53d f660 453d
00000380: dff8 93bc 9e77 043d 9060 fa3d d1ac bfbd
00000390: 05dd 94bd eed4 4c3d b014 8bbd 9736 133e
000003a0: 7e55 0fbd 47a2 b4bd 9143 d5bd 7259 b2bc
000003b0: 3918 05be 4f1f 6d3d 633d 17be e79b ca3d
000003c0: 6ef3 b9bd 84af 0ebd b886 21be f675 2ebe
000003d0: 4904 ab3d a8a2 0a3d 3779 57bd c405 143d
000003e0: a324 e53a 205d 873d 9ae8 1fbe 4acb 123c
000003f0: 3661 e8bd 3387 46bd 2365 323e 1dbb dcbc
-0.07377871 0.036414903 0.009436871 0.073276505 0.011992292 -0.0040399684 -0.0097912075 0.08190278
0.051546104 0.00095560827 -0.0480043 0.12642281 -0.05088511 0.082402855 0.00022556995 0.131991
-0.010162033 -0.10737713 0.0063869045 0.14392747 -0.0051455377 0.14303666 -0.014950846 -0.03713477
-0.07458439 0.010236973 0.19422704 0.112875015 -0.024391474 -0.031091368 0.08524657 -0.12985088
0.07567448 0.16862045 -0.001572872 -0.08950619 0.18908118 -0.033832517 -0.08732097 -0.12778778
-0.05942442 -0.07280094 -0.006720957 -0.10503018 0.11071919 -0.022672487 0.038244497 0.06917491
0.10437467 0.0338173 0.107683755 0.0662002 0.026458032 -0.09470888 0.018231675 -0.008898172
-0.041088443 -0.15070829 0.0030596894 -0.07483512 0.01660047 0.07899777 0.1220002 0.05708622
-0.02502769 -0.06682151 0.07054362 -0.12641306 0.10955184 -0.13362116 -0.03802915 0.016671838
-0.062767915 -0.03997808 0.08943904 0.009657416 -0.060344525 -0.031718567 -0.15694657 0.14727917
0.13072698 0.07482477 -0.027116992 -0.1351803 -0.020066068 0.029964035 0.034086 -0.08771381
0.024394171 -0.0530237 7.499768e-05 -0.14386737 0.072823405 0.12995365 -0.05399172 0.05244922
0.08054735 0.04619189 0.035345003 0.02810226 -0.06732718 0.03319133 0.011141562 0.10943813
-0.033502426 -0.052202303 0.09941398 0.034930535 0.02140785 -0.0720777 -0.025369808 0.0008165587
-0.03771591 0.13139439 -0.043713216 -0.07594965 0.05483196 -0.009775463 0.05040463 -0.11262126
-0.10345194 0.041807618 -0.0461361 0.02904089 0.13955024 0.041888848 0.011079845 0.0042510005
0.10906196 0.01780994 0.06902222 7.7582336e-05 0.059339006 0.04078184 0.049309622 -0.06706608
0.028920274 -0.11950973 -0.032815527 0.0384541 -0.036177617 -0.03527749 0.055480216 0.065189674
0.03633296 0.03772014 -0.032681543 -0.10009866 0.030510973 0.03763241 0.07166276 0.07142477
-0.232644 -0.03376969 0.07252814 0.08006013 0.09533571 0.021802364 -0.09126558 0.01653809
-0.04940465 0.14630494 -0.14413351 -0.011971503 -0.022361672 -0.09640055 -0.101768985 -0.01193134
-0.015903095 -0.037088174 0.07990495 -0.011069548 0.017353386 -0.11120035 0.123745754 0.13734907
0.052272245 0.11451827 -0.008039301 0.02976009 0.037276298 0.03756222 0.1584176 0.015425324
0.114234336 0.10090341 -0.070681594 -0.10247919 -0.05358415 -0.19318971 -0.0017985537 0.1028091
0.10139705 0.14011225 0.017287554 0.042542323 -0.043703042 -0.07201468 -0.13343558 -0.059334718
-0.10179907 0.050083112 0.050844777 -0.09019051 0.075912446 -0.014270296 0.009307214 0.15937312
0.104476154 0.083902754 0.035922967 0.009919062 -0.015801158 -0.107410885 0.043430403 -0.06316891
0.040082276 -0.04988319 -0.056491114 -0.08455369 0.015409791 0.15262136 0.11201539 0.048188172
-0.018063007 0.03234064 0.12225449 -0.09359134 -0.07268719 0.050007753 -0.06791055 0.14376293
-0.03499364 -0.088200144 -0.10413278 -0.021771166 -0.12997521 0.057891186 -0.14769511 0.09893017
-0.09079634 -0.034835353 -0.15774047 -0.17037186 0.08350427 0.033846527 -0.052605834 0.03613831
0.0017482232 0.06609559 -0.15616074 0.008959601 -0.113466665 -0.04846878 0.17421393 -0.026944691

network_body._body_endoder.seq_layers.2.bias f4 [128]
00000000: b703 433a 9841 b6ba 24c8 443a ee6f 8239
00000010: 5267 1c39 c71d 08b9 6d0a cab9 044f 0d39
00000020: 1b3b a6ba fe80 c3b9 1e0b 8939 4ff1 1c3a
00000030: d175 5bb8 3766 98ba c840 e33a dd8a 0aba
00000040: eed0 7eba abe8 c63a c1bb 903a eea8 b839
00000050: 12a6 923a d0f6 0b3a fef8 5239 cf16 e3b9
00000060: f463 19ba de6e 893a ba6b c9b8 81c4 38ba
00000070: 5714 2539 942e 8e3a e2a7 f037 0367 303a
00000080: 7f19 a4ba cfcf ae3a da5f a5b8 6180 533a
00000090: ecb6 833a 07ea 1639 fd98 58ba 44b9 1a3a
000000a0: 045b e539 58ae c4ba 899e c839 42d7 973a
000000b0: 7b6a af39 e73b 713a f56c 0b3a 748e db39
000000c0: bcce 953a fb7c 143a 2c79 7138 0408 fb39
000000d0: 3c00 6aba 93a3 cab9 a1a9 70b9 05d7 a23a
000000e0: fb87 323a dbb2 2bba c04c 3d3a 086e 1d3a
000000f0: 8c4c 4339 7be1 b7ba fc30 993a 4b6e ffb9
00000100: 084d f139 5252 72ba 9470 68b8 3577 9c39
00000110: c9d3 98b9 2130 053a 568e 9dba 23b4 9c39
00000120: 4f07 2c39 1925 143a e2a0 8c3a 0bc3 c2b9
00000130: 884c f739 da9a 63ba a055 aeba a26f fdb8
00000140: f6e9 9c3a 394a 05ba c363 dd38 1aa6 8b38
00000150: f74a ff39 3d44 2e38 e362 f83a fccb a23a
00000160: 8737 93b9 2ecb 27b9 dbb4 fa39 e31c aa38
00000170: 97ab fbb9 29ce a43a 5bee 363a 08ea 5fb7
00000180: ac4d f139 12af 203a 460a bb39 f580 283a
00000190: 49d8 453a 7a58 1fb9 4e63 1cba d371 9039
000001a0: 0ecd 3e39 1797 a539 b72a 99b9 0424 813a
000001b0: 06ea 8a3a 0686 093a 2610 9eba e523 7d39
000001c0: e259 5039 9160 21ba 01e8 99ba 2a26 063a
000001d0: 7fca 683a 4346 5dba 2379 0eba 83b2 17ba
000001e0: 3a31 a03a 207e a43a 7009 453a 8734 44b9
000001f0: 5bf7 82ba 0feb 133a 5023 34ba e639 283a
0.0007439213 -0.0013905047 0.000750663 0.00024878926 0.00014915809 -0.00012981064 -0.0003853621 0.00013476243
-0.001268241 -0.00037289405 0.0002613896 0.00059868855 -5.2323394e-05 -0.0011627142 0.0017338032 -0.00052849745
-0.0009720464 0.0015175542 0.0011042283 0.00035221077 0.0011188409 0.0005339207 0.00020119917 -0.00043313808
-0.0005851381 0.0010485312 -9.6044925e-05 -0.00070483243 0.00015743203 0.0010847622 2.8688406e-05 0.0006729217
-0.0012519805 0.0013337078 -7.885667e-05 0.0008068141 0.0010049022 0.00014392297 -0.0008262543 0.00059022405
0.00043746096 -0.0015005572 0.0003826509 0.0011584538 0.00033457935 0.00092023466 0.0005318665 0.0004187707
0.001142941 0.00056643755 5.7571728e-05 0.00047880423 -0.00089264265 -0.00038650315 -0.00022951375 0.00124237
0.0006810424 -0.0006549784 0.00072212145 0.00060054706 0.00018625165 -0.001402899 0.0011687572 -0.00048719565
0.00046024495 -0.0009243834 -5.5417957e-05 0.00029843455 -0.00029149491 0.0005080719 -0.0012020569 0.0002988885
0.00016405921 0.000565128 0.0010729099 -0.00037147882 0.0004716853 -0.00086824375 -0.0013300665 -0.00012084773
0.0011971581 -0.00050846074 0.00010556683 6.658975e-05 0.00048693243 4.1548385e-05 0.0018950369 0.0012420411
-0.00028079396 -0.00016002051 0.00047818464 8.111612e-05 -0.00048002295 0.0012573648 0.0006978267 -1.3346325e-05
0.00046024972 0.0006129603 0.00035675074 0.00064279075 0.00075471826 -0.00015196382 -0.0005965725 0.00027550626
0.00018196201 0.00031583823 -0.0002921426 0.0009852652 0.0010598309 0.00052461063 -0.0012059256 0.00024141332
0.0001986991 -0.0006156052 -0.0011742116 0.0005117381 0.0008880272 -0.0008440951 -0.0005434921 -0.0005786793
0.0012221702 0.0012549795 0.000751636 -0.00018711585 -0.000999193 0.00056426314 -0.0006871717 0.0006417319

network_body._body_endoder.seq_layers.4.weight f4 [128, 128]
00000000: dd60 8cbb 1878 923d e733 863c 9a6c f13c
00000010: 594b b5bd 2b49 f03b 89ea 91bc 81cb 813d
00000020: a885 c4bd 3b72 cb3c d794 bd3c 08ed 59bd
00000030: 5c83 6c3c 8db7 9abd 7f89 af3d f6ea 6f3d
00000040: af65 67bd 1b6b a9bc b6df 373c e0f3 7fbd
00000050: 4b48 3abc d3e6 d1bc 2003 0e3e aab0 bcbd
00000060: c650 2c3d 051c a6bd 86fb 593d e19f 57bd
00000070: e3a0 dbbb b4a7 a4bd 5aea 1c3c 9df9 1ebe
00000080: aa0d 573d ec54 6a3c 2f73 28bd 3f14 21be
00000090: 2ed8 d73c 47ab ebbc 3751 733d f0f6 abbd
000000a0: 7d89 8e3d 3a36 d33d c206 783d 2ab1 873b
000000b0: 4083 1e3d cad6 20be 79ba fcbd 002e 1e3c
000000c0: 9f28 85bc 9489 16bc 9252 f8bd 2d2c 8ebd
000000d0: d211 05be 117d 2abc 8aff 2f3e 77fe 95bc
000000e0: 4f79 c0bd 7673 693d cdf0 63bd 2b22 f73d
000000f0: 4a27 a3bd 9f8f 28be 1efc eabc 26af 213e
00000100: d382 fabd dd12 403d cf24 82bd 696c 673b
00000110: e848 c3bd 01df 6d3d faca ddbd b134 9b3c
00000120: c710 21bd 252e cbbc b9bd dbbc 3f31 7fbd
00000130: 0ad5 8c3d 0b6e 20be ac0d 0d3d 0909 2f3e
00000140: dbcc a13c d199 2a3e f8e8 193e ec66 17be
00000150: 1ee5 02be ae9d a73c f273 473e 39bd c3bd
00000160: cca5 113e 481c 363d 5e01 d23c 2e25 b9bd
00000170: 0bda d0bd 199b 753d 1b01 003d d4ae 63bd
00000180: 35d8 9cbd 0782 ee3d ff3e a13d 90c2 a43c
00000190: b2a5 a2bd 2a30 8dbd 0ca8 093c 5bcf 06be
000001a0: bbcf 073d 5aec 0dbe 03b4 b7bd b613 b5bd
000001b0: 6a50 643d 2a35 223d 2d4a 273c 8159 653d
000001c0: 39b3 ef3d 3512 da3d 3c45 083e df3b 27bd
000001d0: fcdc dfbc a796 f03d 8380 143d 5d04 e9bd
000001e0: d37e 9e3d aa77 aabc 2c73 3cbd ff62 043d
000001f0: eff9 8bbd 4b69 7b3c 7e51 0e3e 1454 b53c
00000200: 86ad 9c3d b54d 0c3e ed06 883d 0162 11be
00000210: d406 2dbd 6c13 1bbd 3d22 92bd bd1a eb3c
00000220: 58cf 63be fb5e c0bd 1d46 c93d 7676 37bc
00000230: 739a 4dbd 3376 96bd 974c 353c 35a8 023c
00000240: dbd2 853d af10 de3d 2640 bc3d f10d 613b
00000250: 39f3 a1bb 96ca 293b 1a40 df3d c03d 0e3d
00000260: 60aa 073e 4ef7 cebd f85c 5b3d cb7c 3ebe
00000270: 164f b33d 8c92 fa3c f934 50bd 8cb5 d4bc
00000280: 0acb 2bbe 4966 163d bcd5 403d 737e 463d
00000290: fbca 273e 875d 46bd 753b fbbd 9556 f43c
000002a0: 0423 cabd 3386 a93d 7788 e43c 864f da3d
000002b0: cb04 fcb8 088b 263e 3344 9f3d 84c1 2dbe
000002c0: c0f9 0a3e 6073 8bbd 744e 42bb 376b ed3c
000002d0: ac57 b33c 6860 103e a05c 8f3c 6c74 8bbe
000002e0: 744b ffbd 276a 303b a248 8cbd cae4 823d
000002f0: aeb7 99bd 0442 48bd bfc4 f43d 21ff 2cbd
00000300: 9873 b23d c383 383e 090f afbc e02b 2c3e
00000310: 9925 f5bc 38e0 5bbd f653 203d d168 5c3c
00000320: 6a83 873d 86b6 0e3e b8c1 5ebe a866 8f3d
00000330: 5302 48bd 5668 6abb 3c18 a8bc 0c0d a9bd
00000340: 043a 183e 1822 ff3c 1929 cc3c 1d35 adbc
00000350: 0ffe 01be 80e9 a9bd ab7f 2c3e b642 eb3c
00000360: 3e3f f23d c063 84bb 9ca4 bd3d 17a1 0a3b
00000370: ee05 403d 251f 203c b01b 1b3d 1373 1b3e
00000380: b134 a6bd bcad a43d 70e6 90bc 33ed 9f3d
00000390: 0798 a43d 1390 0dbe 2ebd 21bd d0ef 1bbe
000003a0: f98f 3c3e 8875 953d f3ad 14be dad7 d1bd
000003b0: d994 a8bc d011 4fbd 52ed 823d 8482 273e
000003c0: 90c2 a43d 272f 89bd a226 713d 8db4 85bc
000003d0: d800 d23d 2507 8cbd 15b8 acbc 6b4f 223e
000003e0: aabe 0c3e fe53 8bbd aa65 963c 9d60 8ebd
000003f0: 86b0 24be 2543 0bbe afd2 f7bd 36cb 173e
-0.004284008 0.07151812 0.01638217 0.02947073 -0.08852262 0.007332941 -0.01781203 0.063376434
-0.095958054 0.024834743 0.023142261 -0.053204566 0.014435615 -0.07554541 0.08571147 0.058573686
-0.056493457 -0.020680955 0.01122277 -0.062488437 -0.011369775 -0.02562276 0.1386838 -0.092133835
0.04206922 -0.08110813 0.053218387 -0.052642707 -0.006702529 -0.08039799 0.009577358 -0.15524907
0.052503265 0.0143024735 -0.041125473 -0.1573038 0.0263482 -0.028768195 0.059403624 -0.08396709
0.069598176 0.10313077 0.06055332 0.0041409926 0.03869939 -0.15706936 -0.12340254 0.009654522
-0.016254721 -0.009188075 -0.12125124 -0.069420196 -0.12995079 -0.010405795 0.17187324 -0.018309815
-0.09398138 0.056994878 -0.055649567 0.12067064 -0.07966478 -0.16461037 -0.028684672 0.1578947
-0.12231984 0.04689299 -0.06354677 0.003531242 -0.0953539 0.058074 -0.1082973 0.018946024
-0.03932264 -0.024802277 -0.026823865 -0.062302824 0.068765715 -0.15666978 0.034436867 0.1709329
0.019751003 0.16660239 0.15030277 -0.14785355 -0.12782714 0.02046093 0.19477823 -0.09557576
0.14223403 0.044460565 0.025635418 -0.090402946 -0.101978384 0.059962366 0.031251054 -0.05558665
-0.07658426 0.116458945 0.07873344 0.020112306 -0.0794176 -0.06893952 0.008401882 -0.13165037
0.03315709 -0.13859692 -0.089698814 -0.0884165 0.05574075 0.039601482 0.010210556 0.05599356
0.11704106 0.10648004 0.13307661 -0.040828582 -0.027327053 0.11747485 0.03625537 -0.11377785
0.077390336 -0.020809013 -0.046008274 0.032320973 -0.068347804 0.015344928 0.13898274 0.022134818
0.076502845 0.13701518 0.06641946 -0.14197542 -0.04224284 -0.03786032 -0.07135437 0.028699273
-0.22247064 -0.09393116 0.09827826 -0.011197677 -0.050196122 -0.073467635 0.011065624 0.007974674
0.06534358 0.10843026 0.09191923 0.0034340585 -0.0049423245 0.0025908104 0.10900898 0.03472686
0.13248587 -0.101057634 0.05355546 -0.18602292 0.08755319 0.030587457 -0.05083177 -0.025965475
-0.16776672 0.03671864 0.047078833 0.048460435 0.16386025 -0.04842904 -0.122672 0.029826442
-0.0986996 0.082775496 0.027897103 0.10659699 -0.00012017189 0.16263974 0.0777668 -0.16968352
0.13571835 -0.068091154 -0.0029648812 0.028981788 0.021892391 0.14099276 0.017500222 -0.2723726
-0.124655634 0.002691874 -0.06849791 0.06391294 -0.07505737 -0.048891082 0.11951589 -0.042235497
0.08713454 0.18019013 -0.021369474 0.16813612 -0.029925155 -0.05368063 0.03914257 0.013452725
0.06616862 0.13936815 -0.21753585 0.07002002 -0.04883034 -0.0035767755 -0.020519368 -0.082544416
0.14865881 0.031144187 0.02492194 -0.02114349 -0.12694572 -0.0829649 0.16845576 0.028718334
0.11828469 -0.0040402114 0.09259912 0.0021153146 0.046880655 0.00977305 0.0378682 0.15180616
-0.08115519 0.0804095 -0.017688006 0.07808914 0.080368094 -0.13824491 -0.039487056 -0.152282
0.18414296 0.07297808 -0.14519481 -0.102462485 -0.020578789 -0.050554097 0.063929215 0.16358382
0.08044922 -0.06698447 0.058874734 -0.016321445 0.10254067 -0.068373 -0.02108387 0.15850608
0.13744608 -0.068031296 0.018359024 -0.06952021 -0.16082963 -0.13599832 -0.121007316 0.14823613

network_body._body_endoder.seq_layers.4.bias f4 [128]
00000000: 49c2 133a f48f d239 8e99 583a eb16 45ba
00000010: 6492 0239 1bf5 b539 cb50 7eb8 51e3 683a
00000020: 3838 cdb9 bb10 86ba 6e0d 7c37 7b83 0dba
00000030: aaad 84ba c630 de39 7e52 0e3b 6f7e 013a
00000040: 82fe 04ba eb43 713a 599b ba39 8d0e bb39
00000050: e22d 983a 4d23 17b9 470e 653a c189 96ba
00000060: 1463 aab8 e26d 323a f6b9 b238 aeef 363a
00000070: 8f2a 8c3a 5a44 ca3a c455 053a 171d 4bb9
00000080: 27eb 60ba 0e00 23b9 2b91 12b9 9b53 3739
00000090: 9895 8539 24d5 543a 27fd 9bba 4fff 4c39
000000a0: 4b7e 0839 a98e e939 4cf6 d33a 69c5 073a
000000b0: 4280 7c3a f1ca 9839 35bd 663a 4dae e6b9
000000c0: 7a5e 983a f24f 4bb9 7098 e339 7daa a2ba
000000d0: 70bb 5639 44df 903a ef43 9b37 dc29 9f39
000000e0: c056 a0b9 21cf 2a3a 2095 6bb9 0606 cc39
000000f0: fda2 1eba cfca 12b9 0104 a138 8a66 8b3a
00000100: 4ccc b539 eb5b 99ba 1347 833a f3ee ddb9
00000110: f01c b139 3e90 183a 25b7 4d39 7a5f 13b9
00000120: f170 79b9 d48c 1b3a a488 ad3a 0c1d bd3a
00000130: 0b08 913a 5aa0 123a 5a0e 87ba 731f 0c3a
00000140: 1dc8 e43a 391e 8139 0325 e539 4175 043a
00000150: 3bec f1ba c6cc c138 329e 203a c69a 863a
00000160: c4ec 4e3a d1ba 163a c474 c238 9976 02ba
00000170: 045e 11ba fa61 00bb 068d c239 c1e5 f5b9
00000180: 0e17 c139 b1c1 96b7 335a a1b6 a401 55ba
00000190: 61e8 7fb9 4323 6db9 7445 9236 a806 0b3a
000001a0: ecf6 8fb9 02a6 5e39 ed99 c538 6c14 b039
000001b0: 0b46 3cb9 13e4 4bba 9a48 77ba 19fc 6e39
000001c0: c199 b4ba 8108 1e39 4ad9 9dba 8d64 6b39
000001d0: 04a1 52b8 53cf 723a fff7 f338 95a5 b53a
000001e0: 1339 5639 f0b6 723a 69f9 12ba e238 de39
000001f0: 6acd c3ba bc55 26ba b5f6 0ab9 bae5 0fb9
0.0005636556 0.00040161575 0.00082626275 -0.00075183687 0.00012452301 0.00034705628 -6.0633563e-05 0.00088839704
-0.00039142533 -0.0010228375 1.5023497e-05 -0.0005398315 -0.0010122557 0.0004237948 0.002171665 0.00049397995
-0.0005073325 0.0009203541 0.00035592428 0.0003567826 0.0011610354 -0.00014413633 0.0008737784 -0.0011485146
-8.1246864e-05 0.0006806535 8.522339e-05 0.0006978464 0.0010693836 0.0015431747 0.00050863274 -0.00019370425
-0.00085799623 -0.00015544912 -0.00013977724 0.00017483385 0.00025479193 0.00081189186 -0.0011901007 0.00019550066
0.00013017019 0.00044547513 0.0016171425 0.0005179258 0.0009632149 0.00029142902 0.0008801998 -0.00043998883
0.0011624836 -0.0001938937 0.0004341039 -0.0012410429 0.00020478456 0.0011052866 1.8509074e-05 0.0003035803
-0.00030582212 0.000651585 -0.000224669 0.000389144 -0.0006051509 -0.00013999197 7.677824e-05 0.0010635417
0.00034675223 -0.0011700367 0.0010015689 -0.00042330436 0.0003378163 0.00058198336 0.0001961855 -0.0001405458
-0.00023788564 0.0005933766 0.0013239575 0.0014428212 0.0011065019 0.0005593352 -0.001030396 0.00053452625
0.0017454658 0.00024627315 0.0004370586 0.00050528726 -0.0018457243 9.241099e-05 0.00061270886 0.0010269515
0.0007893557 0.0005749884 9.27239e-05 -0.0004976779 -0.00055453205 -0.0019589649 0.00037107634 -0.00046901222
0.00036829006 -1.7971588e-05 -4.8086745e-06 -0.00081255496 -0.00024405263 -0.00022615217 4.3592245e-06 0.0005303421
-0.00027459057 0.00021233413 9.422363e-05 0.0003358455 -0.0001795517 -0.0007777821 -0.0009433121 0.00022791362
-0.0013778732 0.00015071222 -0.0012042907 0.00022448805 -5.021786e-05 0.0009262461 0.00011633336 0.0013858551
0.00020429892 0.0009258827 -0.0005606623 0.0004238552 -0.0014938537 -0.0006345173 -0.00013252611 -0.00013723123

action_model._continuous_distribution.log_sigma f4 [1, 39]
00000000: 8596 89b9 ba69 8139 358a 513a c88c 213a
00000010: e179 3e3a 720e c439 c372 12ba df66 ee39
00000020: e60c 633a b126 2bb8 75fa bd3a 4c2b ad3a
00000030: e7bf e739 3f96 5ab8 4dd8 33ba ef18 303a
00000040: 265e 15b8 30e8 e639 e766 ec39 9dac 893a
00000050: 16f7 ab3a 4279 8e38 7049 8bba 27cc 1739
00000060: 2846 193a 7dcd 9839 f010 87b8 e630 a13a
00000070: 1d35 1339 5d4d 7b39 cbe6 5d3a bff7 253a
00000080: 8154 a3ba 1291 543a 73b7 353a ecac a13a
00000090: 0e8f 393a 5cec 553a 939d aeb8
-0.00026242822 0.0002468357 0.0007993312 0.00061626406 0.0007266086 0.00037394796 -0.0005586559 0.00045471542
0.0008661285 -4.080561e-05 0.0014494198 0.0013211756 0.00044202732 -5.2115178e-05 -0.00068605394 0.00067175826
-3.561205e-05 0.00044042012 0.00045090096 0.0010503713 0.0013119902 6.793674e-05 -0.0010626744 0.00014476535
0.0005846941 0.000291448 -6.4404565e-05 0.0012297898 0.00014038799 0.00023966045 0.0008464872 0.00063311675
-0.0012461097 0.00081087754 0.0006931938 0.001233486 0.0007078507 0.00081605255 -8.326317e-05

action_model._continuous_distribution.mu.weight f4 [39, 128]
00000000: 9f6c a1bc 4cba a33a 08b9 21bd 8a36 57bc
00000010: 3018 b2bc 65fb 49bc 67d0 1e3c 7a1e aabb
00000020: b4e6 64bc 72cb 00bb e138 6cbc bc2c 22bc
00000030: f3e0 3abc 710c dc3c 5ea0 263c e5c9 7fbc
00000040: 8b1e b23c 5042 6e3c 2608 9ebb 35d6 8abc
00000050: d89b a7bb 2068 3dbd c2a4 383c b4cb b4bc
00000060: 456c eb3b 2806 09bc d3af 7a3c 49fd bcbc
00000070: 97d0 2b3c e1fa db3c b44e a0bc 4d2f e53c
00000080: ef7c c43c f955 fdbb d2ef b9b9 d1ab 8dbc
00000090: e0f5 043d 9c70 fc3c b0e4 8fbb 805a 463b
000000a0: 9047 ff3c 7181 0c3d 2f17 f53b 13b0 ad3c
000000b0: 87ec 65bc ca6c 60bc 69cb b73c 6d8d 973c
000000c0: 3e76 473c bc02 163d 849e 80bb 9015 51bc
000000d0: b3a9 c7bb cf57 92bc f0f5 36bc d189 c0bc
000000e0: 3ef3 13bd a9e7 033d 3775 b43c b21c babb
000000f0: 50f8 59bc 0bb9 013d 9033 a73b 7422 8a3c
00000100: c12b 98bc 39b7 ff3a 7314 bb3b b68f 4dbc
00000110: a5c6 ac3c c0ab 6c3c 1608 4fbc 8518 e43a
00000120: d85c 36bc 4232 8d3c 8237 5fbc dbf3 833c
00000130: bf1c b6bb 0e2e 80bc 6b49 85bc d537 003a
00000140: 49fd 933b 576c 5bbb 4bf1 f1bb 8daa c03c
00000150: c645 133c 5bb7 20b8 fa8a 7c3c 6c0a 7bbb
00000160: a29a 483c 6a1a 4c3c cfb8 243c a694 5ebc
00000170: 9fb4 0bbb c907 2cbc 1241 6abc 8ab6 1d3c
00000180: 1ee9 c83a e4da 28bc 4bb5 75bc ebc6 28bd
00000190: 4a87 b03b 95be 1cbb 9872 26bd 7528 1ebd
000001a0: a8b9 fc3b f8cf 703b 4c2c c2bc d1fe 4c3c
000001b0: 29da ab3c 028b e43b 910b 1cbc 405f 4b3d
000001c0: 684d 923b ebb8 383c 2766 7d3c 3abf 4a3c
000001d0: 6733 d0bb 1826 d83c f5f2 523d aa02 13bc
000001e0: 7983 d53b 079a 0f3b 94a5 943a e3f6 b7bc
000001f0: 6ad8 17bb 4940 efbb 3df5 82bb cfae 6fbc
00000200: 6170 9f3c 4fb4 27bc bf67 95bc c146 413d
00000210: eb07 3b3c 6e8e 553c 1b28 7fbc affb 903c
00000220: e349 7fbc 20a8 9aba 61c7 5ebc 9bae fbbb
00000230: 5347 253c 9681 36bc 66c1 8f3c 37ab bd3c
00000240: d9da 5b3c 7249 14bc ef2a 003a 70b7 343b
00000250: 56e2 993c 4678 ac3a 94df a3bc 8473 043c
00000260: 1cbf 9f3c 8579 86ba bbf1 983c 0568 843c
00000270: a930 8a3c 8609 a63c 9d32 42bb b24d 41bc
00000280: a774 cf3a 150e ce3c 57f0 1cbc 94a6 8cbc
00000290: 8c47 cabb 0ce3 8d3c ff3a 0e3d 68ad babb
000002a0: 911a 3ebb 61f4 e23c 290b 613c 559e 35bb
000002b0: 8647 f1b9 ee74 df3c 6168 a5bc 57c4 31bc
000002c0: e2cc 313c 0f46 0dbd 9ff3 13bd 48d5 e1bb
000002d0: 9016 813c e31f 243c 02a8 213c a6de cf3c
000002e0: 345a 243c df7c 03bd 3b33 2d3c f2c2 f83c
000002f0: 08cd 293c a58a dbbc 2954 453c fa64 28bc
00000300: e86f 693c 3ac1 38bc 8548 5dbc 6dd1 213b
00000310: 465e 74bc dc36 1c3c 398a 68ba d54b 4bba
00000320: f223 793c 68ca 343c 0425 8abc af68 17bd
00000330: 8049 823b e0d3 133c 9710 11ba 861c e83b
00000340: 6e32 16bc 1e2e 7fbc 505e 323c 494e 343c
00000350: 2c0d b1bc 6a5e f2bb ef43 66bb 5c68 acbc
00000360: 9ef3 58bc 3e79 633c f81c 7f3c f88a d2bc
00000370: ea4a 53bb 9be0 04bc 50ca 2fb9 e73e 943b
00000380: 8ffd 1e3d ee5a a8bb d95a f8bc 7d6e ad3c
00000390: 3005 b9bc af98 6fbb 5812 443b 806e 1cbc
000003a0: 5a0c 3f3b 79f2 da3c d667 333b 7095 d83a
000003b0: 8378 0fbc 7dd8 c03c 9535 ed3c 54b1 f0bb
000003c0: 312d 33bc 131a 6e3c 7eef 793c eb47 b3bc
000003d0: e096 8f3a e6f8 293c 184a e93b c34e 10bc
000003e0: fd09 0e3c 3579 78b9 f415 f53c b411 3dbd
000003f0: 3041 4dbc d800 26bd 46d3 70bc ec9a 14bc
-0.019705115 0.0012491434 -0.0394831 -0.013135562 -0.02174005 -0.0123280035 0.009693242 -0.0051916214
-0.01397102 -0.0019652513 -0.014417858 -0.009898361 -0.011406171 0.026861401 0.01017007 -0.0156121
0.02174308 0.014542177 -0.0048227487 -0.016947845 -0.0051150136 -0.04624188 0.01126975 -0.02206979
0.0071845376 -0.008363284 0.015300709 -0.023069995 0.010486743 0.026853027 -0.019568779 0.027976656
0.023985354 -0.007731196 -0.0003546463 -0.017293843 0.032461047 0.030815415 -0.0043912753 0.0030266345
0.031162053 0.034303132 0.0074795703 0.021202123 -0.014033443 -0.013697812 0.02243586 0.018500054
0.012174187 0.0366237 -0.0039251465 -0.012761489 -0.006093228 -0.017864136 -0.0111670345 -0.023503216
-0.036120646 0.03220335 0.022028549 -0.0056796903 -0.013303831 0.03167061 0.0051025823 0.016862132
-0.018575551 0.0019509561 0.005709225 -0.01254647 0.021090815 0.014445245 -0.012636205 0.0017402327
-0.011130534 0.017235879 -0.013624074 0.01610749 -0.005557626 -0.01564696 -0.01627036 0.0004891132
0.004516278 -0.0033481324 -0.0073835007 0.023518825 0.008988803 -3.8317736e-05 0.015413994 -0.0038305772
0.012243899 0.0124574695 0.010053827 -0.013585245 -0.0021317375 -0.010499903 -0.0142977405 0.00962604
0.0015328263 -0.010306094 -0.014996837 -0.041205328 0.0053872215 -0.0023917307 -0.04063663 -0.0386128
0.0077125616 0.0036745053 -0.023702763 0.012511925 0.02097805 0.006974579 -0.009524242 0.049651384
0.004464794 0.011274557 0.01546625 0.0123746935 -0.006353784 0.026385352 0.051501233 -0.008972803
0.006515917 0.0021911876 0.001134085 -0.022456592 -0.0023169764 -0.0073013646 -0.00399652 -0.01462908
0.019462766 -0.01023586 -0.018237947 0.047186617 0.011415462 0.013034446 -0.015573527 0.017698137
-0.015581581 -0.0011799373 -0.01359734 -0.0076807267 0.010087806 -0.011139294 0.017548274 0.02315293
0.013418877 -0.009050714 0.000488921 0.0027575158 0.018784683 0.0013158403 -0.020004071 0.008084182
0.019500308 -0.0010259604 0.018669954 0.016162882 0.016868906 0.020268213 -0.0029632219 -0.011798309
0.0015827612 0.0251532 -0.009578786 -0.017169274 -0.00617308 0.017320178 0.03472423 -0.005696941
-0.0029007534 0.02770442 0.013735571 -0.0027712781 -0.0004602039 0.027277436 -0.020191373 -0.010850034
0.0108520705 -0.03449064 -0.036121007 -0.00689188 0.015757829 0.010017368 0.009866716 0.025374722
0.010031272 -0.03210151 0.010571296 0.030366395 0.010363825 -0.02679951 0.012043991 -0.010277981
0.014247872 -0.011276538 -0.01350606 0.0024691478 -0.014915055 0.009534564 -0.00088706944 -0.00077551353
0.015206324 0.011034586 -0.016863354 -0.03696507 0.003976047 0.009022683 -0.0005533783 0.0070834784
-0.009167297 -0.01557496 0.010886744 0.011004993 -0.021612726 -0.007396509 -0.0035135706 -0.021045856
-0.013241677 0.013883887 0.0155708715 -0.025701031 -0.0032240697 -0.008110191 -0.00016764668 0.0045241
0.03881603 -0.005137793 -0.030316757 0.021170849 -0.022585481 -0.0036559512 0.002991816 -0.00954783
0.002915165 0.026726948 0.0027375123 0.0016524028 -0.00875676 0.02354073 0.028956214 -0.007345358
-0.010936067 0.014532584 0.015254853 -0.02188488 0.0010954998 0.010374283 0.0071194284 -0.008807841
0.008669374 -0.00023696276 0.029917695 -0.04615946 -0.012527749 -0.04052815 -0.014698809 -0.009070139

action_model._continuous_distribution.mu.bias f4 [39]
00000000: 5968 6b3a 5a3b c839 5641 2b3a 96cc dd39
00000010: e708 0a3a 4224 8eba 4b25 80b9 5e91 52ba
00000020: 54bb 8939 5cdd a93a c614 8cba 92b9 86ba
00000030: 3564 1839 5808 a4ba 0277 31ba 55d4 2138
00000040: 8450 843a 139c 6bba 6115 b6ba 5b85 6b3a
00000050: 06ec d4b9 dd7a 7dba b203 3bba c5f9 a73a
00000060: 0b89 713a aa96 9bba 429d cab9 8d10 103a
00000070: 782b 76ba c5c5 1c39 0b06 ccb8 8e97 04b9
00000080: ca5f 1c39 cb1f a7b9 0258 50ba abb1 4839
00000090: 0baa c939 e814 73ba 4005 663a
0.00089800876 0.00038191193 0.0006532868 0.00042304833 0.0005265609 -0.0010844546 -0.00024441848 -0.00080325257
0.00026270247 0.0012959647 -0.0010687343 -0.0010278693 0.0001453318 -0.0012514694 -0.00067697477 3.858314e-05
0.0010094796 -0.00089877954 -0.001389187 0.000898441 -0.00040611642 -0.0009669492 -0.00071340345 0.0012815526
0.00092138414 -0.0011870463 -0.0003864561 0.00054956303 -0.00093906326 0.00014950994 -9.7286036e-05 -0.0001264496
0.00014913004 -0.0003187641 -0.00079476845 0.00019139673 0.000384644 -0.00092728296 0.0008774586
