Assets/Brains/ArvidTests/test8/Zombie Walker/Zombie Walker-999990.onnx (onnx, 215656 bytes, 7 tensors)

network_body._body_endoder.seq_layers.0.weight f4 [128, 243]
-0.117751375 0.13540097 -0.09345537 0.2661661 -0.1151843 -0.015864013 -0.02023309 0.255111
0.1111381 0.10530567 -0.08590032 0.17118073 0.16137645 0.04648821 -0.09564163 0.0865028
0.10932892 -0.04590546 -0.022757899 0.26966357 -0.12725855 0.13336875 -0.19617161 -0.0003856285
-0.09581473 0.19285715 0.05000295 0.05014578 -0.027428815 -0.03086562 -0.10348494 0.18365075
0.035683136 -0.0024019384 0.1980974 -0.15122892 0.06393332 0.22356714 0.18068379 -0.06768327
-0.0741414 -0.08267666 -0.06062411 0.068181574 0.11043205 0.069975995 0.21138903 0.01601411
-0.19359472 0.06913278 -0.0105349375 -0.11682253 -0.013326209 0.2968095 -0.11700853 0.18416458
-0.049753625 -0.11244222 -0.06086647 0.040098254 0.005536517 0.13171482 -0.031505868 -0.2117165
-0.028434737 -0.2001158 0.1035146 0.21836345 -0.19517441 -0.16294616 -0.03530462 0.052194208
-0.05528636 -0.01776967 0.0024131143 -0.05457781 0.093096204 0.18726979 0.015448137 -0.14659278
-0.073308714 0.0707963 -0.2382651 0.06625237 -0.33853343 -0.07793329 -0.06682248 0.065168135
0.42584252 -0.06443326 0.022230586 -0.04223298 0.43476573 -0.019899854 -0.19392037 -0.11306495
0.23153998 -0.19456291 0.007435258 0.09354233 0.20195799 -0.1393715 0.02285307 0.18757595
-0.16091925 0.030017946 -0.07010612 0.33497617 0.07356146 -0.04267153 -0.1762095 0.070857026
-0.07984411 -0.16564839 -0.045484837 0.2614215 0.08448267 -0.10015727 0.16114122 0.2075783
-0.19605012 -0.013021019 0.07414974 0.13874464 -0.20408575 -0.11315322 0.12080621 -0.021699913
-0.13933764 -0.33156258 -0.0894935 0.01734957 0.19403128 0.047308154 0.0012631055 -0.026012136
0.02997708 -0.013863575 -0.041748613 -0.11595025 -0.21185106 0.15542394 -0.16179135 0.07967224
0.36604163 0.15790962 0.009479499 -0.10559748 0.08722416 -0.047445264 -0.16206309 0.049103364
0.03495015 0.073139444 -0.20616777 0.0027231423 -0.00030558024 0.009094704 0.035446092 0.26631624
0.13483113 -0.02086472 0.037180316 0.019567553 -0.15343975 -0.16730618 0.00967115 0.14983839
-0.04167198 0.07129104 -0.020705417 -0.028744733 -0.03175267 -0.11427325 0.041385006 -0.051681064
-0.033143565 -0.0036632805 -0.10809976 -0.12522785 -0.2522813 0.042188697 0.08013536 0.07084453
0.36732408 -0.023262324 -0.002321453 0.015742362 -0.15581581 0.053754684 0.08183261 -0.11867863
0.024071906 0.05391519 0.048308462 -0.1152917 0.087364584 -0.09305289 0.056808632 0.3799396
0.026290054 -0.019788459 -0.041785017 -0.017361417 0.1577921 0.056153446 0.28652486 0.03604085
0.14463143 0.2670495 -0.096640795 -0.0887272 0.25013322 -0.14855006 0.068940215 -0.076690815
0.009916622 0.107109874 0.0013129404 0.16977035 -0.028970847 0.14739883 0.068407215 0.021587217
0.04287884 -0.23506112 -0.15197712 0.34173918 0.031123322 -0.15470421 -0.06933733 0.04572666
0.023434969 0.13049501 0.2613511 0.032267522 0.0012668704 -0.050477363 0.07735457 0.11156176
-0.17903422 -0.02766185 0.04636537 -0.20817856 -0.08180185 -0.06678979 -0.00037261052 -0.021748442
-0.011451918 -0.21023846 -0.021872018 0.0903517 0.22180367 0.048324436 0.09152494 0.06553845
00000000: a227 f1bd 8da6 0a3e 8765 bfbd ec46 883e
00000010: bfe5 ebbd 3ff5 81bc ddbf a5bc e99d 823e
00000020: 5f9c e33d 80aa d73d 82ec afbd 004a 2f3e
00000030: de3f 253e 6c6a 3e3d c2df c3bd 6128 b13d
00000040: d7e7 df3d 5d07 3cbd c66e babc 5811 8a3e
00000050: 1150 02be d191 083e 36e1 48be 2e2e cab9
00000060: 833a c4bd 587c 453e e5cf 4c3d a965 4d3d
00000070: 65b2 e0bc e6d9 fcbc eaef d3bd f10e 3c3e
00000080: 7b28 123d d769 1dbb 0bda 4a3e c1db 1abe
00000090: 79ef 823d c9ee 643e 2c05 393e 879d 8abd
000000a0: 72d7 97bd 6152 a9bd fd50 78bd c8a2 8b3d
000000b0: 332a e23d 934f 8f3d 5e76 583e 0630 833c
000000c0: b23d 46be 7d95 8d3d bb9a 2cbc a740 efbd
000000d0: 2c56 5abc 6af7 973e 2ba2 efbd a495 3c3e
000000e0: 75ca 4bbd 1b48 e6bd 1f4f 79bd 113e 243d
000000f0: ac6b b53b 40e0 063e 4c0c 01bd 36cc 58be
00000100: f7ef e8bc 28eb 4cbe 76ff d33d ab9a 5f3e
00000110: cddb 47be 5cdb 26be 949b 10bd 98c9 553d
00000120: f373 62bd b391 91bc 5725 1e3b fb8c 5fbd
00000130: 39a9 be3d a7c3 3f3e 2f1a 7d3c 6b1c 16be
00000140: e122 96bd a7fd 903d c4fb 73be 53af 873d
00000150: 4154 adbe 7d9b 9fbd 39da 88bd df76 853d
00000160: 0808 da3e 96f5 83bd eb1c b63c 7dfc 2cbd
00000170: 9d99 de3e 0505 a3bc 1093 46be 998e e7bd
00000180: d118 6d3e 803b 47be 77a3 f33b 1f93 bf3d
00000190: 13ce 4e3e 67b7 0ebe 5d36 bb3c e913 403e
000001a0: 04c8 24be 32e8 f53c cc93 8fbd ff81 ab3e
000001b0: 64a7 963d 58c8 2ebd 4370 34be 7d1d 913d
000001c0: 4f85 a3bd bb9f 29be 4f4e 3abd 0ad9 853e
000001d0: 4005 ad3d 411f cdbd 3402 253e 688f 543e
000001e0: 5dc1 48be 1d56 55bc d2db 973d 1313 0e3e
000001f0: dbfb 50be e0bc e7bd 3f69 f73d 04c4 b1bc
00000200: 87ae 0ebe 92c2 a9be 5e48 b7bd af20 8e3c
00000210: 23b0 463e 32c6 413d ca8e a53a 6717 d5bc
00000220: 7e92 f53c 0c24 63bc 9800 2bbd 5377 edbd
00000230: 7cef 58be 7427 1f3e a2ac 25be 332b a33d
00000240: cf69 bb3e 0fb3 213e e74f 1b3c 7e43 d8bd
00000250: 95a2 b23d f755 42bd def3 25be 9c20 493d
00000260: e327 0f3d 22ca 953d a51d 53be bf76 323b
00000270: 4936 a0b9 f401 153c ec2f 113d 9a5a 883e
00000280: 2c11 0a3e 7dec aabc 634a 183d 224c a03c
00000290: 4f1f 1dbe 5052 2bbe be73 1e3c 3c6f 193e
000002a0: 3db0 2abd 0901 923d 689e a9bc 137a ebbc
000002b0: 160f 02bd 1808 eabd 5383 293d 86af 53bd
000002c0: 8cc1 07bd a613 70bb 6863 ddbd bb3b 00be
000002d0: 042b 81be 0ece 2c3d 021e a43d f016 913d
000002e0: e711 bc3e a190 bebc 8523 18bb 20f6 803c
000002f0: 2e8e 1fbe df2d 5c3d db97 a73d c80d f3bd
00000300: 7232 c53c 2dd6 5c3d 18df 453d 0e1e ecbd
00000310: 34ec b23d 8392 bebd 2bb0 683d 7187 c23e
00000320: 3d5e d73c 681b a2bc c426 2bbd 8839 8ebc
00000330: 4194 213e 2801 663d 63b3 923e 929f 133d
00000340: 431a 143e b6ba 883e 9ceb c5bd 9bb6 b5bd
00000350: 7611 803e 821d 18be 8730 8d3d 1310 9dbd
00000360: 5479 223c 6c5c db3d f816 ac3a 47d8 2d3e
00000370: 4554 edbc b8ef 163e 1519 8c3d add7 b03c
00000380: b9a1 2f3d ddb3 70be e49f 1bbe 70f8 ae3e
00000390: 56f6 fe3c c86a 1ebe bb00 8ebd e14b 3b3d
000003a0: b1fa bf3c 7ca0 053e d0cf 853e f32a 043d
000003b0: 1e0d a63a 5ac1 4ebd 136c 9e3d 7e7a e43d
000003c0: bf54 37be 1b9b e2bc 9de9 3d3d c32c 55be
000003d0: ba87 a7bd 16c9 88bd f05a c3b9 ca29 b2bc
000003e0: d3a0 3bbc c048 57be f22c b3bc 500a b93d
000003f0: 8020 633e d8ef 453d 6e71 bb3d 0639 863d

network_body._body_endoder.seq_layers.0.bias f4 [128]
-0.029002244 -0.07646536 -0.13442485 -0.08065447 -0.08156701 -0.058631424 -0.0024984246 -0.06955866
-0.072977185 -0.03315309 -0.07763211 -0.07662388 -0.10644915 -0.027410451 -0.016135247 -0.11013993
-0.1471312 0.021869672 -0.020990051 -0.2773208 -0.07460797 -0.024680752 -0.08193144 -0.0032755784
-0.013892263 0.031414878 -0.073327884 0.018235346 0.0103287045 0.018049644 -0.014514235 -0.112119496
-0.08130983 -0.003028241 -0.028768739 -0.0475038 -0.0011637887 -0.059655763 -0.1626589 -0.019726852
0.015583971 -0.15281019 -0.052098524 0.021160984 -0.06102417 0.0100160055 0.009186728 0.03098474
-0.020733532 -0.050571583 -0.10935367 -0.07175283 -0.051248774 -0.03184037 -0.0405047 -0.20498963
-0.05003312 -0.10234022 -0.091540545 -0.124832414 0.062279698 -0.07767088 -0.23122288 -0.037994888
0.020704009 0.021374844 -0.0601738 0.080366515 0.009923194 -0.021275604 0.028014414 -0.03749027
-0.05265259 -0.1198793 -0.10138493 0.056553908 -0.0558697 -0.114489414 -0.11660451 -0.035920937
-0.043217186 -0.055486243 -0.18953975 -0.10438151 -0.060414154 -0.033399485 -0.091667 -0.05968472
-0.11294838 -0.026975665 -0.23037106 -0.055384357 -0.0058448347 -0.04459865 0.0049752165 -0.058469627
-0.08584144 -0.042455684 -0.04577674 -0.11249547 0.05476779 -0.002838607 -0.19742571 -0.076959826
-0.15004478 -0.04899648 -0.048127472 -0.08221258 -0.11936818 -0.046592873 -0.17939728 0.0054836
-0.15820886 -0.098741524 -0.0038651403 -0.0520722 0.027041242 0.0021364852 0.020293524 -0.083909534
-0.094054304 0.06192533 -0.0057396544 0.023370448 0.031386264 -0.19649552 0.043015957 -0.020629162
00000000: 1d96 edbc df99 9cbd aba6 09be 2c2e a5bd
00000010: 9b0c a7bd 8127 70bd 9cbc 23bb c574 8ebd
00000020: 1075 95bd 89cb 07bd 95fd 9ebd fbec 9cbd
00000030: 0302 dabd e28b e0bc 112e 84bc 0b91 e1bd
00000040: 90a9 16be 0728 b33c 54f3 abbc fefc 8dbe
00000050: 10cc 98bd 4a2f cabc accb a7bd 16ab 56bb
00000060: 609c 63bc e3ac 003d ee2c 96bd 4b62 953c
00000070: ba39 293c d9dc 933c 1dcd 6dbc e89e e5bd
00000080: c585 a6bd 7475 46bb 6bac ebbc 5893 42bd
00000090: 458a 98ba 9a59 74bd 0e90 26be 359a a1bc
000000a0: e953 7f3c 467a 1cbe 4365 55bd cd59 ad3c
000000b0: 7bf4 79bd 2c1a 243c ee83 163c b6d3 fd3c
000000c0: 5ed9 a9bc 2624 4fbd d1f4 dfbd 26f3 92bd
000000d0: 3cea 51bd 0c6b 02bd 42e8 25bd cde8 51be
000000e0: 87ef 4cbd c097 d1bd 9c79 bbbd 23a8 ffbd
000000f0: ff18 7f3d e911 9fbd b1c5 6cbe 87a0 1bbd
00000100: 749b a93c 4c1a af3c cd78 76bd 3397 a43d
00000110: e494 223c 2d4a aebc 7c7e e53c 668f 19bd
00000120: 3eaa 57bd 4783 f5bd e7a2 cfbd 12a5 673d
00000130: a0d7 64bd 6d79 eabd 58ce eebd d521 13bd
00000140: 8104 31bd 8b45 63bd b516 42be f9c5 d5bd
00000150: d574 77bd e6cd 08bd e8bb bbbd f777 74bd
00000160: 7b51 e7bd 12fc dcbc 64e6 6bbe b5da 62bd
00000170: 0786 bfbb 13ad 36bd 2407 a33b d97d 6fbd
00000180: a3cd afbd 03e6 2dbd 6480 3bbd 0664 e6bd
00000190: 3154 603d ec07 3abb f729 4abe 1d9d 9dbd
000001a0: 57a5 19be 88b0 48bd 5021 45bd 125f a8bd
000001b0: 4e77 f4bd 2bd8 3ebd ecb3 37be c5af b33b
000001c0: 8101 22be ff38 cabd 4b4e 7dbb a949 55bd
000001d0: 9885 dd3c 4604 0c3b 9b3e a63c c3d8 abbd
000001e0: 8b9f c0bd 6aa5 7d3d b613 bcbb 6273 bf3c
000001f0: e28e 003d 1f36 49be 8031 303d 7dfe a8bc

network_body._body_endoder.seq_layers.2.weight f4 [128, 128]
-0.055687588 0.022633277 0.120212875 0.0058659255 0.19843924 -0.12143672 0.22683524 0.0012131401
-0.09891473 0.06484058 -0.016840031 0.10328271 -0.18021843 -0.016097397 0.07820146 -0.16245274
0.032719024 -0.19264406 -0.036732007 0.019156285 0.08698068 -0.3197388 -0.11188881 -0.01071389
-0.0939075 -0.26419732 0.041080646 -0.08667721 -0.20638657 -0.050331462 0.46373302 0.13735557
0.036136094 0.1494142 -0.1749435 -0.05995923 0.11757962 -0.073516704 0.051346384 -0.022452783
-0.3194436 -0.04456924 0.0211374 0.0028188943 -0.29380643 0.0015296439 0.14678213 -0.109111145
-0.073751085 -0.07439074 0.17237811 0.2009916 -0.31696397 -0.1120939 -0.37715238 -0.1906291
-0.06270606 -0.27226347 0.23602673 0.11679304 0.22413388 0.03817679 0.20155925 0.06960174
0.30164772 -0.1460752 0.0059834644 -0.19479282 0.047405217 0.24531944 -0.063840434 -0.06809025
-0.22404054 0.007498633 -0.010260865 -0.24736981 0.049657535 0.22690742 0.14743832 -0.27577296
-0.14719146 -0.1604615 -0.27003685 0.101716846 -0.07730651 0.10905006 0.11596571 -0.16902971
0.017751493 -0.11638779 0.18368572 -0.094272286 -0.20283142 0.0683559 -0.2504341 0.21100616
0.20015876 -0.39642897 -0.010463396 0.2477673 -0.222403 0.04528042 -0.09144291 -0.06431054
0.07956402 0.02171675 -0.15932088 0.01334928 0.30458933 0.20563322 0.057197224 -0.4051143
0.1055268 -0.023475075 -0.027231932 -0.055836916 -0.34709838 0.14015688 0.23344901 0.12388435
0.011430479 0.1620609 -0.015260924 -0.002696792 0.013723422 -0.08131002 -0.09439918 -0.13085416
-0.048146095 -0.00662558 0.10819057 0.014032749 -0.060607105 0.03084557 -0.14027447 0.07413354
0.17192142 -0.056893937 -0.028238282 -0.11838471 -0.093546644 -0.06324113 -0.15888739 -0.045569677
-0.2529498 0.049457964 -0.25456968 0.04909883 0.10743851 -0.35277623 -0.013939424 -0.17989801
0.037090085 -0.34321997 -0.009989459 0.13702413 -0.13318169 0.08763731 0.07171307 -0.16752288
-0.08254114 -0.08115176 -0.1594968 -0.04655878 -0.026838614 0.15271422 -0.0078618005 -0.06460877
0.043136384 0.17077175 0.173096 -0.056885473 0.07250496 -0.010067174 -0.03739691 -0.12330086
-0.29770672 -0.0664365 -0.1222739 0.02028651 -0.031356413 0.07458211 -0.03204887 0.1233712
0.0096180625 -0.052789122 0.023825122 0.11817624 -0.07421527 0.08757249 -0.066956334 -0.031309284
-0.01737639 -0.1907067 -0.11002751 -0.21725407 -0.46796414 -0.15103564 0.07075105 0.097827934
0.113219954 -0.21146753 0.055460274 -0.09447953 -0.06099192 0.0976931 0.04218239 -0.016964786
-0.0070092566 -0.03291585 -0.02761655 -0.044718605 -0.032191683 -0.0023308787 0.08599365 -0.20449795
0.019684605 0.0420268 -0.21150616 -0.038968664 -0.15675798 0.06472629 0.0028563498 -0.007105686
-0.103830226 -0.074752405 -0.06930039 -0.05495518 -0.08174046 -0.03855196 -0.030496558 -0.14024411
0.017353378 -0.09004462 -0.08784884 0.14801872 -0.15319543 -0.14050005 0.11577879 -0.08645285
-0.18528636 0.051022246 -0.2358751 0.012544356 0.10951388 -0.12964348 -0.22360717 0.09024836
0.07190417 -0.06935137 -0.06585642 -0.09983071 -0.21666327 0.03567988 0.05025946 0.044843305
00000000: ab18 64bd 6c69 b93c 2b32 f63d f336 c03b
00000010: a833 4b3e d1b3 f8bd 7f47 683e 3a02 9f3a
00000020: ce93 cabd 23cb 843d 1bf4 89bc e385 d33d
00000030: 2e8b 38be b0de 83bc 1628 a03d 035a 26be
00000040: 6204 063d 7c44 45be 4d74 16bd a4ed 9c3c
00000050: ed22 b23d ceb4 a3be f625 e5bd 5089 2fbc
00000060: 9352 c0bd df44 87be 2e44 283d d283 b1bd
00000070: 0057 53be 5d28 4ebd 6a6e ed3e f0a6 0c3e
00000080: 7103 143d 0900 193e 6424 33be cf97 75bd
00000090: 95cd f03d ed8f 96bd 9650 523d e6ee b7bc
000000a0: 1d8e a3be 3c8e 36bd 5728 ad3c 33bd 383b
000000b0: cc6d 96be 557e c83a 0e4e 163e aa75 dfbd
000000c0: cf0a 97bd 2c5a 98bd e383 303e bed0 4d3e
000000d0: 1a49 a2be 7d91 e5bd 1e1a c1be 4634 43be
000000e0: 096c 80bd 1e66 8bbe feb0 713e 3031 ef3d
000000f0: 5a83 653e 445f 1c3d 8c65 4e3e 5b8b 8e3d
00000100: 9271 9a3e bd94 15be f010 c43b c577 47be
00000110: f92b 423d 0535 7b3e c6be 82bd e772 8bbd
00000120: e26a 65be 18b7 f53b 301d 28bc 834e 7dbe
00000130: b365 4b3d 6b5a 683e 12fa 163e 1d32 8dbe
00000140: 5cb9 16be 0550 24be 4542 8abe ec50 d03d
00000150: e052 9ebd a355 df3d 6e7f ed3d 2016 2dbe
00000160: 946b 913c b95c eebd 1c18 3c3e d411 c1bd
00000170: 0ab3 4fbe 2efe 8b3d e638 80be 0012 583e
00000180: 6bf6 4c3e bdf8 cabe aa6e 2bbc b6b6 7d3e
00000190: 9dbd 63be f677 393d 6c46 bbbd 3fb5 83bd
000001a0: 76f2 a23d 53e7 b13c 0325 23be f0b6 5a3c
000001b0: 22f3 9b3e 8491 523e a347 6a3d 246b cfbe
000001c0: 6f1e d83d cd4e c0bc 8015 dfbc 40b5 64bd
000001d0: e1b6 b1be 4985 0f3e 420d 6f3e 14b7 fd3d
000001e0: e746 3b3c 4bf3 253e f408 7abc a9bc 30bb
000001f0: 34d8 603c de85 a6bd 5b54 c1bd a2fe 05be
00000200: d734 45bd 651b d9bb 0493 dd3d 9ee9 653c
00000210: 283f 78bd d9af fc3c 1ca4 0fbe 53d3 973d
00000220: 2b0c 303e 9e09 69bd f853 e7bc af73 f2bd
00000230: 6295 bfbd 9184 81bd 60b3 22be 45a7 3abd
00000240: a382 81be 6f94 4a3d f556 82be db1b 493d
00000250: b908 dc3d 169f b4be 2f62 64bc 2f37 38be
00000260: c6eb 173d 87ba afbe d4aa 23bc 0e50 0c3e
00000270: c860 08be 317b b33d 4dde 923d 1e8b 2bbe
00000280: 540b a9bd e532 a6bd 2153 23be 6bb4 3ebd
00000290: a7dc dbbc 1e61 1c3e c8ce 00bc 9a51 84bd
000002a0: c7af 303d cade 2e3e 1440 313e be00 69bd
000002b0: 7b7d 943d caf0 24bc 812d 19bd 2985 fcbd
000002c0: 046d 98be dc0f 88bd bd6a fabd e52f a63c
000002d0: 956f 00bd 81be 983d ad45 03bd 0aaa fc3d
000002e0: 1495 1d3c 6839 58bd e72c c33c 6206 f23d
000002f0: 2dfe 97bd 3559 b33d 6720 89bd 2a3e 00bd
00000300: ee58 8ebc 9e48 43be 1a56 e1bd da77 5ebe
00000310: ff98 efbe 16a9 1abe ede5 903d 035a c83d
00000320: dddf e73d f28a 58be 502a 633d 7c7e c1bd
00000330: aad2 79bd 5213 c83d 71c7 2c3d bcf9 8abc
00000340: e8ad e5bb c5d2 06bd 1a3c e2bc db2a 37bd
00000350: 6ddb 03bd a8c1 18bb 701d b03d e967 51be
00000360: 9c41 a13c 4b24 2c3d 1295 58be 9b9d 1fbd
00000370: 2a85 20be 388f 843d 9931 3b3b d0d6 e8bb
00000380: f1a4 d4bd ca17 99bd 5ded 8dbd af18 61bd
00000390: 8b67 a7bd a9e8 1dbd ebd3 f9bc 279c 0fbe
000003a0: ac28 8e3c 5069 b8bd 18ea b3bd 3892 173e
000003b0: 43df 1cbe 3fdf 0fbe 6e1d ed3d 310e b1bd
000003c0: b5bb 3dbe b4fc 503d 3e89 71be d886 4d3c
000003d0: d048 e03d 43c1 04be 47f9 64be 22d4 b83d
000003e0: 7e42 933d 1708 8ebd bbdf 86bd 0b74 ccbd
000003f0: fadc 5dbe 1125 123d dddc 4d3d 9dad 373d

network_body._body_endoder.seq_layers.2.bias f4 [128]
-0.10063385 -0.19505619 -0.015971048 0.014892023 -0.14550062 -0.1402184 -0.092710614 0.06799674
-0.05281676 0.085411675 -0.050321348 0.06868337 -0.070030056 0.041218862 -0.04103663 0.08196504
0.017613268 -0.032836664 0.08683459 -0.018308133 -0.079326734 -0.11336524 -0.1693906 0.018772673
-0.11278457 0.022944752 0.073178284 0.082568385 -0.022098001 0.030348124 -0.15699129 -0.02897032
0.025283748 -0.15922767 0.11616714 -0.042354546 -0.03320489 0.11034329 0.07276146 0.15830772
-0.13269278 0.09392317 0.0039287764 -0.10472179 -0.05449115 0.026534222 -0.26239127 -0.123994604
-0.018671708 0.07768413 0.096808776 0.25377074 0.039464504 -0.07402607 0.0918673 -0.07345229
0.08828867 -0.13316147 0.04002878 -0.1601497 0.064584434 0.12907715 -0.016527245 -0.06870731
0.01648705 -0.01520518 -0.14755957 0.13449429 -0.08871129 -0.06981269 -0.05838982 -0.047709342
0.08952426 -0.0122215785 -0.027629796 0.1065705 -0.013145049 0.13248323 0.15813074 0.124279164
0.18679442 0.017576966 0.036939953 -0.032739054 -0.02219404 -0.21563451 0.08462996 -0.121596605
0.042614914 0.082854636 -0.11708141 -0.070960805 0.032389812 0.008631078 0.042736743 -0.024832696
-0.14728516 -0.05600541 -0.08745302 0.077055424 0.019758368 0.097720206 0.13458754 -0.033047788
0.10311793 0.054019105 0.130161 0.024339685 -0.18103111 0.04079327 -0.109201975 0.07083798
-0.14381392 0.08574797 0.010017828 0.04879285 -0.09967738 -0.2045436 0.17645632 -0.19614051
-0.21545677 -0.013259081 0.02276325 -0.008702412 -0.062186714 -0.06347187 0.09681088 -0.077694446
00000000: 1f19 cebd cfbc 47be b7d5 82bc acfd 733c
00000010: 1dfe 14be 6a95 0fbe 10df bdbd e041 8b3d
00000020: 6356 58bd 51ec ae3d c21d 4ebd dea9 8c3d
00000030: eb6b 8fbd 1cd5 283d 0616 28bd 49dd a73d
00000040: b349 903c bd7f 06bd 55d6 b13d f0fa 95bc
00000050: 0e76 a2bd 092c e8bd bb74 2dbe 26c9 993c
00000060: 99fb e6bd a2f6 bb3c 7fde 953d 9d19 a93d
00000070: de06 b5bc a19c f83c 53c2 20be 2a53 edbc
00000080: dd1f cf3c 940c 23be 0ae9 ed3d f67b 2dbd
00000090: da01 08bd aafb e13d f603 953d 6b1b 223e
000000a0: 9ee0 07be ca5a c03d f7bc 803b 6178 d6bd
000000b0: 1d32 5fbd 4c5e d93c 2658 86be e2f0 fdbd
000000c0: 69f5 98bc db18 9f3d ae43 c63d 3dee 813e
000000d0: 88a5 213d fb9a 97bd ec24 bc3d 276e 96bd
000000e0: b1d0 b43d 7b5b 08be 38f5 233d 48fe 23be
000000f0: d844 843d cd2c 043e 2564 87bc 6bb6 8cbd
00000100: da0f 873c 261f 79bc db19 17be dfb8 093e
00000110: 44ae b5bd f5f9 8ebd 2a2a 6fbd df6a 43bd
00000120: 7f58 b73d 043d 48bc e257 e2bc a241 da3d
00000130: 555e 57bc afa9 073e 06ed 213e 1386 fe3d
00000140: 0947 3f3e 92fd 8f3c 594e 173d 6319 06bd
00000150: 46d0 b5bc 4bcf 5cbe 7952 ad3d a407 f9bd
00000160: fa8c 2e3d b1af a93d 61c8 efbd e653 91bd
00000170: 2eab 043d 5d69 0d3c b90c 2f3d f06d cbbc
00000180: ecd1 16be ee65 65bd 921a b3bd 3ccf 9d3d
00000190: 4ddc a13c 8821 c83d 51d1 093e 1e5d 07bd
000001a0: 7e2f d33d 2343 5d3d ed48 053e 0564 c73c
000001b0: 3860 39be d816 273d 49a5 dfbd 8113 913d
000001c0: f543 13be a29c af3d d121 243c 03db 473d
000001d0: a723 ccbd e173 51be f7b0 343e 0fd9 48be
000001e0: b3a0 5cbe 9e3c 59bc ff79 ba3c 9094 0ebc
000001f0: 7fb7 7ebd 8afd 81bd c844 c63d 441e 9fbd

action_model._continuous_distribution.log_sigma f4 [1, 39]
-1.0535158 -0.8632028 -0.7815558 -0.53876036 -0.8181548 -1.13274 -1.2285604 -0.8572514
-1.2761675 -0.90844285 -0.8192028 -1.0907121 -0.81660813 -1.0456635 -0.8336222 -1.2250404
-0.9370987 -0.95895386 -0.7027199 -0.8578788 -1.0091935 -0.77521294 -1.075037 -0.84723264
-0.9707309 -0.9696659 -1.0077912 -1.0734947 -0.61434877 -1.2246442 -0.8339065 -0.85961235
-0.8943014 -0.92414844 -1.1180675 -0.95580655 -0.74137396 -0.97563326 -1.0086291
00000000: 9bd9 86bf dcfa 5cbf 0a14 48bf 33ec 09bf
00000010: 9872 51bf a0fd 90bf 7841 9dbf d474 5bbf
00000020: 7559 a3bf b68f 68bf 46b7 51bf 749c 8bbf
00000030: 3b0d 51bf 4dd8 85bf 4468 55bf 20ce 9cbf
00000040: b3e5 6fbf 007e 75bf 74e5 33bf f29d 5bbf
00000050: 412d 81bf 5b74 46bf d09a 89bf 3de4 58bf
00000060: d281 78bf 063c 78bf 4dff 80bf 4668 89bf
00000070: f645 1dbf 24c1 9cbf e57a 55bf 8e0f 5cbf
00000080: f0f0 64bf fe94 6cbf d61c 8fbf bdaf 74bf
00000090: afca 3dbf 1ac3 79bf c21a 81bf

action_model._continuous_distribution.mu.weight f4 [39, 128]
-0.13153908 -0.06861848 0.00044590436 -0.11484242 -0.02746089 0.031503513 0.028071132 -0.10746058
-0.09069204 -0.0066385223 -0.09042773 -0.0010740418 -0.051969986 0.010779332 -0.036361963 -0.11076708
-0.056465466 -0.033801727 -0.10557868 -0.04319348 -0.032103114 0.009805697 -0.14405483 -0.041383736
0.04984322 -0.14959162 0.0121515095 -0.04001375 -0.015424814 -0.18196422 -0.08930607 -0.042720135
-0.10678807 -0.0025721274 0.12166772 0.04016807 0.1646066 -0.0574708 0.046735927 -0.03681803
0.019005688 -0.036222268 0.16982013 -0.17218794 0.032723032 -0.035064824 0.02887701 -0.17034794
0.05624416 0.15798943 0.32996795 -0.023233773 -0.095166475 0.01194087 -0.016553562 0.06076392
0.02027317 0.019276207 0.19835986 0.013453685 -0.03278209 0.006852974 0.26156566 0.01865387
0.06370377 0.15180561 0.0008723658 -0.01672053 -0.013508231 -0.10557944 0.08544446 -0.11094724
0.14294189 -0.10223689 -0.09869815 0.07453568 0.17293641 -0.07716549 -0.00024678448 -0.09409562
-0.25335294 -0.0022271646 -0.10199757 -0.014818765 -0.07461277 0.034218736 -0.050909795 -0.073578194
-0.0027425964 4.01446e-05 0.023826364 0.21844925 0.05901079 0.023035854 0.077526666 -0.087694325
-0.10096935 0.04939062 -0.00015194342 -0.13678773 -0.009543634 -0.04148793 0.060268268 -0.021122957
0.16377828 -0.018434905 -0.017466398 -0.010681446 -0.16068305 -0.015929854 0.03198817 -0.09339954
-0.095427044 0.11884093 0.047385488 -0.048318677 -0.0784904 0.033447552 -0.08151617 -0.02589896
-0.11682186 -0.13021788 0.09664761 0.06770542 0.02587888 0.0020383745 0.09008855 -0.13078648
-0.115930274 -0.19316515 0.107349046 -0.14626257 0.074562125 -0.016831012 0.09155344 0.23423801
-0.110757284 0.00504435 0.034309823 0.041681614 -0.0030766022 -0.011437175 0.1632369 0.06936092
-0.057958473 0.2484031 -0.1863317 -0.10913283 -0.114933364 0.13425016 -0.17026556 0.018827556
-0.18151174 -0.09073388 0.05337409 0.2793643 -0.14799018 0.22491704 -0.1130015 -0.03464031
0.057851743 -0.022321621 0.3385403 -0.13858585 0.02607064 0.038054787 0.12719257 0.13089071
-0.09271682 0.13900277 -0.09754689 -0.17027828 -0.0063098436 0.07377703 0.15370622 -0.0048265527
-0.10979231 0.18906134 -0.24604931 -0.14789978 0.019232554 -0.13416061 -0.18977463 0.31877577
-0.18027164 0.008094037 0.013696926 0.06526189 -0.037358355 0.02436046 -0.040567085 -0.05243585
0.10313299 -0.22471508 -0.15458596 -0.11270802 0.052629642 0.108331524 -0.081352085 -0.19234055
-0.05596806 -0.030249972 0.110326104 0.12052678 -0.06476161 -0.15943702 -0.08218218 0.065246046
-0.25346947 -0.049276628 -0.03703031 0.24030302 0.076840445 -0.10117606 0.33649957 0.040928926
-0.050666094 -0.090887964 -0.16295093 0.0012468853 -0.008610494 -0.12733075 0.25810283 0.010778129
0.024990313 -0.03361083 -0.09139752 0.1442901 0.021692423 -0.2278097 0.0019968275 -0.09814837
0.2081887 -0.048050128 0.0023226403 -0.018890226 0.18577516 -0.18732965 -0.0843648 0.06152805
-0.14424771 -0.12111755 0.32044575 -0.043621987 -0.049379338 -0.043169763 -0.046638843 -0.18550104
0.14353438 -0.11188531 0.2712968 0.075347945 0.12841465 0.11178328 0.24149568 -0.05540856
00000000: 2eb2 06be d887 8cbd 45c8 e939 8132 ebbd
00000010: a9f5 e0bc d409 013d 6ef5 e53c 4b14 dcbd
00000020: c0bc b9bd f687 d9bb 2c32 b9bd ddc6 8cba
00000030: 7bde 54bd cc9b 303c 48f0 14bd dad9 e2bd
00000040: 5548 67bd ae73 0abd a339 d8bd a6eb 30bd
00000050: 8e7e 03bd 13a8 203c 1c83 13be fe81 29bd
00000060: 6728 4c3d 8c2e 19be 2017 473c 75e5 23bd
00000070: 5cb8 7cbc d454 3abe 1ae6 b6bd 4ffb 2ebd
00000080: b4b3 dabd 2391 28bb ed2c f93d 4687 243d
00000090: a28e 283e 8066 6bbd 2c6e 3f3d 81ce 16bd
000000a0: d1b1 9b3c cd5d 14bd 54e5 2d3e 0952 30be
000000b0: 9608 063d 22a0 0fbd 7b8f ec3c b16f 2ebe
000000c0: 4760 663d fbc7 213e 8ff1 a83e c154 bebc
000000d0: a4e6 c2bd a4a3 433c 569b 87bc 97e3 783d
000000e0: eb13 a63c 23e9 9d3c d91e 4b3e d86c 5c3c
000000f0: 8346 06bd ea8e e03b efeb 853e 00d0 983c
00000100: 1f77 823d ee72 1b3e 7aaf 643a 7ef9 88bc
00000110: a151 5dbc 093a d8bd 81fd ae3d 4e38 e3bd
00000120: 5c5f 123e 9361 d1bd 4122 cabd 2aa6 983d
00000130: 3e16 313e f108 9ebd da62 81b9 34b5 c0bd
00000140: 7ab7 81be 9ff5 11bb 1ae4 d0bd 68ca 72bc
00000150: 94ce 98bd f228 0c3d ca86 50bd 2ab0 96bd
00000160: 22bd 33bb f060 2838 822f c33c 29b1 5f3e
00000170: 4cb5 713d b0b5 bc3c 4dc6 9e3d 1599 b3bd
00000180: 05c9 cebd d24d 4a3d 0053 1fb9 1512 0cbe
00000190: e75c 1cbc 3fef 29bd dcdb 763d 0d0a adbc
000001a0: 7eb5 273e cc04 97bc b115 8fbc 3b01 2fbc
000001b0: 198a 24be 537f 82bc 0706 033d 4248 bfbd
000001c0: 416f c3bd e062 f33d 4917 423d cee9 45bd
000001d0: 93bf a0bd 4d00 093d f3f1 a6bd 0e2a d4bc
000001e0: 4d40 efbd d657 05be 2fef c53d 24a9 8a3d
000001f0: f2ff d33c 4096 053b 5880 b83d e4ec 05be
00000200: da6c edbd 16cd 45be d1d9 db3d dbc5 15be
00000210: 07b4 983d 31e1 89bc 5f80 bb3d 17dc 6f3e
00000220: b7d4 e2bd 134b a53b 7588 0c3d 57ba 2a3d
00000230: d2a0 49bb fd62 3bbc 9327 273e 190d 8e3d
00000240: dd65 6dbd 625d 7e3e bdcd 3ebe 0881 dfbd
00000250: 2f62 ebbd e078 093e 185a 2ebe 3f3c 9a3c
00000260: 37de 39be afd2 b9bd ca9e 5a3d d608 8f3e
00000270: bd8a 17be a750 663e 556d e7bd ffe2 0dbd
00000280: f3f5 6c3d d5db b6bc 2755 ad3e 73e9 0dbe
00000290: 1892 d53c 56df 1b3d c53e 023e 3708 063e
000002a0: 51e2 bdbd be56 0e3e aac6 c7bd 6e5d 2ebe
000002b0: cec2 cebb 6918 973d 2a65 1d3e 0f28 9ebb
000002c0: cada e0bd 4c99 413e 5af4 7bbe 0a73 17be
000002d0: 978d 9d3c 6661 09be 4854 42be 9436 a33e
000002e0: 2199 38be da9c 043c 1269 603c 07a8 853d
000002f0: 1305 19bd 968f c73c ac29 26bd f9c6 56bd
00000300: 6437 d33d b61b 66be c84b 1ebe 76d3 e6bd
00000310: 2e92 573d ebdc dd3d ec9b a6bd ecf4 44be
00000320: c43e 65bd cace f7bc a7f2 e13d bfd6 f63d
00000330: bca1 84bd 7543 23be 214f a8bd b89f 853d
00000340: c0c6 81be 4ad6 49bd 18ad 17bd ff11 763e
00000350: 865e 9d3d 6535 cfbd ac49 ac3e 17a5 273d
00000360: 4087 4fbd 7823 babd 9cdc 26be 876e a33a
00000370: 0813 0dbc fe62 02be 0e26 843e c096 303c
00000380: 7cb8 cc3c 82ab 09bd 9f2e bbbd c9c0 133e
00000390: 4fb4 b13c f246 69be 35dd 023b 0302 c9bd
000003a0: 6b2f 553e 36d0 44bd 7037 183b adbf 9abc
000003b0: d83b 3e3e 58d3 3fbe 74c7 acbd d604 7c3d
000003c0: acb5 13be 7a0c f8bd 7711 a43e f8ac 32bd
000003d0: fd41 4abd c7d2 30bd 5f08 3fbd fcf3 3dbe
000003e0: adfa 123e 2024 e5bd 6ae7 8a3e 0650 9a3d
000003f0: 217f 033e a2ee e43d a54a 773e 16f4 62bd

action_model._continuous_distribution.mu.bias f4 [39]
-0.0055474592 0.13373135 0.031748153 -0.12130555 -0.17325272 0.19943984 0.1283421 0.13428292
0.14079522 0.05297488 -0.1193604 -0.1606884 0.019930478 0.017489057 -0.012733211 0.088278845
-0.07693918 -0.071326084 0.09470465 -0.02669566 0.15264305 -0.05314589 -0.055657897 -0.040240373
-0.01605194 -0.016583407 -0.0012416565 0.080765724 0.1870057 -0.015159309 0.37154973 -0.094230995
0.0072144303 0.18447474 0.124955766 -0.029727988 0.15483898 -0.104467206 0.08474903
00000000: 76c7 b5bb dff0 083e 5a0a 023d 0b6f f8bd
00000010: 2969 31be f539 4c3e 1d6c 033e 7681 093e
00000020: 9f2c 103e 30fc 583d 3a73 f4bd 808b 24be
00000030: 3e45 a33c 3645 8f3c f59e 50bc 8acb b43d
00000040: 4a92 9dbd 6913 92bd 83f4 c13d dbb0 dabc
00000050: 764e 1c3e 81af 59bd 89f9 63bd 17d3 24bd
00000060: 5c7f 83bc edd9 87bc 14bf a2ba 8068 a53d
00000070: 6c7e 3f3e c05e 78bc c43b be3e 2efc c0bd
00000080: 0767 ec3b f2e6 3c3e cfe8 ff3d 1c88 f3bc
00000090: 1c8e 1e3e e7f2 d5bd e690 ad3d
