Assets/Brains/ArvidTests/test3/Zombie Walker/Zombie Walker-499999.onnx (onnx, 212072 bytes, 7 tensors)

network_body._body_endoder.seq_layers.0.weight f4 [128, 236]
00000000: 1a6b a63d 7eec fb3d 0d23 833d 860d 8dbe
00000010: 7392 b6bd f750 d83d c43a 3a3d 9cfe b9bd
00000020: ea41 84bd dd0d 91bd e8b5 b2bd f324 b5ba
00000030: d032 c33d d986 c13d 9aef f9bc 9882 033e
00000040: a69b 653c f934 66bd 907c d7bc 9626 713e
00000050: b11d 173e c465 663d 94bc cdbd 0dc2 4cbb
00000060: 158d 22be f6fa 06be 26b1 9f3c 449f 94bb
00000070: 681c 51bd 14c2 3dbe df9b 353d 2c7b e53a
00000080: 9a2f ab3e 32b0 8bbd 1e8d 8dbd 6ea6 83be
00000090: eaf5 2d3d 53f3 613e 6615 c23d 7f29 b53d
000000a0: 7ba3 95bc 5dcb 443c ca8c 2b3e b570 a03d
000000b0: d7a9 303d 1399 ab3d 20bd d53b d58d 17be
000000c0: ac83 d33d 07dd 87be 0d6b 373d b819 8d3b
000000d0: ac5c b7bc 70d1 45bb a640 1f3e 8680 20be
000000e0: 42b7 c73d f68c 8ebe 6258 36bd 8483 0abe
000000f0: e62b b73d bb03 673d fc42 423d 00b3 613d
00000100: 33b8 48bd f70b cdbd 3096 2abe 0352 3bbb
00000110: 707d 223d 97ae 203d 2199 443e 8c76 71bd
00000120: 4641 d4bd 15dc d63d 14b7 ee3d abb9 f4bd
00000130: b652 f6bc 7372 3dbe a717 a6bc 1b6e d9bd
00000140: 4049 76be aabf 4bbe 5592 00be 79df a93c
00000150: bbe7 0cbe 1236 b23d b0fe ab3d 3872 f63d
00000160: 2c1a cfbc c8c6 643e 4787 7dbd 63a3 663d
00000170: 9095 aebc 1e44 db3d c25f a7bd 401a a2bd
00000180: 59c6 babd 4c98 3a3e 30df 4ebd f3a4 bcbe
00000190: ef56 993c 27ee d0bc 4898 803d ec09 183d
000001a0: 91e5 403d a735 803d 194f ffbd 4e24 a43e
000001b0: 398c 0c3c adcf 27be 66d3 5cbe e1a4 75bd
000001c0: bf4c 8dbd 94a8 a53d b0c9 10be 8d35 d3bd
000001d0: 98be b6bc f510 693d b5af 6abe 86bf 003e
000001e0: 2182 cebd edfb 583d 1e61 17bd 325a 373c
000001f0: d2ab 34be 9d04 b4bd e3c5 943e 7b51 a43d
00000200: d0f4 b63c c7ca ab3b 3224 84be 9c37 9cbd
00000210: 1d9c 91bd 5df2 5abe 33b3 e5bc 63d1 25bd
00000220: 36ff 0ebe 5fe9 9b3d a3ae f03b afec 35be
00000230: 4dcc 94bd 50ef a7bc fdb9 3abe 835c 243c
00000240: 1eb0 8c3e b578 963d 2ca5 95bd 6c4f 9a3d
00000250: af32 13be cb60 203e e8af 84bd 0982 0a3e
00000260: fbc9 17bd d9b1 603d 7fd4 dfbd 63e8 debd
00000270: d690 cf3b ace7 273c bbca 663e 1f71 543e
00000280: c4c9 d1bd 63e0 393e b640 2abd 009d 093e
00000290: 263d d0bd e9bf 093e eb0d 4b3c 0b8e a93d
000002a0: bf39 f6bd 8bcf 39bd 22e6 c8bc 3ad1 e6bd
000002b0: b426 9fbd c979 553e 7fe0 a8bd 5850 a8bd
000002c0: 31b2 90bd 0ba4 a23d 649f 183e 0c8c 1f3d
000002d0: 3f3b 21bd c697 043e 0026 18bd 5d15 213e
000002e0: c788 aabe 7d03 55be 5fc7 9cbd 67bb bcbd
000002f0: fa13 a53d 8618 f3bd b25b d6bd 418f 3dbe
00000300: 5ed1 e03d 4c22 1d3d 27ae 483d d98c e3bd
00000310: d927 5b3c bcb6 283d 7002 5cbd 70e2 55bd
00000320: 5e2d 8abd 2a06 bfbd 83f7 efbb 1648 14bc
00000330: 4c11 14be 66d3 be3d ce6c 8c3d ca88 b23d
00000340: a333 8c3e 9cbd 913d a547 4bbd 3bb6 013e
00000350: 95fd 363e bddd dd3d c21f 823e 1de1 95bd
00000360: f783 883d 62dc 383d b4f5 29bd e565 16bd
00000370: a9ec 0ebd 0164 0a3e 8190 fa3d 7ae6 fb3c
00000380: 61b6 38be 4e8b 86bc 5b2d 2abd f044 473e
00000390: 622f 153e 05dc e1bc 2b4a 93bd bad0 523e
000003a0: d62f 4bbe 3693 2bbe 5686 40bd 664e 2fb9
000003b0: 084a 623e 4a01 e9bd 1365 d43d e84d 06bd
000003c0: 61b4 4dbd 3c28 b83d adc6 afbe bf4e b83d
000003d0: 27f8 993e a44d 713d d335 4d3c 06b1 bdbd
000003e0: f27c 5a3c 7ab8 c43c cb37 603e 8ee7 4abc
000003f0: b6b5 253d 11a9 ae3c 3f84 9d3e c536 753d
0.08125897 0.12300967 0.0640317 -0.2754938 -0.08914652 0.10562318 0.0454662 -0.09081766
-0.064578846 -0.07082722 -0.08726102 -0.0013820216 0.09531176 0.09449548 -0.030509759 0.12842786
0.01401416 -0.056202862 -0.026304513 0.23549876 0.1475742 0.056249395 -0.10045734 -0.0031243593
-0.15874131 -0.13181672 0.01949365 -0.0045355875 -0.05105248 -0.18531066 0.044338103 0.0017508022
0.33434755 -0.06820716 -0.069116816 -0.25712913 0.04247085 0.22065477 0.09476738 0.088458054
-0.01826643 0.012011376 0.16752926 0.07833997 0.043130722 0.08378806 0.0065227896 -0.14800198
0.10327849 -0.26535818 0.044779826 0.0043060444 -0.022383057 -0.003018465 0.15552005 -0.15674028
0.097517505 -0.2784192 -0.044517882 -0.13526732 0.0894392 0.056400042 0.047427163 0.05510235
-0.04900379 -0.10012048 -0.16658854 -0.0028582818 0.039670408 0.039229 0.19199039 -0.058950946
-0.103640124 0.10491196 0.11656013 -0.11949476 -0.030068737 -0.1850069 -0.02027495 -0.10616704
-0.2405138 -0.19897333 -0.12555821 0.020736443 -0.13760273 0.08701719 0.08398187 0.12033504
-0.025281034 0.22341454 -0.06189659 0.05630816 -0.021311551 0.10706352 -0.08172561 -0.07915163
-0.09119863 0.18222159 -0.050505817 -0.36844596 0.018718211 -0.025504185 0.06279045 0.037118837
0.04709393 0.06260233 -0.124662586 0.32058948 0.008578354 -0.16387816 -0.21565017 -0.059971694
-0.06899404 0.08088794 -0.14139438 -0.103129484 -0.022307679 0.056900937 -0.2291859 0.1257306
-0.10083414 0.05297463 -0.036957853 0.011190938 -0.17643669 -0.087899424 0.29057226 0.08023354
0.022333533 0.005242679 -0.25808865 -0.07627794 -0.07109854 -0.21381517 -0.02803955 -0.04048289
-0.13964543 0.076128714 0.007345037 -0.17766069 -0.0726553 -0.020499855 -0.18235011 0.010031822
0.27478117 0.07347242 -0.07306895 0.0753468 -0.14374803 0.15661924 -0.06478864 0.13526167
-0.037057858 0.05485711 -0.10929202 -0.10884168 0.0063344045 0.010248106 0.22538273 0.20746277
-0.10243562 0.18152003 -0.04156562 0.13438797 -0.10167913 0.13452114 0.012393455 0.08279046
-0.12022733 -0.045363944 -0.024523798 -0.112703755 -0.07771054 0.20847239 -0.08245944 -0.08218449
-0.07065237 0.07941445 0.14904553 0.03895192 -0.039363142 0.12948522 -0.037145615 0.15730806
-0.33307478 -0.20802112 -0.076552145 -0.09215432 0.08060451 -0.11869912 -0.10466708 -0.18511678
0.109774336 0.038362786 0.04899421 -0.11110849 0.0133762 0.041189894 -0.053713262 -0.0522179
-0.06746934 -0.093273476 -0.007323207 -0.00905039 -0.14459723 0.09317665 0.0685669 0.08717497
0.27383146 0.07116243 -0.049628872 0.12667172 0.17870171 0.10833309 0.25414854 -0.073183276
0.06665795 0.04513205 -0.041494086 -0.036718268 -0.034893665 0.13514711 0.12234593 0.030749548
-0.18038322 -0.016423848 -0.04154716 0.19459891 0.14568856 -0.027570734 -0.07191881 0.20587435
-0.19842467 -0.16755375 -0.047003113 -0.00016718506 0.22098553 -0.11377199 0.10370841 -0.03278914
-0.05022085 0.08992049 -0.34331265 0.089993946 0.30072138 0.058911934 0.01252504 -0.0926228
0.013335453 0.024013747 0.21896283 -0.0123843085 0.040456496 0.021320852 0.30764958 0.059866685

network_body._body_endoder.seq_layers.0.bias f4 [128]
00000000: 422c 04be 2638 2dbd 1be5 88bd f6ae a93d
00000010: c7ac e63b 5c89 5dbd bbdd 143a 5b4f 01be
00000020: f1f6 80be 5a44 e6bd c758 fabb 9cb8 43bd
00000030: 6689 f9bc 79e3 dabd 1466 eabd 97d9 4b3c
00000040: cb56 673d 138e eebd 590d edbd 656c cbbd
00000050: 82cc 0bbd f6c7 35be 0273 3c3c 5ed1 8e3a
00000060: d021 91bd 2a0c 12bd 1e7b bfbd bc50 afbd
00000070: 75c2 a5bc 06aa 17bd 2f00 1b3d 0db0 9ebd
00000080: f5ae 29bd 3e4a 8f3c 3074 783d f2d7 0ebc
00000090: 65ad 70bd 6039 1abe f980 603c fe2f fa3c
000000a0: 0ea3 f23b 9204 87bb 0d88 c23c af62 2a3d
000000b0: 0e2a 46bd 65d8 13be e7ef 903b 3242 f2bc
000000c0: 9b4f 38bd 6073 a1bd f7ca 6dbd fa07 5cbd
000000d0: cfa4 46be 4831 163d 5a05 b8bc 21b2 9bbd
000000e0: 01a6 8b3d 399b 0abd 18bc 0fbd 441d 933d
000000f0: 8b28 d1bd b984 12be e46a 983c 0fec 73bd
00000100: 1f97 183d 4005 abbd 1aa6 64bd 6de7 bb3c
00000110: 8138 babd b773 9dbd b3ec aabd 5504 8ebd
00000120: b63c 20be 7d96 98bd a0c5 46bc 69ea 85bd
00000130: a7cd 13bd 5357 3a3c 5235 4fbd 1a11 683d
00000140: 083e 93bd f3b1 4b3d 3b6e e9bc 7a7e c5bd
00000150: 9489 acbd bdc1 7fbe 6409 3ebe 2b6e dc3d
00000160: 9335 b73d 451e 14be 63b7 c73d 4b34 56bd
00000170: 9e95 18be f59e cabd 68be 16be aed3 57bd
00000180: c071 febc b694 863c 5399 55be 0d15 51be
00000190: f852 083d 0363 24bd 0f88 b2bd 5d1e fcbd
000001a0: 91af febd 2567 16bd 1ac1 42be d65b acbe
000001b0: 2a9c 36bd 38df adbc 3c67 56bd 1097 773b
000001c0: 000f 04bd 202e ffbc 00d1 82bd d0ec 10be
000001d0: 7974 0dbd 4c69 2cbe fdcd 72be e988 1bbe
000001e0: 9cc2 12be 7d30 a73c 2018 80be 1ba5 c0bd
000001f0: 2552 8dbd bbae bbbd e1d6 45be 6e56 ccbd
-0.12907508 -0.042289875 -0.066843234 0.08285324 0.0070396396 -0.054086074 0.00056787924 -0.12627928
-0.251884 -0.11243506 -0.0076399776 -0.04778348 -0.030461024 -0.10687918 -0.11445251 0.012442014
0.056479257 -0.11648192 -0.115748115 -0.09932784 -0.03413058 -0.1775206 0.011502029 0.0010896137
-0.07086527 -0.03565613 -0.093496546 -0.08560321 -0.020234326 -0.03702738 0.037841972 -0.07748423
-0.041426618 0.017491456 0.06065768 -0.008718478 -0.058759112 -0.1506095 0.0137026245 0.030540463
0.0074046915 -0.004120418 0.023746515 0.04159802 -0.04837995 -0.14438017 0.00442313 -0.02957258
-0.044997793 -0.07883334 -0.05805489 -0.053718545 -0.19398807 0.036668092 -0.02246349 -0.07602335
0.06818772 -0.033839438 -0.03509149 0.07183316 -0.10212811 -0.14308442 0.018605657 -0.059551295
0.037253495 -0.08350611 -0.05582247 0.0229375 -0.090928085 -0.076880865 -0.08345928 -0.0693442
-0.1564816 -0.07450578 -0.012132078 -0.06538851 -0.036084797 0.011373359 -0.05058796 0.056656934
-0.07189566 0.049730252 -0.028494945 -0.09643264 -0.084246784 -0.24976249 -0.1855827 0.107632
0.08945765 -0.14464672 0.09751775 -0.052295964 -0.14900824 -0.098936 -0.14721072 -0.052692108
-0.0310601 0.016428333 -0.2085927 -0.20418186 0.03328225 -0.040133487 -0.08717357 -0.12310479
-0.124358304 -0.03671946 -0.19018975 -0.33663815 -0.044582523 -0.021224603 -0.052344546 0.003777925
-0.032240868 -0.031149924 -0.0638752 -0.14152837 -0.034534905 -0.16837043 -0.23711391 -0.15188946
-0.1433205 0.020408863 -0.25018406 -0.09406491 -0.069004335 -0.091641866 -0.19320251 -0.09977423

network_body._body_endoder.seq_layers.2.weight f4 [128, 128]
00000000: 6210 1abe 32c9 a3be 5398 95bc 1d1b 2d3e
00000010: 6870 8e3c 8b91 02be 3ada 16be e1e8 92be
00000020: 9eda 78be d97a 253d 31da b53c d399 87be
00000030: 5a39 8cbe d49f 5b3d b4ac 433a 1c1d 553d
00000040: 1c38 a7bc 1869 e6bd ce57 633d 6d52 aa3a
00000050: bc62 f73a 782d 09be d547 233d 8bbe cb3d
00000060: 5a85 abbe d8fe e2be 7a96 5cbe 0536 c3be
00000070: 7cdf d23c e0fa efbe 9438 0abe 3ffb c33d
00000080: eb0b 02be caf3 673e c21e a3be b5cd 1c3b
00000090: 02bb fdbd a102 49bd 7a07 26be af0d 903d
000000a0: f782 81be 50c4 ea3d 843e 06bc ec4a f43b
000000b0: 8d27 573e 999d 0abe 1932 eabb dc15 803e
000000c0: 8121 673c 3323 72bd c57b 6fbe 6556 a9bd
000000d0: f655 e4bd 70b0 07be 58ab 65be 2620 93bd
000000e0: 1c6c ad3d be4e 04be 9f23 743d 8f58 e2bd
000000f0: 491c 26bd ef21 babd 418a 99be 6a15 673e
00000100: ac95 9f3d 2f68 1ebb 0152 87bc 32f1 90be
00000110: 1946 cfbe a020 53be f1cf 5cbe 197c 4abd
00000120: ef79 5fbe 5322 903d 99e4 41bd 121e 7f3d
00000130: 5ded a5be 0795 8c3c a2f4 1b3e a919 c33d
00000140: 9cda 81be 9524 883e d848 4f3e 861f 9b3c
00000150: 4dd7 7bbc d6bd f4bc c8c4 813d a6f0 553e
00000160: c1df 56bc c9e2 343e 104b 6b3d b7d6 e6bd
00000170: bd1f 76bd 5d8e 47bd a2e8 32be b41b 41be
00000180: ad59 04be b9f6 21bc 149f 223e 89c1 09be
00000190: c954 6e3d 6ba8 833e 5bcc c4bd eebe 32bd
000001a0: 816f 5ebe 1bf4 6bbe cd2b ba3d d8a4 e0bc
000001b0: cd3c 2d3e f1cf 8dbd 9645 21be 440c a3be
000001c0: f23a bdbd 47ec 79bd 68e1 b5be 1e3b 8c3d
000001d0: 30ea 78bc 596e 0f3e 2541 013d 14e3 473d
000001e0: 49b8 32be 17e3 7d3d c9d9 3abd 7dc6 babd
000001f0: f6d9 1ebe 9ee6 fabd 6dec f6bd 3a19 c6be
00000200: f880 c739 8c43 1bbe bc63 7a3e 6092 2f3e
00000210: db37 e33d a16d 193e 37f6 bb3c 89ca 903d
00000220: 87c6 d03d aa1c 22bd 4f8b 41be 17fd 35be
00000230: 3b3f 1cbe b622 fdbb a6b6 4f3d 9fcc eb3d
00000240: 3b60 fd3c 97c7 50bd 7c14 2c3c f2a9 9f3d
00000250: 05cb 473e 0cb6 b43d 4d67 05be 2716 0c3d
00000260: 67d6 453e 13f7 c03d 62d6 2e3e e976 a23b
00000270: 572c 893d 34ca 47bc 513b 13be bbbe 22bd
00000280: a185 3bbe e6cb d53d fd69 d2be 42f5 17be
00000290: ea6a 40be d566 c53d 6f11 64bd f3f3 b3bd
000002a0: 9e67 f9bd 76d3 323e b2b8 ecbc a7fa b6bd
000002b0: e9b2 673c 1ce0 d1bd 9d98 6ebd fd94 a6be
000002c0: f024 08be 624d efbd 55d8 ad3d 2350 68bc
000002d0: 0c9e 14be 48c1 9bba f05d 373e 44a8 05be
000002e0: a602 e43d 60f5 84bd a6f4 6cbe 0805 9a3a
000002f0: 421d c5bd 5a5a 18be 887b bdbd 0a93 60bb
00000300: e130 a73d be3a 363e 1d9c 753e 1a65 8d3d
00000310: e93a 483e 0e83 10bd 5482 1bbd 9646 b93d
00000320: f547 323e 11ad f9bc 4f9b ecba 35d3 e53c
00000330: d1d2 383d fb37 a53d fa25 d4bb 0ee1 4b3d
00000340: e242 4ebe 48c0 00be a56f 37be 3b99 d8bd
00000350: f074 64bc 74b6 40be 1a6e 693e ba39 f23d
00000360: b6f8 343d c39a 453d ff7b a9bd ab61 4abd
00000370: ccb1 133e d511 9b3c ccf5 a1be ccd9 1ebd
00000380: c2da 76bd 4f0a 12bd 0b81 9dbd a3f5 143d
00000390: 43c1 25be be7d f23b 442d 88be db50 95be
000003a0: 4ea4 d9bd 95c9 83bd 3e47 943c 238a aebd
000003b0: 5639 d6bd 36fa 533d 8714 05be b83d f83c
000003c0: fd61 ce3d 4062 5d3b 96ce 8cbe 0a40 d43d
000003d0: 453c cebe 5d58 58bd 093a dabd 8985 1b3e
000003e0: c06f 163d 6cdd 05bd e1fd 6dbb ff59 843c
000003f0: f9c5 933d 9d6e 353e f36b 0dbd a772 a4bd
-0.15045312 -0.31989437 -0.01826111 0.16904874 0.017387584 -0.12750833 -0.14731684 -0.28693298
-0.24302146 0.04040036 0.022198768 -0.26484546 -0.27387506 0.05361922 0.00074643944 0.052029714
-0.020412497 -0.11250514 0.05550366 0.0012994536 0.001887403 -0.13396251 0.039863426 0.099484526
-0.33500177 -0.44335055 -0.21541777 -0.3812715 0.025741331 -0.4687109 -0.13498145 0.09569406
-0.12699859 0.22651592 -0.31859404 0.0023926322 -0.123891845 -0.049074773 -0.1621379 0.0703386
-0.2529523 0.11463225 -0.008193616 0.0074552204 0.21011181 -0.13536681 -0.0071470854 0.25016677
0.014107109 -0.0591156 -0.23387058 -0.082684316 -0.11149208 -0.132509 -0.22428644 -0.07183866
0.08467886 -0.12920663 0.059604283 -0.110520475 -0.04055432 -0.090885036 -0.29988292 0.22566763
0.077922195 -0.0024170985 -0.016518595 -0.28309017 -0.40483168 -0.20617914 -0.21563698 -0.049434755
-0.21823858 0.07037797 -0.04733715 0.062284537 -0.32407656 0.017160906 0.15230039 0.09526379
-0.25362098 0.2659041 0.20242631 0.01893593 -0.015371156 -0.029875677 0.06336361 0.20892581
-0.0131148705 0.17664637 0.057444632 -0.11271422 -0.06008886 -0.048719753 -0.17471555 -0.18858224
-0.12924834 -0.009885483 0.15880996 -0.13452734 0.058186326 0.2571443 -0.0960929 -0.043639116
-0.21722223 -0.23042338 0.090903856 -0.027422354 0.16917725 -0.06924427 -0.15749201 -0.31845295
-0.092397586 -0.061016347 -0.35523534 0.06847213 -0.015192553 0.14006938 0.031556267 0.048800543
-0.17453112 0.061984148 -0.045617852 -0.0911989 -0.15512833 -0.12251018 -0.120568134 -0.3869112
0.00038052327 -0.15162486 0.24452108 0.17145681 0.11094638 0.14983226 0.022944553 0.070698805
0.10194116 -0.039578117 -0.18900798 -0.17772327 -0.15258496 -0.007725085 0.050711296 0.11513638
0.030929675 -0.050971594 0.010502931 0.07796086 0.1951104 0.08823785 -0.13027687 0.034200814
0.19320069 0.09422126 0.17073968 0.004958023 0.0669791 -0.012194205 -0.14378096 -0.039732676
-0.18312694 0.10439281 -0.41096488 -0.14839652 -0.18790784 0.09638754 -0.05568069 -0.08786764
-0.121779665 0.17463478 -0.028896663 -0.08934527 0.014141777 -0.102478236 -0.058251012 -0.32535544
-0.1329534 -0.116846815 0.08488528 -0.014179262 -0.14513415 -0.0011883164 0.17906928 -0.1305247
0.11133318 -0.06492114 -0.23140201 0.0011750767 -0.09624721 -0.14878216 -0.09252077 -0.003426733
0.0816362 0.17795846 0.23985334 0.06904049 0.19553722 -0.035281233 -0.037966087 0.09046666
0.17410262 -0.030478032 -0.0018051657 0.028054813 0.045122925 0.08067318 -0.0064742537 0.049775176
-0.20142701 -0.1257335 -0.17913683 -0.105761014 -0.013943896 -0.188196 0.22795907 0.11827417
0.0441825 0.048243295 -0.082756035 -0.04940955 0.14423293 0.018929401 -0.3163284 -0.038781926
-0.060267217 -0.035654362 -0.076906286 0.03636707 -0.16187005 0.0074002435 -0.26597035 -0.2916325
-0.10627042 -0.06434933 0.018100377 -0.08522441 -0.10460155 0.05175229 -0.12996112 0.030302867
0.100772835 0.0033780485 -0.27501363 0.10363777 -0.40280357 -0.052818645 -0.106556006 0.15187658
0.036727667 -0.032681867 -0.0036314654 0.016156195 0.07215495 0.17717977 -0.034526777 -0.08029681

network_body._body_endoder.seq_layers.2.bias f4 [128]
00000000: 6fea b73d b0d0 913d b9b1 093e 6ed7 bf3d
00000010: 613f db3c 5d55 20bd 8c9a 9dbb d5e9 4a3d
00000020: db3d 8f3d f459 87bd b8b6 00bd 3b8a 0dbd
00000030: 7928 e5bd 333a dfbb 263e 2f3d 20ca b8bd
00000040: 4166 353e 2df8 99bd 7989 9c3d 974b 1c3d
00000050: 23e5 2bbe 9f2f 413d 2ecf 5dbd f4e0 f73d
00000060: 60a6 163d 1de2 5bbd 304b ebbd 8b6b 7f3d
00000070: 64e4 4e3d 34fb f7bd ffcb 873d 7fdb 89bd
00000080: 078d 26be da21 43be 938f 73bd b125 79bd
00000090: 3282 0abe 1a0c 6c3e 5cec 1d3e 734f 3abd
000000a0: 0241 c43d 3907 05bd 21c2 bdbd d346 083d
000000b0: 3c0f 253e 787f 303e c1b2 103d 3e41 913c
000000c0: 118c a93c e68c dd3c 9613 f3bb fc4a 1c3e
000000d0: eb48 e9bd 59cf b1bd 3b15 7dbd d2fd 8fbd
000000e0: f346 1cbd 6291 8fbc 6c2d 503a 63bb 133e
000000f0: 5c6f d1bc 31fb 4c3d ec5b 7bbd 1739 e93c
00000100: 168d a03c 226a 0cbd e04e 54bc 325f 053e
00000110: 88c1 bf3d 691e 68be 9891 df3c 6574 423b
00000120: 99fe 2f3e 3c5f 16be dc81 573d 63e6 61bd
00000130: 4d74 293d 3886 543b d80a 463e fd6e c73d
00000140: d072 c2bd ca61 92bd 64d2 8ebd 6d27 0fbe
00000150: 4e1b 7bbd fe89 893d 785f c73d 619e a7bd
00000160: 1c40 2dbe 151e 0d3e 76dd 0dbe f60d 053c
00000170: 4007 07be 095e 1a3d 4c03 4c3d 5350 b3bd
00000180: 33c0 09bd 6e6c 61bb 27e1 a63d 1821 97bd
00000190: 7221 063d ba77 86bd a4e9 afbc 895a 06bd
000001a0: a499 043e 6e85 a93c 1b67 78bd 6018 48be
000001b0: c8a2 c33d 4055 9bbe 1840 c9bd c13d d43d
000001c0: dc49 5c3c 493f 3e3e 7855 43bd 675b 183e
000001d0: c330 ca3c a749 b3bc 0671 89bd 2fa2 3d3d
000001e0: 946b 20bd f9b2 e23d 6fda b9bd d4b2 8bbd
000001f0: c0f1 09be 47e5 843d ad5e 69bd 782f eabd
0.089802615 0.07119882 0.13446702 0.09367262 0.02676362 -0.03914391 -0.004809683 0.049539406
0.0699422 -0.06608954 -0.031424254 -0.034555655 -0.1118936 -0.006812358 0.04278388 -0.09022927
0.17714788 -0.07518039 0.07643408 0.038158026 -0.16786627 0.047164556 -0.05415266 0.12103453
0.03677976 -0.053682435 -0.1148895 0.06235842 0.05051078 -0.1210846 0.06630706 -0.06731319
-0.16264735 -0.19055882 -0.059463095 -0.06082696 -0.13526228 0.23051491 0.15422195 -0.045485925
0.09582712 -0.03247759 -0.09265543 0.03327067 0.16119093 0.17236125 0.035326723 0.017731305
0.020696672 0.027044725 -0.0074181063 0.1526298 -0.11390861 -0.086821266 -0.061787825 -0.07030834
-0.0381536 -0.017525379 0.00079413387 0.14426951 -0.025565796 0.050044242 -0.06136696 0.028469605
0.019598525 -0.034280904 -0.012958258 0.13024595 0.09363085 -0.2266785 0.027291104 0.0029671427
0.17186965 -0.14684767 0.052614078 -0.055151355 0.04137068 0.0032428633 0.19340074 0.09737966
-0.09494555 -0.07147558 -0.069737226 -0.13979883 -0.061305337 0.06715773 0.09735006 -0.08184505
-0.16918987 0.13781007 -0.13854012 0.008121004 -0.1318636 0.037687335 0.04980783 -0.08755555
-0.03363056 -0.0034396905 0.08148413 -0.07379359 0.03274674 -0.06565805 -0.021473713 -0.032801185
0.12949234 0.020693507 -0.060645204 -0.19540548 0.095525324 -0.30338478 -0.09826678 0.10363341
0.013445344 0.18578829 -0.04768893 0.14878617 0.024681455 -0.021885706 -0.06711011 0.04629725
-0.039165094 0.110692926 -0.09074866 -0.06821218 -0.13471127 0.06489044 -0.056975055 -0.11434835

action_model._continuous_distribution.log_sigma f4 [1, 39]
00000000: 19a4 96bf 51fd 93bf b4f1 65bf bd8d 85bf
00000010: ec16 9abf b1d6 83bf bfa1 afbf 2e13 91bf
00000020: 889d b4bf de02 bbbf 131c 91bf 1bfc 9bbf
00000030: 22c7 9bbf 62bf 96bf a7f5 99bf d517 88bf
00000040: ed07 95bf 1e19 a7bf 6ad3 9cbf 7887 8ebf
00000050: 621a 90bf db90 97bf eb65 8fbf c2c4 9abf
00000060: c57c 9fbf c0f4 b4bf 2b27 9dbf 9417 8ebf
00000070: 89a6 85bf 8ade 94bf 0dfc 8abf 3fdf 95bf
00000080: d6f4 a1bf 44ad a0bf 9d4a 9abf a038 aabf
00000090: d5a9 b3bf a372 8dbf c975 8cbf
-1.1768829 -1.1561681 -0.89821935 -1.043388 -1.2038245 -1.0299894 -1.3721236 -1.1333978
-1.4110575 -1.461025 -1.1336693 -1.2186311 -1.2170146 -1.1777155 -1.2028092 -1.0632273
-1.1643044 -1.305454 -1.2252018 -1.1135092 -1.1258051 -1.1841081 -1.1202978 -1.2091296
-1.2459952 -1.4137192 -1.2277578 -1.1100945 -1.0441447 -1.1630414 -1.085817 -1.1708754
-1.2652843 -1.2552876 -1.205402 -1.329853 -1.4036204 -1.1050609 -1.0973445

action_model._continuous_distribution.mu.weight f4 [39, 128]
00000000: caf4 213e 042d 403d 15f0 993d cb3e 99bd
00000010: c831 2fbe ebd1 1abd 79f0 babd 501e dbbd
00000020: 42d6 15bd a71b efbc 497e 58be f72c 2ebd
00000030: 14ee a0bd 069c 083e 7c75 4fbd 179e 653c
00000040: 5ad1 52bd ff52 163e ba0f 093c 81e1 fabc
00000050: 5fa3 763d 1a09 923d 3b9a 73bd 187b dc3d
00000060: 5edd 3dbd 471c 49bc 5a3a 743d 19e5 a53d
00000070: 193d c13d a560 bc3b 5e28 123d a21b 853c
00000080: eb2a f03c b88b cbbc 117d 5c3c 330e 8e3c
00000090: 5896 a23c a39c 853d 937a 36bb ed18 47bc
000000a0: fb09 3d3d ebf4 fe3c b202 123d f790 9e3d
000000b0: c2f1 2cbd f642 f4bc 537a 7c3d e116 70bd
000000c0: 8625 493e 17ba 623d fc77 f8bc 1794 be3b
000000d0: 6ed1 5dbe 588e 32be d80c 63ba 5e05 3cbd
000000e0: 212a 9fbd 555d 0abc a4b9 653d 174f a3bd
000000f0: f32f 5ebd deaf f63d 377d 7ebc 8d85 033e
00000100: 6d92 843e d028 dfbc 6ab0 623c 9fe2 733c
00000110: 917f 893d 848e 573c 3b80 adbd e1b1 2ebd
00000120: d09c 663e cb06 2d3b 526c 88ba 1cb2 b0bd
00000130: 0b87 5d3e bf63 1fbb b01d d0bd af94 83be
00000140: 4a74 ed3d 0798 593d 9419 e83d e2ce b83d
00000150: c36a bd3d 79c7 993d 6ba5 c1bc 0474 b8bd
00000160: 12b3 7a3d a9c1 b8bc 3f70 bb3d 43c9 76bd
00000170: 3425 503c e39d 31be 7e5c ae3d 9ddc 043e
00000180: afe7 7f3d a909 2c3d 2700 073e 5868 b63d
00000190: 8879 1b3e 58ec e9bc f719 1bbe c110 9b3b
000001a0: 1a98 61bd 8dfa 4dbc ff89 d9bd 7edb 95bc
000001b0: 2ce0 183e 484a aa3c c5cb c83d 0b4a b93d
000001c0: 137a ca3d 49ab 2b3e c516 523d bc61 28be
000001d0: bfc6 0b3d f771 3dbe 29f9 aa3d 18d0 183d
000001e0: 3d70 14be 47c1 823d a375 da3d 4143 483d
000001f0: 3dfe 163e 82ed 093e 284f 1dbd 4fe5 263d
00000200: 28f3 903e d863 ea3c aa60 f3bc 5674 3c3e
00000210: a503 323d a17f 493e 411e b63c 3183 f53c
00000220: 325c 53be aa79 1cbe ba9b a53d cd2e 443d
00000230: c722 233d a2d5 223e db92 1cbd 6d1d 303d
00000240: 24cd 433d 63fc bf3d 4224 adbe 15c9 0cbd
00000250: 35a6 173d eecb 48bd 4695 a23c eeed b7bd
00000260: 96d7 483e 8ec5 d6bd 15c8 bd3d a426 e53c
00000270: 69f0 be3d 0619 c93d 3221 173e 9570 0e3e
00000280: c0e2 f43d e34a bf3c 4e3d d13d eadf c1bc
00000290: eec9 9fb9 5db7 153d 4927 a6bd d6e6 403d
000002a0: 207d 923d 6f30 683d c09c 1fbe 38a7 08bd
000002b0: dfd0 1dbd 4e6e aabb 1f52 8f3e a107 1dbe
000002c0: 917a 83be 5669 9fbd 8223 06bd a126 2e3e
000002d0: 6203 23bd e705 4dbe b93b 933d d370 e4bd
000002e0: 6099 b2bd 1707 0ebc efd1 9ebd 5530 90be
000002f0: f3fd d5bc 5717 403d 5a79 2c3e abf7 91bd
00000300: 7ae1 87bd 31c0 c53c 9eee 91bc b64a 933d
00000310: fdab c43d 5c6f 0bbc 13e6 18bb b3c6 a73c
00000320: 9520 fe3c 7c95 1abe 03c8 06bd e5aa 063e
00000330: d8a1 0ebd c9e4 eebc 09b7 4c3e 44d5 553e
00000340: 01cc 0f3e e7e1 06bd 5d64 a93d 23da 0d3d
00000350: 2119 e2bd b622 bf3d 3855 b93d 7a59 2a3e
00000360: cdd4 23be e209 b4bd 95b6 113e dde1 61be
00000370: 3688 bd3d b0de 1cbe 9f86 ed3d dbd2 a73d
00000380: 58d2 a43e 2f51 163d a002 f6bb 7bbb 763c
00000390: 0d89 45be b9cc 263d 3fff 43bd f1ca af3d
000003a0: ee4f 2bbe aaa4 d9bc 117f a2bd f5af 093e
000003b0: 321f 02be 2b49 233e 2473 86bd 8a61 b43c
000003c0: 36f3 48bd ad0d a93c 05ae ca3d 0798 183e
000003d0: 568e 6e3d 0011 65bc 8e28 0a3e 08f0 8dbd
000003e0: b2b1 8bbd 3f96 80bc 227c 3cbe a3a9 af3c
000003f0: a14e ed3c 2e90 003d 24c6 a8bd f8fb 883c
0.15816036 0.04691793 0.07516495 -0.0748268 -0.17108834 -0.03779785 -0.09127898 -0.10699141
-0.036581285 -0.02918799 -0.21141924 -0.04252335 -0.0785791 0.13340768 -0.05064915 0.014014742
-0.051469184 0.14680098 0.008365566 -0.030625107 0.060214397 0.07130642 -0.059473258 0.10765666
-0.04635369 -0.012274808 0.05962596 0.081003375 0.094354816 0.0057488256 0.03568303 0.016248528
0.02931734 -0.024846897 0.0134575525 0.017340755 0.01984708 0.06524017 -0.0027844056 -0.012151939
0.046152096 0.031122645 0.0356471 0.077424936 -0.042222746 -0.029817086 0.061640095 -0.05861557
0.1964322 0.05535325 -0.03033065 0.0058159935 -0.21661922 -0.17437112 -0.00086612767 -0.045903556
-0.07771707 -0.008445104 0.056085244 -0.079740696 -0.054244947 0.12045263 -0.015532783 0.12843914
0.25892964 -0.02724114 0.013836006 0.014885574 0.067137845 0.013156537 -0.08471724 -0.042650107
0.22520757 0.0026401754 -0.0010408259 -0.08627722 0.21633546 -0.0024320928 -0.101619124 -0.25699374
0.11594446 0.0531235 0.11333004 0.09023835 0.09248879 0.075087495 -0.023638448 -0.09006503
0.06120593 -0.022553282 0.091522686 -0.060250532 0.012704182 -0.17345385 0.08513735 0.12974782
0.06247681 0.0420014 0.13183652 0.08906621 0.15183079 -0.02855508 -0.15146624 0.004732222
-0.055076696 -0.012571943 -0.10622024 -0.018293139 0.14929265 0.020787373 0.09804491 0.09047326
0.09886565 0.16764559 0.051291246 -0.16443533 0.034125086 -0.18500505 0.08348305 0.03730783
-0.1449594 0.06384521 0.10666969 0.048892263 0.14745422 0.13469508 -0.038405567 0.04074603
0.28310513 0.028612062 -0.029709179 0.18403754 0.043460507 0.19677593 0.022231223 0.029969783
-0.20640638 -0.15280786 0.08086343 0.047896195 0.039828088 0.15901807 -0.03822599 0.042996813
0.04780306 0.09374311 -0.33816725 -0.034371454 0.03702374 -0.049022608 0.01984657 -0.08980928
0.1961349 -0.10486899 0.09266678 0.027972527 0.09323198 0.09819226 0.14758757 0.13910134
0.11957312 0.023351138 0.10216771 -0.02366634 -0.00030477293 0.036551822 -0.08112962 0.047095142
0.07152772 0.056686815 -0.15587139 -0.033362597 -0.038529273 -0.0052011376 0.2799234 -0.15334941
-0.25679448 -0.07783763 -0.032748707 0.17006923 -0.039798148 -0.20021783 0.071891256 -0.11154332
-0.0872066 -0.008668683 -0.077548854 -0.28161874 -0.026122069 0.04689726 0.16843167 -0.07127317
-0.06634803 0.024139496 -0.017813977 0.07191984 0.09603117 -0.008510437 -0.0023330494 0.02048049
0.031021396 -0.15096086 -0.03290559 0.13151129 -0.034822315 -0.029161828 0.19991697 0.20882136
0.14042665 -0.03293028 0.08271096 0.03463186 -0.11039949 0.093327925 0.09049457 0.16635695
-0.15999146 -0.087909475 0.14229806 -0.22058816 0.09254496 -0.15319324 0.115979426 0.08194514
0.3219173 0.036698516 -0.007507637 0.015059347 -0.19290562 0.040722582 -0.047850844 0.0858363
-0.1672971 -0.026567776 -0.07934392 0.13446029 -0.12707213 0.1594588 -0.0656493 0.022019166
-0.04906007 0.020636404 0.09896473 0.14901744 0.05824121 -0.013981104 0.13492033 -0.06930548
-0.06821002 -0.015696643 -0.18406728 0.021443194 0.028968157 0.0313875 -0.08240917 0.01672171

action_model._continuous_distribution.mu.bias f4 [39]
00000000: 63b8 d03d b80c 053e 609d dd3d 15f1 00bd
00000010: 3478 893c a0e0 a5bd 0375 f73c 2b8b 9cbd
00000020: af13 1fbe cb60 0f3c d9ad 8bbe 69a4 9cbe
00000030: 49db 173d 50aa 8cbe e8ad 0f3d 5c87 fc3c
00000040: 256e e23d b63f 353d 2eec 8b3e 1ff8 0bbe
00000050: fac2 223d 0ad2 723c 8bc6 443d f016 b53d
00000060: a459 50bc 4fcc da3d 1181 3b3c 1ca2 6b3d
00000070: 6d7e 2ebd 4f8c 533d ff65 053c c2ad 8d3b
00000080: d73a 64bc 00a1 c83d f370 c2bd afbc a63d
00000090: 17a9 443e d10c 523d 95c7 853e
0.10191419 0.12993133 0.108210325 -0.031479914 0.01678095 -0.080994844 0.030207163 -0.07643732
-0.15534852 0.008751105 -0.27281073 -0.30594185 0.03707436 -0.27473688 0.03507796 0.030826263
0.11056165 0.044250213 0.27328628 -0.1366887 0.039736725 0.014820585 0.048040908 0.088422656
-0.0127166845 0.106835 0.011444346 0.057527646 -0.042601038 0.05164748 0.008141994 0.004323692
-0.013930044 0.09796333 -0.094941996 0.08141457 0.19205128 0.051281754 0.26128832
