Assets/Brains/ArvidTests/LastWalkTest2/Zombie Walker/Zombie Walker-28999978.onnx (onnx, 827693 bytes, 11 tensors)

network_body.observation_encoder.processors.0.normalizer.running_mean f4 [246]
00000000: 2b53 5c40 19e5 33bd fed9 88be ccc2 903f
00000010: 8d48 c034 0000 0000 db56 8e40 bd79 1a3a
00000020: 6ad6 f03e a15c b040 540a 2c39 8fbe 4d3d
00000030: cadf 4e3d 1fa7 743f 4cdd 163b 4f95 b53c
00000040: 58bc ac3d b3b9 793f 3a78 a8b7 e8d5 ed3e
00000050: 7200 b140 a1f4 ab39 17bd 9dbc fc27 72be
00000060: 6301 883f 4b04 423f e817 40bd f2e2 96bd
00000070: 2d00 28ba 9c3b abbb e07e 923c dfd4 453a
00000080: 39a0 a4bb 1da4 e4be 0b64 993f 7f05 8e3e
00000090: 1291 dabd 679d dcbd b3ab 923d 74df cd3e
000000a0: 9c37 013e c809 93bb 5186 0e3d 6d57 bebb
000000b0: bee8 7d3f 2c9b 1f3f e5ef 483a 1349 52bc
000000c0: d0b2 c0be a4d1 8e3f 7640 433f 3147 08be
000000d0: 5184 8d3b 4d53 e53c 6a19 3c3e d4c4 5b3d
000000e0: cea5 0b3e 39e5 cbbc 0c98 b1bd 2388 703f
000000f0: 3aa8 153f 195f 4538 873a 6dbc f6f7 f4be
00000100: 4100 a43f bc27 cd3d d60d 1abd eb08 8e3d
00000110: f626 123e 23d0 473f e4a1 693e 48c3 4bbd
00000120: 44ef 8039 5dd1 b83b c064 7e3f 5c87 123f
00000130: 776a 623a ae71 94bd 31fd 2bbe e854 743f
00000140: 403a cabc cda8 ac3d 4490 09bf 18e3 eebd
00000150: 8c29 59be 154e 63bd f9b9 e03d 5b49 78bc
00000160: 6243 3d3d cbb5 743f 06d7 2b3f 0000 0000
00000170: 2827 c9bd 274f fdba 3d8d 593f 9f59 673f
00000180: bacb 453e c13e 8a3d 3f95 87bd 69b4 d3be
00000190: f58e 4dbe 40ce 7d3e 0862 953b 1a8b 173d
000001a0: ad2d 6c3f 3e98 3e3f 0000 0000 bb42 00be
000001b0: 99fb 363d 1bc5 453f 3f73 b93e a409 cc3d
000001c0: 0b53 05bf 69f0 f3bc 5356 01bf c682 9cbe
000001d0: 4dff 3fbd 87e8 363c c078 e2bd ebfa 773f
000001e0: 222b 283f 3eb5 863a 45bd 82bd 2e50 3ebe
000001f0: e77b 743f 0f3e 163f 518f 82be b755 08bc
00000200: f131 e23d b88f 3ebe 861e c73d b2a7 cabe
00000210: 000c 043d 93c3 6d3d b5b3 5b3f 9421 1c3f
00000220: 0000 0000 cf2b c5bd 93c9 08bd 7541 5f3f
00000230: 9d5d 133f f752 34bd 7400 f03e a251 e73d
00000240: c682 bcbe f636 213e 1f0d c33e 01cb babb
00000250: 3285 85bc 6ad9 623f 6fa6 363f 0000 0000
00000260: 55f3 ecbd 0ccd 3e3d 7193 513f a6a6 133f
00000270: 7516 e83d ec7a c03e cf1d e63d 7bf9 fcbe
00000280: b6bf 183e b914 e8bd 6be3 9d3c eb81 2e3c
00000290: eaf1 793f d582 273f ccb3 bc39 93b3 963d
000002a0: 1f8a cfbe 891f 9f3f 3269 aebe 9c48 473f
000002b0: 69cb 91be 05a0 70be 3982 f03e e40f 443e
000002c0: 866b 17bd c880 523e aecf 09be aaf0 5f3f
000002d0: b946 413f 0f52 a539 815b 893e 4f55 c8be
000002e0: 56ae b03f e97a a83d 5158 6e3f ea2f 9d3e
000002f0: 7496 bebe cb40 f63e 5736 b03e 6c8b 193b
00000300: 130a 993e abd5 4b3c 9128 683f bc96 313f
00000310: b2f9 9539 0886 ca3e 7c93 bebe 74aa c23f
00000320: 0b96 ac3d c34a 6d3f adaa 9f3e b1ba debe
00000330: 270c eb3e 6298 f13e 9562 bc39 b86d f5bd
00000340: c932 d6be 8864 9f3f b74d 6abe 2f33 0ebe
00000350: 1360 df3e ea5a c23e d5b8 c53e fa99 333e
00000360: e078 24bd 165d f7bd 63fc 3e3e 6cf7 643f
00000370: f617 393f 25b9 ca39 ddb8 9abe 0960 dcbe
00000380: 2033 ab3f e445 12bf f316 4cbe 430d 4fbd
00000390: 7a6b 063f d2b4 cd3e 422a 9a3e 904d 063c
000003a0: d493 6fbe 694f 9bbc 1e8d 723f 7818 1e3f
000003b0: e4f8 0a3a bc19 cabe 9c90 d9be a7b8 b83f
000003c0: caf0 11bf 27cb 4ebe e3cf 5dbd 33a4 173f
000003d0: 6e8d ce3e 23bf d53e
3.4425762 -0.043919656 -0.26728815 1.1309447 3.5815575e-07 0.0 4.4481025 0.0005892774
0.47038585 5.5113072 0.00016407046 0.05023056 0.05050639 0.95567507 0.0023020087 0.022165922
0.08434361 0.9754898 -2.0083146e-05 0.4645226 5.5313044 0.00032797924 -0.019255204 -0.23648065
1.0625423 0.757878 -0.0468978 -0.07367505 -0.00064087176 -0.005225612 0.017882764 0.0007546674
-0.005023983 -0.44656458 1.1983656 0.27738568 -0.10672201 -0.107722096 0.07161655 0.40209544
0.1261887 -0.00448725 0.034796063 -0.005808762 0.9918326 0.6234615 0.00076651416 -0.012834805
-0.37636423 1.1157727 0.76270235 -0.13308407 0.004318752 0.027993822 0.1836907 0.053654507
0.13637468 -0.024889575 -0.08671579 0.9395773 0.5845982 4.7057027e-05 -0.014479286 -0.4784543
1.2812577 0.10017344 -0.03761085 0.06935295 0.14272675 0.78051966 0.22815663 -0.04974678
0.0002459233 0.0056401924 0.9937248 0.5723779 0.00086370803 -0.07248245 -0.16795804 0.95442057
-0.024685979 0.08430634 -0.53735757 -0.116644084 -0.21207255 -0.055494387 0.109729715 -0.015154208
0.04620684 0.95589894 0.67124975 0.0 -0.098219216 -0.0019325957 0.8498114 0.90371126
0.19315997 0.067502506 -0.06620263 -0.4134858 -0.20074065 0.2478571 0.0045588054 0.036997892
0.92257196 0.74451053 0.0 -0.12525456 0.044673536 0.77253884 0.36220738 0.09962776
-0.5207984 -0.029777722 -0.50522345 -0.30568522 -0.046874333 0.011163837 -0.110581875 0.96867245
0.65690815 0.0010277403 -0.063837565 -0.18585274 0.9550156 0.58688444 -0.25499967 -0.008321217
0.11044682 -0.18609512 0.09722619 -0.39581066 0.032238007 0.058047842 0.85821086 0.60988736
0.0 -0.096274965 -0.03339536 0.87209255 0.5756472 -0.044024434 0.46875346 0.11294867
-0.36818522 0.15743622 0.38095948 -0.0057004695 -0.016298864 0.88613 0.7134771 0.0
-0.115698494 0.046582267 0.818656 0.5767616 0.11332408 0.37593782 0.11236154 -0.49409088
0.14916882 -0.113320775 0.01927348 0.010651092 0.97634757 0.6543401 0.00035992113 0.0735847
-0.40535066 1.2431499 -0.34064633 0.7784517 -0.28475502 -0.23498543 0.46974352 0.19146687
-0.036967777 0.20556939 -0.1345813 0.874766 0.7549854 0.0003153239 0.26827624 -0.39127585
1.3803203 0.08226568 0.9310351 0.30700618 -0.37224162 0.48096308 0.34416458 0.002342905
0.298905 0.012441079 0.906869 0.6937063 0.00028605532 0.39555383 -0.37221897 1.5208268
0.08427056 0.926922 0.31184903 -0.4350181 0.4590771 0.4718657 0.00035931604 -0.11983818
-0.4183562 1.2452555 -0.22881208 -0.13886712 0.43627986 0.37959987 0.38617578 0.17539206
-0.040154338 -0.120783016 0.18650965 0.89440036 0.72302186 0.00038666386 -0.30219164 -0.4304202
1.3374977 -0.57137895 -0.1993063 -0.050549757 0.52507746 0.40177017 0.30110365 0.008197203
-0.23396236 -0.018958764 0.9474658 0.61756086 0.000530137 -0.3947276 -0.4249314 1.4431351
-0.5700804 -0.20194684 -0.054153334 0.59234923 0.40342277 0.41747388

network_body._body_endoder.seq_layers.0.weight f4 [256, 246]
00000000: aff3 d13d fe89 373e 6bc6 c6bc c844 c0bd
00000010: 44b7 55bc 5452 b63d ef3a d33d bc4a 29be
00000020: e0cc 6dbc d7f8 0bbe 913f 31bb ff5f 543d
00000030: df49 1abd 19f5 ed3d 419d 893d b8b3 3e3d
00000040: f6f1 423d eb20 1a3d 8321 1bbe 0418 aabc
00000050: a741 5abe edc9 a2bd b314 0b3e b56f 4c3d
00000060: 8cd1 cb3b 6931 6fbd 9a53 1d3e 381f d83c
00000070: c190 dabd dc1a 4e3e 2ffe 973d 0cad 53bd
00000080: 846b 253e a864 0e3c 76c5 11be 73cb adbd
00000090: a191 183e f7d7 3f3c 734b 4b3d 4b3f 813d
000000a0: d7ac fa3d 50a5 dcbd 8bfd 8dbd a980 5fbe
000000b0: 6088 cf3d 7f61 5fbe fa23 913d d946 8d3d
000000c0: caeb 5a3d da9e 7ebd dcde 063c 9f5f 8a3d
000000d0: 9ac3 d83c a807 abbd c175 133e 4b09 18bd
000000e0: 227e cebc 0213 a33c a535 55bd d93e bb3d
000000f0: a1fc 23bd 6149 40bd 2328 0c3e 91ed d0bc
00000100: 3395 24bd 862e fe3d 72cc 8f3d 0286 d9bd
00000110: a5fd 7cbd c437 73bd 0918 02bd cede f9bc
00000120: 9b7e 263c ad15 31bd e039 bb3d 7c46 03bc
00000130: 6e77 64bd 456f 103e e8c1 d3bc 247f 8f3d
00000140: 848e 1fbe 1e59 063d 3929 89bd 2d61 1cbe
00000150: 7be3 b9bc 8ed2 a4bd eaad a6bc a703 a93c
00000160: b231 6dbd e294 613d fff0 a5bd 7b86 27bd
00000170: 628c fa3c c4a0 16be 63ac 3fbd 4b0d a13d
00000180: 3546 93bb d2a7 933d 0bb8 343d 9abc 4e3e
00000190: f235 94bd 9fb9 d83d 1d6b 73bd 3f73 9fbb
000001a0: 4c0e 24bd 3608 263d eec6 fb3d cddd e0bd
000001b0: 93a3 e4bb 8efd 36bb 1cf5 463d 09da fa3b
000001c0: 0995 1b3d ae02 633d ba52 a33d a5bc 2f3b
000001d0: a697 b03c d77e 333d 5d44 bfbc 9f78 91bc
000001e0: b6e5 d3bc 5e7a 9dbd 9885 6bbd bc56 01bd
000001f0: a2e0 183e 6d57 b6bd 407f 01be 0ba2 fcbd
00000200: 13b7 9ebd 7ac2 6d3c bdfd dabc 57d1 febd
00000210: a944 c9bd 4065 52be f872 f5bd 21a2 eabd
00000220: a6cd c83c faef c83c 00e1 793d ad0c b13d
00000230: 668b 443c 1826 13be e973 10bd 3d53 5abe
00000240: fdaa 1a3e ac55 843e 72c1 83be 9f37 b5bd
00000250: ca39 f2bd 6ad3 0a3e fbd4 a2bc f892 cd3c
00000260: a036 943c 00e5 c6bd a4fd b1bc 7c02 643a
00000270: c527 96bc f4d7 a2bd 354a 84be b083 433e
00000280: 547a 423e 791e 8d3e c841 2ebd 697a 173d
00000290: 3cc6 0f3e c6fa 8f3d 8583 3bbd 9135 9abd
000002a0: e122 e9bd 333f c0bc e2b1 a43d ad79 c7bb
000002b0: 8648 9e3d 3aa5 2f3d eef7 0f3e 1979 293d
000002c0: 54dd 483c d1c2 ce3d a9a0 90bd d4c4 0bbe
000002d0: 8884 9c3d 3db7 3dbe d5c5 0e3d 034b a7bd
000002e0: 5e35 95bd 0d12 65bd ccbf b6bd e93c 70bd
000002f0: e0d8 133d fa91 faba f6f4 543c e0d1 d93c
00000300: 416a 933d 6974 0dbd 21a2 c1bd d6e2 8c3b
00000310: f9e8 99bd d544 01be 54d6 c2bd c4dc bd3d
00000320: 6ce5 e8bc 2ace 89be ec6f 1a3c 0d3c e3bc
00000330: d7f6 473c 356a fcbb 3833 a5bd fd13 7e3d
00000340: d559 033d 78e2 80bd 3ac0 443d f73c 3b3d
00000350: 242a e73c bd9d 163e adb4 51bd b16b f5bc
00000360: 7d45 47be b915 01be 1ac0 853d 3f74 a33d
00000370: ac00 693e 7882 cebd 8119 343d a86a b6bd
00000380: 0249 8fbc 2bc3 583d 4269 953d 0c53 25bd
00000390: 7fb3 04bc c3f2 f13d cf86 913d 57bd 353c
000003a0: a1cc b03d e8c5 19bd 4cb4 5a3e 1837 353b
000003b0: e030 95bd 605e ca3c 9818 1ebe 4f87 0fbb
000003c0: 6296 7b3d 084c dd3d 8eb5 5d3d aaa5 74bd
000003d0: 3f57 ed3c 05de 863d e075 003e 7505 5ebd
000003e0: 0a18 c2bd f21d 813d 724f c93d 2cee 8d3d
000003f0: 5114 4d3e 6b94 55be 6e53 e03c 90b9 143d
0.10251557 0.17923734 -0.024264535 -0.09388119 -0.013044182 0.089024216 0.10313975 -0.16532415
-0.014514178 -0.13669144 -0.0027045945 0.05184936 -0.037668105 0.11619014 0.06719447 0.046558112
0.047594033 0.03762905 -0.15149502 -0.020763405 -0.21314107 -0.079486705 0.13582115 0.04991122
0.0062200483 -0.05839673 0.15363923 0.026382074 -0.10672141 0.20127434 0.074215285 -0.051678702
0.16154295 0.0086909905 -0.14235482 -0.084860705 0.14899303 0.011709205 0.0496325 0.063109
0.12239998 -0.10773718 -0.06933125 -0.21826424 0.10133433 -0.21814536 0.0708694 0.06898279
0.053447522 -0.06216321 0.008231845 0.067565195 0.026460458 -0.0835107 0.14400388 -0.037118237
-0.02520663 0.019906525 -0.052053113 0.091428466 -0.040035848 -0.04694498 0.13687186 -0.025503905
-0.04018135 0.124112174 0.07021417 -0.10621263 -0.06176533 -0.059379354 -0.031761203 -0.03050175
0.010162021 -0.043233562 0.09141898 -0.00801241 -0.05577796 0.14104946 -0.025849298 0.07006672
-0.15581709 0.032799833 -0.06697316 -0.15271445 -0.022691479 -0.080479726 -0.0203466 0.020631624
-0.05790872 0.055073626 -0.08102607 -0.040899735 0.030584518 -0.14709765 -0.04679526 0.078638636
-0.0044944533 0.072097436 0.04412083 0.20189133 -0.07236852 0.105822794 -0.059428323 -0.0048660333
-0.040052697 0.040535174 0.12293802 -0.10979805 -0.0069775074 -0.0027922126 0.0485736 0.0076553863
0.037983928 0.055422477 0.07974763 0.0026815322 0.021556687 0.043822136 -0.023348028 -0.017757712
-0.02586637 -0.07689355 -0.05750045 -0.031576857 0.1492944 -0.08903394 -0.12646198 -0.12335595
-0.077497624 0.014511699 -0.02673232 -0.12442272 -0.09827549 -0.20546436 -0.11984819 -0.11456705
0.024512123 0.024528492 0.061005592 0.08644996 0.011996126 -0.1437 -0.03526679 -0.21320815
0.1510429 0.25846612 -0.25733525 -0.088484995 -0.11827429 0.1355721 -0.019876948 0.025094494
0.018092453 -0.09711647 -0.02172739 0.000869788 -0.01832951 -0.07951346 -0.25837865 0.19093204
0.18991977 0.2756231 -0.042543203 0.036981974 0.14040464 0.07030253 -0.045779724 -0.07529748
-0.11383606 -0.023467636 0.08041741 -0.006087503 0.077286765 0.04288218 0.14059421 0.041375253
0.0122598 0.10095752 -0.070618935 -0.13649303 0.07642466 -0.18526931 0.034856636 -0.08168604
-0.072855696 -0.055925418 -0.08923301 -0.05865184 0.0360955 -0.0019116991 0.012997856 0.026589334
0.07198001 -0.034534846 -0.09454752 0.004299502 -0.07515139 -0.12623914 -0.09513536 0.09270623
-0.02842971 -0.26915103 0.009426098 -0.027738595 0.012204847 -0.0077030906 -0.0806641 0.06203078
0.032068092 -0.062931955 0.048034884 0.045712437 0.028218336 0.1470861 -0.051197696 -0.029958578
-0.19460101 -0.12605943 0.06530781 0.079811566 0.22754163 -0.10083479 0.043969635 -0.08907062
-0.017490868 0.0529205 0.07295467 -0.040362403 -0.008099436 0.11813881 0.07105791 0.011092505
0.0863278 -0.037542254 0.2135784 0.0027651247 -0.07284713 0.024703205 -0.1543907 -0.0021900719
0.061422713 0.108055174 0.054128222 -0.059728302 0.028972266 0.065853156 0.12544966 -0.054204423
-0.09477241 0.0630454 0.09829606 0.06930193 0.20027281 -0.20857398 0.027383532 0.03630978

network_body._body_endoder.seq_layers.0.bias f4 [256]
00000000: 91cb b43d 5cbb 26bd 03eb af3c 5891 9b3d
00000010: 4901 6a3d c67b fdba 9d3d 11bd c7e3 773d
00000020: 58a1 613d 55e6 41bd f747 923d 1172 87b9
00000030: 8ee3 913d 2d26 883c 6cb4 2f3c 773f a93d
00000040: 3935 d3bc daa6 a53c a25a cf3c d2ab 003d
00000050: 606b aabd 7702 fd3c b102 e5bc 8215 bd3c
00000060: 05f0 723d b98a 373c d7c3 a33d 1aac 143d
00000070: cf40 623c 2d46 a0bc 8210 753d 2375 9c3c
00000080: b5a2 6e3c f48a a63c 3ebb a03c 9a4a cebc
00000090: e8d4 babb 83b6 7f3a f95a 16bd 4f1f 2f3d
000000a0: 92e8 fe3b 516d 6ebd 9845 c63d 68e7 b03d
000000b0: 7d10 633d becf 8abc 0833 dc3b 21be 773d
000000c0: 0074 a23c 6ea4 8b3d 6c0e 49bb 65f6 053d
000000d0: 6d09 2f3c 45de c93d 111c 973c b3a1 103d
000000e0: 7ab6 ab3c f0ca 303c cb64 353d 7993 363d
000000f0: 0a0f 95bc 8fcb 00bd 7d3e b93d ed74 ba3d
00000100: 6186 dc3c add4 973c 571d 14bd 3fcf a63d
00000110: 7f4c 183d 60d3 dc3c 6862 743d 5741 323d
00000120: a488 c73c db6a 1fbd 5434 95b9 350f b8ba
00000130: 0ede 3e3d bfaa ccbb 03e8 adbd c9d6 733d
00000140: d3b2 023c 51e9 b03d 6000 543c 61e5 9cbd
00000150: 0d19 843d 2f0b 0c3c 071a 06bb 58ea 2f3d
00000160: 2d61 523d d05a b93c 8b9e a0bc 1341 483d
00000170: 5477 d4bc a9c5 ebbc 89a6 9f3d f73a b33a
00000180: 01c4 033c a1a9 263d de32 4ebc 8c3b 69bd
00000190: d2ac 3a3d 5419 c73c d7bb 623c 2171 89bc
000001a0: 2071 88ba 94fe c8bc 3d0d 0fbd 4391 61ba
000001b0: 74b6 843d 3a51 a7bb 69b0 ff3c 2762 1c3d
000001c0: b7d1 1a3d 3294 663c 8142 05bd 64d7 0d3d
000001d0: b47c 913d 8a6f 6b3c aa2c 123d f245 e139
000001e0: 68f8 43bd 7424 453d b978 f43c 7776 dd3d
000001f0: bf7c 98bc d9ce 00bd a085 7b3d d00a d8bc
00000200: 883c d2bd 7806 873a 567e ff3c 2ab3 28bc
00000210: aef7 e53c 55e7 bdbc 3572 c33c d702 31bc
00000220: 58dc 1a3d 35de 63bd dd82 b53c d242 dd3c
00000230: 31c2 1f3d e8c9 e03c f6b1 9dbd c49e 8dbc
00000240: 0c21 e73a d5fc 303d 6e9c bf3c 1e14 b63c
00000250: 0190 17bd 8ac7 35bd 26da 13bc 8a13 ff3c
00000260: f34b 4c3c 02d6 33bc 317b ae3c 9650 703c
00000270: a6ed 8c3d 1e67 bb3c c01c bf3b f861 9d3c
00000280: 1477 043c 1c1b 76bd 0143 b23c 5290 a23c
00000290: 4868 833d 16d2 953d df8d e33a 3e1c 32bd
000002a0: 5e9d 28bd 6dc6 f2bc 39aa 24bd d242 073d
000002b0: 5870 28bd 8a5e 383d 368f 1f3d ec66 2a3c
000002c0: 677b 84bc 9f6f 01bd 6401 d53d cece 753d
000002d0: 4f30 d03d dd4c a33c e218 8b3d b646 49bc
000002e0: 337a c93c 8974 213d d17a fd3d f927 133c
000002f0: d274 74bc 24a8 bcbc 4ada 303d 2018 843d
00000300: 070e 16bd 32a0 10bd 536a 3a3c c1f8 1c3d
00000310: 7f20 95bd 0040 253c aa76 f23c ef77 eebc
00000320: a8ce f43c 3541 e0bd d8f9 59bc df91 0d3d
00000330: 75b0 e6bb 7c2c dcbc 21fe 733c f5e4 263d
00000340: 5e9b bb3c 0747 df3b 15ed e9bd 892b 0ebd
00000350: daf1 a63d 81f0 e2bc b279 8b3d f9a7 88bb
00000360: a482 833d 1626 e8bd f564 bf3d 9c2e 9c3d
00000370: af80 b93c 2b16 07bc 66ac 833d c756 4e3d
00000380: ba9d 1b3d 666a bf3d 1c0d d03d 8ded ebbc
00000390: 38c0 0b3d 1842 8c3d 69c1 6e3b f70b 00bd
000003a0: 8ebc bc3d caec 3ebc 1f02 8d3d 77c3 333d
000003b0: 266b 323b 7efc 5f3c e01b 6e3d 8b64 cbbc
000003c0: dfd1 1cbd 6b42 0d3d 84dd bcbc 4595 6d3d
000003d0: 2c24 833d edd6 c03c da29 34bc ad25 b1bc
000003e0: 4af0 be3a 2c96 f7bd c939 04bc 22be d43c
000003f0: 6cb4 143d fa3e 06bd 5917 5bbd ee51 0fbd
0.0882789 -0.040706024 0.021474367 0.075960815 0.057130132 -0.0019339256 -0.03545915 0.06051996
0.05508551 -0.047338802 0.071426325 -0.00025834193 0.07123481 0.016619766 0.010724168 0.08264058
-0.025782214 0.020221163 0.025311772 0.03141386 -0.083212614 0.030884964 -0.027955385 0.023081545
0.05931093 0.011202508 0.07996338 0.03629694 0.013809397 -0.019564712 0.059830196 0.019098824
0.01456516 0.02032993 0.019620534 -0.025182057 -0.00570165 0.00097546744 -0.036707852 0.042754468
0.0077791894 -0.05820972 0.09681243 0.08637887 0.055435646 -0.016944762 0.0067199506 0.060484055
0.019830704 0.06818472 -0.0030678762 0.032705683 0.0106834 0.09856848 0.018446 0.03531046
0.020961035 0.010790572 0.044285577 0.044574235 -0.018195648 -0.03144413 0.09045122 0.09104333
0.026919546 0.018534029 -0.036160793 0.08144998 0.037182327 0.02695626 0.05966416 0.043519344
0.024357148 -0.038920265 -0.00028458482 -0.0014042618 0.046598487 -0.0062459405 -0.08491518 0.059531007
0.007977205 0.086382516 0.0129395425 -0.07660938 0.064500906 0.008547588 -0.002046229 0.042948097
0.051362205 0.02262631 -0.01960685 0.048890185 -0.025935806 -0.028780775 0.07795436 0.0013674189
0.008042336 0.040689114 -0.01258537 -0.056941554 0.04557497 0.02430407 0.01383873 -0.016777577
-0.001040969 -0.024535455 -0.034924734 -0.00086047145 0.06480113 -0.0051061185 0.031212049 0.038179543
0.037797656 0.014073418 -0.032534126 0.03462924 0.07103863 0.014369855 0.035687126 0.00042967458
-0.04784432 0.048130468 0.029842721 0.10813611 -0.018614171 -0.031447265 0.06140673 -0.026372343
-0.10265452 0.001030161 0.031188171 -0.010296622 0.028072204 -0.023181597 0.02385817 -0.0108039
0.037807792 -0.055631835 0.022157127 0.027009401 0.039003555 0.027440026 -0.07699959 -0.01728762
0.001763375 0.04320987 0.023390021 0.02222639 -0.037002567 -0.04437975 -0.009024179 0.031137247
0.01246928 -0.010976316 0.021298977 0.014667651 0.06881265 0.022876319 0.0058322847 0.019211754
0.008085031 -0.060084447 0.021760466 0.019844208 0.064163744 0.07315461 0.0017361006 -0.043483965
-0.041165702 -0.029635632 -0.0402014 0.03302271 -0.041122764 0.045012034 0.038954936 0.010400515
-0.016172124 -0.03160059 0.10400656 0.060011677 0.10165464 0.019934112 0.067918554 -0.012284925
0.024594402 0.039417777 0.12376941 0.008981698 -0.01492043 -0.023029394 0.043176927 0.06449914
-0.03663447 -0.035309024 0.011377889 0.038323168 -0.07281589 0.01008606 0.029597599 -0.029109923
0.029883698 -0.10949937 -0.013304196 0.03456294 -0.0070400783 -0.02687668 0.014892132 0.040745694
0.022901233 0.006813887 -0.11422173 -0.034709487 0.08151598 -0.027702572 0.06810321 -0.0041704145
0.06421402 -0.11335389 0.09345428 0.076260775 0.022644369 -0.008245031 0.06429367 0.050375726
0.037992217 0.09346466 0.101587504 -0.028799796 0.03411886 0.06848544 0.00364312 -0.03126141
0.092156515 -0.011653135 0.0688517 0.04388758 0.002722451 0.013671039 0.058132052 -0.024828216
-0.038286086 0.03448717 -0.023054846 0.058003683 0.064033836 0.023539985 -0.010996306 -0.02162441
0.0014567461 -0.1208919 -0.008070418 0.025969569 0.036304876 -0.032774903 -0.053489063 -0.034990244

network_body._body_endoder.seq_layers.2.weight f4 [256, 256]
00000000: e578 43be 7b7b aa3d 0198 fd3d 5652 d83a
00000010: 73dd 363e 28e2 93bd 21a8 bf3d 45d9 f43c
00000020: eb12 e1bd cb01 953d 91dc 3bbd d4f5 b7bc
00000030: 0116 84bd 45d3 7abd 0a58 95bd d38b 0e3e
00000040: 799c 8cbd d3d1 5abd a134 81bd a47b 7d3d
00000050: 76ee ca3d 84cb 44bd 42e7 5ebd 4c13 01bd
00000060: 8f44 fb3c 6839 4c3d 5703 e53d cf69 98bd
00000070: 92f1 b7bb c929 9abc 4bfc 99bd 63c7 053e
00000080: 9e90 20be 727b 6b3d da01 24be 949b 72bd
00000090: b0cd f9bb 978f 573d 404d d83c d141 96bd
000000a0: a476 823b 5f94 a1bd a29f 5fbd c7a2 ba3d
000000b0: 5805 803c db9e 673d da81 803c da56 acbd
000000c0: dedd c13c fba4 6bbd 3a9d f43c eff7 c13d
000000d0: ad36 9c3d 617a 3c3e ee50 713c f929 3d3e
000000e0: b1b6 01be 5fe9 2b3d a00c 183d 9738 cbbd
000000f0: cf8e f43c c4f7 58bb a634 1cbe e4ae 30be
00000100: 81fe 56bb f29b ab3d c596 5d3e 66f4 063e
00000110: 417f 173d 5c2e c03c 897c 56bd 55f7 283e
00000120: 68f7 96bd 1bab c2bd ee9c 393d bf55 26bd
00000130: c69f 61bd f623 d9bd 71c7 ea3d da63 52bd
00000140: 0770 9e3d 9948 af3d b83f 463d 1c72 0f3e
00000150: b5d8 f13c 75b8 cabd a251 6ebd 6af2 953b
00000160: 1ea1 21bd e971 fcbd f79c 983d 8323 2dbd
00000170: edb4 72bd 72d5 bcbd aabb 663d d747 573b
00000180: 303f 503d 749a 8e3d 3938 163e 1492 83bd
00000190: b457 02bd 4ad9 783d 3997 b9bc 1958 29bd
000001a0: 4fb7 a3bd 9b39 79bd e228 3c3d f91c 3e3c
000001b0: 00a2 debc 96ef aa3c df85 9a3d c074 273d
000001c0: 093c c03c b615 1b3e 50ad 963d 72ec 8bbd
000001d0: c876 8d3d 160f 7b3d 13fa 8b3c cd06 19be
000001e0: 0cf7 2b3b 5b9a 66bd afbd fd3c 0938 79ba
000001f0: bfb8 88bd 207f 11bc 5b13 0e3e bbd2 b1bc
00000200: e51c af3d 1ecb 58bd e3ff ae3d 26f8 3fbd
00000210: 69b0 0bbd 94d2 3e3c 4471 a33c 562e c63d
00000220: 52d1 003d 93a7 82bd 4074 78bd 6121 eabc
00000230: 2656 4dbc 59b8 c83d 7be8 2cbd 280d a3bd
00000240: 8ad6 02be 2a11 a73a 6afa 1abd 4a7d 9b3c
00000250: 6c14 9cbd a926 8bbd 3ea8 913d 90e3 fcbc
00000260: 8a1a 933d 9e01 8bbd e205 aebd 8342 363a
00000270: a73f 22be d1b1 e7bb af0f c83d bbfc 31bd
00000280: 7006 93bb ebe1 ecbc 9c7b 3abb e475 e93d
00000290: 81ac c4bb 4593 9f3d 3a29 a8bc f72c 13bc
000002a0: 4f10 bc3d 9edc 2cbe 5e41 9f3d 088c ff3c
000002b0: 62c6 16bd c83b 223d 9ddf aebc cdec 203d
000002c0: 236b e53c d475 f1bc 3436 07be 3559 60bd
000002d0: 53bd 73bd 89c2 f9bd 3b25 b13d 63b0 9b3d
000002e0: 5666 2dbd 5088 25bb f0c8 4a3d a0f3 fd3c
000002f0: ccac 7ebc e7ba 39bd cdfb edbd 8dc5 15be
00000300: 1c84 32be 1247 273d 1ba6 30bd ee66 123e
00000310: 1deb 533d 046e ebbc d6ee 073e 819a 8a3d
00000320: 891f a73d 11f8 cc3d 994d 00bd 2832 98bc
00000330: df7d 27bd 9ea0 283d 91d7 df3d 739b ad3d
00000340: adf2 7fbd f4d7 ffbd 1964 d1bd cf21 12bd
00000350: 037e 053c d106 cc3d 07ae 22bd d296 9ebc
00000360: 8353 5e3d bc23 00be d5d4 cfbb 309d 0a3c
00000370: 8027 ddbc f7ea 49bd 768e 883d 23e2 7f3d
00000380: 8eb8 e1bc 3a2b b6bb 9a0e dcbc 2826 49bd
00000390: 9544 92bd ca1e 0a3e 1aa0 cebc 9a23 623d
000003a0: 8d80 8e3d 0a8f 95bd 7abf ab3c 3fe4 8b3c
000003b0: 7d83 393d c77b e2bd ff87 ce3a e931 cf3d
000003c0: b00d 1dbe e181 013e ad56 4bbd 43c9 d73c
000003d0: ac4e 32bb 57f5 233d c409 30be ebde d0bd
000003e0: a280 153d b62a 0cbe 8d4f 073e d3cf 60bd
000003f0: a441 9e3d 0c5c babd b929 453d 62ab 07be
-0.19089086 0.08324333 0.12382508 0.001650403 0.17857914 -0.0722087 0.0935824 0.029888758
-0.109899364 0.072757326 -0.045864645 -0.022456087 -0.064495094 -0.06123664 -0.07292183 0.13920526
-0.06865782 -0.05342276 -0.06308866 0.06188549 0.09908764 -0.04804565 -0.054419763 -0.031512544
0.03067234 0.049859434 0.11182278 -0.074420564 -0.005613514 -0.018818753 -0.07518824 0.13064341
-0.15680167 0.057490773 -0.16016331 -0.059230402 -0.007623397 0.052627172 0.026404023 -0.07336772
0.003981428 -0.07889628 -0.054595597 0.091130786 0.015627548 0.05654798 0.015686918 -0.08415003
0.023665365 -0.057530385 0.029860128 0.09471118 0.07627616 0.18406059 0.014728768 0.18473043
-0.12667347 0.041970607 0.037121415 -0.09922903 0.029853253 -0.0033106664 -0.15254459 -0.17254215
-0.0032805505 0.083793536 0.21639545 0.13179168 0.036986593 0.023459606 -0.05236486 0.165006
-0.07371408 -0.09505292 0.045315675 -0.040609118 -0.055084012 -0.10602562 0.11463822 -0.051364757
0.07736211 0.08558769 0.04840061 0.14008373 0.02952228 -0.09898464 -0.05818332 0.004576017
-0.039460294 -0.12326414 0.07451814 -0.042270195 -0.059254576 -0.09220399 0.056331314 0.0032849216
0.05084151 0.06963053 0.14669885 -0.064243466 -0.03182192 0.060754098 -0.022655116 -0.041343782
-0.07993948 -0.060845952 0.045937426 0.011603587 -0.027176857 0.020866197 0.07545065 0.040882826
0.023466127 0.15145001 0.073572755 -0.06832208 0.06907421 0.061293684 0.017087018 -0.14944
0.002623978 -0.05629955 0.030974237 -0.0009506946 -0.066758625 -0.008880407 0.13874571 -0.02170693
0.08550433 -0.052928083 0.085449 -0.046867512 -0.034103785 0.011646885 0.01995147 0.09676807
0.031449623 -0.063796185 -0.06065774 -0.02858037 -0.012532746 0.098007865 -0.0422139 -0.07961494
-0.12777153 0.0012746204 -0.03783647 0.01898064 -0.07621083 -0.06794483 0.07112168 -0.030870229
0.07182796 -0.06787418 -0.08497216 0.000695266 -0.15844594 -0.007070758 0.097686164 -0.043453913
-0.0044868514 -0.02891632 -0.0028455025 0.11399439 -0.0060020094 0.07791761 -0.02052747 -0.008982888
0.09182798 -0.16881034 0.0777614 0.031194702 -0.036810286 0.039607793 -0.021346861 0.03928833
0.028005188 -0.02947513 -0.1320427 -0.054772574 -0.059506726 -0.12195308 0.08649679 0.076020025
-0.042333923 -0.002525825 0.049508035 0.030999959 -0.015544128 -0.04534426 -0.11620293 -0.14626141
-0.17433208 0.040839262 -0.04312716 0.14297077 0.051737893 -0.028738983 0.13274702 0.067677505
0.08160312 0.100082524 -0.031324003 -0.018578604 -0.040891524 0.0411688 0.10929788 0.08476915
-0.062487293 -0.12492362 -0.1022417 -0.035676774 0.008147719 0.099622376 -0.039716747 -0.019359026
0.05427886 -0.12513632 -0.00634251 0.008460328 -0.026996374 -0.049296346 0.06667797 0.06247152
-0.027553823 -0.005559352 -0.026862431 -0.049108654 -0.07141987 0.13488308 -0.025222827 0.055209734
0.06958113 -0.07302673 0.020965327 0.01707661 0.045291413 -0.11058765 0.0015757083 0.101169415
-0.15337253 0.12647201 -0.049643207 0.026341086 -0.0027207537 0.040028896 -0.17191225 -0.10198768
0.036499627 -0.13688168 0.1321394 -0.054885697 0.07727364 -0.09099588 0.048135493 -0.13248971

network_body._body_endoder.seq_layers.2.bias f4 [256]
00000000: 6b19 bbbb fe16 0c3b f355 ef3c c4d0 553c
00000010: 0fd6 ebbc 38bb 303d 01d0 d93c 5306 e7b9
00000020: 92d8 0a3d c855 42bc 882f 0dbd aeda f63c
00000030: f957 47bc f6f9 55bc a44e d83c c3dd b13c
00000040: 0b73 ae39 dba9 233d 8a9b f4bc 9dbc 343d
00000050: 3c42 4e3d 1650 733d f4d0 2e3d a85d 883d
00000060: 7737 89bd e8a8 8fbc a0c1 b2bb 1e8b 6cbd
00000070: f4f1 9b3c 0dd0 ff3b a553 bf3c 2d82 51bd
00000080: bac8 92bc 135b 70bc 9ae7 543c c18f 04bb
00000090: 61f3 893c 4ba1 54bc af25 5cbc 4026 aa3c
000000a0: 08c9 b3bc 06c7 0bbd f3d9 6d3c a3c8 963c
000000b0: c8a1 1f3c b76e e53b 03cc 283d 0206 5e3d
000000c0: 3420 093d ef1a 2a39 3109 e53c 435c 4a3d
000000d0: a1d7 493c a705 333d 396d 5a3d 27f5 123d
000000e0: ba70 8c3d f245 12bb 2fcd 063d 3195 68bd
000000f0: 8858 8dbb 030f dc3d 4bde 6fbd 5810 083c
00000100: dbc0 5fbd d4ee 813d afe6 10bd 980e a53b
00000110: 13dd 02bd e791 0f3d 83bb f13b 4eb4 6bbb
00000120: 4d5e 453c 4451 12bc d2d8 693d 4a29 a33b
00000130: 13f2 cb3c 6263 91bc 7246 993c 8b6c 21bc
00000140: a787 8d3d 21b9 943d 87ee 56bd 632a e1bc
00000150: 3942 143d 3da1 be3b c153 6b3d ac2a e33b
00000160: f956 4fbd c48a 543b 7704 143c 27b6 08bd
00000170: 0ab5 343d 18c7 abbb 0e25 afbb e5db f8bc
00000180: 26e4 5b3d 4ef5 4dbd 09d9 d3bc 46d6 283d
00000190: 1600 1b3d aca0 1c3d ee5b 883c 9db2 acbd
000001a0: 9c91 4239 eef7 9bbd a2cb 62bc 4926 7f3c
000001b0: c5a0 013d d15d 403d 6080 9e3d 7c4c bc3c
000001c0: e187 223d e5d0 a33d a577 a43d d619 043c
000001d0: 2d9a f53c 14b3 d33c adbb 063d 7d42 0a3b
000001e0: 97b3 3d3b c539 4fbd 15ce 8fbc c83b a83c
000001f0: f5c5 1e3c 0b52 21bd c531 da3c 4670 9f3c
00000200: 85a8 30bd 6c81 b63c 7f91 5f3d e8c4 083d
00000210: f115 dd3c 97c8 ae3c b813 943c 7d9d 1cbd
00000220: 7fae a03c a3d2 923c e837 b53d 9f2d 5dbb
00000230: fd2b b5bc 3e20 d03c 8626 09bd 9277 1c3a
00000240: 52b1 163d f725 d4bb fb80 593d 0250 883b
00000250: 91db 193d cf8e 543d 9317 423d c317 0bbc
00000260: d5a5 233d 7eef a6bc 155f aebc 97a5 11bc
00000270: 2484 75bc 7efc 2a3d 0545 ea3c 6806 8cbb
00000280: 4a2c 413d 6110 90bd f6ee bfbc f60b 673d
00000290: c2af 39bb 4113 8e3d 545f 02bc d3f2 8f3c
000002a0: e1f5 733c 344e e5bc 83f6 013c ffe4 053d
000002b0: bb2a e33c 1fb0 c23c 8a51 dd3c 5441 aa3c
000002c0: 392f e73b c83a aebc 55d5 a63c 41c3 9a3c
000002d0: 4504 a53c e999 053d 3758 24bd 4dfd 7abd
000002e0: d438 23bc 0a3d 293c ac76 443b 81d2 e6bc
000002f0: d6dd 37bc 8f65 bd3a bed7 4d3c 1ff1 173d
00000300: b452 9e3c 0517 97bc ce88 b33d 419e 15bd
00000310: 2436 8d3c aa90 dcbc f922 9e3c 493d 66bc
00000320: 7fb8 5a3d 9222 2c3d 98c1 9b3d 8c61 a3bb
00000330: 7ad1 593b 67ff 853b acc2 8abc a687 903b
00000340: 6e7a 9a3d 66c2 64bd e699 923c dd0a 39bd
00000350: f46c 94bc 55b5 b1bb 23e4 8b3b 0dfa 5cbd
00000360: dc04 58bc 0776 fd3b 2004 e7bb d722 cbbc
00000370: 4603 a13c 3126 3f3d d8c6 143d f302 04bd
00000380: f16a 24bd fd0e 4dbc 7b8a 8e3d 26f3 43bd
00000390: 32b2 233c 3bb9 df3c d915 22bd 33ed c43c
000003a0: 9116 8f3d a201 35bc 32f0 283d 242c 853c
000003b0: 044b a63b cd9b e93c af1a 663d 98f3 143c
000003c0: e3e0 103c b6d8 f2bc 0b77 df3a 8db1 7b3c
000003d0: 37f5 493d c932 d0bc ba3f 323c 911f 38bd
000003e0: 71e3 51bd b002 91bc 9fe2 bbbc 7e9a 953c
000003f0: c69b a4ba 6348 043d ad0e a63c fa50 893d
-0.005709817 0.002137601 0.029215788 0.013050262 -0.028788595 0.043147296 0.026588442 -0.00044064465
0.033897944 -0.011861272 -0.034469157 0.030133571 -0.01216697 -0.013060084 0.026404686 0.02171219
0.0003327358 0.03995691 -0.029859323 0.04412519 0.050356135 0.059402548 0.042679742 0.066584885
-0.06700032 -0.017536595 -0.005455211 -0.05774986 0.01903627 0.007806784 0.023355315 -0.051149536
-0.01791798 -0.014670151 0.012994671 -0.0020227286 0.016839685 -0.012977908 -0.013436719 0.020770192
-0.021946445 -0.03412535 0.014517295 0.018406218 0.0097431615 0.0070017236 0.041210186 0.05420495
0.033477977 0.00016222497 0.027958484 0.049404394 0.012319476 0.043706562 0.05332682 0.035878327
0.068574384 -0.0022319523 0.032910522 -0.056782905 -0.0043135323 0.10745051 -0.058561604 0.008304678
-0.05462728 0.06344381 -0.035376247 0.00503714 -0.031949114 0.035051253 0.0073770895 -0.0035965624
0.012046409 -0.008930508 0.05709154 0.0049792873 0.024895703 -0.017747585 0.018710349 -0.009852539
0.06910639 0.07261873 -0.05247357 -0.027486032 0.036195967 0.005817561 0.05745292 0.006932577
-0.050620053 0.0032431344 0.009034268 -0.03337684 0.044117965 -0.0052422397 -0.0053449934 -0.030378291
0.053684376 -0.05028277 -0.025860326 0.041219972 0.03784188 0.038239166 0.016645398 -0.08432505
0.00018555525 -0.07615648 -0.013842495 0.015573093 0.031647462 0.04696447 0.07739329 0.02298569
0.039680365 0.07998828 0.08030633 0.0080628 0.029980743 0.025842227 0.032893825 0.002109676
0.0028946155 -0.050592203 -0.017554322 0.020536318 0.009690751 -0.039384883 0.02663506 0.019462716
-0.043129463 0.02227851 0.054582115 0.03339091 0.026988002 0.021335883 0.018075809 -0.03823613
0.019614456 0.017922705 0.08848554 -0.0033749116 -0.022115702 0.025406 -0.033484004 0.0005968745
0.0367902 -0.0064742523 0.05310152 0.0041599283 0.03756291 0.051894005 0.047385763 -0.008489552
0.03995307 -0.02037787 -0.021285573 -0.008889577 -0.014985118 0.0417447 0.028597364 -0.0042732246
0.047161378 -0.07034374 -0.023429375 0.05640789 -0.002833352 0.06937266 -0.007957298 0.017571842
0.014890165 -0.027991392 0.007932308 0.03268909 0.027730336 0.023765622 0.02701642 0.020783104
0.00705519 -0.021268263 0.020365397 0.018891932 0.020143637 0.032617483 -0.04012319 -0.061276723
-0.009962279 0.010329494 0.002997796 -0.028176548 -0.011222323 0.0014449822 0.012563644 0.037095185
0.019326545 -0.018443594 0.08766328 -0.036527876 0.01723773 -0.02692445 0.019303786 -0.014052697
0.053398605 0.042025156 0.076052845 -0.0049859937 0.003323643 0.004089284 -0.01693853 0.004410702
0.07542883 -0.055849455 0.01789565 -0.045176376 -0.01811836 -0.005423228 0.0042691394 -0.053949405
-0.013184752 0.007735017 -0.0070500523 -0.024796886 0.019654881 0.04666728 0.036322445 -0.032229375
-0.04014105 -0.0125157805 0.06960007 -0.047839306 0.009991216 0.027310004 -0.039571617 0.024038887
0.06986726 -0.011047753 0.041244693 0.0162564 0.0050748605 0.028516674 0.05617779 0.00909128
0.00884268 -0.029644351 0.0017049027 0.015362156 0.04930612 -0.025414841 0.010879451 -0.04495198
-0.051242296 -0.017701477 -0.02293521 0.018262144 -0.0012558631 0.032295596 0.02027067 0.06704898

network_body._body_endoder.seq_layers.4.weight f4 [256, 256]
00000000: 347a a33d 9f9c aabc 2fc5 0c3d 51e9 9a3c
00000010: 1922 03be 6644 47be 2d4b 263c a9e0 9f3d
00000020: 4996 ba3b 522a 8ebd 1d37 d63d c684 debd
00000030: ca7c 923d b5bf d93c 919b 88bd 51c0 093d
00000040: ec3d 58bb c67a 923c 9851 6b3d 9dcc 243c
00000050: 5bae debc 338e a33c b3dc d0bd 2f1c 5fbe
00000060: 9261 933d ee93 863d dae3 04bd bcc2 b9bc
00000070: 0d24 00bd 6a0c 89bc 64e5 dcbd ea9f c7bd
00000080: 4b39 3c3e 042e 6d3d 9644 c1bd 07b9 623d
00000090: 44af aa3d a17e 5bbd a4da 1e3c 2deb 6f3e
000000a0: 9dba febc 9544 81bd 696f 33bd 0ec6 0d3d
000000b0: 21df d4bc 69ce 16be e607 59bd 8079 ca3c
000000c0: fcdc e23d fe13 cc3d e5cd f13d 9945 803c
000000d0: 84db 203e 9f3c 86bd bedd ebbd 95c9 873d
000000e0: 60e6 ef3d 0169 02be 6d7f 7fbc 54d2 ad3d
000000f0: 1810 b13d 53e4 01bb 26f0 8cba be5e 93ba
00000100: 04c6 b2bd 063a 98bc 12a8 603d 78be 6ebc
00000110: c924 863d 60d1 08be 9eb7 45bd 9950 a53d
00000120: 83ce 90bd 6f01 afbd 7527 b73d ce56 213d
00000130: d375 97bd 1220 18bd 0668 363d 01e4 9fbd
00000140: ad2f 82bd bf87 86bd 9ad3 65bd f6f8 dbbd
00000150: 4a73 ca3c 27cf c4bd b610 d0bb e474 8ebc
00000160: 8f0a ad3c 61bd 323d 402b e33d 8d91 c73d
00000170: 1177 283d 68c0 023c b7f5 e6bc 7e60 103e
00000180: d938 833c e659 c63c 549e cb3d 2fba 7cbd
00000190: 8d3f be3c 3c66 d8bd 99b5 983d 5041 4cbd
000001a0: 6d4a 20be 8d79 07bd 1612 20bc fd88 82bd
000001b0: 75ad af3d d68b 85bd 3e27 a53c 1750 043e
000001c0: 8505 85bd ac4e 0abd d20b 463c 35bb e6bd
000001d0: 8353 53be 5b51 5abd f042 ddba 4190 173d
000001e0: af83 35bd d0f2 b03d afe6 b43c f2e9 48be
000001f0: b2e4 c63b ecc1 68bd 65e6 e2bd 0fd5 24bd
00000200: b18d 853b 09bb f7b9 0b8f b53c b1f6 083d
00000210: eae0 b2bc 9e10 43bc b933 c43d c648 a3bc
00000220: 5555 04bc 1e87 8fbd 96f8 163d df39 17be
00000230: ba27 053e 8924 43be ae5f 0ebe 9c00 4b3c
00000240: 7e25 193d 924f 80ba 609c 43be 3739 0b3d
00000250: 32c0 583c db4e 0ebe 0f7d 7f3d 0933 573c
00000260: 0a14 c13d 284a 9e3d c42a febd 8a32 0abc
00000270: 2e7c c03c 476c 06be 9345 213d ef1c 3d3d
00000280: 61d3 1c3e 2ae1 46bd 0773 8f3d ff0d 9f3d
00000290: ebfd 9c3d b982 073e 9d7f 593d 50af 99bc
000002a0: a93e 22be dc60 e9bd 8816 dfbd 2511 aabd
000002b0: 459b 4cbc bca8 7f3d 5e39 6a3e ac6f 053d
000002c0: 12c1 94bd ffdf 043e f335 ce3d 3f99 203d
000002d0: ac94 58bd 1ce0 a73c 89c9 8ebc e881 a23d
000002e0: 00e2 34bd 3951 3f3d 9fd2 63bc 1cb6 bc3d
000002f0: a325 1a3d 0dde 92bd 8bcf 1fbd 46b1 d73c
00000300: 53fd 4c3c dc4a d03d fd8f 34be 2119 313e
00000310: 6f9c c8bc 133b df3c ac2e 2abc 5ee2 003e
00000320: 8840 0c3e 40d5 8cbd 7a39 ac3c 6da8 193d
00000330: a18b e03b 2de6 04bd ab9b cabd 9ea7 143d
00000340: 97ab 623e 320c 7abc e5e5 863d 8b8d 743d
00000350: 9941 52bd 21c1 54bd 2f21 073e c9cc 813d
00000360: 6bac d73c 1a9f 11be 313b 0f3b 0a0d b83d
00000370: 21bd 93bc 04c9 86bb 87aa 6dbd 6c6f 83bd
00000380: c2dd 423e 3a54 2bbd 01b5 7cbd 912e 10be
00000390: 8817 933c 647a 363c 2d1e 043e 289d 9b3c
000003a0: e284 b43d 45fc f2bd f5d3 b13d 5b28 42be
000003b0: 4659 f43d 4ffa 5bbd 2062 6dbd d738 853b
000003c0: 3254 bfbd 371e ec3d 00f1 fb3d 1774 863d
000003d0: 6aa3 45be 37e9 ce3c 2c27 3ebd 90dd 4a3e
000003e0: 9192 ca3c 8bed 11be 0d18 11be 99be 4abe
000003f0: 4c07 083e dd7f e4bc 8968 f03d ae68 0e3d
0.07982293 -0.020826636 0.034367736 0.018910082 -0.12805976 -0.19459686 0.010149759 0.078065224
0.005694185 -0.06941666 0.10459731 -0.10865168 0.07152708 0.02658067 -0.06670297 0.033630673
-0.0032995893 0.017880809 0.05745086 0.010058549 -0.027182749 0.019965267 -0.10198345 -0.21788095
0.071963444 0.06571184 -0.03244386 -0.022675864 -0.03128438 -0.016729552 -0.1078594 -0.09747298
0.1838123 0.057905212 -0.0943691 0.055352237 0.083342105 -0.05358756 0.009695683 0.23429556
-0.031094844 -0.06311909 -0.04380742 0.034612708 -0.025985302 -0.14727177 -0.05298605 0.024716139
0.11077306 0.09964751 0.118068494 0.015658187 0.15708739 -0.06554531 -0.11516903 0.066302456
0.117138624 -0.12735368 -0.0155943455 0.084873825 0.08645648 -0.001981993 -0.0010752722 -0.0011243445
-0.08729175 -0.018582355 0.054847784 -0.0145717785 0.06549985 -0.1336112 -0.048270814 0.080720134
-0.07070639 -0.08545195 0.08943073 0.039389424 -0.0739552 -0.03713996 0.0445328 -0.0780716
-0.0635675 -0.0656886 -0.056110002 -0.10740845 0.024713177 -0.09609824 -0.0063496483 -0.017389722
0.021123199 0.043637637 0.11092234 0.097445585 0.041129176 0.007980444 -0.028193338 0.14099309
0.016018318 0.024212789 0.09942308 -0.061700996 0.023223663 -0.10566375 0.07456512 -0.049866974
-0.15653391 -0.033074904 -0.009769937 -0.06373785 0.08578006 -0.06520812 0.020160314 0.12921177
-0.064951934 -0.033766434 0.012087779 -0.11266176 -0.20637326 -0.053300243 -0.0016880911 0.037002806
-0.044315036 0.08640063 0.022082655 -0.19620493 0.006069743 -0.056825563 -0.110791005 -0.04024225
0.004075729 -0.00047250863 0.022162935 0.03343839 -0.021835763 -0.011905817 0.09580178 -0.019932162
-0.008076985 -0.070081934 0.036858164 -0.1476817 0.13003436 -0.19056906 -0.13903686 0.012390282
0.03738927 -0.0009789339 -0.19102621 0.03399011 0.013229417 -0.13897268 0.062375125 0.013134726
0.0942765 0.07728988 -0.12410501 -0.008434901 0.023496713 -0.13127242 0.03937299 0.04617017
0.1531501 -0.048554577 0.070043616 0.077663414 0.076656185 0.1323346 0.053100217 -0.018760353
-0.15844215 -0.113954276 -0.10892969 -0.08304051 -0.012488191 0.062416777 0.22873446 0.0325772
-0.07263388 0.12976073 0.10068884 0.039208647 -0.05287616 0.020492606 -0.017430084 0.07934934
-0.044160843 0.04670832 -0.013905196 0.09214422 0.03763355 -0.07171259 -0.039016288 0.026329648
0.012511569 0.10170528 -0.17633052 0.17294742 -0.024488656 0.027249848 -0.010387104 0.12586352
0.13696492 -0.06876612 0.0210235 0.03751414 0.0068525826 -0.032446075 -0.098929726 0.036292665
0.22135769 -0.015261697 0.06586818 0.0597053 -0.05133209 -0.051941995 0.13196252 0.06337888
0.026327332 -0.14220849 0.002185535 0.08986862 -0.01803452 -0.0041133184 -0.058023956 -0.064177364
0.19029906 -0.04182837 -0.061696056 -0.14080264 0.017955557 0.011137579 0.12902136 0.018995836
0.08814408 -0.11864523 0.08683006 -0.18960707 0.1193109 -0.05370551 -0.057954907 0.0040656137
-0.09342231 0.115292005 0.123018265 0.06565111 -0.19300619 0.02525769 -0.046424076 0.19811082
0.024728091 -0.14250772 -0.14169331 -0.1979927 0.13284034 -0.027893001 0.117386885 0.0347678

network_body._body_endoder.seq_layers.4.bias f4 [256]
00000000: 078e 36bd 96ca ccb9 d1ee ad3c c4bb 32bd
00000010: 74b4 013d bc7a c33c 7d13 1e3d 1fbd d43a
00000020: aebb 753d 260f 113d 941f c93d f558 f23c
00000030: 85c0 45bd ddd3 6d3c 0d86 623d bcec cb3d
00000040: 3aaf f03c 6c89 e33c e0d6 87bd 4b86 16bb
00000050: b75f ab3c afdf 0fbd 68d1 e2bb f68f fb3c
00000060: 18cf 843b fec2 80bc 3741 5c3d c383 7cbc
00000070: 5016 b33d a59d f0bc 26d3 c63d 3665 5b3d
00000080: b193 3a3d 450f 6d3d 4fe6 08bc fc19 863d
00000090: fede 06bd d2af 443d 385e 803d 236f 163d
000000a0: e0e6 743c 530b 33bd 87c6 833b 26a0 983d
000000b0: 2b53 2a3d f2c0 883d f8d6 c63c 3c37 73bb
000000c0: 3305 a33d ee28 5db7 9940 63bd c504 583d
000000d0: 1bae bebc 57ea 893c 6b48 33ba 330a 913d
000000e0: 0eee 903d 213f 98b9 4403 34bd b02a 0c3d
000000f0: 99fe 4c3d 5507 653d 613a 7b3b e60d 0b3d
00000100: 5398 f33c a704 60bb bcba 423d 5e6b 31bd
00000110: 0ee3 223d 9873 e3bc 7bef 1dbb 678c abbc
00000120: 82b7 873d 635c a33d 83c5 01bd 4b96 ce3c
00000130: 42e6 253d 7461 93bc f1da 02bd c8e2 9c3d
00000140: 7554 eebc 33c4 363d 4164 18bc 1bed 2e3d
00000150: c0a0 8abb e193 0b3d ab37 523d f9c6 27bd
00000160: da72 983c 96a2 a7bc 6b04 203d 178f 733d
00000170: c2c5 843d d6c6 15bd 21c3 f3bc 2edb 103d
00000180: da57 46bd e3c3 de3c a09f be3c 13a8 363c
00000190: bb05 adbc 94b0 833d 5da4 d43c c5a6 d9bc
000001a0: 0dbc b73c 25eb 6c3d d8d0 cdbc 82b0 273d
000001b0: f24d 203d cbf9 08bd e275 87bd 936b 4a3c
000001c0: fcfc 3abd a5d7 95bc afb0 663d 1b65 113d
000001d0: 71b1 a5bd a5db f1bc f63b 093d 2062 47bb
000001e0: dd74 4d3d ec79 82bc ef85 703d 5d55 14bd
000001f0: 282d ef3c 1460 9dbc 7133 42bd b2e6 e63c
00000200: 4cf9 03bd 4471 f03c 29a3 a93c 67ec d93c
00000210: b60e 7abc fd1d 97bc a5c8 43bd 6b9c 1bbd
00000220: f03d 1abc 5219 1ebd 013e 52bd 5a7e 023d
00000230: 5e77 983c 8158 e5bb 6f21 aebd d6c7 f3bc
00000240: 8903 98bc 46b8 313d 6770 67bc 30a2 edbb
00000250: 8f35 5b3d faa9 dd3c 8125 6b3d 0868 733d
00000260: 31ae b53b 6838 98bc c945 6bbd 6bc7 7fbd
00000270: 88c1 ed3c 5565 973d 48b9 a0bc d4eb eb3c
00000280: 0235 cd3d 8eda 5dbd e914 8abd b062 f7bc
00000290: 4779 eabb bc02 ae3d 4976 52bd dadd 183d
000002a0: 339c 7ebb 4f39 e6bc ec23 853d bcf9 353d
000002b0: b347 90ba bb54 963d 35ab 6f3d 62af 123d
000002c0: fd9c 773d 9cd8 cbbc b985 403c 5524 4dbd
000002d0: 923c 3c3d 0577 08bd 2143 463c 7cdb 863d
000002e0: c330 7d3d 2c24 413d 7c12 f13c 92da 183c
000002f0: a2b1 52bd 9c20 413c 99c9 ac3c bffc ce3d
00000300: 5d38 13bc e678 833d 056b ef3c c391 c63c
00000310: 66e1 06bd 1c48 bcba 6959 e63c f80a f2ba
00000320: 19c6 0abc 4f19 9dbb 4df3 79ba 5cf3 d63d
00000330: bf8a fe3c f2ad 513d d12f 34bd 19e6 763d
00000340: 869c 413d b055 e83a 2b98 17bd f27d 1f3d
00000350: 8561 af3c b8e0 8d3d 988b 633d 1b46 433d
00000360: ca49 7d3d cdeb 11bd 2f90 0f3d 4247 c13d
00000370: f82d b43d f4da 773c 0358 ab3d 6dd3 f03b
00000380: ebe3 14bd 9fec 0dbc 74c3 973d 1165 2b3d
00000390: 276d 5bbc 35c2 f83c 31b7 0c3b 064a 9b3b
000003a0: dcfc 4d3b b4c2 be3c 4d4d d63c c296 9cbc
000003b0: 8bbd b33d 6464 f7bc 240e 2f3d e93c 2c3c
000003c0: de54 133d 85d1 0b3d ff48 073d 1794 fabc
000003d0: 8c33 433d 8bcb 97b8 f183 013d 6dcd 633d
000003e0: 8ee6 2ebd c647 9ebd 8498 b93b ba5f 1e3d
000003f0: f346 8e3d 6916 e4ba 0322 943d ec5a 70bb
-0.04456904 -0.0003906085 0.02123204 -0.0436361 0.031666234 0.023862235 0.038592804 0.0016230679
0.05999344 0.035414837 0.09820476 0.029583434 -0.048279304 0.014515844 0.055303622 0.09957263
0.02938043 0.027775489 -0.06632781 -0.0022968228 0.020919664 -0.03512543 -0.006921936 0.030708294
0.004053008 -0.01571798 0.05377313 -0.015412274 0.0874449 -0.029372046 0.09708242 0.05356332
0.045551006 0.05787589 -0.008355691 0.06547925 -0.032927506 0.048019238 0.06267971 0.036727082
0.014947623 -0.04371197 0.004021469 0.07452421 0.04158322 0.066774264 0.024272427 -0.003711178
0.07959976 -1.3182156e-05 -0.055481527 0.052738924 -0.02327638 0.016835375 -0.0006839099 0.070820235
0.07076655 -0.00029038734 -0.043948427 0.034220397 0.05004749 0.055915195 0.0038334357 0.0339488
0.02973572 -0.003418246 0.047541365 -0.043315284 0.039767317 -0.02776508 -0.002409904 -0.020940972
0.06626798 0.07976606 -0.031682502 0.02521815 0.040502794 -0.017990805 -0.03194708 0.076604426
-0.029093007 0.044620704 -0.009301246 0.04270659 -0.0042305887 0.034076575 0.05132262 -0.04096124
0.018609453 -0.02046327 0.039066713 0.059462633 0.06483032 -0.036566578 -0.02975613 0.035365276
-0.048423626 0.027193015 0.023269475 0.01114847 -0.021120897 0.06430164 0.02595728 -0.02656878
0.022428537 0.05784144 -0.025123999 0.040939815 0.039136834 -0.033441346 -0.06614281 0.012354749
-0.04565142 -0.018291304 0.056320842 0.035496812 -0.08090485 -0.02952368 0.03350445 -0.0030423477
0.050160278 -0.015927278 0.05872148 -0.03621422 0.029196337 -0.019210853 -0.04741234 0.028186176
-0.03222017 0.029350884 0.020707684 0.026601983 -0.015262296 -0.018446917 -0.04779877 -0.03799097
-0.009414181 -0.038598366 -0.051328663 0.03185878 0.018611606 -0.006999076 -0.08502471 -0.029758375
-0.018556373 0.043388627 -0.01412592 -0.0072520003 0.053517874 0.02705859 0.057408813 0.059425384
0.005544447 -0.018581584 -0.0574396 -0.06244604 0.029022947 0.073923744 -0.019619599 0.028798975
0.10019876 -0.054163508 -0.067422695 -0.030198425 -0.0071555707 0.08496615 -0.051382337 0.03732095
-0.0038850426 -0.028103499 0.06500992 0.04442762 -0.0011007696 0.0734038 0.058512885 0.03581179
0.06045245 -0.02488356 0.011750632 -0.050083477 0.0459562 -0.03331663 0.012100966 0.06584832
0.06181408 0.047153637 0.02942776 0.009329455 -0.051438935 0.01178756 0.021092223 0.10106801
-0.008985606 0.06419544 0.029225836 0.024239426 -0.0329298 -0.0014364752 0.028118806 -0.0018466404
-0.008470082 -0.004794277 -0.0009534851 0.10495636 0.031072019 0.051191278 -0.043990914 0.060278032
0.047268413 0.0017725732 -0.037010353 0.03893847 0.021408806 0.06927627 0.05555305 0.04767428
0.06183795 -0.035625268 0.035049614 0.094374195 0.0879783 0.015127886 0.08366396 0.0073494227
-0.036350172 -0.008662372 0.074103266 0.04184443 -0.013392723 0.030366043 0.0021471495 0.004739049
0.0031431234 0.023286201 0.026159907 -0.019114856 0.08776387 -0.030199237 0.042738095 0.010512569
0.035969608 0.03413536 0.0330286 -0.030588193 0.04765658 -7.238154e-05 0.03161997 0.05561583
-0.042700343 -0.077285334 0.005663933 0.03866551 0.06947126 -0.0017401698 0.0723305 -0.0036675287

action_model._continuous_distribution.log_sigma f4 [1, 39]
00000000: b5ec f8be 7e94 41bf 4480 54be 091c fa3b
00000010: 4aec 67be c96a 3abe b34b 13c0 7879 adbf
00000020: c3d8 02c0 502a a6bf 99a5 a2bf 2594 b0bf
00000030: 6f34 cabd 1f2a dfbd 5c95 73bd 1420 74bb
00000040: 3af0 0bbe 25de 893e 2b5b e3bf caf8 e4bf
00000050: 08ca dabf 82fe f2bf b911 88bf f539 7dbf
00000060: c782 72be 3450 5bbe c191 43be 8e47 6f3c
00000070: 7775 063d f584 07be 2d73 a73c cfc4 b5bc
00000080: 59c8 cdbd 7f2b f63d 73cb e73d 7625 263d
00000090: c8d9 393e 4998 243e c4ee bd3c
-0.48618093 -0.75617206 -0.20752054 0.0076327366 -0.22648731 -0.18204798 -2.3014953 -1.3552694
-2.04448 -1.2981663 -1.2706786 -1.379521 -0.09873282 -0.10896706 -0.059468612 -0.0037250565
-0.13665858 0.26927295 -1.7762197 -1.7888424 -1.7092905 -1.898392 -1.0630409 -0.9891656
-0.236827 -0.21417314 -0.1909857 0.014604462 0.032826867 -0.13234313 0.020440662 -0.022188572
-0.10047979 0.12020015 0.11318102 0.04056307 0.18149483 0.16073717 0.023185141
