Assets/Brains/AdrianTests/AdrianColTest4/Zombie Walker/Zombie Walker-499978.onnx (onnx, 280597 bytes, 9 tensors)

network_body._body_endoder.seq_layers.0.weight f4 [128, 239]
-0.10171159 -0.014788981 0.073888294 0.013428709 -0.05513734 -0.20015821 0.006525589 0.013962418
-0.016724205 -0.017578097 0.08401135 -0.05309168 -0.123599075 -0.012104436 -0.05783042 0.021926753
-0.02628953 -0.031589404 0.03881579 -0.24595515 -0.044945505 0.047399435 0.02472486 -0.083015144
0.049714044 0.17033103 -0.04147483 -0.026083121 0.016333397 -0.19217375 -0.12349672 -0.03919456
0.022877904 -0.06358899 0.06679932 0.22925153 0.10598078 0.04952821 0.054440532 0.018307101
0.13811444 0.053488206 0.053595364 -0.07472202 0.0044919043 -0.009519621 0.07193987 0.13852517
-0.025103718 0.089462824 0.05854472 -0.07280884 -0.012574101 0.08873232 0.1089164 0.18658207
0.057764683 -0.09151561 -0.068460636 0.038245212 -0.07417655 -0.04962877 -0.07974075 -0.027420074
-0.1002835 0.10431455 -0.20181337 0.0507279 -0.015888173 0.103429355 0.1799502 -0.007055738
-0.15568942 -0.037500266 0.02208237 0.14958279 -0.028863387 -0.08185083 0.047395237 -0.06705154
0.078533575 0.007439009 0.069458246 -0.10792854 0.00979841 0.049688634 0.06371887 0.18299878
0.016360734 -0.17394064 -0.073617145 0.02342052 0.058385734 -0.021757247 -0.13487758 -0.07145504
0.10277907 0.08734339 -0.03343695 0.013174788 0.03740866 -0.02084304 0.08742037 -0.06973071
-0.048193663 -0.22311051 0.036564603 -0.07360452 -0.099049605 0.24589784 -0.059252262 -0.27173725
-0.05074644 0.023988424 -0.14550748 0.07480422 0.0790377 0.039378766 -0.19717167 -0.13334481
-0.031837266 -0.03681193 -0.123462684 -0.10023434 -0.07457117 0.05298815 -0.088904604 -0.0038994867
-0.007055756 0.085039295 -0.030305516 0.17260362 -0.09097435 0.00010778604 -0.055134416 -0.17491557
-0.011123536 -0.0523742 -0.017765492 0.038926184 0.25412655 0.09410404 0.12717345 -0.003276655
0.06151814 0.030211253 0.19194676 -0.0811306 -0.009924429 -0.058518223 -0.112741284 -0.04188254
0.09463073 -0.16380972 0.028718632 0.12170772 -0.17624083 -0.13083151 0.007064719 0.09514886
0.05887593 0.2259486 0.09949677 -0.17135754 0.21513148 0.017974665 -0.023500012 0.046669215
-0.025431145 -0.03548154 0.17214778 -0.034789007 -0.07061466 0.105029054 -0.0090342015 0.1606532
0.17324993 -0.10942284 0.06929171 0.06691139 0.05006952 -0.045824785 0.020671073 0.028479464
0.02153054 -0.15750022 0.015939841 0.007450015 -0.026304439 0.13601373 0.17354007 0.086912364
-0.055431858 -0.057618525 0.06696889 -0.14511651 -0.23515056 -0.1281299 0.04617956 0.08176922
0.025314717 -0.0925277 0.19137587 -0.07499834 -0.24899054 -0.06150269 0.13246253 0.023690056
-0.08192284 -0.11107853 0.020218875 0.015258404 0.17493255 -0.09650538 0.03883219 -0.010106561
-0.02283411 0.13620111 -0.07263889 -0.14292206 -0.07712702 -0.035347626 -0.07765747 -0.15794225
-0.21989559 0.09018219 -0.016610948 -0.041001312 0.026550628 -0.076569274 -0.08883209 -0.3403329
-0.027518509 -0.100281656 -0.20243324 0.048720453 -0.108328365 -0.12390578 -0.033242196 -0.04352122
0.05750717 0.08338664 -0.007460806 0.029050263 0.0068375375 9.562085e-05 0.07680051 0.02380169
0.0135252215 0.15422907 0.01646861 0.092176795 -0.0938865 -0.03882364 -0.28616166 0.1559581
00000000: 2b4e d0bd 7b4d 72bc bf52 973d 1604 5c3c
00000010: b1d7 61bd 46f6 4cbe 9cd4 d53b a0c2 643c
00000020: 3301 89bc f1ff 8fbc 250e ac3d a976 59bd
00000030: 8321 fdbd af51 46bc 97df 6cbd bc9f b33c
00000040: 245d d7bc e463 01bd 4efd 1e3d abdb 7bbe
00000050: c718 38bd e925 423d ca8b ca3c d803 aabd
00000060: f4a0 4b3d 426b 2e3e 83e1 29bd 45ac d5bc
00000070: 9ecd 853c 32c9 44be d9eb fcbd 7a8a 20bd
00000080: 716a bb3c f23a 82bd 15ce 883d eac0 6a3e
00000090: 740c d93d 18de 4a3d 09fd 5e3d c6f8 953c
000000a0: df6d 0d3e 7316 5b3d d086 5b3d dc07 99bd
000000b0: d330 933b 2ff8 1bbc 3655 933d 8bd9 0d3e
000000c0: 50a6 cdbc 4938 b73d 97cc 6f3d cd1c 95bd
000000d0: 9a03 4ebc 4ab9 b53d 900f df3d 5f0f 3f3e
000000e0: a99a 6c3d 896c bbbd 1735 8cbd 03a7 1c3d
000000f0: e0e9 97bd 8a47 4bbd 1e4f a3bd 10a0 e0bc
00000100: 7061 cdbd dea2 d53d 2aa8 4ebe 0fc8 4f3d
00000110: ea27 82bc c5d2 d33d dd44 383e d233 e7bb
00000120: 0c6d 1fbe e199 19bd 16e6 b43c 3b2c 193e
00000130: e972 ecbc 68a1 a7bd 8221 423d 5152 89bd
00000140: 36d6 a03d eec2 f33b 2040 8e3d a309 ddbd
00000150: 8389 203c 4f86 4b3d 0a7f 823d 0864 3b3e
00000160: f206 863c 7f1d 32be 96c4 96bd 64dc bf3c
00000170: e125 6f3d 413c b2bc 591d 0abe 0557 92bd
00000180: d57d d23d 17e1 b23d 2ff5 08bd 11db 573c
00000190: d339 193d 06bf aabc 7309 b33d f9ce 8ebd
000001a0: b866 45bd 1577 64be c4c4 153d f7bd 96bd
000001b0: 85da cabd a5cc 7b3e 80b2 72bd 2521 8bbe
000001c0: 80db 4fbd 5f83 c43c eaff 14be f432 993d
000001d0: 85de a13d a14b 213d 5fe7 49be 8b8b 08be
000001e0: cb67 02bd 1bc8 16bd 01da fcbd a947 cdbd
000001f0: c5b8 98bd 1a0a 593d 9e13 b6bd 888e 7fbb
00000200: f933 e7bb 1529 ae3d 4643 f8bc 01bf 303e
00000210: c350 babd 310b e238 a0d4 61bd 111d 33be
00000220: 7e3f 36bc 5486 56bd f088 91bc 1071 1f3d
00000230: e01c 823e 9eb9 c03d c239 023e 26bd 56bb
00000240: 72fa 7b3d 977d f73c b18d 443e cd27 a6bd
00000250: 129a 22bc ceb0 6fbd e7e4 e6bd 078d 2bbd
00000260: c2cd c13d bcbd 27be 5643 eb3c e641 f93d
00000270: 7a78 34be b2f8 05be 297f e73b 68dd c23d
00000280: e327 713d 125f 673e f6c4 cb3d 5a78 2fbe
00000290: 6d4b 5c3e 9b3f 933c 1983 c0bc 3828 3f3d
000002a0: fa54 d0bc 1755 11bd 8247 303e eb7e 0ebd
000002b0: 6b9e 90bd 7919 d73d 3004 14bc 4682 243e
000002c0: 6e68 313e 1519 e0bd d0e8 8d3d d708 893d
000002d0: b215 4d3d c5b2 3bbd 6256 a93c c44d e93c
000002e0: d160 b03c bd47 21be 4594 823c 411f f43b
000002f0: 687c d7bc 2f47 0b3e 7db4 313e 1cff b13d
00000300: 840c 63bd 6701 6cbd fc26 893d 6c99 14be
00000310: 4fcb 70be 7c34 03be c726 3d3d 9f76 a73d
00000320: cf60 cf3c 2a7f bdbd 09f8 433e bb98 99bd
00000330: 60f7 7ebe 3fea 7bbd 42a4 073e a611 c23c
00000340: 29c7 a7bd 247d e3bd 0ea2 a53c 63fe 793c
00000350: 8521 333e 9da4 c5bd 810e 1f3d fd95 25bc
00000360: 990e bbbc 4e78 0b3e b3c3 94bd 295a 12be
00000370: c5f4 9dbd acc8 10bd e10a 9fbd 9dbb 21be
00000380: 4f2c 61be 71b1 b83d af13 88bc fef0 27bd
00000390: b480 d93c 5ad0 9cbd 99ed b5bd 1d40 aebe
000003a0: 7f6e e1bc 7860 cdbd a94a 4fbe 198f 473d
000003b0: 43db ddbd 50c2 fdbd f828 08bd 4f43 32bd
000003c0: a38c 6b3d 9dc6 aa3d c779 f4bb d1fa ed3c
000003d0: 6c0d e03b 0e88 c838 9649 9d3d c3fb c23c
000003e0: e498 5d3c 3aee 1d3e 2ee9 863c 30c7 bc3d
000003f0: 9147 c0bd 8a05 1fbd c883 92be 7bb3 1f3e

network_body._body_endoder.seq_layers.0.bias f4 [128]
-0.03221658 0.01326552 -0.113091245 -0.035454087 -0.040495794 -0.051117666 -0.05997981 -0.05346083
0.0849997 -0.048047278 0.015746484 -0.03137896 -0.03589091 -0.062287074 -0.0029556889 -0.01308199
-0.07546328 0.0019646867 -0.028347388 -0.02214689 0.025524946 -0.0077573946 -0.101843216 -0.03728451
-0.026629051 -0.069502234 0.008034934 -0.07485264 0.013996272 -0.02599576 -0.09291253 -0.07070187
-0.008889726 -0.007582829 0.017721517 -0.025124997 -0.031590994 0.01487126 0.05316289 -0.0833634
-0.057764716 0.0078006675 0.022590207 -0.05809676 0.02178225 -0.023431035 -0.058563884 -0.0012589853
0.011531641 0.0022676596 0.09063867 -0.008108241 0.019545909 -0.0035861635 -0.046116192 -0.026580088
-0.020415517 -0.052831683 -0.07344168 -0.037291434 -0.061045844 0.005624369 -0.14223522 -0.009379429
-0.06098393 -0.07890381 -0.021731563 -0.02871512 -0.07138359 -0.011392865 -1.4099347e-05 -0.08308842
-0.11071428 -0.09240267 -0.067565486 -0.050506968 -0.059991553 -0.09080986 -0.08664305 -0.00461209
0.0025359194 -0.1296931 -0.02327729 -0.022564292 0.012831441 -0.017973732 -0.02627473 -0.03827599
-0.07641991 -0.12910672 -0.04785346 -0.036856174 -0.0679231 -0.025199788 -0.073323004 -0.028330699
-0.008877337 -0.0053418917 -0.015066954 0.014336907 0.062141046 -0.008597122 -0.047684662 -0.08243309
-0.06321842 0.031653717 -0.059653644 -0.011361396 -0.022237046 -0.037693676 -0.04363228 0.047177963
-0.016703883 -0.019868696 -0.018405398 -0.00061329536 -0.020268895 -0.01030357 0.021891374 -0.056073707
-0.003939372 -0.025114087 -0.028189281 -0.07878324 -0.040175706 -0.056994528 0.01698624 -0.090006754
00000000: 88f5 03bd a057 593c 629c e7bd 4e38 11bd
00000010: ebde 25bd c260 51bd 64ad 75bd bef9 5abd
00000020: 5314 ae3d 39cd 44bd c5fe 803c 3987 00bd
00000030: 5902 13bd bb20 7fbd 3bb4 41bb d855 56bc
00000040: 7e8c 9abd f9c1 003b c838 e8bc 656d b5bc
00000050: b119 d13c be31 febb 2d93 d0bd a4b7 18bd
00000060: 2b25 dabc 3057 8ebd f5a4 033c 574c 99bd
00000070: 9f50 653c 0ff5 d4bc ed48 bebd 24cc 90bd
00000080: 37a6 11bc 6179 f8bb b72c 913c f0d2 cdbc
00000090: 8f65 01bd 96a6 733c 55c1 593d 6eba aabd
000000a0: b29a 6cbd be9c ff3b 190f b93c def6 6dbd
000000b0: b070 b23c 71f2 bfbc afe0 6fbd 8904 a5ba
000000c0: 35ef 3c3c 049d 143b c4a0 b93d 6dd8 04bc
000000d0: be1e a03c d705 6bbb 55e4 3cbd 7cbe d9bc
000000e0: 713e a7bc 0966 58bd 9768 96bd e7be 18bd
000000f0: 350b 7abd a04c b83b 1ca6 11be 2dac 19bc
00000100: 49ca 79bd 5298 a1bd 6406 b2bc f93b ebbc
00000110: 8f31 92bd 24a9 3abc 3c8c 6cb7 432a aabd
00000120: 2bbe e2bd 9c3d bdbd c65f 8abd 65e0 4ebd
00000130: b4b9 75bd 85fa b9bd e971 b1bd 0421 97bb
00000140: ab31 263b 45ce 04be 04b0 bebc c0d8 b8bc
00000150: f73a 523c a63d 93bc 1a3e d7bc 49c7 1cbd
00000160: 0b82 9cbd 8d34 04be fd01 44bd 80f6 16bd
00000170: 441b 8bbd c96f cebc 5f2a 96bd c815 e8bc
00000180: 4072 11bc 090b afbb 63db 76bc 59e5 6a3c
00000190: 9c87 7e3d f1da 0cbc fe50 43bd aed2 a8bd
000001a0: a978 81bd 54a7 013d 6157 74bd 2625 3abc
000001b0: 772a b6bc af64 1abd c3b7 32bd ae3d 413d
000001c0: 95d6 88bc adc3 a2bc ebc6 96bc 8ec5 20ba
000001d0: f40a a6bc 4ed0 28bc 8a55 b33c 8bad 65bd
000001e0: d915 81bb 0fbc cdbc 35ed e6bc 1b59 a1bd
000001f0: 488f 24bd 1873 69bd ba26 8b3c 7655 b8bd

network_body._body_endoder.seq_layers.2.weight f4 [128, 128]
-0.20173505 -0.10507754 -0.10242692 -0.02645558 -0.25141457 -0.10583856 0.15963614 -0.064683706
-0.16904439 -0.12894818 0.03110143 -0.23452945 0.14631683 -0.16151157 -0.2020027 -0.20967819
-0.034294114 0.08018995 -0.31276605 -0.27913806 -0.15446973 -0.20552246 -0.19627331 0.07381957
-0.08621964 0.01590289 -0.17521854 -0.011067288 0.0016338144 0.008664752 -0.034182996 -0.12404242
-0.020614408 -0.1860323 0.18122886 0.0751474 -0.06804326 0.33320698 -0.05175584 -0.019455297
-0.16500817 0.0387833 0.026329331 -0.16755904 0.011622069 0.24469635 -0.17528103 0.10600785
-0.0039433907 -0.20530178 -0.013239265 0.18486245 -0.23537265 0.16460443 0.16119945 -0.20151083
0.24545187 0.09583148 -0.08843372 -0.06418421 0.020298304 0.091592915 -0.12537564 -0.053364083
-0.090000264 0.05334199 -0.12600553 -0.15723687 -0.077267304 0.17937526 -0.090776995 0.05518232
-0.11228426 0.04764416 -0.13038544 -0.09483582 0.20245223 -0.2081984 -0.23369597 0.056842927
0.1477396 0.086234696 -0.043240394 -0.023190452 0.05537565 0.06676817 0.07272506 -0.16449627
-0.056836043 0.01955498 0.04030071 0.06805191 -0.20107058 0.012688417 -0.034642816 -0.019720135
-0.060053676 0.060848124 0.14894235 0.1904914 0.050232403 0.010937705 0.064150564 0.0050117415
-0.09078486 0.0016389587 0.25774658 0.042881627 0.16017316 -0.045288906 -0.021812836 -0.0054023294
-0.08411987 -0.3263514 0.048626624 -0.2964098 0.11365758 0.20518564 0.00063761487 -0.0693609
-0.15333636 -0.12877312 0.13848187 -0.05675941 0.080785885 -0.08565039 -0.064338885 -0.031033972
-0.1156284 -0.09550365 0.10744194 -0.10496517 -0.14528465 0.3872206 0.117631815 0.12275714
-0.14895919 -0.10639379 0.026437962 0.01744276 0.34135547 -0.05434115 -0.09622122 0.10274913
0.06789749 -0.113614425 -0.039289154 -0.03252186 0.019090788 -0.28228772 -0.024591008 0.010584553
0.009700428 0.01795964 -0.24693048 0.17564821 -0.05603479 0.18313608 0.018833388 -0.08062728
0.024860658 -0.037257556 0.14563935 -0.1033573 -0.04881203 0.0049485317 -0.100095265 -0.18668458
-0.0034328855 -0.1440352 -0.06399664 0.044884317 -0.05575297 0.06000483 0.15376554 -0.09703687
0.039844185 -0.15719613 -0.25634363 0.017012695 -0.043404873 0.12757781 -0.08449467 -0.0804475
-0.2940264 0.031391867 -0.031688698 0.12096165 -0.16546358 -0.21749474 -0.13872918 0.047501832
0.034538712 -0.05548624 0.033630434 -0.15917134 -0.007537777 -0.03806283 0.07854796 0.027309576
0.09148664 0.032445192 -0.08196869 0.023364473 0.15420002 0.16778366 0.1168224 -0.24269198
-0.019705273 -0.097162634 0.013067311 -0.082891375 -0.079774305 -0.037275366 0.06550381 0.024902942
0.035419278 0.23902227 0.13025078 -0.21528982 0.03523986 -0.27527267 0.027057085 -0.12471368
-0.12421739 -0.1938444 -0.1799118 -0.33308885 0.025584685 -0.22363955 -0.04004507 0.005421681
0.14574401 -0.20372032 0.2297557 -0.06706882 -0.17889616 0.021590402 -0.08390415 -0.18597905
-0.07016637 0.023636552 0.0027601689 -0.1550769 0.012058588 0.06600445 -0.00093384204 0.106172204
0.008120469 0.07514712 -0.06072634 0.0052607474 -0.092153475 0.017801348 -0.3364926 0.079883106
00000000: a293 4ebe e532 d7bd 34c5 d1bd 5fb9 d8bc
00000010: 69b9 80be e3c1 d8bd a877 233e e478 84bd
00000020: f919 2dbe fe0a 04be 6dc8 fe3c 7d28 70be
00000030: 14d4 153e 4a63 25be ccd9 4ebe e1b5 56be
00000040: fc77 0cbd a13a a43d df22 a0be 2feb 8ebe
00000050: 502d 1ebe 7b74 52be dffb 48be b72e 973d
00000060: ec93 b0bd c746 823c 7d6c 33be 9253 35bc
00000070: b725 d63a 9bf6 0d3c 7803 0cbd f409 febd
00000080: 8cdf a8bc 407f 3ebe 0f94 393e e1e6 993d
00000090: 445a 8bbd 1b9a aa3e effd 53bd b760 9fbc
000000a0: e7f7 28be 3ddb 1e3d 9cb0 d73c 9994 2bbe
000000b0: 7e6a 3e3c ae91 7a3e df7c 33be a51a d93d
000000c0: 8f37 81bb a13a 52be 81e9 58bc 954c 3d3e
000000d0: 8705 71be 108e 283e 7811 253e db58 4ebe
000000e0: bc57 7b3e 4c43 c43d bd1c b5bd 0373 83bd
000000f0: a148 a63c 1195 bb3d 7962 00be 4c94 5abd
00000100: 0f52 b8bd 217d 5a3d 9807 01be b402 21be
00000110: 523e 9ebd 26ae 373e 4ae9 b9bd db06 623d
00000120: 4af5 e5bd 8626 433d c383 05be 4839 c2bd
00000130: a34f 4f3e f631 55be ff4d 6fbe 21d4 683d
00000140: 0d49 173e d19b b03d d71c 31bd e7f9 bdbc
00000150: 94d1 623d c0bd 883d e0f0 943d b671 28be
00000160: e9cc 68bd c431 a03c 5b12 253d cd5e 8b3d
00000170: 72e5 4dbe 14e3 4f3c a0e5 0dbd 1f8c a1bc
00000180: d8fa 75bd e23b 793d 5884 183e 2d10 433e
00000190: 7ec0 4d3d 0f34 333c 5f61 833d 8939 a43b
000001a0: 6aed b9bd 54d2 d63a 5cf7 833e a5a4 2f3d
000001b0: 6f04 243e dc80 39bd d5b0 b2bc 0606 b1bb
000001c0: 0a47 acbd 8817 a7be b62c 473d 06c3 97be
000001d0: 4ec5 e83d 2f1c 523e 9c25 273a 160d 8ebd
000001e0: 3504 1dbe 1add 03be 31ce 0d3e 8e7c 68bd
000001f0: 1273 a53d 7969 afbd 1bc4 83bd f53a febc
00000200: 95ce ecbd 6b97 c3bd 850a dc3d fbf7 d6bd
00000210: 80c5 14be c741 c63e f3e8 f03d 1868 fb3d
00000220: c288 18be fde4 d9bd 6d94 d83c 1ee4 8e3c
00000230: 25c6 ae3e d394 5ebd a20f c5bd 236e d23d
00000240: d70d 8b3d aeae e8bd aaed 20bd a435 05bd
00000250: 4964 9c3c 0488 90be 1573 c9bc d56a 2d3c
00000260: 8bee 1e3c 1820 933c 58db 7cbe 20dd 333e
00000270: bc84 65bd 0688 3b3e 7a48 9a3c ea1f a5bd
00000280: 94a8 cb3c 619b 18bd 7b22 153e feac d3bd
00000290: 20ef 47bd 4b27 a23b bffe ccbd 3e2a 3fbe
000002a0: 43fa 60bb f77d 13be ac10 83bd 9ed8 373d
000002b0: 3a5d 64bd a0c7 753d b774 1d3e 44bb c6bd
000002c0: a833 233d 06f8 20be 793f 83be 355e 8b3c
000002d0: 4fc9 31bd c2a3 023e 8b0b adbd a9c1 a4bd
000002e0: a18a 96be c294 003d 02cc 01bd beba f73d
000002f0: 496f 29be f1b6 5ebe 060f 0ebe 4891 423d
00000300: 7778 0d3d 8a45 63bd 11c0 093d d0fd 22be
00000310: 75ff f6bb c5e7 1bbd c1dd a03d 55b8 df3c
00000320: 595d bb3d 40e5 043d 33df a7bd da66 bf3c
00000330: 9ce6 1d3e 7bcf 2b3e 9540 ef3d 3f84 78be
00000340: f46c a1bc 34fd c6bd 4618 563c f4c2 a9bd
00000350: b660 a3bd 0eae 18bd dd26 863d 4101 cc3c
00000360: ce13 113d 41c2 743e 7660 053e ef74 5cbe
00000370: ac57 103d 8af0 8cbe d2a6 dd3c e369 ffbd
00000380: b065 febd 257f 46be cd3a 38be 9f8a aabe
00000390: f996 d13c c401 65be 4d06 24bd 5ba8 b13b
000003a0: eb3d 153e 0f9c 50be 1445 6b3e 615b 89bd
000003b0: 8e30 37be 5bde b03c f0d5 abbd 4b71 3ebe
000003c0: 63b3 8fbd 71a1 c13c f3e3 343b 7bcc 1ebe
000003d0: 6291 453c 572d 873d 14cd 74ba d070 d93d
000003e0: b70b 053c bce6 993d 2fbc 78bd 5962 ac3b
000003f0: f6ba bcbd 22d4 913c c248 acbe c199 a33d

network_body._body_endoder.seq_layers.2.bias f4 [128]
0.06067558 -0.00017075558 -0.0012913501 -0.031725023 0.016772447 0.01567081 0.013372903 -0.008075245
-0.026494661 -0.036439296 -0.007070269 0.030022541 -0.11632889 -0.012639829 -0.09374328 -0.0077885585
0.10560682 0.034951627 0.13196367 -0.007550605 0.069619104 0.016519459 -0.036762778 -0.04037665
-0.07961544 0.023781922 -0.026694102 0.05399576 -0.017067922 0.031932864 -0.08915913 0.01708676
-0.0012988854 0.036564156 -0.009466977 -0.11793342 0.06702574 -0.0046894867 -0.021612464 -0.0405357
0.03766312 -0.0128532415 -0.06331608 0.0010007296 -0.12478939 0.02181003 -0.031035965 0.033076797
-0.07588761 -0.02103492 0.01987625 -0.052067734 0.053357303 -0.0040357322 -0.05314999 -0.0096635185
-0.013116936 -0.013801814 -0.11424888 -0.07714585 -0.016802378 0.050856218 0.02850252 0.01680433
0.08742959 0.02743783 -0.08465737 0.029442148 0.018885834 -0.0815661 -0.010846392 0.06960938
-0.023586206 -0.024272403 -0.039434776 0.028658072 0.088892445 -0.008699594 0.088212274 0.03501795
-0.04360647 0.012328886 -0.028985057 -0.10296844 -0.0054330034 7.5380813e-06 -0.06613689 -0.049546633
-0.013660889 -0.09741141 0.09640533 0.10893473 0.085769504 0.044277396 -0.018739438 0.06844181
-0.033153128 -0.09613857 -0.014223528 -0.006046051 -0.05846211 -0.03402846 -0.0733952 0.04809269
-0.001727627 -0.03008666 -0.07412986 0.009152291 -0.04471565 -0.06907303 -0.022740852 -0.08410703
0.08022207 0.014344824 -0.120744154 0.09470067 -0.012652331 -0.08536542 -0.09955544 0.05748287
-0.052871834 0.01310534 0.012866896 -0.017130021 0.034176435 0.013727436 0.054245964 0.10363118
00000000: f586 783d da0c 33b9 8542 a9ba 19f2 01bd
00000010: 5f66 893c 1260 803c 051a 5b3c 084e 04bc
00000020: 550b d9bc 5f41 15bd b7ad e7bb d5f1 f53c
00000030: d73d eebd 4917 4fbc 7afc bfbd 2a37 ffbb
00000040: 6348 d83d 7029 0f3d 7c21 073e 116b f7bb
00000050: 7694 8e3d d153 873c 9194 16bd fc61 25bd
00000060: 6b0d a3bd 4ed2 c23c 97ad dabc a82a 5d3d
00000070: 07d2 8bbc 09cc 023d 1099 b6bd 88f9 8b3c
00000080: 5d3f aaba 4cc4 153d 611b 1bbc 1487 f1bd
00000090: cb44 893d 44aa 99bb 9f0c b1bc c308 26bd
000000a0: a544 1a3d 6796 52bc dcab 81bd ea2a 833a
000000b0: 9491 ffbd f3aa b23c 233f febc 897b 073d
000000c0: f76a 9bbd 6d51 acbc 84d3 a23c fa44 55bd
000000d0: 308d 5a3d 2d3e 84bb ceb3 59bd bc53 1ebc
000000e0: 6be8 56bc 0121 62bc 51fb e9bd a5fe 9dbd
000000f0: 24a5 89bc 9c4e 503d 1e7e e93c 3ca9 893c
00000100: 490e b33d 4dc5 e03c d860 adbd a930 f13c
00000110: 77b6 9a3c 210c a7bd 11b5 31bc 5d8f 8e3d
00000120: dc37 c1bc ebd6 c6bc 5c86 21bd 55c4 ea3c
00000130: 3e0d b63d be88 0ebc a3a8 b43d fb6e 0f3d
00000140: b39c 32bd 19ff 493c 1272 edbc 1ee1 d2bd
00000150: 5607 b2bb a0ef fc36 c772 87bd 69f1 4abd
00000160: ecd1 5fbc a27f c7bd 2870 c53d 2c19 df3d
00000170: eca7 af3d 375c 353d 7383 99bc 382b 8c3d
00000180: 93cb 07bd 4ce4 c4bd cd09 69bc f41d c6bb
00000190: f775 6fbd 6d61 0bbd 3950 96bd d7fc 443d
000001a0: 8b71 e2ba 4d78 f6bc 65d1 97bd 7ef3 153c
000001b0: c227 37bd 2976 8dbd 064b babc 4e40 acbd
000001c0: 784b a43d 8d06 6b3c b648 f7bd 6df2 c13d
000001d0: b94b 4fbc 11d4 aebd b9e3 cbbd 2873 6b3d
000001e0: 2390 58bd c8b7 563c accf 523c 4254 8cbc
000001f0: 97fc 0b3d 0ae9 603c 0431 5e3d 963c d43d

network_body._body_endoder.seq_layers.4.weight f4 [128, 128]
0.2501137 0.12638532 0.08071247 -0.09626402 -0.27777317 0.05862749 -0.07255235 0.046134684
0.12067305 -0.063975915 0.06703851 0.11539138 0.015702097 0.102856904 0.052668273 -0.0088201035
-0.068914734 0.008226829 -0.029534157 -0.08021453 -0.07913259 0.08096146 0.15016231 -0.16815956
-0.19325872 0.10449547 0.026780622 0.0054065883 0.06965756 0.041557215 -0.13011463 0.18059497
0.05421202 -0.0538488 -0.039783377 -0.052247293 0.096210696 0.054066826 0.06852715 0.1056008
-0.022754105 0.09737375 0.007987737 -0.04063993 0.0710231 -0.04444293 -0.18283112 0.011096491
-0.056411315 -0.015256255 -0.12066033 0.07170077 -0.12089456 -0.0033788085 -0.10681079 0.1802843
-0.006668678 -0.05348385 0.024535302 0.04032436 -0.14333116 0.0020629463 0.10299405 -0.045870777
0.06765016 0.017229162 -0.052636955 0.15347512 -0.03978809 0.21399441 -0.06518843 -0.18978386
-0.069448836 0.09383319 0.19855128 -0.035275634 0.07594999 -0.18527485 0.0077547007 -0.04647498
-0.18282413 -0.07558582 -0.029044285 0.09424178 -0.21827602 -0.050911825 0.008887411 0.1547174
-0.4107416 -0.063622735 -0.00084181625 -0.19574839 0.034947604 0.19158302 0.08771782 0.086015485
-0.05997201 -0.16158307 0.0003783491 -0.19000542 -0.021747703 0.04526959 -0.24338569 0.20699295
-0.14500234 0.25961617 0.122222394 -0.1931938 -0.14900059 0.10006254 0.087414384 -0.06983903
-0.083997756 -0.09372538 0.17844085 -0.114376985 -0.018828198 -0.06549081 -0.015357333 0.060721654
0.006878753 -0.13826361 -0.12150722 0.09531693 -0.25196815 -0.23113084 -0.07087904 0.010398739
-0.23636469 -0.12677644 -0.16903257 0.032731555 0.06517167 -0.1252934 -0.21955653 -0.070491806
-0.12353131 -0.104080245 -0.10877805 -0.20174314 -0.118557885 -0.07192656 -0.17831863 0.010534158
0.06322673 -0.020901104 0.20286465 -0.27443123 -0.1891092 -0.069518045 -0.08174744 0.091541484
-0.13988067 -0.082165815 -0.024586106 0.051943813 -0.01634359 0.09575415 0.024181232 -0.20094465
-0.12840718 -0.0028858336 0.005660495 -0.23727056 0.07297119 -0.21614726 0.022924673 -0.14184247
-0.19783874 0.03610373 -0.1064545 -0.060688436 0.103569694 0.22699103 -0.30236924 -0.11227772
-0.08982575 -0.14731188 0.119749375 -0.092388146 0.18348505 -0.2616677 0.08514468 0.045167018
-0.0040055513 -0.15954673 -0.15079848 -0.077917024 -0.025850492 0.11541986 0.005820267 -0.34193036
0.08362539 -0.096135676 0.10048803 -0.2764535 -0.05583121 -0.03255621 0.023837792 0.18756744
-0.101784654 -0.09187598 0.016427891 0.027859012 -0.114741296 -0.117567874 0.25463572 0.1925834
-0.31162095 -0.121196195 -0.24316205 -0.20370543 -0.21243966 -0.07338057 0.060466588 -0.06974176
-0.0868463 -0.056519054 -0.17025031 0.11559365 0.117325604 0.121037774 -0.14638504 -0.044018764
-0.03455345 -0.13880283 -0.01628549 0.15752251 -0.18626246 0.09143963 -0.018971507 0.027038136
-0.08027141 -0.02385039 -0.2410616 -0.023383312 -0.00067208806 0.014833155 0.021820316 -0.11536756
-0.1106965 -0.09445223 0.060549304 -0.37331426 -0.08094473 -0.23803215 -0.06343766 0.032745253
-0.08903683 0.06995747 -0.10822995 -0.01618617 -0.19723277 0.10469472 0.13268724 0.0976417
00000000: e70e 803e 276b 013e 944c a53d 1226 c5bd
00000010: 4938 8ebe 6123 703d 5496 94bd b9f7 3c3d
00000020: 6f23 f73d ce05 83bd 7d4b 893d 5152 ec3d
00000030: afa1 803c a4a6 d23d b0ba 573d 3282 10bc
00000040: 2b23 8dbd d2c9 063c 9ef1 f1bc 8447 a4bd
00000050: 4410 a2bd 1fcf a53d 26c4 193e 0532 2cbe
00000060: 9de5 45be b901 d63d 0963 db3c c029 b13b
00000070: 9fa8 8e3d e637 2a3d c53c 05be e3ed 383e
00000080: 6c0d 5e3d 8f90 5cbd e5f3 22bd 4201 56bd
00000090: 1d0a c53d 2d75 5d3d f657 8c3d 3b45 d83d
000000a0: d166 babc e36b c73d ffde 023c 0e76 26bd
000000b0: 8f74 913d ca09 36bd 1538 3bbe 0ece 353c
000000c0: 8d0f 67bd 5ff5 79bc c31c f7bd dad7 923d
000000d0: 9197 f7bd 006f 5dbb 9ebf dabd 739c 383e
000000e0: ed84 dabb e211 5bbd 42fe c83c 282b 253d
000000f0: 67c5 12be 7f32 073b 8bee d23d ffe2 3bbd
00000100: 2b8c 8a3d 2c24 8d3c d999 57bd 9528 1d3e
00000110: d6f8 22bd 5a21 5b3e 8381 85bd b356 42be
00000120: 313b 8ebd 9e2b c03d 0751 4b3e 2f7d 10bd
00000130: ab8b 9b3d b1b8 3dbe 251b fe3b 8c5c 3ebd
00000140: 4036 3bbe bdcc 9abd 48ee edbc d601 c13d
00000150: c083 5fbe eb88 50bd 819c 113c 3d6e 1e3e
00000160: b94c d2be a34c 82bd 55ad 5cba 4472 48be
00000170: 3825 0f3d 572e 443e 67a5 b33d e328 b03d
00000180: 36a5 75bd 0876 25be 285d c639 c890 42be
00000190: 3d28 b2bc 9b6c 393d 193a 79be f6f5 533e
000001a0: 7e7b 14be 69ec 843e bc4f fa3d 98d4 45be
000001b0: 9c93 18be 97ed cc3d 5006 b33d c407 8fbd
000001c0: 0407 acbd 18f3 bfbd 33b9 363e 7b3e eabd
000001d0: 983d 9abc 0c20 86bd 539d 7bbc 45b7 783d
000001e0: 2a67 e13b fa94 0dbe c7d8 f8bd 8635 c33d
000001f0: f801 81be 90ad 6cbe 0829 91bd 795f 2a3c
00000200: 9609 72be afd1 01be e016 2dbe 8611 063d
00000210: b978 853d ea4c 00be 6dd3 60be 025e 90bd
00000220: fcfd fcbd 0628 d5bd 07c7 debd c195 4ebe
00000230: 7ace f2bd 3b4e 93bd 2999 36be 7697 2c3c
00000240: 047d 813d cb38 abbc c0bb 4f3e 4082 8cbe
00000250: d8a5 41be 7a5f 8ebd 346b a7bd 1a7a bb3d
00000260: e13c 0fbe 8d46 a8bd cd68 c9bc 09c3 543d
00000270: fee2 85bc c01a c43d b817 c63c 6fc4 4dbe
00000280: 2c7d 03be 4120 3dbb ac7b b93b 0ef7 72be
00000290: eb71 953d b555 5dbe 86cc bb3c 273f 11be
000002a0: 3d96 4abe 81e1 133d d104 dabd 7094 78bd
000002b0: 591c d43d 5670 683e 24d0 9abe dcf1 e5bd
000002c0: 90f6 b7bd edd8 16be 293f f53d ff35 bdbd
000002d0: 81e3 3b3e 4ff9 85be 5660 ae3d 0d01 393d
000002e0: 0041 83bb 3860 23be eb6a 1abe f692 9fbd
000002f0: 69c4 d3bc 3f61 ec3d f0b7 be3b 7f11 afbe
00000300: ca43 ab3d c8e2 c4bd abcc cd3d 508b 8dbe
00000310: 44af 64bd a959 05bd 7947 c33c ae11 403e
00000320: 7974 d0bd 7929 bcbd c993 863c 9538 e43c
00000330: 7cfd eabd 6dc7 f0bd 9d5f 823e 9534 453e
00000340: c88c 9fbe b635 f8bd 79ff 78be 2898 50be
00000350: c889 59be 8d48 96bd d0ab 773d c5d4 8ebd
00000360: 79dc b1bd 8680 67bd 1956 2ebe 5dbc ec3d
00000370: 6848 f03d a7e2 f73d f6e5 15be 054d 34bd
00000380: eb87 0dbd 5422 0ebe 2669 85bc 954d 213e
00000390: 96bb 3ebe b344 bb3d 226a 9bbc 157f dd3c
000003a0: 5665 a4bd e561 c3bc dad8 76be 5c8e bfbc
000003b0: 112f 30ba c306 733c 85c0 b23c d445 ecbd
000003c0: d9b4 e2bd 2c70 c1bd 8c02 783d 0c23 bfbe
000003d0: 5ac6 a5bd b3be 73be 9beb 81bd e31f 063d
000003e0: f158 b6bd dd45 8f3d aaa7 ddbd dc98 84bc
000003f0: 63f7 49be 2f6a d63d 2adf 073e 5ff8 c73d

network_body._body_endoder.seq_layers.4.bias f4 [128]
-0.030424736 0.008673465 -0.055713337 0.01113084 -0.049523126 -0.05152934 0.06379103 0.00066066475
0.085097514 -0.010443267 0.042083807 0.03454205 0.062930256 0.08946233 -0.061205428 -0.066838466
0.054605294 -0.007157307 -0.042107448 -0.00016323816 0.0033492502 -0.058928035 -0.08094818 0.061983105
-0.069305114 0.015727807 0.001116962 0.017553583 -0.035905838 0.050376933 -0.04539297 -0.017702984
-0.02279445 0.03490647 -0.042017814 -0.01508874 0.17401206 0.038119357 0.08700882 -0.038246952
0.11379622 0.034754917 -0.10018532 0.04854629 -0.098972894 -0.002386937 -0.016353386 0.053984374
0.05040386 -0.104654655 0.024201114 -0.024124525 -0.1030265 -0.014343122 -0.031705562 0.040405095
0.032058477 -0.10160568 0.029289542 0.0018657555 -0.020088838 -0.06686118 -0.043661762 0.008174064
-0.03806488 -0.0073204283 0.004036291 0.013527952 0.02642616 0.090230696 -0.008148703 0.07446975
-0.034411304 0.08687799 0.035585407 -0.03751073 -0.041942433 -0.05469328 -0.039325424 -0.06276978
0.016404018 0.042283602 0.08555702 0.06333267 -0.041418206 0.056474123 0.025541937 -0.006592501
-0.0048956345 0.07093027 0.03379198 -0.12667097 -0.11404456 -0.0047434415 -0.032910638 0.041967124
-0.090421215 0.10593819 0.027165696 0.05665794 0.07265618 -0.027263422 -0.043914586 -0.047651142
0.09410228 -0.0036572786 -0.02773152 -0.027737875 -0.017004801 0.08671302 0.011740141 -0.046073686
0.027884392 0.06668615 -0.08516489 -0.0048601213 0.023622356 0.044494767 0.10517336 0.015722161
0.057399742 0.06351723 0.03917714 0.111696005 -0.01851263 -0.08988902 0.032961342 0.025208525
00000000: 4c3d f9bc 261b 0e3c ab33 64bd 205e 363c
00000010: c3d8 4abd 6e10 53bd dfa4 823d 7630 2d3a
00000020: 9b47 ae3d 3d1a 2bbc 1260 2c3d f77b 0d3d
00000030: 94e1 803d 0738 b73d 8bb2 7abd 9be2 88bd
00000040: cda9 5f3d d887 eabb dc78 2cbd e92a 2bb9
00000050: 187f 5b3b 865e 71bd 29c8 a5bd ffe1 7d3d
00000060: d7ef 8dbd 9ad7 803c 0767 923a 88cc 8f3c
00000070: 0012 13bd 0b58 4e3d fbed 39bd d905 91bc
00000080: 6dbb babc 16fa 0e3d df1a 2cbd c336 77bc
00000090: 3830 323e 0b23 1c3d ae31 b23d d6a8 1cbd
000000a0: fe0d e93d 2c5b 0e3d f62d cdbd 79d8 463d
000000b0: 4db2 cabd 286e 1cbb 89f7 85bc b81e 5d3d
000000c0: 4774 4e3d 2e55 d6bd 6a41 c63c cca0 c5bc
000000d0: 8fff d2bd 6aff 6abc b1dd 01bd d07f 253d
000000e0: c04f 033d a416 d0bd 9ff0 ef3c 5e8c f43a
000000f0: 5991 a4bc 84ee 88bd add6 32bd 82ec 053c
00000100: ebe9 1bbd 34e0 efbb dd42 843b 58a4 5d3c
00000110: ad7b d83c dfca b83d 2382 05bc 9983 983d
00000120: def2 0cbd 16ed b13d 01c2 113d daa4 19bd
00000130: d4cb 2bbd 1006 60bd b213 21bd 718d 80bd
00000140: b861 863c 9231 2d3d 8538 af3d 8fb4 813d
00000150: 23a6 29bd 6951 673d 533d d13c e805 d8bb
00000160: 8f6b a0bb e443 913d 7669 0a3d 09b6 01be
00000170: 3290 e9bd df6e 9bbb 4ecd 06bd b8e5 2b3d
00000180: c22e b9bd 1ff6 d83d 988a de3c 2812 683d
00000190: c3cc 943d 8a57 dfbc c8df 33bd d82d 43bd
000001a0: b2b8 c03d f4ae 6fbb 362d e3bc 8a3a e3bc
000001b0: a74d 8bbc 9996 b13d b859 403c c3b7 3cbd
000001c0: cf6d e43c c092 883d ee6a aebd a741 9fbb
000001d0: ac83 c13c 2540 363d 2165 d73d c3cb 803c
000001e0: fe1b 6b3d 5215 823d 3578 203d e0c0 e43d
000001f0: cda7 97bc bc17 b8bd 7902 073d 1c82 ce3c

action_model._continuous_distribution.log_sigma f4 [1, 39]
-0.6651269 -0.6796997 -0.5492375 -0.5588106 -0.6096633 -0.7116786 -0.6879544 -0.585587
-0.60664916 -0.5761905 -0.5255012 -0.8227873 -0.66400707 -0.53965795 -0.502987 -0.7263626
-0.7442863 -0.5202332 -0.64694506 -0.7448113 -0.6202258 -0.6609714 -0.7993695 -0.7421784
-0.65887713 -0.54374397 -0.59026647 -0.84445137 -0.46475458 -0.60555494 -0.43233323 -0.77035266
-0.70610464 -0.7873577 -0.6822322 -0.75457096 -0.4730595 -0.6824423 -0.8285023
00000000: c245 2abf cd00 2ebf d49a 0cbf 360e 0fbf
00000010: e512 1cbf 9230 36bf c81d 30bf 08e9 15bf
00000020: 5c4d 1bbf 3881 13bf 3f87 06bf 30a2 52bf
00000030: 5efc 29bf 0627 0abf c2c3 00bf e6f2 39bf
00000040: 8c89 3ebf 012e 05bf 319e 25bf f4ab 3ebf
00000050: 1ec7 1ebf 6c35 29bf 7ba3 4cbf 67ff 3dbf
00000060: 2cac 28bf ce32 0bbf b41b 17bf f72d 58bf
00000070: 50f4 edbe a605 1bbf c85a ddbe d535 45bf
00000080: 46c3 34bf 4690 49bf c5a6 2ebf 902b 41bf
00000090: db34 f2be 8ab4 2ebf ba18 54bf

action_model._continuous_distribution.mu.weight f4 [39, 128]
-0.043505874 0.096859634 0.019440241 0.06986159 -0.0075521227 -0.104402624 -0.011779612 0.09750773
-0.06936476 0.04982599 0.11289012 -0.06511576 0.089655355 -0.1160467 -0.105403885 0.05596387
-0.12227911 0.09846786 -0.07532612 -0.066242576 0.14993767 -0.04578218 -0.057708822 -0.11294002
-0.1814239 -0.08381615 0.034684233 0.06187627 0.048892383 0.033907972 0.1242943 -0.021978684
0.13901642 -0.11516614 -0.039977536 -0.052069444 0.17871277 -0.016665328 0.12923154 0.02972482
-0.02368411 -0.11776238 -0.033102885 -0.22148181 0.033865083 0.07219336 -0.021863393 0.042767815
-0.057794794 -0.06561974 0.10660715 0.087924436 -0.023582362 0.16878586 0.053914987 0.07217733
0.15300372 -0.014534336 0.071181044 0.0026352773 0.11064227 0.029592903 -0.047314335 -0.01262783
0.031211428 -0.02248229 -0.0037162213 0.030777413 -0.08066837 0.051231895 -0.089934155 -0.19588706
-0.11531509 0.07809271 -0.063155025 -0.14236502 -0.009095972 0.0050472533 -0.07567812 -0.049573682
-0.07294221 -0.062201064 -0.062042255 -0.009277599 -0.019456683 -0.023926292 0.03762992 0.082204536
-0.06813232 -0.103520826 0.0048962305 -0.05206181 -0.01356112 0.13252003 0.19972278 -0.0897816
-0.022240086 0.016219953 -0.08566757 -0.20505676 0.088068314 0.1919969 0.10470667 0.08517203
-0.24808829 0.0954143 -0.09828371 -0.03944782 0.17183788 0.025172181 0.038642388 -0.14431484
-0.15697762 -0.12720808 -0.16441084 0.004862676 0.10592262 0.103520386 -0.071176514 -0.042461462
-0.104223154 -0.07840038 -0.20549989 -0.16304663 0.031351175 0.06406645 0.17177065 -0.043347944
0.051569346 0.06580375 0.026397388 -0.18360882 0.080231324 -0.009571427 -0.030399734 -0.01119917
0.07981154 -0.18880017 -0.0961215 0.12315216 -0.0031142752 0.042698372 -0.0010077744 0.007312768
0.10331827 0.046140384 -0.0044515613 0.07862893 -0.0061448896 -0.1109448 -0.017532554 -0.08854244
0.043167662 -0.038353868 -0.07639716 -0.026279569 0.15278149 0.09309799 -0.098056786 -0.09227782
-0.08802047 0.09225707 0.07129782 -0.03536953 0.0736645 0.07850996 -0.020720648 -0.065933
-0.045066938 -0.03805375 0.11690514 -0.05446671 -0.076744534 -0.046333894 -0.078699134 0.018294072
-0.092285424 -0.053580824 0.06626152 0.02085226 0.04267067 -0.08742966 0.074554406 0.11437123
-0.075651795 0.052406274 -0.016695213 0.15967362 -0.039536618 -0.047769766 0.1059572 0.04070739
0.119124345 0.003302245 0.020530753 0.02982205 0.075587116 0.004967763 0.05971328 0.046937723
-0.074068435 -0.1247818 0.108069405 -0.010688875 -0.10177466 -0.0025562968 -0.09291925 -0.01619557
0.047222316 -0.08036003 0.013410632 0.10084227 -0.09285862 0.04664813 -0.11187716 0.005080077
-0.08733616 -0.1236902 0.008839516 -0.1555312 0.055737346 0.051609308 -0.039135545 0.034123998
-0.2760697 0.041262913 -0.06800102 0.13902803 -0.04660444 0.023613822 0.044508774 0.019060876
0.018728286 0.069271185 0.038094252 0.19072582 0.06931346 -0.05180243 0.0028126943 0.08142691
-0.16475554 -0.040518466 0.013982573 0.14373833 -0.08002542 -0.06533417 0.10530845 0.057120997
0.016063854 0.030175602 -0.10521608 0.159258 0.021223808 -0.0223417 -0.012620231 -0.040582392
00000000: 3733 32bd 585e c63d 2441 9f3c 9813 8f3d
00000010: cc77 f7bb 0bd1 d5bd 46ff 40bc 22b2 c73d
00000020: 1c0f 8ebd 5616 4c3d ef32 e73d 695b 85bd
00000030: 3a9d b73d e4a9 edbd fedd d7bd 5f3a 653d
00000040: 786d fabd 84a9 c93d 9544 9abd 30aa 87bd
00000050: 4389 193e 1886 3bbd 1660 6cbd 194d e7bd
00000060: 30c7 39be cda7 abbd 0e11 0e3d f971 7d3d
00000070: 6143 483d 16e3 0a3d 038e fe3d a40c b4bc
00000080: 525a 0e3e 3adc ebbd 7cbf 23bd c546 55bd
00000090: 7b00 373e ba85 88bc 4655 043e 7781 f33c
000000a0: 2e05 c2bc 672d f1bd e496 07bd 21cc 62be
000000b0: 1db6 0a3d 1dda 933d dc1a b3bc 4e2d 2f3d
000000c0: 3cba 6cbd a463 86bd d954 da3d ba11 b43d
000000d0: cc2f c1bc 33d6 2c3e f6d5 5c3d b5d1 933d
000000e0: 02ad 1c3e 6c21 6ebc 5ec7 913d 9eb4 2c3b
000000f0: 6a98 e23d d16c f23c adcc 41bd f5e4 4ebc
00000100: 1caf ff3c c82c b8bc d98b 73bb ea20 fc3c
00000110: 7535 a5bd 89d8 513d 662f b8bd 9e96 48be
00000120: 512a ecbd 12ef 9f3d 6c57 81bd 23c8 11be
00000130: 4607 15bc 6e63 a53b 21fd 9abd c60d 4bbd
00000140: ba62 95bd 8bc6 7ebd 0520 7ebd 1201 18bc
00000150: 9f63 9fbc 1201 c4bc d521 1a3d da5a a83d
00000160: f588 8bbd ba02 d4bd 8f70 a03b c43e 55bd
00000170: 762f 5ebc 55b3 073e 2184 4c3e 6adf b7bd
00000180: d730 b6bc b5df 843c 7b72 afbd 66fa 51be
00000190: 295d b43d d69a 443e 7370 d63d ac6e ae3d
000001a0: db0a 7ebe 9368 c33d f848 c9bd 0a94 21bd
000001b0: 45f6 2f3e e435 ce3c 7b47 1e3d 45c7 13be
000001c0: bebe 20be d642 02be 515b 28be 1557 9f3b
000001d0: f5ed d83d 7f02 d43d fec4 91bd 12ec 2dbd
000001e0: f372 d5bd 6190 a0bd 906e 52be b2f5 26be
000001f0: 176a 003d 4535 833d a5e4 2f3e 9d8d 31bd
00000200: 613a 533d 1ec4 863d 563f d83c f303 3cbe
00000210: 5250 a43d 79d1 1cbc dd08 f9bc b97c 37bc
00000220: 3c74 a33d d554 41be 59db c4bd 3337 fc3d
00000230: de18 4cbb 7de4 2e3d 4c17 84ba f29f ef3b
00000240: 8798 d33d b3fd 3c3d 67de 91bb 3408 a13d
00000250: 125b c9bb 0737 e3bd 6ea0 8fbc bd55 b5bd
00000260: 93d0 303d f218 1dbd 1d76 9cbd 4048 d7bc
00000270: c072 1c3e 29aa be3d ffd1 c8bd 27fc bcbd
00000280: 1444 b4bd 46f1 bc3d 9704 923d a4df 10bd
00000290: 6add 963d d4c9 a03d 59be a9bc e107 87bd
000002a0: 1c98 38bd 40de 1bbd f66b ef3d 7c18 5fbd
000002b0: 3d2c 9dbd 9cc8 3dbd 032d a1bd 73dd 953c
000002c0: 2400 bdbd 9177 5bbd 1fb4 873d 5cd2 aa3c
000002d0: 71c7 2e3d 520e b3bd fbaf 983d 773b ea3d
000002e0: 54ef 9abd f6a7 563d 66c4 88bc 7b81 233e
000002f0: 26f1 21bd 3baa 43bd 1700 d93d cbbc 263d
00000300: 77f7 f33d 7a6a 583b 1c30 a83c 5f4d f43c
00000310: 6bcd 9a3d 9ec8 a23b ea95 743d c541 403d
00000320: 31b1 97bd 9a8d ffbd 7e53 dd3d 6420 2fbc
00000330: 3c6f d0bd 8b87 27bb 734c bebd 92ac 84bc
00000340: 306c 413d cd93 a4bd 44b8 5b3c 6486 ce3d
00000350: a92c bebd 1c12 3f3d da1f e5bd c676 a63b
00000360: 4ddd b2bd 4a51 fdbd 9ed3 103c 9243 1fbe
00000370: d84c 643d 4864 533d 984c 20bd 9bc5 0b3d
00000380: 0259 8dbe 4d03 293d 1e44 8bbd 5d5d 0e3e
00000390: 4ce4 3ebd c671 c13c d54e 363d 8e25 9c3c
000003a0: 106c 993c 0dde 8d3d b808 1c3d a14d 433e
000003b0: 37f4 8d3d c92e 54bd 2e55 383b 27c3 a63d
000003c0: adb5 28be b1f6 25bd 2917 653c 2430 133e
000003d0: 5ee4 a3bd eccd 85bd f5ab d73d b5f7 693d
000003e0: 5898 833c d332 f73c 877b d7bd 8714 233e
000003f0: 8ddd ad3c f105 b7bc 16c5 4ebc b939 26bd

action_model._continuous_distribution.mu.bias f4 [39]
0.03928155 -0.015533539 -0.03839659 -0.04542846 -0.06392633 -0.093744464 0.106939696 -0.028965948
-0.014819391 -0.015688539 -0.043033175 -0.15369996 0.02460104 0.10185242 0.051838122 -0.061745476
-0.0076261186 -0.045360293 -0.14009732 0.013304043 -0.02562528 0.0026193766 -0.003467057 0.03641197
0.06697383 -0.0076037105 -0.18124294 -0.07492866 0.023126151 -0.014962581 -0.10173292 -0.06357
-0.04942704 -0.07980471 0.022977203 -0.111748986 0.044477608 0.1583509 -0.0029224842
00000000: b1e5 203d 6280 7ebc be45 1dbd 3113 3abd
00000010: cfeb 82bd 19fd bfbd 3303 db3d ff49 edbc
00000020: 08cd 72bc 4085 80bc 8e43 30bd 8663 1dbe
00000030: 1f88 c93c 0098 d03d 3654 543d d3e8 7cbd
00000040: 85e4 f9bb b7cb 39bd ac75 0fbe 33f9 593c
00000050: 1bec d1bc d9a9 2b3b 9037 63bb b824 153d
00000060: 9329 893d 8c28 f9bb c097 39be 3374 99bd
00000070: 0e73 bd3c 9d25 75bc 5959 d0bd fd30 82bd
00000080: 0274 4abd a770 a3bd b03a bc3c a7dc e4bd
00000090: 272e 363d bd26 223e 2687 3fbb
