Assets/Brains/ArvidTests/balance6/Zombie Walker/Zombie Walker-3499993.onnx (onnx, 207976 bytes, 7 tensors)

network_body._body_endoder.seq_layers.0.weight f4 [128, 228]
000000 6e 7b 63 bd ec eb bb 3e 88 f8 c4 be 45 99 1c be
       -0.055537634 0.36703432 -0.38470864 -0.15292843
000010 42 61 71 3e 6f d6 70 3e bd 19 f3 3c ff 41 99 bd
       0.23572257 0.235193 0.029675359 -0.07483291
000020 99 77 08 3e 5f f6 94 bd c5 31 04 3e 44 24 1b 3f
       0.13326873 -0.07273554 0.1290961 0.6060221
000030 fa 4c 0d 3f ee 50 4f 3e 7d 04 84 3e fa 33 b5 3e
       0.5519558 0.20245716 0.25784674 0.35391217
000040 83 53 d4 3e 09 f2 3c 3e f3 dc 64 bd 56 7d 33 be
       0.41469964 0.18451704 -0.055874776 -0.1752828
000050 1e 1d 57 bd bc cd 0b be 91 3d a5 3d c8 87 c2 be
       -0.052518003 -0.136527 0.080683835 -0.37994218
000060 eb 86 bf be fa 89 cf 3e 9b 24 b7 be 4e 4d 38 bc
       -0.37407622 0.40534955 -0.35770115 -0.0112489
000070 4b 3d ee bd ca 68 00 3e 71 f2 24 3e 97 cf 95 3e
       -0.116327845 0.12539974 0.16108109 0.2925994
000080 d8 2e b3 3e c7 9b da 3d 9a d7 2d be 68 49 cc 3d
       0.34996676 0.106742434 -0.16976777 0.09974939
000090 f4 7a 71 be e3 45 cc 3e 83 f4 7d bd 40 92 7c bb
       -0.23582059 0.3989707 -0.062000763 -0.003853932
0000a0 cc 32 7a 3e e2 58 99 be d5 16 a0 be 47 57 b1 3c
       0.2443344 -0.29950625 -0.3126742 0.021648062
0000b0 87 21 42 3e 1e bd de 3e ff 7f 9d bd 9d 8c 60 3d
       0.18958102 0.4350366 -0.07690429 0.0548216
0000c0 ca d2 dd ba 5f 9c d3 3e 22 c2 ab be 7b 9b 42 be
       -0.0016923782 0.4133024 -0.3354655 -0.19004624
0000d0 54 fa e1 3d 30 97 9f 3d be 20 a7 3e d9 a5 62 3e
       0.110340744 0.077925086 0.32642168 0.22133578
0000e0 bf 18 74 be c4 b7 aa be 91 73 b9 be bc a9 2f 3e
       -0.23837565 -0.33343327 -0.36220983 0.17154592
0000f0 c5 12 e7 3d a6 da fb 3c 75 f3 2b 3e 25 36 2e be
       0.11282877 0.030743908 0.1679209 -0.17012842
000100 c5 76 b3 be 53 d4 a6 3d 12 d1 a3 3e 8e 1c 98 be
       -0.3505155 0.081459664 0.31995445 -0.29709285
000110 8a b9 cc 3d 48 da cd be 47 9f 00 bf c4 7b a7 be
       0.09996326 -0.40205598 -0.5024304 -0.32711613
000120 ac 56 e1 bd 35 51 29 bd 1f 63 79 bd 2a c1 f6 3d
       -0.110028595 -0.04133721 -0.060885545 0.12048562
000130 2e 24 33 3e 69 29 99 3e 0a 72 c4 3d 66 97 3c be
       0.1749427 0.29914406 0.09592064 -0.18417129
000140 20 ff 25 be c3 f7 b6 3e fb c3 17 3e a1 e3 c7 be
       -0.16210604 0.35735902 0.14820854 -0.39040855
000150 75 40 9e 3c 20 fa 6b be 9f 5d bf be fe 7c 8b bc
       0.019317845 -0.23044634 -0.37376115 -0.017027374
000160 ec 0d 05 bd ae 97 eb be 3a 9c 09 3e cf e1 c7 3d
       -0.03248398 -0.4601416 0.13438502 0.097598664
000170 95 96 bd be c8 20 91 bd 1d dc 5b be e3 84 41 be
       -0.37028947 -0.07086331 -0.21470685 -0.18898349
000180 c8 e2 9c 3e 63 99 21 3e 64 21 c5 3e 91 3c 3d bd
       0.3064177 0.15781169 0.38502038 -0.04620034
000190 db b8 cb 3d 77 fb a8 be 29 41 50 3d 60 a6 e6 3d
       0.09947368 -0.33004352 0.05084339 0.11262202
0001a0 4f c4 40 3e 4c 39 b0 3e b7 b6 f3 3d 75 71 89 3e
       0.18824886 0.34418714 0.119000845 0.26844373
0001b0 6b 4c 35 3e 28 eb 8c be 6f d8 b7 be 46 74 87 3e
       0.17704932 -0.2752316 -0.35907313 0.26455897
0001c0 c8 bc 06 be bd 34 bf 3d 5f 9b 7a bd 4a 87 c4 be
       -0.13157952 0.09336231 -0.06118333 -0.38384467
0001d0 3a 80 c2 be 48 db 84 be e2 14 ff bc ee e1 0d 3e
       -0.37988454 -0.25948548 -0.031137887 0.13855717
0001e0 58 0f 5a 3e f3 25 08 bd f0 a0 85 3e 3b 7f 30 3d
       0.21294916 -0.033239316 0.26099348 0.043090086
0001f0 92 24 1b bd 2a 07 e2 be 72 41 a5 3e 1a 5b 2d be
       -0.037876673 -0.4414609 0.32276493 -0.16929284
000200 89 02 b2 bd 2d 47 0d 3e 3c 45 a8 be 89 6f 8a be
       -0.0869189 0.13796683 -0.32865322 -0.2703822
000210 42 b4 ad be 87 7e 89 bd 2d 49 7f 3e c5 eb 16 3e
       -0.33926588 -0.06713586 0.24930258 0.14738376
000220 36 13 fd 3c e3 44 94 3e 7b 2b db be 2d 23 8c 3e
       0.03089295 0.28958806 -0.4280661 0.27370587
000230 c4 a8 1e bf 66 01 91 3e 9d 07 ad be 02 55 52 be
       -0.61976266 0.2832138 -0.3379487 -0.2054024
000240 10 bd b4 be 08 1b 10 3f ac f4 b2 be 94 39 31 be
       -0.35300493 0.56291246 -0.34952295 -0.1730712
000250 03 81 67 be 42 cf 40 be 8e e3 9e 3e 32 44 7a 3c
       -0.22607808 -0.18829063 0.31032985 0.015275048
000260 44 df 9d be 28 57 bb be 68 94 70 be c2 e0 e0 3d
       -0.308344 -0.36589932 -0.23494112 0.10980369
000270 7a 61 88 be e6 c1 87 bc cf a3 8d be f1 10 9e be
       -0.2663687 -0.01657195 -0.2766404 -0.308723
000280 2a aa 12 be 8c 54 b5 be 2a 31 fb bd 13 ad 2f bf
       -0.14322725 -0.35416067 -0.12265237 -0.68623465
000290 83 ff 33 be d9 c0 fc 3d 4d 74 e8 3d c8 2e 59 3e
       -0.17577939 0.1234147 0.113503076 0.21209252
0002a0 a1 58 86 be bf 82 2e bf db e3 0e 3e e9 55 f1 bd
       -0.26239493 -0.6816825 0.13954107 -0.11783964
0002b0 a8 8d 97 be fd fc 89 be 94 2f ac bd 5b 71 a1 be
       -0.29600263 -0.26950827 -0.08407512 -0.31531796
0002c0 94 bb 7c be 1e 96 11 be b3 8e e0 bd 54 b6 84 be
       -0.2468093 -0.14217421 -0.10964718 -0.25920355
0002d0 b5 b3 c5 bd d5 a6 88 3d 1e e2 3a 3e 0d 7a 79 be
       -0.09653417 0.06672446 0.1825032 -0.24362965
0002e0 6f 47 c3 be 8b 44 96 3e 1f f9 25 bd a1 f2 4e 3d
       -0.38140437 0.2934917 -0.040520784 0.050524358
0002f0 da a0 06 3e 76 ad a5 3e 2c 28 8e 3e 06 f4 19 3c
       0.13147298 0.32358903 0.27765024 0.009396559
000300 0b 71 60 be 0c 38 cd bd da 9a 37 3e c4 a5 be be
       -0.21918122 -0.10020456 0.17930165 -0.37235844
000310 ae d6 d7 bd 1a 12 cc 3e b7 ba 0f bf 9a 22 47 3c
       -0.10538994 0.3985756 -0.5614428 0.012154246
000320 eb bc d1 be e6 02 9a be a7 08 04 bf 0f e1 31 be
       -0.40964445 -0.30080336 -0.515757 -0.1737101
000330 1d f5 09 3f e4 7e d5 3e 1f 01 87 3d d9 8d 65 be
       0.5388964 0.41698372 0.06592011 -0.22417392
000340 36 6b 7e bd c2 b4 8c 3d 76 be 3a be 65 7e 8a be
       -0.062113963 0.06870414 -0.18236718 -0.27049556
000350 86 4f 93 3e eb 38 b1 bd 72 28 b6 3e 9c f9 37 be
       0.2877161 -0.08653434 0.35577732 -0.17966312
000360 54 69 80 be 43 8f c6 bd ff 8a e0 3d 6f 38 df 3e
       -0.2508036 -0.09695294 0.109640114 0.43597743
000370 62 15 e4 3e a4 6b 3a 3e 03 ec 64 be 5a 68 84 bc
       0.44547564 0.18205124 -0.22355656 -0.01616304
000380 8e bb 9f 3b cc 6b 43 bc b9 c6 68 be 19 63 c1 bd
       0.004874653 -0.011927556 -0.22732057 -0.094427295
000390 88 bb 2a 3e 37 74 af 3e 03 4d 53 bf b1 b9 77 be
       0.166731 0.34268352 -0.82539386 -0.2419193
0003a0 31 29 88 3e 71 14 52 3e 97 94 1d bd 6d 79 43 bd
       0.26593927 0.2051561 -0.038471784 -0.047723223
0003b0 8d 08 e0 bd 39 a1 60 be 0b cb 87 3e 85 d5 06 3e
       -0.10939131 -0.21936502 0.26522097 0.13167389
0003c0 dc da 9b 3c 78 1e dc be e3 1a 7a bd 98 98 af 3e
       0.019025259 -0.42991996 -0.061060797 0.34296107
0003d0 4c b4 94 bc b5 26 37 be 5a 3f d4 bc 08 f4 3e 3e
       -0.018152378 -0.1788586 -0.025909115 0.18647778
0003e0 6b bf 5b be b3 20 11 bf 08 51 2d 3e fc 0e d1 be
       -0.21459739 -0.5669052 0.16925442 -0.40831745
0003f0 84 c2 60 bd 00 72 71 3e f7 83 4f bf b2 34 2b bf
       -0.054873005 0.23578644 -0.8106074 -0.6687728

network_body._body_endoder.seq_layers.0.bias f4 [128]
000000 b1 52 9c be dd d2 51 bf 5f a9 45 bc ef 8e f8 be
       -0.3053184 -0.81962377 -0.012064307 -0.4854655
000010 31 20 e7 be ab aa c7 be bb c3 ce be 24 45 27 bf
       -0.45141748 -0.38997397 -0.40383705 -0.65339875
000020 3a 41 08 bf af 99 98 bc 51 3e d6 be 46 c4 82 be
       -0.5322453 -0.01862797 -0.4184442 -0.2554037
000030 d3 dc 33 bf 1e 3c 04 bf 88 1f 40 be 84 c2 4b 3d
       -0.70258826 -0.5165423 -0.18762028 0.04974605
000040 79 d6 03 bf a4 94 f8 be 55 ab e2 be dd 30 a9 bd
       -0.51499134 -0.48550904 -0.4427134 -0.08261273
000050 fe d5 43 bf f0 98 33 be 7a 65 c1 bd 5d a5 05 be
       -0.764984 -0.1753881 -0.09443183 -0.13051362
000060 50 5c c9 bd bb b5 ba be ea 02 fb 3b fe ad f0 bb
       -0.0983206 -0.36466774 0.0076602595 -0.0073449602
000070 56 7a bd be c4 f0 f8 be 70 b5 0e bf 1f d4 91 be
       -0.37007397 -0.4862119 -0.557456 -0.28482148
000080 3d dc 1f bf 09 b7 a3 be 46 ec 34 bf 55 af 9e be
       -0.6244543 -0.31975582 -0.70673025 -0.30993143
000090 da 6a 1b bf 12 f3 78 be 8b 6f d9 be 08 64 a5 bd
       -0.6070992 -0.24311474 -0.42467913 -0.0807572
0000a0 7a 99 1e bf 36 cb d5 bd 05 0f 07 bf 64 a8 3f be
       -0.61952937 -0.1043915 -0.52757293 -0.1871658
0000b0 17 2a 34 be 6d cb d8 bd 98 30 5d bf dd 47 0a bf
       -0.17594181 -0.105856754 -0.86402273 -0.54015905
0000c0 e2 77 79 be 79 1d 0b bf f0 a3 95 be 4c b1 aa be
       -0.24362138 -0.54341847 -0.29226637 -0.33338392
0000d0 64 cc 81 be 4c 44 03 bf 56 91 23 bf 1c 4c fa bd
       -0.2535125 -0.5127609 -0.6389364 -0.12221548
0000e0 12 4f 43 be e0 49 35 bf ca 3a 68 be db 87 91 be
       -0.19073132 -0.7081585 -0.22678676 -0.28423962
0000f0 f9 4f 98 be a3 72 07 bf 99 7d 15 be ab 8c ed be
       -0.29748514 -0.52909297 -0.14598693 -0.46396384
000100 12 0d ac bd 2e 65 35 bf a2 3b 1b bf 27 1d 1a bf
       -0.084009305 -0.7085751 -0.6063787 -0.6020073
000110 47 eb a7 be db 57 22 be b7 f6 43 bf 4a a0 1d bf
       -0.3279669 -0.15853827 -0.7654833 -0.61572707
000120 13 2f 62 bd c1 17 34 bf f1 61 97 be 51 39 8a bd
       -0.055220675 -0.70348746 -0.2956691 -0.067492135
000130 71 4d f5 be e5 66 fb bd d5 30 da be 6d 40 12 be
       -0.47910646 -0.12275485 -0.4261538 -0.14282389
000140 d5 9c 86 be bf 18 3d bf 0d f9 41 bf bf bb 43 bc
       -0.26291528 -0.73865885 -0.75770646 -0.011946618
000150 52 3a ee bd a4 ad b2 be 89 9b 3d bf 7e b5 9c be
       -0.116322175 -0.34898102 -0.7406545 -0.30607218
000160 a6 ea 14 be 44 36 ee be 1e 46 98 be 5f 44 f1 be
       -0.14542636 -0.46525776 -0.29740995 -0.47122476
000170 d1 ae af be be 3d 00 bf 47 5c 53 bf b4 7b a2 be
       -0.34313062 -0.5009421 -0.8256268 -0.31735003
000180 b1 f9 da be 05 ce 50 bf 1b 07 9c be 0e 88 09 bf
       -0.42768624 -0.8156436 -0.3047417 -0.5372323
000190 77 c4 c6 be 4c 4e ce be 33 84 04 bf 5b 9c b9 bd
       -0.38821766 -0.4029411 -0.5176422 -0.090630256
0001a0 11 50 59 bf 15 30 a9 bc 25 79 c2 be 30 9a 09 bf
       -0.84887797 -0.02065281 -0.3798305 -0.53750896
0001b0 4c 86 05 bf 74 4f 12 bf 9f 71 4d bf 68 c1 08 bf
       -0.52158046 -0.57152486 -0.802515 -0.53420115
0001c0 44 c5 09 bf 50 e3 af be 82 ef 5b be c1 06 22 bf
       -0.5381663 -0.34353113 -0.21478084 -0.63291556
0001d0 17 80 9c be 5a c1 0a bf 37 d3 d0 be e2 ce d4 be
       -0.30566475 -0.5420128 -0.40786144 -0.4156409
0001e0 94 16 92 be ee e9 d7 be 1a f2 35 bf db 14 b2 bc
       -0.2853285 -0.42170662 -0.7107254 -0.02173846
0001f0 6c d5 13 bf f5 d1 a0 be 27 fb 8d be 9c dc 7e be
       -0.5774753 -0.31410185 -0.27730677 -0.24888843

network_body._body_endoder.seq_layers.2.weight f4 [128, 128]
000000 ec 71 99 bd 4b d8 74 3d 91 cf a2 be 91 71 ef 3e
       -0.07492432 0.059776586 -0.31798986 0.46766332
000010 d4 07 be be 06 4c 16 3d f1 b9 89 be 35 73 f3 bd
       -0.37115347 0.036693595 -0.26899675 -0.11887208
000020 60 e3 48 3c 06 9c 12 bf dc c3 1b 3d 0a 7a a6 be
       0.012261242 -0.5726932 0.038028583 -0.32514983
000030 8e 55 2d 3d d2 b0 ea bc 79 92 b0 3e b8 d5 62 3e
       0.04231792 -0.028648768 0.3448675 0.2215184
000040 5d 8b 38 bd 67 f8 25 be 26 96 70 ba a2 bc d8 be
       -0.045054782 -0.16208039 -0.00091776473 -0.42331415
000050 5a b2 4d be a7 c7 fb 3e 7a 4a eb be 60 53 81 be
       -0.20087567 0.4917576 -0.4595526 -0.25258923
000060 f3 4c f7 3e 68 ff 88 be bf be de be c0 22 08 bf
       0.48300895 -0.2675736 -0.43504903 -0.53178024
000070 89 c9 34 bf c1 9d aa 3d 4f c3 1e 3d c5 c9 91 be
       -0.7062002 0.083308704 0.03876048 -0.2847425
000080 0b bf 45 3e 5b f9 94 3d d6 34 e9 3c 4b 0e 86 3e
       0.19311158 0.07274123 0.028467577 0.2618278
000090 95 a6 54 3e ee 20 fd be 55 89 e6 bc e8 7d 64 be
       0.20766671 -0.49439186 -0.028141657 -0.22313654
0000a0 47 c8 39 bd 69 de 06 be 7b 60 d2 3d 84 f8 05 bd
       -0.045357015 -0.1317078 0.102723084 -0.032707706
0000b0 ae 42 e2 be db 18 8a bf 6f a3 45 bb 96 fc 2e bd
       -0.44191498 -1.0788835 -0.0030157228 -0.042721353
0000c0 0e 47 9d 3e e0 fa a8 3a 57 46 e9 38 9f 7d de 3c
       0.30718273 0.0012892149 0.000111234076 0.02715951
0000d0 6c 0e 34 3d ac 89 d1 bc da 8b 77 3e 94 ac b6 3d
       0.043959066 -0.025578342 0.24174443 0.089196354
0000e0 e9 f7 89 bd 88 e9 1a 3e 46 3d 5d bd 89 27 41 bd
       -0.06736738 0.15128148 -0.054013513 -0.047156844
0000f0 86 87 b7 bd 2d 7c b5 be 18 3d e3 bd ed a9 9f be
       -0.08961396 -0.354463 -0.11095637 -0.3118433
000100 cc ff f4 3d c9 55 26 bd 1f 3d 84 be 8f 3f 3b 3c
       0.11962852 -0.040609155 -0.25827882 0.011428728
000110 77 c5 e5 3c 32 ac 28 bf b6 66 46 be 18 6a 21 bd
       0.02804826 -0.6588775 -0.19375119 -0.03940782
000120 1a 86 32 be b0 47 0b be c2 6d 11 be a3 a5 54 be
       -0.17433968 -0.13601565 -0.14202026 -0.2076631
000130 51 ff 9f be 6a 94 11 bd f7 73 da 3e af b4 a8 3d
       -0.31249478 -0.03554193 0.426666 0.08237588
000140 bc a9 37 bb 75 a1 e7 3d 4d 6b 67 be 04 38 d2 be
       -0.0028024754 0.11310092 -0.22599526 -0.41058362
000150 09 39 6d 3e 0b 09 0f be 21 f5 a1 be c2 9f 64 be
       0.23166288 -0.13968293 -0.3163233 -0.22326568
000160 1d 08 3c 3e b9 2b 92 3c 06 fe 0f bd d2 6d a5 3d
       0.1836247 0.017843114 -0.035154365 0.08077587
000170 2c 67 01 be 82 c7 dc 3e b2 9a 86 3e 65 7d bb bd
       -0.12637013 0.43120962 0.26289898 -0.091547765
000180 ef ba b5 3e ae 26 a0 3d c3 fb 51 be fb c3 43 3d
       0.35494182 0.078198776 -0.20506196 0.047794323
000190 7b c7 a6 be af e0 ee 3d f6 ca d5 bd a8 14 b4 bb
       -0.32574067 0.11663949 -0.10439102 -0.0054956265
0001a0 7a 30 b3 bd 95 a5 ec bd 40 fd ed 3e f5 7c a8 be
       -0.087494805 -0.1155502 0.46482277 -0.32907835
0001b0 98 04 7f be 1f 4f 34 bd 4c 70 10 be 0c 5c 80 3e
       -0.24904096 -0.04402077 -0.14105338 0.25070226
0001c0 e3 5b e6 be 2f 50 8e be 93 b8 3c 3d 28 dc e9 3d
       -0.4499198 -0.2779555 0.04607446 0.114189446
0001d0 a5 45 ec bc a4 58 e7 be da 38 b9 3e 26 37 87 3e
       -0.028841803 -0.45184815 0.36176187 0.26409262
0001e0 7f 0b 19 bc f0 df 14 be 26 cf 34 bd dd 99 f7 be
       -0.00934112 -0.1453855 -0.044142865 -0.48359576
0001f0 f6 0e 80 3d 02 08 ab 3d 06 48 71 bd b0 d2 fc bb
       0.062528536 0.08351137 -0.058906578 -0.0077155456
000200 79 32 e8 3d 7e ee 5e 3d 2e e9 70 3e c0 47 1c 3f
       0.11337752 0.054426663 0.23526451 0.6104698
000210 40 50 f2 3d 8b 16 06 bd 73 8c da bd 4a 61 0e bd
       0.11831713 -0.032736342 -0.1067132 -0.03476075
000220 dc d9 87 be 35 c6 a8 3c 02 9b 94 3b 31 92 3e 3e
       -0.265334 0.020602325 0.00453508 0.18610455
000230 cd db 01 3e 33 9c 9d 3d 53 da 00 3e 02 86 9d be
       0.12681504 0.07695808 0.12583284 -0.30766302
000240 d4 7c 15 3e 22 f9 ef bd a2 b3 22 be 53 f1 82 be
       0.145984 -0.1171744 -0.15888837 -0.2557474
000250 e3 11 bb 3e 7f 8f 24 3d 2b c9 06 be 3a ee 1b 3e
       0.36537084 0.04017591 -0.13162677 0.15227595
000260 75 ac 62 bc 0a c6 19 3d 81 9b 86 3e 0b 5c a9 be
       -0.013835062 0.03754238 0.26290515 -0.33078036
000270 8a 2c c6 be 09 80 8b 3e f6 bb 94 3e 3c e2 ca 3e
       -0.38705856 0.2724612 0.29049653 0.39625728
000280 a3 42 71 3e 10 7c 81 be 38 84 87 be 14 66 61 be
       0.23560576 -0.25289965 -0.26468062 -0.22011596
000290 61 c8 bf 3e 5d 90 9f 3e dd 26 c1 3d 03 b9 97 be
       0.37457564 0.31164828 0.09431241 -0.2963334
0002a0 1b 3c 24 3f e7 63 bb be 91 af b2 3c 04 8e 47 bd
       0.64154214 -0.36599657 0.021812232 -0.04871942
0002b0 f9 1c 8a 3e 12 0f 03 bf 63 a8 c7 3e 82 8e c4 3e
       0.2697523 -0.5119487 0.38995656 0.38389975
0002c0 cb 84 2b be 9c 9b 99 3e 02 84 53 be 8b b1 0d 3e
       -0.16749875 0.30001533 -0.20655826 0.13837259
0002d0 dc 33 3c 3e ae fa 09 3e bd 48 6e bd d7 5d aa be
       0.18379158 0.13474533 -0.058174837 -0.3327472
0002e0 5f 0f 92 bd b2 68 87 be dc aa 9d bc e3 0b 28 3e
       -0.07131838 -0.26447064 -0.019246511 0.16410784
0002f0 a1 9d af bd 77 c0 87 3e 9c e6 44 3d 76 22 d6 3d
       -0.08574987 0.26514027 0.04807149 0.10455792
000300 a0 76 2d bf c7 29 c3 be 2c c4 ac 3d 50 55 01 be
       -0.6775913 -0.3811781 0.08435854 -0.126302
000310 51 80 a5 3c 25 0f 17 3d 90 47 97 3e 79 f3 6f be
       0.020202788 0.036879677 0.29546785 -0.23432721
000320 5c 85 a5 be 2d ce 36 3e 45 30 99 be b9 d6 e9 be
       -0.32328308 0.17852087 -0.2991964 -0.45671633
000330 56 d9 bc bd b1 90 85 3b ae 9d 02 3e c0 7b a4 be
       -0.09221141 0.0040760865 0.12755463 -0.32125664
000340 9f 72 e5 3d f7 d9 33 3e c3 72 39 3f 10 26 85 3d
       0.11203503 0.17563616 0.7244074 0.065014005
000350 34 4a 58 be c5 53 e3 bc 4e 19 85 3d 01 d7 25 3e
       -0.21122056 -0.027749905 0.06498967 0.16195299
000360 0c 03 97 bb fd f5 55 bc fd 9a 78 3d 0f ed a5 3e
       -0.0046085175 -0.013059136 0.060694683 0.32407424
000370 6b e4 b6 be d8 65 30 be 0d 59 8c 3d 0f 85 34 be
       -0.35721144 -0.1722635 0.068529226 -0.17628883
000380 ff f2 8c 3e 3b 62 91 bb e3 f8 a5 bd 81 06 04 3e
       0.2752914 -0.004436759 -0.08104112 0.12893106
000390 19 66 fe be 1e da 3f 3d 18 e7 8a 3e 68 57 ce 3e
       -0.4968727 0.046838872 0.27129436 0.4030106
0003a0 24 b6 67 be 49 bc 03 be 3c a7 bd 3e b8 a8 93 3c
       -0.22628075 -0.12864794 0.37041652 0.018024787
0003b0 62 20 a2 3e 94 3d 08 3f a5 0d 1c 3e 02 93 32 be
       0.3166533 0.5321896 0.1523958 -0.17438892
0003c0 47 96 61 3e 31 7a 58 be 0e ff 7e be df ab d5 3d
       0.22029983 -0.21140362 -0.24901983 0.104331724
0003d0 bc 13 b8 3e bd 1d 5a 3e 6d bc b4 3e 6f 29 60 39
       0.35952556 0.21300407 0.35300007 0.0002137774
0003e0 ce d2 05 3d be ea 8a 3e 0e f5 a8 3e 02 73 98 3e
       0.032671742 0.2713222 0.32999462 0.29775244
0003f0 1e 2f 3f bd 10 3e b0 be 81 64 8d be ae 93 cd be
       -0.046675794 -0.3442235 -0.2761574 -0.40151733

network_body._body_endoder.seq_layers.2.bias f4 [128]
000000 c1 23 fd be b6 ef f2 be 26 5a 06 bf 5f fb f9 bd
       -0.4944134 -0.4744851 -0.52481306 -0.12206148
000010 93 65 f1 be 45 cb bf be a5 39 51 3d c1 90 df be
       -0.47147807 -0.3745977 0.051080365 -0.43665126
000020 47 70 75 be 0f ae 52 bf 04 95 01 3e 77 1e 48 bd
       -0.23968612 -0.8229684 0.12654501 -0.04885718
000030 76 c8 20 bf e0 cd c4 3d 4d 65 d0 be 8f 1b 0b be
       -0.6280588 0.0960958 -0.40702286 -0.13584732
000040 a7 66 ba be b4 d5 ab be 39 65 d7 3d 59 ae f0 3d
       -0.36406443 -0.3356148 0.105173536 0.11752004
000050 5e ec 25 be 93 92 b5 be cd 9f 0b be 58 4a 26 bf
       -0.16203448 -0.3546339 -0.13635178 -0.6495719
000060 6c 09 1e bf ac a2 3c 3c 76 73 f7 be fd 6f 29 bf
       -0.61733127 0.011513393 -0.48330277 -0.66186506
000070 ba f5 c5 be ae 0b d7 be 37 bf 21 3d c6 fe b5 be
       -0.38664037 -0.42001098 0.039488997 -0.3554594
000080 76 5f 53 be d5 4a 38 be c2 bc 20 bf bb ed de 3e
       -0.20641884 -0.17997296 -0.6278802 0.4354075
000090 96 15 f9 bd ec 6e 35 bd e0 4c 1e be a7 ab 9e be
       -0.1216232 -0.044295236 -0.15459013 -0.30990335
0000a0 a5 4a 26 bf 34 e0 b9 be e3 8a 90 3d 09 e4 13 bf
       -0.6495765 -0.36303866 0.070577405 -0.5776983
0000b0 1e c5 73 bf 98 95 d8 bd 18 80 5b be 5a d5 29 bf
       -0.9522265 -0.10575408 -0.21435583 -0.66341174
0000c0 09 03 12 be bc a4 0d be 9a 98 ad be 53 a4 23 bf
       -0.1425897 -0.13832372 -0.33905488 -0.63922614
0000d0 bb 45 8d bf 8b cb 93 3e 86 e9 38 be 19 db 13 bf
       -1.1036905 0.28866228 -0.18057832 -0.5775619
0000e0 da 0b 3f bf bd 58 07 bf 04 89 b6 bd ab 6c d7 be
       -0.7462746 -0.5286978 -0.089128524 -0.42075095
0000f0 73 7f 30 bd 2e 8f 0e bf 09 65 5c be 26 df 3f be
       -0.043090295 -0.55687225 -0.21522917 -0.18737468
000100 6b 9f 8a be 4f 54 f1 be 4f cc df be 18 a1 86 be
       -0.2707475 -0.47134635 -0.43710563 -0.2629478
000110 b0 4f b4 be e1 e3 15 3e ca 8e 12 bf 03 1b 8f 3e
       -0.35217047 0.1463771 -0.5724913 0.27950296
000120 32 e1 cc 3d 93 c6 55 be b8 09 c5 be d1 8b b5 be
       0.1000389 -0.20876531 -0.38483977 -0.35458234
000130 87 b7 0a bf c1 5c 9c be 02 88 89 be cc 63 45 be
       -0.5418629 -0.30539516 -0.26861578 -0.1927635
000140 a3 42 e9 bd 4a 2f 66 be c8 12 c7 be 3d 14 3c bf
       -0.11389663 -0.22478977 -0.38881516 -0.7346838
000150 9f fa 12 bf a7 5d 5f bf 4e b3 61 bf 8f 8e 0b bf
       -0.5741367 -0.8725228 -0.8816422 -0.545144
000160 34 ae 8a 3b 47 f7 cd be cd 26 d6 be c1 fd 9d bf
       0.0042321924 -0.4022772 -0.41826478 -1.2343065
000170 23 be 56 3b c4 ba 4d bf 27 9e 20 be d6 26 6b bf
       0.003276714 -0.80363107 -0.1568533 -0.91856134
000180 dd ba 89 be c5 1d 85 bf 4f 80 36 bf ab 00 8c be
       -0.26900378 -1.039971 -0.71289533 -0.2734426
000190 3c ff ac be 12 d0 ae be 15 65 b9 bd d9 d9 d7 be
       -0.33788478 -0.3414312 -0.09052483 -0.42158392
0001a0 ee 01 82 3e 6c a1 6e bf 7c 98 c2 be 6f 14 c4 3d
       0.25392097 -0.9321506 -0.3800696 0.0957421
0001b0 c7 30 7e be 8a 6c 99 bf 2a b7 a1 be 72 18 2e bf
       -0.24823295 -1.1986248 -0.31585056 -0.6800605
0001c0 05 5d a6 be bb 30 3b bf 5a 9b 38 be 8b 38 c6 be
       -0.32492843 -0.7312123 -0.18028012 -0.38715014
0001d0 d1 cd e9 be ab f5 37 bd f4 11 b4 be 3e 6c 9f 3c
       -0.45664838 -0.04491202 -0.35169947 0.019460794
0001e0 26 6b 51 3e 7a 44 77 bf 1d 7f 3f bf ee f2 e8 be
       0.2045103 -0.9658886 -0.74803334 -0.4549784
0001f0 f1 58 76 be 52 78 d4 be f0 5c d6 be fb 90 c8 bd
       -0.24057366 -0.41498047 -0.4186778 -0.09793278

action_model._continuous_distribution.log_sigma f4 [1, 39]
000000 de 5f f1 bf ef d8 1b c0 b3 03 fe bf ef b6 e0 bf
       -1.8857381 -2.4351156 -1.9844879 -1.7555827
000010 a8 88 02 c0 a8 c5 d4 bf b6 05 2e c0 77 8c 25 c0
       -2.0395908 -1.662282 -2.7190986 -2.5866983
000020 9c 17 3e c0 be 8c 1d c0 6e 76 0f c0 4e 1a 04 c0
       -2.970191 -2.4617152 -2.2416034 -2.0641055
000030 90 9b ee bf 14 e4 df bf ab 0a 01 c0 88 a5 e5 bf
       -1.8641224 -1.7491479 -2.0162761 -1.7941141
000040 a6 03 0d c0 cc e6 00 c0 32 5c 1f c0 cd 12 20 c0
       -2.2033477 -2.0140867 -2.4900022 -2.5011475
000050 39 2c 08 c0 1c 26 1a c0 9c 64 12 c0 0e 10 08 c0
       -2.1276991 -2.408576 -2.2873907 -2.12598
000060 76 1f 04 c0 62 ff 0b c0 b0 f6 02 c0 29 ff d7 bf
       -2.0644202 -2.1874623 -2.0463066 -1.6874744
000070 9d 3a f4 bf d4 f6 02 c0 7d a3 02 c0 8c 2d 0c c0
       -1.9080387 -2.0463152 -2.0412285 -2.19028
000080 92 bf 04 c0 d5 c6 f8 bf 90 9e 16 c0 30 3d ee bf
       -2.0741925 -1.9435679 -2.353428 -1.8612423
000090 5c 9e 0d c0 1b 42 f7 bf 78 5e 05 c0
       -2.2127905 -1.9317049 -2.083891

action_model._continuous_distribution.mu.weight f4 [39, 128]
000000 e0 73 bb bd c1 85 bb 3e 3b c0 84 3e 58 37 31 3e
       -0.09152961 0.36625484 0.2592791 0.17306268
000010 be 8a 57 be 9d 8d 16 3e 54 4f 92 be c8 f4 9e 3e
       -0.2104902 0.14702459 -0.28576148 0.31046128
000020 f5 5d 90 bd 83 a2 90 3d 44 97 e6 be e7 ed eb bd
       -0.07049171 0.07062247 -0.45037282 -0.11519986
000030 1b 21 ba 3e 6c 59 cc 3c cb 03 81 bd 7f 7e 7e be
       0.36353382 0.024944983 -0.062995516 -0.24852942
000040 eb f7 d4 3d 7e da 2d be 72 a8 d2 be f5 4e 88 be
       0.10398849 -0.1697788 -0.4114414 -0.2662274
000050 19 e4 8f bd 89 77 44 3e be 77 87 be 47 df 4a be
       -0.07025928 0.19186224 -0.26458544 -0.19811736
000060 78 18 19 bf be 67 0e bf 59 ed 0e 3e 83 7c a4 be
       -0.5980296 -0.5562705 0.13957728 -0.32126245
000070 49 33 23 3e 45 03 89 bd 2c 91 d2 be 25 5f 15 be
       0.15937532 -0.06690077 -0.41126382 -0.14587076
000080 4b 3f ca be d8 75 16 be 5f 4b 05 bb f1 69 11 bf
       -0.39501414 -0.14693391 -0.0020339114 -0.5680228
000090 7f 60 31 be e8 53 6a be b5 fb 5f 3d 3b c3 05 3e
       -0.17321967 -0.2288357 0.054683406 0.13062756
0000a0 a1 95 9d 3e 1d 10 79 3e 57 23 95 bd 22 4f ff be
       0.3077822 0.24322553 -0.07282131 -0.4986506
0000b0 84 18 17 3e 49 8f 00 bf a8 a1 ab bd b6 12 fe be
       0.14755446 -0.50218636 -0.08380443 -0.4962365
0000c0 07 88 50 be a6 a6 00 be 82 5a a1 be c0 fb 5b be
       -0.2036439 -0.12563571 -0.31514364 -0.21482754
0000d0 aa d7 ea 3e 14 7b 15 bf eb 53 84 3e fc 59 cf 3e
       0.45867664 -0.5839093 0.25845274 0.4049834
0000e0 cc a1 79 3e fe 64 7d 3e ee 98 2c bc 2d aa 09 3f
       0.24378127 0.24745557 -0.010534508 0.5377529
0000f0 bb a3 23 bf 90 16 95 3e 55 b1 36 bd c9 19 8c be
       -0.6392171 0.29118776 -0.04460271 -0.27363423
000100 fa ec 0c be 22 03 99 3e d3 5b 06 be 75 b6 b7 bc
       -0.13762274 0.29885203 -0.13120966 -0.02242587
000110 88 63 f0 3d cb fd 35 3c 43 a3 2d 3e d9 b5 e9 be
       0.11737734 0.011107872 0.1695681 -0.4564655
000120 e5 b2 00 bf d6 74 3d be 2b 0b 99 be 52 18 dc 3d
       -0.5027297 -0.185016 -0.29891333 0.10746826
000130 36 85 fb be 7d 26 ae 3e bb 42 c9 3a a6 58 c3 3c
       -0.4912507 0.3401374 0.001535497 0.023845982
000140 8f d7 22 bf a4 d3 48 be 47 01 a8 be 71 1c de 3e
       -0.63610166 -0.19611984 -0.32813475 0.43381074
000150 c3 d3 5b 3e 15 e1 9e 3e ca 3b bc 3e 3d b3 9b ba
       0.214675 0.310311 0.36764365 -0.0011878979
000160 f8 e0 84 3d 39 44 22 be 4f 7d 1a bd f8 79 b2 3e
       0.06488222 -0.15846337 -0.03771716 0.3485868
000170 a8 69 41 bf 5a a0 28 bd e2 8f 01 3e 34 90 36 3e
       -0.75551844 -0.04116855 0.12652543 0.17828447
000180 59 25 9f 3d e2 64 02 3c ce 0b 49 3e d3 2e 27 be
       0.077707954 0.007958623 0.1963341 -0.16326456
000190 a1 64 f0 be 93 7f d6 be 1c 12 fc be 48 66 08 bd
       -0.46951774 -0.41894206 -0.49232566 -0.033300668
0001a0 9c 4f 83 be 2b e4 b6 be b8 db ff bd c9 a6 a3 be
       -0.25646675 -0.35720953 -0.1249308 -0.31963184
0001b0 27 c7 68 3d e9 9e a8 3e 92 8b ce 3e af db ef be
       0.05683055 0.3293374 0.4034086 -0.46847293
0001c0 11 97 b2 3e a6 5c 15 bd c4 76 85 3b c5 3a 5d bc
       0.3488088 -0.03646531 0.004072996 -0.013502781
0001d0 f7 80 73 3e 8f 4e 5e 3e 7b e4 10 3f 29 06 de bd
       0.23779665 0.21709655 0.56598634 -0.10841019
0001e0 94 8a 3c be 2b af 81 be 65 7e b2 be f5 6f 71 3d
       -0.18412238 -0.25328955 -0.34862056 0.05894466
0001f0 c5 e5 d5 bc b0 2a d5 3d b7 5d b0 be fb 09 8a 3e
       -0.02611054 0.104085326 -0.344465 0.2696074
000200 95 31 4d be 4c f5 86 3e 34 0c a0 3e 05 23 5a 3e
       -0.20038445 0.26359022 0.3125931 0.21302421
000210 50 30 6d 3a d3 2b cc be 3e 4c 94 3e 38 d1 3c be
       0.00090480316 -0.39877185 0.28964418 -0.18439186
000220 2c 16 10 be 60 5f a5 be 10 f2 35 be 94 3c 68 be
       -0.14070958 -0.32299328 -0.17768121 -0.22679359
000230 69 19 1c 3e b7 27 fc 3d ac cb 83 3e 9c 52 09 3e
       0.15244068 0.123122625 0.25741327 0.13410419
000240 43 b0 f1 3d 03 50 86 be f2 0c 37 3e a1 af cb be
       0.118011974 -0.2623292 0.17876032 -0.39782432
000250 97 97 9a 3c 80 5b dd 3d 9b 0c 7d be 1c 38 a1 3d
       0.018871112 0.10808468 -0.2471184 0.0787203
000260 93 8c 88 3e de 8d c9 3d 8b 06 16 be 9a c8 a1 bd
       0.2666975 0.09841512 -0.14650933 -0.0789959
000270 33 5e ae 3d 68 9d 90 3e 80 ce 2a 3e 4b 7b 0f 3e
       0.08514061 0.2824509 0.16680336 0.14011876
000280 73 11 7f bd 09 f7 a6 3e b0 cc 84 bc c5 72 9c bd
       -0.0622725 0.32610348 -0.016210884 -0.07639078
000290 59 e7 da be 64 5a cf 3e 43 7a 3f 3e 14 55 17 3e
       -0.4275463 0.4049865 0.18698983 0.14778548
0002a0 e0 5a 01 3e 47 4e 80 3d 3a fc 1c 3e 7f b6 2c 3d
       0.12632322 0.0626493 0.15330592 0.04216623
0002b0 77 14 49 3d 4a 3a 3b 3d 62 6d 2b 3e 9e e1 37 be
       0.049091782 0.045709886 0.16740945 -0.1795716
0002c0 ac 39 47 be fc 7e 66 bd eb 1a 95 3e b5 7d 31 3e
       -0.19455594 -0.056273445 0.291221 0.1733311
0002d0 59 e7 da 3e 36 f0 d3 3d 94 46 83 be 23 bc f6 3d
       0.4275463 0.10348551 -0.25639784 0.12047603
0002e0 bb d1 29 3e 05 cf 09 3f 34 ba 13 3e c2 b6 81 3c
       0.16583912 0.5383151 0.144265 0.015834216
0002f0 01 db 46 3e d9 f1 4e bd 5b cc eb bd 0c b9 b7 be
       0.19419481 -0.050523613 -0.11513587 -0.35883367
000300 0b ec 31 bd 90 e2 0c 3e 94 4d 9a bd 2c 75 7f be
       -0.043438 0.13758302 -0.07534328 -0.24947041
000310 7b 77 76 be c7 5a 1f 3e b5 9f 3b be 55 14 06 3f
       -0.24069016 0.15561973 -0.18322642 0.52374774
000320 74 5b f6 3d ee 22 ea 3d 39 ba e3 3d 7c 07 00 3e
       0.12029162 0.114324436 0.111195035 0.12502855
000330 fd ff b7 3e 1b 25 58 bd 9f 87 d9 bd 76 36 a1 bd
       0.3593749 -0.05276976 -0.10621571 -0.07871716
000340 9b 1f 5b 3d 6e 6e 66 bd b0 dc 52 3e e3 10 ae 3e
       0.05349694 -0.056257658 0.20591998 0.3399726
000350 7e de 1c 3d 6f 31 fe 3c 4d 3a 8d be df 33 0b bc
       0.038298123 0.031029431 -0.27583542 -0.008496254
000360 24 c2 9a 3e 8f 43 b2 3e 52 65 a1 bd aa ac 09 3f
       0.30226243 0.34817168 -0.078806534 0.5377909
000370 67 d9 e2 bd 21 48 8e bd ee a1 d2 be af b3 08 3e
       -0.110766225 -0.06947351 -0.41139168 0.13349794
000380 e1 09 54 3d 63 e0 c5 be 7e ea a8 bd 88 07 d5 be
       0.051767234 -0.38647756 -0.08247851 -0.41607308
000390 de 25 b3 bd 26 c2 84 be 1d dd 1c 3e 52 57 02 3e
       -0.08747457 -0.25929374 0.15318723 0.12728623
0003a0 5a 7e 0d be 20 84 df 3c b3 ed bc 3e bc 96 3e be
       -0.1381773 0.027284682 0.369001 -0.18612188
0003b0 f0 eb 16 3e 3f 91 14 be f0 6b 4b 3e 46 f8 06 be
       0.1473844 -0.14508532 0.19865394 -0.13180646
0003c0 e7 42 0d be 12 ad 0f 3e 92 73 b0 be 38 3e 91 3e
       -0.13795052 0.14030865 -0.34463173 0.28367782
0003d0 08 a4 2b 3d ac c7 b5 bb ab 72 23 be 73 ea bd bd
       0.04190448 -0.0055474844 -0.15961711 -0.09273233
0003e0 72 54 8e 3c 94 50 0e 3e 20 a9 08 be 9d ff 37 3e
       0.017374251 0.13897926 -0.13345766 0.17968602
0003f0 63 af 38 3d 45 2d aa be c9 3f fa 3d 80 8b 62 3e
       0.045089137 -0.33237663 0.12219197 0.22123528

action_model._continuous_distribution.mu.bias f4 [39]
000000 05 a1 21 bf cc 7c 03 bb bb 74 ef 3e b7 6a f8 3e
       -0.6313632 -0.0020063398 0.46768746 0.48518917
000010 dc 85 e0 ba 6c dc e2 3e 60 db 6c 3e 09 6b 29 bf
       -0.0017129737 0.44308794 0.2313056 -0.6617895
000020 b7 89 18 3e 87 99 09 3f 72 6b 4b bf 00 0d a3 bf
       0.14896284 0.5374989 -0.79460824 -1.2738342
000030 87 ff c1 3e 82 7e 06 bf f2 94 57 3e ce c4 f2 3e
       0.37890264 -0.52536786 0.21052912 0.47415775
000040 57 bb 13 bf a7 ac 9f be e4 aa be 3e 3f 65 3c be
       -0.5770773 -0.3118641 0.37239754 -0.18397997
000050 dc 17 ec bf e3 46 1a be 75 14 b8 be ca eb 98 3f
       -1.8444781 -0.15066104 -0.35953107 1.1946957
000060 86 ec 28 be cf a3 5d be 70 1b 69 3e 07 f0 12 3f
       -0.16496477 -0.2164452 0.22764373 0.573975
000070 0b 21 14 3e 56 9f b2 3e e2 1c 96 bd ce a4 b1 bd
       0.1446573 0.3488719 -0.07329728 -0.08674012
000080 39 40 d6 bd 61 79 98 3e 2b cb ae 3e 06 33 71 3f
       -0.10461468 0.29780105 0.3413938 0.9421848
000090 30 7e 63 be 2b 10 2a 3d 5a a6 a5 3e
       -0.22216105 0.041519325 0.3235348
