Assets/Brains/ArvidTests/LForearmGone1/Zombie Walker/Zombie Walker-19499351.onnx (onnx, 827693 bytes, 11 tensors)

network_body.observation_encoder.processors.0.normalizer.running_mean f4 [246]
4.7054877 -0.028192999 -1.6216997 0.9947286 3.0315772e-07 0.0 4.499775 0.0005925988
0.46789005 5.615451 0.00088651414 0.046923168 0.0032648607 0.95070654 0.002091507 0.031801097
0.028840404 0.9688401 0.00027718442 0.4637823 5.633751 0.00018828313 -0.008560991 -0.112372674
0.99105173 0.5344638 -0.0046475525 -0.12159784 -3.116698e-05 -0.0031924 0.0066602197 0.00026790344
-0.0064693787 -0.26476976 1.0420063 0.12249371 -0.057726987 -0.0774287 0.06022564 0.4318116
0.049182788 -0.0059524113 0.007193715 -0.008672136 0.99158084 0.7796318 0.0002703162 -0.0076266713
-0.22272828 1.0077773 0.5316236 -0.05784438 -0.009124047 0.021248853 0.1979008 0.017092751
0.06472275 -0.012565546 -0.07606515 0.9456918 0.6886291 2.3427046e-05 -0.009041911 -0.27430534
1.0422617 -0.02108632 -0.008860066 0.04711565 0.1416549 0.8291532 0.090552226 -0.029793909
0.0007514351 -0.021197619 0.99379396 0.78379935 0.00040775907 -0.03689141 -0.11825781 0.91063035
-0.3906476 0.041571584 -0.44103935 -0.10116147 -0.22346313 -0.033911053 0.071774 -0.0061906874
0.029342987 0.95469815 0.7624883 0.0 -0.030688005 -0.018747907 0.81040573 0.6019038
0.22522639 0.0650843 -0.052008945 -0.4229246 -0.1648399 0.35379946 -0.0008273743 0.02424431
0.8893357 0.79359764 0.0 -0.047563404 -0.0030751186 0.76773846 -0.23355019 -0.006657448
-0.39920667 -0.022279475 -0.50522393 -0.2778854 -0.06860192 0.0026686806 -0.10254737 0.96799546
0.7798578 0.00051987485 -0.032256745 -0.12036085 0.9086766 0.49073213 -0.17530285 0.044546258
0.10809788 -0.19417475 0.09088079 -0.3442222 0.02737966 0.059756268 0.87857497 0.67621773
0.0 -0.0637623 -0.02346164 0.8499991 0.5380119 -0.26539344 0.37225747 0.108588934
-0.3839358 0.13211405 0.45488882 -0.01668852 -0.012023755 0.8507947 0.8589584 0.0
-0.077800125 0.025388006 0.8134851 0.4122078 0.03679313 0.2741823 0.10900794 -0.50858575
0.103376515 -0.12725002 0.0018688199 -0.00028041273 0.9755749 0.80204815 0.00014504921 0.049054682
-0.23574392 1.0562761 -0.49176466 0.46356788 -0.45400915 -0.25892773 0.5070438 0.08353398
-0.025363356 0.15902004 -0.08951881 0.9065161 0.8521071 0.000134331 0.1405831 -11.915087
1.0966067 -0.20141274 0.64420843 0.24895893 -0.42026088 0.52484685 0.2093858 0.003903791
0.32928178 0.013570285 0.8994207 0.79627967 0.00012798543 0.2059192 -11.91344 1.1800054
-0.20102127 0.640218 0.2504013 -0.49848154 0.509785 0.33306435 0.0001286008 -0.07843674
-0.23409252 1.051985 -0.22079664 -0.13388054 0.35469383 0.36833933 0.4189171 0.09560416
-0.03280081 -0.12990643 0.14746526 0.90349984 0.86156034 0.00014268124 -0.1965942 -0.25746566
1.1039386 -0.26205674 -0.15947746 -0.020122139 0.5177191 0.42901418 0.21560402 0.008020032
-0.26853213 -0.018605702 0.92920524 0.7240717 0.00023832411 -0.25010198 -0.25916663 1.1682194
-0.26163226 -0.16103686 -0.020345103 0.5781397 0.42401898 0.33390638
00000000: 5b93 9640 01f5 e6bc db93 cfbf 89a6 7e3f
00000010: aec1 a234 0000 0000 28fe 8f40 a258 1b3a
00000020: 498f ef3e c6b1 b340 f564 683a 8232 403d
00000030: 46f7 553b 8161 733f aa11 093b de41 023d
00000040: b642 ec3c e805 783f 1053 9139 e074 ed3e
00000050: b047 b440 de6d 4539 6643 0cbc a523 e6bd
00000060: 91b5 7d3f 9fd2 083f 7f4a 98bb 4a08 f9bd
00000070: 4ab9 02b8 9637 51bb f93d da3b 6475 8c39
00000080: 15fd d3bb e78f 87be 7660 853f fbdd fa3d
00000090: 2273 6cbd f092 9ebd 29af 763d 6916 dd3e
000000a0: e473 493d 720c c3bb 41b9 eb3b 9315 0ebc
000000b0: 3ed8 7d3f f395 473f 3ab9 8d39 28e9 f9bb
000000c0: e212 64be d9fe 803f 7c18 083f 3bee 6cbd
000000d0: 077d 15bc 1312 ae3c 82a6 4a3e 1906 8c3c
000000e0: 5c8d 843d b8df 4dbc 0cc8 9bbd dc18 723f
000000f0: ff49 303f 3385 c437 8624 14bc c071 8cbe
00000100: d568 853f 38bd acbc cf29 11bc 57fc 403d
00000110: fb0d 113e 6243 543f 7273 b93d 5b12 f4bc
00000120: f5fb 443a a1a6 adbc 4869 7e3f 13a7 483f
00000130: 7fc8 d539 721b 17bd 2731 f2bd 121f 693f
00000140: f602 c8be f746 2a3d e9cf e1be bf2d cfbd
00000150: 85d3 64be 51e6 0abd 3ffe 923d 40db cabb
00000160: b460 f03c 1967 743f 6f32 433f 0000 0000
00000170: 6965 fbbc 3695 99bc c076 4f3f 5e16 1a3f
00000180: bfa1 663e eb4a 853d 5507 55bd 9389 d8be
00000190: cacb 28be 3425 b53e 26e4 58ba 019c c63c
000001a0: 81ab 633f 3729 4b3f 0000 0000 d8d1 42bd
000001b0: ee87 49bb 828a 443f c827 6fbe b926 dabb
000001c0: d164 ccbe 7283 b6bc 5b56 01bf ff46 8ebe
000001d0: 2a7f 8cbd 08e5 2e3b 5b04 d2bd 8dce 773f
000001e0: c3a4 473f 3648 083a a61f 04bd c07f f6bd
000001f0: 089f 683f 3e41 fb3e 9782 33be 2376 363d
00000200: 6c62 dd3d bfd5 46be b51f ba3d e43d b0be
00000210: 4f4b e03c fdc2 743d 4aea 603f 9b1c 2d3f
00000220: 0000 0000 cf95 82bd a032 c0bc 8b99 593f
00000230: 26bb 093f a6e1 87be 8898 be3e e063 de3d
00000240: 3c93 c4be e848 073e 30e7 e83e 5db6 88bc
00000250: 49ff 44bc aecd 593f b3e4 5b3f 0000 0000
00000260: ac55 9fbd 82fa cf3c 8f40 503f e70c d33e
00000270: 65b4 163d 9f61 8c3e 8e3f df3d ad32 02bf
00000280: 11b7 d33d d44d 02be 31f3 f43a 5c04 93b9
00000290: 47bf 793f 0753 4d3f 5a18 1839 90ed 483d
000002a0: db66 71be 0e34 873f 94c8 fbbe c558 ed3e
000002b0: e373 e8be 2d92 84be 9fcd 013f dd13 ab3d
000002c0: d0c6 cfbc 26d6 223e a355 b7bd 7011 683f
000002d0: b123 5a3f 34db 0c39 04f5 0f3e 32a4 3ec1
000002e0: 9c5d 8c3f 243f 4ebe d8ea 243f 17ef 7e3e
000002f0: 6f2c d7be 5d5c 063f 3b69 563e bfd6 7f3b
00000300: 9f97 a83e e755 5e3c 6f40 663f fcd8 4b3f
00000310: d433 0639 7cdc 523e 739d 3ec1 6b0a 973f
00000320: 85d8 4dbe 54e5 233f 9934 803e f938 ffbe
00000330: 4581 023f 6987 aa3e 04d9 0639 71a3 a0bd
00000340: f3b5 6fbe 72a7 863f 8418 62be fb17 09be
00000350: 6e9a b53e f996 bc3e 4d7c d63e 1dcc c33d
00000360: 245a 06bd 3106 05be 2201 173e c44b 673f
00000370: 388f 5c3f b49c 1539 fd4f 49be 8ad2 83be
00000380: dc4d 8d3f 4d2c 86be 0f4e 23be 2fd7 a4bc
00000390: 3d89 043f bfa7 db3e 4dc7 5c3e 7466 033c
000003a0: 0b7d 89be fc6a 98bc 65e0 6d3f c35c 393f
000003b0: a4e6 7939 5e0d 80be 7db1 84be 3788 953f
000003c0: aaf4 85be d9e6 24be c6aa a6bc f700 143f
000003d0: 0419 d93e c7f5 aa3e

network_body._body_endoder.seq_layers.0.weight f4 [256, 246]
0.092239834 0.1949197 -0.05187179 -0.12716754 0.050200272 0.089024216 0.07977598 -0.1944916
-0.02586786 -0.1191063 0.0384031 0.058110848 -0.06942548 0.12963161 0.00945081 0.077616766
0.055366922 0.014565035 -0.18101484 -0.035357095 -0.19527292 -0.066191584 0.14157474 0.024470223
0.0010095314 -0.076895915 0.16041966 -0.020910745 -0.06374254 0.24094775 0.10843051 -0.045117524
0.17787702 -0.024014974 -0.16320369 -0.117157064 0.10282905 -0.0073172087 0.08687026 0.051431928
0.13606511 -0.108213216 -0.051362626 -0.18098658 0.09654128 -0.20314193 0.083239816 0.07829369
0.02373075 -0.07610187 -0.03591138 0.021820184 0.063646406 -0.013370475 0.15270008 -0.011999459
-0.037070736 0.006135695 -0.07389063 0.046193123 0.012971916 -0.06873053 0.09387463 -0.06501572
-0.053450316 0.17392837 -0.015070031 -0.07098159 -0.057584908 -0.09337735 -0.020834627 -0.025315221
-0.038345043 -0.07154528 0.09613268 -0.022323586 -0.13560662 0.15515575 -0.06290415 0.047466267
-0.20112789 0.059532315 -0.07195827 -0.16128801 -0.011811961 -0.09305596 0.029904535 0.031095363
-0.032792117 0.049882993 -0.090588346 -0.040899735 0.031659033 -0.14424857 -0.07379712 0.10446076
0.028209994 0.12229949 0.045687716 0.21573488 -0.094955176 0.10083792 0.037244227 0.00948923
-0.0018900138 0.03190559 0.12293802 -0.12722462 -0.005851057 -0.03536892 0.023555083 0.014193572
0.00911098 0.049979053 0.082216695 -0.018202981 0.05879036 0.041168716 -0.043378312 -0.020727346
0.016464772 -0.12410677 -0.053273484 -0.032506205 0.139034 -0.16475475 -0.1210658 -0.14023279
-0.13162293 0.0033256763 -0.011632756 -0.14684299 -0.12179652 -0.23298304 -0.13546772 -0.055313196
0.024512123 -0.04961534 0.09308069 0.075068116 -0.017194191 -0.16073126 -0.06864371 -0.3116905
0.18887676 0.28315818 -0.3116982 -0.088917375 -0.12896994 0.19440268 -0.055267405 0.025094494
-0.121993355 -0.09059254 -0.03812896 -0.074775 -0.006276226 -0.053967245 -0.4135214 0.2272611
0.22596084 0.33083868 -0.04514903 0.04911193 0.13522089 0.13112932 -0.07162145 -0.06518713
-0.15141964 -0.0791806 0.06904557 -0.010503205 0.041065123 0.051262584 0.14916566 0.040611356
0.082995825 0.059216954 -0.0915143 -0.10545817 0.056817245 -0.1460309 0.06350572 -0.10936608
-0.090212286 -0.05752497 -0.101666264 -0.08499664 0.034309518 0.022777453 0.0071539623 -0.001326349
0.06715969 -0.029847283 -0.08515666 -0.06542773 -0.064383395 -0.10946471 -0.11595938 0.0922974
-0.028299186 -0.2765204 -0.015478805 -0.029867444 0.05240538 -0.009656344 -0.07651817 0.05904758
-0.00013183041 -0.069689676 -0.026455963 0.044977892 0.01404917 0.16777898 -0.054218765 -0.028732145
-0.2260189 -0.126436 0.05897145 0.1170781 0.23030053 -0.06764108 0.06930531 -0.11585847
-0.027721046 -0.015695477 0.062209345 -0.0863094 0.016123492 0.12616163 0.05453865 -0.01773721
0.123533435 -0.0067519215 0.23563878 -0.043116886 -0.11081606 0.07430586 -0.17675555 -0.02147789
-0.009743205 0.10116767 0.01070734 -0.033620294 0.040058088 0.04181936 0.08769973 -0.0010690343
-0.16159578 0.07939778 0.078051165 0.06930193 0.18942685 -0.17443225 0.064317875 0.10312873
00000000: 3de8 bc3d 0899 473e 8477 54bd 3538 02be
00000010: cd9e 4d3d 5452 b63d 9761 a33d ce28 47be
00000020: d6e8 d3bc 01ee f3bd 924c 1d3d a405 6e3d
00000030: f22e 8ebd 26be 043e 92d7 1a3c 8af5 9e3d
00000040: 6dc8 623d 2fa2 6e3c f45b 39be 9ad2 10bd
00000050: a0f5 47be 748f 87bd f8f8 103e c775 c83c
00000060: 4152 843a 9b7b 9dbd 0d45 243e 034d abbc
00000070: 738b 82bd 02bb 763e d110 de3d 27cd 38bd
00000080: 6525 363e 0dbb c4bc de1e 27be 0bf0 efbd
00000090: 0998 d23d 32c5 efbb 09e9 b13d 49aa 523d
000000a0: a754 0b3e e49e ddbd 9e61 52bd 8c54 39be
000000b0: 6fb7 c53d 7004 50be a379 aa3d 7158 a03d
000000c0: fd66 c23c 4cdb 9bbd d017 13bd 3ec0 b23c
000000d0: 0c59 823d d60f 5bbc 695d 1c3e 6199 44bc
000000e0: 7cd7 17bd f10d c93b f853 97bd 0035 3d3d
000000f0: 2988 543c 98c2 8cbd 5841 c03d f626 85bd
00000100: b8ee 5abd 471a 323e 4be8 76bc cc5e 91bd
00000110: 27de 6bbd a03c bfbd 61ad aabc de61 cfbc
00000120: b10f 1dbd 5586 92bd 36e1 c43d f4df b6bc
00000130: 76dc 0abe 26e1 1e3e e4d3 80bd fd6b 423d
00000140: 78f4 4dbe 28d8 733d dc5e 93bd af28 25be
00000150: f586 41bc 2094 bebd 5bfa f43c b4bb fe3c
00000160: 0751 06bd 1c52 4c3d 6286 b9bd 7b86 27bd
00000170: e7ac 013d e6b5 13be f222 97bd 86ef d53d
00000180: a518 e73c 2878 fa3d 0b23 3b3d 9be9 5c3e
00000190: dc77 c2bd 1d84 ce3d 678d 183d b778 1b3c
000001a0: 57ba f7ba 70af 023d eec6 fb3d 2c47 02be
000001b0: 39ba bfbb 00df 10bd 97f6 c03c 288c 683c
000001c0: 3846 153c d6b6 4c3d 3a61 a83d 6b1e 95bc
000001d0: 29ce 703d 87a0 283d 75ad 31bd 65cc a9bc
000001e0: 21e1 863c b12b febd 4c35 5abd 3a25 05bd
000001f0: ee5e 0e3e 78b5 28be 59f1 f7bd 2f99 0fbe
00000200: 29c8 06be 97f3 593b 5197 3ebc 025e 16be
00000210: 7470 f9bd 1b93 6ebe 0db8 0abe 1790 62bd
00000220: a6cd c83c 7439 4bbd 17a1 be3d 50bd 993d
00000230: d5da 8cbc bc96 24be 1395 8cbd e695 9fbe
00000240: e968 413e 1cfa 903e e896 9fbe 501a b6bd
00000250: b210 04be 7f11 473e 1360 62bd f892 cd3c
00000260: a7d7 f9bd 9588 b9bd 1d2d 1cbd a323 99bd
00000270: cda8 cdbb c20c 5dbd 14b9 d3be 22b7 683e
00000280: 4762 673e b063 a93e 30ee 38bd 9729 493d
00000290: 5877 0a3e c446 063e 44ae 92bd d480 85bd
000002a0: c00d 1bbe 7029 a2bd c467 8d3d a215 2cbc
000002b0: e733 283d b7f8 513d e2be 183e 1858 263d
000002c0: b7f9 a93d 7a8d 723d d96b bbbd 74fa d7bd
000002d0: 33b9 683d 2089 15be 490f 823d 53fb dfbd
000002e0: 38c1 b8bd 4e9f 6bbd 6736 d0bd b812 aebd
000002f0: 2388 0c3d c897 ba3c c96b ea3b e3d8 adba
00000300: 058b 893d 4a82 f4bc 9d66 aebd f9fe 85bd
00000310: 71db 83bd 092f e0bd 1d7c edbd 6b06 bd3d
00000320: b2d3 e7bc 1594 8dbe d09a 7dbc 92ac f4bc
00000330: 06a7 563d a435 1ebc 8fb5 9cbd e0db 713d
00000340: f53b 0ab9 76b9 8ebd 2dba d8bc bd3a 383d
00000350: 7d2e 663c 41ce 2b3e 7f14 5ebd ad5f ebbc
00000360: 8071 67be 7078 01be 0c8c 713d a5c6 ef3d
00000370: e7d3 6b3e 6887 8abd f1ef 8d3d 3547 edbd
00000380: 3f17 e3bc cd93 80bc 3acf 7e3d fcc2 b0bd
00000390: 6a15 843c 8430 013e eb63 5f3d a04d 91bc
000003a0: 19ff fc3d 393f ddbb 4b4b 713e 559b 30bd
000003b0: 88f3 e2bd ac2d 983d 68ff 34be 66f2 afbc
000003c0: f7a1 1fbc ff30 cf3d d76d 2f3c 6fb5 09bd
000003d0: f313 243d c74a 2b3d eb9b b33d d71e 8cba
000003e0: 5d79 25be 4e9b a23d 4ad9 9f3d 2cee 8d3d
000003f0: 1df9 413e 5e9e 32be 17b9 833d 2835 d33d

network_body._body_endoder.seq_layers.0.bias f4 [256]
0.080572695 -0.05475452 0.006563805 0.0678359 0.061068714 -0.023956778 -0.06108259 0.061460678
0.07083374 -0.095130995 0.028367901 -0.03637316 0.10027004 -0.01735518 -0.010130638 0.045347217
-0.026886253 0.03609092 0.01424528 0.005431031 -0.102894746 -0.0052696886 -0.10059144 0.0017629752
0.0042712735 -0.009967449 0.0781903 -0.0041107344 -0.045514047 -0.04660193 0.061081853 0.005936121
-0.014446398 0.022275046 -0.057052623 -0.05932705 -0.050725996 0.0024504198 -0.09067065 0.031210918
-0.030575933 -0.07905775 0.104922526 0.06956179 0.039496362 -0.04013741 -0.0055300654 0.055595204
-0.043488745 0.02862363 -0.01284079 0.050152842 0.0049299328 0.077349275 -0.004620294 0.047602177
0.017162332 -0.030473426 0.0013417973 0.038001217 -0.04519115 -0.06403902 0.06402674 0.11008841
-0.023159105 -0.019924508 -0.035717726 0.075179935 0.01814326 0.015242737 0.017069107 0.052922305
0.018882032 -0.087567516 -0.01944496 -0.03467619 0.024026934 -0.04440153 -0.114309184 0.03602022
-0.005717385 0.051764604 0.00763744 -0.12293564 0.03561019 -0.026996989 -0.015959106 0.021744506
0.013402368 0.012562161 -0.048375603 0.019141935 -0.050591365 -0.05492131 0.059348002 -0.013428983
-0.07464012 0.0109964125 -0.052348122 -0.08677855 0.04493851 0.037317723 -0.025522562 -0.016957153
-0.07241502 -0.07710146 -0.06135571 -0.010378754 0.034374714 -0.018120937 0.0079981545 -0.00637917
0.0017223803 0.00694105 -0.056546908 -0.017430414 0.05747653 0.004389469 -0.017902488 -0.01576763
-0.08895607 0.06737825 0.008728238 0.09289307 -0.04187307 -0.050680336 0.05753516 -0.07067272
-0.15265514 -0.023567602 -0.039329235 -0.022592774 -0.020671718 -0.03150894 0.00698673 -0.0010834932
-0.0068186675 -0.083186954 -0.05567467 0.0101410765 0.017958766 0.069295965 -0.12709789 -0.048914026
-0.05742151 0.06620302 -0.03069415 0.006442903 -0.088325545 -0.074609905 -0.020327624 -0.000104043545
-0.020036334 -0.028957788 -0.02809005 -0.0091872895 0.019420281 -0.037445907 0.005268524 -0.009706073
-0.058162484 -0.086132 -0.00027145701 -0.010332747 0.036557753 0.09763507 -0.04741032 -0.07611989
-0.066924684 -0.061517265 -0.068122104 -0.018170916 -0.07637131 0.011395183 0.02095254 -0.046665527
-0.09053716 -0.12739241 0.13385218 0.044023912 0.094663434 -1.4064288e-05 0.06886034 -0.046788227
0.0003284913 0.034729794 0.12672812 -0.029032739 -0.06754326 -0.07796338 0.039006043 0.03265294
-0.07415176 -0.08357259 -0.00037325514 -0.015018933 -0.10663491 -0.01102572 -0.0014587742 -0.02154403
-0.007608376 -0.16613303 -0.06894877 0.012611103 -0.020001046 -0.067003556 -0.021663683 0.018052762
-0.015686125 -0.034768973 -0.16249037 -0.11111613 0.10661349 -0.060673017 0.032327343 0.032798756
0.09520043 -0.1625361 0.103581 0.0808077 0.0237321 -0.04566873 0.07816573 0.081654675
-0.0064519215 0.120421134 0.08974984 -0.08433839 -0.014648059 0.0867426 -0.010789256 -0.07689643
0.058241572 -0.06273081 0.048996605 0.030688493 -0.028721986 -0.018286 0.06815553 -0.06521844
-0.08495543 -0.0058939066 -0.043816008 0.020035755 0.08635247 0.011794341 -0.041626982 -0.10857625
-0.015426421 -0.13693614 -0.034309756 -0.03138545 0.053059883 -0.0967043 -0.09737339 -0.034123816
00000000: 4c03 a53d 4746 60bd 3015 d73b 8ced 8a3d
00000010: 3023 7a3d 0141 c4bc bd31 7abd 31be 7b3d
00000020: 4811 913d 0ad4 c2bd cd63 e83c 06fc 14bd
00000030: 615a cd3d 732c 8ebc fafa 25bc 01be 393d
00000040: 8f40 dcbc 13d4 133d 0965 693c caf6 b13b
00000050: 7bba d2bd 5aad acbb e302 cebd a213 e73a
00000060: 0af6 8b3b 834e 23bc 3c22 a03d 57b3 86bb
00000070: f06c 3abd aae1 3ebd f730 7a3d cb83 c23b
00000080: 96b0 6cbc 287a b63c 03b0 69bd ec00 73bd
00000090: 10c6 4fbd 3997 203b 89b1 b9bd 0aae ff3c
000000a0: 617a fabc 08e9 a1bd 9fe1 d63d 6976 8e3d
000000b0: f0c6 213d 2067 24bd 8d35 b5bb ccb7 633d
000000c0: 4121 32bd 1a7c ea3c 2d62 52bc 116d 4d3d
000000d0: 468b a13b 4c69 9e3d d665 97bb 80fa 423d
000000e0: 0598 8c3c 68a3 f9bc 3fdf af3a 2aa7 1b3d
000000f0: 5b1a 39bd e426 83bd 7420 833d 0876 e13d
00000100: 2ab8 bdbc b938 a3bc c04c 12bd f0f7 993d
00000110: 2da1 943c acbc 793c 83d4 8b3c 0fc5 583d
00000120: 7eae 9a3c 9956 b3bd 094b 9fbc 9f08 0ebd
00000130: 22d4 c43c 61de 35bd ef1a eabd f089 133d
00000140: e758 bbbb 1f07 543d 7e43 fa3b aec5 fbbd
00000150: fedb 113d ca28 ddbc acbc 82bc 8921 b23c
00000160: 9b95 5b3c 86d1 4d3c 7f25 46bd 8ccf 9c3c
00000170: e438 4fbd 2bf5 60bd e416 733d 3d05 5cbc
00000180: ebdc 98bd 4c2a 343c fc6a 56bd f4b8 b1bd
00000190: 7111 383d 78da 183d b114 d1bc bae9 8abc
000001a0: 534e 94bd 5fe7 9dbd 2050 7bbd a60b 2abc
000001b0: 80cc 0c3d 5c72 94bc b10a 033c 5b08 d1bb
000001c0: 7ec1 e13a bf71 e33b bb9d 67bd 3aca 8ebc
000001d0: 836c 6b3d 89d5 8f3b 3da8 92bc 1e2b 81bc
000001e0: 9a2e b6bd 9cfd 893d e200 0f3c b93e be3d
000001f0: 1983 2bbd 2f96 4fbd fda9 6b3d dcbc 90bd
00000200: a151 1cbe d810 c1bc b117 21bd 7b14 b9bc
00000210: bc57 a9bc 850f 01bd f0f0 e43b 0004 8eba
00000220: 216f dfbb ec5d aabd 1f0b 64bd c226 263c
00000230: 431e 933c 0beb 8d3d f325 02be 135a 48bd
00000240: d132 6bbd 7395 873d 4c72 fbbc fd1e d33b
00000250: 06e4 b4bd 14cd 98bd 1e86 a6bc f431 dab8
00000260: 3d23 a4bc e238 edbc 1b1d e6bc 4986 16bc
00000270: 4817 9f3c e160 19bd 95a3 ac3b 3906 1fbc
00000280: c93b 6ebd f965 b0bd 5852 8eb9 af4a 29bc
00000290: 95bd 153d e5f4 c73d 5331 42bd bfe4 9bbd
000002a0: cf0f 89bd 87f9 7bbd 9a83 8bbd 2cdb 94bc
000002b0: 9068 9cbd ddb2 3a3c a9a4 ab3c 5a24 3fbd
000002c0: 8c6b b9bd 2873 02be 8c10 093e 6b52 343d
000002d0: e7de c13d a8f5 6bb7 a606 8d3d 03a5 3fbd
000002e0: 5b39 ac39 d440 0e3d 04c5 013e 11d6 edbc
000002f0: 1f54 8abd 44ab 9fbd cdc4 1f3d 17bf 053d
00000300: e1dc 97bd 1b28 abbd 75b1 c3b9 f911 76bc
00000310: 6763 dabd 39a5 34bc 5734 bfba 1b7d b0bc
00000320: af4f f9bb c71e 2abe 0335 8dbd cd9e 4e3c
00000330: 3cd9 a3bc 2939 89bd 0978 b1bc 63e3 933c
00000340: 3080 80bc e969 0ebd e063 26be db90 e3bd
00000350: 2c58 da3d 4584 78bd ad69 043d fd57 063d
00000360: 71f8 c23d dd6f 26be 4622 d43d 827e a53d
00000370: d269 c23c 220f 3bbd 5b15 a03d 913a a73d
00000380: a46a d3bb 5b9f f63d c4ce b73d 9bb9 acbd
00000390: 6afe 6fbc 1ba6 b13d 6bc5 30bc e07b 9dbd
000003a0: b78e 6e3d 0379 80bd aab0 483d 6f66 fb3c
000003b0: 5f4a ebbc 85cc 95bc 2095 8b3d 3f91 85bd
000003c0: 1dfd adbd ac21 c1bb 6a78 33bd 0622 a43c
000003d0: 90d9 b03d 0d3d 413c 0e81 2abd 3a5d debd
000003e0: 19bf 7cbc fd38 0cbe 6388 0cbd 088e 00bd
000003f0: 5255 593d e70c c6bd b36b c7bd 6ac5 0bbd

network_body._body_endoder.seq_layers.2.weight f4 [256, 256]
-0.16608606 0.023537515 0.01952976 -0.008498823 0.2442024 -0.08944042 0.13552085 0.077906504
-0.0976841 0.044939276 -0.07519203 -0.09447149 -0.08969286 -0.015313374 -0.06704567 0.1086858
-0.025901444 -0.045386165 -0.1155355 0.08451687 0.086810306 -0.086105466 -0.012052391 -0.021527853
-0.0526224 -0.057167873 0.053643875 -0.10774088 -0.036683172 0.02962506 -0.0755335 0.14352839
-0.15295815 0.04141754 -0.2814881 -0.12125193 -0.09426105 0.027758546 0.037537415 -0.04053815
0.021889783 -0.063656256 -0.048317753 0.09247931 0.026013382 0.056805447 -0.01739173 -0.10271164
-0.012543062 0.01604882 0.019042192 0.15213546 0.031557232 0.2720528 0.039523948 0.2808922
-0.10996415 0.004519606 0.021984473 -0.061187398 0.0032989935 -0.019760994 -0.18199079 -0.13628939
0.017673576 0.015494976 0.24595107 0.12142627 -0.038736682 0.01704356 -0.078809686 0.051382873
-0.10257813 -0.10167606 0.0512723 -0.08715476 -0.05415648 -0.09950489 0.056056235 -0.13548693
0.13669658 0.056091145 0.17219599 0.18675834 0.0047440953 -0.09183783 -0.08857528 0.043485302
-0.096441105 -0.18961813 0.044229124 -0.017501652 -0.108377725 -0.15740296 0.002268294 -0.017705115
0.07924478 0.036258448 0.12134034 -0.017563237 -0.07411073 0.07007577 0.052178614 0.02159046
-0.14215638 -0.04204298 0.04731529 0.017436054 -0.013946077 -0.007504456 0.12211216 -0.028916385
-0.07183682 0.13677377 0.015517788 -0.10966945 0.097783044 0.0382676 0.08890048 -0.15291496
0.10486554 -0.13012463 0.04721141 -0.03264204 -0.07855984 -0.009905998 0.13515437 -0.0037840088
0.14004855 -0.027505178 0.09867559 -0.0761873 -0.05709748 0.088546105 0.0061873067 0.20324655
-0.0027179592 -0.130365 -0.108402364 0.03386336 -0.056403752 -0.026824506 0.0052906624 -0.003857275
-0.1376528 0.006191497 -0.025517495 0.04510901 -0.09698103 -0.08540609 0.07204803 -0.119072914
0.08525806 -0.07351472 -0.10312311 0.03232448 -0.21026337 0.02601996 0.10336528 -0.04981514
-0.056691393 -0.07943184 -0.0015961165 0.018022293 -0.09639337 0.116615914 -0.026552636 0.09885442
0.15128732 -0.16099246 0.096038625 -0.05438587 -0.09444539 0.04311283 -0.06424482 -0.0038975189
-0.011953576 -0.07380858 -0.11514162 -0.020298198 -0.029903164 -0.082898796 0.20625474 0.100036845
-0.046585403 -0.0077790734 0.032838725 0.038719032 0.014149259 -0.051247474 -0.12652096 -0.14152096
-0.11525111 0.016546773 -0.06390499 0.074131735 0.012738721 -0.024313394 0.11628738 0.04202002
0.057828397 0.09952229 -0.025767019 -0.06048412 -0.06399775 0.050811745 0.064324096 0.06560727
-0.06970714 -0.17976536 -0.10780035 -0.08438484 0.0064396583 0.0083620595 -0.12258195 0.024660703
0.068408415 -0.08506005 -0.06075871 0.01070067 -0.100835435 -0.06756673 0.06830277 0.028995233
-0.008989083 -0.01890368 -0.013163728 -0.1017821 -0.009373936 0.17212673 -0.16348346 0.0223386
-0.00070803554 -0.06221936 -0.035670012 -0.0037621772 0.033508994 -0.110481896 -0.03172669 0.065452494
-0.13367622 0.20824488 0.025474211 0.05887368 0.013877957 0.041135754 -0.16189988 -0.097848676
0.06898582 -0.060136743 0.19722918 -0.12174832 0.15037921 -0.06773865 0.051982287 -0.18422629
00000000: 7712 2abe bfd1 c03c e0fc 9f3c a63e 0bbc
00000010: 3210 7a3e 8a2c b7bd fac5 0a3e 728d 9f3d
00000020: 9a0e c8bd 3f12 383d 47fe 99bd 457a c1bd
00000030: e4b0 b7bd f2e4 7abc 3d4f 89bd a996 de3d
00000040: 442f d4bc d8e6 39bd e09d ecbd 2e17 ad3d
00000050: 9ac9 b13d 1058 b0bd 6477 45bc 2e5b b0bc
00000060: 968a 57bd dc28 6abd aeb9 5b3d 40a7 dcbd
00000070: 1841 16bd 41b0 f23c 4fb1 9abd 1bf9 123e
00000080: 10a1 1cbe 70a5 293d 351f 90be ef52 f8bd
00000090: f00b c1bd e465 e33c d5c0 193d 550b 26bd
000000a0: 3452 b33c 365e 82bd d6e8 45bd cb65 bd3d
000000b0: 041a d53c d4ac 683d 1a79 8ebc 7b5a d2bd
000000c0: 6a81 4dbc d178 833c 5ffe 9b3c 66c9 1b3e
000000d0: 2842 013d 814a 8b3e dde3 213d 1ad1 8f3e
000000e0: e234 e1bd 3419 943b c818 b43c a39f 7abd
000000f0: ed33 583b cfe1 a1bc cb5b 3abe 728f 0bbe
00000100: 2dc8 903c a4de 7d3c 99da 7b3e 56ae f83d
00000110: 5baa 1ebd f09e 8b3c f966 a1bd d976 523d
00000120: 7c14 d2bd 8a3b d0bd e702 523d 327e b2bd
00000130: 2fd3 5dbd 38c9 cbbd 399b 653d 16bd 0abe
00000140: 30fa 0b3e d4bf 653d 2554 303e 943d 3f3e
00000150: 5b74 9b3b 7915 bcbd f566 b5bd a51d 323d
00000160: ea82 c5bd 412b 42be 9929 353d a05f 8fbc
00000170: 24f5 ddbd 3e2e 21be a9a7 143b 510a 91bc
00000180: 164b a23d bd83 143d 4981 f83d c7e0 8fbc
00000190: 5ec7 97bd e383 8f3d 3eb9 553d 7ade b03c
000001a0: 7191 11be 4335 2cbd adcd 413d 0ed6 8e3c
000001b0: 167e 64bc f1e7 f5bb f115 fa3d 0ee2 ecbc
000001c0: 2f1f 93bd 6c0e 0c3e 523e 7e3c 609a e0bd
000001d0: 7a42 c83d 7dbe 1c3d 7411 b63d bd95 1cbe
000001e0: bfc3 d63d 643f 05be c060 413d a9b3 05bd
000001f0: fbe3 a0bd c44c 22bc e865 0a3e 22fd 77bb
00000200: e368 0f3e 8a52 e1bc 6d16 ca3d 1608 9cbd
00000210: 0cdf 69bd a957 b53d e4be ca3b dd1f 503e
00000220: ca1f 32bb 677e 05be 0f02 debd 4eb4 0a3d
00000230: 9f07 67bd 11bf dbbc 4b5d ad3b 56ca 7cbb
00000240: dbf4 0cbe 0be2 ca3b 110a d1bc 3ac4 383d
00000250: fe9d c6bd 63e9 aebd eb8d 933d 80dc f3bd
00000260: c79b ae3d e38e 96bd 3632 d3bd ad66 043d
00000270: 484f 57be d027 d53c 2db1 d33d f60a 4cbd
00000280: 3c35 68bd 29ad a2bd c834 d1ba 7da3 933c
00000290: e369 c5bd 53d4 ee3d ea84 d9bc 3074 ca3d
000002a0: 10eb 1a3e 35db 24be e6af c43d b8c3 5ebd
000002b0: 966c c1bd 1497 303d ca92 83bd 846d 7fbb
000002c0: eed8 43bc f428 97bd 5fcf ebbd 6848 a6bc
000002d0: 7bf7 f4bc d8c6 a9bd 7134 533e 1ee0 cc3d
000002e0: 56d0 3ebd 99e7 febb e681 063d d997 1e3d
000002f0: 4bd2 673c dfe8 51bd b68e 01be dfea 10be
00000300: c608 ecbd 198d 873c 9fe0 82bd 61d2 973d
00000310: 12b6 503c e22c c7bc 1428 ee3d 2f1d 2c3d
00000320: 78dd 6c3d 58d2 cb3d 5b15 d3bc 32be 77bd
00000330: 4111 83bd fa1f 503d 5abc 833d 1b5d 863d
00000340: 9ec2 8ebd 6914 38be 6ec6 dcbd f6d1 acbd
00000350: c503 d33b 0501 093c 3f0c fbbd 3e05 ca3c
00000360: b619 8c3d f733 aebd 20de 78bd dd51 2f3c
00000370: cf82 cebd 6d60 8abd 53e2 8b3d 6987 ed3c
00000380: f246 13bc e4db 9abc adac 57bc 2273 d0bd
00000390: 2395 19bc fd41 303e 3568 27be 71ff b63c
000003a0: 769b 39ba bad9 7ebd b81a 12bd dc8e 76bb
000003b0: ba40 093d 5544 e2bd d8f3 01bd f50b 863d
000003c0: 6be2 08be 253e 553e 4baf d03c 8725 713d
000003d0: 5f60 633c f77d 283d 15c9 25be e364 c8bd
000003e0: 7048 8d3d f251 76bd 72f6 493e 2f57 f9bd
000003f0: 02fd 193e 90ba 8abd 61eb 543d d1a5 3cbe

network_body._body_endoder.seq_layers.2.bias f4 [256]
-0.019388657 -0.011537857 -0.0018784628 0.03092539 -0.02481285 0.005670385 0.0060172067 -0.03802692
-0.013384365 -0.045842957 -0.03913205 0.028923826 -0.023744334 -0.053630617 0.012737504 0.021657221
0.013427469 0.004767872 -0.04624309 0.04183715 0.04033975 0.07445781 0.01769888 0.070463896
-0.1006628 -0.04106596 -0.0557179 -0.116436504 0.039563965 -0.0023630313 0.001840018 -0.10208969
-0.029552089 -0.069394596 -0.005360657 -0.06448326 -0.034422193 -0.023482198 -0.061285023 0.02645011
-0.06673481 -0.09038311 0.020860445 -0.00725855 -0.0122218365 -0.0068936893 0.043307725 0.037399605
0.026120503 -0.074103534 0.018724233 0.03303324 0.0033627113 0.049100548 0.06558915 -0.017147547
0.052431766 -0.0014159693 0.018084187 -0.1261321 0.01521797 0.0732512 -0.12150754 -0.055185705
-0.097193494 0.06820118 -0.06603438 -0.0030408015 -0.064848 0.03286422 0.012988406 -0.06363038
-0.030121759 -0.0124595 0.034325738 -0.0058891815 -0.010864089 -0.067219965 -0.0089676315 -0.07218496
0.02360375 0.07061652 -0.086950496 -0.06289836 -0.00074979034 -0.054412708 0.04120317 -0.015433006
-0.116477184 -0.028976899 -0.03295815 -0.07780274 0.038513903 -0.030695304 0.0013064605 -0.05589054
0.02516448 -0.08306214 -0.09697597 0.04661126 0.05265769 0.020511942 -0.026192017 -0.131278
-0.00447044 -0.121813975 -0.028934488 -0.023301464 -0.001873616 0.05894826 0.028011357 0.033764966
0.025647286 0.06258563 0.062009152 -0.011806513 0.018770251 0.026049301 0.012294082 -0.03850969
0.0011431186 -0.043955114 -0.013870038 -0.026015915 0.010581534 -0.10170101 0.0076596607 0.0029476872
-0.07342439 0.010508637 0.04119093 -0.007492476 0.02577634 -0.010120641 0.019620804 -0.07082593
0.019998284 0.015101459 0.028370356 -0.033551786 -0.03498229 0.018768445 -0.092156745 -0.048692495
0.008164906 -0.037960958 0.04614417 -0.022817912 0.028214382 0.013855929 0.0215871 -0.032788254
0.035718203 -0.02856962 -0.08861238 -0.024981769 -0.046431076 0.023762858 0.021667313 -0.01843762
0.06935817 -0.11786414 -0.042485576 0.03775182 -0.0087261945 0.08280235 -0.0060995435 0.020192215
0.0021115018 -0.06686082 -0.004379713 0.031724107 0.012495332 -2.6822792e-05 0.006253588 0.0023610091
-0.06282473 -0.08144124 -0.027542075 0.016956829 -0.0013050971 0.03178993 -0.050618205 -0.11388304
-0.027298057 0.035429467 -0.012226588 -0.06739717 -0.050969735 -0.027910417 0.016615119 0.04600824
-0.0051187836 -0.060764957 0.08299664 -0.09759519 0.009190334 -0.062240805 -0.021842243 -0.031394467
0.0116599165 0.026181743 0.06556605 -0.04755565 -0.04394967 0.02624911 -0.019741341 -0.024423528
0.06849316 -0.09731901 0.00029096406 -0.10088433 -0.050712347 0.012104473 0.026674304 -0.12673153
-0.017119842 -0.020033943 -0.047044694 -0.08742652 -0.013217404 0.02047318 0.0127724055 -0.070912026
-0.05318834 -0.05804836 0.07289294 -0.08769821 -0.00096406223 -0.012935042 -0.10534273 0.023700174
0.045313723 -0.018758597 0.031120678 -0.0008391177 -0.018060327 -0.00621872 0.028743464 -0.016004888
-0.005075409 -0.074772984 -0.04271488 -0.036633275 0.047110483 -0.04267162 -0.015337159 -0.06392712
-0.09823616 -0.01923892 -0.070297875 -0.031150978 -0.019554239 0.03010195 -0.02271348 0.044231616
00000000: f6d4 9ebc 4809 3dbc c136 f6ba 3e57 fd3c
00000010: 5144 cbbc a3ce b93b fd2b c53b 1ec2 1bbd
00000020: 184a 5bbc d3c5 3bbd ee48 20bd a9f1 ec3c
00000030: 7a83 c2bc c7ab 5bbd f7b0 503c 7c6a b13c
00000040: e3fe 5b3c cf3b 9c3b 6569 3dbd 6e5d 2b3d
00000050: 4b3b 253d 567d 983d 3efd 903c 604f 903d
00000060: 4c28 cebd c834 28bd 7438 64bd 4376 eebd
00000070: d30d 223d 16dd 1abb c22c f13a 6614 d1bd
00000080: 3917 f2bc c11e 8ebd 73a8 afbb cd0f 84bd
00000090: 49fe 0cbd bd5d c0bc 0106 7bbd e7ad d83c
000000a0: 43ac 88bd c81a b9bd 86e3 aa3c 21d9 edbb
000000b0: 193e 48bc 75e4 e1bb 7163 313d 5430 193d
000000c0: aafa d53c 98c3 97bd 9063 993c dd4d 073d
000000d0: ef60 5c3b a81d 493d 9b53 863d 0379 8cbc
000000e0: b1c2 563d 0c98 b9ba 4a25 943c c628 01be
000000f0: cb54 793c ba04 963d f2d8 f8bd 680a 62bd
00000100: 620d c7bd 0fad 8b3d 083d 87bd 2f48 47bb
00000110: 07cf 84bd a29c 063d 53cd 543c a550 82bd
00000120: e8c1 f6bc ee22 4cbc 2599 0c3d 09fa c0bb
00000130: 4bff 31bc 9faa 89bd f9ec 12bc b5d5 93bd
00000140: a75c c13c 659f 903d 1a13 b2bd dbd0 80bd
00000150: 948d 44ba dcdf 5ebd a8c4 283d b8da 7cbc
00000160: 978b eebd f660 edbc 20ff 06bd 0b57 9fbd
00000170: c1c0 1d3d b874 fbbc 8a3d ab3a 7bed 64bd
00000180: bd25 ce3c 7c1c aabd 569b c6bd 73eb 3e3d
00000190: 97af 573d a908 a83c a490 d6bc bd6d 06be
000001a0: c57c 92bb 9b79 f9bd 0508 edbc b6e2 bebc
000001b0: 1f94 f5ba bb73 713d 1378 e53c 224d 0a3d
000001c0: 421a d23c e52c 803d 4ffd 7d3d 1b70 41bc
000001d0: 12c4 993c 5865 d53c 1e6d 493c 56bc 1dbd
000001e0: b2d4 953a 470a 34bd 283f 63bc 541f d5bc
000001f0: 2c5e 2d3c 9e48 d0bd e4fd fa3b fc2d 413b
00000200: 875f 96bd 6b2c 2c3c d2b7 283d 7283 f5bb
00000210: e728 d33c 0cd1 25bc cfbb a03c 2f0d 91bd
00000220: 71d3 a33c 1c6c 773c f368 e83c 996d 09bd
00000230: 9749 0fbd 48c0 993c adbc bcbd c871 47bd
00000240: 19c6 053c f37c 1bbd ab01 3d3d a1ec babc
00000250: d921 e73c fa03 633c 6ed7 b03c fa4c 06bd
00000260: 404d 123d d60a eabc 687a b5bd 91a6 ccbc
00000270: 832e 3ebd 53aa c23c a67f b13c 7e0a 97bc
00000280: a80b 8e3d c162 f1bd 5b05 2ebd a7a1 1a3d
00000290: 50f8 0ebc 4794 a93d aede c7bb 256a a53c
000002a0: 1f61 0a3b 53ee 88bd b283 8fbb 23f1 013d
000002b0: 39b9 4c3c 8201 e1b7 e6ea cc3b 29bb 1a3b
000002c0: 41aa 80bd aaca a6bd eb9f e1bc 0ce9 8a3c
000002d0: cb0f abba 2836 023d 0955 4fbd 833b e9bd
000002e0: 2da0 dfbc 7d1e 113d 0752 48bc 8707 8abd
000002f0: a4c5 50bd 63a4 e4bc 6e1c 883c 2373 3c3d
00000300: 78bb a7bb ade4 78bd 24fa a93d fddf c7bd
00000310: 0e93 163c 37f0 7ebd 81ee b2bc 7c97 00bd
00000320: 3c09 3f3c 187b d63c 7e47 863d b7c9 42bd
00000330: 9204 34bd 6008 d73c 98b8 a1bc da13 c8bc
00000340: 2446 8c3d 304f c7bd 898c 9839 729c cebd
00000350: c0b7 4fbd d751 463c 1284 da3c e9c5 01be
00000360: e93e 8cbc 391e a4bc f0b1 40bd ad0c b3bd
00000370: cf8d 58bc 5fb7 a73c 5a43 513c 533a 91bd
00000380: 04dc 59bd 1ec4 6dbd e548 953d 1e9b b3bd
00000390: 1fb9 7cba 80ed 53bc eebd d7bd de26 c23c
000003a0: e29a 393d a1ab 99bc cbf0 fe3c 3cf8 5bba
000003b0: 40f3 93bc 68c6 cbbb 6a77 eb3c af1c 83bc
000003c0: 9e4f a6bb 9422 99bd ccf5 2ebd c60c 16bd
000003d0: ecf6 403d 70c8 2ebd b548 7bbc 39ec 82bd
000003e0: 0a30 c9bd f19a 9dbc 55f8 8fbd 5630 ffbc
000003f0: 3630 a0bc 5d98 f63c 9f11 babc 362c 353d

network_body._body_endoder.seq_layers.4.weight f4 [256, 256]
0.10676995 0.02123878 -0.030424446 -0.022382794 -0.20818245 -0.17059119 -0.12542894 0.09580076
-0.003437006 -0.06904407 0.08082273 -0.090173036 -0.017838158 9.693917e-05 -0.07206582 -0.0056504314
-0.07503991 0.035859827 0.04664126 0.03611482 -0.040639233 0.058249332 -0.14118828 -0.22400698
0.118393734 0.12175763 0.037195943 -0.09069193 0.0060142437 0.033012334 -0.051340178 -0.107890666
0.17361367 0.113119975 -0.21000767 0.05300975 -0.00035987998 -0.020077458 0.027321247 0.22629121
-0.11644854 -0.01877282 -0.076833375 -0.017046766 -0.10000259 -0.1607252 -0.07201725 -0.018326767
0.10182051 0.16913748 0.16616908 0.046743054 0.21011579 0.042591467 -0.12622201 0.03316785
0.110803865 -0.11525483 -0.022304358 0.1140238 0.10721337 -0.04022246 0.080167785 0.007825599
-0.051617973 0.08866064 0.046508297 0.057366613 0.102432124 -0.20584974 -0.0854592 0.077185504
-0.049152263 -0.064144336 0.0743503 0.05104207 -0.08688281 -0.05808744 -0.07917848 -0.00075094926
-0.044996273 -0.10536845 -0.13701606 -0.09370861 -0.06819714 -0.1318098 -0.039827686 0.016548784
-0.011174812 0.032359112 0.22186159 0.109231964 0.004391036 -0.064003274 0.07879252 0.20355801
0.08525223 0.099245675 0.05331694 -0.17373371 0.17733319 -0.06858228 -0.021863433 0.005500076
-0.17011759 -0.003021931 -0.07343913 -0.110035904 0.06793903 -0.07671275 0.047299176 0.124723546
0.021464601 -0.024201224 -0.06739079 -0.19457996 -0.14438407 -0.11653814 0.110202305 0.09273306
-0.060429484 0.09530496 0.09890531 -0.2077548 -0.018880103 -0.0194117 -0.09157416 -0.0606016
0.008560125 -0.12085385 0.033432532 0.08949369 0.027246306 -0.017021678 0.14286079 -0.08099864
-0.018814862 0.024350338 0.028367719 -0.10219102 0.11949708 -0.2602301 -0.16887142 -0.03180394
-0.007534407 0.012797745 -0.21990472 0.096610464 0.11618007 -0.096407175 -0.017252648 -0.045123506
0.11166846 0.08794005 -0.07037615 0.12223102 0.063982934 -0.096748464 0.0064201374 0.13455033
0.13853668 0.0019263672 0.0286941 -0.019312952 0.07457688 0.13907757 0.04463379 0.0017846408
-0.23981182 -0.13510653 -0.11853932 -0.16721989 -0.039605618 0.053541962 0.2530766 0.061432347
-0.17058304 0.21697699 0.16718566 0.02796266 -0.09485944 0.08849899 0.021686489 0.117581904
-0.16692515 0.07245485 0.17905155 0.09874949 0.025915815 -0.19463103 -0.065779656 0.12629515
0.021446845 0.018134864 -0.18446684 0.2015381 -0.029734591 -0.06506445 -0.05135122 0.04788819
0.17153569 -0.10870303 0.02406141 0.18060629 -0.026729213 -0.16264798 -0.12212494 -0.002692483
0.17825545 -0.011266607 -0.016437445 0.11389105 -0.059289604 -0.08320752 0.17645611 0.07800863
-0.021795496 -0.09816158 -0.06859571 0.15339316 0.026313845 -0.012542866 -0.006432694 -0.092828594
0.2297946 -0.11386752 -0.07720089 -0.1462997 -0.0039938055 0.16637057 0.16534206 -0.0026782104
0.073789194 -0.05741027 0.09204446 -0.21409565 0.15387578 -0.0627658 0.0036165572 -0.071190394
-0.02069469 0.039161805 0.2494871 0.104008324 -0.19774936 0.021354087 -0.064495526 0.2080515
0.0059565995 -0.1022182 -0.19379747 -0.1947796 0.031946413 0.029114088 0.03926854 0.050499093
00000000: 34aa da3d f3fc ad3c b03c f9bc 1f5c b7bc
00000010: c82d 55be 75af 2ebe 7270 00be 3033 c43d
00000020: 643f 61bb fa66 8dbd 6386 a53d a4ac b8bd
00000030: 5421 92bc d24b cb38 3f97 93bd 4127 b9bb
00000040: 86ae 99bd c1e1 123d e80a 3f3d 22ed 133d
00000050: 5375 26bd da96 6e3d a993 10be 1662 65be
00000060: 6a78 f23d 105c f93d c65a 183d b1bc b9bd
00000070: 2213 c53b f137 073d 144a 52bd c8f5 dcbd
00000080: c8c7 313e 72ab e73d 400c 57be c020 593d
00000090: 46ae bcb9 7b79 a4bc cfd0 df3c e2b8 673e
000000a0: 927c eebd 75c9 99bc d15a 9dbd a9a5 8bbc
000000b0: 28ce ccbd 2695 24be c87d 93bd 0422 96bc
000000c0: 4687 d03d 6032 2d3e 3a28 2a3e a575 3f3d
000000d0: 9828 573e 6474 2e3d 5840 01be 03db 073d
000000e0: 23ed e23d b90a ecbd a1b7 b6bc 4f85 e93d
000000f0: af92 db3d 4ec0 24bd 022f a43d f136 003c
00000100: 5e6d 53bd b693 b53d 7c7f 3e3d 41f9 6a3d
00000110: efc7 d13d 46ca 52be 3c05 afbd 6f13 9e3d
00000120: e253 49bd 1b5e 83bd f844 983d 7d11 513d
00000130: 9def b1bd 18ed 6dbd 5428 a2bd 5adb 44ba
00000140: 034e 38bd 6acb d7bd f04d 0cbe 4dea bfbd
00000150: f1aa 8bbd 26f9 06be 5b22 23bd 5191 873c
00000160: 8f16 37bc fd8a 043d af2f 633e 02b5 df3d
00000170: aee2 8f3b 2614 83bd f95d a13d 8371 503e
00000180: b998 ae3d 5141 cb3d dd62 5a3d 40e7 31be
00000190: d596 353e de74 8cbd f11a b3bc fb39 b43b
000001a0: 4e33 2ebe 970b 46bb 4167 96bd 815a e1bd
000001b0: 9e23 8b3d 931b 9dbd c8bc 413d 0f6f ff3d
000001c0: 88d6 af3c a541 c6bc 2f04 8abd f83f 47be
000001d0: 6bd9 13be 8cab eebd bfb1 e13d d5ea bd3d
000001e0: e884 77bd 3f2f c33d de8e ca3d adbd 54be
000001f0: 72aa 9abc 4905 9fbc 3c8b bbbd 6239 78bd
00000200: c43f 0c3c 3982 f7bd 8df0 083d 7848 b73d
00000210: a533 df3c 0c71 8bbc 194a 123e 9de2 a5bd
00000220: a021 9abc 5c7a c73c 6b63 e83c 8749 d1bd
00000230: e3ba f43d e13c 85be a1ec 2cbe d944 02bd
00000240: 30e3 f6bb a2ad 513c b42e 61be b5db c53d
00000250: d1ef ed3d 2071 c5bd 6d55 8dbc 6dd3 38bd
00000260: 6fb2 e43d ea19 b43d 5f21 90bd 4254 fa3d
00000270: 7c09 833d 0f24 c6bd 0460 d23b 90c7 093e
00000280: 8fdc 0d3e 287e fc3a e40f eb3c 3236 9ebc
00000290: c3bb 983d 5a6a 0e3e ecd1 363d 9cea e93a
000002a0: 3b91 75be 5e59 0abe bec4 f2bd b13b 2bbe
000002b0: 8039 22bd d14e 5b3d 4293 813e 7ca0 7b3d
000002c0: 52ad 2ebe 372f 5e3e b832 2b3e f311 e53c
000002d0: ab45 c2bd f53e b53d dda7 b13c c8ce f03d
000002e0: 6dee 2abe 3563 943d 4a59 373e 2c3d ca3d
000002f0: 674d d43c 5b4d 47be 7cb7 86bd 8453 013e
00000300: 4bb1 af3c 918f 943c e0e4 3cbe 0160 4e3e
00000310: f595 f3bc 8340 85bd a855 52bd 6826 443d
00000320: 0da7 2f3e b29f debd 6f1c c53c dbf0 383e
00000330: 39f7 dabc 318d 26be a41c fabd 5e74 30bb
00000340: 9988 363e 9397 38bc d2a7 86bc b63f e93d
00000350: a8d9 72bd b468 aabd e9b0 343e fdc2 9f3d
00000360: 788c b2bc f008 c9bd e87b 8cbd 1913 1d3e
00000370: 2290 d73c 9880 4dbc 59c9 d2bb eb1c bebd
00000380: 474f 6b3e 6033 e9bd 801b 9ebd 97cf 15be
00000390: 78de 82bb 0c5d 2a3e 6e4f 293e ea84 2fbb
000003a0: ca1e 973d 0827 6bbd ce81 bc3d e43b 5bbe
000003b0: 9d91 1d3e 5b8b 80bd c303 6d3b 45cc 91bd
000003c0: e987 a9bc 2168 203d 8c79 7f3e 5102 d53d
000003d0: cf7e 4abe c4ee ae3c 3b16 84bd 740b 553e
000003e0: 942f c33b c757 d1bd d872 46be 4e74 47be
000003f0: 3eda 023d ab80 ee3c 0cd8 203d 23d8 4e3d

network_body._body_endoder.seq_layers.4.bias f4 [256]
-0.10278353 0.023758039 0.023126863 -0.07273827 -0.031288452 -0.016348675 0.06109808 -0.03481915
0.03515443 0.045398127 0.11880438 0.065036364 -0.08114306 0.020084882 0.03856875 0.12889355
0.03738469 0.036736783 -0.117855795 -0.01411286 0.016044665 -0.10369382 -0.017024623 0.006246246
0.042515393 -0.020097673 0.0048725456 -0.038234048 0.070522666 -0.05622828 0.14051111 0.034942638
-0.005105957 0.056339 -0.078357935 0.050540555 -0.096881144 0.049058948 0.03726172 0.0178246
0.022861373 -0.10602133 -0.00843788 0.091250904 0.01796172 0.08719123 0.008434039 -0.04238193
0.07865967 -0.03753239 -0.088366345 0.03822981 -0.024282444 0.024068609 -0.062858194 0.0768939
0.04184472 -0.028589556 -0.089802116 0.03205157 0.0365455 0.060970522 -0.012084696 0.030036788
0.06437628 -0.006916558 0.026237233 -0.10538071 0.020668602 -0.07180193 -0.012056469 -0.044785835
0.09335293 0.08179327 -0.06189658 0.010419568 -0.013211731 -0.04347914 -0.07774702 0.068523884
-0.054173615 0.051603924 -0.0062439423 0.055553757 -0.0046430565 0.042322803 0.079884805 -0.09829524
-0.021742461 -0.062455446 0.0703022 0.047427364 0.05666278 -0.053300556 -0.10715704 0.014157966
-0.07702922 -0.01087159 0.012268481 -0.05115885 -0.026624594 0.04613646 0.04684907 -0.036227994
0.008581736 0.071307994 -0.023854507 0.035767313 0.042621728 -0.018946026 -0.107557915 -0.0002885493
-0.04078629 -0.08532407 0.092240356 0.008394604 -0.09280648 -0.08802146 0.042628177 -0.027614277
0.09047021 -0.08485874 0.047990702 -0.09925503 0.038683157 -0.10038138 -0.12217864 0.041730754
-0.110236585 0.028152885 0.016836464 -0.009268291 -0.00051520346 0.0138135115 -0.08473707 -0.027292425
-0.016415993 -0.08203549 -0.063985474 0.01785128 0.02736104 0.0024818634 -0.19249168 -0.07477716
-0.038279623 0.009631311 0.020624222 -0.045273237 0.02606329 -0.008292023 0.038419235 0.067484245
-0.009140546 -0.08688308 -0.12581095 -0.099780306 0.020706534 0.12067454 -0.020673532 0.031543173
0.13877197 -0.084833525 -0.034062516 -0.056419387 -0.011454144 0.11500631 -0.08096405 0.039155196
-0.04166669 -0.029519212 0.06821699 0.03747244 -0.029940998 0.0893276 0.063855894 0.043265138
-0.040222496 -0.056125946 0.0001949269 -0.09989969 0.057126388 -0.08425155 0.010048957 0.018822197
0.09628426 0.04092968 0.04761065 -0.033036675 -0.040891882 0.0005001089 -0.011913255 0.14193238
-0.00079459895 0.07498972 0.003286455 -0.022007858 -0.027771652 0.0010115989 -0.004759907 0.010454064
-0.030712757 -0.025972327 -0.0005657717 0.15734164 -0.022152988 0.039190535 -0.07936117 0.049670897
0.024515426 -0.030288124 -0.04856846 0.03455215 -0.0065564024 0.09866353 0.046037924 0.07920886
0.12651248 -0.115096375 0.028889824 0.09410276 0.1140721 0.012160727 0.1250864 -0.0058020325
-0.11543257 -0.034318443 0.09156011 0.07538794 -0.015579367 0.021837972 -0.028547898 -0.030752301
-0.03638733 0.02511502 0.036027398 -0.050672773 0.119683646 -0.045928475 0.09048337 -0.012490958
0.0328512 0.0019901674 0.04035263 -0.12585372 -0.014585211 -0.048256952 0.017239194 0.0205136
-0.06868251 -0.124799445 -0.062204544 0.0013315165 0.09025405 -0.055687293 0.08946458 -0.032068398
00000000: 2c80 d2bd 38a0 c23c 8c74 bd3c cdf7 94bd
00000010: 5228 00bd a8ed 85bc fb41 7a3d 869e 0ebd
00000020: 17fe 0f3d 63f3 393d b64f f33d c931 853d
00000030: 552e a6bd 0d89 a43c 44fa 1d3d acfc 033e
00000040: b020 193d 4f79 163d 615e f1bd a039 67bc
00000050: 1a70 833c 6d5d d4bd 3977 8bbc 4fad cc3b
00000060: 9f24 2e3d e0a3 a4bc e0a9 9f3b 4e9b 1cbd
00000070: 306e 903d a04f 66bd 25e2 0f3e 0320 0f3d
00000080: df4f a7bb b9c3 663d 207a a0bd 9d03 4f3d
00000090: 9f69 c6bd 09f2 483d bf9f 183d e504 923c
000000a0: c647 bb3c b621 d9bd 093f 0abc c1e1 ba3d
000000b0: 7524 933c 5191 b23d ec2e 0a3c ad98 2dbd
000000c0: 5218 a13d 90bb 19bd 6af9 b4bd dc96 1c3d
000000d0: faeb c6bc 882b c53c ccbb 80bd 8d7a 9d3d
000000e0: 5e65 2b3d a534 eabc 2cea b7bd 8248 033d
000000f0: bcb0 153d 3abc 793d e4fe 45bc b60f f63c
00000100: b6d7 833d 4ba4 e2bb 77ef d63c d7d1 d7bd
00000110: 3351 a93c e40c 93bd 7f88 45bc 5a71 37bd
00000120: d22f bf3d 3b83 a73d 4587 7dbd d6b6 2a3c
00000130: 0476 58bc 2f17 32bd d439 9fbd 4056 8c3d
00000140: 27e5 5dbd a35e 533d fc99 ccbb 568c 633d
00000150: c824 98bb ad5a 2d3d a59a a33d 044f c9bd
00000160: 3f1d b2bc 48d1 7fbd 9afa 8f3d 3243 423d
00000170: 3b17 683d af51 5abd 2675 dbbd d0f6 673c
00000180: 7fc1 9dbd c11e 32bc bd01 493c f18b 51bd
00000190: d21b dabc 96f9 3c3d cfe4 3f3d ce63 14bd
000001a0: 699a 0c3c ed09 923d 876a c3bc bf80 123d
000001b0: 1f94 2e3d b234 9bbc 5347 dcbd 6e48 97b9
000001c0: 860f 27bd 63be aebd 83e8 bc3d 8589 093c
000001d0: 5311 bebd 9844 b4bd e29a 2e3d 5637 e2bc
000001e0: 7248 b93d 6bca adbd e691 443d 3946 cbbd
000001f0: 3b72 1e3d c194 cdbd cb38 fabd deed 2a3d
00000200: b8c3 e1bd e1a0 e63c a0ec 893c 08da 17bc
00000210: b80e 07ba 1152 623c a18a adbd 5d94 dfbc
00000220: d57a 86bc 3902 a8bd d10a 83bd d93c 923c
00000230: 4224 e03c c2a6 223b 8a1c 45be c524 99bd
00000240: 18cb 1cbd a5cc 1d3c 21f4 a83c 6e70 39bd
00000250: ae82 d53c 44db 07bc 7d5d 1d3d 2e35 8a3d
00000260: 3bc2 15bc c2ef b1bd 96d4 00be 9e59 ccbd
00000270: c0a0 a93c 3724 f73d 8a5b a9bc 6a33 013d
00000280: 3d1a 0e3e 33bd adbd 2385 0bbd 0418 67bd
00000290: 29aa 3bbc 6e88 eb3d 7bd0 a5bd 3361 203d
000002a0: b1aa 2abd 46d2 f1bc 59b5 8b3d b47c 193d
000002b0: d346 f5bc 64f1 b63d e1c6 823d c936 313d
000002c0: 58c0 24bd 52e4 65bd 4b65 4c39 3598 ccbd
000002d0: 5cfd 693d 148c acbd 61a4 243c 0231 9a3c
000002e0: af30 c53d e1a5 273d 6303 433d 7751 07bd
000002f0: 3f7e 27bd bd19 033a d02f 43bc b956 113e
00000300: a24c 50ba 3694 993d 9161 573b d349 b4bc
00000310: 6081 e3bc a097 843a fef8 9bbb 8647 2b3c
00000320: 5299 fbbc ebc3 d4bc 4c50 14ba 2b1e 213e
00000330: 2f7a b5bc 4186 203d 1c88 a2bd b673 4b3d
00000340: 93d4 c83c cd1e f8bc b9ef 46bd 8e86 0d3d
00000350: 17d7 d6bb 1b10 ca3d 4392 3c3d 4138 a23d
00000360: 7d8c 013e a6b7 ebbd 5aaa ec3c f3b8 c03d
00000370: a29e e93d c93d 473c a616 003e fa1e bebb
00000380: e967 ecbd 7f91 0cbd de83 bb3d fe64 9a3d
00000390: 9a40 7fbc 8ce5 b23c 48dd e9bc 40ec fbbc
000003a0: e20a 15bd 04be cd3c 7791 133d 418e 4fbd
000003b0: b31c f53d 7f1f 3cbd 584f b93d e0a6 4cbc
000003c0: fb8e 063d 786d 023b cd48 253d ccdf 00be
000003d0: cff6 6ebc 15a9 45bd 3639 8d3c 230c a83c
000003e0: 6aa9 8cbd da96 ffbd 31ca 7ebd 4886 ae3a
000003f0: 1ed7 b83d 5c18 64bd 3539 b73d 275a 03bd

action_model._continuous_distribution.log_sigma f4 [1, 39]
-1.9395721 -2.0278447 -1.6544396 -1.4962523 -1.6124818 -1.6167277 -2.9035983 -2.281254
-2.7925658 -2.4256625 -2.2274706 -2.2420855 -0.8916378 -1.4153699 -1.121393 -0.13210787
-1.5767883 -0.04912734 -2.938582 -2.8728106 -2.8719347 -3.0048592 -2.590334 -2.2723906
-1.7488086 -2.017451 -0.68547696 0.12276689 1.6671351 -0.5412085 -0.43548256 -0.19650869
-0.6985772 1.2374945 0.7784617 0.7585173 1.4101906 1.2162921 0.48216859
00000000: e643 f8bf 35c8 01c0 adc4 d3bf 3285 bfbf
00000010: ce65 cebf eff0 cebf 8ed4 39c0 1100 12c0
00000020: 66b9 32c0 0e3e 1bc0 e18e 0ec0 547e 0fc0
00000030: 6042 64bf d72a b5bf ce89 8fbf 4947 07be
00000040: 33d4 c9bf c039 49bd ba11 3cc0 21dc 37c0
00000050: c7cd 37c0 9d4f 40c0 08c8 25c0 d96e 11c0
00000060: f6d8 dfbf eb1d 01c0 6b7b 2fbf 356d fb3d
00000070: af64 d53f a48c 0abf 92f7 debe 9339 49be
00000080: f5d5 32bf 3866 9e3f 4449 473f 312e 423f
00000090: 2081 b43f 76af 9b3f cdde f63e
