Assets/Brains/AdrianTests/AdrianUpdatedColTest5/Zombie Walker/Zombie Walker-499946.onnx (onnx, 302101 bytes, 9 tensors)

network_body._body_endoder.seq_layers.0.weight f4 [128, 281]
00000000: 66fb acbd cb96 803d 6390 a23c 803f 0d3d
00000010: cf61 cb3c 588c 7abd e45b c23c aef9 8d3c
00000020: 5359 953c d669 0fbe eb89 d6bc 9128 54bd
00000030: 3276 e53b 7517 6b3d 9d88 933c 9786 233d
00000040: df87 2ebd bf67 723d bf7c 7bbd ca89 8e3d
00000050: 5341 3dbd 672f 003d a18d aebd 5ced e8bc
00000060: fcef 613c 5c52 d73c 77d6 1fbd 93ef 86bd
00000070: d20f ffbd e2d0 6dbd 3a9f d0bd d2e5 cabc
00000080: 3720 20bb 6458 453c 33aa 293a 264d 503c
00000090: 3249 a7bd 5905 b93c 217f 0abd 2a04 9a3b
000000a0: 9edf 4fbc f01d aabd 293c bebc 2457 d4bd
000000b0: 5ef6 213d 85ed cdbc 3e2b 88bd 319f f7b9
000000c0: 8ad0 78bb bd45 90bc 0830 7b3d 498a 813c
000000d0: c4bc 783d 3de6 d3bc f68b bcbd a109 613d
000000e0: 7e77 273c d8b0 673d c6bc a73c 6b58 aebc
000000f0: 4a0a cabc 7067 fa3d 0a3c f1bc e411 ad3d
00000100: 55e2 4b3d 905a 15bd 69a6 17bd cd01 9cbd
00000110: 8ef5 9d3b 6556 ae3d 770f 31bb 5961 20bb
00000120: c9b8 c03b 1843 203d f21e e83d 00b8 44bb
00000130: 5dd0 833d a4b0 e5bc 52ee a2bd 1c71 a4bd
00000140: 7bc5 17bd 2f3c 22bd 8a54 e1bc 966b d13d
00000150: b7f3 a63d 8436 db3d f7a4 143d b19f dc3d
00000160: dadb 643d d50c 5fbd e58e e83c c665 23bd
00000170: 2a9c d23c ef8b 0f3d 6295 c9bd c37f 653d
00000180: ea4b d03d 3625 a53d ec17 4fbd c9a6 5b3a
00000190: e0a3 9d3d f091 17bd d238 2bbd 377f 57bd
000001a0: a630 bb3d 0c7c a4bd 3768 8c3c 330b 65bd
000001b0: 8ecf a73d 8e16 10be 7dc8 2a3d b332 6d3d
000001c0: f0fa 5c3d fd53 a2bd 6a5f f7bc e1c6 bcbd
000001d0: 84bc 1bbd 3544 20bd bd01 393c f560 03bd
000001e0: cde3 a63d 164a 1fbe 5a4a bb3d 9364 ed3d
000001f0: 3f9d 603d 7850 6fbd c302 05bd 888b f3bc
00000200: 368e 553d 7f7a aa3d 1b06 02bc 1f86 90bd
00000210: 10cf 53bd 1bd8 f9b9 75f1 6b3c da5b e1bc
00000220: d4c4 65bd 5f16 1bbc 21ea 9d3d 5675 9f3c
00000230: 2d09 c8bd 0696 2d39 dbb0 423b 7b21 b63c
00000240: 8eec 1bbd 472e fcbd 7d3d 8dbd e974 40bd
00000250: 17f9 b63c 1a28 99bc d130 f9bc ef1f e5bc
00000260: 413e bebc 978d 713d 9990 8abd 5c3e 2d3b
00000270: e35d 2f3d 3093 d0bd c283 693b ceb2 aa3d
00000280: 8065 fbbc 154e 543d 0516 1a3d 870f a0bd
00000290: ae4c 04bd 740d cc3c e82c 673d 00d9 653d
000002a0: 8c38 b13d 85bf 5dbc 3111 f7ba b2d2 7dbd
000002b0: 7c69 e33a 33d7 c7bd 3365 d3bc a51d 48bd
000002c0: 88f1 b93c e3fb b1bd 975f 103d 9b4b 30bd
000002d0: b50f 683d 2e6b 253b d589 99bd 8752 3f3c
000002e0: 8a53 163d fd17 043d 7b1b 3cbc bc00 3e3d
000002f0: eadf c93c 4afd 503d a967 cebd 180a afbd
00000300: de67 453b baa0 29bd 98de b33c 206c 01bc
00000310: f1cc a2bd 51d1 6b3c 7358 bd3c 1e34 89bd
00000320: b390 22be f21b 56bc de52 7c3d acaf b23d
00000330: a890 6ebc 4a8b b9bc 9375 01bd c7d5 b43c
00000340: fc2b 32bd 897b eb3c 5c08 3b3d 2fc1 8b3c
00000350: 4459 db3c 42a9 a3bd c797 d23b f222 15bc
00000360: d6f6 81bd ad95 58bd 083f 6f3c 4070 15be
00000370: 72ad 583d 7066 2abd 88b2 f23d 1f8a 1b3d
00000380: 0c9e 813d 47b5 65bc e72c 88bd 086f 11bc
00000390: 10c5 1839 894b 7dbd 6715 cfbb 15f3 813d
000003a0: 8ff1 87bd 817c 3e3d 7149 d13b aaac c9bd
000003b0: 86df 13bd 4c2a 9a3b c1b6 d3bb e17d 9abd
000003c0: 0a76 3c3d 101c 5ebd bab5 c73c 901e 3b3c
000003d0: bb5c cfbd 40ab 4cbc baad bab9 5ed5 c8bc
000003e0: d9c9 d73d 8e1a 963c 2c5b d43b 4e10 b63d
000003f0: 90ed c33d 11b2 de3c dd79 2fbd f735 0bbe
-0.08446388 0.062787615 0.01984424 0.034484386 0.024826912 -0.061169 0.023725457 0.01733097
0.01823107 -0.14005217 -0.026188811 -0.0517965 0.0070026154 0.057395417 0.018009478 0.039923277
-0.042610046 0.05918097 -0.061398264 0.06959875 -0.046204876 0.031295206 -0.08523107 -0.028433494
0.013790127 0.02628439 -0.03902289 -0.06588664 -0.12454189 -0.058060534 -0.1018662 -0.02476779
-0.0024433264 0.012045 0.00064722 0.012713706 -0.08168258 0.022585558 -0.033812646 0.0047002034
-0.012687592 -0.083064914 -0.023222046 -0.10368183 0.039541595 -0.025137672 -0.06648873 -0.00047230118
-0.0037966096 -0.017611379 0.061325103 0.01581301 0.060726896 -0.025866622 -0.09206383 0.054940823
0.01022136 0.056565136 0.020475756 -0.021282395 -0.02466311 0.122267604 -0.029447574 0.08450678
0.049776394 -0.03646332 -0.037023935 -0.07617531 0.004820532 0.08512572 -0.0027017274 -0.0024472086
0.005881403 0.039126486 0.11334027 -0.00300169 0.064362265 -0.02803833 -0.07955612 -0.080293864
-0.037053566 -0.039608177 -0.027506132 0.102255985 0.08151954 0.107037574 0.036290135 0.10772646
0.05587373 -0.054455597 0.02838845 -0.03989198 0.02570923 0.03504556 -0.09842946 0.056030046
0.101707295 0.08063738 -0.050559923 0.000837904 0.07697272 -0.03700441 -0.041802235 -0.052611556
0.09140138 -0.080314726 0.017139537 -0.055918884 0.08193885 -0.14071104 0.041695107 0.05790968
0.05395025 -0.07926176 -0.030196864 -0.09217621 -0.03802158 -0.039127547 0.011291918 -0.032074887
0.08148918 -0.15555605 0.09145041 0.11591449 0.05483746 -0.05842635 -0.032473337 -0.02972962
0.052137576 0.083241455 -0.007936026 -0.070568316 -0.051711142 -0.00047653992 0.01440083 -0.027509619
-0.056095913 -0.009465783 0.07710672 0.01946513 -0.09767375 0.00016554454 0.0029707465 0.022232762
-0.038067393 -0.12313514 -0.068964936 -0.046986494 0.022335572 -0.01869588 -0.030418785 -0.027969329
-0.023223044 0.05897292 -0.06765861 0.0026434874 0.042814147 -0.10184324 0.0035631512 0.083348855
-0.030688047 0.051832277 0.037618656 -0.078154616 -0.03229969 0.024908759 0.05643931 0.05611515
0.086533636 -0.013534431 -0.0018849728 -0.061968513 0.0017350162 -0.09757843 -0.025805091 -0.048856396
0.022698179 -0.08690622 0.03524741 -0.043040853 0.056655604 0.0025240886 -0.074969925 0.011677391
0.036700763 0.03224944 -0.011481161 0.04638742 0.024642903 0.051022805 -0.10078365 -0.08546847
0.0030121724 -0.041413046 0.021956727 -0.007899314 -0.07949246 0.014393167 0.023113465 -0.06699394
-0.15875511 -0.013068186 0.061602466 0.08724913 -0.014560856 -0.022649426 -0.03160627 0.022074593
-0.043498978 0.02874543 0.04566227 0.01705989 0.026775964 -0.07991268 0.0064267847 -0.00910257
-0.06345908 -0.052877117 0.01460243 -0.14593601 0.052899785 -0.0416016 0.118504584 0.03797352
0.06328973 -0.014020271 -0.066491894 -0.00887657 0.00014569261 -0.061839614 -0.00631969 0.06345192
-0.066378705 0.046505455 0.0063869287 -0.09847386 -0.03610184 0.004704749 -0.006460995 -0.07543541
0.04601101 -0.05422598 0.024378646 0.011420861 -0.10125109 -0.012492001 -0.0003560612 -0.024515804
0.10536546 0.01832321 0.006480595 0.088898286 0.09566796 0.027184518 -0.042840827 -0.13594805

network_body._body_endoder.seq_layers.0.bias f4 [128]
00000000: c36c 3939 acd4 803a 1314 083a ffb8 8b37
00000010: 886e 8eb9 3e0a a8b9 2a2c a1ba 4ccf 00ba
00000020: bfb7 d33a 74af 4cba 7c6b 62b9 98ac f139
00000030: 95b2 da39 4187 7238 f2e3 123a 1c58 3cb9
00000040: c16d 0dba 990f c039 60ae 2839 8823 74ba
00000050: f17e 413a 4900 4d3a bc96 7eb9 a985 42ba
00000060: 7d76 e439 32ba 9739 5151 13ba a27c d939
00000070: 14d2 5038 997d 77ba c53a e1b9 b81f 11ba
00000080: 68d9 103a 5b47 aeb9 0f98 acb7 e07a 9339
00000090: 56c2 53b8 bfe4 583a 9a46 17b9 3865 bc39
000000a0: fe5b 5939 31bf 0b3a 267a 31ba 40ee 6938
000000b0: 2b50 793a 31ff 7839 cbc2 bcb9 7ae5 d5b9
000000c0: b1b4 dcb7 d0b2 9239 9cb0 99b9 615e ddb9
000000d0: b0fb 6fba 9c36 5a3a f406 e8b9 d387 1cb9
000000e0: de72 96b9 779e 7d39 5d12 f8b8 93ce b139
000000f0: f225 563a 434a 07b9 3956 1937 f9a4 3b36
00000100: ae07 1339 c8ef 293a 16fb 11ba b3a4 23ba
00000110: 1b38 9cb9 3a6a 9739 f2c4 a3b9 de02 0cba
00000120: 2294 a739 05e0 9a39 c034 033a 7c04 193a
00000130: e48a a2b8 41d8 673a 5cee 19ba 8ad1 7239
00000140: 8cb4 7639 c715 95b9 56e8 193a 7db2 6439
00000150: fe0c 80ba 3e8d 34b9 e4d6 a439 c40f af39
00000160: 5975 a439 1e53 f9b9 6100 c8b9 960d 773a
00000170: a063 2d39 bf05 73b7 1eb3 8f39 408f 28b9
00000180: 48a8 113a ae3a 4dba 5efa 40ba 107a 233a
00000190: 3776 fe38 9d5c ceb9 f4b5 a8ba d230 37b9
000001a0: 21c7 21ba d8ee 1c3a 05fe 3c38 31c3 0cb9
000001b0: 3f5d adba 8e83 d1b9 fe37 62ba f102 6239
000001c0: 25b9 6138 8075 52ba f85f 8a39 eaf5 0ab9
000001d0: c205 d9b8 4d6c f539 f158 d939 4182 9f39
000001e0: 20f7 a4b9 c320 083a 49e0 cdb9 6e57 163a
000001f0: ff80 7f39 13af 83b7 7e37 d5b8 52bd 5e38
0.00017683492 0.0009829006 0.00051909796 1.6656237e-05 -0.00027166703 -0.00032051088 -0.0012296487 -0.0004913702
0.0016152783 -0.0007808127 -0.0002159308 0.00046095694 0.00041713254 5.782326e-05 0.00056034245 -0.000179619
-0.0005395078 0.00036632715 0.00016086688 -0.0009313156 0.00073812815 0.0007820172 -0.0002427948 -0.00074204296
0.0004357583 0.0002893969 -0.0005619722 0.00041482324 4.9786715e-05 -0.0009441018 -0.0004295913 -0.00055360375
0.000552556 -0.0003324103 -2.0574806e-05 0.00028129574 -5.048731e-05 0.0008273832 -0.00014426783 0.00035933568
0.00020729002 0.0005330919 -0.00067702157 5.5773417e-05 0.0009510542 0.00023746189 -0.00036003286 -0.000407975
-2.6310185e-05 0.00027980516 -0.00029314018 -0.00042222723 -0.0009154631 0.00083241775 -0.0004425567 -0.00014927918
-0.00028695812 0.00024186993 -0.00011828982 0.0003391398 0.00081691064 -0.00012902268 9.139586e-06 2.7961198e-06
0.00014021873 0.00064825686 -0.0005568726 -0.00062424986 -0.0002979644 0.0002888011 -0.00031236518 -0.00053410034
0.0003196309 0.00029540077 0.0005005114 0.0005837155 -7.750632e-05 0.0008844175 -0.0005872005 0.00023156978
0.00023527647 -0.0002843572 0.00058711076 0.00021810266 -0.0009769497 -0.00017218755 0.00031440624 0.00033390347
0.00031367948 -0.00047554908 -0.00038147255 0.00094243267 0.00016535679 -1.4485267e-05 0.00027408538 -0.00016075093
0.0005556387 -0.00078288733 -0.00073615264 0.0006236145 0.00012133683 -0.00039360384 -0.0012871609 -0.00017470427
-0.0006171335 0.0005986518 4.5059267e-05 -0.00013424155 -0.0013226642 -0.00039961602 -0.00086295593 0.00021554135
5.381661e-05 -0.0008028373 0.00026392913 -0.00013252316 -0.00010348439 0.00046810732 0.00041455732 0.0003042389
-0.0003146464 0.000519287 -0.00039267752 0.0005735074 0.0002436675 -1.5697942e-05 -0.00010166968 5.3105243e-05

network_body._body_endoder.seq_layers.2.weight f4 [128, 128]
00000000: 0a6e 493e c69a 3fbc b9b3 0abd a694 0abb
00000010: f899 643c 60ad 4a3d 7709 52bd f04f 58bd
00000020: c68e e6bd a853 bbbd d8da 703d e576 4d3b
00000030: a14c 9dbd c5f1 5ebc d715 95bc 4a96 a0bd
00000040: 55ff 4b3d 1a77 e7bc e944 923b 653d 3f3e
00000050: 30c9 4d3d 112c 6c3d 071e eebc f8ce 0e3e
00000060: 4bde 633d 9925 98bd 6432 113d d62f 483e
00000070: b025 b1bc a4d2 dd3b 8504 e3bb c3e8 fdbd
00000080: 7498 8f3c d4ca 28bd cece 303d e4ca a53d
00000090: f72a 02be d3d1 df3d 330c 85bd 4960 933d
000000a0: 81ee d9bd 3c6d e0bd 669a d83c 7840 30bd
000000b0: 3907 0d3e e5ec 0dbd 4d36 a4bd 51ba ac3d
000000c0: 087e 0cbe 8464 ea3c d4ff 3f3d 8d45 833d
000000d0: 2623 42bd 5f5a 89bd ece4 a83d d134 f8bd
000000e0: a1cb 1cbe 0a65 6e3d ec32 363e ef68 edbd
000000f0: df41 88bd defc 2cbd 0179 6ebd 66bf 2f3e
00000100: ede6 9ebc f8f3 c0bd 51ee 09be e5a8 bcbc
00000110: c6e2 22bb 8567 a6bc fcc1 03be f1fb dbbd
00000120: 362f 713d e453 0b3d 23e7 503d 6521 48be
00000130: 0d1c 02be 5cfd 5fbd 73f3 9d3d 29c3 223c
00000140: bffe a2bd 5792 12bb 6c51 74bd 88a1 94bd
00000150: a5f8 953b eca8 383a c279 043e a4f9 123e
00000160: 319c cc3d d989 603e 1e40 9abd 9923 c9bc
00000170: f4b9 a1bd e6c6 8fba 4e46 8e3e db7c f9bc
00000180: df5f ef3d 527b 79bc 4ab3 ae3d a543 1dbe
00000190: 4b5d b63d 850c f33d 2a10 c13d ea32 9ebd
000001a0: 26bd 4d3d 3b0a 7d3e 5946 94bc 3ce5 133d
000001b0: 8f36 ff3d 275a b6bd 0f48 4fbd 2938 cabd
000001c0: 319d 0dbd 9f9c 26bb 5ade 1a3d 14b5 0dbe
000001d0: 3efd 0abd 19f3 873c 2b78 2fbe 9383 343e
000001e0: b2e7 26be 8dcd 11bd e233 363b 815f 0e3d
000001f0: 0365 953d 4a3b a0bd a21f 9abd 2ec0 07bd
00000200: 6618 1bbc 7a19 103d 0331 173d 3b04 c03d
00000210: 870b c6bd 1508 65bc 2167 ceb9 e35c f0bd
00000220: 9d94 6dbc e707 d23d 312c debd fdc1 423d
00000230: 2277 1e3c a193 bbbd f74f 26bd b8c2 4ebd
00000240: 4502 6d3c bed8 5ebd a5f2 063e 7acf 2a3e
00000250: 7b54 2d3e 4278 023d 21e3 b5bc 0116 9cbd
00000260: b739 e0bd 1ba0 6b3c 1d8e ce3c 789b 1cbe
00000270: 06e4 f0bd 5034 033d 8f81 ac3d 19d6 c33c
00000280: 9ae0 b2bd 4d2c 5bbc d022 0fbd 1652 f83d
00000290: 8135 c7bd 7802 d83c 51ed 8cbb 6051 eb3d
000002a0: 5710 e23d 8c57 1b3d 7d33 2bbe 364e 6fbd
000002b0: 1f5a 5f3e ad76 503d 0dd4 10bd 41f8 6e3d
000002c0: e71e fcbd 6413 98bb 4141 0c3d d10f bebd
000002d0: 9bd0 253c 45a6 d53d 04a7 85bd 8c3e 82bd
000002e0: bb05 d43c 21d4 09bd b299 8cba c33b 723d
000002f0: 76ec 29bc 7313 a93d 2698 113e 3f09 143d
00000300: c325 d33d 8e71 d63d b5dc 273e 9cd4 edbc
00000310: ff61 e93c 47f2 13be 6b1b 603e fc39 033d
00000320: 5cfa d03d eca4 25be d2e9 8b3b 81bc 493b
00000330: dfd9 d53d dfaa e8bc 4519 d4bd edcf 3e3d
00000340: 5d48 b63d 86e7 433d 8dc1 c43d 907d 84bd
00000350: 4745 ac3d bd2e 93bd 57ad 0c3d 6bb7 5d3d
00000360: 321b 053e c2bd 1dbd 8701 353c 1bd7 34bd
00000370: c4d1 2bbe e914 72bc 5124 17be 35ca 8cbd
00000380: 556b 96bc b5f8 c0bd ae0f 8bbe 1757 e93d
00000390: f8ff 3f3d 3a52 0e3d 0e82 66bc 0951 ec3c
000003a0: 29ba 753d 569e 82bc acb9 af3d a799 3ebd
000003b0: 78a6 0a3e c0ce 283c e11f 74bd ac4b fe3d
000003c0: 31ab 8dbd e03a 183e 46bb c3bd 9277 913d
000003d0: 8e7d 293e 84f9 0e3e b758 d9bd 29f5 26bc
000003e0: 255e aebc 4b1a 2fbe 39ac b8bd 1c90 453d
000003f0: ae33 40bc eed5 8f3d 58b0 5cbd 4a50 f13b
0.19670883 -0.011694616 -0.033862803 -0.002114573 0.013952725 0.04948175 -0.051278558 -0.05281061
-0.112577006 -0.091468155 0.058802456 0.0031351384 -0.076806314 -0.013607447 -0.01819889 -0.07841165
0.04980405 -0.028255034 0.004463781 0.18675764 0.050240695 0.057659212 -0.029067053 0.1394614
0.055631917 -0.07429046 0.035448447 0.19549498 -0.021624416 0.006769495 -0.006928029 -0.123979114
0.01752875 -0.041209057 0.043165974 0.08095339 -0.12711702 0.10928693 -0.064964674 0.07196099
-0.10641194 -0.10958335 0.02644081 -0.043030232 0.13772286 -0.03464975 -0.080181696 0.084339745
-0.13719952 0.028612383 0.046874836 0.0640975 -0.0473968 -0.0670669 0.082467884 -0.12119449
-0.15312053 0.058201827 0.17792863 -0.1159228 -0.06653189 -0.04223334 -0.058220867 0.17162856
-0.019397223 -0.09421533 -0.13469817 -0.023029754 -0.0024854406 -0.020313034 -0.12866968 -0.107414134
0.058882914 0.03401555 0.05100168 -0.19543989 -0.12706013 -0.05468498 0.0771245 0.009934225
-0.07958745 -0.0022365057 -0.059647962 -0.07257372 0.00457676 0.0007044214 0.12937072 0.14353043
0.09990729 0.21927585 -0.07531761 -0.024553107 -0.07896796 -0.001096931 0.27788013 -0.030455044
0.11688208 -0.015227156 0.085302904 -0.15357836 0.08904513 0.11867622 0.09426911 -0.07724555
0.050229214 0.24710934 -0.01809995 0.036107287 0.12461578 -0.08903914 -0.05060583 -0.09873993
-0.034573738 -0.0025422943 0.037809707 -0.13838607 -0.033932917 0.01659541 -0.17135684 0.17628317
-0.16299322 -0.03559642 0.002780192 0.03475905 0.07294657 -0.078238085 -0.07525565 -0.03314226
-0.009466266 0.035180546 0.036911976 0.09375807 -0.096701674 -0.013978978 -0.0003936822 -0.11736467
-0.014500764 0.102554135 -0.108482726 0.047548283 0.009671958 -0.09159017 -0.040603604 -0.050478667
0.014465873 -0.05440592 0.13178499 0.16680709 0.16926758 0.031852968 -0.02220303 -0.076213844
-0.10948508 0.014381434 0.02521425 -0.15293682 -0.11762242 0.03203231 0.08423149 0.0239058
-0.087342456 -0.013377261 -0.03494531 0.12125032 -0.09727002 0.026368365 -0.0043007513 0.114901304
0.11038273 0.037925288 -0.1671886 -0.058424197 0.21811722 0.050894428 -0.035358477 0.058342222
-0.12310582 -0.0046409834 0.03424192 -0.092803605 0.010120536 0.10432104 -0.06525996 -0.06359586
0.025881639 -0.033649568 -0.0010726957 0.059139024 -0.010371318 0.08255663 0.14218196 0.03614163
0.10309937 0.104708776 0.16392787 -0.029032044 0.028489111 -0.1444789 0.21885459 0.03203772
0.10204002 -0.16176194 0.004269817 0.0030782523 0.10441946 -0.02840179 -0.10356382 0.046585012
0.08900521 0.04782822 0.096072294 -0.06469262 0.08411651 -0.07186649 0.034344997 0.05413
0.12998655 -0.038511045 0.011047727 -0.044150453 -0.16779238 -0.014775493 -0.14759947 -0.068745054
-0.018361727 -0.09422437 -0.271604 0.11393564 0.04687497 0.034746386 -0.014069093 0.028847234
0.05999199 -0.015944641 0.08580336 -0.046533253 0.13540065 0.010303199 -0.059600715 0.12416777
-0.06917418 0.14866209 -0.09557204 0.07102884 0.16551802 0.1396237 -0.10612624 -0.010190287
-0.021285126 -0.17099874 -0.09017224 0.048233137 -0.011731071 0.07023226 -0.053879112 0.0073643075

network_body._body_endoder.seq_layers.2.bias f4 [128]
00000000: 79d8 2939 e031 89b9 5ee3 9039 e09e d738
00000010: 850e 79b9 d0d9 0c3a ff3a 80b9 d934 473a
00000020: a0ec f9b9 bbaf df38 c869 9ab9 477a 0439
00000030: 68f8 f538 b7ca 84b9 e4e1 eab7 1506 34ba
00000040: 31c2 433a 1698 91b9 d671 fa36 bde5 13ba
00000050: d716 ba39 5057 9eb9 6891 55b9 455b b03a
00000060: 78d4 3d3a f45b 5b3a c471 013a 6e6e 70b8
00000070: 6a1c 103a c48b c737 752c 16b9 b4a8 cb39
00000080: 6193 4939 020b 31ba 2671 fd39 977a 433a
00000090: 9d4a 29b9 ccb3 8fb9 e88a 273a cfe6 9cb7
000000a0: 01f7 8a39 a44e 79ba 18a8 7b39 0e5a a5b9
000000b0: c159 54b9 a057 0ab9 0748 84b9 0c38 26b8
000000c0: b8d2 2639 e390 25ba da13 9a39 6091 c3b9
000000d0: 3fe3 243a 719c f537 5dc4 df39 f266 87b7
000000e0: c0ab c939 7bcd 0239 1f68 dfb8 4928 39ba
000000f0: 59cd 65b9 3194 be39 c027 1b3a 0648 da39
00000100: db5f d939 4bc7 05ba c4f0 0d39 b662 6fb9
00000110: bf00 8a39 2308 0cba 7da3 1c3a 6115 96b9
00000120: cfbc 0f3a d86c 163a 556a 8539 5aa4 a239
00000130: 4496 293a 0835 08b9 6068 6939 0415 9bb7
00000140: 644c 5dba 895e 11b9 21d4 34ba 6557 9039
00000150: 6f85 bd39 9aaf 35ba c2e4 a339 a209 b2b9
00000160: c1b1 a439 04b1 7aba 7c49 cdb8 1756 beb9
00000170: 2e01 51b9 6138 203a 8841 afba 5c75 7eba
00000180: c19c 313a 8e0b 123a dc0d 81b9 1de9 dc39
00000190: 2675 a239 0384 e43a e4af ebb9 8ce7 9d39
000001a0: a52e 1a3a 8910 f3b8 5146 6ab7 400d 7839
000001b0: 1862 dcb9 7cb8 0b39 8caf 32ba b5d0 50ba
000001c0: 9489 133a ce85 10ba ef47 5d3a b083 51ba
000001d0: 74c1 d339 6fd9 27ba 218e 08ba 36e0 63b9
000001e0: bb8b cd39 78ca dfb9 9b9c ad38 1991 aab9
000001f0: 5e28 bb38 fd08 a038 a3e9 863a 48c1 a5ba
0.00016197738 -0.00026167836 0.00027635222 0.00010281592 -0.000237519 0.0005373033 -0.00024458018 0.00075991225
-0.0004766928 0.00010666201 -0.00029451982 0.00012634053 0.0001172878 -0.00025328036 -2.8000162e-05 -0.00068673614
0.00074675964 -0.00027769868 7.463833e-06 -0.00056418387 0.00035493702 -0.0003020116 -0.00020367431 0.0013454935
0.0007241438 0.0008367889 0.0004937912 -5.7323305e-05 0.0005497398 2.3787732e-05 -0.00014321676 0.0003884487
0.00019223757 -0.00067536545 0.00048340223 0.0007456927 -0.00016144892 -0.00027409045 0.0006391243 -1.8704128e-05
0.00026505443 -0.00095103146 0.00023999845 -0.00031538348 -0.00020251331 -0.00013193348 -0.00025230667 -3.9629682e-05
0.00015909493 -0.00063158403 0.0002938796 -0.0003730161 0.0006289966 2.9279125e-05 0.00042680177 -1.6141192e-05
0.0003846567 0.00012474314 -0.00010652863 -0.0007063193 -0.0002191564 0.00036350035 0.0005918704 0.00041633862
0.00041460883 -0.00051032443 0.000135365 -0.00022829589 0.00026321967 -0.00053417886 0.00059752894 -0.00028626158
0.0005483152 0.0005738265 0.0002544696 0.000310215 0.00064692297 -0.00012989726 0.00022259494 -1.8487226e-05
-0.0008441864 -0.00013863495 -0.0006898065 0.00027530934 0.00036148305 -0.0006930769 0.0003126022 -0.00033957983
0.00031412955 -0.00095631205 -9.788849e-05 -0.00036303766 -0.00019932233 0.0006111917 -0.001337097 -0.0009706819
0.00067753723 0.000557118 -0.00024615123 0.00042135353 0.0003098633 0.0017434362 -0.00044953742 0.0003011789
0.00058815844 -0.00011590223 -1.3963859e-05 0.00023656059 -0.00042034755 0.00013324799 -0.00068163197 -0.000796567
0.0005628106 -0.00055131025 0.00084412 -0.000799234 0.0004038919 -0.00064029446 -0.0005209167 -0.00021731932
0.00039204754 -0.00042684725 8.278453e-05 -0.00032533033 8.924374e-05 7.631069e-05 0.0010293018 -0.0012646103

network_body._body_endoder.seq_layers.4.weight f4 [128, 128]
00000000: 5375 ea3d 41cc 13bd 487d da3d 81c6 c3bd
00000010: 8924 aabc 2ec2 d53d 2ca8 313d d05f dd3d
00000020: 40ad 863d 0611 a8bd 348e 283e ef3f 1cbd
00000030: 81e6 28be 95bb 4cbc b405 863d 002a 3cbd
00000040: 9200 dc3d 3cbd 4dbd 3742 8d3d ddba c5bd
00000050: 59f3 c53c 65c2 9fbd 7c62 823d 56ac fb3c
00000060: 2182 13bd c6f3 203c a92c 92bd 7d6a f33c
00000070: 4e24 c0bd 4b87 4abd 08cc fe3d 5b15 94bd
00000080: 78fa 82bd e549 fd3b e2f0 923d 55b6 56bd
00000090: 60bf 5ebd 5e9a 423c 9a1f a4bd 6c41 733e
000000a0: 79af 86bd 7a14 813b 170c 82bc 0439 d9bc
000000b0: 4dd1 9f3d da22 31bd f761 e0bd 6da7 543d
000000c0: 6a43 203e 215a 8f3c d56d b23d 4338 9d3d
000000d0: 6c77 0d3c 6d8b 01be d4da 39bd 0cae 16be
000000e0: 97b2 8b3d 0a52 cbbd b259 b7bc 20d0 873d
000000f0: c8fc d53c e1a1 04be 0e3c 0bbb 5456 07be
00000100: 3bcf b73d 836d 68bc 3b4d 0f3e 9c2a b9bd
00000110: fc4c 41bd 7836 1a3e 8be3 fe3d c0a0 bfbc
00000120: 265d b4bd 0053 cf3d ae29 6cbd 04cd 0e3e
00000130: 7d0c 933d c058 2fbd 05d0 453d bf6a 03bd
00000140: b552 09be 0dc5 a9bc 975b 21be 4f34 36bd
00000150: b1e6 f0bc d542 8a3d e236 95bd a881 c23d
00000160: 714a 573e c497 413d 27b3 fabc 0ada 9ebd
00000170: 7844 a13d 0bde 7fbd 29f0 b1bc 8b59 2e3b
00000180: 8873 8bbd 460d 8b3d bc12 9ebc 00b8 de3d
00000190: 48ef 04bd 5069 3bbd fc22 02bd 877e fd3c
000001a0: 182e 103e 363e 483d 62a8 083e db09 9abc
000001b0: 3297 24be 922c 323a ac03 fdbd fc7f e53d
000001c0: 16fc 47bd aad5 13be 6528 d0bd 33e8 603b
000001d0: f5d0 ac3c c9d5 f03b 2221 9d3d 0b20 023d
000001e0: 29dd 7abd e67e 2bbe ce57 9a3b c6b6 f8bc
000001f0: 896d c33d c4d1 e2bd 68c5 57bd e166 e23c
00000200: 0a4f a63c ffe3 903d 2550 d8bd d0ed c83c
00000210: 3551 353e eaa3 623d 511e 66be 3da1 ed3d
00000220: d714 15be df15 09be 8788 133c b117 2fbe
00000230: 1b89 7cbd e989 32bd 1c6c 15bd 2be0 3abd
00000240: cb53 4c3d 74fc 133e 0a13 0abe 1bde 213d
00000250: c45f 043d 7907 38be 4ad3 e8bd 2888 fcbd
00000260: b499 3dbc ce75 b2bd f7e0 25bd 51a4 ffbd
00000270: 9e66 cb3d d3f1 843d 4f17 cb3c ff2d e3bc
00000280: c4f9 153e 734e 483a 447f 2dbd bc9c e7bd
00000290: d33a 5b3d 3df4 7fbd b57e 75bc 0a6d bdbd
000002a0: bf7d fc3c 72a7 753d 7b3f fcbc e1f1 903d
000002b0: 946d d73d f00c 1cbc 6c0d 253d 52a5 1ebd
000002c0: 6e0c 71bd 0ec2 473c 6ba8 d9bc 9d53 e83d
000002d0: e1c2 963d 85ce 0c3a b56b 9abd 3b1b 3fbd
000002e0: ce46 a5bd 1f32 233d 8f93 d03c 2017 d7bd
000002f0: 07a2 d03c b388 a0bd dd3b f23c d6b7 743c
00000300: b200 f33c 2ead 9cbd 0422 1e3c 452b 13be
00000310: dd43 eb3a 6d5b 023d 2fbe 1cbe e6b8 9ebb
00000320: eb41 e3bd 15eb 033e eb4e fdbd 0020 a63d
00000330: d890 ef3d 46ba aa3d 35a5 423d c8e5 893b
00000340: b319 833e 2d04 03be 0c6c aabc 295f a83d
00000350: 3928 e03d 6e23 673d 75e9 113d e89f 2e3d
00000360: 00dd cc3b c9ab 11be 60a0 993d 998b e13d
00000370: 5599 97bc 6c94 873d 4e14 e1bc 0381 3c3c
00000380: cae7 9c3c fd56 613d 82e9 193d f2b6 c9bd
00000390: c5a0 ee3d fbbd 85bd c299 80bd 7265 30bd
000003a0: 0b16 003d a758 4d3e 8d06 d43d ff02 61bd
000003b0: 4ff5 8ebd b9cc 97bc 3165 22bc e317 3dbd
000003c0: 04f4 4dbd 6e0e 80bc 45b5 653d 0368 4bbc
000003d0: 552d 6cbd 8c87 a33c 7b73 e2bc d024 1bbd
000003e0: ce72 143d 2cb3 c23c b8be dbbd 66be 6f3c
000003f0: 2799 15bd 8d2a 09be 76d4 05be 3eb5 82bd
0.11448159 -0.036083464 0.10668427 -0.09559346 -0.020769374 0.104374275 0.04337327 0.108092904
0.065760136 -0.08206372 0.16460496 -0.03814691 -0.1649418 -0.012495895 0.065440565 -0.04593849
0.10742296 -0.050229296 0.06897395 -0.09654782 0.024163889 -0.0780075 0.06366441 0.030721825
-0.036012772 0.009823745 -0.071374245 0.029713864 -0.093819246 -0.04944543 0.124412596 -0.07230636
-0.063954294 0.007729756 0.07174851 -0.05241998 -0.05438173 0.011877624 -0.0801384 0.23755425
-0.065764375 0.0039392086 -0.015874906 -0.026516445 0.07803593 -0.043246128 -0.10956185 0.051917482
0.15650716 0.017499031 0.08712355 0.07676747 0.008634429 -0.12650843 -0.045374706 -0.14714831
0.06821173 -0.09927757 -0.022381637 0.066314936 0.026121512 -0.12952377 -0.0021245512 -0.13216525
0.08975073 -0.014186266 0.13994305 -0.0904133 -0.04719256 0.1505984 0.12445744 -0.023392081
-0.08806829 0.10123253 -0.057656936 0.13945395 0.07180116 -0.042809248 0.048294086 -0.032084223
-0.13410456 -0.020723844 -0.15757595 -0.04448348 -0.029406877 0.067510284 -0.07285859 0.09497386
0.21024491 0.047263876 -0.030603005 -0.077564314 0.078743875 -0.062467616 -0.021720963 0.0026603665
-0.06809145 0.06789641 -0.019296043 0.10874939 -0.03245476 -0.04575473 -0.031771645 0.030944122
0.14080083 0.048887454 0.13345483 -0.018803528 -0.16073301 0.00067968026 -0.12354216 0.11206052
-0.048824392 -0.14436975 -0.10163955 0.003431809 0.021095732 0.007349704 0.07672335 0.03176884
-0.06124607 -0.16747627 0.004710174 -0.03036059 0.095423765 -0.11075166 -0.052678496 0.027636947
0.02030136 0.07074737 -0.10562161 0.02452746 0.1770676 0.055332102 -0.22472502 0.116030194
-0.14558731 -0.1338725 0.009004719 -0.17098881 -0.06165419 -0.043588553 -0.036480054 -0.04562394
0.0498846 0.14451772 -0.13483825 0.039518457 0.03231789 -0.179716 -0.11368425 -0.12330657
-0.01157229 -0.08713876 -0.040497746 -0.12482513 0.09931682 0.06491437 0.024791388 -0.027731894
0.1464606 0.00076410844 -0.042357698 -0.113091916 0.053522896 -0.062488783 -0.014983823 -0.09249313
0.03082168 0.05997414 -0.030791989 0.07077385 0.10518947 -0.009524569 0.040296003 -0.03873188
-0.058849744 0.012192262 -0.026569566 0.11344073 0.07361389 0.000537135 -0.07540075 -0.04665683
-0.080701455 0.03984272 0.025460986 -0.105024576 0.025467886 -0.07838573 0.02956956 0.014936408
0.029663417 -0.07650219 0.009651665 -0.14371975 0.0017949302 0.03182547 -0.15306924 -0.004843819
-0.11096557 0.12882645 -0.12368568 0.08111572 0.11697549 0.0833631 0.047520835 0.0042083003
0.25605544 -0.12794562 -0.020803474 0.08221275 0.10945172 0.056430273 0.035623033 0.042632967
0.006251931 -0.14225687 0.07501292 0.11012954 -0.018505732 0.06620106 -0.027475502 0.011505368
0.019153494 0.0550146 0.037576206 -0.09849347 0.11651758 -0.065303765 -0.06279327 -0.043065496
0.03127102 0.2005335 0.10352812 -0.054934498 -0.06980383 -0.018530237 -0.009911821 -0.04616536
-0.05028154 -0.01563188 0.056081075 -0.012414935 -0.05766042 0.019962095 -0.027642956 -0.037876904
0.0362423 0.023767076 -0.10729736 0.014632797 -0.03652301 -0.13395138 -0.13069329 -0.063822255

network_body._body_endoder.seq_layers.4.bias f4 [128]
00000000: c5c8 ad38 71a1 26ba 73ca 0f3a 6ecd d838
00000010: 530a 693a 22e0 cbb9 fdbc 1cba b7ee adba
00000020: 9fdd 873a f4c2 70b7 0920 fbb9 5a79 46b9
00000030: 860e dfb9 11d9 4a3a 7fcf 6cba edc4 d5b9
00000040: 8a59 b8ba 4076 aa39 ba3f 7339 4a20 ef39
00000050: 3bbf 6e39 8db3 7c3a 9b09 45ba caee a7ba
00000060: 49b0 113a b0bb d1b9 4ab0 f839 7a11 123a
00000070: 99eb d339 aafd a439 150f acb9 f959 7b39
00000080: 4e15 973a 2884 76b9 f2fc 8339 ff34 13ba
00000090: 53b8 f0b9 d547 573a 3cd2 94b9 5fec b739
000000a0: af29 c7b9 fcda e2b9 2a5a a4b9 c00e 9b39
000000b0: 1632 8eb9 13d8 d6b9 4d38 4b37 eec1 b53a
000000c0: e567 6db9 bb4d fb39 eba6 a5ba 525d eab9
000000d0: 513b a137 aa98 4d3a b1cc 36ba 7478 83b7
000000e0: 5ab0 013a 6438 033a 5147 11ba 8370 8eb9
000000f0: 09e0 fe39 029c 6e39 fcc9 563a fcc6 ccb9
00000100: 8ad8 8dba bd3e a1ba 14da c5b9 9855 41b9
00000110: 7891 3bb9 90e4 05ba 442d c839 e0d9 46b9
00000120: 4439 1039 d7a2 853a 6bd5 f739 14d4 acb9
00000130: 266d 9e3a b641 ecb8 f509 e139 1562 8739
00000140: c59a 9db7 95af 1138 b7d6 9eb9 708d a1ba
00000150: e248 583a de01 053a 81fd 06b9 7fcc e9b8
00000160: c675 953a dc49 acba 1cee a7ba af34 b439
00000170: 6070 6739 faf1 da39 efa1 9e39 f37a eb39
00000180: d44b c3b8 c017 d5b8 c697 233a 9727 afb9
00000190: 002d 0539 5b45 91b9 427e 353a 7b23 7a3a
000001a0: 209c 2734 8db4 d5b8 6661 0139 af54 41b9
000001b0: 97f9 b2ba d82d 3e3a 4006 6f39 a367 f3b9
000001c0: a26d 29ba e580 e038 0646 f738 aae6 83b9
000001d0: 8903 e638 3457 ef39 bc13 a839 1d76 3cba
000001e0: 1153 30ba 900d 9038 b963 263a 2a49 1b3a
000001f0: 610a eab8 350c 3937 edb9 913a b5d5 d439
8.286679e-05 -0.0006356454 0.00054851844 0.00010337947 0.0008889783 -0.0003888617 -0.0005979089 -0.0013269995
0.0010365731 -1.4350506e-05 -0.0004789832 -0.00018927958 -0.00042544695 0.0007738034 -0.0009033605 -0.00040773247
-0.0014064771 0.0003251303 0.00023198026 0.0004560969 0.00022768688 0.0009639792 -0.0007516385 -0.0012812254
0.00055575796 -0.00040003425 0.00047433592 0.0005572062 0.0004042059 0.00031469512 -0.00032817633 0.00023970743
0.0011526735 -0.0002350962 0.00025174726 -0.0005615502 -0.000459137 0.0008212303 -0.00028385397 0.0003508059
-0.00037987294 -0.00043269235 -0.00031347695 0.00029574893 -0.00027121668 -0.0004097825 1.2112851e-05 0.0013867
-0.00022640785 0.00047932364 -0.0012638246 -0.00044701487 1.9220317e-05 0.0007842878 -0.00069732504 -1.5672507e-05
0.0004947238 0.0005005656 -0.0005541938 -0.00027168178 0.00048613574 0.00022755566 0.000819355 -0.00039058167
-0.001082198 -0.0012302023 -0.0003773725 -0.000184378 -0.00017887901 -0.0005107606 0.00038180698 -0.00018963916
0.00013754243 0.0010195625 0.0004727052 -0.00032964407 0.0012086972 -0.000112655965 0.00042922763 0.00025822283
-1.8787929e-05 3.4734217e-05 -0.00030296083 -0.0012325477 0.00082506065 0.00050738256 -0.00012873673 -0.00011148396
0.0011402897 -0.001314457 -0.0012812051 0.00034371528 0.0002207174 0.00041760487 0.00030256758 0.00044914297
-9.312449e-05 -0.00010161055 0.00062405725 -0.00033408098 0.00012700632 -0.0002770823 0.0006923416 0.000954203
1.5609885e-07 -0.00010190262 0.00012338682 -0.00018437461 -0.0013654706 0.0007254756 0.00022795144 -0.00046425787
-0.0006463175 0.00010705161 0.00011790921 -0.00025158125 0.00010967913 0.00045650604 0.0003205816 -0.0007189231
-0.0006726245 6.868981e-05 0.00063472573 0.0005923683 -0.00011159923 1.1029701e-05 0.0011118032 0.00040595015

action_model._continuous_distribution.log_sigma f4 [1, 39]
00000000: 6202 dd38 0d5b 33b8 38cd 45b9 86ac b639
00000010: a6ad b3b9 8922 213a 4026 7aba af08 0738
00000020: c189 a337 fd7a 893a e639 62b9 f48a 243a
00000030: 3f89 05ba a149 8fb8 9008 edb9 bd7d f53a
00000040: f1cc 7e3a fc8a 183a b928 c838 43ea a439
00000050: 8fae 6ab9 6320 573a 1f86 3ab9 8c13 383a
00000060: 74f0 593a a033 d8b9 64c4 3d3a 94d0 0db9
00000070: 33ba 753a 3d0b 8939 40fb 5dba 6e49 b539
00000080: 5835 94b9 2779 dcb9 fa03 153a 7828 24ba
00000090: 8b6a 343a f0cf e639 bfa8 af38
0.00010538545 -4.2761723e-05 -0.00018863834 0.00034842285 -0.0003427092 0.0006146809 -0.0009542443 3.2194595e-05
1.949526e-05 0.0010488924 -0.00021574608 0.0006276809 -0.00050939986 -6.832486e-05 -0.00045210542 0.001872949
0.00097198697 0.000581905 9.544328e-05 0.00031455056 -0.00022381007 0.0008206425 -0.00017788306 0.00070219557
0.00083137234 -0.00041237194 0.00072390423 -0.00013524509 0.0009373754 0.0002613905 -0.000846792 0.0003457772
-0.00028268504 -0.00042051935 0.00056844915 -0.0006262134 0.0006882331 0.00044023944 8.376082e-05

action_model._continuous_distribution.mu.weight f4 [39, 128]
00000000: df74 ab3c 5234 1d3c 8c53 c33c 5a4c ce3c
00000010: 4f99 073d e2f2 88bc a9e6 64bc cdcd 8abc
00000020: 165a b83b 02fe 163d 0e3e 88bc 7007 84bc
00000030: ded2 923b b756 b53a db3d 0f3d a4f0 c03c
00000040: 9b16 e0bb 9a45 59bc fa6d 5bbc 4556 443c
00000050: cbfa 3b3b 886f 64bc f2ae 6abd f60e abbc
00000060: 47cb 1cbd ba0e 113c 931d 563c ad9e 253c
00000070: 6f4a b83c ee06 20bc 0360 b63c 6b4a 06bb
00000080: ba45 113c 3706 a4bb 2100 22bc 1c0d ebbb
00000090: 4bbb e7bb da6f 88bc 2d80 57bc 0cb0 de3b
000000a0: c8b2 cc3c 5687 b2bb c431 833c b025 163c
000000b0: 3234 71bc 7d51 f1bc c67b c53c 0d28 8bba
000000c0: f57c 50bc 461b f1bc 9c56 5a3b 2441 1cbc
000000d0: 21ec b9bc b2c4 c7bc f9c8 3dbc 6795 87bc
000000e0: 15f0 02bc 945c f8bb 78d5 37bc db81 243a
000000f0: 82d0 17bb d84b 3ebb 34f3 f53a aef1 c1bc
00000100: ddca 61bb 2680 a23a b773 0f3c 9437 023d
00000110: ccb1 453c 7a60 bfbc bdba 863d 6917 98bc
00000120: 1bcc 2b3c 80d6 763c 49ee e93c 8f05 e1bc
00000130: dd52 82bb 14a2 b7bc 69b6 12bc 64fc aebc
00000140: 8ad7 2e3d 6100 e8bb 267f aa3c bf0a 09bc
00000150: bb7f cd3c d34c f7bb 3b8b 173b 875c 55bb
00000160: cca1 9b3b ca4a c2bc 463b 20bb 6cd7 4fbb
00000170: 688b e7bc 5d68 6f3c 235e 393c 0735 52bc
00000180: 476f c43b 9ce3 a5bc 8078 303c 6c89 f53c
00000190: 35e9 f0bc 9559 b73c 3cb7 693c f9b3 00bc
000001a0: ed4a fa3b 455e 6eba 1b46 8bbb 6de5 38bd
000001b0: b26f f83b e886 f83b 4bf8 5c3c c662 61bc
000001c0: bff0 bebb 23a6 92bc e3fd 0d3d 3175 d0bc
000001d0: 5922 18bd d553 a03c ddf7 58bc a110 cc3c
000001e0: e51e 5bbc 8bf9 103c 85bd ca3b cf9e a0bc
000001f0: 3327 2cbc 7d8f 943c 818e 4d3c 8106 213b
00000200: 0778 d5bb d836 f93c 4b4a 1abd be5a 6abb
00000210: 1436 26bc 168c 4cbc bc5c 1dbc 3a95 9e3c
00000220: 32e5 60bc 7e08 a2bc a65f b5bb 6b40 2e3c
00000230: 252d 3bbb c337 8f3b 2010 60bc e60b d5bc
00000240: 5a11 d03b 769f 103d c0cd e03c 8398 383c
00000250: 3305 6e3d bb8c 163c 67ab 143b 86b5 123c
00000260: 4cd0 8b3c a9a0 f73b 5ffb 503c 692b ac3c
00000270: 76cc af3c cf0e 7bbc 27cb c03b 38f8 6b3c
00000280: 40de e2bc 488e ddbb a041 91bc f257 30bd
00000290: b3dc 193d e7ce 4f3c 6935 113c 0554 323b
000002a0: 90f8 6b3c af4b 1b3c 37a8 d0bb 8ddf 0ebd
000002b0: 019b 183b e33a 59bb d9d0 7f3b 388d cb3c
000002c0: a307 653c 4673 193d d3ca 43bb 320b 803b
000002d0: 290c a5bc 8ba7 283c d14e a0bc 710f b1bb
000002e0: 2b94 0c3d 2a48 713c dc71 3c3c d6f6 343a
000002f0: ab46 123c 52cc e33a 824b c5bb 3ac2 153b
00000300: c691 ae3c 2c86 8fbb b448 d3bc 7afe 0a3d
00000310: 1886 923c 89dd 80bc 66c9 593d 4746 5ebc
00000320: bd7d 523b b361 5f3c f123 233c b74b 6bbc
00000330: d3c2 f63b 9fc1 abbb 54ed edbb 0044 a9bb
00000340: 6bd9 5e3b 7d17 a4bc 1267 43bc 3f9f 263b
00000350: bcd8 53bb 2d2c 0c3d 7b8b 15bc d447 543c
00000360: a7dc 653b 23e9 5e3c cc44 513c 70b7 cb3a
00000370: 9aff 43bd 96b5 b1bc b570 c83a c3f7 44bc
00000380: 2de9 793c f82a 49bc a355 113b dccf 44bc
00000390: 393a 39bc 3432 863c af87 aabb 4ece ad3a
000003a0: 6dfb 05bd 73b9 ca3b 4859 813c 9de2 3cbd
000003b0: 62fe 05bc 1079 c6bb 9fd0 ac3c c543 e73a
000003c0: 4c75 be3c e7f7 43bc f18e 273c cd4a 46bd
000003d0: b885 e2bc baf2 39bc 9c50 f7bc 4927 823c
000003e0: c306 d13c 0ba1 563b d186 c0bc 8762 73bc
000003f0: e7b8 e7bc 23f1 633c 612e 4ebc 4ee4 3fbc
0.020929752 0.009594994 0.02384355 0.025182892 0.03310519 -0.016717378 -0.013971009 -0.016943837
0.0056259735 0.036863334 -0.016631152 -0.016116828 0.0044807037 0.0013835047 0.0349711 0.023552246
-0.0068386323 -0.013261223 -0.01339292 0.011983459 0.002868342 -0.013942607 -0.057295747 -0.020881157
-0.038279798 0.008853609 0.0130685745 0.010108632 0.02249643 -0.009767277 0.022262579 -0.0020491134
0.008866722 -0.0050056237 -0.009887726 -0.0071731936 -0.0070718876 -0.016654897 -0.013153118 0.0067958888
0.024987593 -0.005448262 0.016014941 0.009164259 -0.014721917 -0.029457802 0.024106871 -0.0010616794
-0.012725105 -0.02943195 0.0033315783 -0.009537015 -0.022695603 -0.024385784 -0.01158356 -0.016550733
-0.00799181 -0.0075793955 -0.0112203285 0.00062754535 -0.0023165052 -0.0029036906 0.0018764497 -0.023674812
-0.0034453191 0.001239781 0.008755616 0.031791285 0.012066316 -0.023361433 0.06578586 -0.01856585
0.010485674 0.015065789 0.028556006 -0.02746847 -0.003977163 -0.022416152 -0.008954623 -0.021360584
0.042686023 -0.0070801233 0.020812582 -0.0083643785 0.02508532 -0.007547 0.002312376 -0.0032556371
0.0047495123 -0.023717303 -0.0024449392 -0.0031714095 -0.028264716 0.0146122845 0.011313948 -0.0128300255
0.0059947106 -0.020250134 0.010770917 0.029972754 -0.029408077 0.022381583 0.014264878 -0.007855409
0.0076383264 -0.0009093027 -0.0042503006 -0.045140672 0.0075816745 0.0075844415 0.013486932 -0.01375646
-0.005827039 -0.017901486 0.034665953 -0.025446506 -0.03714213 0.019571224 -0.013242689 0.024910273
-0.013374065 0.008848558 0.0061871433 -0.019606976 -0.010507393 0.018134827 0.012546183 0.0024570527
-0.0065145525 0.03042166 -0.037668508 -0.0035759653 -0.010144729 -0.012484571 -0.009604629 0.019358266
-0.013726519 -0.01977944 -0.005535084 0.010635476 -0.0028560844 0.004370661 -0.0136757195 -0.02600665
0.0063497247 0.035308324 0.02744186 0.01126683 0.058110427 0.009188826 0.0022685172 0.008954411
0.017067097 0.007556994 0.012755244 0.021016793 0.0214598 -0.015323355 0.0058835926 0.014402442
-0.027693868 -0.006761346 -0.017731488 -0.04305262 0.03756399 0.012683607 0.008862832 0.0027210724
0.014402524 0.009478494 -0.006367709 -0.034881163 0.002328575 -0.0033146671 0.0039034395 0.024847612
0.0139788715 0.03746345 -0.0029875531 0.0039075846 -0.0201474 0.010293852 -0.019568833 -0.005403452
0.03432099 0.014726678 0.011501756 0.00069032365 0.008927981 0.0017379618 -0.006020964 0.0022851364
0.021309745 -0.004380008 -0.025791503 0.033934094 0.017886207 -0.015730636 0.053170584 -0.01356656
0.0032118403 0.013634133 0.0099573 -0.014361314 0.007530549 -0.0052415873 -0.0072609577 -0.005165577
0.0034004103 -0.020030731 -0.011926429 0.0025424508 -0.0032325229 0.034221817 -0.009127493 0.012956578
0.0035074146 0.013605389 0.01277275 0.001554234 -0.047851183 -0.021693032 0.0015292378 -0.012021962
0.015253347 -0.012278311 0.0022176288 -0.012012448 -0.011305385 0.01638136 -0.005204163 0.0013260336
-0.03271048 0.006186658 0.015789643 -0.046114553 -0.008178325 -0.0060569122 0.021095572 0.0017644098
0.02324929 -0.01196096 0.010226951 -0.04841118 -0.027651653 -0.011349374 -0.030189805 0.015887873
0.02551592 0.0032749798 -0.023501785 -0.014855034 -0.02828641 0.013912472 -0.0125843 -0.011712147

action_model._continuous_distribution.mu.bias f4 [39]
00000000: 5726 883a 0534 bdb8 4fbe 813a be99 a8b6
00000010: 7d8e 6e39 c7a6 73ba df14 1cba 6bfc d739
00000020: 81e8 4c3a 89bc 8b39 7734 113a 2814 c8b8
00000030: 06ea 2e39 9658 593a d4e6 74b8 ba6d f636
00000040: d3d0 083a 89d9 7bb7 ea6b c739 e91c 123a
00000050: 8fc4 98b7 ea41 ecb9 b3df 49ba 8072 f538
00000060: d5a6 e739 bfb0 83b9 038b 023a 7d50 9a3a
00000070: bc16 8c39 2fa7 883a 4bba b039 4ba8 04ba
00000080: afb9 74ba 560b 5b39 4a91 b8b9 28bc a4b7
00000090: 5282 c338 86fa efb9 e306 cc3a
0.0010387403 -9.021912e-05 0.0009898635 -5.024688e-06 0.0002275053 -0.0009294566 -0.0005954038 0.00041196062
0.0007816628 0.00026652616 0.0005539129 -9.5404976e-05 0.00016681114 0.00082910934 -5.838911e-05 7.344145e-06
0.00052191055 -1.5011415e-05 0.0003803664 0.0005573766 -1.8211342e-05 -0.00045062538 -0.0007700875 0.00011703838
0.00044184053 -0.00025117953 0.0004979821 0.0011773255 0.0002671982 0.0010425801 0.00033708135 -0.0005060478
-0.00093355303 0.0002088969 -0.00035203464 -1.963794e-05 9.3225986e-05 -0.00045772287 0.0015566017
