Assets/Brains/ArvidTests/balance10/Zombie Walker/Zombie Walker-18499996.onnx (onnx, 207976 bytes, 7 tensors)

network_body._body_endoder.seq_layers.0.weight f4 [128, 228]
0	0x3e052576	0.13002571
1	0x3f9a00f3	1.203154
2	0xbfa71c49	-1.3055507
3	0xbe44eb58	-0.19230402
4	0x3d2ee711	0.04270083
5	0x3f20c4d9	0.62800366
6	0xbee6db01	-0.45088962
7	0xbdc3c999	-0.09559936
8	0x3f14cce9	0.5812517
9	0xbe83b35e	-0.25722784
10	0x3f877ddf	1.0585288
11	0x3f8aa398	1.0831175
12	0xbe9c0280	-0.30470657
13	0x3d8f1f37	0.06988376
14	0x3e7871fb	0.2426223
15	0x3f733817	0.9500746
16	0x3ecc79bf	0.39936635
17	0x3df8be3e	0.12145661
18	0xbeec806f	-0.46191737
19	0xbe8d7c31	-0.27633813
20	0x3d9807a7	0.074233346
21	0xbf617806	-0.88073766
22	0x3ed47306	0.41494006
23	0xbf9403f8	-1.1563711
24	0xbe8ca5a8	-0.27470136
25	0x3f4565d9	0.7710853
26	0xbfa1a440	-1.262825
27	0xbf86b7e2	-1.0524867
28	0xbdf40f7b	-0.11917015
29	0x3e594359	0.21217097
30	0x3ef387bb	0.47564492
31	0xbcefcccc	-0.02927246
32	0x3f78ed2e	0.9723691
33	0xbd479e4f	-0.04873496
34	0x3de8b30f	0.11362278
35	0x3eacdbc7	0.33761427
36	0xbf8b255f	-1.087078
37	0x3f8f0edc	1.117641
38	0x3e9d3fe9	0.30712822
39	0x3f100419	0.5625625
40	0xbdb5029d	-0.08838389
41	0xbf9ab3d0	-1.2086124
42	0xbfc3c777	-1.5295247
43	0xbc1f775d	-0.009733048
44	0x3def48ee	0.11683832
45	0x3f90ad5a	1.1302903
46	0xbe81884c	-0.252993
47	0xbd8568fa	-0.06514163
48	0xbed3d5b4	-0.4137398
49	0x3eb7ddd1	0.3591142
50	0xbea221b3	-0.31666335
51	0xbf4f2534	-0.8091614
52	0x3d8d04d3	0.06885686
53	0x3e525b74	0.20542699
54	0x3f60421a	0.8760086
55	0xbf23b33d	-0.6394537
56	0xbf93058f	-1.1486071
57	0xbf77c0de	-0.96778667
58	0xbec18f1c	-0.37804496
59	0xbe1d2b51	-0.15348555
60	0x3e6e68ea	0.23282209
61	0xbebbc159	-0.3667095
62	0x3ee08a0d	0.43855324
63	0x3dac0054	0.083985
64	0x3ddcbfd6	0.10778777
65	0x3f5bc9c7	0.8585476
66	0x3f934fe4	1.1508756
67	0xbe911d50	-0.28342676
68	0x3ebdd497	0.37076256
69	0xbf46cfdc	-0.7766092
70	0xbe93970d	-0.2882618
71	0xbf9ce3ca	-1.2257016
72	0xbee631a2	-0.44959742
73	0xbd295135	-0.04133721
74	0x3e2ff153	0.17181902
75	0xbeb37740	-0.35051918
76	0xbf19a60c	-0.6001899
77	0x3ed9ffd8	0.42578006
78	0x3b88c4f6	0.00417387
79	0xbe263092	-0.16229466
80	0x3efe1fc6	0.49633616
81	0x3f9be74a	1.2179959
82	0x3e8b607b	0.27222046
83	0xbf917a98	-1.1365538
84	0xbf949bfc	-1.1610103
85	0xbeef3856	-0.46722668
86	0xbf9f4153	-1.244181
87	0xbf635799	-0.8880554
88	0xbd050dec	-0.03248398
89	0xbebb191b	-0.3654259
90	0xbe38b2bc	-0.18036932
91	0xbf2584d7	-0.6465582
92	0xbf62c3dd	-0.88580114
93	0xbe60474d	-0.21902199
94	0xbeb9dade	-0.36299795
95	0x3eb7e484	0.3591653
96	0x3f956ae2	1.1673243
97	0x3ec7967f	0.38982007
98	0x3f4f1742	0.80894864
99	0xbecfc19b	-0.40577397
100	0x3f102cd8	0.56318426
101	0xbf9b9124	-1.2153668
102	0xbf16ad35	-0.5885804
103	0x3c2c466d	0.010514838
104	0xbdc3025d	-0.09521935
105	0x3f566466	0.83746946
106	0xbe420c2d	-0.18949957
107	0xbee42585	-0.44559875
108	0x3ef71e1f	0.48265168
109	0xbe1ca88b	-0.15298669
110	0xbf7feea4	-0.9997351
111	0x3f9b127e	1.2115018
112	0xbf3b00be	-0.7304801
113	0xbf0de50c	-0.5542762
114	0xbe077d55	-0.13231404
115	0xbeb9abf6	-0.36264008
116	0xbfa7a962	-1.3098567
117	0xbf72076f	-0.9454259
118	0xbcff14e2	-0.031137887
119	0xbe0f62d2	-0.1400254
120	0x3f47b016	0.7800306
121	0xbd91c5fd	-0.071178414
122	0xbe1986c5	-0.14992817
123	0x3e3b6f53	0.18304186
124	0xbe272974	-0.16324407
125	0xbf235c5f	-0.6381282
126	0x3f99e128	1.2021837
127	0xbdf21e09	-0.11822135
128	0xbeeabb5d	-0.45846072
129	0xbf2f23fa	-0.6841427
130	0x3e5b5dd5	0.21422513
131	0xbf9a2631	-1.2042905
132	0xbfa67322	-1.3003886
133	0xbd897e87	-0.06713586
134	0xbd11a20f	-0.03555494
135	0xbd7bc3cf	-0.061466035
136	0xbe6b1e64	-0.22960812
137	0x3d685b00	0.05672741
138	0xbb4a2699	-0.003084576
139	0x3f0f97e3	0.56091136
140	0xbf379f78	-0.71727705
141	0x3f8eff52	1.1171668
142	0xbe20ee75	-0.15715964
143	0x3d7bf785	0.06151535
144	0xbeeccdfc	-0.46250904
145	0x3ecd1175	0.4005238
146	0xbfa05480	-1.2525787
147	0xbfade472	-1.3585341
148	0xbee669be	-0.4500255
149	0xbf3b371b	-0.7313096
150	0x3f1ab5ef	0.6043386
151	0xbe5ad919	-0.21371879
152	0xbed1edc3	-0.4100171
153	0xbdbb0ce5	-0.09133319
154	0x3e4c7679	0.19967069
155	0x3f56efe7	0.8395981
156	0xbf769b5d	-0.96330816
157	0x3f0e64cf	0.5562257
158	0xbf5b1a0b	-0.85586613
159	0xbf1512e8	-0.58231974
160	0xbe0ba3d7	-0.13636719
161	0xbf920690	-1.1408253
162	0xbf7c7b2e	-0.9862546
163	0xbf18993c	-0.5960882
164	0xbeffd1a9	-0.49964646
165	0x3f48c93b	0.78432053
166	0xbe0bc95f	-0.13651036
167	0xbda62239	-0.08111996
168	0x3d0023ef	0.03128427
169	0xbf142ded	-0.5788258
170	0x3f2b32e4	0.6687453
171	0xbe801bdd	-0.25021258
172	0xbe7f8c68	-0.24955904
173	0xbef60f8c	-0.48058736
174	0xbf33c1c9	-0.7021757
175	0xbedbcc08	-0.429291
176	0xbf95ec9a	-1.171283
177	0xbf46042f	-0.77350134
178	0xbeeb6ad5	-0.45979944
179	0xbeec8a61	-0.46199325
180	0x3f016abb	0.5055348
181	0xbe811bb6	-0.25216454
182	0x3c894589	0.01675679
183	0x3dc38f9e	0.09548877
184	0xbe94ceff	-0.29064175
185	0x3f4ed4cb	0.80793446
186	0x3eb8dc8f	0.36105773
187	0xbdc41e71	-0.09576119
188	0xbd91838c	-0.07105169
189	0x3f001f0c	0.50047374
190	0x3f1f415b	0.622091
191	0x3c7f31d0	0.015575841
192	0xbea67ccb	-0.32517084
193	0x3e56e9e8	0.20987666
194	0x3ef60e54	0.48057806
195	0xbf5d0f6e	-0.8635167
196	0xbf524f08	-0.8215184
197	0x3f420a50	0.75796986
198	0xbf0a934d	-0.54131013
199	0x3efc6cb6	0.4930169
200	0x3b66e87e	0.003523379
201	0xbf8e48e5	-1.1115996
202	0xbfd69943	-1.6765522
203	0x3e34bba1	0.176497
204	0x3f26dd98	0.65181875
205	0x3f137d39	0.5761295
206	0xbed07fc0	-0.40722466
207	0x3e7aad05	0.24480064
208	0x3c5a54d3	0.013325888
209	0xbe3d4af6	-0.18485627
210	0xbf01e7a1	-0.5074406
211	0xbf82edd1	-1.0228826
212	0x3ec133d0	0.37734842
213	0xbf217a2c	-0.63077044
214	0x3fba6859	1.4563094
215	0x3e0b3815	0.13595612
216	0xbf727e00	-0.9472351
217	0xbf461a0c	-0.77383494
218	0x3f1a9207	0.6037907
219	0x3df187af	0.11793458
220	0x3e0511af	0.12995027
221	0xbeac1695	-0.3361098
222	0x3e6dd5f9	0.23226155
223	0x3c8618c0	0.016369224
224	0xbe96ad0a	-0.29428893
225	0xbdfa7baf	-0.12230622
226	0xbf6fedca	-0.9372221
227	0xbec33be9	-0.38131645
228	0x3e904c86	0.28183383
229	0x3eb7beff	0.35887906
230	0xbf9eff8d	-1.2421738
231	0xbe773cb2	-0.24144247
232	0x3dd090f2	0.10183896
233	0x3ec574ee	0.38565773
234	0xbe12bf59	-0.14330806
235	0x3e182569	0.14858021
236	0xbd7a5750	-0.061118424
237	0xbe6f422e	-0.2336509
238	0x3e87f648	0.26555085
239	0x3e0786a7	0.1323496
240	0x3ca25d1f	0.019819794
241	0xbedbdb1e	-0.4294061
242	0xbdeb0d37	-0.1147713
243	0x3f100d93	0.5627071
244	0x3ccf05c7	0.02527131
245	0x3d343828	0.043998867
246	0xbe24aaa2	-0.16080716
247	0x3e04432f	0.12916254
248	0xbe12f335	-0.14350589
249	0xbf4bbe3c	-0.7958715
250	0x3d649d47	0.055814054
251	0xbef5b3be	-0.47988695
252	0xbd553f1d	-0.052062143
253	0x3eac7a72	0.33687168
254	0xbf8f0094	-1.1172051
255	0xbf5fbcb3	-0.8739731

network_body._body_endoder.seq_layers.0.bias f4 [128]
0	0xbf9bd27b	-1.2173609
1	0xbf9037b4	-1.1266999
2	0xbdbee5b0	-0.09321153
3	0xbf3e3c03	-0.7431032
4	0xbf98b9d1	-1.1931707
5	0xbf819d2b	-1.0126089
6	0xbf8a2d08	-1.0794992
7	0xbf8d93c9	-1.1060725
8	0xbf916cf9	-1.1361381
9	0xbf7b32d4	-0.9812443
10	0xbea28bba	-0.31747228
11	0xbf745d78	-0.9545512
12	0xbf891d03	-1.0711979
13	0xbf9a43b4	-1.2051911
14	0xbf81a9fe	-1.0130002
15	0xbf0f983f	-0.56091684
16	0xbf8768bd	-1.0578839
17	0xbf8edf7a	-1.116195
18	0xbeeb4580	-0.45951462
19	0xbe8053b1	-0.2506385
20	0xbf902acf	-1.1263064
21	0xbf7a80a2	-0.9785253
22	0xbf9267ac	-1.1437888
23	0xbf8221a5	-1.0166517
24	0xbf811005	-1.0083014
25	0xbfa7bfe0	-1.3105431
26	0xbf632189	-0.88723046
27	0x3d914cbc	0.07094714
28	0xbf80705e	-1.0034292
29	0xbf87fdde	-1.0624349
30	0xbf96a7a9	-1.1769916
31	0xbfa4865c	-1.2853503
32	0xbf91d858	-1.1394148
33	0xbf0adfa0	-0.54247475
34	0xbf902df7	-1.1264027
35	0xbf910dfd	-1.1332394
36	0xbf87d4f3	-1.0611862
37	0xbf88a909	-1.0676585
38	0xbf83470f	-1.025606
39	0xbe23454f	-0.15944408
40	0xbf980359	-1.1876022
41	0xbf164d36	-0.58711565
42	0xbf88f4e7	-1.0699738
43	0xbed76936	-0.42072457
44	0xbf86f312	-1.0542929
45	0xbf65c88f	-0.89759153
46	0xbf97cd8d	-1.1859604
47	0xbfa5dba3	-1.2957653
48	0xbe251e4f	-0.16124843
49	0xbf9f471d	-1.2443577
50	0xbf9293e4	-1.1451383
51	0xbf84e951	-1.0383703
52	0xbf991fc7	-1.1962823
53	0xbf82e1e9	-1.0225192
54	0xbfa151ea	-1.2603123
55	0xbed009f6	-0.406326
56	0xbe5dc768	-0.21658099
57	0xbf23e56d	-0.6402195
58	0xbef66147	-0.48121092
59	0xbf9d21c9	-1.2275935
60	0xbf757463	-0.9588072
61	0xbf399d09	-0.7250524
62	0xbf978af0	-1.1839275
63	0xbedd0688	-0.43169045
64	0xbe4ac0a0	-0.19800043
65	0xbf858290	-1.043047
66	0xbf81e2d1	-1.0147344
67	0xbf8ff883	-1.1247715
68	0xbfa3e444	-1.2804036
69	0xbf97c756	-1.1857708
70	0xbf81600d	-1.0107437
71	0xbf0b97c3	-0.54528445
72	0xbf1dc7dc	-0.61633086
73	0xbf8ee4fc	-1.116363
74	0xbf7ec858	-0.9952445
75	0xbfa2e7f3	-1.2727035
76	0xbf253022	-0.6452657
77	0xbf13ae1e	-0.57687557
78	0xbf89ae7a	-1.0756371
79	0xbee8643e	-0.4538898
80	0xbf0afabd	-0.54288846
81	0xbf80549c	-1.0025821
82	0xbf9494f5	-1.1607958
83	0xbe979c06	-0.29611224
84	0xbf15d8a9	-0.5853372
85	0xbf2ca122	-0.6743337
86	0xbf8c200b	-1.0947279
87	0xbf32a2d7	-0.69779724
88	0xbf53a007	-0.8266606
89	0xbf8d1a3a	-1.1023629
90	0xbfa49b4f	-1.2859896
91	0xbf99d251	-1.2017308
92	0xbea375cd	-0.31925812
93	0xbf2c2956	-0.67250574
94	0xbf62e1f1	-0.8862601
95	0xbf9ef027	-1.2417039
96	0xbf8f059f	-1.117359
97	0xbf8e71fa	-1.1128533
98	0xbf930557	-1.1486005
99	0xbf89d291	-1.0767385
100	0xbf9d14f7	-1.2272023
101	0xbfa4c8cd	-1.287378
102	0xbf8b6dc4	-1.0892873
103	0xbeca3e38	-0.39500594
104	0xbf9a44f3	-1.2052292
105	0xbd65e6b5	-0.056128222
106	0xbf8e7127	-1.1128281
107	0xbf8ffbd6	-1.1248729
108	0xbf593cb5	-0.84858257
109	0xbf86afd3	-1.0522407
110	0xbf968d95	-1.1761957
111	0xbf9c881c	-1.2229037
112	0xbf3ce9fb	-0.73794526
113	0xbf94abe5	-1.1614958
114	0xbe327202	-0.17426303
115	0xbf8f3bad	-1.1190087
116	0xbf3e860a	-0.7442328
117	0xbf99ebcf	-1.2025088
118	0xbf90d671	-1.1315442
119	0xbf9f24b0	-1.2433071
120	0xbf8ddf8f	-1.108385
121	0xbf8dcde6	-1.107846
122	0xbf9454a9	-1.1588336
123	0xbf0c7e4c	-0.54880214
124	0xbfa9997f	-1.3249968
125	0xbf93ed73	-1.1556839
126	0xbf91630b	-1.135835
127	0xbf854c0d	-1.0413834

network_body._body_endoder.seq_layers.2.weight f4 [128, 128]
0	0x3c2a2b88	0.010386355
1	0x3dc293b5	0.09500829
2	0xbe2fb20a	-0.1715776
3	0xbf2807c7	-0.6563687
4	0xbf48de63	-0.78464335
5	0x3e9bd88c	0.3043865
6	0xbda2efe3	-0.07955911
7	0x3bb3e94a	0.0054904567
8	0x3edb34f5	0.4281384
9	0x3eaa2ead	0.33238736
10	0xbf0bcf38	-0.54613066
11	0xbe4da5bb	-0.20082752
12	0x3db5d87f	0.08879184
13	0x3e58fe96	0.21190867
14	0x3efc0a75	0.49226728
15	0x3f359651	0.7093249
16	0xbea78137	-0.3271577
17	0xbe357719	-0.17721213
18	0x3dcceb83	0.10005858
19	0xbf338cf4	-0.7013695
20	0xbe4cc6f9	-0.19997777
21	0x3eca5414	0.39517272
22	0xbca0fd12	-0.019651923
23	0xbaaff504	-0.0013424461
24	0x3ef73d71	0.48289064
25	0xbe6a146a	-0.2285935
26	0xbddcf259	-0.10788412
27	0xbfaeed28	-1.3666124
28	0xbf1a22bd	-0.60209256
29	0x3d01b5e1	0.031667594
30	0xbcf14602	-0.029452328
31	0xbec629ed	-0.38703862
32	0xbdc19243	-0.09451725
33	0xbf14e36c	-0.5815952
34	0x3d6649b7	0.056222644
35	0x3f27fdba	0.6562153
36	0x3e319c62	0.17344812
37	0xbf00bbf8	-0.5028682
38	0xbde0c7fe	-0.109756455
39	0xbd6cc7c2	-0.05780769
40	0x3d9d5a49	0.07683236
41	0xbe4e3c50	-0.20140195
42	0x3d0d098d	0.034432936
43	0x3e2a3f92	0.16625813
44	0xbf05cfac	-0.5227001
45	0xbf5ade27	-0.8549523
46	0xbe038758	-0.12844598
47	0xbc3354fd	-0.010945556
48	0x3f00654b	0.5015456
49	0xbeaed0b1	-0.34143594
50	0xbc27662b	-0.01021723
51	0xbe7f5b49	-0.24937166
52	0x3c263061	0.01014337
53	0xbf147dab	-0.58004254
54	0xbdae141a	-0.08499928
55	0x3e8368b3	0.25665817
56	0xbf250496	-0.6446012
57	0x3eb213c7	0.34780714
58	0xbf070f3e	-0.5275763
59	0x3d34a01e	0.044098012
60	0x3eb99062	0.36242968
61	0xbf27910d	-0.65455705
62	0x3e56b638	0.20967948
63	0xbf8c82a8	-1.0977373
64	0x3ddf74cf	0.10910951
65	0x3ca641c3	0.02029503
66	0xbe4d3868	-0.20041049
67	0x3e3fff27	0.18749677
68	0x3e85b7f8	0.2611692
69	0xbe0ad076	-0.13556084
70	0xbd705265	-0.058672328
71	0x3eac7619	0.3368385
72	0x3f3bc868	0.7335267
73	0x3d304730	0.04303664
74	0x3e4adeb5	0.19811518
75	0xbede7253	-0.43446597
76	0x3e4f3711	0.2023585
77	0xbe8866b6	-0.26640862
78	0x3e253fdb	0.1613764
79	0xbf1778d0	-0.5916872
80	0xbe927731	-0.2860656
81	0x3df2e7eb	0.11860641
82	0xbe116c1a	-0.14201394
83	0x3a9bd83e	0.0011890007
84	0xbd8fd20f	-0.07022487
85	0xbd0a83b5	-0.033817012
86	0xbef082c0	-0.46974754
87	0xbe713ee2	-0.23559144
88	0x3bdf4aaa	0.0068143206
89	0x3e7a4af5	0.24442656
90	0xbe4c3db3	-0.19945411
91	0xbf089df9	-0.5336605
92	0xbe8d3f76	-0.2758748
93	0x3eb18e53	0.34678897
94	0x3e5d103d	0.21588226
95	0xbec99fd1	-0.39379743
96	0x3f306e28	0.68918085
97	0x3e295206	0.16535196
98	0x3c7f814f	0.015594794
99	0x3f0985c2	0.53719723
100	0xbe33a1fd	-0.17542262
101	0x3d46b707	0.048514392
102	0x3e712929	0.23550858
103	0xbdad7524	-0.084696084
104	0x3e51677f	0.20449637
105	0xbf825732	-1.018286
106	0x3e915db1	0.28391793
107	0xbe172964	-0.14761883
108	0xbe252963	-0.16129069
109	0xbe3ec433	-0.18629532
110	0x3c9f72bd	0.019463891
111	0x3ea90e9d	0.33018962
112	0xbebececf	-0.37267157
113	0xbecc6fc8	-0.39929032
114	0xbf2d6246	-0.6772808
115	0x3ebd0c65	0.3692352
116	0xbe433b56	-0.19065604
117	0xbdd0e8da	-0.10200663
118	0x3f04ed1b	0.51924294
119	0x3dcd7685	0.100323714
120	0xbeb68e34	-0.35655367
121	0xbad0aa2e	-0.0015919858
122	0x3ce0ab66	0.02742548
123	0xbd54ce80	-0.051954746
124	0x3e76ddc7	0.24108039
125	0x3f102fad	0.5632275
126	0x3e815309	0.25258663
127	0x3e550b54	0.20805103
128	0x3ecd1f11	0.40062764
129	0x3d23f1b2	0.04002542
130	0x3eb0f760	0.34563732
131	0x3f21d200	0.6321106
132	0x3e94f20b	0.29090914
133	0xbf19e226	-0.601107
134	0x3e4f6754	0.2025426
135	0xbe167505	-0.14693077
136	0xbd6988ae	-0.057015114
137	0x3e5c141d	0.21492048
138	0x3e7d8bce	0.24760363
139	0x3f047376	0.5173868
140	0x3e11924f	0.14215969
141	0x3de24e52	0.11050095
142	0xbdde7330	-0.10861814
143	0xbde52375	-0.111884035
144	0xbeffd639	-0.49968126
145	0xbde7fba9	-0.11327297
146	0x3e1b52cb	0.15168302
147	0xbed97806	-0.42474383
148	0x3eb3f7d6	0.3515002
149	0xbeedc032	-0.46435696
150	0xbe8ec72d	-0.27886334
151	0x3ebef8e0	0.37299252
152	0xbe261bd6	-0.16221556
153	0xbe418595	-0.18898614
154	0xbbb01276	-0.0053732945
155	0x3de37f4b	0.111082636
156	0xbe985170	-0.29749632
157	0x3e82c832	0.25543362
158	0x3e9c9d27	0.30588648
159	0x3eb326bb	0.34990487
160	0xbdea622a	-0.114445046
161	0xbeb5623a	-0.35426503
162	0xbe5cd206	-0.21564493
163	0xbd345791	-0.044028822
164	0x3e906fb2	0.28210217
165	0x3f047898	0.5174651
166	0xb9ead18d	-0.00044788086
167	0x3dc75b71	0.09734238
168	0x3f2624bb	0.64899796
169	0xbf0ae0cd	-0.5424927
170	0x3e77ee68	0.24212039
171	0xbefb85c4	-0.49125493
172	0x3eb89b9a	0.36056215
173	0xbf00bcb1	-0.5028792
174	0x3f0f3def	0.5595388
175	0x3e8f5105	0.279915
176	0xbdc7542f	-0.097328536
177	0x3ee4bbab	0.4467443
178	0xbed1f05c	-0.41003692
179	0x3de826dd	0.113355376
180	0xbcb84238	-0.022492513
181	0x3ea2a89d	0.31769267
182	0xbeea6de1	-0.45786956
183	0xbf4b785a	-0.79480517
184	0xbea19920	-0.31562138
185	0x3e676a1b	0.2259907
186	0xbe5d91cf	-0.21637653
187	0x3ec47cb6	0.38376397
188	0xbf24c746	-0.6436657
189	0xbf657e67	-0.89646
190	0x3e629625	0.22127588
191	0xbde261ed	-0.11053834
192	0xbf02faae	-0.51163757
193	0xbeccb8b4	-0.39984667
194	0x3e2b8418	0.16749609
195	0xbe801657	-0.25017044
196	0x3ec7606e	0.38940758
197	0xbd7c0d17	-0.06153592
198	0x3ecc122a	0.39857608
199	0x3e9da51a	0.30790025
200	0xbeabb95a	-0.3353985
201	0x3e37d483	0.1795216
202	0xbe870c29	-0.26376465
203	0xbefbcb61	-0.49178603
204	0xbcefd4c6	-0.029276263
205	0xbfa785ca	-1.3087704
206	0xbe8bc75d	-0.2730054
207	0x3e0a8bbb	0.13529865
208	0xbeb5d2b4	-0.35512316
209	0x3e1aad0a	0.15105072
210	0x3f1fd73a	0.62437785
211	0x3f09faea	0.5389849
212	0xbf289ba9	-0.6586252
213	0xbf0085d9	-0.50204235
214	0x3bd60c6c	0.0065322425
215	0x3eebcafa	0.46053296
216	0xbf181532	-0.5940734
217	0x3ea04f1f	0.31310365
218	0x3f242bc9	0.6412931
219	0x3f37a37d	0.7173384
220	0xbf9b1115	-1.2114588
221	0xbf044637	-0.5166964
222	0x3db095c3	0.08622315
223	0xbdbdcdcc	-0.09267768
224	0x3ed8a837	0.42315838
225	0xbdb5be1c	-0.08874151
226	0x3deed79a	0.116622165
227	0x3dfc3526	0.12314825
228	0xbf33c07f	-0.702156
229	0x3e3944ed	0.180927
230	0x3f3d21f1	0.73879915
231	0x3e6ddaed	0.23228045
232	0xbe379092	-0.17926243
233	0xbf2fb206	-0.6863102
234	0x3f1e8e84	0.6193621
235	0x3ea2e747	0.31817076
236	0xbdd0c4b5	-0.10193769
237	0x3eb79470	0.35855436
238	0x3db8cd6c	0.09023556
239	0x3c98397e	0.018582102
240	0x3e9b504d	0.30334702
241	0x3cdae215	0.026719132
242	0xbec92703	-0.39287576
243	0x3c13fae8	0.009031989
244	0x3f13537c	0.5754926
245	0x3ef2b55b	0.47403988
246	0x3e2bdd0c	0.16783541
247	0xbe4d74a2	-0.20064023
248	0x3e44ffaf	0.1923816
249	0xbdc32e94	-0.095303684
250	0x3ecd74bb	0.4012812
251	0x3e504489	0.20338644
252	0x3eadf0c6	0.33972758
253	0xbe811fb0	-0.25219488
254	0xbea5d5bd	-0.32389632
255	0xbf953e18	-1.1659575

network_body._body_endoder.seq_layers.2.bias f4 [128]
0	0xbfa6f755	-1.304423
1	0xbfe8cc5f	-1.8187369
2	0xbff478f4	-1.9099412
3	0x40838bc1	4.11081
4	0xbf8d0cf6	-1.101958
5	0xbf970c46	-1.180062
6	0xbea12a67	-0.31477663
7	0xbf6416c0	-0.89097214
8	0xbfb0e747	-1.382058
9	0xbf1a01a0	-0.6015873
10	0x3f488db6	0.78341234
11	0x3e7de422	0.24794057
12	0xbf160ebf	-0.5861625
13	0xbf15e42a	-0.58551276
14	0xbfe199f0	-1.7625103
15	0xbf9d554e	-1.2291658
16	0xbf87e570	-1.0616894
17	0xbf83ee6e	-1.0307138
18	0x3f7465d3	0.9546787
19	0xbea7e86f	-0.3279452
20	0xbf5b2a42	-0.85611355
21	0xbec35ad3	-0.3815523
22	0xbf6dddcc	-0.9291656
23	0xbf994cf8	-1.1976614
24	0xc016ebc0	-2.358139
25	0x3df3b928	0.1190055
26	0xbfd6286a	-1.6731083
27	0xbfd3babd	-1.6541363
28	0xbe9802d7	-0.29689667
29	0xbfc3c5fa	-1.5294793
30	0xbf96f24c	-1.1792693
31	0xbfbde4ea	-1.4835484
32	0xbf3972ca	-0.7244078
33	0xbfe1eda9	-1.7650653
34	0xbf8436a5	-1.0329176
35	0x4021a376	2.5256019
36	0xbf629df4	-0.8852227
37	0x3f821cd0	1.0165043
38	0xbf32ce28	-0.6984582
39	0xbf9008c5	-1.1252676
40	0xbf62ea44	-0.8863871
41	0xbe986526	-0.2976467
42	0xbd485afa	-0.048914887
43	0xc003beaf	-2.0585134
44	0xbfffa50b	-1.9972242
45	0xbfb16a7f	-1.3860625
46	0x3efb547f	0.49087903
47	0xbef1d300	-0.47231293
48	0xbf663a56	-0.89932764
49	0xbf9eb40c	-1.2398696
50	0xbf8b9920	-1.0906105
51	0xbf9de41e	-1.2335241
52	0xbfe0f762	-1.7575495
53	0xbda19bef	-0.0789107
54	0xbfc30631	-1.5236264
55	0xbfa535c4	-1.2907033
56	0xbfb13f95	-1.3847529
57	0x3ec56aa5	0.38557926
58	0x3f674887	0.9034504
59	0xbf87337b	-1.0562586
60	0xbf489e3d	-0.7836645
61	0xbfa32364	-1.2745175
62	0xbe5ab2af	-0.21357225
63	0xbfc30ed2	-1.5238898
64	0xbfe87eb1	-1.8163663
65	0xbfd7374a	-1.6813748
66	0xbf7b860c	-0.98251414
67	0xbe2374d1	-0.1596253
68	0xbfa452b0	-1.2837734
69	0x3f0750a4	0.5285742
70	0xbfa00b0a	-1.2503369
71	0x3fb9efe1	1.452633
72	0xbfa6c265	-1.3028075
73	0xbf8fc3a0	-1.1231575
74	0xbfac70cd	-1.3471924
75	0xbfb25f01	-1.3935243
76	0xbfa555aa	-1.2916768
77	0x3f820048	1.0156336
78	0xbfb13a5c	-1.3845935
79	0x3ea3f1ff	0.32020566
80	0xbf3d3438	-0.73907804
81	0xbf9d88af	-1.2307338
82	0xbfb6f36a	-1.4293034
83	0xbfcb69c9	-1.5891658
84	0xbfbbf554	-1.4684243
85	0xbfb8b60f	-1.443056
86	0xc0004161	-2.0039904
87	0xbfc85559	-1.5651046
88	0xbf796de6	-0.97433317
89	0xbf8ef4e6	-1.1168487
90	0xbfa4d8d5	-1.2878672
91	0xbff5da60	-1.9207268
92	0x3eb5144d	0.3536705
93	0xc00dfb52	-2.2184644
94	0x3e061207	0.13092814
95	0xbfc59236	-1.5435245
96	0xbf81fe47	-1.0155724
97	0xbfce6268	-1.6123781
98	0xbffa58a9	-1.9558307
99	0xbf01d885	-0.5072101
100	0xbf9f53ce	-1.244745
101	0xc004e4f2	-2.0764737
102	0x3f501b40	0.8129158
103	0xbf8625bb	-1.0480264
104	0x3e161f54	0.14660388
105	0xbf8035f0	-1.001646
106	0xbf67dfd8	-0.90575933
107	0x3ee583b6	0.4482705
108	0x3f4ded46	0.80440176
109	0xbfdba6c1	-1.7160264
110	0xbf90a595	-1.1300532
111	0xbe823be9	-0.25436333
112	0xbf858a74	-1.0432878
113	0xbfba02de	-1.4532125
114	0xbeb1fb6f	-0.3476214
115	0xbf23b6c3	-0.6395075
116	0xbf276cb9	-0.6540027
117	0x3e9047f5	0.281799
118	0xbf715851	-0.94275385
119	0x3f72c093	0.94825095
120	0x3ff5eede	1.9213521
121	0xbf5604ab	-0.8360087
122	0xbfc40b73	-1.5315994
123	0xbfac7aae	-1.3474939
124	0xbfc083d9	-1.5040237
125	0xbf8ff144	-1.1245503
126	0xbfce508b	-1.611833
127	0x3f323133	0.6960632

action_model._continuous_distribution.log_sigma f4 [1, 39]
0	0xbea5156c	-0.32242906
1	0x3f8768e0	1.057888
2	0x40358fa7	2.8368928
3	0x4036c7da	2.855948
4	0x3fb4fad7	1.413905
5	0x40362209	2.8458273
6	0xbfeefc06	-1.8670661
7	0x3fe00ee4	1.7504544
8	0xbfc9b716	-1.5758998
9	0xbfcfbbcf	-1.622919
10	0x3e663b99	0.22483672
11	0x4038736d	2.882045
12	0x403c9c66	2.9470458
13	0x403f65b4	2.9905825
14	0x4046c5f4	3.105832
15	0x3f333bba	0.7001301
16	0x3fe98434	1.824347
17	0x3e6a4da0	0.22881174
18	0xbfc58f81	-1.5434419
19	0xbdf032c8	-0.11728436
20	0x3fb65bc5	1.4246756
21	0xbfb3c8c2	-1.4045641
22	0x40109cec	2.2595778
23	0x3ee3ab53	0.44466648
24	0x3fcc51b2	1.5962431
25	0x4062dd70	3.5447655
26	0x401143a2	2.269753
27	0x3e2b9b07	0.16758357
28	0x40300381	2.7502139
29	0x3fc7b24b	1.5601286
30	0x3fe0d676	1.7565448
31	0x3fd5e554	1.671061
32	0x4002f645	2.046281
33	0xbedeb24c	-0.43495405
34	0x3e033e08	0.12816632
35	0x4021c7d5	2.5278218
36	0x3f1b40a6	0.6064552
37	0x3fc95432	1.5728819
38	0x3ee9a4dd	0.45633593

action_model._continuous_distribution.mu.weight f4 [39, 128]
0	0x3e628d2a	0.22124162
1	0xbe5bc4ce	-0.21461794
2	0x3fad083b	1.3518137
3	0xbe5c56fb	-0.21517555
4	0x3d5c4113	0.053772997
5	0xbb37e9fb	-0.0028063047
6	0x3d8be49c	0.06830713
7	0x3e9d5f9d	0.3073701
8	0x3f75bedb	0.9599435
9	0x3f1b0056	0.6054739
10	0xbec5e7a8	-0.38653302
11	0x3dae0ed3	0.08498921
12	0xbe87d0a5	-0.2652637
13	0x3daa0322	0.08301379
14	0xbf1eacc1	-0.6198235
15	0xbf1fed68	-0.6247163
16	0x3e6c747d	0.23091312
17	0xbe709474	-0.2349413
18	0x3e5da632	0.2164543
19	0xbf823fe0	-1.0175743
20	0xbd83063a	-0.06397672
21	0x3f69d804	0.9134524
22	0x3f44e6b2	0.76914513
23	0xbd93d7f7	-0.072189264
24	0xbe280df5	-0.16411574
25	0xbe167db0	-0.14696383
26	0xbf124191	-0.57131296
27	0x3dfac667	0.122448735
28	0x3f5b1ea2	0.85593617
29	0x3f62cd74	0.88594747
30	0x3e425310	0.18976998
31	0x3f1a7d1a	0.6034714
32	0x3cf4f594	0.029902257
33	0x3e900c66	0.2813446
34	0x3e80c1e1	0.25147918
35	0xbef25c91	-0.47336248
36	0x3f4a57bb	0.79040116
37	0x3f047429	0.51739746
38	0xbdabc9a4	-0.08388069
39	0xbed3afe9	-0.41345146
40	0x3f1770ff	0.59156793
41	0x3f7c1a4c	0.98477626
42	0x3ebf746b	0.37393507
43	0xbe73b6c9	-0.23800196
44	0x3d149736	0.03627702
45	0xbe4760b1	-0.19470479
46	0x3f596d9c	0.84932876
47	0x3e12f0bd	0.14349647
48	0xbf0e6e91	-0.5563746
49	0x3ec2db79	0.3805807
50	0x3de4b5ae	0.11167465
51	0xbe321db5	-0.17394145
52	0xbf1ddfe7	-0.6166977
53	0xbf302dd7	-0.68819946
54	0x3f815099	1.0102721
55	0x3f63b93e	0.8895453
56	0x3f828825	1.0197798
57	0x3f0cfd16	0.5507368
58	0xbf6c25dc	-0.9224527
59	0x3f459b2e	0.7718991
60	0xbf331e49	-0.69968086
61	0x3e7b8a53	0.24564485
62	0x3e04f0a5	0.12982424
63	0x3f02060a	0.50790465
64	0xbeb17922	-0.3466273
65	0xbf5e2331	-0.8677245
66	0x3e181905	0.14853294
67	0xbea4815b	-0.3212994
68	0x3fa8f6ed	1.3200356
69	0xbf02d5b8	-0.5110736
70	0x3f94bcd7	1.1620129
71	0xbcc7038a	-0.02429368
72	0x3efc2a30	0.49250937
73	0x3e5db018	0.21649206
74	0x3b565080	0.003270179
75	0x3f408450	0.7520189
76	0x3e9663dc	0.29373062
77	0x3ef9df0a	0.48802978
78	0xbe5d6b77	-0.21623026
79	0x3fc488fd	1.5354306
80	0xbe96748d	-0.29385796
81	0xbe5e6e38	-0.21721733
82	0xbd20d079	-0.039261315
83	0x3eb10628	0.3457501
84	0xbdd3835f	-0.103277914
85	0xbe6a8191	-0.22900988
86	0x3f556bf2	0.83367836
87	0x3e57c89f	0.21072625
88	0x3e9b87c5	0.3037702
89	0x3dd98cf5	0.106225885
90	0xbed39c99	-0.41330412
91	0x3eb508b4	0.35358202
92	0xbf0da5e3	-0.5533125
93	0x3eca8d0c	0.39560735
94	0x3cf86b01	0.030324461
95	0x3f339f29	0.70164734
96	0x3ea6ccb6	0.32578057
97	0x3f037d71	0.51363283
98	0x3ea67d53	0.3251749
99	0xbe9dd239	-0.3082445
100	0x3f1aa966	0.6041473
101	0xbf583581	-0.8445664
102	0xbf247aba	-0.64249766
103	0xbf3ad4a6	-0.72980726
104	0x3d8f8869	0.0700844
105	0x3eafd5d2	0.3434282
106	0x3dc419d3	0.09575238
107	0xbf8b5e33	-1.0888122
108	0x3f0f26f5	0.5591882
109	0x3f9522de	1.1651266
110	0xbd2572cb	-0.04039268
111	0xbf5780c4	-0.84180856
112	0xbe8a387e	-0.26996225
113	0x3f105aec	0.56388736
114	0xbf46fcbf	-0.7772941
115	0xbe0193b8	-0.12654006
116	0x3f0b66d6	0.5445379
117	0x3f0dc8c2	0.5538446
118	0x3ff01e0f	1.8759173
119	0xbf572823	-0.8404562
120	0x3f35d13b	0.71022385
121	0x3ea2fd9e	0.3183412
122	0x3d9bc536	0.076059744
123	0x3f1aec37	0.60516685
124	0xbc6ddd1b	-0.014518048
125	0xbf2f707e	-0.68531024
126	0x3e553d13	0.20824079
127	0xbf8467a7	-1.0344132
128	0xbd97a3da	-0.07404299
129	0xbdd8259d	-0.10554049
130	0x3f43b922	0.76454365
131	0xbf0755d2	-0.52865326
132	0x3e9c13b5	0.30483785
133	0xbf2b24c0	-0.6685295
134	0xbe21aaf1	-0.15787865
135	0x3db43cf5	0.08800689
136	0xbf390b09	-0.72282463
137	0x3f7c16e4	0.9847243
138	0xbf7f7af0	-0.9979696
139	0xbfb7bb7f	-1.4354094
140	0xbf1d212d	-0.6137875
141	0x3f8e7ff0	1.1132793
142	0xbf8cd998	-1.1003904
143	0x3f945d30	1.1590939
144	0x3ee6df24	0.45092118
145	0xbf3ea5bd	-0.74471647
146	0x3f2db826	0.67859113
147	0xbf670902	-0.9024812
148	0x3d34bb59	0.04412398
149	0xbf2d414e	-0.6767777
150	0xbec89718	-0.39177775
151	0xbe97e4f4	-0.29666865
152	0x3f232512	0.6372844
153	0x3f18d690	0.59702396
154	0x3f29695a	0.6617638
155	0x3ee4f2af	0.44716403
156	0xbdb87c16	-0.090080425
157	0x3d9a5250	0.07535231
158	0x3fb2c6e4	1.3966947
159	0x3f4eb8be	0.80750644
160	0x3ee22f51	0.44176725
161	0x3fab4d73	1.3383011
162	0x3f080003	0.5312502
163	0xbf9dbc0f	-1.2323016
164	0xbe33d02f	-0.17559884
165	0x3f926bb1	1.1439115
166	0xbe1190a8	-0.14215338
167	0x3ee75d71	0.45188478
168	0x3ee1cc3d	0.44101134
169	0xbef91382	-0.48647696
170	0x3f9e7915	1.2380701
171	0x3f2f4b9f	0.68474764
172	0x3f674b81	0.90349585
173	0xbb877f5d	-0.004135056
174	0x3f004e70	0.50119686
175	0xbe9acb08	-0.30233026
176	0xbf267c4e	-0.65033424
177	0x3f2e9fff	0.68212885
178	0xbe77f9a0	-0.24216318
179	0x3f47cd45	0.7804759
180	0x3fb240c6	1.3926017
181	0xbf4d63a9	-0.80230194
182	0xbcf01ec3	-0.029311543
183	0xbe2c851c	-0.16847652
184	0xbee36760	-0.44414806
185	0xbe81615c	-0.25269592
186	0x3f34af71	0.705802
187	0x3fa2784e	1.2692964
188	0x3ee988ef	0.45612285
189	0xbf85b40f	-1.0445575
190	0xbcf8c1b6	-0.030365806
191	0x3eb6ecf3	0.35727653
192	0xbd87e131	-0.06634749
193	0xbeba1cc6	-0.36350077
194	0xbf38e0a7	-0.7221779
195	0xbf83f43a	-1.0308907
196	0x3c81f46c	0.01586362
197	0xbf06fd08	-0.52729845
198	0x3f88aee6	1.0678375
199	0x3f9f77f0	1.2458477
200	0x3f3d2c0a	0.73895323
201	0xbe1a5edb	-0.15075247
202	0x3f72a3b1	0.94781023
203	0x3bbd5875	0.005778367
204	0xbe681f32	-0.2266815
205	0x3d3bc175	0.045838792
206	0x3d24fe40	0.040281534
207	0x3e0efd86	0.13963899
208	0xbcc5d736	-0.024150472
209	0x3ef8ffef	0.48632762
210	0x3ea203b1	0.3164344
211	0x3f1ecd0d	0.6203163
212	0xbf84bce2	-1.0370142
213	0x3fa43e74	1.2831559
214	0x3f02dabb	0.51115006
215	0x3f4231a7	0.75857013
216	0x3ca146fa	0.019687165
217	0x3e832f89	0.25622204
218	0x3f77c671	0.9678717
219	0x3fb28edf	1.3949851
220	0x3e293635	0.16524585
221	0xbd121ce7	-0.035672095
222	0xbf29d168	-0.66335154
223	0x3f593daa	0.84859717
224	0xbe567054	-0.20941287
225	0xbd57be91	-0.052671973
226	0xbf229751	-0.6351214
227	0x3c9eaff2	0.019371007
228	0x3e016c0f	0.12638877
229	0x3dca1537	0.09867328
230	0x3f888f7f	1.0668792
231	0xbef9c7fc	-0.48785388
232	0x3ea9b653	0.33146915
233	0xbf74d08f	-0.95630735
234	0xbf95426a	-1.1660893
235	0xbe45d005	-0.19317634
236	0x3f80f8cc	1.0075927
237	0xbee82be4	-0.45345986
238	0x3f808b9e	1.0042608
239	0xbc9c28d2	-0.019062433
240	0x3f00e766	0.50353086
241	0x3e8f2ae6	0.27962416
242	0xbdc0cf22	-0.094145074
243	0x3ef267ff	0.47344968
244	0xbede27c7	-0.43389723
245	0xbb99963c	-0.004687099
246	0xbe98ce15	-0.29844728
247	0xbf75d29b	-0.96024483
248	0xbd821f28	-0.06353599
249	0x3f530f5e	0.82445323
250	0x3ea3782f	0.3192763
251	0xbf2f294a	-0.6842238
252	0x3f06ec15	0.5270398
253	0xbedf301c	-0.43591392
254	0xbdc2c8a5	-0.09510926
255	0xbed26d7b	-0.41099152

action_model._continuous_distribution.mu.bias f4 [39]
0	0x3d87cfad	0.06631408
1	0xbe9562fc	-0.29177082
2	0x409b2aaa	4.848958
3	0xc04a9854	-3.1655474
4	0xc0259ea7	-2.5878084
5	0x4078bd79	3.8865645
6	0xbe5dfac5	-0.21677692
7	0xbfacb3f1	-1.3492414
8	0xbdf23466	-0.118264005
9	0x3f254024	0.64550996
10	0xc067a10f	-3.6192052
11	0xc0c2ed60	-6.0914764
12	0x40965387	4.697696
13	0x40307c58	2.7575893
14	0x406c2707	3.689882
15	0x402e785b	2.726096
16	0xbfde14da	-1.7350113
17	0xbbb5b044	-0.005544694
18	0x3ed3dcea	0.41379482
19	0x3f3eaf96	0.7448667
20	0xc04a3d24	-3.1599817
21	0xbe0c27d3	-0.13687067
22	0xc01ec61f	-2.4808424
23	0x4040f627	3.015024
24	0x3efcc802	0.49371344
25	0xc0832ca0	-4.0991974
26	0x40248f18	2.5712337
27	0x400edcc5	2.2322247
28	0x40842912	4.1300135
29	0x3fbcc9ab	1.4749044
30	0x3fe211d0	1.7661686
31	0x3f411728	0.7542596
32	0x3fea5d84	1.8309789
33	0x3f09d194	0.53835416
34	0x3fceb454	1.6148782
35	0x403f212b	2.9863994
36	0x3f7a2a84	0.97721124
37	0x3fdaa285	1.7080847
38	0x3fb35028	1.4008837
