Assets/Brains/ArvidTests/balance2/Zombie Walker/Zombie Walker-8499997.onnx (onnx, 207976 bytes, 7 tensors)

network_body._body_endoder.seq_layers.0.weight f4 [128, 228]
00000000: 5c36 fd3e f3b9 b03c 44e0 2dbe fdf5 533e
00000010: 5e4d f5be ccc2 bd3e 2999 013e b15a 50be
00000020: 02b6 c03e 7875 1e3e 6610 ae3e e3e3 483f
00000030: 9d96 49be 6ac8 5fbb 29dd 27bf 3c8d 073f
00000040: 18e3 8dbe 6019 9abd c268 b63d bb4f 9b3e
00000050: 446a a9be ac39 69bd ac91 68bd bcd8 38be
00000060: 9138 dabc 14ee a33b 8210 2abe 63a4 e4bd
00000070: 3aac 89bd 9e00 dbbe b320 db3e 1385 aabd
00000080: b456 88be d8be f53e 67a7 b63e fbc1 30be
00000090: d480 00be 06d1 0bbd dcdd fb3c 4730 273f
000000a0: 0c3a ea3e ef1e 56be 10b6 ccbe 3758 dabe
000000b0: d44c bdbe db7c ce3e c02b 8bbd d0ed 5d3d
000000c0: cfe2 8d3e b8b9 873e e118 b9be 8736 eebd
000000d0: f6ce b33d bf69 243e 0d9a 8bbe d1d3 873e
000000e0: c342 fdbd 33bd 8cbe 2e71 52be e6c6 afbe
000000f0: 8cd0 e43e f3cd a03e 8be4 843e 73b2 193e
00000100: 5ec8 8f3c 9afb 543e 549f 413e 04bc 1d3e
00000110: e9dd f83d 062a b4bd 2be3 2a3d f2bc c5be
00000120: 9058 1b3d b1de 3dbc ae71 34be b308 d53e
00000130: 5e62 053e dfe0 8c3e 317e 9f3e c2f6 86be
00000140: 8b33 bd3e a356 973d f47a ca3d 8dd0 abbe
00000150: 5ef3 00bf 751a 80be 6c7d 4ebe 18f3 a3be
00000160: 7f1e 143e 2b06 5abd 9fdd 463e 8aac 01bd
00000170: 7d49 e63c 5cfb d7bd dc27 64bd 70ec b23e
00000180: 2e1e 503e d771 2c3e 6a28 313e 2739 1abf
00000190: 8f12 06bd fa51 19be 19b0 093e 38d4 eabe
000001a0: 3f71 a5be 3cd6 813e b276 933d c91f 29be
000001b0: 1532 e83e 6bc6 cc3d e7dc 973d 5070 483e
000001c0: 6dbe cd3d 13c8 6e3d 4df8 a5be bcd4 10be
000001d0: 1c86 3ebe ed1a 2cbd d1b9 de3d e9b1 933d
000001e0: 89b2 bd3d ba10 e23d aefa 0d3d 63a5 02bd
000001f0: 4506 63be 9268 fc3d 7026 093e 575d 3c3e
00000200: ef2e 98be 3f49 f9be 3dad 05bf 370b d4bd
00000210: 5f16 57be 203c 753d 9561 0cbd 9b6a 54be
00000220: 74d9 e5bd 31cd d7bd a141 e43c a731 41bd
00000230: 3da9 003e ef90 0b3d b559 ce3e c5ba 8d3e
00000240: cbf5 dcbe 363b 96be ae18 67be 657d 36be
00000250: 3edf 71be e536 58bc 9590 a13d aa95 bcbe
00000260: 9195 ed3e 2972 5dbe 87d8 9c3e 5612 bd3d
00000270: 5de0 8cbe 0ae6 ed3e 66e8 6c3d 25dd a8bd
00000280: 4a3c a8bd 5730 b2be e52d 93be 0a20 a1be
00000290: 8b19 c53b c589 42bd 4a2a c9be c97b 973e
000002a0: ab88 a5bd b5d1 4b3e f45d 0a3d 6aba 0fbf
000002b0: e3e1 ea3c 3264 a8be cca8 97be 7220 05be
000002c0: 0d68 dabd 23f7 bebe f480 11be 5a98 19be
000002d0: 6545 4f3d fcb9 77be 3b63 413e 88bc 68be
000002e0: 18ab 9e3e 6945 3f3e 2a1f 9fbe e8be 9fbd
000002f0: 5f1c 15be 2dea 87be 9a51 0b3f 18e6 cabe
00000300: 8eed 563e 6399 8f3e c736 1d3e f8a6 0dbd
00000310: a1b6 82bd 8013 f5bd a6c6 dd3d d45c 81be
00000320: 212f 0b3e 98ab 42be c389 80bb d9f8 0cbe
00000330: 67b1 553e 54d9 b73e 45a5 c0be 219c 0f3e
00000340: 9769 e93e e5f5 9e3e 0762 babd 752a 6ebe
00000350: c8d5 9d3d c905 723e 217c 36bd e91b e8bc
00000360: 661b 27be cda7 eabd 749e d93d e755 3c3e
00000370: 159f 543c 43b3 29be 09e4 1d3e b481 833e
00000380: ed83 cf3e 8d1b 89bd c5c4 11be 6b81 e53d
00000390: ca2f 96bd e0c5 2c3e 8cd5 0f3a 163b b7be
000003a0: 769e 3d3e 9844 ecbd 6719 e4be fea1 723e
000003b0: 7b58 4abd 4253 f03e a7b9 6a3d 91ca 833e
000003c0: 575a 29bf fa03 e13b 14ea ecbe f021 b4bd
000003d0: 627b 9c3e 5e7f 433f d8e9 ff3d 0d17 493e
000003e0: 9b63 debd d3c5 f0bd e16d 8f3e 1e74 c43b
000003f0: b50a 7fbd 92a5 c3be db57 b8bd 221e e43d
0.49455535 0.021573042 -0.16980082 0.20699306 -0.4791059 0.3706268 0.12656082 -0.20347096
0.3763886 0.15474498 0.33996886 0.7847273 -0.1968636 -0.0034146556 -0.6557184 0.5294988
-0.2771232 -0.07524371 0.089067 0.30334267 -0.33088887 -0.056939766 -0.05677955 -0.18051428
-0.026638301 0.0050027464 -0.1660786 -0.11164167 -0.06722303 -0.42773908 0.42798385 -0.08326163
-0.2662865 0.47997165 0.35674593 -0.17261498 -0.12549144 -0.034134887 0.03074544 0.6530804
0.4574741 -0.20910238 -0.39982653 -0.42645428 -0.36972678 0.40329632 -0.06795454 0.054181874
0.27712104 0.2650888 -0.36151794 -0.11631494 0.08779709 0.16055964 -0.2726597 0.2652879
-0.123662494 -0.27488098 -0.20550987 -0.34331435 0.4469036 0.31407127 0.25955614 0.15009479
0.017551597 0.20799103 0.18908435 0.15403754 0.12151701 -0.08797078 0.04172055 -0.38620716
0.037926257 -0.011588738 -0.1762149 0.416082 0.13025805 0.27515313 0.31150964 -0.26360136
0.36953387 0.073895715 0.09886733 -0.3355755 -0.5037135 -0.25020185 -0.20165032 -0.32021403
0.14464758 -0.05322854 0.19420479 -0.031658687 0.028111214 -0.1054599 -0.055702075 0.34946012
0.20324013 0.16840301 0.17300573 -0.6024346 -0.032732543 -0.14972678 0.13446082 -0.45865035
-0.32312962 0.2535876 0.07200374 -0.16516031 0.4535071 0.09998783 0.07415181 0.19574094
0.100460865 0.058296274 -0.32416 -0.14143652 -0.18605846 -0.042017866 0.108752854 0.07211668
0.092625685 0.110383466 0.034662895 -0.031896006 -0.2217036 0.12324633 0.13393569 0.18394981
-0.29723307 -0.48688695 -0.52217466 -0.103537016 -0.21004628 0.059871793 -0.03427275 -0.20743792
-0.112231165 -0.10537184 0.027863326 -0.047166493 0.1256456 0.034073766 0.40302816 0.27681556
-0.43156275 -0.2934205 -0.22568008 -0.17821272 -0.23620316 -0.013196682 0.07888905 -0.36832935
0.46403173 -0.2162558 0.30633947 0.09232013 -0.27514926 0.46464568 0.05783882 -0.08245305
-0.08214624 -0.34802505 -0.28745952 -0.31469756 0.006015008 -0.04749467 -0.39290076 0.29586628
-0.08082708 0.19904216 0.033781007 -0.5614382 0.028672164 -0.32888943 -0.2962097 -0.13000658
-0.10664377 -0.37297925 -0.14209348 -0.14999524 0.05060329 -0.24192041 0.1888551 -0.22728169
0.3098991 0.18678822 -0.31078464 -0.07800084 -0.14561604 -0.2654585 0.5442139 -0.39628673
0.20989057 0.28046712 0.15352927 -0.034583062 -0.0638249 -0.1196661 0.10828905 -0.25266135
0.13592197 -0.1901077 -0.0039226725 -0.13766803 0.20868455 0.35907996 -0.3762609 0.14024402
0.4558837 0.31046978 -0.091007285 -0.23258384 0.07706791 0.2363502 -0.044551972 -0.028333621
-0.16319045 -0.11457787 0.10625926 0.18392144 0.012977381 -0.16572289 0.1541902 0.25684893
0.4053034 -0.06694708 -0.14235218 0.11206325 -0.07333334 0.16872358 0.0005486838 -0.35787266
0.1851748 -0.11536521 -0.4455063 0.23694608 -0.049400788 0.4693852 0.057305958 0.25740483
-0.6615347 0.006866929 -0.46272337 -0.087955356 0.30562884 0.7636622 0.12495774 0.196377
-0.10858842 -0.11756482 0.28013518 0.0059952876 -0.06226607 -0.38212258 -0.09001132 0.1113856

network_body._body_endoder.seq_layers.0.bias f4 [128]
00000000: 007e 37be 5fba d1bc 7cf4 eebe 664a 07be
00000010: 40a1 5bbe 5de8 8b3c 7a2b 913b c1ef 29be
00000020: 00d9 a3be 6385 3cbd 78c5 37be 733c babe
00000030: d3a4 b3bd c0b9 8abe 1c4c bbbd b86e c6be
00000040: 2359 a2be 73ac 4fbe aeca e7bd 60ed 0fbe
00000050: 6f8c e7bd c823 0b3d 8f45 b7be 94b8 e3be
00000060: af0d 0cbf 8d34 05bf 5a18 08bf a1af 8fbd
00000070: 987a 07bd 0647 fbbe 747b f2be 9654 cbbd
00000080: d955 06bf e506 9fbc 24e6 3bbd 0c63 03bf
00000090: e64d 353d 4182 6cbe 44fc fbbe 95c1 04be
000000a0: 1a81 11bf f6a2 04be 7489 c0bd 9601 37be
000000b0: f11b 66be c833 c1be 0903 8abe 612f e3bd
000000c0: 508d b3be eae9 66be 0b07 b0be 0352 b8be
000000d0: 50ef 5abe c7f1 b5be 66fc d4bc d890 90be
000000e0: 1832 15be 4c26 8fbd 5ec1 ccbd defe 2cbe
000000f0: e4b4 33bc a0b9 afbd 00aa f3be 0ad6 9fbe
00000100: 9782 58be 1294 81be bac7 35be dd26 cbbe
00000110: 7347 72bd 6736 f8be 73bb a6be 5238 08bf
00000120: ac4b d5be 3eed 0dbf 6629 f8be e5db ccbe
00000130: ab30 01bf 0222 92be a899 4bbd 7059 07bf
00000140: 580e 3bbc 0d98 30be 8273 eebd 7391 18bf
00000150: 59f8 89be d3f0 9fbe dec8 43bc 912e 9bbe
00000160: 2884 92be 4084 40bc 6188 05bf 8229 4dbe
00000170: e4f0 19be e9f8 3ebe d595 43be 19f2 85be
00000180: 8295 e5bc f0df 84be b2eb 72be d0ad 05bf
00000190: 5538 e4be 00ce 1fbd 70fe aebe 1dcb 41be
000001a0: 5fc2 2dbe bf12 13bd 17d5 e7be 86eb 73be
000001b0: 9a9a 90bd 20c0 f1be fd03 c0bd 5e67 0fbe
000001c0: 95d1 c8be 5552 e1bd 9ade 2ebe 2ca8 5bbe
000001d0: af9b 84be 2fc2 d4be 0b86 cebe 979c 69bd
000001e0: 89b6 15be c2d5 0fbf a3e2 80be 8ff1 fbbd
000001f0: 2bcb ddbc 621c 28bc c75c 92bd 78d2 6ebe
-0.17919159 -0.025601564 -0.46670902 -0.13211975 -0.2144823 0.017078573 0.0044302316 -0.16595365
-0.32001495 -0.046025645 -0.17946422 -0.36374244 -0.08771672 -0.2709484 -0.09145376 -0.38756347
-0.3170863 -0.20280628 -0.11317955 -0.14055395 -0.113060825 0.03396967 -0.35795256 -0.4447676
-0.5470838 -0.5203331 -0.5316216 -0.070159204 -0.0330759 -0.49077624 -0.47359812 -0.09928243
-0.52474743 -0.019412467 -0.045873776 -0.5132301 0.044263743 -0.23096563 -0.492159 -0.1296447
-0.5683762 -0.1295279 -0.09401217 -0.17871699 -0.22471596 -0.37734818 -0.2695544 -0.11093021
-0.3506875 -0.22550169 -0.34380373 -0.3600007 -0.21380353 -0.35536024 -0.02599926 -0.28235507
-0.1456989 -0.069897264 -0.09997819 -0.16894099 -0.010968421 -0.08580327 -0.47590637 -0.31217986
-0.21143566 -0.2530828 -0.17751971 -0.39678088 -0.05915017 -0.48479006 -0.32564887 -0.5321094
-0.41659296 -0.5544013 -0.48469085 -0.40011516 -0.50464886 -0.2854157 -0.049707085 -0.52870846
-0.011416994 -0.17245503 -0.11643125 -0.5959694 -0.26947287 -0.31238422 -0.011949746 -0.30308965
-0.28616452 -0.011750281 -0.5216122 -0.20035365 -0.15033299 -0.18649639 -0.19100125 -0.26161268
-0.028025392 -0.259521 -0.23722723 -0.5221834 -0.44574228 -0.039014816 -0.34178495 -0.18925138
-0.16968678 -0.03590655 -0.45279762 -0.23820314 -0.07060738 -0.47216892 -0.09375761 -0.14004275
-0.39222398 -0.11002032 -0.17077103 -0.21450871 -0.25900027 -0.415544 -0.40336642 -0.0570341
-0.14620413 -0.56185544 -0.2517291 -0.12301933 -0.027074417 -0.010260673 -0.07146602 -0.23322475

network_body._body_endoder.seq_layers.2.weight f4 [128, 128]
00000000: 636a 5c3b 62ef 7d3e 8634 95bd a38c 11be
00000010: ab22 c03e 9507 ce3d 8978 79bd 6277 eabe
00000020: 59b4 133d 99fd 4dbc cae9 5cbd 1b3c 8b3d
00000030: 11c6 1abf 047a 3e3d 37e2 07be 23d3 b73e
00000040: 406b 523e 7dd8 033e 4c93 163e f428 67be
00000050: 03d0 3a3e fe3f 06bd 0004 40be a2fe 1abe
00000060: de8c a4bd 7ea6 e7bd 470a 9e3d 2ddb 46bd
00000070: 38a1 9cbe 8a10 2e3d eefc a33e 8f34 a43e
00000080: e1b0 02bd 7429 a63d 1638 5cbc a465 123d
00000090: b280 8cbe f399 56be 5a0f c2bd fddb bebd
000000a0: 7239 2fbe 21a3 cebe eb27 f33c e478 9d3d
000000b0: 32eb 90be 2a78 1bbe 4aed 713d 9678 0abd
000000c0: 2c53 89be 34ff 053d fe57 a43d aa6b a9bc
000000d0: c334 15bf 19b9 8f3d bbef 3e3e 392e e53e
000000e0: 6d3c 953e 1ee9 803e 3d21 b3be 2b37 e7bd
000000f0: 0608 0ebf ace0 0ebe 95c3 483e ae9a 853e
00000100: 6b10 573e 2fb2 b9bd f745 47be fa81 65be
00000110: 5d22 8b3e 6c6f 923d 8c81 12be f61a 42be
00000120: eccf 1bbe 2545 d53d 1723 203f 3b0f 17be
00000130: efec 81bd e241 c13e 63a7 0a3e 3c2b 933c
00000140: b018 24be bfec 993e cb60 0d3e 5b89 1c3e
00000150: 549d 21be a13a 0b3e 462d 25be 1040 47bd
00000160: b7ef 133e c03a a83e b575 6dbe 8337 c13d
00000170: ff6c 303d 59b0 bfbe 15bc 303c 4a38 e0bd
00000180: 1d4b 233f 2261 b23e 4fb2 e4bd 0bc2 863d
00000190: 46a1 2cbe d582 c2bd 3050 89be f4ff 893e
000001a0: b906 60bd e845 6e3e 3731 7e3e 5a86 8d3d
000001b0: a32a 35be d0a0 57bc 1abb 38bf 5e64 ce3d
000001c0: 71f7 853e a202 913d f847 83be f951 dc3c
000001d0: 0e87 693e b928 6f3e c64d 71be ff2e e1be
000001e0: 357c 3ebd 5a1a bbbe b52f ad3d fd4f d93d
000001f0: c7cf 873d 59da a33e 180e ffbc 9b35 e63e
00000200: 80a0 053e e177 8fbe 21db 6e3e 81cd 863e
00000210: 03ad 933c 4491 ab3e e08f d8bd 7ab6 82be
00000220: 13af 8b3e a5e1 a8bc b4f5 413e 3fab b93e
00000230: 81e3 6e3e 87c1 63bd 7992 debe f403 983c
00000240: da5e 743e 772a 7f3e 97fc fe3e af07 213e
00000250: d0cb e0be d701 69be 5187 d33e b74a d43e
00000260: 32dd f03d 0dca 763e bdff d0be 182e 063f
00000270: 53b0 a13e 061b 1a3c c6b7 5d3e a908 453e
00000280: 210b bb3e 08f7 c5be eb18 14be a92a 6a3d
00000290: 2e42 17bf c8a0 f4be 360e 7fbd e558 19bf
000002a0: ea22 27bd d2a9 f93c 9a9b 8fbe 0e1e 723c
000002b0: d9ff 52be ee86 63be 1740 71bc f5df 8e3e
000002c0: 69d2 c0be c1ed 593c af17 4b3e 0271 5fbd
000002d0: 250a 27be d09c d63d 96b7 a33d df2a 05be
000002e0: 909a 07be 96d5 bcbd 6b64 c33d 17be 90bd
000002f0: d5c5 00be c511 a5be 6784 ab3e 951c bc3e
00000300: 7deb 483e 4651 9cbd f7cd a43a 1eed 933d
00000310: 88f5 ecbe ffa8 a7be 2181 b23e 66af c2be
00000320: 77ec b53e 7033 223e d403 febd abad 823e
00000330: 6430 e63d 8ae9 8b3e 664f 05be 0c37 843e
00000340: 18d6 27be a646 58be 50a2 a3bd 6a8a 353d
00000350: 7dd3 b0be 62ef 4ebd 25cc a43e b626 68be
00000360: 03c4 ee3c 9127 01bf 470e 473d 451d 4fbe
00000370: ee99 f1be 0167 a8bd e9cc bdbe 648f 96bc
00000380: b3f8 e9be 9092 c93e e3c6 47bd bb40 0c3d
00000390: 3deb b2bd 97d6 003e bca2 b93d ebe7 97bc
000003a0: 6bb1 f6bd bed0 a9be 435a bd3e c0b2 fb3e
000003b0: 1937 dd3d 6223 833c 978a 293d b87a 1dbe
000003c0: 0b72 b83e a3dd 97bb 5f93 d5be 8a45 c3be
000003d0: f240 9c3e 7612 bfbe 3a57 50be e4a8 1c3d
000003e0: 18ca f4be 0668 a6bd 6343 673d 1a48 14be
000003f0: e519 fe3d c432 78be bd54 973e 13d4 2fbf
0.0033632747 0.24798349 -0.07285409 -0.14213805 0.3752645 0.1006004 -0.060905967 -0.45794207
0.036060665 -0.012572669 -0.053933896 0.067985736 -0.60458475 0.046503082 -0.13269888 0.35903272
0.20548725 0.12875552 0.14704627 -0.22574216 0.18243413 -0.03277587 -0.18751526 -0.15136197
-0.08034681 -0.11311053 0.07716804 -0.048548866 -0.3059175 0.04249624 0.32028908 0.3207135
-0.031906966 0.08113375 -0.013441106 0.035741463 -0.27441937 -0.20957164 -0.09475584 -0.09319303
-0.17111757 -0.40358832 0.02968212 0.07689074 -0.2830444 -0.15182558 0.059064187 -0.033806406
-0.26821268 0.032714084 0.08024596 -0.020681221 -0.58283633 0.070177265 0.18646137 0.44761828
0.29147664 0.25177854 -0.34986296 -0.11289819 -0.5548099 -0.13952893 0.19605859 0.26094574
0.21002357 -0.09067189 -0.19460283 -0.22412863 0.27174655 0.07150158 -0.1430723 -0.18955597
-0.15216035 0.10413579 0.6255354 -0.14751904 -0.063440196 0.37745577 0.13540415 0.017964952
-0.16025043 0.30063435 0.13806455 0.15286772 -0.15782672 0.13596584 -0.16130552 -0.04864508
0.14446913 0.32857323 -0.23189433 0.09434416 0.043072697 -0.3743923 0.01078703 -0.10948236
0.6378649 0.3483973 -0.11166822 0.065799795 -0.16858396 -0.094976105 -0.2681899 0.2695309
-0.05469391 0.23268855 0.24823461 0.06910391 -0.17692046 -0.013160899 -0.72160494 0.10077737
0.26165345 0.0708058 -0.25640845 0.026894556 0.22805426 0.23355378 -0.23564824 -0.43981168
-0.04650517 -0.36543542 0.08456365 0.1061096 0.06631427 0.32002524 -0.03113465 0.44962773
0.13049507 -0.28021148 0.23325779 0.26328662 0.018026834 0.33509266 -0.10574317 -0.25529844
0.2728201 -0.020615408 0.18941385 0.36263463 0.23328973 -0.055604484 -0.43471125 0.018556572
0.23864308 0.24918543 0.49802086 0.15725587 -0.43905497 -0.22754608 0.41314176 0.41463253
0.1176094 0.24100514 -0.40820113 0.52414083 0.31579837 0.009405857 0.21652135 0.19241585
0.36531928 -0.38665032 -0.1446263 0.05716959 -0.5908536 -0.47778916 -0.062269412 -0.5990127
-0.04080478 0.030476484 -0.28048402 0.014777673 -0.2060541 -0.2221944 -0.014724753 0.2790524
-0.3766053 0.013301314 0.19833253 -0.054551132 -0.16312464 0.10479128 0.079940006 -0.13004635
-0.13242555 -0.09220426 0.095406376 -0.07067507 -0.12575467 -0.3224012 0.33499452 0.36740556
0.19621082 -0.07632689 0.0012573589 0.07222961 -0.46281075 -0.3274612 0.34864143 -0.38024443
0.3553197 0.15839934 -0.12403074 0.25523123 0.112396985 0.27326614 -0.1301857 0.25823247
-0.16390264 -0.211207 -0.07989943 0.044321455 -0.34536353 -0.050521262 0.32187 -0.22671017
0.0291462 -0.50451 0.0485976 -0.20226009 -0.47187752 -0.082227714 -0.37070397 -0.01837892
-0.45697555 0.3936963 -0.048773658 0.03424142 -0.087362744 0.1258186 0.09064242 -0.018543204
-0.120455585 -0.3316707 0.36982927 0.49159813 0.10801525 0.016008083 0.041391935 -0.15378845
0.36024508 -0.0046345755 -0.41713998 -0.38138992 0.305183 -0.37318772 -0.20345774 0.038247004
-0.47810435 -0.0812531 0.05646075 -0.1448063 0.12407283 -0.24238116 0.29556838 -0.68682975

network_body._body_endoder.seq_layers.2.bias f4 [128]
00000000: 9975 7b3e 41bc 99be 866c 6abe 123f e5be
00000010: b303 edbc f83b 73be 5ead fcbe 6597 edbe
00000020: 5d06 d53d 07ff 1ebf dfe6 99be f99b e1be
00000030: 3479 38bf 49fd 49be 60b4 9dbe 7a3b 18bf
00000040: 6a48 8cbd 2554 cbbe c1a0 81bd 8843 92be
00000050: 7595 fdbd c198 3dbc c6c9 c23c b45a 20be
00000060: ba5f 7cbe 583d 87be 2f61 11bf c067 c1bd
00000070: 7883 11be b96b 07bc 01da debe f0e5 4bbe
00000080: 9ecb f4bd 42cd 84bd b4a9 6b3e b662 03be
00000090: 6ba4 9a3e 22ba d9be da9c 43bf a2e2 4ebe
000000a0: a1f9 35bf acad 77be 7ba1 4ebe 8ba7 a5be
000000b0: 0cb5 adbe 03ce 7fbe 6451 973e 5d20 dfbd
000000c0: 6bb5 36bf cb74 883d 2753 debc 17fd 5fbf
000000d0: 4ec2 4dbe 0389 cfbd 6e2f c4bd d527 aabe
000000e0: 660d 03be c086 b7be 3045 c9bd f0b7 9dbc
000000f0: 4ef5 5c3c fb30 d3bd 6ffd a0be 48bf 1dbd
00000100: 3924 f1bd 39f3 2cbf 110f cbbe 94f0 ebbe
00000110: b089 dabe a37d 99bd 4ab3 0dbe 381c fa3d
00000120: 114c aebd 28f8 54be f738 9bbe d9df f9be
00000130: be3d 0ebf bf60 3abf 08d5 00be 4a3f 323e
00000140: 196f 2dbe 4382 8e3e 6d19 ccbd b130 e3bc
00000150: 1b8d 5dbe 9d4c 933c a07d e6be d4e5 abbe
00000160: cf6b ce3d d616 94be a428 22bf 0725 5cbe
00000170: ef28 9dbe 0b61 fcbe 2805 3abe 4a95 f1bd
00000180: 39d2 0fbf 78af 30bd 1f6b bbbe 2a9d cebd
00000190: 6fec 8abe b112 4ebd 6eab 82be 45a2 35be
000001a0: ae6b 49be b81e 8ebf db7e 08bf be81 2dbe
000001b0: 1187 e6be 6d06 34bc 8336 cebe 9ab9 1cbf
000001c0: ff94 3bbe 62d0 bbbd f1fe 68be e2aa a7be
000001d0: b6af dbbe 4db1 b9be 4937 1bbf b950 0cbf
000001e0: fe5b c3be f1c6 00bf b6ba 6ebe a8ef 7fbf
000001f0: 355e 20be aea6 0abe 3b5b f5be 11c6 0ebe
0.24556579 -0.3002644 -0.22892961 -0.4477468 -0.028932428 -0.23753345 -0.4935102 -0.46404567
0.10401604 -0.6210789 -0.30058953 -0.4406431 -0.7205994 -0.19725527 -0.30801678 -0.59465754
-0.068497494 -0.39712635 -0.063294895 -0.28567147 -0.12382022 -0.011572064 0.023777854 -0.156596
-0.24645892 -0.2641399 -0.56788915 -0.09443617 -0.14210308 -0.008265429 -0.435257 -0.19911933
-0.119528994 -0.06484462 0.23013955 -0.12830624 0.30203566 -0.4252482 -0.7641121 -0.20203641
-0.7108403 -0.24187344 -0.20178787 -0.32354388 -0.3392719 -0.24980931 0.29554284 -0.10894845
-0.7137057 0.066629015 -0.02713926 -0.8749556 -0.20093653 -0.10133555 -0.09579359 -0.33233514
-0.1279808 -0.35844994 -0.098276496 -0.019252747 0.01348622 -0.10312077 -0.31443354 -0.0385125
-0.11774487 -0.6755863 -0.39659932 -0.46081984 -0.42683172 -0.074946664 -0.13837925 0.122124135
-0.08510602 -0.20797789 -0.30316898 -0.48803595 -0.5556296 -0.7280387 -0.12581265 0.17406955
-0.16936912 0.27833757 -0.09965787 -0.027733179 -0.21635859 0.017980868 -0.4501772 -0.33573782
0.100791566 -0.28923672 -0.6334326 -0.214985 -0.30695292 -0.49292788 -0.1816603 -0.11796053
-0.5618015 -0.04313609 -0.36605164 -0.100885704 -0.2713351 -0.050310794 -0.25521415 -0.17737682
-0.19669983 -1.1103125 -0.53318566 -0.16944024 -0.45024922 -0.01098786 -0.40275964 -0.61220706
-0.18318556 -0.09170605 -0.22753502 -0.3274756 -0.42907494 -0.36268082 -0.60631233 -0.54810673
-0.38156122 -0.5030356 -0.23313412 -0.9997506 -0.15660937 -0.13540146 -0.47921166 -0.13942744

action_model._continuous_distribution.log_sigma f4 [1, 39]
00000000: e02e 05c0 de2e 03c0 3bf8 d8bf 6358 02c0
00000010: 7c7b cbbf b84f a2bf 1e94 1bc0 ef49 cbbf
00000020: c30e 36c0 5e10 ffbf cb2f 00c0 a77d e5bf
00000030: 0c44 debf 8d30 a0bf 9e18 bfbf 6015 bebf
00000040: 3085 c3bf 045a d7bf b7ab 0cc0 f894 0ec0
00000050: 1a8e 03c0 98a5 0dc0 36df 94bf ba11 0fc0
00000060: 1a8e 81bf c1aa 03c0 0f79 fabf b62b 99bf
00000070: db93 babf 86f5 e8bf 33fd ecbf 5b1a b8bf
00000080: 7e11 c2bf e02a e5bf f527 adbf 5a0f cfbf
00000090: 3883 f5bf 9796 d2bf 445a efbf
-2.080986 -2.0497355 -1.6950754 -2.0366447 -1.589706 -1.2680578 -2.4309154 -1.5881938
-2.844651 -1.992687 -2.002917 -1.7928971 -1.7364516 -1.2514817 -1.4929388 -1.4850273
-1.5275021 -1.6824346 -2.1979806 -2.2278423 -2.0555482 -2.213232 -1.1630619 -2.235457
-1.0121491 -2.057297 -1.9568194 -1.1966465 -1.4576372 -1.8199928 -1.851477 -1.4383043
-1.5161588 -1.790371 -1.3527819 -1.617656 -1.918067 -1.6452206 -1.8699422

action_model._continuous_distribution.mu.weight f4 [39, 128]
00000000: fd7f 9b3e 5dce 25be ce86 0f3e e8e0 78bd
00000010: 2086 a8bd b294 48bd 8ffb 0c3e 4b7e 6e3e
00000020: 0f45 c83e 6605 5f3e 453c e7bd 4645 c53b
00000030: 013e 99be 13f5 803e 56e3 243c 4803 55be
00000040: 6131 303e 37fb 913d a029 723e ba0d fdbe
00000050: ec41 693e 0a75 6a3e acc0 18bd 5e96 47be
00000060: 76b7 c4be 650d b4be 3889 91be 8b27 89bd
00000070: 0fc3 1b3f 9b4c 983d 5123 8cbe 8db7 43be
00000080: 7710 ccbe 0da1 933e c926 1f3e 8b36 2dbe
00000090: 3d3a 973e 04f9 643d ce97 b6be fa6d 833e
000000a0: 3627 653d 41b1 d93d 507a 773d 31aa 95bc
000000b0: 63f9 1a3d f291 1a3e 3730 973e b75b 1f3e
000000c0: 08bb d1bc f383 013e 7ee4 163e e828 ac3d
000000d0: 6866 5dbd bcda 4bbe bc29 a33d 46d6 4e3d
000000e0: 29d5 8fbe 9917 8fbe 02ad 00bc 610c 383e
000000f0: 63e3 b93e d31f 56be aa21 9b3c 3f4b 28bc
00000100: 6db5 993d bf29 02bd c3b2 4dbd 3757 b7be
00000110: 858c 193e ee2b 6bbe 2d98 86be 180a 5e3e
00000120: c68d 06be 8f78 8ebd 0af7 99bd 573c 483e
00000130: 290e 89be ea17 b5bd db6b fc3e 7297 9d3d
00000140: 06ab 553e df93 f93e 4b4e bc3d 628c 2d3e
00000150: 03c9 803d cc3c 5e3e 312f d6bc a93f 1fbe
00000160: 0fe5 64be 8d93 0ebe c954 12be d98c 843d
00000170: 3388 4f3d bf1c acbe 7921 f6bc a1d5 6f3d
00000180: 6a08 31be b685 3c3e 0934 2a3e 23fd 703e
00000190: 0fee 9bbe 3149 823e bb92 83bd 7554 083e
000001a0: b2b2 af3e 6cac 1bbe 111d e63c 47e7 07bd
000001b0: eee9 a03c 53a5 b83e b1f5 443a 9fe4 033e
000001c0: a283 903e b065 b73e c29f e43c 8a61 b8be
000001d0: b738 63be 580c 96bc 0fcc 863e 01f0 adbe
000001e0: d474 e93d d9a5 57bd da4b 4abe df61 08be
000001f0: d28e 313d c095 40bd f319 52bd 0efe cb3d
00000200: 5193 4bbe e9d8 b3bd 2440 4cbc e99b 8c3c
00000210: 8b0a 1c3e 8af5 cf3a 38d8 8e3e 13ad e93d
00000220: f5d0 1d3e 6d51 943e 9af0 963c 1263 b63d
00000230: c248 3dbe 4fec 3ebd e6d5 883e 9d88 47be
00000240: a9f8 9fbe 91bc abbc 0f40 efbe ddc5 2b3e
00000250: 52cc 493e fcf6 a1be 3389 a23e b976 063e
00000260: fbeb e63e abd6 5f3d a6df 503d ea38 bcbe
00000270: d0c8 cabc 48cb 9dbe 4792 a93e de73 6cbe
00000280: 9215 10bc 53ef 4e3d 96c2 f7bd a6f9 6dbe
00000290: 7643 cb3d f3b9 a33e 68e9 ac3d 1941 fdbc
000002a0: 70f6 03bd c2c3 81bd b2d4 a8bd 871b f03e
000002b0: 8614 f83c dd93 ea3d 51fa d53c d8d9 fb3e
000002c0: ab9d ba3d f5e4 47bb c077 42be ebfa 6abe
000002d0: f806 9a3d 4585 963d 2976 4cbe 50d4 2c3e
000002e0: 8785 953c df36 a83e 4d13 5a3e bdcf d1bc
000002f0: 3589 91be 3dae a7bd 6cf6 0fbe d210 093e
00000300: 156d cfbc c1bd 543e 12df 9ebe 7e82 923e
00000310: 71ae 863e b9c9 0cbe 65a7 7b3e ea29 97be
00000320: 4898 73be 7d17 99bd 83f3 11bd b567 a13c
00000330: 42b9 273e 7d12 36be 8b2e a8be 1017 303c
00000340: f551 a63b 95e7 8cbe 6c20 ebbd 3b10 3dbe
00000350: f02f 563d 7584 7d3b 91d7 bfbd 8bf4 febe
00000360: 0e76 af3d c7ef 3abe fb7a cfbc baf2 b1bb
00000370: 7cc4 eb3b ea1c fcbd 51dd 88bd 078a 453e
00000380: 4e22 95bd acff ae3e ae47 a83c 3e3f 5bbd
00000390: 104a 703e eb12 503d 27b4 a33e ea7c eabd
000003a0: 7f97 413d 11d2 633e bd1c f73d 7ee4 17be
000003b0: ba62 6a3e cc69 6e3c 7f19 823d bb8b 12bc
000003c0: ccbf d1be 7f3d 8a3d 7e40 8fba 5942 13be
000003d0: b440 523e 0879 6c3e 2900 1fbe e9c6 edbe
000003e0: 4092 45be 7cef 4e3e 7dc0 5bbe 01f1 1dbd
000003f0: cd38 aebd 0375 163e 1476 593e 9a73 233e
0.30371085 -0.16192003 0.14016268 -0.060761362 -0.08228707 -0.048969932 0.13767837 0.23290364
0.39115188 0.21779403 -0.112907924 0.006020221 -0.29930118 0.25186977 0.010063967 -0.20802033
0.17206337 0.071279936 0.23648691 -0.49424535 0.22779053 0.2289621 -0.03729312 -0.19490954
-0.3842122 -0.3516647 -0.28425002 -0.06696995 0.6084451 0.07436486 -0.27370694 -0.19112988
-0.39856312 0.2883381 0.15542139 -0.16915338 0.2953662 0.055901542 -0.35662693 0.25669843
0.055945598 0.106295116 0.06041938 -0.01826963 0.03783549 0.15094736 0.29528973 0.1556233
-0.025601879 0.12647991 0.147356 0.0840624 -0.05405274 -0.1990766 0.079669446 0.050497316
-0.28092316 -0.2794769 -0.007853748 0.17973472 0.36306295 -0.20910577 0.01893695 -0.010271846
0.07505307 -0.031778093 -0.05021931 -0.35808727 0.1499501 -0.22965977 -0.26287976 0.21683538
-0.1314002 -0.069565885 -0.07517822 0.19554268 -0.26768616 -0.08842452 0.49301037 0.076949015
0.20866022 0.4874563 0.09194621 0.16948083 0.0628834 0.2170288 -0.02614555 -0.15551628
-0.22353004 -0.13923474 -0.14290155 0.06472177 0.050667 -0.33615682 -0.030045258 0.05855334
-0.17288366 0.18410382 0.16621412 0.23534064 -0.30455062 0.25446466 -0.06424471 0.13313468
0.3431602 -0.15202492 0.028090032 -0.033179548 0.019642796 0.36063632 0.00075134175 0.12880181
0.28225428 0.3581977 0.02790821 -0.36011916 -0.22189604 -0.018316433 0.2632756 -0.3397217
0.11399236 -0.0526484 -0.19755498 -0.13318585 0.043349095 -0.047017813 -0.05129428 0.099605665
-0.19880415 -0.08781607 -0.012466464 0.017164188 0.15238397 0.0015866023 0.27899337 0.114099644
0.15411742 0.28968373 0.018425275 0.08905615 -0.18484786 -0.04661208 0.26725692 -0.19485708
-0.312444 -0.020963939 -0.4672856 0.16774698 0.19706848 -0.31633747 0.317453 0.13131227
0.45101914 0.054648083 0.050994538 -0.36762172 -0.024753958 -0.30819154 0.33119413 -0.23091075
-0.008794205 0.050521206 -0.12097661 -0.23239765 0.099249765 0.31977805 0.08442956 -0.03091483
-0.032217443 -0.06336166 -0.082436934 0.46896002 0.030283224 0.11453984 0.026120337 0.4918964
0.09112104 -0.003050146 -0.18990993 -0.2294728 0.075208604 0.07349638 -0.1996695 0.16877866
0.018252147 0.32854363 0.21296425 -0.025611753 -0.28424993 -0.0818753 -0.14058846 0.13385323
-0.025320569 0.2077551 -0.31029564 0.28615183 0.26304963 -0.13748826 0.24575575 -0.29524165
-0.2378856 -0.07475183 -0.03563262 0.019702772 0.16379264 -0.1778049 -0.3284801 0.010747686
0.005075688 -0.27520433 -0.11480793 -0.18463223 0.05229181 0.0038683687 -0.09367288 -0.49795946
0.08567439 -0.1825553 -0.025327196 -0.0054305466 0.0071950536 -0.123102024 -0.06682838 0.19290935
-0.07281934 0.34179437 0.020541992 -0.05352711 0.23465753 0.05079929 0.31973383 -0.11449607
0.04726362 0.22248103 0.12066028 -0.14833257 0.22889224 0.014551591 0.06352519 -0.008944447
-0.40966642 0.06750011 -0.0010929254 -0.14380778 0.20532495 0.23093045 -0.15527405 -0.4644082
-0.19294071 0.20208544 -0.21460147 -0.038559917 -0.08506928 0.14693074 0.2123645 0.15962067

action_model._continuous_distribution.mu.bias f4 [39]
00000000: 1c7a 143f 241a cb3d 9d55 1b3f 9ad3 a63e
00000010: 4e29 31be 368d 08b9 4d0e 26bd 6404 91be
00000020: 6a1c 64bd 2554 5a3e f7c1 3abf a0bc 07bf
00000030: ea6a 573f 65f8 36be 3915 eebc 85c2 1e3f
00000040: 3ace c13c 27c4 a6bd 22ad e03e 5e23 df3d
00000050: e070 5c3e a18e 25be de01 53bf 486a 0dbe
00000060: 8bec 183f b3db 40be 7a46 73be 8fa7 903e
00000070: 7c83 eb3e 1131 d9bd 3955 5f3d 5df7 693e
00000080: 5088 13be 8dcd 3f3d 0a68 af3c 7c14 923e
00000090: a782 1ebe fdbe ca3d 4fa6 9c3e
0.57998824 0.09917095 0.6067751 0.32583314 -0.17300913 -0.00013022576 -0.040540982 -0.28323662
-0.05569116 0.21321161 -0.72952217 -0.53022194 0.8414751 -0.17868192 -0.029062854 0.62015563
0.023657907 -0.08142882 0.4388209 0.10895418 0.21527433 -0.1616769 -0.82424724 -0.13810074
0.59735936 -0.18833809 -0.23757353 0.28252837 0.45998752 -0.10605062 0.054524634 0.22848268
-0.14407468 0.046826888 0.021411914 0.28531253 -0.15479527 0.098997094 0.30595633
