Assets/Brains/ArvidTests/LLegGone1/Zombie Walker/Zombie Walker-9499734.onnx (onnx, 827693 bytes, 11 tensors)

network_body.observation_encoder.processors.0.normalizer.running_mean f4 [246]
0	0x41a4779c	20.558403
1	0xbc035f38	-0.008018307
2	0xc19bc938	-19.473251
3	0xbb6fbda5	-0.0036581543
4	0x34025301	1.213739e-07
5	0x00000000	0.0
6	0x40ae8feb	5.455068
7	0x39d65e9c	0.0004088775
8	0x3f6ea597	0.9322142
9	0x41272fdb	10.449183
10	0x3cda444b	0.026643893
11	0xbbf3f215	-0.00744463
12	0x3f004925	0.5011161
13	0x3f32dd69	0.69869095
14	0x3cfe960e	0.031077411
15	0xbd9b7cd2	-0.07592167
16	0x3ee424f7	0.44559452
17	0x3f412d95	0.7546018
18	0x394b997a	0.00019416763
19	0x3f6e99a1	0.9320317
20	0x41272f4d	10.449048
21	0x00000000	0.0
22	0xbc257d90	-0.010100737
23	0xbb7a1291	-0.003815804
24	0xbbed5e29	-0.007243891
25	0x3a3554c3	0.00069172325
26	0x3dc91e0b	0.09820183
27	0x3d0156c2	0.03157688
28	0xb80bdf1e	-3.3347977e-05
29	0xb8f621d4	-0.00011736495
30	0xb8020972	-3.1003212e-05
31	0x00000000	0.0
32	0xbbb8474e	-0.0056237346
33	0xbbcde7ac	-0.006283721
34	0x3bcde1d1	0.006283023
35	0xbdc2b250	-0.09506667
36	0xbdd3a4b5	-0.1033415
37	0x3d9798c1	0.07402182
38	0x3cba3b3c	0.022733323
39	0x3db499cb	0.08818396
40	0x3e77bfb8	0.24194229
41	0xbdac546b	-0.08414539
42	0x3cbed100	0.023293018
43	0xbb612b66	-0.0034358143
44	0x3f7cfec1	0.98826224
45	0x3eef8250	0.46779108
46	0x00000000	0.0
47	0xbc148ac2	-0.009066286
48	0xbc64e87f	-0.013971447
49	0xbc1c8fd8	-0.009555779
50	0xbe957e52	-0.29197937
51	0x3c1a100b	0.009403239
52	0x3e1656ff	0.14681624
53	0x3c3015b9	0.010747367
54	0x3c584ff7	0.013202659
55	0x3defac4f	0.11702787
56	0x3f00b0cf	0.5026979
57	0xbc8853ed	-0.016641581
58	0x3d5262bd	0.051363695
59	0x3f2323a5	0.63726264
60	0x3f0245bb	0.5088765
61	0x00000000	0.0
62	0xbbddc855	-0.006768266
63	0xbcd888af	-0.026432363
64	0xbabfa1a6	-0.0014620319
65	0xbce87d18	-0.028379962
66	0x3bc99421	0.0061516915
67	0x3d417c41	0.04723764
68	0x3d2556a1	0.04036582
69	0x3e4e6df1	0.20159127
70	0x3ee8c00c	0.4545902
71	0x3dc712ae	0.0972036
72	0xbaee781d	-0.0018193756
73	0x3c7bac72	0.015360938
74	0x3f7dd521	0.99153334
75	0x3ef36d90	0.47544527
76	0x00000000	0.0
77	0xbc6e7f5e	-0.014556734
78	0x3bba903c	0.0056934636
79	0xbbae9697	-0.0053280103
80	0xbc1a0dc3	-0.009402695
81	0x3d28e774	0.041236356
82	0x3d5157ba	0.051109053
83	0xbdb10b96	-0.08644788
84	0xbd0cfaad	-0.03441875
85	0xbe01e879	-0.12686338
86	0xbdff6618	-0.12470645
87	0xb9dd66da	-0.00042229035
88	0xbb1cb376	-0.0023910678
89	0x3f7a85f3	0.9786064
90	0x3f025636	0.509128
91	0x00000000	0.0
92	0x380de864	3.383345e-05
93	0xc31bb21a	-155.69571
94	0x3b01bc24	0.0019795978
95	0x3cc1ffc2	0.023681525
96	0x3b839003	0.0040149703
97	0x3c538228	0.01290945
98	0xbdef7375	-0.116919436
99	0xbd58b18c	-0.052903697
100	0xbe88668a	-0.2664073
101	0x3f013e55	0.50485736
102	0xb908d87c	-0.00013050617
103	0x38e901b9	0.00011110627
104	0x3f59b171	0.8503638
105	0x3eef2db6	0.46714562
106	0x00000000	0.0
107	0xb5dfa704	-1.6663403e-06
108	0xc31bb04c	-155.68866
109	0xb5f4da80	-1.8243009e-06
110	0x3cc489f7	0.023991568
111	0x3ac196da	0.0014769689
112	0x3c5315e0	0.012883633
113	0xbe0ed199	-0.13947143
114	0xbc97e884	-0.01854349
115	0xbeacecf2	-0.33774525
116	0x3b3d1768	0.0028853063
117	0xbc36f1c6	-0.011166042
118	0xbbc616ec	-0.006045213
119	0x3f7f3948	0.9969678
120	0x3f0725b2	0.52791893
121	0x00000000	0.0
122	0xbc53d421	-0.012928993
123	0xbb2bcf58	-0.0026216116
124	0xbc2e9656	-0.01065596
125	0xbca93aeb	-0.020657977
126	0xbc39a460	-0.011330694
127	0x3c7f11c5	0.015568201
128	0x3d6bf62d	0.05760782
129	0xbd078b20	-0.033091664
130	0xbe06b0b5	-0.13153346
131	0xbe17e8a8	-0.14834845
132	0xbb1998da	-0.0023437054
133	0xbbb1bee1	-0.005424366
134	0x3f7942e5	0.973677
135	0x3f043650	0.51645374
136	0x00000000	0.0
137	0xbbdc4e07	-0.006723169
138	0x39abab7e	0.00032743433
139	0x3c292ca7	0.010325587
140	0x3d4e98b9	0.050438616
141	0x3c8eb620	0.017420828
142	0x3c5333aa	0.012890736
143	0x3d4ea5fe	0.05045127
144	0x3c44fdc4	0.012023393
145	0xbe8ea189	-0.27857617
146	0x3ed75f31	0.42064813
147	0x38d06382	9.936748e-05
148	0x37c21938	2.3138346e-05
149	0x3f6505ed	0.8946217
150	0x3f049c85	0.5180133
151	0x00000000	0.0
152	0xbc077633	-0.008267927
153	0x3c8fca6e	0.01755258
154	0x3c1b0a0d	0.0094628455
155	0x3ddb3eb3	0.10705318
156	0x3cb70eaa	0.02234586
157	0xbb75a2de	-0.003748111
158	0x3d539fea	0.051666178
159	0x3de41c04	0.11138156
160	0xbebbb984	-0.36664975
161	0xbb96b052	-0.0045986557
162	0x3b665f5f	0.003515206
163	0xb9b4011c	-0.00034333102
164	0x3f7f1bb4	0.99651647
165	0x3f00ac1e	0.5026263
166	0x00000000	0.0
167	0xbbd11de2	-0.006381736
168	0xbca95034	-0.020668127
169	0xbb82dad3	-0.003993371
170	0x3e16e9e7	0.14737664
171	0xbceb6b3e	-0.02873766
172	0xbd615112	-0.055008955
173	0xbdaecd06	-0.08535199
174	0x3d2f6281	0.04281855
175	0x3e984735	0.29741827
176	0x3d66fbce	0.056392483
177	0x3ed2c26f	0.41163966
178	0xbd8759d9	-0.06608934
179	0x3f369238	0.7131686
180	0x3ee26858	0.44220233
181	0x00000000	0.0
182	0x3a7e297e	0.0009695514
183	0xbd0fb55d	-0.03508507
184	0xbc05bfda	-0.008163417
185	0xbcd8bf6a	-0.02645846
186	0x3d001a51	0.031275097
187	0xbd140148	-0.036134034
188	0xbb75b9c4	-0.0037494758
189	0x3aa63044	0.0012679179
190	0x3eb867bf	0.36016652
191	0xbcc0d317	-0.023538155
192	0x3f233e48	0.6376691
193	0xbcf74bae	-0.030187454
194	0x3f3c5e9f	0.7358188
195	0x3ef846c1	0.4849148
196	0x00000000	0.0
197	0x3b68a3f3	0.0035498112
198	0xbcaea98e	-0.021321084
199	0x3a67b75f	0.0008839275
200	0x3c9aceeb	0.018897494
201	0x3cd94c17	0.02652554
202	0xbc900796	-0.017581742
203	0x3dde62fd	0.10858724
204	0xbcd3df82	-0.025863413
205	0x3ecc5441	0.3990803
206	0x00000000	0.0
207	0xbbda1ac7	-0.006656024
208	0xbd349701	-0.04408932
209	0xbb26da5a	-0.0025459738
210	0xbcddbc8b	-0.027067443
211	0x3dc4b39c	0.0960457
212	0xbe78a032	-0.2427986
213	0x3e4ed595	0.20198663
214	0x3dea5d56	0.11443584
215	0x3e954e53	0.2916132
216	0xbddbae0d	-0.10726557
217	0xbe8b04b7	-0.27152035
218	0x3ea2a3c1	0.3176556
219	0x3f5967e9	0.8492418
220	0x3f0261c9	0.5093046
221	0x00000000	0.0
222	0xbcd14f5a	-0.025550533
223	0xbca16a6d	-0.019704068
224	0xbcaaccec	-0.020849667
225	0x3d54b529	0.05193058
226	0xbcdf87db	-0.02728646
227	0x3d14ffea	0.03637687
228	0x3e804320	0.25051212
229	0x3d46a08b	0.04849295
230	0x3ee115b4	0.4396187
231	0xbcfd1904	-0.030895717
232	0xbf00e559	-0.50349957
233	0x3d13b461	0.036060695
234	0x3f531e80	0.82468414
235	0x3f125a8a	0.571694
236	0x00000000	0.0
237	0xbca5a514	-0.020220317
238	0xbc91a00a	-0.017776508
239	0xbc90b7c3	-0.01766575
240	0xbd91f414	-0.07126632
241	0xbcc4f1e7	-0.02404113
242	0x3d7a20d4	0.061066464
243	0x3e6a3796	0.22872767
244	0xbd4c8155	-0.049928028
245	0x3f10422b	0.56350964

network_body._body_endoder.seq_layers.0.weight f4 [256, 246]
0	0x3d5643bf	0.0523107
1	0x3d8b66c8	0.06806713
2	0x3d86eb41	0.0658784
3	0x3bbf2392	0.0058330977
4	0x3d64960d	0.055807162
5	0xbcdb0deb	-0.026740035
6	0x3dc8cfc4	0.09805253
7	0x3d0f8db5	0.03504725
8	0xbd21d606	-0.03951075
9	0xbca77d05	-0.020445356
10	0x3df79b81	0.12090207
11	0x3d5517f3	0.052024793
12	0xbd01beb6	-0.031676017
13	0x3db92f34	0.090422064
14	0x3d5c7386	0.05382111
15	0x3d33e4ce	0.043919377
16	0xbdaa2d89	-0.083094664
17	0xbdf9cc13	-0.12197127
18	0xbd334215	-0.043764193
19	0xbd44321c	-0.04789935
20	0x3d8a298e	0.06746207
21	0x3b6a2840	0.0035729557
22	0x3d655085	0.055984993
23	0x3d3a0cff	0.04542255
24	0x3e268524	0.16261727
25	0x3d0c0340	0.034182787
26	0x3da0f429	0.0785907
27	0xbd2a9bcb	-0.041652482
28	0xbd97bf22	-0.074095026
29	0xbddb145c	-0.106972426
30	0xbc0f1fcf	-0.008735611
31	0x3da29c9e	0.079400286
32	0x3dbf71ec	0.09347901
33	0x3d867e36	0.065670416
34	0xbc915cee	-0.017744508
35	0x3d652cb6	0.055950843
36	0xbabb476a	-0.0014288251
37	0xbd1974cd	-0.037464906
38	0xbd9db532	-0.07700576
39	0x3d0c1c3c	0.034206614
40	0x3e2419cf	0.1602547
41	0x3cbe9329	0.02326353
42	0x3d26bd9b	0.040708166
43	0x3d3b93fd	0.04579543
44	0xbdb72235	-0.08942071
45	0xbdf117a2	-0.11772086
46	0xbc2660f2	-0.0101549495
47	0x3dafbdbb	0.0858111
48	0x3d5db75a	0.054129936
49	0xbc971380	-0.018441916
50	0x3de4ff50	0.111815095
51	0x3c55ca6b	0.0130487485
52	0xbd841582	-0.06449415
53	0xbcfc1e3e	-0.03077614
54	0xbd4cbbde	-0.04998385
55	0x3dd858ce	0.10563813
56	0x3c0a394b	0.008436511
57	0xbd85a571	-0.06525696
58	0xbe3bd42c	-0.18342656
59	0xbd03abe1	-0.03214634
60	0x3d8c25cb	0.06843146
61	0x3ccc325a	0.024926353
62	0xbd1478b7	-0.036247935
63	0x3c5af605	0.01336432
64	0x3d49c0f5	0.049256284
65	0x3d956be1	0.07295967
66	0xbda00d79	-0.0781507
67	0x3d1e1cb7	0.038601603
68	0x3d1d6614	0.038427427
69	0xbc501a3d	-0.012701568
70	0x3c101156	0.008793196
71	0xbe162c12	-0.14665249
72	0x3d3ca70a	0.04605774
73	0xbda63972	-0.081164256
74	0x3cbd421a	0.023102809
75	0x3e2583ad	0.16163512
76	0xbd8fc8e9	-0.070207424
77	0xbbeb514b	-0.0071813217
78	0xbbdcb393	-0.006735274
79	0xbe02173c	-0.12704176
80	0x3bf842da	0.0075763287
81	0x3d2dca6a	0.042429365
82	0x3e732a42	0.23746589
83	0xbcb5298e	-0.022114541
84	0x3d3415a7	0.04396596
85	0xbd10dc30	-0.035366237
86	0x3cc08717	0.023501916
87	0x3d5704b2	0.052494712
88	0x3bb157b0	0.0054120645
89	0xbcb1a1e6	-0.021683645
90	0x3b16ccef	0.0023010334
91	0xbdea9d53	-0.114557885
92	0x3cf37d89	0.029722946
93	0x3e17f53c	0.14839643
94	0xbca9a6be	-0.020709392
95	0xbc3fa1eb	-0.011696319
96	0x3dc9c009	0.09851081
97	0x3d9cf448	0.076637805
98	0x3dbe8674	0.09302989
99	0x393c1732	0.00017937718
100	0x3d50637e	0.050876133
101	0x3d378347	0.04480293
102	0x3d1c05f8	0.03809163
103	0x3d8288af	0.063737266
104	0xbcaea026	-0.0213166
105	0xbc9b1668	-0.018931583
106	0xbc8869d0	-0.016652018
107	0x3e1672b8	0.14692199
108	0x3c80794b	0.015682837
109	0xbd8d287a	-0.06892486
110	0xbcd3fc9e	-0.025877293
111	0xbd8d1b5a	-0.068899825
112	0x3ca489fb	0.020085325
113	0xbd8ffd93	-0.07030787
114	0x3b9da57f	0.0048109884
115	0xbba17fdf	-0.0049285735
116	0xbcded613	-0.027201688
117	0xbde5731f	-0.11203598
118	0x3d169b06	0.036768936
119	0x3d145038	0.036209315
120	0x3ca7d9ad	0.020489538
121	0xbd5f82f2	-0.05456824
122	0xbc9ad89f	-0.018902121
123	0xbe039145	-0.12848385
124	0xbd6c8006	-0.05773928
125	0x3d3d488e	0.04621177
126	0x3d60c4d3	0.054875206
127	0xbd9297a0	-0.071578264
128	0x3cb93a35	0.022610763
129	0x3d5a2b6d	0.05326407
130	0x3cb31627	0.021861149
131	0xbc56a24e	-0.01310022
132	0xbd2e1a2d	-0.042505432
133	0xbd06f037	-0.03294393
134	0x3d81d2e8	0.06339055
135	0x3d3d8336	0.04626771
136	0xbcbe71c1	-0.023247601
137	0xbd94503a	-0.072418645
138	0x3dd3047f	0.10303592
139	0xbd5fba08	-0.054620773
140	0x3d8d4562	0.06897999
141	0x3d31a647	0.043371465
142	0xbc755743	-0.014974418
143	0xbcb04634	-0.02151785
144	0xbdb5b491	-0.08872331
145	0xbd5288c7	-0.051399972
146	0xbd1a6e89	-0.03770307
147	0xbd556116	-0.05209454
148	0x3bc9f2e9	0.0061629904
149	0xbd76e5ab	-0.060277622
150	0xbdb89507	-0.090128
151	0x3d030b4d	0.0319932
152	0x3e1f70a0	0.15570307
153	0x3c331252	0.010929661
154	0xbcdbfdf6	-0.026854496
155	0xbda54d0b	-0.080713354
156	0x3d80dcb5	0.062920965
157	0x3e07a11c	0.13245052
158	0xbafb0c70	-0.0019153487
159	0x3cba3c56	0.022733849
160	0xbd9bea77	-0.0761308
161	0xbd71831a	-0.05896292
162	0x3d874e22	0.066066995
163	0xbd71cef0	-0.05903524
164	0xbdadaad5	-0.08479849
165	0xbdf5ed24	-0.120081216
166	0x3c1fcbcb	0.009753178
167	0x3e04d562	0.12972024
168	0x3ddd015e	0.107912764
169	0x3e2d2851	0.1690991
170	0x3db5518c	0.088534445
171	0x3d4741ce	0.04864674
172	0xbd112bae	-0.035442047
173	0x3d8d22b9	0.068913884
174	0xbd68c080	-0.056824207
175	0x3e1f2a66	0.15543517
176	0xbc2c11f5	-0.010502328
177	0xbd07a880	-0.03311968
178	0xbc8fe030	-0.017562956
179	0x3d7442a1	0.059633855
180	0x3dc1d099	0.09463615
181	0x3ca4c933	0.02011547
182	0x3c9a592e	0.018841352
183	0xbc99580d	-0.018718744
184	0xb93ee753	-0.00018205987
185	0x3d8710b1	0.065949805
186	0x3d85f549	0.06540925
187	0xbc953a10	-0.018216163
188	0xbd90e410	-0.070747495
189	0x3d8bcd78	0.068262994
190	0xbcea5419	-0.028604554
191	0x3d54056b	0.05176298
192	0xbc8d26ee	-0.017230477
193	0xbd42a1a2	-0.047517426
194	0xbcddf7a3	-0.027095621
195	0xbdf92b60	-0.12166476
196	0xbd0262fa	-0.031832673
197	0x3cbd6af2	0.023122285
198	0x3d7615e4	0.06007947
199	0xbd95ab69	-0.073080845
200	0x3ddc159b	0.107463084
201	0xbe14f8e6	-0.14548072
202	0x3da1d141	0.0790124
203	0x3ce13035	0.027488807
204	0xbdb2b554	-0.08725992
205	0xbdda0e97	-0.10647314
206	0xbcdb2d63	-0.02675504
207	0x3e1338e0	0.14377165
208	0xbcf98d33	-0.030462837
209	0x3d0827e5	0.03324117
210	0x3cdaed8e	0.026724603
211	0x3d2d933b	0.042376738
212	0xbdd75493	-0.10514178
213	0xbc7543c0	-0.014969766
214	0x3bebf2fc	0.007200597
215	0x3c661d69	0.014045098
216	0x3c8b4eb9	0.017005311
217	0x3d223353	0.039599728
218	0x3c8d467d	0.017245525
219	0xbd7d5ed5	-0.061858017
220	0x3d18d614	0.037313536
221	0xbc86596e	-0.016400065
222	0xbdb300f5	-0.08740417
223	0xbd42b90a	-0.04753975
224	0xbd78f00e	-0.06077581
225	0xbd674784	-0.056464687
226	0x3d0a4cba	0.03376458
227	0xbdcaca50	-0.09901869
228	0x3c377def	0.0111994585
229	0x3d80e322	0.06293322
230	0xbd8a76fa	-0.06760974
231	0x3d5fe15b	0.054658275
232	0x3dc222d4	0.09479299
233	0xba34ac58	-0.00068921363
234	0x3e1aee8f	0.15130065
235	0xbd60717a	-0.05479572
236	0xbde10c31	-0.109886535
237	0xbd76429e	-0.060122125
238	0xbd070ee1	-0.032973174
239	0x3c758d92	0.014987366
240	0x3cbf6d1b	0.023367455
241	0x3dc791d8	0.09744614
242	0xbac5022b	-0.0015030553
243	0x3c21c700	0.009874105
244	0x3dc87417	0.097877674
245	0x3d6cff75	0.05786081
246	0x3c67a546	0.014138525
247	0xbe47be10	-0.19506097
248	0x3d1a09e2	0.03760708
249	0x3c8cd35c	0.017190628
250	0xbe000b91	-0.12504412
251	0x3cf49885	0.029857883
252	0x3dc48fef	0.09597766
253	0x3da50737	0.08058017
254	0xbd75be9a	-0.059996225
255	0x3beaff8b	0.0071715764

network_body._body_endoder.seq_layers.0.bias f4 [256]
0	0xbbaf8f25	-0.0053576403
1	0x3c231b99	0.00995531
2	0x3c3fb428	0.011700667
3	0xbcbc6682	-0.022998098
4	0xba731ffe	-0.00092744816
5	0xbb245137	-0.0025072822
6	0x3c7a9010	0.015293136
7	0xbb3c9a7c	-0.0028778603
8	0xbbfe394b	-0.0077582947
9	0x3cf53cd8	0.02993624
10	0xbc60003d	-0.013671932
11	0x3cc04b86	0.023473512
12	0xbaa1dda5	-0.001234938
13	0xbcb2dbd6	-0.021833342
14	0xbb8914f6	-0.004183407
15	0xbc3c40c1	-0.011490048
16	0x3c1b59e8	0.009481885
17	0x3b783dac	0.0037878556
18	0x3c85a35b	0.016313246
19	0x3d3466c8	0.044043332
20	0xbba4278d	-0.0050095976
21	0xba8d009f	-0.0010757631
22	0x3b28e808	0.0025773067
23	0xbc25b10b	-0.010113011
24	0xbc39c7bc	-0.011339124
25	0x3bac8d86	0.0052658943
26	0xbc7ec513	-0.015549916
27	0xbba5dba3	-0.005061583
28	0xbcef4d8b	-0.02921178
29	0x3ab654d9	0.0013910785
30	0xbc3778a1	-0.011198194
31	0xbb710f80	-0.003678292
32	0x3ca45ca0	0.020063698
33	0x3d3a9efe	0.045561783
34	0xbace4890	-0.0015738178
35	0x3bd22cf3	0.00641405
36	0xbc830a15	-0.015996018
37	0x3c320279	0.010864847
38	0x3cf87883	0.030330902
39	0xbaf55f96	-0.0018720503
40	0x3aa48b5d	0.001255374
41	0x3d593757	0.05303129
42	0x3cff1bfa	0.03114127
43	0x3ba0c191	0.0049058874
44	0xbcc6a295	-0.024247447
45	0x3cb45cc8	0.022016898
46	0x3c18e9b3	0.009333062
47	0x394a3b72	0.00019286366
48	0x3c834dfd	0.016028399
49	0x3c9a4e1e	0.018836077
50	0xbcc60b91	-0.024175437
51	0x3cb5101a	0.022102404
52	0x3c7bc2e3	0.015366289
53	0x3bdb22d9	0.006687504
54	0x3c2ee129	0.0106738
55	0x3d2e7c02	0.04259873
56	0xbc39e182	-0.011345269
57	0x3ca7c65d	0.02048033
58	0x3d253dc5	0.04034211
59	0xbc946650	-0.018115193
60	0x3ca796b4	0.020457603
61	0xbc6b516b	-0.014362673
62	0x3cb0c21e	0.021576937
63	0x3c4de319	0.012566351
64	0x3c4266dd	0.011865345
65	0x3cce09ac	0.025151096
66	0xbbf037e2	-0.0073308805
67	0xbb896014	-0.0041923616
68	0x3c8736a3	0.016505545
69	0x3a082760	0.00051938556
70	0x3bc5c030	0.0060348734
71	0x3c2af4ef	0.010434373
72	0x3cc46dbd	0.023978109
73	0x3c2092c8	0.00980062
74	0xbcb6cd0d	-0.022314573
75	0x3b9ddfb2	0.0048179263
76	0xbb594f38	-0.003315879
77	0x3cfec1ea	0.031098325
78	0x3d0f00b0	0.034912765
79	0xbc437d01	-0.011931659
80	0xbd22436e	-0.039615087
81	0x3c87d21a	0.016579676
82	0xbbacdbd3	-0.0052752285
83	0x3b5cb0f7	0.0033674815
84	0xbc27c82f	-0.010240599
85	0x3be14316	0.0068744523
86	0x3c00c83c	0.00786024
87	0x3c997885	0.018734226
88	0xbc086fe2	-0.008327456
89	0xbbd27fc1	-0.006423921
90	0x3b5780be	0.0032883133
91	0x3c7b7d96	0.015349766
92	0x3cdfa585	0.027300606
93	0x3ca1b711	0.019740613
94	0xba4ce5da	-0.0007816233
95	0xbbcb079c	-0.0061959755
96	0xbc32455c	-0.010880794
97	0x3c264e17	0.010150454
98	0xbc2814ac	-0.010258835
99	0xbc925be8	-0.01786609
100	0xba98d092	-0.0011658838
101	0x3b4ac243	0.0030938543
102	0x3cadceec	0.021216832
103	0xbb94b470	-0.0045381114
104	0x3d4ee186	0.050508045
105	0x3c30fdb1	0.010802672
106	0x3cfefe76	0.031127196
107	0x3ca3b17a	0.019982088
108	0x3cc6de8b	0.024276039
109	0x3caf2616	0.021380465
110	0xbc432525	-0.011910711
111	0xbac06e9f	-0.0014681405
112	0xbc171a99	-0.00922265
113	0xbbaf8585	-0.005356493
114	0x3bc6b3de	0.0060639223
115	0xbbbffb46	-0.0058588115
116	0x3b803f55	0.0039137998
117	0x3cd81acd	0.026379967
118	0x3cd9a0c2	0.026565913
119	0x3d6af28d	0.05736022
120	0x3c24176d	0.010015351
121	0xbb4f63bb	-0.0031645137
122	0xbca6f2cc	-0.020379446
123	0x3c347860	0.011015028
124	0xbc6381d7	-0.013885937
125	0xbab41fa9	-0.0013742346
126	0x3bcbaac2	0.0062154243
127	0xbba0da59	-0.0049088416
128	0xbb5f888c	-0.0034108488
129	0x3cfc5362	0.030801479
130	0x3d47fb2a	0.048823513
131	0x3a954a69	0.0011389974
132	0xbc305937	-0.010763458
133	0x3c9ef50a	0.019403953
134	0x3c2a665a	0.010400379
135	0x3ad6690b	0.001635821
136	0xbbee1c33	-0.007266545
137	0x3c77f2e5	0.015133594
138	0xbc8670ad	-0.01641115
139	0x3c91f6a1	0.017817797
140	0x3c0fed49	0.0087846005
141	0x3b922cca	0.0044609057
142	0x3b137ffd	0.0022506707
143	0x3a810e7d	0.0009846237
144	0xbc4b7263	-0.012417409
145	0x3d25468f	0.040350493
146	0xbca1e709	-0.019763486
147	0x3c67cd5c	0.014148083
148	0x3c3c821f	0.011505633
149	0x3b4ed05f	0.0031557304
150	0x3c7ec54d	0.01554997
151	0xbd17e834	-0.03708668
152	0xbc4b5ddf	-0.012412517
153	0x3c22eff7	0.009944907
154	0xbc38dbf2	-0.011282908
155	0x3c89e8da	0.016834665
156	0xbc8c998f	-0.017163066
157	0x3c0a2c31	0.008433388
158	0x3d0b0273	0.033937883
159	0x3c956d9e	0.018240746
160	0xbc5278e7	-0.012846208
161	0x3c8936f8	0.016749844
162	0x3d6b3e2c	0.05743234
163	0x3c640455	0.013917048
164	0xb9b09fe0	-0.00033688452
165	0x3ce92b54	0.028463043
166	0x3c5bdebb	0.013419802
167	0xbc794558	-0.015214287
168	0x3bb75367	0.005594659
169	0x3b5d5236	0.0033770925
170	0x3d02625c	0.031832084
171	0x3c83e53d	0.01610052
172	0x3c1292f7	0.008946172
173	0x3c2d5b67	0.010580874
174	0x3c37c3ae	0.011216087
175	0xbb4376f7	-0.0029825547
176	0x3ad7380b	0.00164199
177	0x3c9f4fb1	0.01944718
178	0x3cd49e14	0.025954284
179	0x3c998a58	0.018742725
180	0x3c060963	0.008180949
181	0x3be8de94	0.0071066115
182	0x3cd58cfa	0.0260682
183	0x3c5bc5be	0.013413845
184	0x39287a63	0.00016067321
185	0x3c461677	0.012090317
186	0xbc8cc7da	-0.01718514
187	0x3c71cf43	0.014758888
188	0x3c920538	0.017824754
189	0xbc1d537b	-0.009602423
190	0x3d847504	0.064676315
191	0xbc42e7a9	-0.011896052
192	0xbc3485d4	-0.011018235
193	0x3b861de2	0.004092918
194	0xbadeb16f	-0.0016990135
195	0x3c05da9b	0.008169795
196	0x3c92d1a8	0.017922238
197	0x3c5dd170	0.013538703
198	0x3c0d9c0d	0.008643162
199	0xbca653b6	-0.020303588
200	0x3c25e1ab	0.010124604
201	0xbb7fbfaf	-0.0039024164
202	0x3b332f1e	0.0027341316
203	0x3c19a0e7	0.009376741
204	0x3c2c29b4	0.01050799
205	0xbadea0bd	-0.001698516
206	0xb9ecae57	-0.0004514332
207	0xbcf8c570	-0.030367583
208	0x3d1508ce	0.03638535
209	0xbc3d119a	-0.011539841
210	0x3bc27107	0.005933884
211	0x3c9ab677	0.018885834
212	0x3cbb40b0	0.022857994
213	0x3c16602f	0.009178205
214	0x3ce82041	0.028335692
215	0xbc50e072	-0.012748824
216	0xbc3753b0	-0.011189386
217	0x3d3fb27e	0.046801083
218	0xbceab0b4	-0.028648712
219	0x3bf204ca	0.007385825
220	0x3c8b7e4e	0.017028
221	0x3c3a8eb7	0.011386565
222	0x3cc4dfdb	0.024032524
223	0xbbb5c83b	-0.005547551
224	0xbccabb17	-0.024747415
225	0x3d1d431b	0.038394075
226	0xbc032d4e	-0.008006407
227	0xbbf701fa	-0.0075380774
228	0x3c2e9db1	0.010657714
229	0x3d08e3ea	0.03342048
230	0xbc4d4595	-0.012528797
231	0x3c79f176	0.015255323
232	0x3a4c7389	0.00077991985
233	0x3c449c0b	0.012000094
234	0x3cdd2daa	0.026999313
235	0x3d2cdd27	0.042203095
236	0x3c37e8cf	0.0112249395
237	0x3caad93a	0.020855535
238	0x3bdfcaa8	0.0068295784
239	0x3c8bcca9	0.017065363
240	0x3d44b41a	0.04802332
241	0xbc8824a9	-0.016619043
242	0xbaf1b4b5	-0.0018440696
243	0xbc9dd79f	-0.019267855
244	0x3c88761a	0.016657878
245	0x3b51732c	0.0031959517
246	0xbaa39263	-0.001247954
247	0x3d541b94	0.051784113
248	0xbc877f44	-0.016540177
249	0x3d1ead7c	0.038739666
250	0x3d056a85	0.032572288
251	0x3c688205	0.014191155
252	0x3c2e75ee	0.010648234
253	0xbccdb7c6	-0.025112044
254	0x3c1b3ca6	0.009474909
255	0xba538e35	-0.0008070202

network_body._body_endoder.seq_layers.2.weight f4 [256, 256]
0	0xbd873616	-0.06602113
1	0x3d8c5ad9	0.06853265
2	0x3d54c441	0.051944975
3	0xbbc50dff	-0.0060136314
4	0x3ca50b7f	0.020147083
5	0xbd024291	-0.031801764
6	0xbd5d36d8	-0.05400738
7	0x3c57e68e	0.013177527
8	0x3da48185	0.080325164
9	0x3cd5baea	0.026090104
10	0xbdbd83a1	-0.09253622
11	0xbd463b1d	-0.04839622
12	0x3d063000	0.03276062
13	0x3caa74a9	0.020807581
14	0x3c5463bc	0.012963232
15	0xbd34b550	-0.044118226
16	0x3d370c3d	0.044689406
17	0xbda004e8	-0.07813436
18	0x3d122c37	0.035686698
19	0xbdf025ce	-0.11725961
20	0x3db57aec	0.08861336
21	0x3bffb82d	0.007803938
22	0xbd658126	-0.05603137
23	0x3d46b4ec	0.048512384
24	0xbc949d89	-0.018141525
25	0x3c98cde8	0.018652871
26	0x3d29419a	0.04132233
27	0x3c1bbf7d	0.009506104
28	0x3b2ea184	0.0026646564
29	0xbcf10b51	-0.029424341
30	0xbd1f3c49	-0.03887585
31	0x3d2a57c7	0.041587617
32	0xbd8782bb	-0.06616732
33	0x3e0f7935	0.1401108
34	0x3c18b2c4	0.009319965
35	0x3da89b7d	0.08232782
36	0xbd59c1d8	-0.05316338
37	0x3d3ee61d	0.046606172
38	0xbe161903	-0.14657979
39	0x3e09dd1c	0.13463253
40	0x3d4904a5	0.049076695
41	0x3e18a22c	0.14905614
42	0x3dff31fc	0.12460706
43	0x3c7d5506	0.015462166
44	0x3d831f5d	0.064024664
45	0x3d57e710	0.052710593
46	0xbd96e683	-0.07368185
47	0x3c317812	0.01083185
48	0x3e009b24	0.12559181
49	0xbd833ffd	-0.06408689
50	0x3ca82156	0.020523708
51	0x3d9d47cd	0.076797105
52	0x3ced83c5	0.028993497
53	0x3d13897e	0.036019795
54	0xbc3f0f2a	-0.01166133
55	0x3d2132bf	0.039355036
56	0xbdc2b03f	-0.095062725
57	0xbc88d75e	-0.016704258
58	0x3c1dceb8	0.009631805
59	0x3c8bcb03	0.017064577
60	0xbd62d549	-0.055379186
61	0xbd620f7f	-0.05519056
62	0xbdafa7f0	-0.085769534
63	0xbc3aae71	-0.011394129
64	0xbdf9c429	-0.12195618
65	0x3d3a5496	0.045490824
66	0x3d687643	0.05675341
67	0x3d28a612	0.041174002
68	0xbcd76631	-0.026293846
69	0x3d4ecf82	0.050490864
70	0x3d1faee2	0.03898514
71	0x3d08d512	0.033406325
72	0x3cb63c42	0.02224553
73	0x3d90a523	0.07062747
74	0x3de37267	0.11105805
75	0x3d793cf2	0.060849138
76	0x3e107c10	0.14109826
77	0xbd917137	-0.07101672
78	0x3bbf9935	0.005847121
79	0x3cf70528	0.030153826
80	0x3cf121b8	0.029435024
81	0xbd48b023	-0.048996102
82	0x3d2579ee	0.040399484
83	0xbdbac75d	-0.09120057
84	0xbd69ec77	-0.057110276
85	0x3d1a8567	0.03772488
86	0x3d2f967a	0.042868115
87	0x3cc8a873	0.024494385
88	0x3d09f50a	0.033680953
89	0xbcf19d64	-0.029493995
90	0xbb299df6	-0.0025881506
91	0x3d1a9128	0.037736088
92	0xbdaa0f6d	-0.083037235
93	0x3d9a8570	0.075449824
94	0x3cdc0339	0.026857005
95	0xbd85c66e	-0.06531988
96	0xbbe4fdbc	-0.0069882553
97	0x3b5d0403	0.0033724315
98	0xbd8ae94b	-0.06782778
99	0xbd6cd043	-0.0578158
100	0xbe41d7b3	-0.18929939
101	0x3dfd0275	0.12353984
102	0xbd91b7f8	-0.071151674
103	0x3dd9c5a9	0.10633404
104	0xbe023a57	-0.12717567
105	0x3c5ee9d0	0.01360555
106	0xbdc2b396	-0.095069095
107	0xbcb2ff91	-0.02185038
108	0x3d9f8a4c	0.0779005
109	0x3d25e786	0.040504
110	0x3cc3c0f4	0.023895718
111	0xbd9e44ee	-0.07727991
112	0xbd1c355b	-0.03813682
113	0x3d1426f4	0.03616996
114	0x3ba76b21	0.0051092063
115	0x3da02187	0.07818895
116	0xbca41894	-0.020031251
117	0xbbb9cab6	-0.005669917
118	0x3e35cbf3	0.17753582
119	0x3cfd3be3	0.030912345
120	0xbe08153a	-0.13289347
121	0x3da3ec4b	0.08004054
122	0x3d491212	0.0490895
123	0xbd42c781	-0.047553543
124	0x3dfb5319	0.12271709
125	0x3c8bc6a8	0.0170625
126	0x3c9b3e84	0.018950708
127	0xbe034402	-0.12818912
128	0x3de18e3f	0.110134594
129	0xbd842d0f	-0.06453907
130	0xbd405cf8	-0.046963662
131	0xbdd6a0d0	-0.10479891
132	0xbc2f5646	-0.0107017215
133	0xbd89e872	-0.067337885
134	0xbde27edf	-0.11059355
135	0x3db6739b	0.08908769
136	0x3c861e78	0.01637195
137	0xbc5d7e9e	-0.013518957
138	0x3c4de956	0.012567839
139	0xbd9e1a78	-0.07719892
140	0x3d91343d	0.07090042
141	0xbd6b3f08	-0.05743316
142	0x3db6eb09	0.08931548
143	0x3c35d291	0.011097566
144	0x3cb4a82d	0.022052849
145	0x3decc4c5	0.11560968
146	0x3c05d05f	0.008167355
147	0x3b06dee0	0.0020579621
148	0x3cbc1d4e	0.022963192
149	0xbd5fb9c0	-0.054620504
150	0xbd0d0e42	-0.034437425
151	0xbd23455d	-0.03986107
152	0x3d4b6bb7	0.04966327
153	0x3dac0b6e	0.084006175
154	0x3d3122f7	0.043246236
155	0xbc0c738a	-0.0085724685
156	0xbce92679	-0.028460728
157	0x3d61fc2e	0.055172138
158	0x3d4525cd	0.048131753
159	0xbd50d5ab	-0.05098502
160	0x3dd24def	0.10268771
161	0x3cbdb037	0.023155315
162	0xbd639220	-0.055559278
163	0xbd046079	-0.032318566
164	0xbd6aade8	-0.057294756
165	0xbcdac32a	-0.02670439
166	0x3e0ce710	0.13760018
167	0xbd9872fa	-0.07443805
168	0x3d2f363f	0.042776342
169	0x3c144aad	0.009051007
170	0x3cc6a7ba	0.0242499
171	0x3c1459be	0.009054599
172	0xbd20fbe7	-0.039302733
173	0xb906740a	-0.00012822464
174	0x3d87d7b8	0.06632942
175	0x3d289d98	0.041165918
176	0xbc0265c5	-0.007958834
177	0xbbde2c8d	-0.006780213
178	0xbdadb97b	-0.08482643
179	0xbba67e07	-0.0050809416
180	0x3d7d356a	0.061818518
181	0xbc2b94b0	-0.010472462
182	0x3dba89e7	0.09108334
183	0x3c8b9206	0.017037403
184	0xbd3ca2be	-0.04605364
185	0x3c6346fa	0.013871903
186	0xbd8f5764	-0.0699909
187	0xbd123a57	-0.03570017
188	0x3d56a387	0.052402046
189	0xbbb4fdbc	-0.0055234116
190	0x3bb944ab	0.005653938
191	0xbccdd626	-0.025126528
192	0xbe3be50d	-0.18349095
193	0x3bcad3a8	0.006189782
194	0x3c547a91	0.012968675
195	0xbd99e307	-0.07514005
196	0xbdf1fc8f	-0.1181575
197	0xbbbae5b6	-0.005703653
198	0xbe0c5f18	-0.1370815
199	0xbdc49804	-0.09599307
200	0xbcac5349	-0.021035807
201	0xbdbff09c	-0.093720645
202	0xbcb49c1b	-0.022047093
203	0xbd5d40b3	-0.05401678
204	0x3cc7ff43	0.02441371
205	0xbdb62359	-0.08893461
206	0x3ccefa8b	0.025265953
207	0x3d04d66a	0.032431044
208	0xbd0fb6be	-0.035086386
209	0xbcfcb6a3	-0.030848807
210	0xbd655065	-0.055984873
211	0x3d11b7b3	0.03557558
212	0xbd69d2e8	-0.0570859
213	0xbdef1531	-0.11673964
214	0x3e13f509	0.14448942
215	0x3d80bfe3	0.062865995
216	0xbd2b995c	-0.0418943
217	0xbdeb1853	-0.11479249
218	0x3d958d70	0.07302368
219	0xbda97cfa	-0.082757905
220	0xbca21a52	-0.019787941
221	0x3d9f4220	0.07776284
222	0x3cb8fff1	0.02258298
223	0x3d805123	0.062654756
224	0xbcf9c260	-0.030488193
225	0x3e06f983	0.13181119
226	0x3d8238dc	0.06358501
227	0x3d126322	0.03573907
228	0xbc59d20f	-0.013294711
229	0xbd901f6c	-0.07037243
230	0x3ca591c6	0.020211112
231	0xbd8c5dad	-0.06853805
232	0x3de29fea	0.110656574
233	0xbd77a4d7	-0.060459938
234	0xbb1e16df	-0.002412252
235	0xbd8cebd1	-0.06880916
236	0xbc3a4ecd	-0.011371327
237	0xbdd94138	-0.106081426
238	0xbd60aad6	-0.05485042
239	0xbd056919	-0.032570932
240	0x3df7570e	0.12077151
241	0xbd781aad	-0.060572315
242	0x3db28ddc	0.08718464
243	0x3d9496a0	0.07255292
244	0x3de50d9f	0.11184239
245	0x3d79d910	0.060998023
246	0xbc4bafbd	-0.012432036
247	0x3c14aa21	0.009073765
248	0x3dda4194	0.10657039
249	0x3d44f5b9	0.048085902
250	0xbe1bf8b0	-0.15231586
251	0x3c785a81	0.015158297
252	0xbd82ef7f	-0.063933365
253	0xbd5d76f4	-0.05406852
254	0xbcda5db5	-0.026656011
255	0xbd20f6d0	-0.03929788

network_body._body_endoder.seq_layers.2.bias f4 [256]
0	0x3c6a37d1	0.014295534
1	0x3c358bad	0.011080665
2	0x3bcb37c0	0.0062017143
3	0x3bce79fa	0.006301162
4	0xbc02ae29	-0.007976093
5	0xbbb5a354	-0.005543152
6	0x3c7be85c	0.015375223
7	0x3c936371	0.017991753
8	0xbbd153d2	-0.006388166
9	0x3c65d7f7	0.014028541
10	0x3be753cd	0.0070595504
11	0xbbe24536	-0.0069052232
12	0xb982385f	-0.00024837532
13	0x3bd82289	0.006595914
14	0x3c0f1887	0.008733875
15	0x3c8367a8	0.016040638
16	0xbcb3c4da	-0.021944452
17	0xbb65a155	-0.0035038788
18	0x3c9eea66	0.01939888
19	0x3c6e6d58	0.014552437
20	0xbc0c7b99	-0.00857439
21	0x3be3f2b2	0.006956422
22	0x3b0783de	0.0020677964
23	0x3cf375cf	0.029719261
24	0x3c595b11	0.013266341
25	0x3c0d55b8	0.008626394
26	0x3b4f448c	0.003162655
27	0x3b1a98b8	0.0023589563
28	0x3c367bb9	0.011137896
29	0x3a9930f9	0.0011687569
30	0x3af5d674	0.0018755929
31	0x3bf34328	0.007423777
32	0x3c5bcac3	0.013415041
33	0x3c0cd8ef	0.008596643
34	0xbadb73ee	-0.0016742924
35	0x3b74b954	0.003734191
36	0x3c627071	0.013820753
37	0x3a0671f5	0.0005128675
38	0x3b6d778c	0.0036234586
39	0xbc1b35a1	-0.009473235
40	0x3c132dec	0.008983117
41	0xbcad99ab	-0.021191439
42	0x3ac8eae2	0.001532879
43	0xbaa502ea	-0.001258937
44	0x3c65817a	0.01400792
45	0xbcb1af73	-0.021690106
46	0xbbdfa41c	-0.0068249833
47	0x3c5c3e9a	0.01344266
48	0x3c2f6ef8	0.010707609
49	0xbc88025e	-0.016602691
50	0xbc2c9f3a	-0.010536009
51	0xbc539d32	-0.012915896
52	0xbcbc0d5b	-0.022955587
53	0x3c621980	0.013800025
54	0x3c43ace2	0.011943074
55	0x3bad1dfc	0.0052831154
56	0xbbb78c02	-0.005601407
57	0x3c0630ea	0.008190373
58	0xbc722c8b	-0.014781128
59	0x3afbee2a	0.0019220759
60	0xbb4bb69d	-0.0031084188
61	0xbc1b95ff	-0.009496211
62	0x3bfcb148	0.0077115633
63	0xbb382175	-0.0028096114
64	0x3c40d605	0.011769776
65	0x3b604fd4	0.0034227269
66	0xbbd00c62	-0.0063491324
67	0x3cb093dc	0.02155488
68	0x3b2e51e2	0.00265991
69	0x3b2e2182	0.0026570265
70	0xbac2a35f	-0.0014849714
71	0xbb84fc84	-0.0040584225
72	0x3c0a7ecc	0.008453082
73	0xbbdcb03d	-0.0067348764
74	0xbc04e0d5	-0.008110245
75	0x3c848d10	0.016180545
76	0xbb8939f4	-0.0041878168
77	0xbb561b39	-0.0032670035
78	0x3bb97530	0.005659722
79	0x3c0b2600	0.008492947
80	0xbb69c9c7	-0.0035673247
81	0x3b8faf40	0.004384905
82	0x3d026d29	0.031842384
83	0xbc20cee2	-0.00981495
84	0xbcab5ec3	-0.02091921
85	0xb9a18c6e	-0.0003081294
86	0xba150eee	-0.00056861236
87	0xbc1d3dd9	-0.009597265
88	0x3c96b1a5	0.018395254
89	0xbd2b7825	-0.041862626
90	0xbc04a129	-0.008095064
91	0x3c01d3be	0.007924018
92	0xbcf19a60	-0.029492557
93	0xbbc48049	-0.005996738
94	0xbc2abe3f	-0.010421335
95	0x3c236745	0.009973352
96	0x3c139173	0.009006846
97	0x3c7501dc	0.014954057
98	0xbc1010e7	-0.008793092
99	0x3cf9cdb3	0.030493593
100	0xbb5d27d6	-0.0033745668
101	0x3c78d4d9	0.015187466
102	0xbb72f1e6	-0.0037070452
103	0x3bf2618d	0.007396883
104	0x3c919ecb	0.017775914
105	0x3c6d2236	0.014473489
106	0x3c73e665	0.014886473
107	0x3a97920a	0.0011563909
108	0x3c40cf94	0.0117682405
109	0xbbfa133f	-0.007631689
110	0xbb811d16	-0.003940235
111	0x3bc25d7f	0.0059315558
112	0xbc1931aa	-0.00935022
113	0x3c370587	0.011170751
114	0x3c30f448	0.010800429
115	0x3c8ca317	0.017167611
116	0xbcd54ce2	-0.026037637
117	0xbbd6e803	-0.0065584197
118	0x3ab0a8c6	0.0013478033
119	0x3c02cae3	0.007982942
120	0x3c6bef60	0.014400333
121	0x3c20ad04	0.009806875
122	0x3ce3c977	0.027806027
123	0xbb048b1b	-0.0020224515
124	0x3aa2f15f	0.0012431553
125	0xbbf8ad04	-0.0075889844
126	0x3c70c420	0.014695197
127	0x3af59184	0.0018735384
128	0x3d0e6f3c	0.03477405
129	0x3b597da1	0.0033186453
130	0x3cccb73f	0.024989722
131	0x3cbbd20b	0.022927305
132	0x3c383a8e	0.011244429
133	0xbb7e5129	-0.00388057
134	0x3b6f38d6	0.0036502383
135	0x3b6a6073	0.0035763055
136	0xbc18838b	-0.009308706
137	0xbbff8147	-0.0077973935
138	0xbc8fa0d0	-0.017532736
139	0xbb146f45	-0.002264933
140	0xbbe831b6	-0.007086004
141	0x3ca8a239	0.020585166
142	0x3d00d589	0.031453643
143	0xbbca4b44	-0.006173523
144	0x3bf2c9c3	0.007409306
145	0x3c8fe580	0.017565489
146	0x3c2c31d4	0.010509927
147	0x3d0340c7	0.0320442
148	0x3c6ce59c	0.01445904
149	0x3c70716e	0.014675481
150	0xbbcdd630	-0.0062816367
151	0x3cf0da68	0.02940102
152	0x3d0b778e	0.034049563
153	0x3c41c968	0.011827804
154	0xbc443ffa	-0.011978144
155	0x3b959e7a	0.004566011
156	0xbb177fc6	-0.002311693
157	0xbcbcf15c	-0.023064308
158	0x3cda6639	0.026660072
159	0x3c35c343	0.011093917
160	0xbc4c0751	-0.012452916
161	0x3b653fc1	0.0034980627
162	0x3c7a8d1f	0.015292435
163	0x3b563a2f	0.0032688489
164	0x3c0c7d8c	0.008574855
165	0x3b6341f2	0.0034676758
166	0x3b8a8b06	0.0042279987
167	0xbcc65181	-0.024208786
168	0x3ba51d69	0.0050389064
169	0x3b57d1b8	0.0032931399
170	0x3c10e337	0.008843235
171	0xb9ccfec3	-0.00039099724
172	0xba400842	-0.0007325449
173	0x3c2fbb82	0.010725858
174	0xbbd38ad5	-0.006455759
175	0x3b404a32	0.00293411
176	0xbb8b9dc9	-0.004260753
177	0x3c16c25a	0.00920161
178	0xb972b91a	-0.00023147874
179	0x3bc588fc	0.0060282927
180	0x3c389bc0	0.011267602
181	0x3c84f382	0.016229395
182	0x3ca2113f	0.019783614
183	0x3c78ed78	0.015193336
184	0xbc4dc3f2	-0.012558924
185	0xb7295f35	-1.0095352e-05
186	0x3c7e4319	0.015518927
187	0xbc9aa6fa	-0.018878449
188	0xbc1a3834	-0.009412814
189	0x3cda79b3	0.026669359
190	0xbb9b3858	-0.0047369413
191	0x3c838929	0.016056614
192	0x3950ee0f	0.0001992511
193	0x3c1d3c22	0.009596856
194	0x3c106b1c	0.008814599
195	0x3ab69b3a	0.0013931759
196	0xb9ca1b5e	-0.00038548833
197	0xbcb99db4	-0.022658207
198	0x3c37aec8	0.011211105
199	0xbaf8e72c	-0.0018989793
200	0xbc904dab	-0.01761516
201	0x3b8a2f86	0.004217091
202	0x3c46fd53	0.012145358
203	0x3c28eef6	0.010310879
204	0x3b73c16c	0.0037194146
205	0x3d064565	0.032781024
206	0x3bb39c25	0.0054812604
207	0xb8fc6d81	-0.00012036693
208	0x39f19f9c	0.0004608602
209	0x3cc531d9	0.02407162
210	0x3babb724	0.005240338
211	0x3c423247	0.011852807
212	0xbc1f49d2	-0.00972219
213	0x3c969831	0.018383117
214	0xbb333ce4	-0.0027349526
215	0xbc9fd6d7	-0.019511623
216	0x3c890fb7	0.016731126
217	0xb9c65b95	-0.00037833737
218	0x3ca2443c	0.019807927
219	0x3c5e2f8c	0.013561141
220	0x3aaca0b7	0.0013170455
221	0x3cb355cd	0.021891499
222	0x3c9cfbb1	0.019162985
223	0x3c480182	0.012207391
224	0x3c369596	0.0111440625
225	0x3b61a20a	0.0034428858
226	0x3c2da81a	0.010599161
227	0x3c59972a	0.013280669
228	0xbb8d6ce2	-0.0043159584
229	0x3c10d633	0.008840132
230	0x3c937faa	0.01800521
231	0x3bc945df	0.0061423625
232	0x3c3c7da4	0.011504564
233	0x3c8fe68d	0.01756599
234	0xbc038370	-0.008026943
235	0x3c0de673	0.0086609
236	0x3cba5dc7	0.022749795
237	0x3bcdd973	0.0062820255
238	0xbc4290c3	-0.011875334
239	0x3b30d828	0.0026984308
240	0x3b592c03	0.0033137805
241	0x3d1080c9	0.03527907
242	0x3b1cc041	0.0023918303
243	0xbbdc54e0	-0.006723985
244	0x3cba376c	0.022731505
245	0x3c34e3a4	0.011040602
246	0x3b7644a3	0.0037577532
247	0x3c8483d7	0.016176147
248	0xbbf236e1	-0.007391796
249	0x3b2f5689	0.002675446
250	0x3cb5584d	0.022136832
251	0x3c0d4aa4	0.008623753
252	0xbb06426a	-0.0020486363
253	0x3bec0c44	0.0072036106
254	0x3c84f108	0.016228214
255	0x3b3ee990	0.0029130913

network_body._body_endoder.seq_layers.4.weight f4 [256, 256]
0	0xbd82b564	-0.06382254
1	0xbd878d60	-0.06618762
2	0x3d80a257	0.06280964
3	0xbded05fd	-0.11573408
4	0x3e144d18	0.14482534
5	0xbc9ad209	-0.01889898
6	0xbbf89202	-0.007585765
7	0xbcab926b	-0.020943841
8	0x3d35403e	0.04425072
9	0xbd8946f1	-0.06702984
10	0xbd4c160a	-0.049825706
11	0xbd838ed5	-0.064237274
12	0xbb115b84	-0.0022179792
13	0x3dee3d35	0.11632768
14	0xbb433838	-0.0029788148
15	0x3caa9542	0.020823125
16	0x3ddb3878	0.1070413
17	0x3db93403	0.090431236
18	0x3e195008	0.14971936
19	0xbe12d6c7	-0.14339744
20	0xbdc4008b	-0.09570416
21	0x3ce7a4fb	0.028276911
22	0x3e030012	0.12792996
23	0xbd67b9f0	-0.05657381
24	0x3d70e0c7	0.058808114
25	0x3d68933e	0.056781046
26	0xbdb9cc90	-0.0907222
27	0x3bea6b53	0.0071539073
28	0xbd43ed0c	-0.047833487
29	0x3da318d4	0.0796372
30	0xbe255c28	-0.16148436
31	0x3da86a25	0.082233705
32	0xbda4df85	-0.080504455
33	0x3c82c443	0.015962726
34	0x3d8811d5	0.06644026
35	0x3c5eff37	0.013610653
36	0xbca5ddc7	-0.020247353
37	0x3cdf13c3	0.027231103
38	0x3d89d35d	0.067297675
39	0x3ca43a7c	0.020047419
40	0xbdf29c7e	-0.11846255
41	0xbd35d9fb	-0.044397335
42	0xbc90ed4a	-0.017691273
43	0xbc5839f6	-0.013197413
44	0x3c04392f	0.008070274
45	0x3c67c632	0.014146375
46	0x3be610d2	0.007021048
47	0xbbddf482	-0.0067735324
48	0xbdfdb49d	-0.12387965
49	0x3c711c2f	0.014716192
50	0xbdc9d990	-0.0985595
51	0xbdb26a3e	-0.0871167
52	0x3d2b79b4	0.041864112
53	0xbdf3aa7c	-0.11897752
54	0x3d138d38	0.03602335
55	0xbd91ff35	-0.07128755
56	0xbe21aebe	-0.15789315
57	0x3c4fd5b9	0.012685233
58	0x3c8c4fd7	0.017127914
59	0x3c9d935c	0.019235305
60	0x3b5d1ef3	0.003374037
61	0xbd368c44	-0.04456736
62	0x3d8724f5	0.06598846
63	0xbc93492c	-0.017979227
64	0xbd94c021	-0.07263208
65	0xbcc79924	-0.024365015
66	0xbd07de09	-0.033170734
67	0xbdd60fb6	-0.104522154
68	0x3da3fdc4	0.08007386
69	0xbe3c4d2b	-0.18388812
70	0xbc91a3fa	-0.017778385
71	0x3d29c740	0.041449785
72	0x3dd64075	0.10461513
73	0xbe545c66	-0.20738372
74	0x3b846dab	0.0040413938
75	0x3e2b7d70	0.1674707
76	0x3db788d9	0.089616485
77	0xbace0712	-0.001571866
78	0x3dba3c2b	0.090935074
79	0xbcb4c4c9	-0.02206649
80	0x3de5d6e9	0.112226315
81	0xbd57b6db	-0.05266462
82	0xbdc737e9	-0.09727461
83	0xbda01de0	-0.07818198
84	0xbd8e4f6e	-0.06948744
85	0x3c8b6256	0.017014664
86	0x3d200026	0.03906264
87	0x3ceb65fd	0.028735155
88	0xbd0dacfb	-0.034588795
89	0x3d3553a5	0.044269223
90	0xbc88deb2	-0.016707752
91	0x3bac4f8e	0.005258507
92	0xbce782fd	-0.028260702
93	0xbd786f45	-0.06065299
94	0x3e1888aa	0.14895883
95	0x3d910dc4	0.07082704
96	0xbd8f7577	-0.070048265
97	0x3d7d4c9a	0.06184063
98	0x3ce75e67	0.028243257
99	0xbd33d929	-0.043908272
100	0xbd839c93	-0.064263485
101	0xbe0196dd	-0.12655206
102	0x3d91ceca	0.0711952
103	0x3c52a6d7	0.0128571605
104	0xbddd8874	-0.10817042
105	0x3d49625e	0.049166076
106	0xbd4a2566	-0.049352072
107	0xbda41c8b	-0.08013257
108	0xbcb4862c	-0.022036634
109	0x3c12b5f3	0.008954513
110	0xbddf1c61	-0.10894085
111	0x3db06611	0.086132176
112	0x3ba2c64c	0.0049674865
113	0xbd3b211d	-0.045685876
114	0xbda17da3	-0.078852914
115	0xbda8f42f	-0.08249699
116	0xbca8c173	-0.020600056
117	0x3e630390	0.22169328
118	0xbca7c38b	-0.020478984
119	0x3ce45029	0.027870255
120	0xbca8b5b3	-0.020594453
121	0xbc474309	-0.0121619785
122	0x3df48cb2	0.11940898
123	0xbd1393d2	-0.036029644
124	0xbde31dd6	-0.11089675
125	0xbddce36a	-0.10785563
126	0x3cc50efb	0.024054995
127	0xbd63315d	-0.055467
128	0x3d18fb23	0.037348878
129	0x3da18bcb	0.078879915
130	0xbda22898	-0.07917899
131	0xbd656fb3	-0.056014728
132	0xbe0167a6	-0.12637195
133	0xbdb1b581	-0.08677197
134	0xbcec1213	-0.028817212
135	0x3d716732	0.058936305
136	0x3b188f4e	0.0023278776
137	0xbd85e502	-0.065378204
138	0xbd4fc539	-0.050725196
139	0x3e07a622	0.13246968
140	0x3cf7108e	0.030159261
141	0xbb801d5c	-0.00390975
142	0xbdab926d	-0.08377538
143	0xbe35b24a	-0.17743793
144	0x3d0fa8c9	0.035073075
145	0x3cc6dac6	0.024274241
146	0x3d2514f1	0.040303174
147	0xbdf69c04	-0.12041476
148	0x3dd69cbf	0.10479116
149	0xbcb5f3d9	-0.022211002
150	0xbbbcf78e	-0.0057668155
151	0xbd924737	-0.071424894
152	0x3e0e6e25	0.13909204
153	0x3de2a508	0.110666335
154	0xbd984693	-0.07435336
155	0x3c9f8370	0.019471854
156	0xbba877aa	-0.005141218
157	0x3dac9582	0.08426954
158	0xbe1df121	-0.15424015
159	0xbd16f71e	-0.036856763
160	0x3beec2e2	0.0072864154
161	0xbd413057	-0.04716524
162	0xbde894a4	-0.11356476
163	0xbcc62cb4	-0.024191238
164	0x3b798722	0.003807493
165	0xbc5bf369	-0.013424733
166	0x3cd3500e	0.025795009
167	0xbd4678a1	-0.048454884
168	0xbd5a8630	-0.053350627
169	0xbce6f9cd	-0.028195286
170	0xbc6c3a73	-0.014418232
171	0xbd442daa	-0.04789511
172	0x3c63d477	0.013905636
173	0xbd25da76	-0.040491544
174	0xbd64f7af	-0.055900272
175	0x3d95cb14	0.07314125
176	0x3e086eff	0.13323592
177	0xbd93776b	-0.072005115
178	0x3b4a9a5f	0.0030914766
179	0xbd42ef5a	-0.047591545
180	0x3ddc5624	0.107586175
181	0x3daeda1f	0.08537697
182	0xbca25804	-0.01981736
183	0x3dd47598	0.10373992
184	0xbd1e1bfd	-0.03860091
185	0xbd9e967e	-0.07743548
186	0x3bd48d9b	0.0064866072
187	0x3cb23597	0.02175407
188	0x3c819b58	0.015821144
189	0xbd608969	-0.054818545
190	0x3b854262	0.0040667513
191	0xbd063d1a	-0.032773115
192	0x3c4dd2e4	0.012562487
193	0x3d621fb1	0.055206005
194	0x3d528356	0.051394783
195	0x3dcefee9	0.10107214
196	0x3bdd0403	0.006744863
197	0xbca53e7c	-0.020171396
198	0xbd3b7f83	-0.0457759
199	0xbc93de36	-0.018050294
200	0xbda03648	-0.07822853
201	0x3dac357e	0.0840864
202	0xbda0433e	-0.078253254
203	0x3d9856d3	0.074384354
204	0xbceb0747	-0.028689994
205	0x3d2d7e5d	0.042356838
206	0x3d31ba34	0.043390468
207	0x3de365be	0.1110339
208	0x3d062a48	0.032755166
209	0x3c50e3c8	0.01274962
210	0xbc4e0e0f	-0.012576594
211	0xbe0a4a1b	-0.13504831
212	0xbe2c674b	-0.16836278
213	0xbdacb9fb	-0.084339105
214	0x3d8ed5fb	0.06974407
215	0x3d5db6fe	0.054129593
216	0x3c294e08	0.0103335455
217	0xbe07a256	-0.1324552
218	0x3d02f8c0	0.031975508
219	0xbc19fb3b	-0.009398277
220	0xbd83b0d1	-0.064302094
221	0xbd413365	-0.047168154
222	0xbdb89cf4	-0.090143114
223	0x3dbc0229	0.091800995
224	0xbc158c44	-0.00912768
225	0x3d897e08	0.06713492
226	0x3aba62b3	0.0014220088
227	0xbc36e1a7	-0.011162198
228	0x3dba2b05	0.090902366
229	0x3b5bbe65	0.0033530232
230	0xbe33a328	-0.17542708
231	0x3d4fdf63	0.050750148
232	0xbd0fba56	-0.035089813
233	0xbd0aff85	-0.03393509
234	0x3da6c56a	0.081431225
235	0xbdb47df7	-0.088130884
236	0x3c7640c6	0.015030092
237	0x3dc2ba7f	0.095082276
238	0xbe6a8122	-0.22900823
239	0x3d439aa3	0.047754895
240	0xbe2be890	-0.16787934
241	0xbca8dde3	-0.020613616
242	0xbd8c8c86	-0.0686274
243	0xbd7cc1ce	-0.061708264
244	0x3db2123d	0.08694885
245	0xbcc7e05e	-0.024398979
246	0x3e4b9c79	0.19883908
247	0xbdb3af48	-0.087736666
248	0xbcdb9db1	-0.026808592
249	0xbda90cad	-0.08254371
250	0xbd51d023	-0.051223885
251	0xbe196715	-0.14980729
252	0xbd0b5e23	-0.034025323
253	0xbcc34fa5	-0.023841688
254	0x3dd431d3	0.10361066
255	0xbe27a5fd	-0.16371913

network_body._body_endoder.seq_layers.4.bias f4 [256]
0	0xbcc6e658	-0.024279758
1	0x3c4a9848	0.012365408
2	0xbad74cd7	-0.0016426098
3	0x3c380893	0.011232513
4	0xbba51c9c	-0.005038811
5	0xbc70d968	-0.014700271
6	0x3cef0e84	0.029181726
7	0x3b06083f	0.0020451692
8	0xbcfde121	-0.030991139
9	0xbb62f53d	-0.0034631037
10	0xbceab031	-0.028648468
11	0xbb4132ec	-0.0029479815
12	0x3c7f4750	0.015580967
13	0xba6233a4	-0.0008628911
14	0x3c00398e	0.007826222
15	0xbd158d50	-0.03651172
16	0x3bce9743	0.006304653
17	0xbbf180cd	-0.0073700906
18	0xbcb54b34	-0.022130586
19	0x3c59143e	0.013249455
20	0x3caef17a	0.02135538
21	0x3a940c9d	0.0011295263
22	0x3cd27701	0.025691511
23	0x3ab37d2c	0.001369392
24	0xbc3320c2	-0.010933103
25	0x3bb136a2	0.005408124
26	0x3ca9c9b7	0.020726068
27	0x3caede4f	0.02134624
28	0x3c9d29bd	0.019184941
29	0x3c064c9f	0.008196979
30	0x3b894243	0.004188807
31	0x3ac40fc5	0.0014958313
32	0xbc0c1851	-0.008550719
33	0x3c55647f	0.013024448
34	0xbc46487e	-0.012102244
35	0xbc23be03	-0.009994033
36	0xbc28a0a1	-0.010292203
37	0x3c619bcd	0.013770056
38	0xbab0f404	-0.0013500457
39	0x3c514898	0.012773655
40	0xbbe82342	-0.007084281
41	0x3bca6832	0.006176972
42	0xbbb5c24a	-0.0055468427
43	0x3cad4e68	0.021155551
44	0x3c7bbdbd	0.015365061
45	0xbc47cdc2	-0.012195053
46	0x3bf983cf	0.0076145898
47	0xbc749436	-0.014927914
48	0x3bb799e0	0.00560306
49	0x3d190aeb	0.037363928
50	0xbaae7d4f	-0.0013312491
51	0x3bd1150a	0.006380682
52	0x3c26ea12	0.010187643
53	0xbc38d4e7	-0.011281229
54	0xbc6fa420	-0.014626533
55	0x3c2ae826	0.010431325
56	0x3c6bf40a	0.014401445
57	0xbb6b5419	-0.003590828
58	0xbc80c61a	-0.015719462
59	0xbbc1e528	-0.00591721
60	0xbc42cd87	-0.011889822
61	0x3c5e991a	0.013586307
62	0x3c1b92bc	0.009495433
63	0x3c912891	0.017719539
64	0x3c50c910	0.01274325
65	0xbc85b163	-0.016319936
66	0xbcb586df	-0.022159038
67	0x3cce4ed0	0.025184065
68	0xb95058bd	-0.00019869483
69	0xbc21200e	-0.009834303
70	0x3c56b83c	0.013105448
71	0xbcd5362a	-0.026026804
72	0x3c12177a	0.00891673
73	0xbb86f1f2	-0.0041181976
74	0xbd084de8	-0.033277422
75	0xbc90d352	-0.01767889
76	0x3ce7bcaa	0.028288204
77	0xbcac0dfc	-0.021002762
78	0x3c53f076	0.012935748
79	0xbcf15eb0	-0.029464096
80	0xbbf336d2	-0.0074223066
81	0x3c0bc4fa	0.00853085
82	0x3c84d075	0.016212681
83	0xbc024c4f	-0.007952764
84	0xbc3e044c	-0.011597704
85	0x3c5cb304	0.013470415
86	0xbc1b5d3d	-0.009482679
87	0x3ba7bf5c	0.0051192474
88	0x3cd46871	0.025928708
89	0x3b2d4e2e	0.0026444304
90	0xbc8a4a78	-0.016881213
91	0xbb7207f6	-0.0036931015
92	0xbb2a8dbc	-0.0026024422
93	0x3c5a0bb0	0.013308451
94	0xbc30e161	-0.010795922
95	0xbc83bbfc	-0.016080849
96	0x3a92a270	0.0011187326
97	0x3b72c6dd	0.0037044801
98	0xbc7c6408	-0.015404709
99	0x3bac9898	0.005267214
100	0x3bf39c39	0.0074343947
101	0x3c47a03a	0.012184197
102	0x3a82f500	0.0009991229
103	0x3b0c537a	0.002141206
104	0xba124df4	-0.0005581074
105	0xbadeff01	-0.0017013253
106	0x393b486a	0.00017860686
107	0xbc5b0db4	-0.013369966
108	0xbc05b6a6	-0.008161223
109	0xbcdf887c	-0.02728676
110	0x3ce0276e	0.027362552
111	0xbc4bb894	-0.012434144
112	0x3cc8654e	0.024462368
113	0xbc3eb473	-0.011639702
114	0x3ca4e416	0.020128291
115	0x3c912039	0.01771556
116	0xbc28a3ee	-0.01029299
117	0x3bfef164	0.007780241
118	0xbbbc427a	-0.0057452293
119	0x3c2d1418	0.010563873
120	0x3bd842be	0.006599753
121	0x3c8c06a0	0.017093003
122	0xba28b35f	-0.000643542
123	0xbc48769a	-0.012235308
124	0x39bdce3a	0.0003620254
125	0x3beb8ae8	0.00718819
126	0x3c3eb77c	0.011640426
127	0x3c982427	0.018571926
128	0xbccc9d76	-0.024977427
129	0xbbcb4075	-0.0062027522
130	0x3bd322d5	0.0064433613
131	0x3c66e0d4	0.014091689
132	0x3c2046c2	0.009782495
133	0x3c76ff47	0.015075511
134	0xbbf6a4af	-0.007526956
135	0x3ce289e7	0.027653648
136	0x3c832df0	0.016013116
137	0x3cf0772c	0.0293537
138	0x3c3a9f23	0.01139048
139	0xbbec1b98	-0.007205438
140	0xbbf39017	-0.0074329483
141	0xbbce1527	-0.0062891426
142	0xbcb8cff3	-0.022560095
143	0x3c59ebd9	0.013300859
144	0x3c03d721	0.008046896
145	0x3c167cc3	0.009185019
146	0xba862edd	-0.0010237355
147	0x3cd79f9a	0.026321221
148	0xbc68444a	-0.014176438
149	0x3b770657	0.0037692988
150	0x3cde1bf9	0.027112948
151	0x3c77fc50	0.01513584
152	0xbc9fd2e5	-0.019509742
153	0xba925e8b	-0.0011167092
154	0xbc5e0818	-0.013551734
155	0x3b966b75	0.0045904466
156	0x3c932aca	0.01796474
157	0x3c85cfda	0.016334463
158	0x3cac4371	0.021028252
159	0x3bb9886c	0.0056620147
160	0xbb073e46	-0.0020636483
161	0xbb7087d8	-0.0036702063
162	0xbc8aae7f	-0.01692891
163	0x3b09e29f	0.0021039618
164	0xbca85b07	-0.020551218
165	0x3bf971a3	0.0076124235
166	0x3a6cf58b	0.00090392743
167	0xbbcff428	-0.0063462444
168	0x3b93174f	0.0044888626
169	0x3b8f1cf5	0.0043674656
170	0x3a873a25	0.0010317011
171	0xbcc3daf4	-0.023908116
172	0x3aeceedf	0.001807656
173	0x3c77eeb3	0.015132594
174	0x3b6e510c	0.0036364226
175	0x3bf9bb7e	0.0076212278
176	0x3d0e8097	0.0347906
177	0x3a7b1a75	0.00095788325
178	0x3c1d908c	0.009616982
179	0xbc24ab4b	-0.010050605
180	0x3b0d4ad8	0.0021559503
181	0xbc583cfd	-0.0131981345
182	0x3c21eb08	0.009882696
183	0x3c664eed	0.014056903
184	0xbb9f33d1	-0.004858472
185	0x3b5a276e	0.0033287662
186	0x3cf5d995	0.030010978
187	0xbc842069	-0.016128736
188	0x39ec1a62	0.00045033084
189	0xbc207251	-0.00979288
190	0x3c57e945	0.013178174
191	0x3b09d160	0.0021029338
192	0xbbff786d	-0.0077963383
193	0x3cc55f88	0.024093404
194	0xbcc46f5d	-0.023978883
195	0x3d010d39	0.03150675
196	0x3c37e186	0.011223203
197	0x3ba348d8	0.004983049
198	0xbc0c4bb7	-0.008562974
199	0x3be7481d	0.007058157
200	0xba90d361	-0.0011049324
201	0xbc020c51	-0.007937507
202	0xbc66178b	-0.014043699
203	0xbbd31c24	-0.0064425636
204	0x3b7f00e1	0.0038910436
205	0xbc0b2628	-0.008492984
206	0x3c1bd23c	0.009510573
207	0xbc086229	-0.008324184
208	0x3c43e7c8	0.011957116
209	0x3c4ce771	0.012506352
210	0x3bdc9239	0.0067312983
211	0x3d5ffb64	0.054683104
212	0xbba33968	-0.0049812086
213	0xbcf8093e	-0.030277845
214	0x3c09f359	0.008419835
215	0xbcdbbc28	-0.026823118
216	0xbbfac868	-0.007653285
217	0x3a619c49	0.0008606357
218	0xbb9e26d7	-0.0048264074
219	0x3c70678d	0.014673126
220	0xbc951b23	-0.018201416
221	0xbba4c383	-0.0050281896
222	0x3bebb7e2	0.0071935514
223	0x3adda1e3	0.0016909208
224	0x3c7fafbd	0.015605864
225	0xbc46b803	-0.012128833
226	0xb9f87813	-0.00047391708
227	0x3c492ad6	0.012278279
228	0x3c8c72e1	0.017144622
229	0x3b2cd07d	0.0026369386
230	0xbc213dc6	-0.009841388
231	0xbc3bbd06	-0.011458641
232	0xbcb63488	-0.022241846
233	0x3ca1de70	0.019759387
234	0xbccc2fe9	-0.02492519
235	0x3b3c4cf7	0.0028732398
236	0x3acdc585	0.0015699124
237	0x3ca58ee4	0.020209737
238	0xbd692d99	-0.05692825
239	0x3a810e2e	0.0009846145
240	0x3a1b669d	0.00059280713
241	0x3c388754	0.0112627335
242	0x3c648a94	0.013949055
243	0x3ce72046	0.028213631
244	0x3c6ac7c8	0.014329858
245	0x3c98aee2	0.018638078
246	0xbc548a2a	-0.012972394
247	0x3c9ba741	0.019000651
248	0x3bd1a747	0.006398115
249	0x3c040219	0.008057141
250	0x3b3f510e	0.00291926
251	0x3d0a7cae	0.03381031
252	0xbcbd24c9	-0.02308883
253	0x3cd587ea	0.026065785
254	0xbc2f6a29	-0.010706463
255	0xbc2952d5	-0.01033469

action_model._continuous_distribution.log_sigma f4 [1, 39]
0	0x3d7359b7	0.05941173
1	0x3deeac70	0.116539836
2	0x3e0f0193	0.13965444
3	0x3d2a5005	0.04158022
4	0x3e237b32	0.15964964
5	0x3e0808ee	0.13284656
6	0x3c91de73	0.017806267
7	0x3d7f6431	0.06235141
8	0xbc97174f	-0.018443732
9	0x3da9e32c	0.08295283
10	0x3d181846	0.037132524
11	0x3d94bcea	0.07262595
12	0x3de22728	0.11042625
13	0x3de28a65	0.11061553
14	0x3df995ad	0.121867515
15	0x3ddd7a40	0.10814333
16	0x3dbf21dd	0.09332631
17	0x3e0cdc51	0.13755919
18	0x3dbb0eee	0.09133707
19	0x3dcb171a	0.09916516
20	0x3b71fbe1	0.0036923813
21	0x3d14b7cc	0.036308095
22	0x3d9b4c42	0.075829044
23	0x3da40d17	0.08010309
24	0x3e0dd8aa	0.13852182
25	0x3dde5476	0.108559534
26	0x3e0a699f	0.13516854
27	0x3ddd9353	0.108191155
28	0x3dd687e8	0.10475141
29	0x3db96e6b	0.09054264
30	0x3dd8df81	0.10589505
31	0x3ddb98f5	0.107225336
32	0x3dd7a473	0.10529413
33	0x3dd01fb5	0.10162298
34	0x3e091a21	0.13388874
35	0x3e14e766	0.14541396
36	0x3de12f07	0.10995298
37	0x3de60731	0.112318404
38	0x3e0607a1	0.13088848
