Assets/Brains/ArvidTests/ColTest1/Zombie Walker/Zombie Walker-100608.onnx (onnx, 280597 bytes, 9 tensors)

network_body._body_endoder.seq_layers.0.weight f4 [128, 239]
0	0xbb8bfae2	-0.004271851
1	0x3c25600c	0.0100937
2	0x3d4917fb	0.049095135
3	0x3cf140ef	0.029449908
4	0xbd9398c9	-0.07206876
5	0xbd9fbf04	-0.07800105
6	0x3de028a6	0.10945253
7	0x3da01167	0.07815819
8	0x3c0e5cf1	0.008689151
9	0xbca9264b	-0.020648142
10	0x3c23cea3	0.0099979965
11	0x3e18e7e5	0.1493221
12	0x3d062e02	0.03275872
13	0xbd381844	-0.044945017
14	0xbcb5e04b	-0.022201678
15	0xbd087289	-0.033312354
16	0xbc84d79c	-0.016216092
17	0xbd87155f	-0.06595873
18	0xbdb612ae	-0.088902816
19	0x3d1f0434	0.038822368
20	0x3d93bf06	0.07214169
21	0xbdca9d1e	-0.09893249
22	0xbda4d270	-0.0804795
23	0xbddce841	-0.107864864
24	0x3d14fb92	0.03637273
25	0xbd6dcff3	-0.058059644
26	0x3d7420a3	0.059601437
27	0xbd1c4e20	-0.038160443
28	0x3d5f65de	0.054540507
29	0xbab2b441	-0.0013634042
30	0x3d7eb857	0.06218752
31	0xbe06a927	-0.13150464
32	0xbdfefe90	-0.12450898
33	0x3da195bd	0.078898884
34	0x3dc9d28b	0.09854611
35	0xbd8ed2be	-0.0697379
36	0x3db46613	0.088085316
37	0xbd96a0d3	-0.073548935
38	0xb9828c37	-0.000249
39	0xbd375472	-0.044758268
40	0x3d0543ab	0.032535236
41	0x3d97a2a2	0.074040666
42	0x3db589c7	0.088641696
43	0x3d58ad88	0.052899867
44	0x3dca43b7	0.09876197
45	0x3abfcc6d	0.0014633067
46	0xbdba2610	-0.09089291
47	0x3db26503	0.08710673
48	0x3e05692b	0.130284
49	0xbd10ebf9	-0.03538129
50	0xbc4bfdd4	-0.012450654
51	0x3c2514d7	0.010075769
52	0xbdc36974	-0.09541598
53	0xbcb1176d	-0.021617616
54	0xbc3a67a0	-0.011377245
55	0xbc7fdc6f	-0.01561652
56	0x3e1541a2	0.14575818
57	0x3d8bc80f	0.068252675
58	0x3d9bdc28	0.07610351
59	0x3d9ba581	0.07599927
60	0x3d837854	0.06419435
61	0x3ced5cbc	0.028974883
62	0x3e3445b7	0.17604719
63	0x3db08d32	0.08620681
64	0xbd31f17c	-0.043443188
65	0x3dcd9e10	0.10039914
66	0xbe1bfa46	-0.1523219
67	0xbd498a78	-0.04920432
68	0x3c65056f	0.013978346
69	0x3c18f051	0.00933464
70	0xbe17dd82	-0.14830592
71	0xbcb70fa7	-0.02234633
72	0xbe471411	-0.19441248
73	0xbd5f3404	-0.054492965
74	0xbd68b94d	-0.05681734
75	0x3e1aa2cf	0.15101169
76	0x3c8b5f71	0.017013283
77	0xbcecd9ad	-0.02891239
78	0x3d7baf1d	0.061446298
79	0xbe0126dc	-0.1261248
80	0xbd2537be	-0.040336363
81	0xbdf580a9	-0.119874306
82	0xbd571960	-0.052514434
83	0x3d352c52	0.04423172
84	0xbc37390c	-0.011183035
85	0xbdb87eec	-0.090085834
86	0x3c712774	0.014718879
87	0x3de116f6	0.109907076
88	0x3be94298	0.0071185343
89	0x3d070f01	0.032973293
90	0x3e00f56d	0.12593623
91	0xbacffb7f	-0.0015867798
92	0x3d324138	0.04351923
93	0x3da36881	0.07978917
94	0x3d4a6230	0.049410045
95	0x3d179f86	0.037017368
96	0xbd7ea1f6	-0.062166177
97	0x3d227758	0.039664596
98	0x3e4dc7f0	0.20095801
99	0x3d8b6eeb	0.06808265
100	0xbcb3b0fd	-0.02193498
101	0xbe1ffda7	-0.15624104
102	0x3cd42e0d	0.025900865
103	0x3da37118	0.07980555
104	0xbccd6f4b	-0.025077483
105	0x3df6fe33	0.120602034
106	0x3db42b0a	0.087972715
107	0x3db2ce51	0.08730758
108	0xbdcc0120	-0.09961152
109	0x3d87223f	0.06598329
110	0x3dd4587c	0.103684396
111	0xbd87701c	-0.0661318
112	0xbc9da59b	-0.019244006
113	0x3d138d1b	0.03602324
114	0x3d6d08c2	0.05786968
115	0xbd7c6610	-0.061620772
116	0xbdbe4936	-0.09291308
117	0xbd631550	-0.055440247
118	0x3cad4aec	0.02115389
119	0x3dd1c49c	0.102425784
120	0xbc4f56e9	-0.012654998
121	0x3bc24c85	0.005929532
122	0xbc89db94	-0.016828336
123	0x3ac71ce0	0.00151911
124	0xbd16113c	-0.03663753
125	0xbc5a7f3e	-0.013336001
126	0xbe1a9e01	-0.15099336
127	0xbde11dcb	-0.10992011
128	0xbc6dcbec	-0.014513951
129	0x3c8dd571	0.01731369
130	0x3c89bc32	0.016813371
131	0xbd1d9acf	-0.038477715
132	0xbd961273	-0.07327738
133	0xbde60906	-0.1123219
134	0x3d431f3a	0.0476372
135	0x3d102f54	0.035201386
136	0x3d6e92e7	0.058245566
137	0x3dc189f5	0.09450141
138	0xbe2843d9	-0.16432132
139	0xbdb7ada7	-0.089686684
140	0x3c2ad4cd	0.010426712
141	0x3be7d1bb	0.0070745624
142	0xbc62b831	-0.01383786
143	0x3da4662d	0.08027301
144	0x3da51a5d	0.08061669
145	0xbae18bbe	-0.0017207784
146	0x3dac0275	0.08398906
147	0x3d3b8068	0.045776755
148	0xbdc72537	-0.09723895
149	0x3b9a096d	0.0047008307
150	0x3e19b8aa	0.1501185
151	0xbc98c18c	-0.018646978
152	0x3dfebc2d	0.124382354
153	0xbdbb89e5	-0.09157161
154	0x3ccc92b3	0.024972295
155	0xbce274af	-0.02764353
156	0x3d5e7c08	0.054317504
157	0xbc5df76d	-0.01354776
158	0x3c915266	0.017739486
159	0xbc556aee	-0.013025982
160	0xbd5c33f5	-0.053760488
161	0x3dfb4893	0.12269702
162	0xbbf005c5	-0.0073249065
163	0xbd6f58b5	-0.058434207
164	0xbda550ff	-0.080720894
165	0xbbd114fb	-0.006380675
166	0xbd07b771	-0.033133928
167	0xbd360dec	-0.04444687
168	0xbdf7efcc	-0.121062845
169	0xbd19b02f	-0.037521537
170	0x3d4773ef	0.048694547
171	0x3c76d6da	0.015065873
172	0x3c0469ea	0.0080818925
173	0x3d0303ae	0.03198593
174	0xbceae9ec	-0.028675996
175	0x3d85cb49	0.06532914
176	0xbd243610	-0.04009062
177	0xbdfbf068	-0.12301713
178	0xbd73b293	-0.059496474
179	0x3e2af25e	0.16694018
180	0xbd1745d7	-0.03693184
181	0x3e7be895	0.24600442
182	0xba80f7a3	-0.0009839426
183	0xbd5ece8f	-0.05439621
184	0xbdfb47ae	-0.12269531
185	0xbda6e257	-0.0814864
186	0x3cb0f856	0.02160279
187	0xbd29ae22	-0.04142583
188	0x3c58cb07	0.013231999
189	0xbd2a2c0c	-0.041545913
190	0xbe207551	-0.15669753
191	0x3dc2e40d	0.095161535
192	0xbdf36062	-0.11883618
193	0x3cdf7184	0.027275808
194	0x3d5c23d7	0.053745117
195	0xbcb8c783	-0.022556072
196	0x3e13a6fa	0.14419165
197	0x3d689f62	0.056792624
198	0xbd09a82c	-0.033607647
199	0x3d344512	0.044011183
200	0x3d8a2f5a	0.06747313
201	0x3d3fa844	0.04679133
202	0xbd122c64	-0.035686865
203	0xbd9e285a	-0.0772254
204	0x3d473ac2	0.04864002
205	0xbe4f7598	-0.20259702
206	0xbdc703a9	-0.09717495
207	0xbd8cae63	-0.06869199
208	0x3d22a9a9	0.03971258
209	0x3d87afb0	0.066253066
210	0xbd5355bb	-0.05159543
211	0xbdd3d52b	-0.10343393
212	0xbd8ad47d	-0.0677881
213	0xbd6ab05d	-0.0572971
214	0xbd28774a	-0.041129388
215	0x3db7efed	0.08981309
216	0xbd818c43	-0.06325581
217	0xbbbf7ba0	-0.0058435947
218	0x3deb988f	0.115037076
219	0xbd940012	-0.07226576
220	0xbb8fcfbc	-0.0043887775
221	0xbe0d1a3c	-0.13779539
222	0xbd8bd856	-0.06828372
223	0xbb80bdc4	-0.003928872
224	0xbe48a4d9	-0.19594134
225	0x3d5d089a	0.05396328
226	0x3d73ed45	0.05955245
227	0xbda66e63	-0.08126523
228	0xbcbc4113	-0.022980249
229	0x3d732a89	0.059366737
230	0x3ce54a94	0.027989663
231	0x3d1fc4f0	0.039006174
232	0x3d7569fe	0.059915535
233	0xbd97f1cf	-0.07419168
234	0x3d729ead	0.059233356
235	0xbcdd3fb7	-0.02700792
236	0xbd82fea7	-0.06396227
237	0xbd77a2de	-0.060458057
238	0x3cb8e155	0.022568384
239	0x3da13ecd	0.078733064
240	0x3d723a4d	0.05913763
241	0x3d01e8db	0.03171621
242	0xbddb3dfc	-0.10705182
243	0x3c6e02b3	0.014527011
244	0x3cb73880	0.022365808
245	0xbe25ca28	-0.16190398
246	0x3c4d337e	0.012524484
247	0x3c8a58f8	0.016888127
248	0x3d150408	0.036380798
249	0xbcfab70e	-0.030604865
250	0x3d8966bf	0.067090504
251	0xbcb28bcf	-0.021795182
252	0xbc965006	-0.018348705
253	0xbdb1ac30	-0.0867542
254	0xbdab7dce	-0.08373605
255	0x3ce22c7e	0.027609106

network_body._body_endoder.seq_layers.0.bias f4 [128]
0	0x3c5e37b9	0.01356309
1	0x3d18fe61	0.03735197
2	0x3bb8cd2b	0.0056396923
3	0xbcacdfc3	-0.021102792
4	0x3cb0dd79	0.021589981
5	0x3b4d3c60	0.0031316504
6	0xbbfb749e	-0.007673814
7	0xbc8df161	-0.017327012
8	0xbc5f677c	-0.013635512
9	0xbb608f13	-0.0034264966
10	0x3cccebc6	0.02501477
11	0xbacc4059	-0.0015583142
12	0xbb91fdaf	-0.0044552903
13	0xbbf5e8e4	-0.0075045694
14	0x3c6de3d7	0.014519653
15	0xbc0e0642	-0.008668484
16	0x3c1f80e6	0.009735322
17	0x3d08bc7e	0.033382885
18	0x3cf52a02	0.029927257
19	0xbb97920a	-0.0046255635
20	0x3d348ca2	0.04407943
21	0x3ce8b4a8	0.028406456
22	0xbc82eb48	-0.015981331
23	0xbc30bd64	-0.010787342
24	0x3b55e0a1	0.003263511
25	0xba1f0b0e	-0.0006067016
26	0x3c9a00c6	0.018799197
27	0xbbfdb682	-0.007742704
28	0x3c433d70	0.011916503
29	0x3c511339	0.012760931
30	0x3cccb6d6	0.024989527
31	0x3cb959d0	0.022625834
32	0x3cbbb039	0.022911178
33	0x3bfd9641	0.007738859
34	0x3cc53e42	0.024077538
35	0x3cce2592	0.0251644
36	0x3d05bb8d	0.032649565
37	0xbce8fe8f	-0.028441695
38	0xbd345b84	-0.04403259
39	0x3d08f3d1	0.033435646
40	0x39e8eef3	0.0004442852
41	0x3c7f66c7	0.015588469
42	0xbc72ee0d	-0.014827264
43	0x3cf315c0	0.029673457
44	0xbc576280	-0.013146043
45	0xbd479c28	-0.048732907
46	0x3cf62a0b	0.030049345
47	0x3bc78635	0.006088997
48	0x3cc3bccc	0.023893736
49	0xbc8c12ce	-0.01709881
50	0x3c887964	0.016659446
51	0x3d04defb	0.032439213
52	0xbb433355	-0.0029785235
53	0xbcb54cd1	-0.022131355
54	0xbce6cb8d	-0.028173232
55	0x3c0a6b29	0.008448401
56	0x3aa571b6	0.001262239
57	0xbc0b484f	-0.008501126
58	0x3d03e570	0.03220123
59	0xbb2159ec	-0.0024620248
60	0xbc10bbdd	-0.008833853
61	0x3c8166b6	0.015796047
62	0xbaa2dbc7	-0.0012425118
63	0x3c9da723	0.019244736
64	0x3c9d58cc	0.01920738
65	0x3cd1ed8e	0.02562597
66	0x3d78d3f0	0.060748994
67	0x3c747849	0.014921256
68	0x3cb3f16d	0.021965707
69	0x3d01d60e	0.03169828
70	0x3d0dcc7e	0.034618847
71	0x3a9a9c7c	0.0011795904
72	0xbc58b25f	-0.013226121
73	0x3cd54c5b	0.026037386
74	0xbbe3507b	-0.0069370843
75	0xbb35d546	-0.002774553
76	0xbd20ce3f	-0.03925919
77	0xbc38dfcd	-0.011283827
78	0x3c9af799	0.018916892
79	0x3cb79c25	0.022413323
80	0x3ba75c70	0.005107455
81	0x3ce34973	0.027744984
82	0x3c6ec3f2	0.014573084
83	0x3cd3e5bf	0.025866387
84	0xbc442523	-0.011971745
85	0x3ceffdd4	0.02929584
86	0x3c4f13e0	0.012639016
87	0x3c0d1d3c	0.008612927
88	0xbc7a9af9	-0.015295737
89	0x3cbbd25d	0.022927457
90	0x3c93fe46	0.018065583
91	0x3ce7004a	0.02819838
92	0x3c7a3603	0.015271666
93	0xbcf5b0ea	-0.029991586
94	0xbcc796a9	-0.024363833
95	0xbc6c34b6	-0.014416864
96	0x3cb43267	0.02199669
97	0xbc6e1b44	-0.014532868
98	0x3ab1735e	0.001353841
99	0x3bb60fca	0.0055560814
100	0xbc201340	-0.009770215
101	0x3c301a91	0.010748521
102	0x3c506ebe	0.0127217155
103	0x3b943958	0.0045234375
104	0x3ccf42be	0.02530038
105	0xbc9a27b6	-0.018817764
106	0xbc6e03ba	-0.014527256
107	0x3c710e1f	0.014712839
108	0x3b8ff0ab	0.0043927035
109	0x3cc3e659	0.02391355
110	0x3c6fe6c7	0.014642424
111	0xbbf5c66a	-0.0075004594
112	0xbb6e4146	-0.0036354824
113	0xbc8264fc	-0.015917294
114	0xbc8c2a7e	-0.017110106
115	0x3ce1151a	0.027475882
116	0xbad5d0f6	-0.0016312886
117	0x3c3443a5	0.011002456
118	0x3d176913	0.03696544
119	0xbb8fc865	-0.0043879026
120	0xbc110ae4	-0.008852694
121	0xbcdb9853	-0.026806032
122	0x3b22f6c2	0.0024866317
123	0x3be2bfa1	0.0069198166
124	0xb9b54308	-0.00034572952
125	0x3c81383b	0.015773883
126	0xbd0c28f7	-0.034218755
127	0x3cdb44cf	0.026766209

network_body._body_endoder.seq_layers.2.weight f4 [128, 128]
0	0xbc986611	-0.018603357
1	0xbd454328	-0.04815975
2	0x3cf9b7ab	0.030483088
3	0x3db0a9a3	0.08626106
4	0x3dded7bd	0.108809926
5	0x3cc73242	0.024315957
6	0x3e0c5673	0.13704853
7	0xbd8e0909	-0.06935317
8	0x3d9a7cd1	0.07543338
9	0x3dc4b794	0.09605327
10	0xbd97cdb6	-0.07412283
11	0x3de9f220	0.11423135
12	0x3d46d04b	0.048538487
13	0x3e033ff1	0.1281736
14	0xbd4ae430	-0.049534023
15	0x3ce7efd3	0.0283126
16	0xbdb141c4	-0.08655122
17	0x3dc4300c	0.09579477
18	0xbd9eb3b3	-0.07749119
19	0x3e2485d7	0.16066681
20	0xbdf50317	-0.1196348
21	0x3cd20a4e	0.02563968
22	0xbb8d419d	-0.0043108
23	0x3da17997	0.078845195
24	0xbdaf911a	-0.08572598
25	0x3d11fc5b	0.035641056
26	0x3e4d9cc8	0.20079339
27	0x3d18ae92	0.03727586
28	0x3de3001c	0.11084005
29	0x3e388d50	0.18022656
30	0x3d0ea740	0.03482747
31	0x3d477f3d	0.04870533
32	0x3caa0771	0.020755501
33	0x3cbd8fc0	0.023139834
34	0xbd5382d4	-0.05163844
35	0x3ab6709d	0.001391906
36	0xbd3a7445	-0.04552104
37	0xbd67e01b	-0.056610208
38	0x3cd2229b	0.025651267
39	0x3d86ea45	0.06587652
40	0xbda4086b	-0.08009418
41	0xba8b3c81	-0.001062289
42	0xbddef6fa	-0.10886951
43	0xbc15712f	-0.009121223
44	0xbdb93571	-0.09043396
45	0x3d1e193c	0.038598284
46	0xbbe9419c	-0.007118417
47	0x3d928f94	0.071562916
48	0x3d820025	0.06347684
49	0xbd68abc8	-0.05680445
50	0xbbe42549	-0.0069624525
51	0xbcaa2e9e	-0.020774182
52	0xbcd9f7b5	-0.026607374
53	0x3d37e5c7	0.044896867
54	0x3e3d9f98	0.18517911
55	0xbcc54799	-0.024081992
56	0xbd4b39f7	-0.049615826
57	0xbce6583d	-0.028118247
58	0xbd24ef4f	-0.040267285
59	0xbcdf7367	-0.027276708
60	0xbe0926e5	-0.13393743
61	0xbe3e3587	-0.18575107
62	0x3d3682ee	0.044558458
63	0x3e73c057	0.2380384
64	0xbd8b063e	-0.067883
65	0xbe1054d0	-0.14094853
66	0xbdba029e	-0.090825304
67	0xbe096a59	-0.13419475
68	0x3db268de	0.08711408
69	0x3d2a9af2	0.041651674
70	0x3d299a23	0.04140676
71	0xbd17ed2a	-0.03709141
72	0xbdca8ad2	-0.09889759
73	0x3d54dacd	0.051966477
74	0x3dce7d72	0.100825205
75	0xbd8e7192	-0.069552556
76	0xbdc8d190	-0.09805596
77	0xbd873578	-0.06601995
78	0x3dda1f10	0.10650456
79	0xbc107f6c	-0.008819442
80	0x3dbcd039	0.09219403
81	0x3e4a1009	0.1973268
82	0xbcd24203	-0.025666242
83	0xbd53dfe1	-0.05172718
84	0xbe71490e	-0.23563024
85	0xba8023a2	-0.0009776244
86	0x3e5842e1	0.21119262
87	0x3d3241b2	0.043519683
88	0xbdc4b6a7	-0.09605151
89	0xbd32cd43	-0.043652784
90	0xbb62a4a6	-0.0034583001
91	0x3e291a42	0.16513923
92	0xbcd5d806	-0.026103985
93	0x3de226e8	0.11042577
94	0xbd601852	-0.054710694
95	0x3b600063	0.0034179918
96	0xbd34c005	-0.044128437
97	0x3e0e55f0	0.1389997
98	0xbddb5c40	-0.10710955
99	0x3ce438fb	0.027859202
100	0x3d57c404	0.05267717
101	0xbca5665a	-0.020190407
102	0xbd1fc89b	-0.03900967
103	0x3e483612	0.19551876
104	0xbd849701	-0.06474114
105	0xbe06128a	-0.1309301
106	0xbcdce6e5	-0.026965568
107	0x3d811991	0.063037045
108	0x3cf53bb9	0.029935705
109	0xbe345242	-0.17609504
110	0x3b7b4e0f	0.0038346087
111	0x3e00c23a	0.12574092
112	0x3db26fef	0.08712756
113	0xbc6a5ac8	-0.0143038705
114	0x3caa3ede	0.02078193
115	0x3da02def	0.07821261
116	0x3e49bc0f	0.19700645
117	0x3ccd93ae	0.025094833
118	0x3d89682b	0.067093216
119	0x3d9f889b	0.07789727
120	0x3cd9b842	0.026577119
121	0x3d176702	0.03696347
122	0xbcad041b	-0.021120122
123	0x3ce0014e	0.027344372
124	0xbccb54a5	-0.024820635
125	0xbd5879f9	-0.052850697
126	0xbcfbf229	-0.03075512
127	0x3e28d095	0.16485818
128	0xbdbe6f7f	-0.0929861
129	0x3e0ef0cf	0.13959049
130	0x3e074e91	0.13213564
131	0x3db24a37	0.087055616
132	0x3e1cf4e8	0.153278
133	0xbccf0ce6	-0.025274705
134	0xbdc4e0c1	-0.09613181
135	0xbdacfd55	-0.08446757
136	0xbd35203e	-0.0442202
137	0x3e73a280	0.23792458
138	0x3da0a128	0.07843238
139	0x3dc22843	0.094803356
140	0xbdbfcf2e	-0.09365688
141	0x3d9d82aa	0.07690938
142	0xbd54221e	-0.05179035
143	0x3e199c7a	0.15001097
144	0xbdc13ce3	-0.09435441
145	0x3d2572ff	0.040392872
146	0xbe1c562b	-0.15267245
147	0x3cfd1fba	0.030898917
148	0x3c27d78b	0.010244261
149	0xbdb3cf4c	-0.08779773
150	0x3c9761a4	0.018479176
151	0xbdb6601d	-0.08905051
152	0x3afec2e0	0.0019436739
153	0x3b249bf0	0.002511736
154	0xbdb1191a	-0.08647366
155	0x3d2abdd6	0.041684948
156	0x3e2763fb	0.16346733
157	0xbd8ea7eb	-0.069656216
158	0x3d945f98	0.072447956
159	0x3e94a352	0.29030854
160	0xbbb52db3	-0.0055291294
161	0xbceb81f9	-0.0287485
162	0xbd20b8b0	-0.03923863
163	0x3e18d019	0.14923133
164	0x3e0d5dab	0.13805263
165	0x3d307f33	0.043090057
166	0x3ca0393b	0.01955854
167	0xbd3825fe	-0.044958107
168	0xbd4434c7	-0.047901895
169	0x3e129e23	0.14318137
170	0xbe2a94e7	-0.16658364
171	0x3e7e7eff	0.24853133
172	0xbd5e968a	-0.054342784
173	0x3dbf94e7	0.09354573
174	0xbe196d81	-0.14983179
175	0x3db143bd	0.08655498
176	0x3dd8ed73	0.10592165
177	0x3de8569a	0.11344643
178	0x3d903753	0.07041802
179	0x3e1e3e7b	0.15453522
180	0x3d63a834	0.055580333
181	0xbce5c701	-0.028048994
182	0x3ddfbf0e	0.10925113
183	0xbe126db0	-0.14299655
184	0x3cd9407c	0.026520006
185	0x3dc01996	0.0937988
186	0xbe080789	-0.13284124
187	0x3d08a669	0.033361826
188	0xbb03f483	-0.0020134754
189	0xbc58c83c	-0.013231333
190	0xbd9722d3	-0.07379689
191	0xbdf0a55d	-0.117502905
192	0x3bc1f719	0.005919349
193	0x3e466c14	0.19377166
194	0x3dd5195e	0.10405229
195	0xbe0d54cc	-0.13801879
196	0x3d1c0b06	0.03809645
197	0xbe1105de	-0.14162394
198	0xbdd28037	-0.10278361
199	0x3e860d0d	0.26181832
200	0x3c7a871e	0.0152910035
201	0x3cfc45db	0.030795028
202	0xbde1850d	-0.110117055
203	0xbca0a7b9	-0.019611226
204	0x3c4686d5	0.012117107
205	0x3d9879fe	0.07445143
206	0xbdb2f34e	-0.08737813
207	0xbdfc490e	-0.123186216
208	0x3da22b7b	0.079184495
209	0xbc8245d6	-0.015902441
210	0xbd635bc1	-0.055507425
211	0x3d88750d	0.06662951
212	0x3e1efc41	0.15525915
213	0x3da4d785	0.080489196
214	0xbdaaed76	-0.08346073
215	0x3d9add6b	0.075617634
216	0xbdf132d9	-0.117772765
217	0xbc30d2c8	-0.010792442
218	0xbcd662a9	-0.026170092
219	0x3c9ede71	0.019393178
220	0x3e6bb808	0.23019421
221	0x3e115388	0.14192021
222	0xbcd7a550	-0.026323944
223	0x3d9cefbe	0.07662915
224	0xbcebef90	-0.028800756
225	0x3b4f4c0b	0.0031631019
226	0x3d0cffa9	0.034423504
227	0xbd2d5521	-0.042317513
228	0xbd46c9c2	-0.048532255
229	0xbcc25be1	-0.023725452
230	0x3c06df9b	0.008232023
231	0x3c788dd4	0.015170533
232	0x3db6ba7d	0.089222886
233	0x3c64afc5	0.013957922
234	0x3b383da4	0.0028112913
235	0x3ddba6e7	0.107251935
236	0xbd20cabb	-0.03925584
237	0x3e14c2fb	0.14527504
238	0x3da13a35	0.0787243
239	0xbbaf19d5	-0.0053436556
240	0xbcaf81eb	-0.021424254
241	0xbcfd78f6	-0.030941468
242	0x3cd1835e	0.025575336
243	0xbe2172c0	-0.1576643
244	0xbb4f64dc	-0.003164581
245	0xb9c72dca	-0.00037990353
246	0xbd8746de	-0.06605314
247	0x3d818d76	0.0632581
248	0x3d798a25	0.06092276
249	0x3db7c59f	0.0897324
250	0x3daf82e7	0.085698895
251	0xbc07d8c7	-0.00829143
252	0xbcb54bca	-0.022130866
253	0x3de6e6a6	0.112744614
254	0x3e4acd1f	0.1980481
255	0xbd2d5c67	-0.04232445

network_body._body_endoder.seq_layers.2.bias f4 [128]
0	0x3c91d42b	0.017801365
1	0xbcef575e	-0.029216465
2	0xbacbf655	-0.0015561084
3	0xba22a5c5	-0.0006204511
4	0xbcc58272	-0.024110053
5	0x3c5743fc	0.013138767
6	0xbbb03ea8	-0.005378563
7	0xbc31984b	-0.010839532
8	0xbba31aea	-0.0049775736
9	0x3aa4e92f	0.0012581701
10	0xba7890d0	-0.0009482028
11	0x3d2a566e	0.041586332
12	0x3ca1a97c	0.019734137
13	0xbcccc86a	-0.024997909
14	0x3bf8aa73	0.0075886785
15	0x3d39ac0e	0.0453301
16	0x3c6c26f3	0.014413583
17	0x3d107f2a	0.035277523
18	0xbc613ce5	-0.013747429
19	0xbb9a8570	-0.004715614
20	0xbc5d6850	-0.01351364
21	0xbcf21e9c	-0.029555611
22	0xbca25917	-0.019817872
23	0xbbc03ff1	-0.0058669974
24	0x3d256643	0.040380727
25	0x3d09d07a	0.033646084
26	0x3ce23f9e	0.027618226
27	0x3c160326	0.009156024
28	0x3c0c814b	0.008575748
29	0xbc5d5c7a	-0.013510818
30	0xbb31a6b8	-0.0027107429
31	0xbaadaf3a	-0.0013251074
32	0x3bf4f6d5	0.0074757137
33	0x3ceaee00	0.02867794
34	0xbc0ce735	-0.008600046
35	0x3c95d215	0.018288651
36	0x3c9e847f	0.019350288
37	0xbb5365f4	-0.0032256814
38	0xbce50478	-0.027956232
39	0xbcf51fbc	-0.029922359
40	0xbc9e1321	-0.01929623
41	0x3d0b55a8	0.034017235
42	0xbc01c7ad	-0.007921142
43	0x3babfbd7	0.0052485275
44	0x3d1ec73a	0.038764216
45	0x3d06722c	0.032823727
46	0xbd1b3771	-0.03789467
47	0x3c5cd92f	0.013479515
48	0x3ca7b02c	0.020469747
49	0x3bd9bede	0.0066450676
50	0xbc495452	-0.01228817
51	0xbb4f9c6d	-0.003167893
52	0x3c0ad929	0.008474627
53	0x3d3f77c6	0.046745084
54	0x3b3aec0a	0.0028522038
55	0x3b8cc32e	0.004295728
56	0x3b6a5861	0.0035758244
57	0x3b76b678	0.003764538
58	0x3d4e661c	0.050390348
59	0x3d4663f6	0.048435174
60	0x3b181ec8	0.0023211706
61	0x3c07c964	0.008287761
62	0x3c54e369	0.012993672
63	0x3ce3c48e	0.027803686
64	0x3ca961c3	0.0206765
65	0x3c5f7058	0.013637625
66	0x3caeaeb7	0.021323545
67	0x3a17f7b0	0.0005797101
68	0x3cc7b9c6	0.024380576
69	0x3c98c032	0.018646333
70	0xbcf24fd5	-0.029579083
71	0x3d072690	0.03299576
72	0xbbe2969f	-0.006914928
73	0x3c7affaa	0.015319744
74	0x3c52e2c7	0.012871451
75	0xbcd98978	-0.026554808
76	0xbba37c75	-0.0049892017
77	0x3cf2fb1f	0.02966076
78	0x3c060ec7	0.008182234
79	0x3c9467c6	0.01811589
80	0x3a6895c0	0.0008872412
81	0xbb56ca26	-0.0032774298
82	0x3c7eb7b7	0.015546731
83	0xbc3b7ffd	-0.011444089
84	0xbbe8c771	-0.0071038534
85	0x3c92cfcd	0.017921353
86	0x3b5ab9a6	0.0033374815
87	0x3d40ef75	0.047103364
88	0x3ce7abad	0.028280104
89	0xbb6a691a	-0.0035768212
90	0xbcbbfc27	-0.022947384
91	0xbd24fd5c	-0.040280685
92	0x3c94da14	0.018170394
93	0x3c7819d6	0.0151428785
94	0xbc02ca14	-0.0079827495
95	0x3c9ec477	0.019380791
96	0xbd0f9f1c	-0.035063848
97	0xbc81e183	-0.015854603
98	0xbcef8064	-0.029236026
99	0x3c4a9e09	0.01236678
100	0x3bfba25d	0.0076792673
101	0x3c193b15	0.009352465
102	0xbd097b43	-0.033564817
103	0xbbe070eb	-0.0068493984
104	0x3d357955	0.044305164
105	0x3ce909a8	0.028446987
106	0x3cb479bc	0.022030704
107	0xbc6eeb10	-0.01458241
108	0xba2745d4	-0.00063809496
109	0xbc9f620b	-0.01945593
110	0x3c2e5828	0.010641135
111	0x3c755aba	0.014975244
112	0xbc47b9b0	-0.012190267
113	0xbd45afe3	-0.04826344
114	0x3cc5829e	0.024110135
115	0x3c872a0a	0.016499538
116	0xbc0becab	-0.008540313
117	0x3c060bab	0.008181493
118	0xbb32e31d	-0.0027296015
119	0x3ca4309a	0.020042706
120	0x3d189dba	0.037259795
121	0xbd18dabf	-0.037317988
122	0x3c701b08	0.014654882
123	0xbc9242f9	-0.0178542
124	0xbcad8d25	-0.021185467
125	0x3ce189e9	0.027531581
126	0x3b90c037	0.004417445
127	0xbc840473	-0.016115403

network_body._body_endoder.seq_layers.4.weight f4 [128, 128]
0	0xbdf8f436	-0.121559545
1	0xbd8cc66e	-0.06873785
2	0xbd912838	-0.07087749
3	0xbdab240b	-0.08356484
4	0x3e1bf898	0.1523155
5	0xbd95e091	-0.07318223
6	0x3cc1a40b	0.023637792
7	0x3d394a4c	0.04523687
8	0xbd8c8519	-0.06861324
9	0xbdc1a9f8	-0.09456247
10	0x3d548dcf	0.05189305
11	0xbc76bb67	-0.015059329
12	0xbe83158b	-0.25602373
13	0x3e4dd0a9	0.20099129
14	0x3d11ca6e	0.035593443
15	0x3dab8a67	0.083760075
16	0xbba40391	-0.005005308
17	0x3dec1420	0.11527276
18	0xbd1ce5e7	-0.03830519
19	0xbbd3dfa6	-0.00646587
20	0x3c860dd5	0.016364018
21	0xbc2f6e13	-0.010707396
22	0xbdc3450f	-0.09534656
23	0x3d3b4083	0.04571582
24	0xbd9d8a09	-0.07692344
25	0xbd792a5d	-0.060831416
26	0xbdeaf14e	-0.114718065
27	0x3e2174c9	0.15767206
28	0xbd64189b	-0.055687528
29	0xbdc1a366	-0.09454994
30	0x3d56774f	0.052359875
31	0xbd11ebc3	-0.03562523
32	0xbc4ee34c	-0.012627434
33	0x3e22287c	0.15835756
34	0xbdd17e33	-0.10229149
35	0x3e34922a	0.17633882
36	0xbc368c40	-0.011141837
37	0xbe242fc1	-0.16033842
38	0xbc21a8dd	-0.00986692
39	0x3e46b725	0.19405802
40	0xbd8d26f7	-0.068921976
41	0x3d3a5ef2	0.045500703
42	0xbc98f055	-0.018669287
43	0xbde82d62	-0.11336781
44	0xbbea3088	-0.0071468987
45	0xbd8bff03	-0.06835749
46	0x3d992294	0.074772984
47	0xbc053031	-0.0081291655
48	0x3d87280d	0.06599436
49	0xbe067921	-0.13132145
50	0xbdad4ebe	-0.084622845
51	0xbd817d8c	-0.06322774
52	0xbd0bcfb1	-0.034133617
53	0x3d47d8b9	0.048790667
54	0x3c8dbef9	0.017302977
55	0xbd5a3d11	-0.053280894
56	0xbcab2eca	-0.020896334
57	0xbd387b55	-0.045039494
58	0x3c8b64f6	0.017015915
59	0xba91563e	-0.0011088324
60	0x3da3f378	0.08005422
61	0x3db89738	0.09013218
62	0xbe39cbb7	-0.18144117
63	0x3d1737ba	0.03691838
64	0xbcc0227d	-0.023453945
65	0x3d330d5b	0.04371391
66	0xbdae8ad3	-0.08522572
67	0x3c6ac5be	0.014329372
68	0xbe6c501a	-0.23077431
69	0xbd22b80d	-0.039726306
70	0xbd4ed316	-0.050494276
71	0xbd6ffe8f	-0.058592375
72	0x3de27137	0.1105675
73	0xbc03c108	-0.008041628
74	0xbdae7e5f	-0.08520197
75	0x3d8dc91c	0.06923124
76	0xbc544441	-0.012955726
77	0x3b700c73	0.0036628514
78	0x3dea65c8	0.114451945
79	0xbd942d4f	-0.072352044
80	0x3c1deae6	0.009638524
81	0x3e1cfb2e	0.15330192
82	0x3d195c98	0.03744182
83	0x3c9001dd	0.017579013
84	0x3d8aa13f	0.067690365
85	0xbd02624a	-0.031832017
86	0xbde69149	-0.1125818
87	0x3e1ce604	0.15322119
88	0x3e5821c9	0.21106638
89	0xbe12f6ad	-0.14351912
90	0x3df787f1	0.12086476
91	0xbc215a48	-0.009848185
92	0xbdcfab9e	-0.10140155
93	0x3c626b26	0.0138194915
94	0x3e3399db	0.1753916
95	0xbe30fce2	-0.17283967
96	0x3d9411d5	0.07229964
97	0x3e084df2	0.13310984
98	0xbe3cf02e	-0.18450996
99	0xbc98d8fe	-0.018658157
100	0x3d31a78c	0.043372676
101	0x3e36fcf2	0.17869928
102	0x3bf0cbd7	0.0073485184
103	0xbda76d05	-0.08175091
104	0xbdd3591e	-0.10319732
105	0x3c0a02b9	0.008423501
106	0x3e17c912	0.14822796
107	0xbe010fa2	-0.1260362
108	0x3bcdd88a	0.006281917
109	0x3dafca47	0.08583503
110	0x3dc46d14	0.095911175
111	0xbd2240fe	-0.039612763
112	0xbd45e7c6	-0.04831674
113	0xbd1f3f83	-0.03887893
114	0x3d721b47	0.059108045
115	0xbd491107	-0.049088504
116	0xbe38dcb9	-0.18052949
117	0xbe17fb0b	-0.14841859
118	0x3d0d1be3	0.034450423
119	0xbd3a0e47	-0.045423772
120	0xb91e33c1	-0.00015087334
121	0xbe5d1917	-0.21591602
122	0x3d437409	0.04771808
123	0x3e29261d	0.16518445
124	0xbd9e3a03	-0.077259086
125	0xbc692920	-0.014230996
126	0x3d01da05	0.03170206
127	0x3d0ca748	0.03433922
128	0x3e02ef98	0.1278671
129	0x3dc6c2b7	0.09705108
130	0xbdfb80e6	-0.12280445
131	0xbe0fe36d	-0.140516
132	0xbd33bcb2	-0.043881126
133	0xbe1c06d0	-0.15236974
134	0x3d6c04b6	0.05762168
135	0xbdb1182c	-0.086471885
136	0xbde03363	-0.10947301
137	0xbc90c8d9	-0.017673897
138	0xbe1596ab	-0.14608257
139	0x3d16fffc	0.03686522
140	0x3db135f8	0.08652872
141	0x393719f9	0.00017461916
142	0xbdf835d3	-0.12119641
143	0x3d1039fe	0.035211556
144	0x3d1f6da2	0.038922913
145	0xbc5d6292	-0.0135122705
146	0xbc4da4c5	-0.012551491
147	0xbc85cd6c	-0.016333304
148	0x3d988730	0.0744766
149	0x3d449583	0.047994148
150	0xbce1037e	-0.027467486
151	0x3e46fd65	0.194326
152	0xbcf8653f	-0.030321715
153	0x3d658ee0	0.05604446
154	0xbc5f277d	-0.013620255
155	0xbce0e466	-0.027452659
156	0x3dc6e63e	0.09711884
157	0x3d9cf989	0.076647826
158	0x3be7c148	0.0070726015
159	0x3db2f2cd	0.08737717
160	0xbc1700b7	-0.009216479
161	0xbdaa492f	-0.0831474
162	0x3cd54728	0.026034907
163	0xbe5850cc	-0.21124572
164	0xbd0fd8f9	-0.03511903
165	0xbd2ba048	-0.041900903
166	0xbd81b79e	-0.0633385
167	0x3cb9e6a3	0.022692984
168	0xbd4e6035	-0.05038472
169	0xbb8ee9cb	-0.0043613664
170	0xbcc746bc	-0.024325721
171	0x3d154a08	0.036447555
172	0xbca5b5f5	-0.020228365
173	0xbd8daee6	-0.06918125
174	0x3e42878f	0.18997024
175	0x3b3c5509	0.0028737208
176	0xbdd2b265	-0.10287932
177	0x3d363ac4	0.044489637
178	0x3d8b0fa5	0.06790093
179	0xbccb30ce	-0.024803545
180	0x3beabd57	0.0071636843
181	0x3c2beed8	0.0104939565
182	0xbe315460	-0.17317343
183	0x3c81d2e7	0.015847636
184	0xbe176cc8	-0.1478759
185	0x3c7ff67f	0.015622734
186	0x3e05f422	0.1308141
187	0xbcf157ed	-0.029460872
188	0xbdd04608	-0.101696074
189	0x3d634f70	0.05549568
190	0xbd87e6f1	-0.066358455
191	0xbe3345bf	-0.17507075
192	0x3d2ea138	0.04263422
193	0xbcc2295f	-0.023701368
194	0x3db33b27	0.08751517
195	0xbe339346	-0.17536649
196	0x3e3fd896	0.18734965
197	0x3c066643	0.008203092
198	0xbd3bb9b0	-0.045831382
199	0xbd6d6436	-0.057956897
200	0x3e5bedfc	0.21477503
201	0x3d82f2e7	0.06393986
202	0x3c4c4794	0.012468237
203	0x3d99ab3d	0.07503364
204	0xbdd33f05	-0.103147544
205	0xbd936268	-0.07196504
206	0x3d40da49	0.047083173
207	0x3ca4db35	0.020124057
208	0x3cf9b0d7	0.030479832
209	0x3cd05cf6	0.025434952
210	0xbd76757c	-0.060170636
211	0x3dc95b93	0.098319195
212	0x3d5b4d6e	0.05354064
213	0xbd11ef74	-0.03562875
214	0x3d1f5150	0.038895905
215	0xbe3c0e3e	-0.18364808
216	0xbdb0026c	-0.08594212
217	0xbd53524d	-0.05159216
218	0x3aa3e1ab	0.0012503167
219	0x3deadacc	0.114675134
220	0xbc343174	-0.010998119
221	0x3c7a66a5	0.015283261
222	0x3ca38431	0.019960495
223	0x3de9687e	0.113968834
224	0xbd52804f	-0.051391896
225	0x3dd67bd6	0.104728386
226	0xbca1eb50	-0.019765526
227	0x3d5a7bc1	0.053340677
228	0x3da55052	0.080719605
229	0xbdc59351	-0.09647239
230	0x3d4fa511	0.05069453
231	0xbd952fa5	-0.07284478
232	0xbd8a77bf	-0.06761121
233	0x3da45b80	0.08025265
234	0xbdb61442	-0.088905826
235	0xbd8715d7	-0.065959625
236	0x3e37b787	0.17941104
237	0xbd1ddff8	-0.03854367
238	0xbddd0bc3	-0.10793259
239	0x3def0214	0.11670318
240	0xbe20760f	-0.15670036
241	0x3dc3929f	0.0954945
242	0xbd22e768	-0.039771467
243	0x3d6270d3	0.05528338
244	0xbd83b454	-0.06430879
245	0xbd8d2687	-0.06892114
246	0xbdb7d504	-0.089761764
247	0xbe0cc42f	-0.13746713
248	0xbb3b0ec4	-0.0028542737
249	0xbc153aa0	-0.009108216
250	0xbcf6c8ea	-0.0301251
251	0xbd8450e6	-0.06460743
252	0x3de233bd	0.110450245
253	0xbd560d37	-0.052258696
254	0xbe1e847a	-0.15480223
255	0xbdb599b8	-0.0886721

network_body._body_endoder.seq_layers.4.bias f4 [128]
0	0xbce2225f	-0.02760428
1	0xbac44d8d	-0.0014976725
2	0x3c8be55b	0.017077139
3	0x3c8c5754	0.017131485
4	0x3997ca0a	0.00028951495
5	0xbc4ba861	-0.012430281
6	0xbc80c3a4	-0.015718289
7	0xbc415d5f	-0.011802047
8	0xbcc70baf	-0.024297563
9	0x3bddcdfb	0.0067689396
10	0x3b0c4a36	0.0021406538
11	0xbcf3818e	-0.029724862
12	0x3b9c689f	0.004773214
13	0x3c8e90d7	0.01740305
14	0x3c0e89f1	0.00869988
15	0xbccc84b1	-0.024965616
16	0xbc9d84c2	-0.019228343
17	0x3b93a4ed	0.0045057447
18	0x3c914378	0.017732367
19	0xbb93f2c6	-0.004515025
20	0x3b10ac17	0.002207523
21	0x3c87f546	0.016596448
22	0xbc8f6c48	-0.017507687
23	0xbcbcb7b9	-0.023036825
24	0xbca28b31	-0.019841762
25	0x3bd949ed	0.006631127
26	0x3d88d497	0.06681173
27	0x3c60c57f	0.013718962
28	0xbd1004d8	-0.03516087
29	0xbbd0b577	-0.0063692885
30	0xbc3e9833	-0.011632967
31	0x3c832ade	0.016011652
32	0x3ab519da	0.0013816908
33	0x3cec31a7	0.02883227
34	0x3cdfdd57	0.027327223
35	0xbcbabb96	-0.022794526
36	0x3c8e2f73	0.01735661
37	0xbc73d669	-0.014882662
38	0x3bc36ad4	0.0059636626
39	0xbc8cb444	-0.017175801
40	0x3ba774a0	0.0051103383
41	0xbc5ad528	-0.0133564845
42	0x3c508682	0.012727382
43	0x3c8cac5d	0.017172033
44	0x3b1ae279	0.0023633523
45	0xbd3727d8	-0.044715732
46	0xbc71dad8	-0.014761649
47	0x3d29236e	0.041293554
48	0xbbaa5509	-0.0051981253
49	0x398c1524	0.00026718632
50	0x3c54b59e	0.012982754
51	0xbd4e5e6d	-0.05038302
52	0xba122a5a	-0.0005575769
53	0x3b583e95	0.0032996286
54	0x3c46594f	0.012106254
55	0xbb0725f3	-0.0020621985
56	0xbb40ba0d	-0.002940777
57	0x3b889d39	0.004169133
58	0x3cd703e3	0.02624697
59	0x3cd1da24	0.025616713
60	0xbcc39845	-0.023876319
61	0xbbb2f666	-0.005461502
62	0xbc184048	-0.00929267
63	0x3b27acdf	0.0025585217
64	0x3d0677b1	0.03282899
65	0x3d1d18af	0.03835362
66	0x3cb45dcd	0.022017384
67	0x3ca7c3dd	0.020479137
68	0x3c334f20	0.010944158
69	0x3c54a34e	0.012978388
70	0xbca164d0	-0.019701391
71	0x3c69cc30	0.0142698735
72	0x3bffe206	0.0078089265
73	0x3d3f1fd2	0.046661206
74	0xbc96fc0b	-0.01843073
75	0xbd0e7a60	-0.034784675
76	0x3ce2c763	0.027682966
77	0xbcc69e46	-0.024245393
78	0x3d287c44	0.041134134
79	0x3c5956e3	0.013265344
80	0xbd05b201	-0.03264046
81	0xbc01d7dc	-0.007925
82	0xbc226e01	-0.009913922
83	0xbccb8b35	-0.024846653
84	0xbc3683dd	-0.011139837
85	0x3c14180c	0.009038936
86	0x3c570514	0.013123769
87	0xbc91c834	-0.01779566
88	0x3c26b958	0.010176025
89	0x3d7f21e8	0.062288195
90	0xbc153234	-0.009106208
91	0x3ca80998	0.020512387
92	0xbc89d1c6	-0.01682366
93	0x3c0cda9a	0.008597041
94	0x3a1a99b5	0.0005897538
95	0xbbdb89c2	-0.0066997716
96	0xbcd07433	-0.025446033
97	0x3cbdce5e	0.023169693
98	0x3c17b1ad	0.00925867
99	0x3b18fcb4	0.0023343982
100	0x3bf47e4f	0.007461346
101	0xbc0d7ee7	-0.008636213
102	0x3bb3dab8	0.00548872
103	0x3a4ac091	0.0007734383
104	0xbc628570	-0.013825759
105	0x3c982c13	0.018575704
106	0xbd39a210	-0.04532057
107	0xbcd0f8eb	-0.025509318
108	0x3cb7c170	0.022431105
109	0x3dd3af45	0.103361644
110	0x3d0332aa	0.03203074
111	0x3c33c8cc	0.010973167
112	0xbc60b007	-0.013713843
113	0xbcf430bc	-0.029808395
114	0x3b9c8453	0.0047765165
115	0x3d1e6e99	0.038679693
116	0x3ad5f797	0.0016324398
117	0xbc2ce80f	-0.010553374
118	0xbb8f98b0	-0.0043822154
119	0x3c89e8fd	0.01683473
120	0xbc59bce3	-0.013289663
121	0xbcba1e8d	-0.022719646
122	0xbbd785bf	-0.006577223
123	0x3d2caf67	0.042159464
124	0x3cbd686c	0.023121081
125	0x3c219a90	0.009863511
126	0x3bd2d51c	0.006434096
127	0xbcac2b5b	-0.021016767

action_model._continuous_distribution.log_sigma f4 [1, 39]
0	0xbd85b953	-0.065294884
1	0xbd909bae	-0.070609435
2	0xbdda12a1	-0.106480844
3	0xbd5a0086	-0.053223155
4	0xbded9012	-0.11599745
5	0xbd0c9388	-0.034320384
6	0xbe1caee4	-0.1530109
7	0xbe0ab793	-0.1354659
8	0xbdd289ab	-0.10280164
9	0xbce155b7	-0.027506692
10	0xbde904da	-0.113778785
11	0xbd459ae5	-0.048243422
12	0xbb88ac5e	-0.0041709384
13	0xbde0f73d	-0.10984657
14	0xbd500d60	-0.050794005
15	0xbc9e3872	-0.019314025
16	0xbdb217ab	-0.086959206
17	0xbdb8c2c1	-0.09021521
18	0xbe1374a5	-0.14399965
19	0xbe293864	-0.16525418
20	0xbd876eb4	-0.06612912
21	0xbdba13ba	-0.09085794
22	0xbd908f72	-0.0705861
23	0xbdb9e66d	-0.09077153
24	0x3c66411e	0.014053611
25	0xbd8ff19d	-0.07028506
26	0xbc7a5c12	-0.01528074
27	0xbda1d169	-0.0790127
28	0xbde2df73	-0.11077776
29	0xbd3dede7	-0.04636946
30	0xbda6069b	-0.08106729
31	0xbd9910ff	-0.07473945
32	0xbde0b463	-0.10971906
33	0xbcb62a42	-0.022236947
34	0xbd809c83	-0.06279852
35	0xbd5db43c	-0.054126963
36	0xbe1c1f10	-0.15246224
37	0xbd8205b1	-0.06348742
38	0xbdaa2206	-0.08307271

action_model._continuous_distribution.mu.weight f4 [39, 128]
0	0x3d31ced2	0.04341013
1	0x3c9e3ebc	0.019317023
2	0xbc31fce4	-0.0108635165
3	0xba4f1adf	-0.00079004274
4	0x3d491628	0.049093395
5	0xbc9f1208	-0.019417778
6	0x3d41e087	0.047333267
7	0xba6c24e7	-0.00090081844
8	0xbd2db724	-0.042410985
9	0x3c8ed3b8	0.01743494
10	0x3c9a3e58	0.018828556
11	0x3d195eca	0.037443914
12	0x3cba04c0	0.022707343
13	0x3d635384	0.05549957
14	0x3d3455bf	0.044027086
15	0x3d5a98cc	0.053368375
16	0x3c24495a	0.010027254
17	0xbc0db4af	-0.008649035
18	0x3d059e35	0.03262158
19	0xbbf94482	-0.0076070437
20	0x3c3f2eb4	0.01166885
21	0x3bb30646	0.0054633943
22	0x3d8eec06	0.06978612
23	0xbc2c0369	-0.01049886
24	0x3c8ec963	0.017430013
25	0xbd37d53d	-0.044881094
26	0x3c4f1c4c	0.012641024
27	0x3d46df64	0.048552886
28	0xbcdc591d	-0.026897961
29	0xba824604	-0.0009939079
30	0xbd2f4d68	-0.04279843
31	0x3d55628a	0.052095927
32	0xbd96501a	-0.07339497
33	0xbc977b46	-0.018491399
34	0x3c2f4222	0.01069692
35	0xbcc2afd2	-0.023765478
36	0x3aeb5dda	0.0017957047
37	0x3d11487d	0.03546952
38	0x3cff06cc	0.03113117
39	0x3cb10965	0.021610925
40	0x3c10b865	0.008833026
41	0x3d286cb4	0.041119292
42	0x3cd2e4fc	0.025743954
43	0x3c6e7807	0.014554984
44	0x3d1354a8	0.035969406
45	0x3bd33f88	0.0064467825
46	0x3bba010c	0.0056763943
47	0xbc84ab93	-0.016195094
48	0xb964af92	-0.0002180918
49	0x3da1979b	0.078902446
50	0x3b40d3df	0.002942316
51	0xbd0d15f7	-0.034444775
52	0x3c74aa78	0.014933221
53	0xbd882d66	-0.06649284
54	0xbd30ef4b	-0.043196958
55	0x3dc7e83a	0.097610906
56	0x3cd1f95e	0.025631603
57	0x3ceed604	0.029154785
58	0x3d0f90a7	0.03505006
59	0x3d4c6a8e	0.049906306
60	0xbcbb6c7f	-0.022878883
61	0xbc6d30a7	-0.014476932
62	0x3c7f13ec	0.015568715
63	0x3dbaa7c3	0.09114029
64	0x3c29d277	0.01036512
65	0x3b9186be	0.0044411113
66	0xbcf66108	-0.030075565
67	0x3cfdeb1d	0.0309959
68	0xbc22e353	-0.009941894
69	0xbcdff096	-0.0273364
70	0xbd1631f9	-0.03666875
71	0xbcb2332c	-0.021752916
72	0x3bfabdef	0.0076520364
73	0xbc8a9e64	-0.01692123
74	0x3d2def86	0.042464755
75	0xbcbdcf33	-0.02317009
76	0xbc088db8	-0.00833457
77	0xbd9053ac	-0.07047209
78	0x3da61d12	0.081110135
79	0x3cc7db38	0.024396524
80	0xbbd86066	-0.0066032885
81	0x3c46996c	0.01212154
82	0x3c468f19	0.012119078
83	0xbc05885b	-0.008150185
84	0x3d56b922	0.05242265
85	0xbd99f30a	-0.07517059
86	0xbce6405c	-0.02810686
87	0x3b867793	0.00410361
88	0x3d832eaa	0.06405385
89	0xbc7158ec	-0.014730673
90	0x3c740246	0.01489312
91	0xba4cb59f	-0.0007809046
92	0xbc9de5de	-0.019274648
93	0xbcf308ff	-0.029667376
94	0x3c07508f	0.008258953
95	0xbbddae13	-0.006765136
96	0xbd2234cb	-0.03960113
97	0xbd945f23	-0.072447084
98	0x3ceda6b0	0.029010147
99	0xbc75be76	-0.014999023
100	0x3c0a6e88	0.008449204
101	0xbce0177d	-0.02735495
102	0xbc4a9ead	-0.012366933
103	0xbd901668	-0.07035524
104	0xbd4ca8c5	-0.04996564
105	0xbbd3bc81	-0.0064616804
106	0xbd0b7d3e	-0.034054987
107	0x3b2e63fc	0.0026609888
108	0xbc64cbce	-0.013964606
109	0xbcd851fa	-0.026406277
110	0xbd4f6a39	-0.05063841
111	0x3bcfd99b	0.0063430793
112	0x3d80c27b	0.06287094
113	0xbc6f523e	-0.01460701
114	0x3d6343de	0.055484645
115	0x3cb9db89	0.02268769
116	0xbc01a986	-0.007913953
117	0x3cecab46	0.028890263
118	0x3c8282ed	0.01593157
119	0xbcf63b7b	-0.03005766
120	0xbc958375	-0.01825116
121	0x3b6b84d9	0.0035937338
122	0xbce406e8	-0.027835324
123	0x3b8974a5	0.0041948133
124	0x3ba31309	0.0049766344
125	0x3d1c7ace	0.038203053
126	0xbce8bc19	-0.028410004
127	0x3da3bb00	0.07994652
128	0xbd5a7986	-0.05333855
129	0x3d0c6b6d	0.034282137
130	0xbb1cd790	-0.0023932196
131	0xbd549ab1	-0.051905338
132	0x3dd81bc1	0.10552169
133	0xb67ce03b	-3.7681446e-06
134	0x3c0b19cb	0.008490036
135	0x3b2af767	0.0026087405
136	0xbd47d966	-0.04879131
137	0x3ba8d05e	0.0051517924
138	0xbd39f688	-0.045401126
139	0xbc3f572e	-0.0116785
140	0xbbc1b87d	-0.0059118853
141	0x3b6f63c1	0.0036527964
142	0xbacb908f	-0.0015530753
143	0xbd667091	-0.056259695
144	0x3d2257ff	0.0396347
145	0xbd44db86	-0.048060916
146	0x3d4df0f9	0.050278638
147	0xbc643e5a	-0.013930881
148	0x3d44666c	0.04794924
149	0x3d883603	0.06650927
150	0xbd48b91f	-0.04900467
151	0x3d2c0afa	0.042002656
152	0xbd2e11a3	-0.04249729
153	0x3c131e6c	0.008979421
154	0x3dec169d	0.11527751
155	0xbcd26a01	-0.025685312
156	0x3cbbb624	0.022914
157	0x3d41dc85	0.047329444
158	0xbcec9074	-0.028877474
159	0xbac4758a	-0.0014988643
160	0xbd0eb662	-0.034841903
161	0x3d45808d	0.0482183
162	0xbcd32c1e	-0.025777873
163	0xbd2eb1a5	-0.042649884
164	0x3d577e3c	0.05261062
165	0x3da060e6	0.07830982
166	0xbcad8976	-0.02118371
167	0x3c00349d	0.007825044
168	0xbcc4fb24	-0.024045534
169	0x3ca1ec91	0.019766124
170	0xbb2d7fcc	-0.0026473878
171	0xbd4c9b13	-0.049952578
172	0x3d0557de	0.0325545
173	0x3d2cfa03	0.042230617
174	0x3b4557ea	0.0030112215
175	0xbda2ba98	-0.07945746
176	0x3d3b151b	0.045674425
177	0xbc8c1a88	-0.017102495
178	0xbb06a2fb	-0.0020543921
179	0xbce61e9e	-0.028090771
180	0x3d745f2a	0.059661068
181	0x3d4da879	0.050209496
182	0x3cecb309	0.028893964
183	0xbdac63b0	-0.084174514
184	0x3d94dfd0	0.07269251
185	0xbc14989a	-0.009069586
186	0xbceff06a	-0.029289443
187	0xbcd85bb1	-0.02641091
188	0x3b5a51c8	0.0033312906
189	0xbd026aad	-0.031840015
190	0x3c447ddb	0.011992897
191	0xbbe3192d	-0.0069304914
192	0x3ca77244	0.020440228
193	0x3ce21aa8	0.027600601
194	0x39a2c06e	0.0003104242
195	0xbd3435aa	-0.04399649
196	0x3c625a1f	0.013815432
197	0x3c974736	0.018466573
198	0xbd103a46	-0.035211824
199	0xbc8c92a7	-0.017159773
200	0x3ca275f6	0.019831639
201	0xbcc6e2d4	-0.024278082
202	0xbc9df079	-0.019279705
203	0x3c946677	0.018115265
204	0x3c9fd42d	0.019510353
205	0xbbfe6e83	-0.007764639
206	0xbdb38e32	-0.08767356
207	0x3bc55966	0.00602262
208	0xbce1f922	-0.027584616
209	0x3cc08ee4	0.023505636
210	0xbd908829	-0.070572205
211	0x3d38ff99	0.045165632
212	0xbdbaf5a9	-0.09128887
213	0xbda6fa0b	-0.08153161
214	0xbc4bce50	-0.012439325
215	0xbc0eac5a	-0.008708084
216	0xbc9f7c52	-0.01946846
217	0x3ccda80a	0.025104541
218	0xbcab2b5b	-0.020894697
219	0x3d103a5e	0.035211913
220	0x3b60eb58	0.0034319963
221	0xbd1d6f63	-0.038436305
222	0x3c6a9271	0.014317141
223	0xbbd36370	-0.006451063
224	0xbd201eab	-0.039091747
225	0x3db5f3d5	0.08884398
226	0x3d396113	0.045258593
227	0xbcd45836	-0.025920969
228	0x3d5b364d	0.053518582
229	0x3cffbec3	0.031218892
230	0x3cab29a2	0.020893876
231	0xbcaef4e4	-0.021357007
232	0xbc6d4fb6	-0.014484337
233	0x3cdc7347	0.026910437
234	0x3d346393	0.044040274
235	0xbcca20a0	-0.02467376
236	0x3d19b39e	0.037524812
237	0x3d8b0f33	0.067900084
238	0x3d85f6ef	0.065412395
239	0xbc73772e	-0.014859958
240	0xbc8ec4aa	-0.017427761
241	0x3cb554e2	0.022135202
242	0x3cfaf5f5	0.03063486
243	0xbc84eac3	-0.016225224
244	0x3d293ab6	0.041315757
245	0xbd4aee43	-0.04954363
246	0xbd1c6afc	-0.038187966
247	0xbc80daf5	-0.015729407
248	0xbd3f4786	-0.04669907
249	0x3ca9a2fb	0.020707598
250	0xbd4ba804	-0.04972078
251	0x3c13b18b	0.0090144975
252	0x3cd8d18e	0.026467111
253	0xbc8bf83c	-0.01708614
254	0x3ce7fe22	0.028319422
255	0x3c47fccd	0.0122062685

action_model._continuous_distribution.mu.bias f4 [39]
0	0x3c76a134	0.015053082
1	0x3b94d0b7	0.0045414823
2	0xbcd42c2f	-0.025899975
3	0x3c504751	0.012712316
4	0xbd1c8124	-0.038209096
5	0xbc9bbb39	-0.019010173
6	0xbc519516	-0.0127918925
7	0x3d404f60	0.046950698
8	0x3b225722	0.0024771173
9	0x3d202b72	0.039103933
10	0xbc0fb79c	-0.008771803
11	0x3c40c8aa	0.011766592
12	0x3c8a273c	0.016864412
13	0x3cab30a4	0.020897217
14	0x3cf9fcd8	0.030516073
15	0x3c8659dc	0.01640027
16	0x3cd04cb2	0.025427196
17	0x3c8223ba	0.015886176
18	0xbb8e7e37	-0.004348542
19	0xbcc09299	-0.023507403
20	0xbc4802f4	-0.012207735
21	0x3c65b4a3	0.014020118
22	0x3caa8cea	0.020819146
23	0xbc466954	-0.012110073
24	0x3af4173d	0.0018622648
25	0xbd480aed	-0.048838545
26	0x3c2f6403	0.010704997
27	0xbbf9801e	-0.0076141497
28	0x3c7e1f5c	0.015510406
29	0xbab2c309	-0.0013638447
30	0xbd1e4e6d	-0.03864901
31	0xbce23752	-0.02761427
32	0x3c268aec	0.0101649575
33	0xbbcba32a	-0.006214519
34	0x3c96c340	0.01840365
35	0xbce1ef9e	-0.027580079
36	0xbbffe548	-0.007809315
37	0x3ce19fad	0.02754196
38	0xbbc01ae7	-0.005862582
