Assets/Brains/FinalTests/Leftleg/Zombie_Walker.onnx (onnx, 827693 bytes, 11 tensors)

network_body.observation_encoder.processors.0.normalizer.running_mean f4 [246]
000000 59 66 9e 41 4d 42 3c 3c e8 58 95 c1 6c 65 43 3d
       19.799974 0.011490417 -18.668411 0.047704145
000010 0a 5c 78 34 00 00 00 00 e6 0f af 40 46 0f 08 b9
       2.3130283e-07 0.0 5.4706907 -0.0001297566
000020 0a 39 6c 3f 4a 41 f9 40 67 13 46 3b e7 ab 06 3b
       0.92274535 7.78922 0.0030223967 0.002054924
000030 6e c2 0e 3f 09 5e 31 3f d0 6e b8 3b cd 8b 9c bc
       0.55765426 0.6928411 0.0056284443 -0.019109631
000040 cd 66 05 3f 8c e7 39 3f 59 2e 16 39 40 2a 6c 3f
       0.52109987 0.7261894 0.0001432238 0.9225197
000050 56 49 f9 40 00 00 00 00 bb ce 55 3c de a7 3c bb
       7.790202 0.0 0.013049777 -0.002878658
000060 2e fd 57 3d b1 cb 48 3d 05 6c 11 3e bc 05 0c bc
       0.052731685 0.04902238 0.14201362 -0.008546289
000070 48 7a a6 37 01 96 06 b9 24 42 8d ba 00 00 00 00
       1.9845684e-05 -0.00012835117 -0.0010777158 0.0
000080 9a 13 5f 3c 6a 01 12 bc 02 95 7a 3d 6e 08 b5 bd
       0.013615513 -0.00891147 0.06117726 -0.088394985
000090 14 17 a5 bd 39 13 44 3d b3 f2 4a bd 2c 59 a2 3d
       -0.080610424 0.047869895 -0.049547862 0.079271644
0000a0 a4 2d 8b 3e 04 a3 8b bd 90 ce 01 3c 58 66 6b 3c
       0.2718326 -0.06818202 0.0079227835 0.014367662
0000b0 39 f5 7c 3f 16 9a fa 3e 00 00 00 00 0a a8 85 3c
       0.9881168 0.48945683 0.0 0.016315479
0000c0 c5 a7 7e bc c7 ac 3d 3d 94 a2 86 be ca 0e 76 39
       -0.015542929 0.04630735 -0.26295912 0.00023465898
0000d0 f0 e7 52 3d 2b 10 b0 bc 3f fd 39 3c f6 31 05 3e
       0.051490724 -0.021492084 0.0113518825 0.1300734
0000e0 b4 58 08 3f ac 6f b8 bd 3c a6 8c 3d c9 2b 25 3f
       0.5326035 -0.09005675 0.06867644 0.64519936
0000f0 41 51 0f 3f 00 00 00 00 ec de 2a 3c dc f8 c1 bc
       0.5598336 0.0 0.010429125 -0.023678236
000100 1d 91 64 3d 10 b6 87 bc 96 9f a8 bc 42 7a 58 3d
       0.055802453 -0.016566306 -0.020583909 0.05285097
000110 60 52 d7 bd 5f 9e 34 3e 89 5f 01 3f a8 6f cc 3d
       -0.10513759 0.17638539 0.505364 0.09982234
000120 01 61 02 bb bc d5 2a 3c 46 8f 7d 3f 9f 0d f9 3e
       -0.0019894245 0.010426935 0.9904674 0.48643205
000130 00 00 00 00 2d c7 0a 3c 9b 8e b4 3b 66 19 49 3d
       0.0 0.008470339 0.005510164 0.049096487
000140 49 6e d1 3c 80 e3 4d 3d 9e dc 0d 3d d0 41 89 bd
       0.025565283 0.05026579 0.034634225 -0.06702006
000150 56 9d 1b bd 7f 99 23 be 23 46 24 be df 50 40 ba
       -0.037991844 -0.15976523 -0.1604238 -0.00073362695
000160 ac dd 33 bc b4 20 76 3f db 0c 08 3f 00 00 00 00
       -0.010978144 0.9614365 0.53144616 0.0
000170 3d 1e 36 bb 5d 40 15 c3 9e 5f 30 3b a4 2d ad 3d
       -0.002778902 -149.25142 0.002691246 0.08455971
000180 36 dd 4c 3d ec b0 62 bd b2 52 8f bd da 77 86 bd
       0.05001565 -0.055344507 -0.06998195 -0.065658286
000190 4e 27 9b be 60 2e 0d 3f be 6e e6 37 32 fa fb 37
       -0.30303425 0.5514889 2.7469705e-05 3.0038038e-05
0001a0 74 60 4f 3f 03 d0 ee 3e 00 00 00 00 90 b9 9a 33
       0.8100655 0.46643075 0.0 7.2049374e-08
0001b0 64 3d 15 c3 7f 31 52 36 26 cd 74 3d b4 93 04 3d
       -149.2398 3.132125e-06 0.059765957 0.032367423
0001c0 fe 5e 09 bd 46 a2 9a bd e7 1d 06 bd 0a 0a bd be
       -0.033537857 -0.075504825 -0.03274336 -0.36921722
0001d0 94 46 23 3c 8b a6 b7 bc e0 40 8f bb 4a e9 7e 3f
       0.009965558 -0.022418281 -0.0043717474 0.9957472
0001e0 ad 22 01 3f 00 00 00 00 12 16 2e 3c 03 59 78 bb
       0.50443536 0.0 0.010625379 -0.0037894852
0001f0 49 7f 3f 3d 0e ee 65 3d 7c e5 89 bb d9 f1 9f bd
       0.046752248 0.05613523 -0.004208265 -0.07809801
000200 c0 90 d0 3d 5b bb 17 bd 0a 76 02 be 9b 73 1d be
       0.10183859 -0.03704391 -0.12740341 -0.15376131
000210 72 8a 60 3a 3b 47 70 3b 6e 9e 77 3f 82 47 0a 3f
       0.0008565552 0.003666355 0.9672612 0.5401536
000220 00 00 00 00 55 9a 34 3c 2a 34 5f bb 07 3e 99 3d
       0.0 0.011023124 -0.0034058192 0.07482534
000230 30 b1 28 3e 9f 8b 37 3d 7a 85 bd bd 8c 87 05 3e
       0.16473842 0.044810887 -0.09253974 0.13039988
000240 27 65 62 3c 87 2d 8e be 8b 62 e9 3e a2 df 40 b9
       0.013818062 -0.2776911 0.45582995 -0.00018393857
000250 63 01 48 3a 4c 2c 5f 3f 5a 1e 0e 3f 00 00 00 00
       0.0007629601 0.87176967 0.5551506 0.0
000260 76 08 49 3c 9e 53 46 3c fb 18 9a 3d ab 4c 23 3e
       0.012270084 0.012104897 0.07524296 0.15947215
000270 6b bf 5e 3d be 89 fc bd 88 d1 17 3e da 89 f4 3d
       0.05438177 -0.1233096 0.14826024 0.119403556
000280 4c 2c b9 be cf 59 27 bc 9a 1a b8 3b da 57 3a bb
       -0.36166608 -0.010214283 0.0056184055 -0.0028433711
000290 52 e9 7e 3f f0 6c 07 3f 00 00 00 00 9a 55 95 3c
       0.9957477 0.529006 0.0 0.018229295
0002a0 85 8a fc bc 98 3f 73 3d ce 2b e7 3d 35 1b 9c ba
       -0.03082777 0.05938682 0.11287652 -0.0011909964
0002b0 5a 26 77 3b bc 5f 4c be 40 a7 86 3d 61 4c 8d 3e
       0.0037712068 -0.19958395 0.06574869 0.27597335
0002c0 02 d0 b2 3c fa 61 b9 3e bd 85 de bd 51 63 40 3f
       0.021827701 0.36207563 -0.10865352 0.75151545
0002d0 07 70 d6 3e 00 00 00 00 6a 7d 18 3d 60 fe 0c bd
       0.41882345 0.0 0.03722898 -0.03442228
0002e0 6a 47 6b 3d 09 6d db 3a c2 06 1c 3d 31 29 44 bd
       0.057441153 0.0016740869 0.038092382 -0.047890846
0002f0 0d 9b 38 be f2 bb 67 3c 21 26 a5 3e 87 ca a9 bc
       -0.18027897 0.014143931 0.32255653 -0.020726455
000300 1a cb 1b 3f b3 1b d4 bc 85 22 40 3f 82 84 fb 3e
       0.60856783 -0.025892114 0.7505267 0.49124533
000310 00 00 00 00 ac 5c 07 3d f1 6e ac bc ce 04 72 3d
       0.0 0.033047363 -0.021048995 0.059086613
000320 22 ab a8 3d b3 7b 09 3d 79 45 93 bd b4 08 e6 bd
       0.08235766 0.033565234 -0.07190985 -0.11232129
000330 a6 9e 25 bd 33 54 b6 3e 00 00 00 00 1b d4 2a 3c
       -0.040434502 0.35611114 0.0 0.010426546
000340 30 49 0f bd 34 62 51 3d bc 56 19 bc 02 c2 11 3d
       -0.034981906 0.051119044 -0.009359058 0.03558541
000350 68 51 a3 be 91 ff f6 3d 07 ac b3 3d 90 7f c3 3e
       -0.31898046 0.12060464 0.08773046 0.3818326
000360 31 b2 73 bd df 18 2e be 59 45 ac 3e db 30 58 3f
       -0.05949611 -0.17001675 0.33646658 0.8444955
000370 c1 5a 08 3f 00 00 00 00 70 e1 c0 bb 18 fd ab bc
       0.5326348 0.0 -0.0058862492 -0.020994708
000380 f8 c8 f3 3c 00 7b 20 3d 26 e4 88 bd 7d cf a5 bc
       0.029758915 0.039179802 -0.06684141 -0.02024054
000390 0a b8 1c 3e 14 2a 0b 3d ed 74 10 3f 2d 75 cb bc
       0.1530458 0.033975676 0.56428415 -0.024836147
0003a0 a4 20 e0 be 24 22 e9 3c 13 7c 5a 3f 6d 10 19 3f
       -0.43774903 0.028458662 0.8534557 0.5979069
0003b0 00 00 00 00 f5 70 11 bb d4 40 a4 bc 7c 66 2b 3d
       0.0 -0.0022192572 -0.020050444 0.041845784
0003c0 e4 8b d1 bd 88 5d 87 bd 9e 60 27 3c 51 cd 06 3e
       -0.1023176 -0.066096365 0.010215906 0.1316426
0003d0 3f 94 58 bd 81 2b 35 3f
       -0.052875753 0.70769507

network_body._body_endoder.seq_layers.0.weight f4 [256, 246]
000000 37 c3 80 3d 32 57 86 3d cf a4 4d 3d 84 a2 08 bb
       0.06287234 0.065596 0.050206 -0.002084882
000010 a0 ce 84 3c eb 0d db bc 82 61 63 3d 3e b4 de 3c
       0.016211808 -0.026740035 0.055512913 0.027185556
000020 01 4e 1a bd e8 f0 0c bc 25 6e ee 3d 83 3a 5a 3d
       -0.037672047 -0.008602358 0.11642102 0.053278457
000030 55 66 22 bd d3 3d a7 3d 79 ac 64 3d 5b f7 82 3d
       -0.039648373 0.08166089 0.055828545 0.063948356
000040 e9 6b f8 bd 4c 9c dc bd 9b 28 45 bd 1a 99 36 bd
       -0.12129957 -0.10771999 -0.048134428 -0.044579603
000050 19 82 a2 3d 40 28 6a 3b 92 ba 96 3d 86 03 91 3d
       0.079349704 0.0035729557 0.07359804 0.0708075
000060 82 30 32 3e 3f 64 6d 3c 70 dd 9a 3d e4 86 e8 bd
       0.17401317 0.014489233 0.07561767 -0.11353853
000070 7d 06 ab bd 95 ba b3 bd 2f ec 8e bc 9e 9c a2 3d
       -0.08350847 -0.08775822 -0.017446605 0.079400286
000080 5f b1 c0 3d 7a 2f c5 3d a0 d0 df bc 4a 4f 56 3d
       0.09408831 0.09628196 -0.02732116 0.05232171
000090 e9 41 c5 bc c6 2a 55 bd 1e 44 4f bd d0 dc da 3c
       -0.02407928 -0.052042745 -0.05060207 0.02671662
0000a0 97 59 18 3e 30 e5 da 3b ea ea 11 3d be 86 29 3d
       0.14877926 0.0066801533 0.035624422 0.041388266
0000b0 70 a7 97 bd 45 58 2c be f2 60 26 bc 3d 20 e9 3d
       -0.07404983 -0.16830547 -0.0101549495 0.11383102
0000c0 fa cd ac 3d fa a8 ba bc 43 9f e6 3d 90 e2 27 ba
       0.084377244 -0.022785652 0.112608455 -0.0006404305
0000d0 e3 87 62 bd 81 f0 c0 bb 7b a2 70 bd fb 00 ca 3d
       -0.055305373 -0.0058880453 -0.058748703 0.09863468
0000e0 20 26 4a 3b a8 db 50 bd 9b dc 63 be d3 21 3b bd
       0.0030845478 -0.05099073 -0.22252123 -0.045686554
0000f0 a7 74 78 3d 5a 32 cc 3c b8 67 25 bd 33 07 29 3d
       0.060658123 0.024926353 -0.040382117 0.04126663
000100 34 ba 6d 3d aa db 9b 3d 48 db b8 bd 78 90 60 3d
       0.058038905 0.07610257 -0.090261996 0.054825276
000110 9f 4f 87 3d 97 11 4f bc dc 71 4a 3a 43 5f 1a be
       0.066069834 -0.012638471 0.0007722655 -0.15075402
000120 51 7a ce 3c 48 76 ab bd da 40 e6 3c e4 dc 08 3e
       0.02520481 -0.0837217 0.028107096 0.13365513
000130 e9 c8 8f bd d2 63 04 bc 70 5e c5 3c f5 02 bb bd
       -0.070207424 -0.00808044 0.024092883 -0.091314234
000140 ff dc 78 bc e9 b8 1a 3d 70 ea 5e 3e d0 49 1c bd
       -0.015189408 0.037774 0.21769118 -0.03815633
000150 6c 66 75 3d 72 db 06 bc ab 6f 87 3c 89 9b a3 3d
       0.05991213 -0.008231031 0.01653274 0.0798865
000160 b8 a4 19 3c ed 75 2b bd 98 83 17 ba 53 9d ea bd
       0.009377651 -0.04186051 -0.0005779802 -0.114557885
000170 08 ed 83 3c 26 15 07 3e 7c 56 32 bc b0 82 32 bd
       0.016104236 0.13191661 -0.010884877 -0.043581665
000180 30 0d aa 3d 40 6b 89 3d f7 90 95 3d 70 78 cb 3b
       0.083032966 0.067099094 0.073030405 0.0062094256
000190 a1 93 88 3d 26 9a 20 3d 62 45 11 3d 9f 20 fa 3c
       0.06668783 0.039209507 0.03546656 0.030533133
0001a0 b2 9b 8c bb f2 1a d9 bc d0 69 88 bc b3 b5 27 3e
       -0.0042910213 -0.026502106 -0.016652018 0.16377907
0001b0 44 19 80 ba c9 ea 25 bd b6 8c 6d bd f2 85 94 bd
       -0.0009773155 -0.04050711 -0.05799552 -0.072521105
0001c0 ae 52 99 3c 64 e1 b3 bd 0f 0c cf 3b 04 5f af 3a
       0.018716183 -0.08783224 0.006318576 0.0013379757
0001d0 df 00 56 bd 51 4a c9 bd 81 2a f7 3c f0 9a 4a 3d
       -0.052246924 -0.09828628 0.030171635 0.049464166
0001e0 4b ec 3b 3d f2 82 5f bd 15 c4 e1 bc 10 80 08 be
       0.045879643 -0.05456824 -0.02755932 -0.13330102
0001f0 a9 34 2f bd fa a7 18 3d 70 31 83 3d 36 4f dc bd
       -0.04277483 0.03726957 0.06405914 -0.10757296
000200 a8 e5 6b bc db a7 5f 3d ab 7b a7 3b 98 02 90 3a
       -0.014398016 0.05460344 0.005111178 0.0010987101
000210 e5 b9 33 bd 2d 0a 16 bd 91 90 b4 3d 8e 0b 10 3d
       -0.043878455 -0.036630798 0.08816636 0.03516727
000220 c1 71 be bc 37 c9 98 bd ec 46 d5 3d 11 b9 92 bd
       -0.023247601 -0.07460254 0.10413918 -0.07164205
000230 74 2f 82 3d 43 d6 63 3d 57 7f 01 bd bf 7f 6b bd
       0.06356707 0.055624258 -0.03161558 -0.057494875
000240 5a ca a1 bd f7 75 87 bd 7a 41 20 bd 7f ec 7c bc
       -0.078999236 -0.06614297 -0.039124943 -0.015437244
000250 09 23 2a bc 8f 8b 64 bd 5e d5 ff bd 4d 0b 03 3d
       -0.01038433 -0.055797156 -0.124918684 0.0319932
000260 88 d7 2a 3e 0e 20 a3 3c 44 e4 5c bd 6b 37 9c bd
       0.16683781 0.019912746 -0.05392863 -0.07627758
000270 69 b3 9f 3d 6a c6 0e 3e 6e 7d 19 bd 52 13 05 3d
       0.07797892 0.13942876 -0.037473135 0.03248913
000280 d3 7c b8 bd 01 df 85 bd ee dc 83 3d 0a f2 8f bd
       -0.09008183 -0.06536675 0.06438623 -0.07028587
000290 43 a4 c5 bd bc 63 c8 bd cb cb 1f 3c 46 c4 e8 3d
       -0.09650471 -0.09784648 0.009753178 0.11365561
0002a0 a0 7c 14 3e ab 28 25 3e 0d 83 a5 3d d1 53 65 3d
       0.14500666 0.16128795 0.080816366 0.055988137
0002b0 a9 39 1c bd 0a 81 c7 3d ad ab 71 bd 00 e8 25 3e
       -0.038140927 0.09741409 -0.059001613 0.16201782
0002c0 eb b1 5a 3c 4c a1 f9 bc 95 5a 09 bd 4b bb 2e 3d
       0.013348083 -0.03047242 -0.03353365 0.042659085
0002d0 7b f6 c1 3d 33 c9 a4 3c a6 80 10 bc 7b 99 d0 3c
       0.094708405 0.02011547 -0.008819735 0.02546381
0002e0 f8 f3 ba 3a ef 92 b0 3d 8c 37 74 3d 0c 36 fc bc
       0.0014263382 0.08621775 0.059623286 -0.03078749
0002f0 3d 31 32 bd 82 4b 8d 3d bd 5a 4c bc 54 10 27 3d
       -0.04350399 0.068991676 -0.012472806 0.040787056
000300 7a 5e 0a 3c 85 e7 69 bd d6 2b 86 bd 97 ce ec bd
       0.0084453765 -0.05710556 -0.0655133 -0.115628414
000310 fa 62 02 bd 18 62 3f 3c 09 59 b2 3d e3 82 6f bd
       -0.031832673 0.011681102 0.08708388 -0.058474433
000320 ec 2b 0b 3e 7d 9c 15 be 56 22 80 3d 30 10 65 3d
       0.13590974 -0.14610477 0.06256549 0.05592364
000330 96 29 b2 bd dd 68 b3 bd 63 2d db bc ff f5 26 3e
       -0.08699338 -0.087602355 -0.02675504 0.16304778
000340 30 89 69 bc 8d a4 8e 3c 69 bc be 3c 14 00 99 3d
       -0.014253899 0.017412448 0.0232832 0.07470718
000350 74 cc dc bd 7c f0 36 3c ee 40 07 bc 6f 33 e9 bb
       -0.10781184 0.011165734 -0.008255227 -0.007116727
000360 f6 6d 35 3d 88 90 fb 3c 9e 68 e0 bc 03 17 ea bc
       0.04429432 0.030708566 -0.027393635 -0.028575426
000370 c1 76 82 3c 6e 59 86 bc 7f b6 70 bd 5d 6f e8 bc
       0.015925767 -0.016400065 -0.05876779 -0.028373415
000380 71 ec 94 bd 44 cd a0 bd d1 4b 83 3d 11 1d 8e bd
       -0.0727166 -0.07851651 0.06410945 -0.06939138
000390 97 3b 41 3d 20 b5 23 3d 2f ba b7 bd 3c 31 23 3d
       0.04717597 0.039967656 -0.089710586 0.039841875
0003a0 0f 94 c4 3d e0 95 dd 3b 49 32 1c 3e c5 3f 62 bd
       0.095985524 0.0067622513 0.15253557 -0.055236597
0003b0 31 0c e1 bd cd e9 ef bc 24 1d d9 bb a6 ce 9f 3c
       -0.109886535 -0.02928629 -0.0066257883 0.019507717
0003c0 26 fd 68 bb 4d 52 02 3e 21 0a b0 3c ee 3c 46 3d
       -0.003555128 0.12726708 0.021489205 0.04839795
0003d0 67 4b b5 3d 2d 4a 18 3d 16 3a e2 3c a9 98 46 be
       0.088522725 0.037180115 0.027615588 -0.19394173
0003e0 62 8b 02 3d 9a c3 ab 3c a3 ee 8c bd 85 98 f4 3c
       0.031871207 0.020967294 -0.06881454 0.029857883
0003f0 86 0b 33 3e fd 57 84 3d 4d a8 8d bd 3e ac ce 3c
       0.17484865 0.06462095 -0.069168665 0.025228616

network_body._body_endoder.seq_layers.0.bias f4 [256]
000000 bd f7 64 bc 7c 59 a1 bb b8 36 e7 3c 05 a5 00 bd
       -0.013975081 -0.0049239974 0.028224334 -0.031407375
000010 d1 97 c6 bb 98 83 ad 37 c3 d1 ba 3c 0a 1b f0 bb
       -0.0060605784 2.0684485e-05 0.0228051 -0.007327442
000020 45 e3 3d bc 87 92 65 3d 54 af be 3b c1 30 6e 3d
       -0.01158983 0.056047942 0.0058192406 0.058151964
000030 7d a5 18 3c 70 c9 21 bd 31 a4 17 bc c8 23 f5 3b
       0.009316799 -0.039498746 -0.009255455 0.007481072
000040 66 76 83 3b 64 2d 3f 3d 27 f9 88 ba a3 b2 2f 3d
       0.004011917 0.046674147 -0.001045023 0.04289497
000050 a7 4c e4 bc bf bf ce bb 8a e3 48 bb 48 cf 8e bc
       -0.027868582 -0.006309479 -0.0030653202 -0.017432824
000060 43 79 02 bc 2a 2d 6a 3a 8d e3 27 bc 3a 91 bb ba
       -0.007963481 0.00089331216 -0.010247123 -0.0014310249
000070 d5 23 ed bc 92 b4 bc bb d2 9d 1d bd 7f 2c 74 bb
       -0.02894775 -0.0057588303 -0.038480587 -0.0037257967
000080 08 57 0d bb ca 57 60 3d a9 09 ea 3b 80 f0 fe bb
       -0.0021566767 0.054771222 0.007142265 -0.0077801347
000090 70 4e 80 bb c3 cd f0 bb 51 0b 2b 3d 08 de 06 bc
       -0.0039156005 -0.0073487475 0.04175884 -0.008231647
0000a0 e3 c3 d4 bc 47 fa 6d 3d b8 14 84 3d 6b 65 03 3c
       -0.025972312 0.05810001 0.06449264 0.008019785
0000b0 80 c6 be bc 32 93 d8 3c 91 4f af 3c e1 e7 75 bc
       -0.023288012 0.026437376 0.021400245 -0.0150088975
0000c0 3c c6 bb 3c f8 67 32 3d 0a 15 df bc 69 1c 66 3c
       0.022921674 0.043556184 -0.027231712 0.014044859
0000d0 2d 63 52 3c ba 22 8d 3c e3 0a 42 bc 47 1c a6 3c
       0.012841028 0.017228473 -0.011843416 0.020277156
0000e0 7b e7 44 bc bb 7d a2 3c 9e a7 1a 3d c8 98 07 bc
       -0.01201808 0.019835344 0.03775751 -0.008276172
0000f0 5a 18 a5 3d 1f 96 cb bb 39 64 ad 3c 53 53 bd 3a
       0.08061285 -0.006212964 0.021165954 0.0014444388
000100 1c 36 a6 3b ec 9b 79 3c e3 5b 97 3c 0a 18 b3 bb
       0.0050723683 0.015234929 0.018476432 -0.005465512
000110 23 0f 28 bc 1d f2 8b bc cc 97 5a bc ba 0e 07 3d
       -0.010257515 -0.017083222 -0.013341855 0.03297303
000120 2d e8 63 3d d1 81 98 3b e5 b4 c6 3c e7 4c d6 3c
       0.055641342 0.004654147 0.02425618 0.026159717
000130 70 e3 e2 bb 68 c4 01 3d 3f ef 37 3d f6 d8 31 3c
       -0.0069240853 0.03168145 0.044905897 0.01085495
000140 6b 57 fc bc 4c 16 19 3c a4 26 ec b9 86 d9 e9 bb
       -0.030803403 0.009343695 -0.00045042217 -0.0071365265
000150 8b 95 ac bc 90 5e 0f 3c 1a 64 99 3c 7a 28 a0 3c
       -0.021067401 0.008750573 0.01872449 0.01955055
000160 65 8e da b9 23 88 7b bb 1d 06 ad bc 33 ed 00 3d
       -0.00041686292 -0.0038380704 -0.02112108 0.03147621
000170 39 b4 72 3d e6 91 89 3c 7b 8a a6 bb 46 14 be 3b
       0.059253905 0.016793203 -0.005082426 0.0058007566
000180 32 52 65 bc f6 2c e2 bb 1f 00 7c bc 17 08 9f bc
       -0.013996648 -0.0069023324 -0.015380888 -0.019413037
000190 1f 18 b0 3c 0a 39 88 3a 98 5b 20 3c 2e 91 01 bc
       0.021495877 0.0010392976 0.009787463 -0.007908149
0001a0 44 45 34 3d 54 28 dd 3b 23 d7 dd 3c cb e9 02 3d
       0.04401137 0.0067491923 0.027080124 0.031961244
0001b0 a0 f4 ee 3c 81 55 45 3d e0 ac 06 bb ce 06 9e 3c
       0.02916938 0.048177246 -0.002054982 0.019290354
0001c0 5f 70 57 3c 32 86 f3 3b b2 a9 b4 3c 96 ac 89 bb
       0.01314935 0.007431769 0.022053573 -0.004201482
0001d0 13 8d e4 bb 9c 05 3d 3d f8 7b 79 3b b5 ff 7a 3d
       -0.006974825 0.046147928 0.0038068276 0.061279017
0001e0 21 4b 39 3c 7a 7e 5d bb ec 30 66 bc 37 65 19 3c
       0.011309416 -0.003379731 -0.01404975 0.00936251
0001f0 27 b3 4d 3b cf 2a d2 bc f2 72 1c 3c d0 85 59 bc
       0.00313873 -0.025655178 0.0095488895 -0.013276532
000200 4b 08 14 3c 5c de dc 3c cc d0 17 3d f3 96 41 ba
       0.00903518 0.026961498 0.03706436 -0.0007384859
000210 c5 51 6b 3c f6 9f f1 3c 8c fe af 3b 2d 6c 84 3c
       0.014362757 0.02949522 0.0053709205 0.016164863
000220 6f 47 8c 3b f6 64 87 3c 07 dd a5 bc e9 3b e7 3c
       0.0042809765 0.016527634 -0.020246996 0.02822681
000230 f2 c7 85 bc f5 fa f3 3b 2a 7d 6e 3a 45 6f c4 3b
       -0.016330693 0.007445688 0.00090976304 0.0059947097
000240 18 bc 06 bd 02 b2 0e 3d 31 18 0b bd b4 20 8e 3c
       -0.032894224 0.03483773 -0.033958618 0.017349578
000250 c2 67 1b 3d 15 5a 25 bc 96 68 81 bc 01 1d a3 bc
       0.037940748 -0.010092278 -0.01579694 -0.019911291
000260 e8 ed c5 bb 5f 00 03 3a 22 b6 cd 3b 00 86 a4 3c
       -0.0060403235 0.0004997309 0.0062778154 0.020083427
000270 33 87 76 bc 04 44 03 bc b1 d3 05 3d 48 74 05 3c
       -0.015046882 -0.008011822 0.032672588 0.008145399
000280 73 a3 03 3b 48 f4 10 bc 14 a1 64 3d dc 9b 1e 3c
       0.0020086437 -0.008847304 0.05581768 0.009680714
000290 34 2e 5c bb 2a 86 fa 3a f1 0a 6e 3d 7a 3d 7e bc
       -0.0033596875 0.001911347 0.058115903 -0.015517587
0002a0 71 f3 c7 3b 40 09 c3 3b 16 62 26 3d 4b 45 69 3c
       0.0061020185 0.0059520304 0.040620886 0.014237712
0002b0 86 04 83 3c 10 c7 e4 3a 14 06 71 3b b8 39 82 bc
       0.015993368 0.0017454345 0.0036777304 -0.015896663
0002c0 2b 60 07 3c ce 8f c2 3b a2 79 ff 3c 89 a0 b4 ba
       0.008262674 0.005937553 0.031185929 -0.0013780753
0002d0 46 d4 b1 3b c1 be 24 3a f3 10 f2 3c e7 50 61 bb
       0.0054269163 0.0006284528 0.029549098 -0.0034380497
0002e0 6a 1b 02 3c fe a8 25 3c eb 50 b9 ba 64 86 85 3b
       0.007941106 0.010111092 -0.0014138495 0.0040748585
0002f0 39 e6 16 3c 8c a7 b4 bc 93 2a 7c 3d 61 18 ba bc
       0.009210163 -0.022052549 0.06156404 -0.022716703
000300 ed 87 d0 bc dc 35 4e bb 56 85 77 bc e3 c4 94 bb
       -0.02545544 -0.0031465208 -0.015107473 -0.0045400723
000310 3a f8 86 3d 82 a3 89 bc 65 14 11 3c e6 f0 18 bc
       0.06590314 -0.0168016 0.00885496 -0.009334778
000320 84 22 ec 3b 8d 4e d1 bc bb eb 9f bb 31 8b 63 3c
       0.007206263 -0.025550151 -0.004880396 0.013888166
000330 8d cf 52 3d 23 60 7f bb 7b 48 8c bc 92 53 aa bb
       0.051467467 -0.0038967214 -0.017124405 -0.0051979506
000340 a4 ea 5b 3d fa a5 82 bc 97 96 07 bb bc d0 a5 3c
       0.053690568 -0.015948284 -0.0020689124 0.020241134
000350 2b b4 41 3d 9e 61 e9 3c cd 2b c7 3c fa db db bc
       0.047290962 0.02848893 0.024312878 -0.026838291
000360 eb 5c 0f bc cd ba 1a 3d 2e b3 09 bd 82 d9 98 3c
       -0.008750181 0.037775803 -0.033618145 0.018658403
000370 9e b3 05 3c f4 68 d5 3b 1d f6 fc 3c cd 11 10 3c
       0.0081605 0.0065127555 0.030879075 0.008793307
000380 6e ba 0d bd dc f7 e9 3c c8 e3 0b bc 7f 91 2c bc
       -0.03460162 0.028560571 -0.008538194 -0.010532736
000390 07 2a 2e bc e5 70 e6 3c 89 fc 19 bd bd cf 3f 3c
       -0.010630137 0.028130004 -0.037594352 0.0117072435
0003a0 2d cc bd 3c ea 4f a2 3c f9 b6 2b 3d 6d af 2a 3d
       0.023168648 0.019813497 0.041922543 0.041671205
0003b0 29 0b 9e bb f4 7a 89 3b d9 5b 37 3c 54 76 d7 3b
       -0.0048231077 0.0041955654 0.011191332 0.006575385
0003c0 53 88 0f 3d 1a 0d ca bc 2b 0e 42 bb 50 af 0e bc
       0.03504212 -0.02466445 -0.0029610496 -0.00870879
0003d0 76 ad 0b 3d af 5d 99 3c 74 9d bb ba eb 8c 71 3d
       0.034100972 0.01872143 -0.0014313892 0.05897228
0003e0 36 b0 2a bc 45 2e f1 3c 30 34 c3 3c c0 af 34 3c
       -0.0104179885 0.029441008 0.023828596 0.01102823
0003f0 3c d8 e3 3c 2b 54 92 bc 87 12 3f 3c 5c 94 ed b9
       0.02781307 -0.0178624 0.011662132 -0.000453147

network_body._body_endoder.seq_layers.2.weight f4 [256, 256]
000000 d2 66 9f bd 3a 56 b9 3d f0 10 28 3d bb 6b af bc
       -0.07783283 0.090496495 0.041031778 -0.021413675
000010 1f 13 9f 3d 98 3d 64 bd 2c ba 8a 39 12 15 31 3d
       0.07767319 -0.055722803 0.0002646012 0.043232985
000020 58 d0 b0 3d e1 cd 9e 3c 05 7a 98 bd ab 3e 9f bd
       0.086334884 0.01938528 -0.074451484 -0.07775625
000030 7d d1 2d 3d 8e 85 10 3b 89 a9 cf 3c 8b ca 9b bb
       0.04243611 0.002205226 0.025349395 -0.0047543696
000040 cf a1 6b 3d 37 3d 9f bd b4 cc 4e 3d 04 96 e0 bd
       0.05752736 -0.07775348 0.05048819 -0.10966113
000050 1e f5 b4 3d 76 5f 35 bc c3 ab 26 bd 28 c6 3a 3d
       0.08835815 -0.011070123 -0.04069115 0.045599133
000060 77 87 d4 bc f9 df 0b 3d de 83 26 3d a7 0b c9 39
       -0.0259435 0.034149144 0.040653102 0.0003834639
000070 25 16 4b bc 25 e4 2e bd ce 20 f9 bc 9c 9e 35 3d
       -0.012395416 -0.042698044 -0.03041115 0.044340715
000080 a8 81 c0 bd 63 96 19 3e d9 90 28 bc 09 85 d2 3d
       -0.0939973 0.14998774 -0.010288441 0.10279281
000090 bf 4f 2a bd 8b e4 9d 3d e4 28 d9 bd 01 6d 0f 3e
       -0.041579958 0.07709607 -0.106035024 0.14006425
0000a0 43 b7 19 3d 78 1b 05 3e 72 86 f2 3d cf c3 26 bd
       0.037528288 0.1299876 0.1184205 -0.04071408
0000b0 ee ae 75 3d e3 1c 12 3d 75 1c aa bd 64 51 da 3b
       0.05998128 0.03567208 -0.08306209 0.0066625345
0000c0 fe d2 d5 3d 45 7c a5 bd 71 5e ab 3c 42 7d 91 3d
       0.10440634 -0.08080343 0.020919057 0.07103969
0000d0 f7 5b 08 3c ec ec 44 3d 13 6b db bc 25 3e 59 3d
       0.008322707 0.04807751 -0.026784455 0.05303778
0000e0 18 24 a4 bd f7 f8 36 3c 5f 77 51 3c 91 bf 84 3c
       -0.08014697 0.011167756 0.012784808 0.016204627
0000f0 ad 74 97 bd 35 f8 41 bd aa d0 f1 bd f4 ce 8d bd
       -0.07395301 -0.04735585 -0.11807378 -0.06924239
000100 90 17 cd bd 18 1b 18 3d f0 e6 9d 3d 84 fb 64 3c
       -0.1001426 0.037135214 0.077100635 0.013975982
000110 64 0c ab bc ab 7a 0a 3c 13 76 13 3c 3b 87 a3 3c
       -0.020879932 0.008452098 0.009000319 0.019961944
000120 b2 1c 55 3d 8c b2 74 3d f9 86 e6 3d d5 21 c3 3d
       0.05202932 0.059740588 0.11256213 0.09527937
000130 a7 6d 17 3e d5 dc bb bd dc 1f 0a 3d c3 f0 54 3d
       0.14787923 -0.0917298 0.03372179 0.05198742
000140 9f 83 50 3d dc c5 46 bd 00 c2 64 3d 19 74 b3 bd
       0.050906774 -0.048528537 0.055849075 -0.08762378
000150 fc 8a 73 bd d8 51 92 3d b5 8e 0b 3d 13 f1 2d 3d
       -0.059458718 0.07144517 0.034071643 0.042466234
000160 b8 69 16 3d db ac a1 bc 08 5f 6f 3c 61 b1 fb 3c
       0.036721915 -0.019735744 0.01461006 0.03072423
000170 02 94 9f bd 79 f5 c5 3d 50 29 94 3c 78 90 97 bd
       -0.07791902 0.09665961 0.018086106 -0.07400602
000180 56 89 9a bc da 73 6e bb ee 2e 1f bd 8e 5e 24 bd
       -0.018864315 -0.003638497 -0.038863115 -0.040129237
000190 81 5b 40 be e9 c0 06 3e b8 9d ab bd 86 88 fb 3d
       -0.18784906 0.13159527 -0.08379692 0.12281899
0001a0 6d 52 04 be 83 b7 cc 3b 7e 2b 00 be ac f2 62 bd
       -0.12922068 0.0062474622 -0.12516591 -0.05540721
0001b0 73 24 6d 3d cd 57 b4 3c a5 7d ab 3c a2 6f 96 bd
       0.05789609 0.022014523 0.020933935 -0.07345511
0001c0 41 7d 8c bd 73 9f 56 bc cd 34 e4 3b f3 04 86 3d
       -0.06859828 -0.013099539 0.006964302 0.06543913
0001d0 6c d7 63 bd f2 1c 64 bc fe 68 36 3e 3a e4 29 3d
       -0.055625364 -0.013922917 0.17813489 0.04147742
0001e0 70 f1 32 be ef 12 d9 3d 1d 90 5b 3c ae 3c 8e bd
       -0.17474914 0.105993144 0.0134010585 -0.069451675
0001f0 1f d1 c8 3d f8 4b 2a 3d c5 4f 73 3c 80 8c 01 be
       0.09805512 0.041576356 0.0148505615 -0.12651253
000200 16 e0 e8 3d 68 a5 91 bd e4 0e 97 bd b5 97 b2 bd
       0.11370866 -0.07111627 -0.07375887 -0.08720342
000210 23 84 b9 bc 7f fd a0 bd e2 cf d6 bd 50 5d 8c 3d
       -0.022646016 -0.078608505 -0.10488869 0.068537354
000220 64 d6 7a 3d 07 aa c2 3a 04 6a e0 3c eb ca a8 bd
       0.061239615 0.0014851697 0.027394302 -0.082418285
000230 8e 1b 4c 3d fc b7 71 bd 2f 6f d7 3d 51 91 1a 3d
       0.049830966 -0.05901335 0.105192535 0.03773624
000240 ec 1e ac 3c bc 88 ed 3d ec 84 4c bc b0 5e 4d bc
       0.021010838 0.11598346 -0.012482863 -0.012534782
000250 aa ff 91 bb ca e0 c5 bd 4b 2e f3 3c 6e bf e2 bc
       -0.0044555264 -0.09662016 0.02968516 -0.027679171
000260 45 cc 5a 3d b6 d3 a2 3d 9f 42 25 3d 68 99 db 3b
       0.053417463 0.07950537 0.040346738 0.006701637
000270 d0 45 45 3c a8 7e 36 3d 59 a6 a4 3d 5a c5 40 bd
       0.01204057 0.044554383 0.08039541 -0.04706321
000280 b0 9b cf 3d 25 48 45 3d d7 f9 aa bd a1 03 3e bd
       0.10137117 0.048164506 -0.083484344 -0.04639018
000290 79 46 5a bd 34 4e ac bc ee d4 1b 3e cf 57 47 bd
       -0.053289864 -0.021033384 0.15217945 -0.048667725
0002a0 49 f4 49 3c 84 82 2f 3c 40 34 6f 3d 7b 59 ef bb
       0.0123263085 0.01071227 0.05839944 -0.007304368
0002b0 9c 6c 83 bd c1 5b f9 bb bc 0c 85 3d df 0e a0 3c
       -0.064172 -0.007609815 0.064965695 0.019538341
0002c0 fd 6a f3 bc ca a3 51 bb 1f 72 cf bd 03 ff 10 3b
       -0.029714102 -0.0031988495 -0.10129189 0.0022124655
0002d0 a6 53 3b 3d 1d c7 19 3c bc d9 03 3e e3 c2 04 bd
       0.04573407 0.009385851 0.12876028 -0.03241242
0002e0 17 ad a8 bd a4 b8 94 bb 8d f5 85 bd ed b9 43 bd
       -0.08236139 -0.0045386124 -0.06540976 -0.047784735
0002f0 91 e1 1a 3d 08 de 5f b9 14 55 cb 3c ad 08 32 bd
       0.037812773 -0.0002134965 0.024820842 -0.043465305
000300 ae d3 32 be 76 6a 32 bb ea 28 7d 3c 35 2e d9 bd
       -0.17463562 -0.00272241 0.015451649 -0.106045164
000310 8f cc d3 bd 83 5d 11 3c ab f2 1c be 80 3a 08 be
       -0.10341751 0.008872393 -0.15326945 -0.13303566
000320 52 7f 09 bd b2 81 c8 bd bb 39 0e 3c b4 33 60 bd
       -0.033568688 -0.097903624 0.008680756 -0.054736808
000330 97 5f 3f 3d 29 ad c2 bd b8 e8 ad 3c 54 68 89 3c
       0.04672202 -0.09505684 0.021229133 0.01677338
000340 33 a5 c8 bc 42 f5 69 bc b0 97 c2 bc 64 10 95 3c
       -0.024492836 -0.014279665 -0.02375397 0.018196292
000350 4e 64 2c bd 93 28 ec bd f1 81 1e 3e 53 7e b0 3d
       -0.042087846 -0.115311764 0.15479256 0.086178444
000360 35 4f a5 bd 21 da 11 be 54 90 a5 3d 2e 43 7f bd
       -0.08071748 -0.14243366 0.08084169 -0.062319927
000370 dd 7e 18 bd cf f4 7d 3d a9 cc 2c 3d f4 62 87 3d
       -0.03723036 0.062001046 0.042187367 0.06610671
000380 37 63 04 bd 91 f2 1f 3e ee 25 21 3d 89 36 07 3d
       -0.03232118 0.15619875 0.039342813 0.033010993
000390 ef 5f 07 3c e8 80 5c bd 0c 3b 15 3c c6 8e c0 bd
       0.008262618 -0.053833872 0.009108316 -0.09402232
0003a0 60 2b fc 3d 83 7f 69 bd d8 ad 18 3b e4 78 11 be
       0.123129606 -0.05700637 0.0023296978 -0.14206272
0003b0 77 4d 3e bd cc ba fe bd 27 fc 4a bd 0d 06 56 bd
       -0.046460595 -0.124379724 -0.049556877 -0.052251864
0003c0 c7 d7 ef 3d 32 4c bd bd e0 03 d4 3d 6a b2 96 3d
       0.11711078 -0.09243049 0.103523016 0.073582485
0003d0 22 23 f1 3d 5a 46 a1 3d b8 82 d2 bc 3a fe 0c 3d
       0.11774279 0.078747466 -0.025697097 0.034422137
0003e0 3f 5c b1 3d 04 ba 08 3d b0 ec 3c be 5a 4b 40 3c
       0.08660173 0.033380523 -0.18449664 0.011736715
0003f0 5c 4a 8a bd 4b 77 d2 bc ea a7 5f bd 62 e0 16 bd
       -0.06752464 -0.025691649 -0.054603495 -0.036835082

network_body._body_endoder.seq_layers.2.bias f4 [256]
000000 19 7c eb 3b 70 17 c0 3c fc af 01 3a dc e7 4c bc
       0.0071864245 0.023448676 0.0004947183 -0.012506451
000010 c6 a2 00 3c 3c 3c 2e bb 4a a5 c6 3a a2 33 9c 3c
       0.007851308 -0.0026586195 0.0015155461 0.01906759
000020 dd b9 bc bb 16 5f a4 3c 9c b5 ce 3c 05 6a 46 bc
       -0.0057594613 0.020064872 0.025233082 -0.012110238
000030 fb a5 9a b9 c4 07 06 3c 1c d5 f4 3b 78 e6 a8 3c
       -0.00029496834 0.008180562 0.0074716937 0.020617709
000040 56 e5 34 bc 2c 3d b8 bb fa 29 04 3d d9 0a 81 3c
       -0.011041006 -0.0056225266 0.032266594 0.015752243
000050 33 da 00 bc b7 a8 9d 3c 1b 8e d5 bc ba 17 fb 3c
       -0.007864523 0.019245489 -0.026068738 0.030650962
000060 1f 7a b3 3b fa 29 d8 3c 5a 10 48 bb 82 18 2a 3c
       0.0054772045 0.026387203 -0.0030527324 0.01038182
000070 bf 0d d5 3c 0c 84 3b 39 74 53 bb bc a8 9c 56 bb
       0.026007531 0.00017882901 -0.022866942 -0.0032747183
000080 26 90 e1 3b ba 7e 10 3c 58 f9 18 3c 1b 91 b8 bb
       0.006883639 0.0088192765 0.009336792 -0.0056325323
000090 9e b4 38 3c bd 4f 1b bb 09 49 d1 bb bd 17 53 bc
       0.011273531 -0.002369865 -0.0063868803 -0.012884078
0000a0 10 bf e1 3b 33 bb 2c bc 0f 01 92 3c ed bf 15 3c
       0.0068892315 -0.010542679 0.01782277 0.009139997
0000b0 54 17 35 3c 03 1e aa bc d0 35 ed bb bd f8 5b 3c
       0.011052925 -0.020766264 -0.007239081 0.013426003
0000c0 79 30 f0 3b c5 9f 4c 3c ad aa fb 3b 69 04 a2 3a
       0.007329997 0.012489264 0.0076802582 0.0012360933
0000d0 a4 46 6c bc ea c4 ce 3b cf a7 8e 3b 93 19 8f bb
       -0.014421139 0.006310095 0.0043535004 -0.0043670624
0000e0 a7 6f 0d 3b f4 87 1a 3c 2a 2d 28 bc 2a b9 0d 3c
       0.0021581443 0.009431828 -0.010264674 0.008650104
0000f0 e2 19 3e 3a ba b2 7f bc 38 39 1d 3c 9e 09 3b 3c
       0.00072517816 -0.015606577 0.009596162 0.011415867
000100 0d 80 2f 3b cc 62 ef bb f5 3f d4 bc f9 59 dc 3c
       0.0026779205 -0.0073054787 -0.025909403 0.026898371
000110 5e 41 f9 ba d6 08 8c 39 c1 90 9b bc d4 97 de 3a
       -0.0019016673 0.00026709464 -0.018989922 0.0016982504
000120 9c 34 93 3c 9c 5d 11 bc 06 f4 cc bc d0 a9 69 3c
       0.017969422 -0.008872416 -0.025018703 0.014261678
000130 69 39 64 3c d8 ac fd 3b c2 9a d6 3b 8d 4e 36 3c
       0.013929703 0.007741552 0.0065492103 0.011127126
000140 c1 64 06 3c 83 13 51 3c 52 6e 1c 3d ea 70 ef ba
       0.008202733 0.012761 0.038191147 -0.0018267904
000150 e6 f1 23 3c a7 54 61 3b 6e 84 c9 bc b2 34 bc bc
       0.010006404 0.0034382732 -0.02459928 -0.022974346
000160 72 a6 6d 3c 0a bf 6a bd 4a 80 77 bc 4a 30 fa 3b
       0.014505016 -0.057311095 -0.01510627 0.007635151
000170 c4 40 96 bc 7d f1 fc 3b f8 30 26 3c 11 a9 e4 3c
       -0.01834143 0.0077192173 0.010143511 0.027912648
000180 37 7e 7f 3b f4 92 dc 3c 2a 27 ff bb 2b 9a af 3c
       0.0038985142 0.026925541 -0.007786651 0.021435818
000190 4e e6 3a bc a9 1c 67 bc 0e 7a b2 bc 1e 35 e8 3c
       -0.011407448 -0.014105954 -0.021786716 0.02834564
0001a0 f5 e7 b6 3c c1 d7 b0 3c e5 b5 c5 3b 0d b8 92 3b
       0.022327403 0.021587254 0.0060336464 0.004477507
0001b0 af 14 8a 3c a9 48 0a bc b1 c0 29 3c ac bb bc 3b
       0.016855566 -0.008440175 0.010360883 0.005759677
0001c0 a7 f9 40 3c 0c b0 52 3c a8 60 a1 3c 87 76 cb 3c
       0.011778272 0.012859356 0.01969941 0.024836792
0001d0 fc f4 c4 bc 5f b7 3f bc 1b 00 df 3c f6 ef e5 3c
       -0.024042599 -0.011701434 0.02722173 0.028068524
0001e0 c7 f0 87 3c c7 b4 3f 3d d8 97 4c 3c 00 4c f8 b7
       0.016594304 0.046803262 0.012487374 -2.9599294e-05
0001f0 c7 72 98 3c c8 90 92 bc a2 23 15 3a e1 3a 41 3d
       0.018609418 -0.017891303 0.00056892086 0.047175292
000200 31 6e 11 3d 22 f1 8d bc ae 3e c2 3c 23 90 94 3c
       0.035505477 -0.017326895 0.023711529 0.018135136
000210 3b a7 0a 3d d1 41 f0 bb 08 bb c7 3b ac ff 11 bc
       0.03385089 -0.0073320647 0.006095294 -0.008911055
000220 2e e0 0b 3c fb 39 d0 bb 7d 11 60 bc 34 29 dc 3b
       0.008537335 -0.006354568 -0.0136760445 0.006718779
000230 82 c9 c1 3c be b6 35 3d b3 84 d6 3c da ad aa 3c
       0.023655657 0.04436373 0.026186323 0.020834852
000240 ae 0c 90 3c 9a d7 08 3c b1 74 34 3c c3 77 e3 3c
       0.017584171 0.008352185 0.0110141495 0.027767068
000250 f2 98 a3 3c a9 54 c6 3c 92 ba 63 b8 c8 70 ec 3c
       0.019970391 0.024210291 -5.4294775e-05 0.028862372
000260 28 af 6e 3d 77 ac 2f bc 67 35 6b bb a1 d2 1b 3c
       0.05827251 -0.010722271 -0.0035889985 0.009510667
000270 fd 37 59 3c 13 7c 93 bc 9e fc f4 3c d5 2f 43 bc
       0.013257978 -0.0180035 0.029905614 -0.0119132595
000280 ed df 08 bb 9e 1f 5b 3c a4 18 0e 3d 19 e7 84 3c
       -0.0020885423 0.013374237 0.034691468 0.016223477
000290 e0 dc b2 3b a5 ea 84 3c 56 fd e7 bb f8 53 3e 3c
       0.0054584593 0.016225168 -0.0070797605 0.011616699
0002a0 88 de f6 3c b1 52 10 3c f1 b6 b1 3b 2e 75 41 3c
       0.030135408 0.008808778 0.0054234196 0.011807723
0002b0 dc 28 8f bc f6 0a ce 3c fa 45 5c bc ad 13 a0 3c
       -0.017475538 0.025151711 -0.013444418 0.019540632
0002c0 50 76 62 3c 72 fe d1 3c c8 cd b0 bb 08 65 5b 3c
       0.013822153 0.025634024 -0.005395625 0.013390787
0002d0 e0 cd 2b bc 97 4b 54 3c 02 7b aa 3c fc 3c 69 3c
       -0.010486096 0.012957475 0.020810608 0.014235731
0002e0 65 fd 83 bc bb 73 81 bb 7f 0f 71 ba 3d 1c cc bc
       -0.016112039 -0.0039505637 -0.00091957295 -0.024915809
0002f0 4d 5f 63 bc 65 9f da 3c 28 67 66 3c 6f ed 03 3c
       -0.013877702 0.026687333 0.01406268 0.008052214
000300 a3 04 cd bb 45 64 c6 3a 3f 16 8c 3c 28 29 01 3d
       -0.0062566563 0.0015136084 0.017100452 0.03153339
000310 73 e7 01 3c 81 b9 f7 bc 56 a9 72 3c 7f 70 b5 bc
       0.007928717 -0.030239822 0.014810881 -0.022148369
000320 5c 35 7b bc 39 a4 6b 3c 1f 21 19 3c e4 25 bb 3c
       -0.015332546 0.014382415 0.009346276 0.022845216
000330 a5 73 26 3c f8 11 08 3d b6 a1 04 bc 59 5d 70 3c
       0.010159408 0.03322026 -0.0080951955 0.014670693
000340 88 3b c3 3b e3 08 0e 3d 20 90 37 3c fb 0b 59 bb
       0.0059580244 0.034676444 0.011203796 -0.0033118713
000350 b8 65 82 3a d5 2f 4a bb 9a 83 80 bc b1 5c 10 3b
       0.0009948527 -0.0030851264 -0.015687753 0.0022027905
000360 e2 6c d3 3b d5 1e 74 3b 37 c5 33 3d 10 0b 3e 3c
       0.006452189 0.0037249823 0.04388925 0.011599317
000370 25 88 8b 3b 6d e6 66 3c 90 52 80 3c df e5 a8 3c
       0.004258173 0.014093024 0.015664369 0.020617424
000380 88 1e 95 3b 73 bb d8 3c 9d 92 88 3c 23 5c ba 3c
       0.0045507587 0.02645657 0.016671473 0.022749012
000390 f2 24 36 3c 61 ab 60 ba 28 f5 f9 3c df 6b 35 bc
       0.011117207 -0.00085704593 0.030512407 -0.011073082
0003a0 d3 8a 96 3a b0 40 91 3c 1b 6c b8 bc 39 5a 3a 3c
       0.0011485465 0.01773104 -0.022512486 0.01137405
0003b0 92 e2 21 3d 09 26 f9 3b cf 63 87 bb b3 97 a4 3c
       0.039522715 0.007603411 -0.004131771 0.020091867
0003c0 13 8d e1 3b 8d 7e b2 3c 69 65 a8 39 c9 2a d2 bb
       0.0068832724 0.02178886 0.00032119013 -0.006413792
0003d0 22 fb b5 3c ba ca c0 3b 6f 45 0c 3d c4 d1 5d 3c
       0.022214476 0.005883542 0.034245905 0.013538782
0003e0 1e a9 41 bb 5c 49 1c 3b 94 d1 67 3c 43 79 32 3b
       -0.0029550265 0.0023847437 0.014149088 0.0027232922
0003f0 92 a7 61 3c b9 8d 39 bc ed 65 af 3c 7c 6b 4f bb
       0.013772862 -0.011325293 0.021410907 -0.003164976

network_body._body_endoder.seq_layers.4.weight f4 [256, 256]
000000 78 6c 6e bd ac 39 56 bc 78 7d 49 3d f7 97 c6 bd
       -0.058208913 -0.0130752735 0.049191922 -0.09696954
000010 97 f0 2e 3e cd de c9 bc ce 2d 17 bd 4e 68 49 bd
       0.17083965 -0.024642373 -0.036908917 -0.04917174
000020 a2 31 07 3d 6c 3e 8d bd 82 c1 90 bd dd 77 8e bd
       0.033006318 -0.06896672 -0.07068159 -0.06956456
000030 f4 7c f6 3c 7f 6f 07 3e 9a c9 11 3b fd 4c d0 3a
       0.03008888 0.13226126 0.0022245408 0.0015892085
000040 bf 59 3d 3e 38 f6 c9 3d df 2a 2c 3e 80 f1 2a be
       0.18491267 0.098614156 0.16813229 -0.16693687
000050 87 a3 d3 bd 61 38 2b 3d 13 c0 f6 3d 5e 19 30 bd
       -0.10333925 0.041801814 0.12048354 -0.042992942
000060 e8 88 92 3d 5d b5 95 3d c1 20 75 bd 0e 7f 4a 3d
       0.07155019 0.07309983 -0.05984569 0.049437575
000070 d6 57 1c bd 5f ef a2 3d c2 b6 32 be bb 4a 91 3c
       -0.038169704 0.07955813 -0.17452529 0.01773583
000080 43 b1 76 bd 4b 8a 5e 3c d9 c1 76 3d 6e 7c af 3c
       -0.060227644 0.013582776 0.06024346 0.021421637
000090 d9 40 f2 bc b8 de 84 36 11 dd 4a 3d 59 47 86 bb
       -0.029571937 3.9598344e-06 0.04952723 -0.004097861
0000a0 26 a2 11 be 7a 75 f9 bc 3d 71 ff 3c ef 48 28 bd
       -0.14222011 -0.030451525 0.031181926 -0.04108518
0000b0 fa db be bb 44 c4 db bb 09 bc 2a bd 2b f4 31 3c
       -0.005824563 -0.0067067463 -0.04168323 0.010861437
0000c0 2d 42 05 be 6a 6f c2 3c fb ec 4a bd 87 3c 8a bd
       -0.13013525 0.023734767 -0.04954241 -0.06749826
0000d0 3b 37 44 3d 5a 53 41 be 9e fb 46 3d 80 a8 98 bd
       0.047904234 -0.18879452 0.048579805 -0.07454014
0000e0 6c 26 3a be 8a c2 53 3d ed e4 c7 3c 76 6b 55 3d
       -0.1817872 0.0516992 0.024401153 0.052104436
0000f0 44 d0 21 3c ce d6 02 bd 70 45 d7 3d a1 74 cc 3b
       0.009876315 -0.031943135 0.10511291 0.006239489
000100 da 4c 36 bd 39 d8 34 bd c8 97 94 bd b7 3a a9 bd
       -0.044506885 -0.04415152 -0.072555125 -0.08263152
000110 5d bc 79 3d 70 de 2e be 8d c4 3e bd 9e 00 8c 3b
       0.060970653 -0.1707704 -0.046574164 0.0042725345
000120 9b 1b dc 3d 53 d6 84 be 42 25 06 3c 9a c3 14 3e
       0.10747453 -0.25944766 0.008187594 0.14527741
000130 ff 0c da 3d 86 34 59 3b ae 34 4e 3d 2a 1b 12 3c
       0.1064701 0.0033142879 0.050343208 0.008917609
000140 96 85 e5 3d 77 71 1e bd 9d b6 d8 bd fb 25 05 be
       0.1120712 -0.038682427 -0.10581706 -0.1300277
000150 a4 26 2f be b7 c8 3e 3c 13 6e 87 3d 1c 22 ec 3c
       -0.17104584 0.011644534 0.06612792 0.028824858
000160 79 75 48 bd 54 d7 0d bc 1b de 2a bd ae 44 22 3c
       -0.048940156 -0.008657295 -0.041715723 0.00990407
000170 7f 01 23 bd 75 66 1e bd 7e 61 f6 3d 19 41 c5 3d
       -0.03979635 -0.03867193 0.12030314 0.09631557
000180 f3 97 57 bd a7 6a 98 3d 06 ae df 3c 4c b2 2a bd
       -0.052635144 0.07442217 0.02730466 -0.041673943
000190 5e 2a be bd c9 d5 13 be 11 57 a9 3d 7f 6d d3 3c
       -0.09285425 -0.14437021 0.0826856 0.025809048
0001a0 b5 99 88 bd 5c 9b e1 3c 06 f1 a9 bc 10 44 b6 bd
       -0.06669942 0.027539901 -0.020744812 -0.08899701
0001b0 7a 70 4f 3c 2b 92 ec 3b 65 69 ea bd 15 59 dd 3d
       0.012661094 0.007219573 -0.11445884 0.10808007
0001c0 a5 9c 4d 3d c5 94 92 bd d2 ef de bd 31 bf c8 bd
       0.050198216 -0.07157282 -0.10885586 -0.09802092
0001d0 be 75 9f 3c d9 f9 55 3e 97 94 a6 3c 06 0d 9e 3c
       0.019465324 0.2089609 0.020334525 0.01929332
0001e0 e5 61 4a bc 18 3d 7f 3c 60 0a 18 3e 06 38 4b bd
       -0.012352441 0.015578531 0.14847708 -0.049613975
0001f0 9d f7 8e bd 4a d6 df bd 27 98 a5 3c 2f cf 60 bd
       -0.06980822 -0.10929544 0.020214153 -0.054885086
000200 2d d0 8b 3d 29 2a c0 3d ac 19 4b bd 47 79 1b bd
       0.06826816 0.093830414 -0.04958503 -0.037957456
000210 86 6a 01 be 30 4c b7 bd 19 96 9c bd dd b5 26 3d
       -0.12638292 -0.089500785 -0.07645816 0.040700782
000220 a7 b2 bc 3c 6c aa a7 bd 59 88 a2 bd 29 e0 0e 3e
       0.023034407 -0.08186802 -0.079361625 0.13952698
000230 c6 13 57 3d 23 bb 2f 3d e7 2a e5 bc d6 fa fc bd
       0.05250909 0.042903077 -0.027974559 -0.12352531
000240 c4 93 4c 3d 6f b9 90 ba 83 fb bc 3d b9 77 fe bd
       0.049945608 -0.0011041592 0.092276596 -0.12425179
000250 b6 2d c5 3d 5a b0 05 bd f2 7e 1a 3c 5c 5e b1 bd
       0.09627859 -0.032638885 0.00942968 -0.08660576
000260 5d 13 0e 3e 6f 3d d4 3d 61 2c c9 bd 3a 86 d6 3c
       0.13874574 0.1036328 -0.09822918 0.026187051
000270 9f 87 a8 3c ff ad 9f 3d a7 92 1a be 17 03 74 bd
       0.020572482 0.07796859 -0.15095006 -0.05957326
000280 ec 92 d3 bb 24 20 83 bd ed c0 a9 bd 1b 9a ad bc
       -0.0064567234 -0.06402615 -0.08288751 -0.021191647
000290 9b 74 00 3b 42 e0 bc bc 4c 95 60 3d c3 5c 42 bd
       0.0019600752 -0.023056153 0.05482988 -0.047451746
0002a0 83 cf cc bd a4 fb de bd 9f 44 a5 3c 7d 4a 77 bd
       -0.10000517 -0.108878404 0.020174323 -0.060373772
0002b0 8d 98 66 3c 20 92 21 bd f1 40 06 be f2 2c 91 3d
       0.014074457 -0.039445996 -0.1311071 0.07088651
0002c0 d5 7e b8 3d bf b5 05 be 11 1a 5c 3c a6 da 67 3b
       0.09008566 -0.13057612 0.013433949 0.0035378127
0002d0 ab 78 bb 3d a7 16 82 3d 01 53 35 bd be f3 a4 3d
       0.09153875 0.06351977 -0.04426861 0.08054303
0002e0 cd ef ea bc bb 47 01 be 51 39 20 3d 1c 98 10 3d
       -0.028678799 -0.12625019 0.03911716 0.035301313
0002f0 54 ab 56 3d 05 9a ca bc f4 29 65 3c 20 51 8e 3b
       0.052409485 -0.024731645 0.013987053 0.004343167
000300 6c 33 44 3d 78 2f a2 3d 8d 70 0a 3d 69 39 0a 3e
       0.047900602 0.0791921 0.033798743 0.13498463
000310 dd 35 a3 bb b4 c5 06 bd 2f db a7 bd 19 09 05 bd
       -0.0049807862 -0.03290339 -0.08196103 -0.03247938
000320 25 28 84 bd e1 11 8e 3d ce 21 13 be db e2 12 3e
       -0.064529695 0.06937004 -0.14368364 0.14344351
000330 f1 78 4b bd ef f5 20 3d b6 a3 74 3d 40 3d 02 3e
       -0.049675886 0.03929704 0.05972644 0.12718678
000340 68 77 24 3d 67 ee e0 3c 68 77 f6 bc 00 4e 32 be
       0.040152937 0.02745743 -0.030086234 -0.17412567
000350 26 08 44 be fe 70 6e bd f2 cd bd 3d b4 fa 5a 3d
       -0.19143733 -0.058213226 0.092677966 0.053461745
000360 ea af f1 3c bb 2f e6 bd 99 d6 8b 3c 07 4a 97 bd
       0.029502828 -0.112395726 0.017070102 -0.073871665
000370 25 00 33 bd 8e 1e 2b bd 0f 55 d4 bd 9b ce 94 3d
       -0.04370131 -0.041777186 -0.10367786 0.07265969
000380 f3 17 4e bc 0c b1 af 3d 7f 14 0a bc 21 23 14 bc
       -0.012578952 0.08578691 -0.008427738 -0.0090415785
000390 1c 1f f3 3d 7e 9e 94 bc 75 b4 37 be 72 55 9f 3d
       0.11871168 -0.018141981 -0.17939933 0.07779969
0003a0 55 0f 60 bd 96 99 32 bd 0f 33 e2 3d 0a d8 8a bd
       -0.05470212 -0.043603502 0.11044895 -0.067794874
0003b0 88 b6 f6 3c 3d 2f 99 3d 8c 12 67 be be d3 7f 3d
       0.030116335 0.07479713 -0.22565669 0.062457792
0003c0 59 5e f2 bd fb de 2a bc 8f fa b1 bd c1 9f c2 bd
       -0.11834402 -0.010429139 -0.086903684 -0.09503127
0003d0 47 87 86 3d e9 1e 46 3c 03 f3 61 3e 7e 9a c3 bd
       0.06568771 0.0120923305 0.22065358 -0.095509514
0003e0 ca 7c 79 bd 07 34 8a bd 06 c8 40 bd f7 89 0e be
       -0.060910024 -0.06748205 -0.047065757 -0.13919817
0003f0 8c 67 03 be e9 79 16 bd 97 1b 09 3e d1 06 60 be
       -0.12832469 -0.036737356 0.13389431 -0.218776

network_body._body_endoder.seq_layers.4.bias f4 [256]
000000 4e ff 17 3c bf dc ba 3a 96 e8 03 bc 7d 2e 54 3c
       0.009277178 0.0014256461 -0.008051058 0.012950537
000010 97 66 55 3c ef 00 f9 3c 95 84 db 3c 20 96 d0 3c
       0.013024948 0.030395953 0.026796618 0.02546221
000020 14 59 ac bc ac fa 0f 3c da 7d 20 bd 19 66 e9 3b
       -0.02103857 0.008787792 -0.03918252 0.0071227667
000030 26 10 05 3d fd 2b b4 3c 67 16 52 3d 64 8a 19 bd
       0.032486103 0.021993631 0.051290896 -0.037485495
000040 68 af 94 3c 81 b4 62 3b 08 b6 d0 bc 00 9e 67 3c
       0.018150046 0.0034592452 -0.025477424 0.014136791
000050 f8 f8 34 3d 9e 49 85 bc a6 e9 b1 3c fb 4e 63 3b
       0.044182748 -0.016270455 0.021717858 0.0034684527
000060 18 7e 86 bb 45 29 9c 3c 40 fd ed 3c 64 7b 5e 3d
       -0.004104387 0.019062648 0.029051423 0.054316893
000070 37 b6 c9 3c 78 9b b2 3b 98 31 07 3d 60 34 23 ba
       0.02462302 0.005450662 0.03300628 -0.0006225761
000080 23 a7 37 3d bf 64 a6 3c 33 d2 27 bd f7 f8 cc 3c
       0.04483713 0.020311711 -0.040971946 0.02502106
000090 34 94 d0 bc f7 cb 03 3d cd 46 6c 3c 2c 00 65 3c
       -0.025461294 0.032176938 0.014421177 0.013977092
0000a0 bd 02 d1 bb 59 ce 35 39 20 d0 4d 3b 21 44 91 3c
       -0.0063785003 0.00017338376 0.003140457 0.017732682
0000b0 f0 da 00 3d 4a 3d f8 b9 db b1 38 3a 54 b4 03 bb
       0.031458795 -0.0004734791 0.00070455455 -0.0020096498
0000c0 9f 03 0a 3a 78 6d 76 3d a9 57 eb 3a d6 b7 43 ba
       0.0005264822 0.06016299 0.0017955202 -0.00074660534
0000d0 96 15 12 3c 1c bb 24 bd 5f 5c 05 bd 79 c5 13 3d
       0.008916279 -0.040217504 -0.032558795 0.036076996
0000e0 39 d2 38 3d 9a aa f6 ba 16 1b c1 bc 0f 5e 3b 3c
       0.04512236 -0.0018819154 -0.023572486 0.011436
0000f0 d2 48 45 3c 63 5e fd 3c 1f a9 a9 b9 d5 8c cc 3b
       0.0120412875 0.030928796 -0.00032360197 0.0062423744
000100 1f 48 46 3d e9 5e fc bc e7 c1 7c bc 04 ca fd 3c
       0.048408624 -0.030806975 -0.015427089 0.030980118
000110 b6 fb 2c bc 94 c4 9c 3b 86 c9 a3 3c 3b 34 98 bc
       -0.010558059 0.004784176 0.019993555 -0.018579593
000120 56 c7 3f 3c 82 ac f0 bc 45 69 ac bc 4a 3a f4 bc
       0.01170524 -0.029379133 -0.02104629 -0.02981295
000130 12 3b 13 3d f9 80 c3 bc 4f 43 94 3c 0a bd 5f bd
       0.035945006 -0.02386521 0.018098501 -0.05462364
000140 fc 05 e4 3a 52 67 04 3c 38 a7 09 3d 77 52 68 3c
       0.0017396803 0.008081274 0.033606738 0.014179817
000150 bc 0d 7e 3c c1 03 db 3c 92 4f fa bc bd fc c3 3c
       0.015506204 0.026735188 -0.03055552 0.023924226
000160 40 0c 1a 3d c4 f8 b1 3b a1 8d ac bc 00 1e 5e 3c
       0.03760934 0.0054312665 -0.021063628 0.013556957
000170 7c aa 95 bb ff 83 0a 3d c5 ed c1 bc 4a 8e 5e bc
       -0.0045674425 0.033817288 -0.023672948 -0.013583729
000180 3d 6b 07 39 72 58 53 3c ce f6 e5 39 0b 3a e0 3b
       0.00012914553 0.012899505 0.00043862168 0.0068428568
000190 2f ea a5 3c 9b 1e 54 3c fc 7e 79 3b f3 5f 19 3c
       0.020253269 0.01294675 0.0038070073 0.009361255
0001a0 e7 cc 2f 3c 32 b6 f4 ba 4c 8a bc 3c 85 e7 ad bc
       0.010730005 -0.0018670021 0.023015164 -0.021228561
0001b0 1a 39 71 bc bb a0 36 bd ee 03 db 3c 8d 5d 3e bc
       -0.014723087 -0.04458688 0.026735272 -0.011618984
0001c0 58 3c 29 3d b2 da 22 3c c0 db ac 3c fa 01 83 3d
       0.041317314 0.009939836 0.021100879 0.063968614
0001d0 00 bf 3d 3c 15 1d 59 3c e4 e8 3b bb 7a 45 67 3a
       0.0115811825 0.013251563 -0.002867275 0.00088223035
0001e0 55 07 cb 3c 9d 4e 8f 3c 1e 5f 4d 3c 43 ed 59 ba
       0.02478377 0.01749354 0.012534885 -0.0008313248
0001f0 6c 1f c9 3a f6 6b c1 3c a5 a4 e8 b8 e0 10 e7 3c
       0.0015344447 0.02361105 -0.000110932895 0.028206289
000200 8a b6 00 bd 9b 0b 57 3c a4 af d0 3c 9e a8 04 3c
       -0.031424083 0.013125326 0.025474377 0.008096842
000210 46 56 36 3d 98 3d 35 3c 35 00 b8 bc 32 ea 54 3c
       0.04451587 0.011062048 -0.022461036 0.01299529
000220 f6 ea 69 3c 73 95 1e 3d d5 53 11 3d d1 cb 56 bc
       0.01427721 0.038716745 0.03548034 -0.013110117
000230 50 ae ae 3c 86 12 0c 3d ba 1c 60 bc 69 a1 7f 3c
       0.021323353 0.034197353 -0.013678724 0.015602448
000240 2f fa e5 3c 92 79 0d 3c d5 99 05 3c 20 66 0e 3d
       0.028073398 0.008634942 0.008154352 0.034765363
000250 a1 d1 b1 3c 68 14 2e 3b b6 98 0b 3d 52 ea 62 bc
       0.021706404 0.0026562456 0.034081183 -0.013849812
000260 62 12 89 3a 9c 24 17 bb 9f 36 ed bc ec 24 48 3b
       0.0010457749 -0.0023062592 -0.02895671 0.0030539585
000270 ed c7 e8 3c ef dc ce 3c c8 8a 01 3d 22 2a 8a bb
       0.028415645 0.025251834 0.031626493 -0.0042164484
000280 a1 01 b3 3c f0 6c 88 bb c9 5e 66 bc 3e 58 3d bc
       0.021851363 -0.004163377 -0.0140606845 -0.011556683
000290 d9 f4 14 bd 4f 50 29 3c e1 04 c5 3c 4f a5 b0 bb
       -0.036366317 0.0103340885 0.024050178 -0.0053908
0002a0 8f 13 ac 3c 45 f8 84 3b 9a 3d 17 3d 6f 90 ef bb
       0.02100542 0.0040579163 0.036923982 -0.007310919
0002b0 5b 8c e3 3a 0c 32 df 3c 91 09 59 bc ab a8 30 3c
       0.0017360555 0.027245544 -0.01324691 0.010782401
0002c0 95 23 13 3d b6 82 b3 ba 3d 83 16 bc 5c 9c 35 3b
       0.035922606 -0.0013695571 -0.009186563 0.0027711606
0002d0 bc cd df 3b b8 d6 b8 3c 26 4f d1 3b 31 09 ec 3c
       0.0068299454 0.022563323 0.006387609 0.028812977
0002e0 b6 5b 09 bd 20 b9 8b ba 8a 7c 4e 3d 75 41 97 bc
       -0.033534728 -0.001066003 0.05041174 -0.01846383
0002f0 87 05 90 3b f9 73 85 3a 53 80 83 3c bf 5c 03 bc
       0.00439519 0.0010181657 0.0160524 -0.008017718
000300 c1 81 59 3c ba d5 5c 3b 46 09 11 3b 89 0f e7 3c
       0.013275565 0.0033696727 0.0022130772 0.02820565
000310 56 fb 0a 3c 32 16 f1 3a 26 2d 40 3c 60 e6 f1 3c
       0.008482775 0.0018393456 0.011729514 0.029528797
000320 cb 5c 2d 3c 80 20 53 ba 23 e8 4e bc 0f 96 37 bc
       0.010581206 -0.0008053854 -0.012628588 -0.01120521
000330 55 f7 09 3d 6b e8 99 bc 99 5e b5 3c 5a 27 88 bc
       0.03368314 -0.018787583 0.022139834 -0.016620327
000340 1f c0 96 3c b7 e4 04 3d 0f 5c a1 3b 80 b2 87 3d
       0.018402157 0.032444682 0.0049243043 0.06625843
000350 a8 47 94 bb c6 bb 94 bc 23 79 22 3d e3 2a 1b bd
       -0.0045251437 -0.018155944 0.039666306 -0.037882697
000360 42 26 d4 3b f7 17 9d bc e2 1c 47 3b fb 9f 99 3c
       0.0064742872 -0.019176466 0.0030382206 0.018753042
000370 63 7e cc b9 99 e5 f2 3b 13 40 8b bc 32 ce cc bb
       -0.00039004078 0.007412624 -0.016998326 -0.0062501663
000380 d2 8f 82 3c 97 95 c9 3c 67 00 4c bc e5 04 5d 3c
       0.01593772 0.024607463 -0.012451268 0.0134899365
000390 88 a2 52 3b 33 ca 09 bc 03 c2 05 bc cf cd 7d 3c
       0.0032140333 -0.008410024 -0.008163932 0.015490963
0003a0 12 fb df bc d2 10 bc 3c d0 d7 e1 bb f6 18 73 3c
       -0.0273414 0.02295724 -0.006892182 0.014837494
0003b0 da 62 d9 3c 71 2a f5 3c 54 b2 66 bd 14 30 71 3c
       0.026536394 0.029927464 -0.05632241 0.014720935
0003c0 82 98 6f bb 63 3e 9c 3c 6d bf 7d 3c 00 4d 12 3d
       -0.0036559408 0.019072717 0.015487534 0.035717964
0003d0 1a 4f f7 3c f0 27 be 3c a8 64 94 bc ea 73 f7 3c
       0.030189086 0.023212403 -0.018114403 0.03020664
0003e0 27 5a db 3c 28 6b a4 3c fb 0b a9 3c c9 5f 1f 3c
       0.026776386 0.020070627 0.020635596 0.009727427
0003f0 7a 2d 18 bc 15 87 28 3d 4b ed 88 bc fd 92 b0 bc
       -0.009288186 0.04114445 -0.016714713 -0.021554464
