Assets/Zombie Walker.onnx (onnx, 212072 bytes, 7 tensors)

network_body._body_endoder.seq_layers.0.weight f4 [128, 236]
000000 1e fc 22 bc de e8 98 bd 10 68 ce 3d 80 c4 fa bd
       -0.009947805 -0.07466291 0.10078442 -0.12244511
000010 c0 ff 3b bd f7 d1 89 3c 7f 18 cb 3d a3 51 28 3e
       -0.0458982 0.016823752 0.09916782 0.16437392
000020 73 a4 08 3c d9 a3 be bd 49 c2 30 bd 93 e1 b4 bc
       0.008339989 -0.09308595 -0.043154035 -0.022080218
000030 a3 cd 11 3d 6b e7 1f 3e 13 39 4b bc 0d 88 4e bd
       0.0355965 0.15615623 -0.012403744 -0.050422717
000040 80 21 31 bc cc 20 8f 3d 0d 8d 31 3d 39 51 d8 bd
       -0.01081121 0.069886774 0.043347407 -0.10562367
000050 a7 cb d1 bd 01 3a 06 3d 95 79 8e bd fd 59 56 3d
       -0.10243922 0.03277016 -0.06956784 0.052331913
000060 97 5a cb 3d 7a 3b d9 3b 85 b7 a1 3d e8 2c 7d 3d
       0.09929388 0.0066294046 0.07896332 0.061810404
000070 7a 8c a1 3d 65 18 9a bc 38 ff 42 3d f6 ca 50 3c
       0.07888122 -0.01881046 0.047606677 0.012743702
000080 de 70 b3 3d 7e 6c 99 3d c8 85 f4 3d c5 f9 e2 3c
       0.08761762 0.07491396 0.11939579 0.02770699
000090 7f d0 96 3c b8 22 e3 3d 4f 27 a1 bd 7e 57 ab 3d
       0.018409966 0.110906065 -0.07868826 0.08366297
0000a0 62 a8 ba bd f0 4d da bc 95 f2 b6 3c 59 1e 1b 3b
       -0.09114148 -0.026648492 0.022332469 0.0023669212
0000b0 f7 f4 3b bc 4d 33 2b bd 2e e0 95 bd 8c 80 ba 3c
       -0.011471978 -0.04179697 -0.073181495 0.022766374
0000c0 56 4d 01 3d 54 be 1b 3e 3f c3 ba 3c ae 57 a6 3d
       0.031567894 0.15209323 0.022798179 0.08122192
0000d0 95 18 ae 3c c1 cc 29 bd 5c 32 56 bd 0a 50 a9 3d
       0.021251956 -0.041455034 -0.05229412 0.08267219
0000e0 c3 3a ff bd 4f 28 0f 3e ca 74 e9 bd 77 a4 52 bd
       -0.1246238 0.1398022 -0.11399229 -0.051426377
0000f0 d5 d3 1b bd 7a 60 64 bd e1 f0 a1 ba c6 19 28 3c
       -0.038043816 -0.05575607 -0.0012355113 0.010260051
000100 13 3d 9d 3d f7 ec e2 bc 41 a2 46 bd 5e fb 49 3d
       0.076776646 -0.027700884 -0.04849458 0.049311988
000110 66 20 30 bd 19 46 d2 bd 3f db a4 bd 6c ff 4b bd
       -0.042999648 -0.10267276 -0.080496304 -0.049804136
000120 15 94 d4 bd 04 24 49 bd e0 1f 59 3d 33 5e 28 3d
       -0.10379807 -0.049106613 0.053008914 0.04110546
000130 a7 f8 96 3c 1c 84 e5 3c 02 83 29 bd 76 68 61 be
       0.018429114 0.028017096 -0.041384704 -0.22012505
000140 b9 87 1a 3d 2f a1 a5 3d ae c8 23 bd 75 78 4f 3e
       0.03772709 0.08087384 -0.039986305 0.20260794
000150 cd bc 47 3c ec dd 6a 3d b6 55 76 3c e1 b9 fc 3b
       0.01219101 0.057340547 0.0150350835 0.007712588
000160 99 6e a8 bc 22 6d 09 bd e5 45 64 3d 4e 12 a3 3d
       -0.02056055 -0.033551343 0.05573072 0.07962476
000170 a6 b9 b4 3b 59 0e 89 bd 07 5e 65 3d 26 f9 6f bd
       0.005515295 -0.0669219 0.055997875 -0.058587216
000180 02 06 9b 3d fc f5 0c 3e 00 f3 7b 3d 34 47 6b b9
       0.07569505 0.1376571 0.06151104 -0.00022437872
000190 ed b8 82 bd 44 91 21 3e 98 e6 74 bd 8a 13 d3 bd
       -0.06382928 0.1577807 -0.059790224 -0.10306461
0001a0 db d5 20 3d ef 89 66 bd a2 9c f1 3c 59 44 ac bd
       0.03926645 -0.056283887 0.029493634 -0.08411474
0001b0 0a 31 2f 3d 72 0b 40 bd c2 c9 d5 bc 01 1d 78 ba
       0.042771377 -0.046885915 -0.026097182 -0.0009464771
0001c0 3c 6c 6a 3d 5c 39 8a bd 4d dd c0 bd f4 7c ce bb
       0.057232127 -0.06749222 -0.0941721 -0.0063015167
0001d0 46 7d 07 bd cc ac a3 3c 90 1b d7 bc e8 6d 18 3c
       -0.033078454 0.019979857 -0.02625826 0.009303547
0001e0 11 99 a8 3c 67 50 29 be 4f 0a 04 bc cc 45 ca bd
       0.0205808 -0.16534577 -0.008059098 -0.09876594
0001f0 12 9e ae bb 0f 80 a0 3d a8 d6 de 3c 4f 13 0e 3c
       -0.005328902 0.07836925 0.027201965 0.008671596
000200 32 ff 4f bc a2 40 91 3d 1a 6c 6a bd 51 96 1f 3d
       -0.012695121 0.07092406 -0.057232 0.038961712
000210 82 5b ed 3b 90 9d 97 3d fd bc 04 3d d3 db 23 bd
       0.0072435746 0.074030995 0.032406796 -0.040004563
000220 ab c7 60 3d 93 a9 57 3d 56 ad 8f 3d cb 23 35 bd
       0.05487792 0.052651953 0.07015483 -0.044223588
000230 a3 34 83 bd 5b f3 21 bc d2 3f 0d 3d 7d 59 88 bd
       -0.06406524 -0.009884681 0.034484692 -0.066576935
000240 85 7e 5f bd 33 91 dd bd 74 de c1 bc 64 2b 90 3d
       -0.054564018 -0.1081871 -0.023665644 0.07039526
000250 63 6b a6 3d 89 fd 1b be 14 b4 05 3e d4 04 8c bc
       0.08125951 -0.15233435 0.13056976 -0.017092146
000260 41 ca ee bc 96 80 9f 3c d9 f8 92 3d 21 d3 4f 3d
       -0.029149177 0.019470494 0.0717637 0.050738458
000270 92 7f 4e bd 3c d6 5a 3d c7 ef 71 3c 96 23 25 3d
       -0.05041463 0.053426966 0.01476664 0.04031714
000280 5d 28 03 bd 89 5f c3 bd c7 2b 85 3d 0f c6 50 3c
       -0.032020915 -0.09539706 0.065024905 0.012742533
000290 6d 77 63 3d 30 f6 48 bd 8f 41 99 bb 75 d2 86 3c
       0.055533815 -0.049062908 -0.0046770046 0.016457776
0002a0 b7 bb 5e 3d 29 7e ac bd dd c6 04 be ef 81 d9 3d
       0.054378238 -0.08422501 -0.12966485 0.10620486
0002b0 d1 db b4 3c d7 2b bf bd cd 8b 0a bd 18 3a 4f bd
       0.022077473 -0.09334534 -0.03382473 -0.050592512
0002c0 1a 24 b8 bd 27 98 16 3d ca 26 fa bc 0b fd 41 3c
       -0.08991261 0.036766198 -0.030536074 0.011840115
0002d0 d5 14 47 3d bb f9 f4 3b d6 81 e3 3c cd b9 eb 3d
       0.04860385 0.0074760593 0.027771872 0.11510048
0002e0 f6 9a e1 bd f8 b5 ac 3c 6f a4 c8 bd ad da 40 bb
       -0.110158846 0.021082863 -0.09796988 -0.0029427216
0002f0 ff ea 00 be e4 b3 7f bc 00 0e 19 3b 02 27 03 3d
       -0.12589644 -0.015606854 0.0023354292 0.032019623
000300 bd dd 09 bd b6 b2 e9 3d 2f 60 66 3c 76 15 78 3d
       -0.03365873 0.114110395 0.014061018 0.06056734
000310 43 98 e9 bd ee 60 8c 3d a8 76 96 bd 22 f2 d9 3d
       -0.11405995 0.06854425 -0.07346851 0.10641886
000320 85 2b 06 3d 45 e3 6f be 66 23 2a 3d 30 bd 90 bd
       0.032756347 -0.2342654 0.041537665 -0.07067335
000330 d5 de 14 be 7e b3 8b 3c e8 19 dc 3b 6e ea 03 3d
       -0.14538129 0.017053362 0.0067169555 0.03220599
000340 60 9c f2 3a 6c 7c 3e bd aa eb a5 bd 8e e8 47 bd
       0.0018509738 -0.046505377 -0.0810159 -0.048805766
000350 52 57 9c 3c 92 ef 61 bd bf 30 89 3b 4d f7 08 3d
       0.019084606 -0.055160113 0.004186719 0.03343897
000360 df f7 84 bd 83 ec b7 bc e1 50 03 3d 49 e5 98 3d
       -0.0649259 -0.022451645 0.032059554 0.07465608
000370 a7 09 5a bd 8b cb 6f bd 1d bc 58 3c e6 0b e7 bb
       -0.05323186 -0.058543723 0.013228443 -0.007050979
000380 62 d6 ff 3d 00 cf a9 bd 68 0e db 3c 3e 20 2a 3d
       0.12492062 -0.08291435 0.026740268 0.041534655
000390 0a d2 f6 3c da 6b 5d bd e9 e9 d7 bd a8 a7 9a 3d
       0.030129451 -0.054057933 -0.10542662 0.07551509
0003a0 3f 47 1e 3d d0 58 9c bd 14 84 89 bb 0d f2 c0 3b
       0.038642164 -0.07634127 -0.004196653 0.0058882297
0003b0 4a 5a 74 bd 97 a2 ce bd ce 8d d9 3d cb 8b f0 3c
       -0.05965642 -0.10089605 0.1062275 0.029363533
0003c0 7c 85 2a bc 9d 9d 0e bb 6a e0 94 bd ef 9a 02 be
       -0.010407802 -0.0021761425 -0.07269366 -0.12754415
0003d0 70 17 dd 3d 55 9b 08 3d fe 74 cb bc dc 62 17 be
       0.10795486 0.03335126 -0.02483606 -0.14783806
0003e0 4f ca c2 3d fe 84 6d 3c ed a3 c2 bd e0 33 6e 3d
       0.095112436 0.01449704 -0.095039226 0.05815494
0003f0 da e9 bd 3d af fc 38 bd 4b 36 7c 3d 78 57 98 3d
       0.09273119 -0.045162853 0.061575215 0.07438558

network_body._body_endoder.seq_layers.0.bias f4 [128]
000000 cb f9 fc 3b 88 38 d6 3c 2b c4 e5 3c bc b7 d7 3c
       0.0077202073 0.026150003 0.028047642 0.026332729
000010 0e 12 a6 bc c4 d6 6c 3c cc b9 3c 3b 67 6f 8c bc
       -0.020272281 0.014455501 0.0028797267 -0.017142965
000020 14 e6 22 3c de ea 26 3c 26 f2 41 3c 1a d2 c0 bb
       0.00994255 0.010187833 0.011837518 -0.005884421
000030 8a 7d 8b 3a b5 30 83 bc b8 88 2a bc 94 9f 1c bc
       0.0010642272 -0.016014436 -0.010408573 -0.009559531
000040 b1 b6 34 3c 1a cc 88 bc 4c 53 3b bb 05 12 bf 3c
       0.011029885 -0.016698886 -0.0028583584 0.023324022
000050 7c 75 ad bc fa 55 a2 bc 97 4a 97 ba de e8 2c bb
       -0.021174185 -0.019816387 -0.0011542615 -0.0026383917
000060 59 fd 71 ba 81 cd 0e bc 10 0b 82 bc 01 8a cd bb
       -0.0009231172 -0.008715988 -0.015874416 -0.006272555
000070 d5 12 f5 3c c1 bc b8 ba 8f 9d 8c 3c 11 d6 a6 bc
       0.029916206 -0.0014094339 0.017164974 -0.020365747
000080 3a 94 61 bc e8 68 4d 3c 0e c5 76 3c 81 4d 18 bc
       -0.01376825 0.012537219 0.01506163 -0.009295822
000090 2f 89 a8 3c 46 90 d6 3c 8b 5c 42 bc 2f ea de bb
       0.020573227 0.026191842 -0.011862884 -0.006802819
0000a0 a1 26 05 3b 34 50 a3 3c 9d c5 4d bc 83 fd 8e bc
       0.0020317214 0.019935705 -0.012559322 -0.017454868
0000b0 89 dc 1b 3d bb 54 0b bc f1 b5 fa 3c 13 f8 28 3d
       0.038052116 -0.008504088 0.030604335 0.041252207
0000c0 16 c7 7c 3c 90 4e bd 3b 6b f8 e2 3c 5c ba 99 3b
       0.015428325 0.0057771876 0.027706346 0.004691405
0000d0 de 26 16 3d 56 f3 80 3c c7 08 13 3d c5 ea 2f 3c
       0.03665816 0.015741032 0.035897043 0.010737126
0000e0 6a 09 0a 3b 8d 12 c1 bb 79 d2 8c 3c 26 8f 78 bc
       0.002106274 -0.005892104 0.017190205 -0.015170848
0000f0 c4 02 c0 bc 56 75 11 3d 29 5b 8f bc f3 99 c9 bb
       -0.023438819 0.03551229 -0.017499523 -0.0061523854
000100 e7 8f 9f 3c 81 09 0e 3d 57 e6 33 bc 5b b6 c6 3b
       0.019477798 0.034677032 -0.01098021 0.006064219
000110 ed 33 0f 3b b0 9a 37 bc e1 59 aa 3c fa b9 20 bc
       0.0021851019 -0.011206314 0.02079481 -0.009809965
000120 fb 13 ee 3c 32 8a 5e 3d 20 73 81 bc ec 0d fb bb
       0.029062262 0.054331012 -0.015801966 -0.0076615717
000130 87 9e 80 bc 96 92 26 3d 28 d2 a6 3c 4d f4 d6 3c
       -0.015700592 0.04066714 0.020363882 0.026239539
000140 e0 95 2d 3d cb 9b 9e 3b 5a 0c 5a 3c 2c 30 d2 bc
       0.04237926 0.0048403493 0.013308609 -0.025657736
000150 c9 60 cc bc 37 9c 1e bc 7c 03 ce 3c e9 cd 0a 3c
       -0.024948495 -0.009680799 0.025148146 0.008471944
000160 c5 43 dc 3b 0f 2d 76 bc f3 2b a7 3b ec 49 28 3b
       0.006721946 -0.015025391 0.0051016747 0.0025678826
000170 74 b9 10 bc ce 7e 10 3d 50 9b 3d bb 30 30 18 bb
       -0.008833278 0.03527718 -0.0028931685 -0.0023222081
000180 9c fc 06 3c 3e 81 0a bb ab 0a 15 3c f1 f0 8b 3c
       0.008238938 -0.0021134163 0.009096782 0.017082663
000190 40 52 99 bc ff 5b 99 bc f0 18 88 bb c2 16 af 3a
       -0.018715978 -0.018720625 -0.0041533634 0.0013358223
0001a0 10 70 19 bc a7 79 b8 3c 17 02 9a 3c 30 73 de bb
       -0.009365097 0.022518946 0.018799825 -0.0067886338
0001b0 5b 9a 89 bc b8 f9 93 bc e8 ba 18 3c ea 19 72 3b
       -0.016797235 -0.018063411 0.009321906 0.0036941716
0001c0 bc 6b e8 3b 09 63 54 bc 6f d2 3b b8 be 53 dd 3b
       0.007092921 -0.012963065 -4.4780256e-05 0.0067543676
0001d0 b9 d5 38 bb 91 c6 37 3d 6d 46 ca 3b f5 4b 66 bc
       -0.002820356 0.044867102 0.006172946 -0.0140561955
0001e0 57 46 c9 3c 68 80 c3 3b 5a e8 95 3c 9e a1 ac 3c
       0.024569673 0.005966235 0.01829927 0.021073159
0001f0 ab 84 b5 ba 39 27 fe 3c 8b 13 f7 3b b4 fe e6 bc
       -0.0013848742 0.031024562 0.0075401715 -0.028197624

network_body._body_endoder.seq_layers.2.weight f4 [128, 128]
000000 c9 4e 69 bd 9f bb 6d bc 11 b6 e1 3d 70 aa bf bc
       -0.0569599 -0.014510064 0.110210545 -0.0233967
000010 e4 3d 11 3d a4 9f 3c bd e9 80 a2 bd 58 e3 03 3d
       0.035459414 -0.046050683 -0.07934744 0.032199234
000020 23 5a a8 3b 2d a5 24 3d 57 d7 bd 3c dd 36 42 bc
       0.0051376983 0.040196586 0.023173971 -0.011853901
000030 26 31 64 3d 74 e2 15 3d c5 54 94 bd 44 5a a9 3b
       0.055710934 0.036592916 -0.07242731 0.005168231
000040 43 fb 15 3d b0 2b 75 bd b6 63 d0 3b c0 84 ca bb
       0.036616575 -0.059856117 0.0063595427 -0.006180376
000050 a2 f5 47 bd 1e b2 40 3e eb 82 ac ba 50 79 a6 bd
       -0.048818238 0.18817946 -0.0013161575 -0.08128607
000060 3f f5 01 be 38 66 b5 bd 98 db 9f 3b f2 58 0e 3e
       -0.1269121 -0.08857387 0.0048784725 0.13901117
000070 fc 58 d7 3c 2f 9a 1a bd 7f 41 b8 3b 76 fe 02 be
       0.026287548 -0.037744697 0.005623042 -0.12792382
000080 b7 34 0b 3a b8 bd 0b bc be 85 16 3d f1 cc d3 bc
       0.00053102843 -0.008529119 0.03674864 -0.02585456
000090 8b 76 86 3c 9e d2 81 3c d2 d7 34 bd e3 36 b4 bd
       0.016413948 0.0158475 -0.044151135 -0.08799531
0000a0 38 49 5f 3c c7 ed 9d 3d 35 46 3f 3c df 32 8d bd
       0.013628297 0.07711368 0.0116744535 -0.068944685
0000b0 f5 0c 91 3e 10 be 0e 3e e9 5a 85 3d 02 23 a1 bd
       0.28330198 0.1393969 0.0651148 -0.07868005
0000c0 f7 65 6d bd 58 18 34 3d 99 51 a1 bc f7 4d 47 bd
       -0.05795857 0.04396853 -0.01969223 -0.048658337
0000d0 62 aa cc bd 02 4d 51 3e 14 27 d0 3c a6 3a be bd
       -0.099934354 0.20439532 0.025409259 -0.0928853
0000e0 e0 ff 57 be a3 25 74 bd e4 3b 40 3d 27 2d b2 3d
       -0.21093702 -0.059606206 0.046932116 0.087000184
0000f0 67 9a 84 bd 35 dc c1 3d b7 66 2e bd db ac 54 3d
       -0.064747624 0.09465829 -0.042578425 0.05192266
000100 7d 5b e1 3c 0d bc 1e be cf 3b e6 3c 52 90 93 bd
       0.027509445 -0.15501423 0.02810469 -0.07205261
000110 44 d3 a3 bd aa 10 2f 3d e1 18 84 bd d7 77 56 3d
       -0.0799928 0.0427405 -0.06450058 0.052360382
000120 10 0a 30 bb f8 b7 ee 3c 31 86 40 3d 4c fb 97 bd
       -0.0026861466 0.029140458 0.047002975 -0.07420978
000130 1e 61 f3 3d 9d 5b 85 3b 8c ea 5a bd e6 f5 82 3e
       0.11883758 0.004069759 -0.053446338 0.2557823
000140 89 b7 0e 3c 79 1b 2d 3d 0c 46 5c bd da 2a b6 bd
       0.00871075 0.042262528 -0.05377774 -0.08894892
000150 2f a7 2c 3e b5 fa c4 3c ea 91 93 3c 7e bd 20 be
       0.1686065 0.024045328 0.018013913 -0.15697286
000160 86 7c c8 3d 9a 15 b2 bb 86 01 bc 3d 3e 1e a6 3d
       0.09789376 -0.005434704 0.09179978 0.08111237
000170 cb 44 84 bc f8 f4 bf bd ac 93 a9 bc a4 d8 88 bc
       -0.016146084 -0.09372896 -0.020700298 -0.016704865
000180 9f ef ab 3c 83 d2 b3 bd 3e e4 41 3d f3 73 eb bc
       0.020988284 -0.08780386 0.04733681 -0.028741812
000190 f5 a5 d2 3d 4f 8d c1 bd 51 e1 18 be 97 48 75 3d
       0.1028556 -0.094507806 -0.14929701 0.05988368
0001a0 a0 36 f9 bc 33 15 a4 3c bf 64 bd bd c9 cb b7 bc
       -0.030421555 0.02002964 -0.092477314 -0.02243604
0001b0 9b d6 0d 3e db 70 18 bd f0 b5 63 3c 85 f6 b8 3c
       0.13851397 -0.037217002 0.013898358 0.022578487
0001c0 22 bf 6d 3d ff 41 cf bc 11 a1 f9 bd 1b e9 71 3c
       0.058043607 -0.025300024 -0.12188924 0.014765049
0001d0 9a 11 ae bc eb 90 08 bd 69 85 17 3e b7 17 dc 3d
       -0.021248627 -0.03334133 0.14796986 0.10746711
0001e0 9a a2 1f bd 43 57 45 3e da ca 20 3d 12 e6 ee 3c
       -0.03897343 0.19271569 0.039255954 0.02916244
0001f0 1d 59 dd bc 61 77 05 be 7d 30 0d 3c 91 5f 5d bd
       -0.027020032 -0.1303382 0.008617518 -0.054046217
000200 1a 6f f1 bd da 90 11 bd 31 3c a2 3d 93 62 9c bd
       -0.11788769 -0.03553853 0.07921637 -0.07635989
000210 78 9e 75 3d bb c7 32 be af a6 ef bd b5 cf 75 3e
       0.05996558 -0.17459004 -0.11701714 0.24005015
000220 d6 85 64 bc 0a 01 02 bd a7 90 e7 bb 8a 40 b7 3d
       -0.013947925 -0.031739272 -0.0070668045 0.08947857
000230 49 9d d0 bc 8e 06 4f 3d 39 4a 0d be 23 70 17 bd
       -0.025465624 0.05054336 -0.13797845 -0.036972176
000240 89 51 c3 bc 83 56 9d bd da 62 ce bd 89 55 2a be
       -0.02384259 -0.076825164 -0.10077448 -0.16634192
000250 c3 66 0f 3d 4f 97 c0 bc 85 64 b7 bb d6 8e 60 3d
       0.03501011 -0.02350965 -0.0055966997 0.05482372
000260 9b b1 cb 3d 0c 56 71 3d 51 82 eb bd 65 39 38 bd
       0.09945985 0.05891995 -0.11499465 -0.04497661
000270 d1 05 7b bc 6c 2f 60 3c 62 4b 8a 3d b0 c7 bc 3d
       -0.015321211 0.013683181 0.067526594 0.09217775
000280 51 e3 a2 3c e5 4e 83 3d e3 9f da 3d 0c 10 e7 bd
       0.019883784 0.06411532 0.10675027 -0.112823576
000290 e4 d0 47 3e a0 b4 5b 3e 73 da 87 bd f8 39 b7 3d
       0.19513279 0.21455622 -0.06633463 0.089466035
0002a0 3c 35 59 3e 60 8f 8e 3c 15 2a 07 be 59 0e 04 bd
       0.21211714 0.01740235 -0.13199647 -0.032240245
0002b0 9b f2 56 37 0b 65 ef 3c fa c1 57 bc 8c f3 40 3e
       1.281188e-05 0.029222986 -0.013168806 0.18842906
0002c0 16 27 b6 3d a9 28 9b 3d 22 2f f0 ba a2 16 62 bb
       0.08894174 0.07576115 -0.0018324594 -0.0034498353
0002d0 af fb d2 3d 75 aa 1c be 82 7c af 3c 9e ef 79 bd
       0.10301911 -0.15299399 0.021421675 -0.061019532
0002e0 5e 46 5e bd 30 f5 6f be bb ae 7a 3d 99 17 72 3e
       -0.054266326 -0.23433375 0.061201792 0.23641814
0002f0 09 07 d4 3d f6 7a 39 bd 7a 44 80 bc 5b d7 fb bc
       0.10352904 -0.04528328 -0.015657652 -0.030742338
000300 8e 03 d6 3c 07 34 5f 3d 4a 80 3f 3e 90 8e 20 3c
       0.026124742 0.054492977 0.18701282 0.009799615
000310 8d a2 6a 3c 14 3c 19 bd ac 21 02 bd c1 91 8c 3d
       0.014320982 -0.03741081 -0.031770393 0.06863738
000320 ab 12 ac bd d2 de 9f bd c6 f3 30 3d a2 97 bf bd
       -0.08401998 -0.078061715 0.04320123 -0.093550935
000330 8d 86 42 3d 25 85 07 3d cc b7 ee 3d c5 78 00 3e
       0.0474916 0.03308596 0.1165615 0.1254607
000340 47 15 12 3d 1f ed d7 3d 03 a8 a5 bd ea a9 a3 bc
       0.035664823 0.10543274 -0.08088686 -0.019978482
000350 70 42 87 3e 4f 5a a7 3c de 12 23 bd 14 d1 c3 3d
       0.26417875 0.020428805 -0.039812915 0.09561363
000360 df 01 37 3d f0 dc 39 bd 46 62 10 bd 22 d4 18 3d
       0.04467952 -0.045376718 -0.03524997 0.03731168
000370 4c 5e 8f 3d d9 bf d8 3c b1 4f b0 bd 85 80 be 3d
       0.070004076 0.026458668 -0.0860895 0.09301857
000380 09 72 ca 3d 2e e9 16 3e 5b a8 90 bd 10 38 72 bd
       0.09885032 0.14737388 -0.07063361 -0.059135497
000390 3b c8 0a be 78 ce 3c bd 5e 5e 77 3d fa c1 ce 3d
       -0.13552944 -0.04609534 0.06039273 0.10095592
0003a0 47 82 d2 3c 25 d5 08 3e 35 88 44 be d1 44 ee bd
       0.025696887 0.13362558 -0.19192584 -0.116342194
0003b0 f3 22 02 3e e8 87 15 be 2c f0 11 3d 2a 07 9a 3c
       0.12708645 -0.14602625 0.035629436 0.018802244
0003c0 61 63 d3 3d ef 53 97 bc cd c1 31 bc 13 41 7c 3d
       0.103216894 -0.01847264 -0.010849428 0.061585497
0003d0 27 5c 5e 3c 41 b6 2c bc 2c d8 31 bd ca bb 1a 3d
       0.0135717755 -0.0105415 -0.04341905 0.037776746
0003e0 4b 6a 2f be 20 16 a9 bd 7e b3 be bc 89 d0 a5 3d
       -0.17130391 -0.08256173 -0.023278948 0.080964155
0003f0 04 de 35 3e c4 36 a9 3c 08 7d 8f 3c 4d 5f 28 bd
       0.17760473 0.020655997 0.017515674 -0.04110651

network_body._body_endoder.seq_layers.2.bias f4 [128]
000000 c6 8b 1b bc 53 fd 76 3b e1 df 7d 3c 57 69 88 3c
       -0.009493774 0.0037687614 0.015495271 0.016651792
000010 26 e2 cd 3c a5 1e bf b9 49 83 53 bc 40 4d b4 bb
       0.02513225 -0.0003645319 -0.012909719 -0.005502373
000020 ef e7 ff 3c f3 49 b4 bc e5 1a 27 3c ba 12 f4 3c
       0.031238524 -0.022007918 0.010199283 0.029794086
000030 86 20 86 3c f9 e6 44 bc db 6c 16 3d c1 9d 98 bc
       0.01637293 -0.012017959 0.036724906 -0.01862991
000040 f4 69 76 bc 5b dd 19 bb d3 90 53 bc 1c b8 a4 3c
       -0.01503991 -0.0023477885 -0.012912947 0.020107321
000050 95 f1 87 3c 58 76 a7 3c 70 4d 21 bc f6 3c 28 bc
       0.016594687 0.020442173 -0.009845123 -0.0102684405
000060 75 dd a2 3b 5b f7 39 3c 69 7b 0a bc 00 ce 80 bb
       0.0049702474 0.011350478 -0.008452275 -0.003930807
000070 bc 8b b6 3c 36 2b 13 3c 22 fe bd 3b d3 8e 26 bb
       0.022283427 0.00898247 0.0057981173 -0.002541472
000080 f2 2f f8 3c 01 8f 98 bc 0f b2 9f 3b 68 03 b7 bc
       0.0302963 -0.018622877 0.004873521 -0.022340491
000090 3b 69 75 bb 2f 60 24 3b b8 79 03 bc d7 b9 d1 bb
       -0.0037446755 0.0025081744 -0.0080246255 -0.0064003277
0000a0 9e c1 21 bb 9e 0a 64 3d 6b 76 b8 3c 20 62 5f bc
       -0.0024682055 0.055674188 0.022517404 -0.013634235
0000b0 ba 7a ad 3c 78 d3 53 3c 75 cc 5f 3b 6c 95 d9 3b
       0.021176685 0.012928836 0.0034148965 0.006640127
0000c0 6a 07 61 bc 4e 3a 17 3b 6d 7b 1c 3c 9a c9 05 3c
       -0.013734678 0.0023075524 0.009550911 0.008165741
0000d0 0b f9 c8 bc b5 7d 92 3c 11 61 c2 3b c0 4a 6f bc
       -0.024532815 0.017882207 0.0059319814 -0.014605224
0000e0 e9 c5 6a bc 16 0a 08 3c 4f 19 d2 3c b3 dd c8 3b
       -0.014329412 0.008303186 0.025646834 0.006129944
0000f0 98 c9 b5 3c 73 c2 48 3c 0a 52 4d 3d 5d c9 a4 3c
       0.022190854 0.012253392 0.050127067 0.020115549
000100 eb 16 06 bc b2 b5 89 bc 6f ea 0a 3d 43 25 ef 3b
       -0.008184175 -0.016810272 0.03391498 0.007298143
000110 a3 c4 01 3d 88 51 dc 3c 03 82 11 3c 97 4b fb 3b
       0.031681668 0.026894346 0.008881095 0.007668923
000120 02 a7 cb 3c 72 f7 28 bc 3b ef 63 3c bc fb 90 bc
       0.024859909 -0.010312902 0.013912017 -0.017698161
000130 55 fa 05 3d e3 1f 6f 3c 9b 06 87 ba 29 a6 11 bc
       0.03270944 0.014595005 -0.0010301651 -0.008889713
000140 66 8f bd 3b e8 09 05 bd ee f2 e5 3b 13 f5 c6 bb
       0.0057849167 -0.03248015 0.007017485 -0.0060716956
000150 ea b9 24 3d 45 9d 74 bb 1c 9a 55 3c 08 47 9d 3c
       0.040216364 -0.0037325185 0.013037231 0.01919891
000160 6c 5c b9 3b 09 c3 c3 3c 7e 1a 44 3d 8e 33 2c 3c
       0.0056567695 0.023896711 0.047876827 0.0105103385
000170 3c 91 6e bc a9 6b 01 bc 80 ad a4 bc 2c 48 4f 3c
       -0.014560994 -0.007899203 -0.020102262 0.012651484
000180 e1 2a f2 3c b9 40 14 bc b8 b4 90 bc 01 d8 89 bc
       0.029561462 -0.009048634 -0.017664298 -0.016826632
000190 6b a5 25 bb 66 1f 8e bb 54 4f 33 bb 42 4f 3e bc
       -0.0025275599 -0.004337239 -0.0027360516 -0.011615576
0001a0 25 b9 eb 3b 19 da 48 bc 1e c0 b4 bb 28 63 0e 3c
       0.007193702 -0.01225903 -0.005516066 0.008690633
0001b0 72 51 8a 3b 27 3e 94 3c b9 a0 a7 3c 63 77 81 3b
       0.004221135 0.018096043 0.02046238 0.0039509996
0001c0 71 c1 6b b9 f7 bc de 3b a5 22 3f bc 27 db 6e bb
       -0.00022483409 0.0067974287 -0.011665975 -0.0036446543
0001d0 d9 1b 2c 3c 03 e1 e1 bc c3 ba 96 ba 40 16 81 bb
       0.010504686 -0.027573114 -0.0011499751 -0.00393942
0001e0 52 cd 52 bc 9c 6e 7c bc e4 68 54 3d d8 28 6d bc
       -0.012866335 -0.015407231 0.051857844 -0.01447507
0001f0 16 f9 a4 3a 99 6f 7a bc 12 4b 8b 3b 77 13 65 3c
       0.001258644 -0.015285396 0.0042508924 0.013981692

action_model._continuous_distribution.log_sigma f4 [1, 39]
000000 66 9e ac bb 5b 57 69 3c 5a 91 54 3c 5d 5c d4 bb
       -0.005267906 0.014242019 0.012974108 -0.006480737
000010 63 a3 84 3b ea 51 43 3c 4d 3d 20 be e5 06 cf bd
       0.0040477975 0.011921385 -0.15648384 -0.10108737
000020 2e 55 1f be 07 0b 08 be 20 9d ca bd 69 a0 b0 bd
       -0.15559837 -0.13285457 -0.098932505 -0.08624346
000030 b7 07 4a 3c 27 b7 d2 bc f3 f1 03 3c 41 3d a0 3b
       0.012330941 -0.0257221 0.008053291 0.0048901145
000040 38 a6 39 bc a3 98 ca 3c d1 61 9a bc 1b fb 9a bc
       -0.011331134 0.024730986 -0.01884547 -0.018918565
000050 14 7e 19 bd 24 fc f3 ba 82 e2 05 3c 64 88 36 3c
       -0.037473753 -0.0018614572 0.008171679 0.0111409165
000060 57 4a 97 3c 08 8c e6 3c 22 e6 78 bb 8a 0d c5 3b
       0.018468065 0.028142944 -0.0037978967 0.006013577
000070 0d f0 3a bb 78 98 ce 3c 79 d9 86 bb 77 8f 38 3c
       -0.002852443 0.025219187 -0.00411528 0.011264673
000080 2c a0 90 3b 61 7e fc bb 57 42 3b 3c d3 a7 75 bb
       0.004413625 -0.007705495 0.011429391 -0.0037484064
000090 f3 3e 7c bb 24 80 9d 3c 9f 46 e7 3c
       -0.003848967 0.019226141 0.028231917

action_model._continuous_distribution.mu.weight f4 [39, 128]
000000 97 bb 4d 3c 6b 7c 6e bb 95 71 00 3b 42 e7 bd 3c
       0.012556932 -0.0036390077 0.001959895 0.023181561
000010 27 de 59 3b c3 e6 7c 39 b3 b8 5c 3a a3 42 45 3c
       0.0033243985 0.00024118558 0.00084198563 0.012039813
000020 e0 5a c3 3c a5 22 06 ba 7d c9 01 3d 40 51 1e 3c
       0.023847044 -0.0005116857 0.031686295 0.009662926
000030 7d 7c ab 3c 6e 37 90 3c 39 aa e1 3b 59 72 c2 3c
       0.020933384 0.017604556 0.006886747 0.023736166
000040 fe 16 14 3c d9 d7 b5 bc da 54 5f bc be 9d 1c 3d
       0.009038685 -0.02219765 -0.01363107 0.038236372
000050 57 f5 c6 bb f7 5d 47 3d b9 39 9a bb 2c 55 58 3c
       -0.0060717273 0.048673596 -0.004706588 0.0132039
000060 a5 81 19 bc 3b b7 97 bc 97 e6 d3 3c ba 6b 23 3c
       -0.009369289 -0.018519988 0.02586679 0.0099744145
000070 73 54 df bc 56 80 41 3b 0c 76 d0 bc 62 9e 21 bc
       -0.027261948 0.0029525957 -0.025446914 -0.009864422
000080 be 4b a3 3c 31 00 74 bc 9c b1 aa 3c 02 1d 28 bc
       0.019933578 -0.014892624 0.020836644 -0.010260822
000090 f4 85 e4 3b 03 7d e9 bc 36 a8 97 bb ad 81 ee bb
       0.0069739763 -0.028501993 -0.0046282066 -0.007278642
0000a0 4d 9f 33 3c 84 62 16 3d 1c a1 b5 3c 40 17 09 3c
       0.010963273 0.036715046 0.02217155 0.00836736
0000b0 c5 df 97 3a 8c d8 00 3c 53 84 b1 bc 8b 5d 5a bb
       0.0011587074 0.007864129 -0.021669542 -0.0033319916
0000c0 d8 a9 a2 3c fc 03 90 bc 46 b4 2f bc 58 0d fd 3b
       0.019856378 -0.017580025 -0.010724133 0.007722538
0000d0 27 39 d0 bb 3f 9b f0 3c 42 7d 3e 3b 7a 22 a7 bc
       -0.0063544693 0.029370902 0.0029066359 -0.020402182
0000e0 4f 90 99 3b 07 e1 f5 bc e3 07 61 3d 53 cd eb 3b
       0.0046863924 -0.030014528 0.054939162 0.0071961074
0000f0 18 65 ca 3c 6e ea a4 3c 00 7a 13 3d a2 c9 77 bc
       0.024706408 0.020131316 0.03600502 -0.015123757
000100 16 8e a3 bb c7 b9 72 bc 7e c2 22 3c 50 35 44 bc
       -0.004991303 -0.014814801 0.009934066 -0.011975601
000110 0e 1f 8f 3b cb 16 0e 3c 43 a1 49 bc 8b 31 26 bc
       0.0043677157 0.008672426 -0.012306514 -0.010143648
000120 50 76 78 bb 72 13 c1 bc e3 76 a0 3a 10 24 5d bc
       -0.0037912317 -0.023568843 0.0012242462 -0.0134973675
000130 85 c7 4b 3b 6a 5f ca 3b 1c 81 08 3d a6 08 45 3c
       0.0031094265 0.006175925 0.033326253 0.012025988
000140 aa d3 a1 bb 0f b5 bc 3c a9 92 ca 3c 54 9b 8f 3c
       -0.0049385624 0.023035554 0.024728136 0.01753012
000150 f5 8d ba 3c 5d 4b 69 bb e4 54 be 3b 4d 6c 12 3c
       0.022772769 -0.0035597899 0.0058084596 0.008936954
000160 57 4b 57 bd 78 2c 94 3c 36 f0 61 3d 8a 0e d8 3c
       -0.052562084 0.01808761 0.055160724 0.02637412
000170 16 55 35 3b c0 4f e3 3b bf 7e 86 3c e8 76 b9 3b
       0.0027669123 0.006936997 0.01641786 0.0056599267
000180 01 34 84 3b b5 aa b8 3c 2f 8a 7a bc 2f 09 8f 3c
       0.0040345197 0.022542337 -0.015291735 0.017460434
000190 ec a1 93 bc 89 a1 0a 3c d5 f1 17 bc 0d a5 b6 3b
       -0.018021546 0.008461365 -0.009273966 0.005573875
0001a0 0c 70 d0 3c a8 6e c6 bb 87 65 2e bb 2a fc 54 3d
       0.025444053 -0.0060556717 -0.0026610808 0.051998295
0001b0 7a e7 3e bc 69 5c 11 bd 80 74 5e bc 3a d1 5d bd
       -0.011651868 -0.03548852 -0.01357758 -0.054154612
0001c0 13 5c 3d bd 48 a2 80 3a 0a 9f d0 ba 9f dc 30 bc
       -0.046230387 0.0009813989 -0.0015916538 -0.010794788
0001d0 aa f0 94 3c ab ee ef bc 43 c6 c7 bc 12 34 d8 bc
       0.018181164 -0.02928861 -0.02438653 -0.026392017
0001e0 17 ca 89 3b 31 5e 97 3c 2e eb 80 3c c5 48 2e bd
       0.004204999 0.018477531 0.015737142 -0.042549867
0001f0 44 45 7c bc f3 92 89 3c 20 a8 04 3d a8 ef d6 3c
       -0.015397374 0.016793704 0.0323869 0.026237324
000200 62 dc 12 3b 81 e2 d8 bc 40 97 92 bc 62 f5 23 bd
       0.002240919 -0.026475193 -0.017894387 -0.040028937
000210 48 d4 6c bc 0a 3e 08 bd d7 72 f6 3c ea 30 68 3c
       -0.014454909 -0.03326229 0.030084057 0.014171818
000220 1d dc d4 bb 2e eb c2 3c 77 ac d2 bc 59 d6 a4 3c
       -0.006495966 0.023793783 -0.025717003 0.02012174
000230 3f 9f 49 bb 28 8d e1 bb ba 87 60 bc 39 77 a4 bc
       -0.0030765084 -0.006883282 -0.013704235 -0.020076381
000240 cf 88 b5 bc dd a4 d8 bc 45 8a 97 3c 98 73 29 3d
       -0.022159962 -0.0264458 0.01849855 0.041370004
000250 2f 28 24 3c ed 09 95 bc 2a bd f6 bc c4 8d e5 ba
       0.010019346 -0.01819321 -0.030119497 -0.0017513563
000260 8d 51 a3 3c 76 5e 8e bc ae 59 20 3a 9f a1 f7 ba
       0.019936347 -0.017379027 0.0006116879 -0.0018892771
000270 73 d4 bf 3b 54 be 88 3c f2 bc 93 3b 8c bf 94 3b
       0.0058541833 0.016692318 0.004508608 0.0045394357
000280 6e 24 16 bc 79 d0 86 3c 97 66 79 3c db 82 a5 3c
       -0.009163959 0.01645683 0.015222213 0.020203998
000290 97 02 1e bc 3b cd 8e bc d8 b8 cd 3c da a0 9d bc
       -0.009644172 -0.017431846 0.025112554 -0.019241739
0002a0 a3 a4 de bc a7 46 15 bc 45 68 af bc 55 93 48 3c
       -0.027178114 -0.009111083 -0.021412024 0.012242158
0002b0 74 c6 29 bc 62 0a 4c bc 7f b4 1b 3c 72 2c a3 3a
       -0.010362256 -0.012453647 0.009503483 0.0012449159
0002c0 60 74 41 bc f6 73 4c 3c fb c4 51 bc 2d aa 9a bc
       -0.011807531 0.012478819 -0.012803311 -0.018879974
0002d0 01 23 06 3c 5f 55 80 3a 28 fa 4b 3b 42 72 44 3b
       0.0081870565 0.0009791068 0.0031124447 0.002997533
0002e0 16 3b 11 3c 10 9f 8e 3c 86 a7 a0 3c 7c a1 9b bc
       0.008864185 0.017409831 0.019611131 -0.0189979
0002f0 15 75 e9 3b f7 84 5f bc 46 a6 45 3c 03 93 9a bb
       0.007124553 -0.013642541 0.012063568 -0.004717232
000300 4d aa 04 bd 31 bb e2 3c f0 4f 12 bc 9c 17 c7 bc
       -0.032388974 0.02767715 -0.008930191 -0.02430325
000310 56 36 98 bc fe 0f 48 3d 5e 44 66 3c b2 01 01 3b
       -0.018580597 0.048843376 0.014054386 0.0019684848
000320 c2 bb 90 bb b9 cd 4e 3c 00 73 0b 3d ad d5 ec 3c
       -0.0044169137 0.01262229 0.03404522 0.028910482
000330 5b ac e9 bb b0 81 07 3c ce 32 39 bc 0b 75 71 3b
       -0.007131142 0.008270666 -0.011303617 0.0036843445
000340 4a 86 c0 bc 9d 66 b5 bc d2 e5 dc 3c b1 dc 5a bb
       -0.023501534 -0.022143656 0.026965056 -0.0033395702
000350 f1 a1 52 bb 32 ba e4 bc 96 c3 97 bc a4 43 b8 bc
       -0.0032139982 -0.027920816 -0.01852588 -0.022493191
000360 19 6f 1c bb e7 f6 1b 3c 2c 5d 4a bb eb 7c 13 bd
       -0.002386993 0.009519315 -0.0030878289 -0.036007803
000370 e8 73 cf 3b c4 c3 e4 3a cf 64 68 bd 62 de b1 bc
       0.006330956 0.0017453362 -0.056736764 -0.021712486
000380 d6 ce 84 bc ce 9e fb 38 8e 5f 85 bc 45 52 a3 3c
       -0.016211908 0.00011998192 -0.016280916 0.01993669
000390 0a 15 90 bc 37 8d ed 3a f8 7e 17 3c 1d c8 31 bd
       -0.017588157 0.001812375 0.00924658 -0.043403734
0003a0 70 56 33 3d 89 e3 43 bc df aa 85 bc d8 c7 27 bc
       0.043783605 -0.011956104 -0.01631683 -0.010240518
0003b0 c5 aa f9 b9 b0 29 5d bc e6 dd 4b bc 7f a7 8a 3c
       -0.00047620214 -0.013498709 -0.012443041 0.016925571
0003c0 fe 47 bf 3c 31 c2 9a bc 8f e7 9e 3c 32 11 cc 3c
       0.023349758 -0.018891426 0.019397525 0.024910543
0003d0 2f f3 a4 b9 67 cd c8 ba ab e1 7e 3c 86 19 ba bc
       -0.00031461703 -0.0015320004 0.015556733 -0.022717249
0003e0 74 22 e0 bb 37 a4 c8 3c 2b 28 42 bd f6 08 d0 3c
       -0.0068400446 0.024492366 -0.04740159 0.025394898
0003f0 4b 9e 10 3d 54 b3 db bc 07 aa 75 bc a5 23 cb 3b
       0.03530721 -0.026818909 -0.014994151 0.0061993175

action_model._continuous_distribution.mu.bias f4 [39]
000000 57 7d f4 3c 6d 27 b6 bb 1e b2 35 bc da 1c 92 bc
       0.029844923 -0.005558899 -0.01108983 -0.017836023
000010 87 ac c9 bb 4f ec fb 3b dd d5 0e bd 92 a3 1b 3c
       -0.0061546 0.0076880823 -0.034871925 0.009499447
000020 23 47 81 bc 22 39 ad bb db be f3 bc 66 e1 01 bd
       -0.015780991 -0.005286352 -0.029754093 -0.031709097
000030 49 7f da bb 78 0f 38 bb be fb 1c bc 4c 90 90 bc
       -0.0066680056 -0.0028085392 -0.009581504 -0.017646931
000040 60 08 34 bc b8 d9 a2 3a 95 65 00 3d 3a 79 8d bc
       -0.010988325 0.0012424504 0.031346876 -0.01726972
000050 94 77 a8 3c 9a cd b5 3c 48 07 f8 3b 14 16 85 bc
       0.020564832 0.022192765 0.0075692274 -0.01624588
000060 dd c8 a0 3c 2a 3b 12 3b a7 77 01 bb 02 07 e1 3b
       0.01962703 0.0022313097 -0.0019755156 0.0068672905
000070 8a 8f 96 bc 8e 9c b4 3b df 58 8b bb 55 6f 97 3c
       -0.018378992 0.005511827 -0.0042525376 0.018485704
000080 d9 97 10 3b 33 3b 30 3b c1 f0 e4 bb b0 3c 17 b9
       0.0022063165 0.0026890754 -0.006986708 -0.0001442309
000090 56 f4 7f bc 35 4f 48 3a 77 93 8f bb
       -0.015622219 0.00076411973 -0.004381593
