Assets/Brains/ArvidTests/fresh2/Zombie Walker/Zombie Walker-1999964.onnx (onnx, 222824 bytes, 7 tensors)

network_body._body_endoder.seq_layers.0.weight f4 [128, 257]
0	0xbe3f826f	-0.187021
1	0xbd2d87ff	-0.042366024
2	0xbd9e2b8d	-0.077231504
3	0xbc9cfda0	-0.019163907
4	0xbe08b19c	-0.13349003
5	0xbd7cd72b	-0.061728638
6	0xbe77a6e7	-0.24184762
7	0x3e115004	0.1419068
8	0xbdb01d5b	-0.08599349
9	0x3d742190	0.05960232
10	0xbcf0b77c	-0.029384367
11	0x3d576fad	0.052596737
12	0xbd1e9979	-0.03872058
13	0xbd2cd121	-0.04219163
14	0xbe286cb3	-0.16447715
15	0xbd94cf35	-0.07266084
16	0x3dd0d948	0.10197693
17	0x3d2dcb5c	0.042430267
18	0x3cc57d9e	0.02410775
19	0x3e29fb78	0.16599834
20	0xbabea869	-0.001454604
21	0x3d8ef312	0.06979956
22	0xbdf452c2	-0.11929847
23	0xbe39afec	-0.18133515
24	0xbe791963	-0.2432609
25	0x3e15b942	0.14621451
26	0x3e59f0c0	0.21283245
27	0xbe6e825d	-0.23291917
28	0xbdf337d4	-0.11875883
29	0x3c54977c	0.01297557
30	0x3db08fbe	0.08621167
31	0xbdffa89e	-0.12483333
32	0xbdd4bb69	-0.10387308
33	0x3e18b649	0.14913286
34	0xbd7723be	-0.06033682
35	0xbcae91ca	-0.021309752
36	0xbdb896eb	-0.0901316
37	0xbdc085d9	-0.094005294
38	0xbd9c057e	-0.07618235
39	0xbd64ac29	-0.055828247
40	0xbe48961f	-0.19588517
41	0x3e526ba4	0.20548874
42	0xbe643d7b	-0.22289078
43	0x3b9e6b92	0.0048346007
44	0x3c66f412	0.014096277
45	0xbe164673	-0.14675312
46	0xbca4dec6	-0.020125758
47	0xbb38c69d	-0.0028194555
48	0xbdc0eed5	-0.094205536
49	0x3e147ec0	0.14501476
50	0x3e31ace4	0.17351109
51	0xbd7694e4	-0.060200587
52	0xbe27a003	-0.16369633
53	0x3d7e369f	0.06206381
54	0xbe8301b2	-0.2558723
55	0xbd6a45f4	-0.05719562
56	0xbe5a99bf	-0.21347712
57	0xbd8be4c2	-0.068307415
58	0xbe3a8c86	-0.18217668
59	0x3e858c24	0.2608348
60	0xbf0357ca	-0.5130583
61	0xbe69d0ae	-0.22833511
62	0xbe992262	-0.29909045
63	0xbdaf2844	-0.08552602
64	0x3e07c548	0.1325885
65	0xbd4ddebe	-0.05026125
66	0x3d2381a0	0.039918542
67	0xbe6c1a77	-0.2305697
68	0x3d07250f	0.032994326
69	0xbd90adec	-0.07064423
70	0xbd14ac5c	-0.036297187
71	0x3c0a11da	0.008427108
72	0xbd8aac34	-0.067711264
73	0x3e319a7a	0.17344084
74	0x3e39d0ee	0.18146107
75	0x3dba4dc6	0.09096865
76	0x3e44b410	0.19209313
77	0x3e9f6fb8	0.31139922
78	0xbdcf1760	-0.1011188
79	0xbe3797f0	-0.17929053
80	0xbd91ddbb	-0.0712237
81	0xbd90172e	-0.07035671
82	0xbde8e85d	-0.11372445
83	0xbdbf4a17	-0.093403034
84	0xbe75a164	-0.23987347
85	0xbd9ff2c5	-0.078099765
86	0x3e13c090	0.14428926
87	0xbda76533	-0.08173599
88	0x3e99afdd	0.30016986
89	0x3de63283	0.11240103
90	0x3dfbd0dc	0.12295696
91	0x3e135a35	0.1438988
92	0xbe050edf	-0.12993954
93	0xbe8673d0	-0.26260233
94	0xbde7f211	-0.113254674
95	0xbe2f453e	-0.17116258
96	0xbdbc73ef	-0.092018
97	0xbd3ced5b	-0.046124797
98	0xbe059846	-0.13046369
99	0xbdd1210b	-0.102113806
100	0xbd9bfb76	-0.07616322
101	0xbe865b5e	-0.26241583
102	0x3cc91853	0.024547732
103	0x3ccd99f9	0.025097834
104	0x3e08d1e5	0.13361318
105	0x3da7b7ec	0.08189377
106	0x3d567539	0.052357886
107	0x3d8ddf70	0.06927383
108	0x3e333748	0.17501557
109	0xbd344153	-0.04400761
110	0xbdd24b01	-0.10268212
111	0x3ea7e0b5	0.32788625
112	0xbe08329f	-0.1330056
113	0xbde7a804	-0.11311343
114	0xbe1138cc	-0.14181823
115	0xbd919d72	-0.071101084
116	0xbe863ed7	-0.26219818
117	0xbd40979b	-0.047019582
118	0xbc7f5c16	-0.01558592
119	0xbe1af3a9	-0.15132011
120	0xbe3b2b2f	-0.18278192
121	0xbd7d8c49	-0.061901364
122	0x3e0175c1	0.12642576
123	0x3ccc32e7	0.024926616
124	0x3e165f59	0.1468481
125	0x3e693e63	0.22777705
126	0x3e10c852	0.14138916
127	0xbe12e10c	-0.14343661
128	0x3d53d4d0	0.051716626
129	0xbdc9f993	-0.09862056
130	0x3dc309e1	0.095233686
131	0x3c9e4be0	0.01932329
132	0x3d28a09e	0.0411688
133	0xbe28f9cd	-0.16501541
134	0xbe107f1e	-0.14110991
135	0xbe9a5b71	-0.3014789
136	0xbec07fe9	-0.37597588
137	0xbe6a3fc3	-0.22875886
138	0x3d9c15ae	0.076213226
139	0x3d59a1a7	0.05313268
140	0x3dc1b114	0.09457603
141	0x3e4aa706	0.19790277
142	0x3ea44ca9	0.32089737
143	0xbe1dd43d	-0.15412994
144	0xbda0ef0a	-0.07858093
145	0x3e11f462	0.14253381
146	0xbe7bed4c	-0.2460224
147	0xbdecc3bb	-0.1156077
148	0xbde35d75	-0.1110181
149	0x3cde01d0	0.027100474
150	0xbe344d4f	-0.17607616
151	0x3e93aeaf	0.2884421
152	0xbe35da22	-0.17758992
153	0xbe787c8c	-0.24266261
154	0xbe080b2d	-0.13285513
155	0xbba93f72	-0.005165034
156	0x3e366161	0.17810585
157	0x3df2cb8b	0.11855229
158	0x3e34a87b	0.17642395
159	0x3e42dc55	0.19029362
160	0x3dfd638e	0.12372504
161	0x3e3289a1	0.17435314
162	0x3d3ccde6	0.046094798
163	0xbe14e33d	-0.1453981
164	0xbd95f702	-0.073225036
165	0xbd427a0d	-0.047479678
166	0xbd310173	-0.043214273
167	0xbe6d5423	-0.23176627
168	0xbb95af93	-0.004568049
169	0x3e3ae3c1	0.18250944
170	0xbe4c1002	-0.19927981
171	0x3d91b4a0	0.071145296
172	0xbc8144d5	-0.015779892
173	0xbe4abf94	-0.19799644
174	0xbddb4616	-0.10706727
175	0xbaacf006	-0.0013194091
176	0xbe69d679	-0.22835721
177	0xbe5799fb	-0.21054833
178	0x3d0ff874	0.035149053
179	0xbdad4a6e	-0.08461462
180	0xbd8df40f	-0.06931316
181	0xbcee9d80	-0.029127836
182	0xbe08b7f0	-0.13351417
183	0xbd6ecaa5	-0.058298726
184	0xbe38157f	-0.1797695
185	0x3c8f712e	0.017510023
186	0x3e390a89	0.18070425
187	0x3df75e34	0.12078515
188	0xbdbaf482	-0.091286674
189	0x3d8991f6	0.06717293
190	0xbe3d9855	-0.18515141
191	0xbe345669	-0.17611088
192	0xbe1be98b	-0.15225808
193	0xbe479d0d	-0.19493504
194	0xbe6cb1b2	-0.2311466
195	0xbe75b012	-0.23992947
196	0xbded2ac5	-0.11580423
197	0xbe863062	-0.26208788
198	0xbd715793	-0.058921408
199	0xbd96d4f8	-0.07364839
200	0xbdc66aa0	-0.09688306
201	0xbe41cb57	-0.18925224
202	0xbce8fb20	-0.028440058
203	0x3dfe3d28	0.124140084
204	0x3e994891	0.29938176
205	0xbd067305	-0.032824535
206	0x3d6dc65a	0.05805049
207	0xbd975b41	-0.07390452
208	0xbe432dcb	-0.19060437
209	0xbded1e5c	-0.11578056
210	0xbdfa68ff	-0.12227058
211	0xbd359121	-0.04432786
212	0x3d9da0d6	0.07696693
213	0xbe48c8e9	-0.19607891
214	0x3dd105cc	0.10206184
215	0x3daa4490	0.083138585
216	0x3df2f440	0.11862993
217	0x3d2065e5	0.039159674
218	0x3e29c33e	0.16578385
219	0x3e1dd9d0	0.1541512
220	0xbdf91d9d	-0.121638514
221	0xbe84be13	-0.25926265
222	0x3d85d8c9	0.06535489
223	0xbe90426c	-0.28175676
224	0x3e0f497c	0.13992876
225	0x3e62e08f	0.22155975
226	0xbdb723cd	-0.08942375
227	0xbdedfc6f	-0.116204135
228	0xbdca46fd	-0.09876821
229	0xbdb3ebda	-0.087852195
230	0xbe0c48c1	-0.13699628
231	0x3c0a1d11	0.0084297815
232	0xbe03008a	-0.12793174
233	0x3d85fea3	0.06542709
234	0xbcf3dcad	-0.029768312
235	0xbe3609b2	-0.17777136
236	0x3d19af48	0.037520677
237	0x3c85ff84	0.01635719
238	0xbdb5d0cf	-0.08877718
239	0x3e4243b0	0.18971133
240	0xbd46ddd3	-0.04855139
241	0x3d42b39e	0.047534578
242	0xbdc679c3	-0.09691193
243	0xbea37a8c	-0.31929433
244	0xbdacb9fe	-0.08433913
245	0xbdd8f147	-0.10592895
246	0xbd2dc327	-0.04242244
247	0xbe47c823	-0.1950994
248	0xbb904d56	-0.0044037504
249	0xbddc310c	-0.107515424
250	0x3d9a9784	0.075484306
251	0xba889c97	-0.0010422644
252	0xbdcc59b5	-0.09978048
253	0x3e5947cd	0.21218796
254	0xbda220e4	-0.0791643
255	0x3da6f83e	0.08152817

network_body._body_endoder.seq_layers.0.bias f4 [128]
0	0xbe096b22	-0.13419774
1	0xbdbc9560	-0.092081785
2	0xbdcb5785	-0.099288024
3	0xbe16f0a4	-0.14740235
4	0xbe3c224a	-0.18372455
5	0xbe1123ab	-0.14173763
6	0xbe1d3a95	-0.15354379
7	0xbe1044c0	-0.14088726
8	0xbde47f1f	-0.11157059
9	0xbc8f1abe	-0.017468806
10	0xbd82957c	-0.06376168
11	0xbe39104a	-0.1807262
12	0xbab2e029	-0.0013647127
13	0xbe2e26f4	-0.17007047
14	0xbd6840e9	-0.05670253
15	0xbd261724	-0.040549412
16	0xbd085602	-0.03328515
17	0xbcf81fa8	-0.030288532
18	0x3c908946	0.017643582
19	0xbdf7e174	-0.12103549
20	0xbc8e7852	-0.017391358
21	0xbe18c179	-0.14917554
22	0xbe2a7ea2	-0.16649869
23	0xbd5363fc	-0.051609024
24	0xbd23ca65	-0.03998794
25	0xbe0f0e49	-0.13970293
26	0xbc9fdb07	-0.01951362
27	0xbe5976c8	-0.21236718
28	0xbe09e17d	-0.13464923
29	0xbe5f95ec	-0.21834534
30	0xbdb09390	-0.08621895
31	0xbc5d8cb2	-0.013522314
32	0xbe1b128f	-0.15143798
33	0xbe0e9d56	-0.13927206
34	0xbcf03d0e	-0.029325988
35	0xbd5e5c55	-0.054287273
36	0xbe30ea57	-0.17276894
37	0xbdf96bf5	-0.12178794
38	0xbd0f2de3	-0.03495587
39	0xbd29fa80	-0.04149866
40	0xbe5591bb	-0.20856373
41	0xbd0dc8e5	-0.034615416
42	0x3b6d2fff	0.0036191938
43	0xbd60ff7d	-0.054931153
44	0xbc5d57a4	-0.013509665
45	0xbbe6c45a	-0.00704245
46	0xbc8c7763	-0.017146772
47	0x3d73eb4d	0.059550572
48	0xbe4d0cef	-0.20024465
49	0xbdc47918	-0.09593409
50	0xbe155ed9	-0.14586963
51	0xbcdd6529	-0.027025776
52	0xbd29d060	-0.041458488
53	0xbd13ad96	-0.036054216
54	0xbd13d308	-0.036089927
55	0xbe026042	-0.12732032
56	0xbda9ef44	-0.082975894
57	0xbb942588	-0.0045210756
58	0xbe0febe7	-0.14054833
59	0xbdd1f90d	-0.10252581
60	0xbe119dc0	-0.14220333
61	0x3b5480e8	0.0032425467
62	0xbe159681	-0.14608194
63	0xbcd0cbf7	-0.025487883
64	0xbcb32b60	-0.021871269
65	0xbdfdb80f	-0.12388622
66	0xbc84f1df	-0.016228614
67	0xbd32de64	-0.04366912
68	0xbe285aeb	-0.16440932
69	0xbda3c75c	-0.07997009
70	0xbd915444	-0.070961505
71	0x3b2c662e	0.002630602
72	0xbe09b64b	-0.13448445
73	0xbd15a303	-0.036532413
74	0xbd57dba6	-0.052699707
75	0xbe63b2ed	-0.22236224
76	0xbdf0f0b7	-0.11764663
77	0x3c753a08	0.014967449
78	0xbd3a1cf7	-0.04543778
79	0xbe438809	-0.19094862
80	0xbd276231	-0.040865127
81	0xbe303ec0	-0.17211437
82	0xbdb5a172	-0.08868684
83	0xbcd061bd	-0.02543723
84	0xbc9f82dc	-0.019471578
85	0xbe48c48a	-0.19606224
86	0xbe3c5ed5	-0.1839555
87	0xbd0b37ef	-0.03398889
88	0xbe073d5a	-0.13206998
89	0xbd50f98b	-0.051019233
90	0xbe21f629	-0.15816559
91	0xbd9ca39e	-0.07648395
92	0xbe8404f1	-0.2578502
93	0xbd560544	-0.052251115
94	0xbdcf576c	-0.10124096
95	0xbcf4e4d3	-0.029894268
96	0xbc6926d4	-0.014230449
97	0xbdae9195	-0.08523861
98	0xbd8c4851	-0.06849731
99	0xbe87288f	-0.2639813
100	0xbe113cf2	-0.14183405
101	0xbdf583d2	-0.11988033
102	0xbc9fe5b8	-0.019518718
103	0xbe9065cb	-0.28202662
104	0xbe2a3134	-0.16620332
105	0xbddae6a1	-0.1068852
106	0xbe08d0e1	-0.13360931
107	0xbe5415c0	-0.20711422
108	0xbc84dd00	-0.016218662
109	0x3cbc3342	0.02297366
110	0xbe323ab6	-0.17405209
111	0x3a0c5045	0.0005352537
112	0xbe95caa9	-0.2925618
113	0xbbe76695	-0.0070617893
114	0xbe5f29dd	-0.21793313
115	0xbc804c57	-0.015661402
116	0x3d14cfab	0.03633086
117	0xbdc93a3a	-0.09825559
118	0xbb1073bd	-0.0022041642
119	0xbd75e3d0	-0.060031712
120	0xbe305d40	-0.17223072
121	0xbcd1a9b9	-0.025593625
122	0xbe88751f	-0.26651856
123	0xbdb67673	-0.08909311
124	0xbbda9e5a	-0.006671709
125	0xbdad2961	-0.08455158
126	0xbdd5fdab	-0.10448774
127	0xbdfbbe32	-0.12292136

network_body._body_endoder.seq_layers.2.weight f4 [128, 128]
0	0x3dc39ab6	0.09550993
1	0x3e0d4cb7	0.13798796
2	0xbe531ab5	-0.20615657
3	0xbd6759c0	-0.056482077
4	0x3c0ee71e	0.008722095
5	0x3d9bd13c	0.07608268
6	0xbd10a5d9	-0.035314415
7	0xbe297252	-0.16547516
8	0xbc24b014	-0.010051746
9	0xbdb39de5	-0.0877035
10	0xbe011c7c	-0.12608522
11	0x3db0f949	0.08641297
12	0x3e20bab5	0.15696223
13	0x3e36a918	0.17837942
14	0x3de76d27	0.11300116
15	0xbe4e92fb	-0.20173256
16	0xbde93084	-0.11386207
17	0x3bbad0bf	0.005701154
18	0x3d511bed	0.051052023
19	0xbd895dbd	-0.06707332
20	0xbe31ecbf	-0.17375468
21	0x3db0cdab	0.08632978
22	0x3d1c35f7	0.038137402
23	0x3e78aa9c	0.24283832
24	0x3e614b9c	0.22001499
25	0xbdcd872c	-0.100355476
26	0x3dc81e2d	0.097713806
27	0xbdf237b7	-0.11827033
28	0x3e7f9ae1	0.24961425
29	0x3d4d802f	0.050171074
30	0xbdf4746b	-0.119362675
31	0xbe1cdf67	-0.15319596
32	0xbe7810f0	-0.24225211
33	0x3c98e1a5	0.018662283
34	0x3de207ed	0.11036668
35	0xbccc7421	-0.024957718
36	0xbcf966b9	-0.03044449
37	0xbdfb5a56	-0.122730896
38	0x3df54f30	0.119779944
39	0x3e109a27	0.14121304
40	0xbc3fe0eb	-0.0117113395
41	0x3df6361a	0.12022038
42	0xbdf487d0	-0.11939967
43	0x3d49f2ba	0.049303748
44	0x3e1f5b6c	0.15562218
45	0xbe5ff7bf	-0.21871851
46	0xbc8e94b9	-0.0174049
47	0x3cc52917	0.024067445
48	0xbc1b80ca	-0.009491155
49	0xbe71fd28	-0.23631728
50	0x3ba49ce7	0.005023587
51	0xbd2c4834	-0.042061046
52	0x3e3ec9cc	0.18631667
53	0xbdef505f	-0.116852514
54	0xbe97c63c	-0.29643428
55	0xbda0b41d	-0.07846854
56	0xbd667d1c	-0.056271657
57	0xbda4925a	-0.08035727
58	0x3e16aeb5	0.14715083
59	0x3d99a80e	0.07502757
60	0xbebad17e	-0.36487955
61	0xbe3d33ea	-0.18476835
62	0xbe383e32	-0.17992476
63	0x3e21c2e2	0.15796998
64	0x3da16de3	0.07882287
65	0xbd9505f5	-0.07276527
66	0xbe3e8ee6	-0.18609199
67	0xbe51492b	-0.20438068
68	0xbb92ec30	-0.004483722
69	0x3bcb1735	0.006197835
70	0x3e72848d	0.23683377
71	0x3e7de9e4	0.24796253
72	0xbdc52288	-0.09625727
73	0xbd192dbb	-0.037397128
74	0x3dc1dc67	0.094658665
75	0x3dd28103	0.10278513
76	0x3e2052dc	0.15656608
77	0x3cf2ff14	0.029662646
78	0x3e1f375c	0.15548462
79	0xbcce7cac	-0.025205933
80	0xbbe50438	-0.0069890283
81	0x3ce5c881	0.02804971
82	0xbe023e29	-0.12719025
83	0xbe84d5b8	-0.25944304
84	0xbc372305	-0.011177783
85	0x3e255255	0.16144688
86	0x3e4ac8c8	0.19803154
87	0xbe459dec	-0.19298524
88	0xbc533ab1	-0.012892411
89	0xbde8a6b9	-0.11359925
90	0xbe5fce81	-0.21856119
91	0xbdc8fc70	-0.09813774
92	0xbe8f8269	-0.28029183
93	0xbe5405c8	-0.2070533
94	0x3e7369bd	0.23770805
95	0x3e354db8	0.17705429
96	0xbe302779	-0.17202558
97	0xbe4d4972	-0.20047548
98	0xbbffbb1a	-0.0078042867
99	0x3db9580d	0.090499975
100	0xbcbf2316	-0.02333216
101	0xbe76bc6b	-0.24095313
102	0xbdaabae8	-0.08336431
103	0x3bc0b27b	0.0058806515
104	0xbdecb869	-0.11558611
105	0xbe1854bc	-0.14876074
106	0xbe14d446	-0.14534101
107	0x3d8ad12b	0.06778177
108	0xbd1af721	-0.037833337
109	0x3e273343	0.16328149
110	0xbd34ca7d	-0.04413842
111	0xbe896d83	-0.26841363
112	0xbcdec481	-0.02719331
113	0x3b97d93c	0.0046340507
114	0x3c369c62	0.011145683
115	0xbdbc6bea	-0.092002705
116	0xbded66ab	-0.11591848
117	0xbd9a4e9d	-0.075345255
118	0xbe85cd90	-0.26133394
119	0xbe34718c	-0.1762144
120	0x3e1a2648	0.15053666
121	0xbdb29844	-0.087204486
122	0x3d9813f4	0.07425681
123	0xbdf07c86	-0.11742501
124	0x3e3f1d5c	0.18663543
125	0x3c9385f5	0.018008212
126	0xbd30d70c	-0.043173835
127	0x3e24723b	0.160592
128	0xbdecdb08	-0.115652144
129	0xbdd5c29c	-0.104375094
130	0xbcdb3800	-0.026760101
131	0x3e556d94	0.20842582
132	0xbdf762cc	-0.12079391
133	0xbeb79f1c	-0.35863578
134	0x3e419d72	0.18907717
135	0x3e255cf0	0.16148734
136	0x3c2d2e48	0.010570116
137	0x3e0cc1fe	0.13745877
138	0x3dde9153	0.10867562
139	0x3dfbd130	0.12295759
140	0xbe3b8e52	-0.1831601
141	0xbea4a511	-0.32157186
142	0xbed53c41	-0.41647533
143	0xbc7a90af	-0.015293284
144	0x3d54b483	0.051929962
145	0xbde1b9c0	-0.11021757
146	0x3d9dab68	0.07698709
147	0x3e399e3a	0.18126765
148	0x3b95b0ea	0.004568209
149	0x3c6d1508	0.014470346
150	0x3dcb68eb	0.09932121
151	0x3dbfc911	0.09364522
152	0x3dec1776	0.11527912
153	0x3d11e726	0.03562083
154	0xbbe3ab8d	-0.0069479407
155	0x3c9a8202	0.01886082
156	0x3e20f13a	0.1571702
157	0xbd940099	-0.072266765
158	0xbe9623f9	-0.2932432
159	0xbdaf56d9	-0.08561487
160	0x3e40798f	0.18796371
161	0xbe5ff39b	-0.21870272
162	0x3dd2a4b0	0.10285318
163	0xbdf09f6b	-0.117491566
164	0xbb07b647	-0.002070801
165	0x3e2874ac	0.16450757
166	0xbe27b3a1	-0.16377117
167	0xbd7f51a6	-0.062333725
168	0xbe05144f	-0.12996028
169	0xbcd6c3c8	-0.026216403
170	0xbd97796b	-0.073962055
171	0xbe985bfc	-0.29757679
172	0xbefdcf4b	-0.49572214
173	0xbe909c05	-0.28244033
174	0x3e1c6ec4	0.15276629
175	0xbdd8eb53	-0.105917595
176	0x3e13273d	0.14370437
177	0xbe4dd61c	-0.20101207
178	0x3dadb27a	0.08481307
179	0xbe6db700	-0.2321434
180	0xbcb088ef	-0.02154967
181	0x3d6baad7	0.057535972
182	0xbbb9c4d3	-0.005669215
183	0xbe0d501f	-0.13800095
184	0xbe2e72a6	-0.17035922
185	0x3dc0c75a	0.09413023
186	0xbe93f388	-0.28896737
187	0xbe0a9ec8	-0.13537133
188	0xbe757a3e	-0.23972413
189	0xbe61df12	-0.22057751
190	0xbe50cff9	-0.20391835
191	0xbe7ce49c	-0.24696583
192	0xbd8057d4	-0.06266752
193	0xbc72ed4b	-0.014827083
194	0x3e040001	0.12890626
195	0x3e535e34	0.20641404
196	0x3dff80e6	0.12475757
197	0x3e3d06c1	0.18459608
198	0xbe1157c5	-0.14193638
199	0xbdda1777	-0.10649007
200	0x3dd3d942	0.10344173
201	0x3e84be1c	0.25926292
202	0xbd25d9e3	-0.040490996
203	0x3cc11be2	0.023572866
204	0xbb4c2726	-0.0031151264
205	0x3df560bf	0.119813435
206	0xbeaa2d4e	-0.3323769
207	0x3dd9bf15	0.10632149
208	0xbdb281cb	-0.08716162
209	0x3da7fbe4	0.08202341
210	0x3e844dbf	0.25840566
211	0xbe9ee9ba	-0.31037694
212	0x3d91e64e	0.07124005
213	0x3cfaaf03	0.03060103
214	0x3e6aef50	0.22942853
215	0x3d64c296	0.055849634
216	0xbe072fb6	-0.13201794
217	0xbeaf575a	-0.3424633
218	0xbe1cb653	-0.15303926
219	0xbda68b29	-0.081320114
220	0xbd5bd49b	-0.053669553
221	0xbdfd8664	-0.123791486
222	0x3ce634d4	0.028101362
223	0xbedd252b	-0.4319242
224	0x3d8c3db1	0.06847704
225	0x3e03a948	0.12857544
226	0x3d1b4e90	0.03791672
227	0x3d0519f9	0.032495473
228	0x3c5e06c9	0.013551422
229	0x3da7a3fc	0.081855744
230	0xbdc3f229	-0.09567673
231	0x3de8f73d	0.11375282
232	0xbc0d7ad0	-0.008635238
233	0xbe9c5b00	-0.30538177
234	0xbe057e5f	-0.13036488
235	0xbdb74d32	-0.08950271
236	0x3dcd5aea	0.10027106
237	0x3defd841	0.11711169
238	0xbe146b23	-0.14493994
239	0x3d900bab	0.070334755
240	0xbe225104	-0.15851218
241	0xbd0ff92c	-0.03514974
242	0x3d671168	0.056413084
243	0x3d810934	0.063005835
244	0xbe085c69	-0.13316502
245	0x3e082dc1	0.13298704
246	0xbe0de7ae	-0.1385791
247	0xbda772b6	-0.08176176
248	0x3e8e804f	0.27832267
249	0xbe560005	-0.20898445
250	0x3e02b679	0.1276492
251	0xbe028a1e	-0.12748
252	0x3e2af577	0.166952
253	0xbd6cb90e	-0.05779367
254	0xbeabab11	-0.3352895
255	0xbe1580c1	-0.14599897

network_body._body_endoder.seq_layers.2.bias f4 [128]
0	0xbd781d7d	-0.060574997
1	0xbd593745	-0.053031225
2	0xbdbfa9fb	-0.09358593
3	0x3c23daf9	0.010000938
4	0xbdb49371	-0.08817185
5	0xbd8dbc84	-0.06920722
6	0xbc2b17d1	-0.01044269
7	0xbe240610	-0.16017938
8	0xbc47c57c	-0.01219308
9	0xbe770559	-0.24123134
10	0xbd1998c6	-0.03749921
11	0xbdd46614	-0.10371032
12	0xbdf38c1b	-0.11891957
13	0xbe12d224	-0.14337975
14	0x3e199d2a	0.1500136
15	0xbe0da4a1	-0.13832332
16	0xbda14b33	-0.07875671
17	0xbdab4cad	-0.08364234
18	0xbcbbaf25	-0.022910664
19	0x3d0f8d59	0.03504691
20	0x3baf92c8	0.005358074
21	0xbe3e2905	-0.18570335
22	0xbe6f0245	-0.2334071
23	0xbe0d99fd	-0.13828273
24	0xbd3fbafe	-0.04680919
25	0xbe1eaa5b	-0.15494673
26	0xbd21a538	-0.039464206
27	0xbdd7d704	-0.10539058
28	0xbe1a5c2a	-0.1507422
29	0x3ccf4174	0.025299765
30	0xbda9aa47	-0.08284431
31	0x3e09ff14	0.13476211
32	0x3d0d4eeb	0.03449909
33	0xbe4e8f18	-0.20171773
34	0xbc91ca5c	-0.017796688
35	0x3c8a455b	0.016878774
36	0xbc586328	-0.013207234
37	0xbd4f6bb8	-0.050639838
38	0xbe3a58f3	-0.18197994
39	0xbd9a80af	-0.07544076
40	0x3d70851f	0.058720704
41	0xbcb87a94	-0.022519387
42	0xbde78620	-0.11304879
43	0x3cbd14c0	0.023081183
44	0xbe32b7f5	-0.17452987
45	0x3e4af6c2	0.19820693
46	0xbc61b8db	-0.013776983
47	0xbd78a87e	-0.06070756
48	0xbdb1caa2	-0.08681227
49	0x3c2079a0	0.009794623
50	0xbe8ffb90	-0.28121614
51	0xbb087abc	-0.0020825109
52	0xbe00dcdc	-0.12584251
53	0xbda129d2	-0.07869305
54	0xbd251558	-0.040303558
55	0xbdc22de2	-0.09481408
56	0xbd812ea5	-0.06307725
57	0x3ce9a568	0.028521255
58	0x3d7c9606	0.06166651
59	0xbe06cd97	-0.13164364
60	0xbe15a4e8	-0.14613688
61	0x3e1674d1	0.14693
62	0xbe44ebfc	-0.19230646
63	0xbce3df28	-0.02781637
64	0xbdfda64a	-0.12385233
65	0xbd470161	-0.0485853
66	0x3d1f75e4	0.03893079
67	0xbd79c81c	-0.060981855
68	0xbdac9b21	-0.08428026
69	0x3ca1dacc	0.01975765
70	0xbdeaf458	-0.11472386
71	0xbe1a1c0c	-0.15049762
72	0xbdc52713	-0.096265934
73	0x3d16abe6	0.03678503
74	0xbe72afb5	-0.2369984
75	0xbe04edec	-0.12981385
76	0xbe4e4877	-0.2014483
77	0x3e2b624a	0.16736713
78	0xbe048ba3	-0.12943892
79	0x3d982cf8	0.07430452
80	0x3d95a145	0.0730615
81	0xbdf691da	-0.12039538
82	0xbe76aacb	-0.2408859
83	0xbd913528	-0.07090217
84	0xbe26b099	-0.16278304
85	0xbe3710c1	-0.17877485
86	0xbdbfa1cf	-0.093570344
87	0xbe2213d9	-0.15827884
88	0xbcf3e491	-0.029772075
89	0x3dbc8da3	0.092067026
90	0xbd67e8f0	-0.05661863
91	0xbdd92f1a	-0.10604687
92	0x3d19fab4	0.037592605
93	0xbdc23421	-0.09482599
94	0xbcb2866e	-0.021792617
95	0xbd0bc7c4	-0.03412606
96	0xbe282cec	-0.16423386
97	0x3c4e5fc9	0.012596079
98	0xbe3e2340	-0.18568134
99	0xbe082672	-0.13295916
100	0xbe32c0a1	-0.17456295
101	0xbd64cfba	-0.055862166
102	0xbd886f6c	-0.06661877
103	0x3d2a5b47	0.041590955
104	0xbc4e3b0e	-0.012587322
105	0x3cc23662	0.023707572
106	0xbda9078c	-0.082533926
107	0xbe051526	-0.12996349
108	0xbddca2b4	-0.10773221
109	0xbe4bb259	-0.19892253
110	0x3e2d219c	0.16907352
111	0xbd3c161f	-0.045919534
112	0x3c7e7d76	0.015532842
113	0xbe3ac5f7	-0.1823958
114	0xbcfa9813	-0.030590093
115	0xbd580b45	-0.052745122
116	0x3d4aeee9	0.04954425
117	0xbc6eb422	-0.014569314
118	0xbca272f9	-0.019830214
119	0xbda48e5e	-0.08034967
120	0xbd845382	-0.0646124
121	0x3d04c8ff	0.032418247
122	0xbe13dd80	-0.14439964
123	0x3de40a36	0.1113476
124	0xbe16a57e	-0.14711568
125	0x3d846ebd	0.06466434
126	0xbdddcfa2	-0.108306184
127	0xbdcbf19d	-0.099581935

action_model._continuous_distribution.log_sigma f4 [1, 39]
0	0xbf87aec7	-1.0600213
1	0xbfac0243	-1.343819
2	0xbfb142a2	-1.384846
3	0xbf9bd3ee	-1.2174051
4	0xbfc03b39	-1.5018073
5	0xbf985491	-1.1900808
6	0xbf969d2a	-1.1766713
7	0xbfb7e86e	-1.4367807
8	0xbf90ca47	-1.131173
9	0xbf9c2ae7	-1.2200593
10	0xbfa90a4c	-1.3206267
11	0xbfa0febc	-1.2577739
12	0xbf90d9c4	-1.1316457
13	0xbfb6815b	-1.4258226
14	0xbfad309d	-1.3530461
15	0xbf9e975f	-1.2389945
16	0xbf8ac252	-1.0840552
17	0xbfb0482d	-1.3772026
18	0xbf7ac02e	-0.9794949
19	0xbf8ccfaf	-1.100088
20	0xbf898237	-1.0742863
21	0xbfab08a7	-1.3362015
22	0xbfa4927f	-1.2857207
23	0xbfb56823	-1.4172405
24	0xbfaef659	-1.3668929
25	0xbf9793fe	-1.1842039
26	0xbf9e146e	-1.2349985
27	0xbf76afa9	-0.96361786
28	0xbfac5009	-1.3461925
29	0xbf9b22dc	-1.2120013
30	0xbf9b5a23	-1.2136883
31	0xbf91eaa3	-1.139973
32	0xbfa1b506	-1.2633369
33	0xbfbb2ec6	-1.4623649
34	0xbf8c1756	-1.0944622
35	0xbfb7736d	-1.43321
36	0xbfa94deb	-1.3226904
37	0xbfaca81b	-1.3488802
38	0xbfaee841	-1.3664628

action_model._continuous_distribution.mu.weight f4 [39, 128]
0	0x3de5d6d5	0.112226166
1	0xbd86cbf1	-0.065818675
2	0xbe1fb266	-0.15595397
3	0xbdbb689c	-0.09150812
4	0x3e2a38ca	0.16623226
5	0xbe120ca4	-0.14262635
6	0xbdcc0f3b	-0.099638425
7	0x3ddb7701	0.107160576
8	0x3ea41e01	0.3205414
9	0xbb884b7e	-0.00415939
10	0xbba53c4b	-0.005042588
11	0xbbb7f72e	-0.005614183
12	0x3e2b9c9e	0.16758963
13	0x3e89ee77	0.26939747
14	0x3ec0c6b4	0.37651598
15	0x3e46c84b	0.19412343
16	0xbd842a71	-0.064534076
17	0xbe799ab1	-0.24375416
18	0x3e2db59e	0.16963813
19	0x3e82000e	0.25390667
20	0x3dfc80bf	0.12329244
21	0x3e34ea11	0.17667414
22	0x3e660eec	0.2246663
23	0xbe9c3b2d	-0.30513898
24	0x3d18fad1	0.037348572
25	0x3db2d9fb	0.08732983
26	0x3e0b7e5e	0.13622424
27	0xbdf0c825	-0.117569245
28	0xbdfe6d18	-0.12423152
29	0x3e0e6166	0.13904342
30	0x3e61a37f	0.22035025
31	0x3e2b6055	0.16735967
32	0x3cce0b35	0.025151828
33	0xbeaac961	-0.33356765
34	0xbe4c3f5d	-0.19946046
35	0xbd783383	-0.060596
36	0x3e151d9f	0.14562081
37	0x3c2355f4	0.009969223
38	0xbdda9150	-0.106722474
39	0x3e51afd5	0.20477231
40	0x3dc8a8ff	0.097978584
41	0x3cdc2597	0.026873393
42	0xbd69f34b	-0.057116788
43	0xbd36ecfe	-0.044659607
44	0x3d8096f3	0.06278791
45	0xbd6cad92	-0.057782717
46	0x3df1af38	0.118009984
47	0x3e3bc97e	0.18338582
48	0xbdc7686d	-0.097367145
49	0xbe95794d	-0.29194108
50	0xbe89fe53	-0.26951846
51	0xbc496e83	-0.012294414
52	0xbe2544fd	-0.16139598
53	0x3d4a791a	0.049431898
54	0x3e80524b	0.25062785
55	0xbcaf53e0	-0.0214023
56	0x3e364efb	0.17803566
57	0x3da8fbfc	0.08251187
58	0x3e635e71	0.22203995
59	0x3e255037	0.16143881
60	0xbd136976	-0.035989247
61	0xbdcb4900	-0.09926033
62	0x3d9effb8	0.07763618
63	0x3b26b57c	0.0025437763
64	0xbc5b2a3c	-0.013376769
65	0x3e1acb51	0.15116622
66	0x3ea7d794	0.3278166
67	0xbe9462b0	-0.28981543
68	0x3e27fa7e	0.16404149
69	0x3e4ca048	0.19983017
70	0x3e63edf0	0.22258735
71	0xbe873aa0	-0.26411915
72	0x3e8d21aa	0.27564746
73	0x3ebc2ac7	0.36751387
74	0x3e43cb8b	0.19120614
75	0xbe5c0c6f	-0.21489118
76	0x3df2bd7a	0.11852546
77	0x3ad9dcd2	0.0016621596
78	0xbe6456fa	-0.22298804
79	0x3cfd765f	0.030940233
80	0x3e213593	0.15743093
81	0xbd4120c3	-0.047150385
82	0x3b7c4aa4	0.0038496638
83	0xbe03f982	-0.12888148
84	0xbde6c2f0	-0.1126765
85	0x3c5fff89	0.013671764
86	0xbe1bdc64	-0.15220791
87	0xbd1a3194	-0.037644938
88	0xbe58afdd	-0.21160837
89	0xbe922d77	-0.28550312
90	0xbdc496dd	-0.095990874
91	0x3e026d66	0.12737045
92	0xbe9fbd88	-0.31199288
93	0xbda6f4e5	-0.08152179
94	0x3d642ee0	0.055708766
95	0x3e3274ab	0.17427318
96	0xbe5cbbc7	-0.21556006
97	0xbe29b1e0	-0.1657176
98	0xbdcd8f40	-0.100370884
99	0x3d387474	0.045032933
100	0x3e29c14a	0.1657764
101	0xbdd77ce0	-0.10521865
102	0xbd0cf020	-0.03440869
103	0xbcb97cdc	-0.022642545
104	0x3eb3be67	0.35106203
105	0xbd0e6fce	-0.034774594
106	0x3e2f00a2	0.17090085
107	0xba8d3e86	-0.001077608
108	0xbe7a091d	-0.24417539
109	0x3d78a56d	0.060704637
110	0x3cd1f7f1	0.025630923
111	0xbe02fce9	-0.1279179
112	0xbd82447c	-0.063607186
113	0xbe5d9e49	-0.21642412
114	0x3e362a45	0.17789562
115	0x3d9701b6	0.07373373
116	0x3d8b0d21	0.067896135
117	0x3b48a90b	0.0030618336
118	0xbd8f852d	-0.07007823
119	0x3e8c60ac	0.27417505
120	0x3df44a43	0.11928227
121	0xbe15eb53	-0.1464055
122	0xbc49f4be	-0.0123264175
123	0x3de98537	0.11402362
124	0x3e71faa6	0.23630771
125	0x3e7d0d32	0.24712065
126	0x3deaf3b4	0.11472264
127	0x3dee6a89	0.11641414
128	0xbe5f9a08	-0.21836102
129	0x3e31dc59	0.17369212
130	0xbd9b188a	-0.0757304
131	0x3dedbe81	0.11608601
132	0x3ca221b4	0.019791462
133	0x3d19528e	0.037432246
134	0xbea1e83b	-0.3162249
135	0x3cbc2c97	0.02297048
136	0x3da8be51	0.08239425
137	0xbe22bee4	-0.15893131
138	0xbe3c1d0e	-0.18370458
139	0x3e910ca5	0.2832996
140	0xbe057bdb	-0.13035528
141	0xbe200f70	-0.15630889
142	0x3e48965d	0.19588609
143	0x3ca52f55	0.020164171
144	0xbe08cade	-0.13358638
145	0x3d393268	0.045214087
146	0x3dff9c98	0.1248104
147	0xbcf287c6	-0.029605757
148	0x3d8d9af3	0.0691432
149	0xbd72fd05	-0.05932333
150	0xbcb62f96	-0.022239488
151	0xbe50f2ab	-0.2040507
152	0x3e36c639	0.17849053
153	0x3c664b0a	0.014055977
154	0xbd6e5f4e	-0.05819636
155	0xbda983e8	-0.08277112
156	0xbe8a2fc1	-0.26989558
157	0x3e85106b	0.25989088
158	0xbdfbfc4d	-0.12303982
159	0xbd61ef4b	-0.05515985
160	0xbd9161af	-0.0709871
161	0x3e8390ee	0.2569651
162	0x3cd9cddc	0.02658742
163	0xbe8de820	-0.2771616
164	0x3e461fa5	0.19348009
165	0x3e176a58	0.1478666
166	0x3dd8f353	0.105932854
167	0xbdb8fd2d	-0.090326644
168	0x3e006625	0.12538965
169	0x3e028c5f	0.1274886
170	0x3dca2d61	0.098719366
171	0x3cfe2101	0.031021597
172	0xbd02faf4	-0.03197761
173	0xbdccd2b9	-0.1000113
174	0xbdc85d32	-0.097834006
175	0xbdce9be3	-0.10088327
176	0xbe0e18b4	-0.13876611
177	0xbc959680	-0.01826024
178	0x3e278a52	0.16361359
179	0xbd468e66	-0.048475645
180	0xbe4e893f	-0.20169543
181	0xbdc57759	-0.096419044
182	0x3deae77b	0.11469933
183	0xbdbfa5f5	-0.09357826
184	0x3e7c9b4d	0.24668618
185	0x3d9747eb	0.07386764
186	0xbd5348f0	-0.05158323
187	0x3dca53f4	0.09879294
188	0xbe15f204	-0.14643103
189	0xbd6bb607	-0.05754664
190	0xbd130e5c	-0.035902366
191	0xbda6447d	-0.08118532
192	0x3e269653	0.16268282
193	0xbe82926e	-0.25502342
194	0x3e63a2a0	0.22230005
195	0x3d7b12a9	0.061297093
196	0xbdff9026	-0.12478666
197	0x3b258539	0.002525641
198	0x3d7f2150	0.06228763
199	0x3b9cf75a	0.004790229
200	0xbe010ff6	-0.12603745
201	0xbe438788	-0.1909467
202	0xbc32eb4e	-0.010920359
203	0xbda434d5	-0.080178894
204	0x3eaeb5ea	0.34123164
205	0xbe66b091	-0.22528292
206	0x3d9e5904	0.07731822
207	0xbdefbec9	-0.11706311
208	0x3c972c14	0.018453635
209	0xbc22b9bf	-0.009931981
210	0x3ba9df87	0.0051841172
211	0x3cf78ef0	0.030219525
212	0x3de9ad39	0.11409993
213	0xbd7b0cd5	-0.061291534
214	0x3dbdc2f1	0.09265698
215	0xbec22759	-0.37920645
216	0x3d615af5	0.055018384
217	0xbe53b442	-0.20674232
218	0x3e484906	0.19559106
219	0xbcefbc87	-0.029264702
220	0xbdd3f0d5	-0.103486694
221	0x3cbf9d77	0.023390515
222	0x3d4f0e4a	0.050550736
223	0xbe3fa540	-0.18715382
224	0x3e0b0bbc	0.13578695
225	0x3c9e974c	0.019359253
226	0x3ea8c799	0.3296478
227	0x3e051ad1	0.12998511
228	0xbcd8af09	-0.02645065
229	0x3dc332ff	0.09531211
230	0x3dbc1c35	0.091850676
231	0xbd9ab4c1	-0.07554007
232	0x3d7fa69f	0.06241476
233	0x3dd79539	0.10526509
234	0x3dca7fe3	0.09887674
235	0xbd84a921	-0.06477571
236	0xbe9c619d	-0.30543223
237	0x3d062c8b	0.032757323
238	0x3e7c3d36	0.24632725
239	0xbd81026e	-0.062992916
240	0x3ca59a24	0.020215102
241	0x3e1092df	0.14118527
242	0x3ea9ad5a	0.3314007
243	0x3e839cf3	0.2570568
244	0x3c5a0fb8	0.013309412
245	0x3e76f41e	0.24116561
246	0xbe025c73	-0.12730579
247	0xbd9b6520	-0.075876474
248	0xbd3ac919	-0.045601938
249	0xbdb823a5	-0.08991174
250	0xbb702c27	-0.003664741
251	0x3e362bad	0.17790098
252	0xbbfd8bae	-0.0077375984
253	0x3d42f296	0.04759463
254	0xbda46da7	-0.08028727
255	0xbc6b7eb2	-0.014373468

action_model._continuous_distribution.mu.bias f4 [39]
0	0x3e22b80a	0.15890518
1	0x3dd2ec2e	0.10298954
2	0x3ded53cb	0.11588248
3	0xbdc6c92f	-0.097063415
4	0x3e3aa955	0.18228658
5	0xbed25beb	-0.41085753
6	0xbe9edc77	-0.31027576
7	0xbcc80882	-0.02441812
8	0x3e3c11a4	0.18366104
9	0xbd625d22	-0.0552646
10	0x3d90e25e	0.07074426
11	0xbe6fc25e	-0.23413989
12	0x3dd4e14f	0.10394537
13	0x3dc28f98	0.095000446
14	0xbe16481f	-0.1467595
15	0xbd286c36	-0.041118823
16	0xbd8dc72f	-0.06922757
17	0xbc378b96	-0.0112027135
18	0xbe84b016	-0.25915593
19	0xbe92f2f8	-0.28700995
20	0x3e80ffca	0.25195152
21	0xbd5b3e8e	-0.053526454
22	0x3e2e2af2	0.1700857
23	0xbdfe10f6	-0.12405579
24	0xbd929050	-0.07156432
25	0xbe062cf0	-0.1310308
26	0x3d612324	0.054965153
27	0xbeaa0b2b	-0.33211645
28	0x3e10b7fd	0.14132686
29	0x3dddcf87	0.10830598
30	0xbe544ade	-0.20731685
31	0xbe829080	-0.2550087
32	0xbe55dfee	-0.20886204
33	0x3e9716b0	0.29509497
34	0xbda6d055	-0.08145205
35	0xbe0cc718	-0.13747823
36	0xbd958b0b	-0.07301911
37	0x3e7ef1fe	0.24897
38	0xbe05bc8e	-0.13060209
