Assets/Brains/AdrianTests/AdrianColTest16/Zombie Walker/Zombie Walker-499942.onnx (onnx, 281621 bytes, 9 tensors)

network_body._body_endoder.seq_layers.0.weight f4 [128, 241]
00000000: abe4 d2bd 9789 343e 2731 0b3d 265a 583d
00000010: 135c 16bd ad27 99bd a6de c6bd 83bc fbbb
00000020: 4752 adbc 36c0 863c 14a7 d13d ac0a 17bc
00000030: 04c3 133d e883 d7bb 3a9c 9bbd 5dca a0bc
00000040: dc5f 283d 577d 94bd 0d89 1cbe ba62 8b3d
00000050: 47ce 963d f0b4 793c e647 c6bd 7fd4 083d
00000060: 6e5f af3c a879 963d c4fe f6bd 9a6f 88bd
00000070: 364a e63d fc8d c03d 3ec0 803d 5397 c53d
00000080: ffbd 363d 96c4 483e 7910 94bd 17a8 0d3d
00000090: 8e32 573d 4ef5 0cbe 629e 3b3d 1ed4 2fbe
000000a0: 0aa9 29bc 74c7 3fbd e19d bebd e901 bcbd
000000b0: d923 103e 81b5 d3bd 67ae 14be 02de 86be
000000c0: 627f 343d 7a8e 18be 9f59 b1bd 5430 e0bb
000000d0: 460a b03d 65ad cc3c 27a8 9d3c a483 ad3c
000000e0: d74c d93d 327e e5bd dec7 0fbe 7481 853e
000000f0: 48e1 313e 86a6 1ebe 83ce 84be d2a5 1b3e
00000100: 9402 0e3d 5ea8 f3bd 92ac b6bd d8b4 623d
00000110: d477 593c 4ac7 8bbe a309 b3ba 3419 293d
00000120: 5453 bb3d 0fa4 56be 2495 d0bb 57c7 9e3e
00000130: 1313 8abe a845 f8bd 6166 63be 3697 333d
00000140: c87c 213e 19fc 353e 9bb1 29bc 45d7 f73d
00000150: 43b6 29bd 66ca 613b b822 7cbd 1887 113e
00000160: 6064 33bd 7a39 18be 8c15 aa3d e37e e4bd
00000170: c61d b2be 11c3 50bd 3787 943d e5a2 683d
00000180: f7d6 79bb ff21 8d3d 1759 c7bd 0167 4fbd
00000190: ef61 2cbd 3d18 afbc 4e71 4c3e 1b6e 103d
000001a0: ff9a 00be 0ff1 f43d e7cb ddbd b0e9 86be
000001b0: 8e84 b6bd b120 67bc 657e 233e 04fd c8bd
000001c0: 89d3 003e 1787 973b f682 7a3d d7b5 323c
000001d0: 03bb f7ba 074c 083e 6073 0d3e ff72 f4bd
000001e0: 0644 1f3e 206b 8abd a03b 2abe 5038 06be
000001f0: 0135 e13d 8fc4 47bc 040a e13d 6668 793e
00000200: 1a1d c8ba 67ea 97bd ecfd b1bd 7c58 823c
00000210: eb5d 323e ac5a 63bd 4975 863e 8fa2 5c3e
00000220: 9133 f9ba c0ca 30be e203 cfbd 84b6 db3d
00000230: 6a6d f13d c0cf 61bd 0155 223e 2dfe b8bd
00000240: 08da 54bd b140 533c d8ab 193d 4b57 933d
00000250: a158 6cbd 972e cb3d 8f78 f93c aec3 ba3c
00000260: beb1 b03d 2478 88bd b998 9b3d 941b 103c
00000270: 1096 0f3d 680d bebd a604 b0bd 78b7 ac3c
00000280: 24ed e2bd ea17 28bd 701c 7fbd 0e31 c4bd
00000290: 972e 7f3e f621 063d 8674 b13d 0282 4d3e
000002a0: b9a8 c43c 75df fdbd a598 96bd 9c41 b2bd
000002b0: f5f4 973c 31c0 42bc 2b98 993b 4cc7 94bd
000002c0: 161d d13d 29b6 9cbd 1403 13bd 07e2 1d3d
000002d0: d099 f6bd c8a8 753d 8a30 09be b7cf 623e
000002e0: e6c2 61bd d4b3 d5bd a57d fc3d c21b 0ebe
000002f0: bf66 843e 5078 e0bc 3a84 fd3b 8130 dc3c
00000300: 7e5d ab3d 69de 753c c5b9 14bc 0be6 3abd
00000310: c629 583b 9073 28bd 59b1 213e 0638 083d
00000320: c05e 21be 44cd 0a3c aa30 05bd 19ba 77bd
00000330: 408a 953d 01b3 2fbe 644a c13a 23db 8ebd
00000340: 2808 51bc 1793 3fbe 00a1 0d3b b3e9 a4bd
00000350: b4e1 d03d b38f 203d a482 fdbd 69cb 97bb
00000360: f860 0a3d 3e94 263e 9e8b a8bc 5636 d0bd
00000370: 6794 ecbd 914c f43d 2285 e9bc d6a0 ae3d
00000380: 5a95 da3d 78a3 8d3a 10f8 d33b fcc8 f0bc
00000390: dffc f33d 7440 7abd d7a8 f0bd c784 ba3d
000003a0: 7d8e be3d 9d54 7a3d 2c25 29be aa6f 5fbd
000003b0: 366a 133d 0684 a33d 7efb bc3d 5506 d43c
000003c0: a0d0 16be 84cd 56be 455c 20bb 028d d23c
000003d0: 8a25 77bc ee63 20be 0abf 593c 5c3d ff3d
000003e0: 69b8 1ebd 8bc1 5f3d eb9f d93c 4dd2 bf3d
000003f0: 9819 af3c fcc4 7ebd 8da0 403c a427 86bd
-0.10297521 0.17630611 0.033982422 0.052820347 -0.036708903 -0.07478271 -0.097104356 -0.0076823845
-0.021157397 0.016449075 0.10236946 -0.009218853 0.036074653 -0.0065770037 -0.07598157 -0.019627744
0.041107044 -0.07250469 -0.15286656 0.0680594 0.07363563 0.015240893 -0.09681682 0.033405777
0.02140781 0.07347423 -0.120603114 -0.06661911 0.11244623 0.09402081 0.06286667 0.096480034
0.04461479 0.19606242 -0.072297044 0.03458413 0.052538447 -0.13765451 0.045805342 -0.1717076
-0.010355243 -0.046821073 -0.09307457 -0.09180052 0.14076175 -0.103373535 -0.14519654 -0.26341254
0.044066794 -0.148981 -0.08659672 -0.0068416987 0.085957095 0.024985025 0.01924522 0.021180935
0.10610359 -0.112057105 -0.14041087 0.26075327 0.17371094 -0.15493211 -0.25938806 0.15199974
0.034670427 -0.11897348 -0.08919634 0.055348247 0.013273198 -0.27300483 -0.0013659488 0.0412838
0.09146753 -0.20961021 -0.006365435 0.3101146 -0.26967677 -0.12122661 -0.22207023 0.043845378
0.15770257 0.17771949 -0.010357286 0.12101606 -0.041433584 0.0034452914 -0.061556548 0.1421169
-0.043796897 -0.14865676 0.08304891 -0.11157014 -0.3478834 -0.05096728 0.07252353 0.056795973
-0.0038122514 0.0689125 -0.097337894 -0.05063534 -0.042085584 -0.021373862 0.19965097 0.035261255
-0.12559126 0.11960041 -0.10829907 -0.26350164 -0.089120016 -0.014106915 0.15966184 -0.09813884
0.12580694 0.0046242583 0.06116005 0.010907612 -0.0018900338 0.13310252 0.13813543 -0.11935996
0.15553293 -0.06758714 -0.16624308 -0.13107419 0.10996438 -0.012192859 0.109882385 0.24356231
-0.0015267462 -0.074177556 -0.0869101 0.015911333 0.1741864 -0.055506393 0.26261356 0.21546386
-0.001901256 -0.17264843 -0.101081625 0.107281715 0.11788447 -0.055129766 0.15852739 -0.09032855
-0.051965743 0.012893842 0.0375174 0.07194384 -0.05770171 0.09920996 0.030452995 0.022798385
0.08627652 -0.0666354 0.07597489 0.008795638 0.03505522 -0.09279901 -0.085946366 0.021083578
-0.11080387 -0.04103843 -0.06228298 -0.09579669 0.24920116 0.03274723 0.08664803 0.20069125
0.024006234 -0.12396137 -0.073533334 -0.0870392 0.018549422 -0.011886642 0.0046873293 -0.07264575
0.10210626 -0.07651932 -0.035891607 0.038545635 -0.12041056 0.059975415 -0.13397422 0.2214955
-0.05511751 -0.1043469 0.12328652 -0.13877776 0.2585964 -0.02740112 0.00773671 0.026878597
0.083674416 0.01500664 -0.009077494 -0.045629542 0.0032983883 -0.041125834 0.15790309 0.033256553
-0.157588 0.008471791 -0.032517113 -0.06048021 0.0730176 -0.17158128 0.0014746902 -0.06975391
-0.012758292 -0.18708454 0.0021610856 -0.08052387 0.101992995 0.039199542 -0.12378433 -0.0046324027
0.033783883 0.16267487 -0.020574387 -0.10166614 -0.11551743 0.119286664 -0.028505865 0.08526771
0.10673018 0.0010806164 0.0064687803 -0.029392712 0.11913466 -0.061096624 -0.11750954 0.091073565
0.09304521 0.06111585 -0.16518086 -0.05454985 0.035989963 0.07984166 0.09227656 0.025881926
-0.14728022 -0.20976835 -0.002446906 0.025702003 -0.015084634 -0.1566312 0.013290176 0.12462875
-0.038750086 0.054627936 0.026565513 0.093662836 0.021374509 -0.062199578 0.011757028 -0.065505296

network_body._body_endoder.seq_layers.0.bias f4 [128]
00000000: c67d 5dbd 7756 95bc 99e5 cd3c 5297 a3bd
00000010: 1418 30bc 02a8 dfb7 959b 2f3d 8ecd 9c3b
00000020: 557e 0abe cf69 0abd 8549 5b3c 292c 92bc
00000030: 4173 61bc 241c 813c 220b 62bd 3304 f7bc
00000040: a046 1fbd 253b e5bc 8309 e63c 0625 c2bd
00000050: a933 bbbd 4a80 61bd f238 783c 933e 7dbd
00000060: eabc 5ebd 951f 20bd bf1e 04bb f220 0ebd
00000070: 0da7 09bd 5843 90bd e044 20bd 65ac c6bd
00000080: 6b1c dabc 10c7 51bb 1a97 f0bc ee32 4d3c
00000090: 2590 bfbb 3896 27bd 6117 94bd 6f15 b43c
000000a0: d4ac afbc eae0 48bc 3976 a63a ec60 96bd
000000b0: fb3a 29bd 3615 97bd 9f30 7fbd 1a32 91bb
000000c0: aa9d 20bd 7580 51bd a35e 4bbd c1bd 283c
000000d0: 456e 6c3b 44da 2ebd b193 d7bc 370d 12bd
000000e0: 166b 87bd 93f3 cabc 62c9 79bd 13fd e73b
000000f0: 5bee 9f3c 806a d3bc 10f0 60bd bff4 c43c
00000100: e9f7 a0bd 7973 c1bc d12c 6cbc 30c2 9d3c
00000110: 68da fabd 1e4e e7b9 4515 e5bd 63cd acbd
00000120: c0b0 dfbc 658d 4ebd e0b9 80bd 8d69 c43c
00000130: 2471 99bc b219 8e3a 1460 cebd b787 84bd
00000140: ecb6 4bbd b5e1 0fbc 6b00 37bd cb61 e6bd
00000150: 77c4 ac3c c8e2 57bc 6968 47bb 72d4 44bc
00000160: 5c3b 22bd c5e7 9bbd 6f40 33bd 2126 fd3b
00000170: a18c 6ebd 684e 5abd 8c3b d13c 198d 613b
00000180: 0d81 123c 152b 623a 557e 58bd e5d4 16bd
00000190: a1fd 11bc 1e69 75bd 0bfd 13bd 5a65 cfbd
000001a0: 18d4 75bc 33ca 09bb 655d e93b c6c0 393b
000001b0: ba44 c5bc 23cf 533c 8281 62bd 6c34 cdbc
000001c0: 9165 a2bd 3fea fabb 23c8 50ba c403 aebd
000001d0: 34c1 95bd fd53 cc3c ea3b 00be 21aa ffbc
000001e0: d721 8c3b 1031 2fbd 5eff 6ebd 2166 57bd
000001f0: 6cef ddbd 9054 a5bc 1dab 83bd 4ea5 81bd
-0.054075025 -0.018229706 0.025133895 -0.079878464 -0.010747928 -2.6661906e-05 0.042872984 0.004785246
-0.13524754 -0.033792313 0.013384228 -0.017843323 -0.013760389 0.015760489 -0.0551864 -0.03015337
-0.038885713 -0.027982304 0.028080707 -0.09479718 -0.09140713 -0.055053987 0.015150296 -0.061827254
-0.05437938 -0.03909262 -0.0020159928 -0.034699388 -0.033606578 -0.07044095 -0.039128184 -0.097008504
-0.026624879 -0.003200952 -0.029368926 0.01252435 -0.005846041 -0.040914744 -0.07231022 0.021982877
-0.021444716 -0.012260655 0.0012700028 -0.07342705 -0.041316014 -0.073770925 -0.062302228 -0.0044310214
-0.03921286 -0.051147897 -0.0496508 0.010299147 0.0036076468 -0.042688623 -0.026315542 -0.035657134
-0.06612222 -0.024774348 -0.06098307 0.0070797293 0.019522836 -0.02580762 -0.05491644 0.024042485
-0.07859785 -0.023614632 -0.014414982 0.019257635 -0.12248689 -0.00044117955 -0.111856975 -0.08437612
-0.02730596 -0.050427813 -0.06285453 0.023976112 -0.018730707 0.0010841398 -0.10076919 -0.06471198
-0.049734995 -0.00878184 -0.044678133 -0.11249121 0.021089775 -0.013176627 -0.0030427224 -0.012013542
-0.03960739 -0.07612566 -0.04376262 0.0077254926 -0.058239583 -0.05329743 0.02554109 0.0034416376
0.008941901 0.00086276355 -0.052854855 -0.036824126 -0.0089105675 -0.0599147 -0.036129992 -0.10126753
-0.01500418 -0.002102506 0.007121729 0.0028343662 -0.024080623 0.012927803 -0.05529929 -0.02504941
-0.079295285 -0.007657319 -0.0007964393 -0.08496812 -0.07312241 0.024942392 -0.12522855 -0.031209053
0.004276495 -0.0427714 -0.058349006 -0.052587632 -0.10836682 -0.020181924 -0.06429122 -0.063303575

network_body._body_endoder.seq_layers.2.weight f4 [128, 128]
00000000: a662 2cbd 2d1b f9bd 59c3 423e ba54 3c3d
00000010: 1faf 5dbd f8d8 44be 2901 103e 5109 d63d
00000020: 5155 083d 1302 71bc c56c adbb 489c fabd
00000030: 5b9c 99be 54d4 533d 025c 993b b03f 09bd
00000040: 816d bb3d 8548 68be a4ec 393d 38ba fbbc
00000050: e609 a0bd 0035 843d 546a 4d3e aea9 4d3e
00000060: f909 243e 8de2 08bd 4755 34be daac 4cbc
00000070: 5208 893d f7ed 76bd 8e2d 96be a245 a6bd
00000080: 2ca5 a8bd ce55 4ebe d335 ce3d 5dcc 01bd
00000090: 61b7 313e 80eb 93be 6951 4dbd 1b05 45be
000000a0: 93aa a1bd 099b 833e 55e0 0fbd 19e2 54be
000000b0: c44a 9dbc 5916 28be 7bcc bcbc 9ad8 553e
000000c0: 7199 1ebe d12b c93d c60e 653d c5ab 01be
000000d0: 714a 7dbe 0533 073d 26e9 a33d 948b e4bc
000000e0: 3fa2 1d3e 168d 9dbd e787 2d3d 90ec 2abe
000000f0: 5b37 0ebc 6274 8ebe 55d5 4c3c 6dbd fdbd
00000100: 39e2 023e c976 2a3d 8262 423c 272f 29bd
00000110: 7269 c0bd 9291 44bd 0f5c 19be 6e99 2c3e
00000120: 5096 2ebe d941 75bc 90e9 4a3d 4cd5 f5bb
00000130: 8bd9 d53c cbe8 07be b755 72bd 4d7a 17bd
00000140: 8d33 38bd 6125 603d 4b2e 0dbd 2ca2 3ebe
00000150: 78db 343e 7b63 3e3c 7aef ce3d 0e20 213d
00000160: 92d4 df3d fbf5 86bd 6636 e5bc cd80 84be
00000170: 46cd 93bd f458 c2bd 7f23 9c3d 03ee 21be
00000180: f57a bf3d 76af ebbd 2201 c8ba c690 aabc
00000190: 40f0 913d e656 52bd a47a f2bd 7c65 f93d
000001a0: a91f c5bd b718 32bd 9d27 923b fbaf 8e3e
000001b0: 57bc bebd 8eaa 1ebd 28c8 97bd 8a28 2fbd
000001c0: 5978 053e 5d1a 2fbd a618 4c3e a90e a83c
000001d0: 6527 01be 7f9d bebd 69bc bfbd f69f 86bc
000001e0: 7fd0 48be 9814 753c 4205 d1bd e1ae 353e
000001f0: 0bbb cf3a bc37 433d 598a 2ebe b625 203d
00000200: 40d4 85bc b87f 193e 0cf2 e53a d04e 0ebd
00000210: 1dc9 573e 1243 d6bd 8131 eebc 186e 933d
00000220: cb77 0f3d 8570 c5bd a373 e2bd 3ce7 ca3d
00000230: 076d 86be d6c5 543c fa17 ea3c 8aeb e0bd
00000240: 7813 11bc 9141 dabd 0ffe 4fbe 6b9d 67be
00000250: 313f 733d 5945 d33d d565 a13d 2c0d 853e
00000260: b568 0f3d f3fe 39be 8d16 ef3c f4b4 053e
00000270: 828e cd3d 32e9 113e 182b 9ebd a38d 6e3d
00000280: d687 eebb 87c7 e03c b5ec 223d e6fb 6a3e
00000290: 372a 473e b8bf c33d c7e5 2cbe d2fd d2bd
000002a0: 6bd5 bcbd 8bca af3c e92e ab3c dc7a 8f3d
000002b0: 3018 91bd 3601 03bd a537 163e 9c32 e23c
000002c0: f4cd 1bbd 7ddb 80bb d27c e0bd 1180 033e
000002d0: 0c85 91be 0c3e e0bd fcf2 c9bd aa44 46be
000002e0: 706f 0e3e 962b ed3d 46a4 5a3c f4c0 77bd
000002f0: 80fb b6bd 0b9d 813e f1c8 de3c 1563 663e
00000300: 8e99 d23d b3c9 e0bc f1a6 8fbc ca4c 75bc
00000310: 09f3 45bd f3c6 1a3d 3c58 063d 9d03 0e3e
00000320: 0d60 2a3c b5a5 9fbc 4248 21bc 6843 413d
00000330: 1e57 4a3d 35d6 3abe 829b a43d cd80 96be
00000340: b05b a7bd 5de7 623d 7454 6abd 8a0e 07bb
00000350: 4aa1 92bc 36e8 a73d a4e9 91bd 8f49 81be
00000360: 760c a33e 33a1 aa3c 5414 1a3e c0ca 9fbd
00000370: b63d adbd 68d1 323e 1e1a 383b 1277 19be
00000380: 1652 40bc a522 0dbd e28a c2bd 0392 263d
00000390: 5133 97bd 4855 4fbe 1f70 82be 6b7e 24be
000003a0: c261 7a3e 4fcc 973d 279d 02be 22a6 833e
000003b0: 860f a5bd 4ce4 febd f45c 0abe dbf2 4dbe
000003c0: 7ec3 f2bc 26a6 3fbc 817b 083e dbcb 0a3d
000003d0: 555c d03c 8fb9 173e 57d0 e03d dea4 62bc
000003e0: 1f56 27be 7362 4a3e e5f8 1d3e f3da 023e
000003f0: 6fa0 0a3d 56b1 04bd 5a27 15be 4785 82bd
-0.042086266 -0.121633865 0.19019832 0.04597924 -0.054122087 -0.19223392 0.14062943 0.10450996
0.03328449 -0.014709967 -0.0052925074 -0.122368395 -0.30002102 0.051716164 0.0046801576 -0.033508003
0.091517456 -0.22683914 0.045391694 -0.030728444 -0.07814388 0.064554214 0.20060092 0.20084259
0.1601943 -0.03341918 -0.17610656 -0.012492383 0.0669104 -0.060285535 -0.2933163 -0.0811875
-0.08234629 -0.2014992 0.1006886 -0.031689037 0.1735511 -0.2889061 -0.050126467 -0.19240229
-0.078938626 0.2570422 -0.03512605 -0.20789374 -0.01920069 -0.16414775 -0.023046723 0.20883408
-0.15488221 0.098228104 0.055922292 -0.12663181 -0.24735428 0.03300764 0.08003454 -0.027898587
0.15393923 -0.07692926 0.042365935 -0.16691804 -0.00868019 -0.27823168 0.012502034 -0.12389646
0.1278161 0.04161719 0.011864306 -0.041304734 -0.09395112 -0.04799039 -0.14976524 0.16855404
-0.17049527 -0.014969313 0.04953915 -0.0075022336 0.02610471 -0.13272397 -0.059163775 -0.03698187
-0.044971038 0.054723147 -0.034467977 -0.18616551 0.17661846 0.011620398 0.1010427 0.03933721
0.109292164 -0.06589886 -0.02798004 -0.25879517 -0.07216887 -0.09489623 0.07623958 -0.1581345
0.09349624 -0.11508076 -0.0015259127 -0.020820986 0.07125902 -0.051352404 -0.11839798 0.1217756
-0.09625179 -0.0434806 0.0044602887 0.27868637 -0.09313267 -0.038736872 -0.07411224 -0.04276327
0.1303419 -0.04274975 0.19931278 0.020514803 -0.12612684 -0.09307384 -0.09362108 -0.016433697
-0.19610785 0.014958523 -0.10206081 0.17742492 0.001584859 0.047660574 -0.17044963 0.039098464
-0.01633656 0.14990127 0.0017543449 -0.03474313 0.21072812 -0.104620114 -0.02907634 0.07198733
0.035026353 -0.09640602 -0.11057212 0.09907386 -0.26255056 0.012986621 0.028575886 -0.109824255
-0.008854739 -0.10657037 -0.2031176 -0.22618644 0.059386436 0.103159614 0.07880751 0.25986612
0.035011966 -0.18163662 0.029185558 0.1305731 0.10036947 0.14249113 -0.07723063 0.058240544
-0.0072793765 0.027438892 0.039776523 0.22947654 0.19449697 0.09558052 -0.16884528 -0.10302319
-0.09220394 0.021458885 0.020896392 0.070058554 -0.070846915 -0.031983577 0.14669664 0.027612023
-0.03803821 -0.003932415 -0.109613076 0.12841822 -0.2842182 -0.109493345 -0.09860799 -0.19362131
0.13909698 0.11580579 0.01334483 -0.06048675 -0.089346886 0.25315127 0.027195426 0.22498734
0.102831945 -0.027439928 -0.017535659 -0.014971921 -0.04832748 0.03778739 0.03279899 0.13868566
0.010398877 -0.019488195 -0.009843888 0.047183424 0.049399488 -0.18245776 0.08037473 -0.29395142
-0.08171785 0.055396426 -0.057209447 -0.0020608031 -0.017899174 0.081985876 -0.071246415 -0.25251433
0.31845444 0.020828819 0.15046817 -0.07802343 -0.08459036 0.17462695 0.002809174 -0.14986828
-0.011738321 -0.034456868 -0.09499146 0.04066659 -0.07382835 -0.20247376 -0.25476167 -0.1606385
0.24451354 0.07412016 -0.12755261 0.25712687 -0.080596015 -0.12445888 -0.13512021 -0.20112173
-0.029634234 -0.011697328 0.13328363 0.033885818 0.025434652 0.14816879 0.10977238 -0.013833253
-0.16341446 0.19764118 0.15426977 0.12778835 0.033844408 -0.032395683 -0.14565793 -0.06373077

network_body._body_endoder.seq_layers.2.bias f4 [128]
00000000: 9b88 433d 8792 21bd 5e1b 19be 4078 0b3d
00000010: 21c8 a1bc 5eda b3bd 4c1e 00be facd a83c
00000020: 116d ccbc 4f58 88bd c120 83bd 2ae8 fbba
00000030: 415c 193c b9c3 99bd dd3a aa3c 8a72 013d
00000040: a1a6 87bd c39c 87bd 5e94 6e3d 4ff9 6ebd
00000050: 9fc1 9fbd 8968 d9bc 7631 e8bc d656 1fbd
00000060: 71f2 3abe 0163 363d 5595 cfbd b89a f83c
00000070: bb9a 61bd 608a c83c 868f 363d 43f5 063c
00000080: 1140 1fbe 6905 3fbd 19d3 9cbd d73e 50bd
00000090: 6c1b 26be 3704 48bb a603 b83c fe41 80bd
000000a0: e1ae b83d 3c10 8abc 6218 57bd 7eee fbbd
000000b0: 49dd ad3c ae15 ddbc 183d c83b 7b5c a13d
000000c0: ece4 c8bd 7fe4 973d d148 90bc dda5 2f3c
000000d0: 3bbf c63c 4a4b 373d 2140 7d3d 23e9 fdbc
000000e0: cf51 b3bc b5fb 353d 2c45 38ba bcbd 20bd
000000f0: 109e 433d d2a1 bdbd 56cc f43c b651 6d3d
00000100: ae86 bdbc 11f2 bc3c c887 2cbc 827a c03d
00000110: af92 d8bc 3b37 a83d 7bac 963c 7a18 6cbd
00000120: f410 013d d383 d2bd 5936 873c adba bc3c
00000130: 7319 89bd b536 c8bc e1ab 3fbd 8d9a 1a3d
00000140: b8a9 d6bd bde7 e73b 5351 e2bd 71f8 6ebc
00000150: 3591 48bc e299 1abd 8e0a 233d 3f1d 413d
00000160: a1eb bebc c4c8 63bd 04e4 8cbd f48e 9bbc
00000170: 886f 2e3d 3d29 c2bc eedf 903d c324 41bd
00000180: 39d4 f6bb 906a 9a3d bfa7 163d bf83 96bd
00000190: ea79 c4bd 3afe a93d bd2b c63c 3b8b dcba
000001a0: 1b6d 45bd e806 9cbc 24d1 9f3b 99e3 943d
000001b0: 0420 d73d aa5a 053d 1516 473d 1dd3 143e
000001c0: 2605 ac3c 8904 903c d249 a1bb 63b7 06bd
000001d0: 3f56 213d 80dc e03d e59c e23d 3e72 20bd
000001e0: 24f5 adba dd3d f3bd 4868 683d f27f f93c
000001f0: 36e2 6dbd 07e8 aabc 37e9 14be 01e0 13bb
0.0477377 -0.03944638 -0.14951846 0.034050226 -0.01974875 -0.087818846 -0.12511557 0.02060603
-0.02495435 -0.066574685 -0.06402732 -0.001921897 0.009360374 -0.07508034 0.020780021 0.031603374
-0.06623579 -0.06621697 0.058246963 -0.058343228 -0.07800602 -0.026539104 -0.028343897 -0.038901173
-0.18256547 0.04452801 -0.10135905 0.030347213 -0.055079203 0.024480045 0.04457047 0.008237186
-0.15551783 -0.04663602 -0.07657451 -0.05084118 -0.16221398 -0.003052009 0.022462677 -0.06262587
0.090177305 -0.016853444 -0.052513488 -0.12301348 0.021223681 -0.026987877 0.0061107986 0.078789674
-0.098092884 0.07416629 -0.017612847 0.010720697 0.024261108 0.044749536 0.061828736 -0.030994957
-0.021889595 0.0444295 -0.00070293504 -0.039243445 0.047758162 -0.092593804 0.029882591 0.057939254
-0.02313551 0.023064645 -0.01053042 0.093983665 -0.026437132 0.082136594 0.018392792 -0.05764053
0.03151031 -0.1027905 0.016505407 0.023038233 -0.06694307 -0.024440149 -0.046794776 0.037745047
-0.1048159 0.007077186 -0.110506676 -0.0145856 -0.012241651 -0.03774441 0.039804988 0.047147032
-0.023305716 -0.055611387 -0.06879428 -0.018989064 0.042586833 -0.023701305 0.07073961 -0.0471542
-0.007532623 0.075398564 0.03678107 -0.07349347 -0.09593566 0.08300443 0.024190778 -0.0016826162
-0.048199754 -0.019046262 0.0048772264 0.07269973 0.10504153 0.032557167 0.048605043 0.14533658
0.020998549 0.017580288 -0.00492213 -0.032889735 0.03938889 0.10979557 0.110650815 -0.03917145
-0.001327191 -0.11877034 0.056740075 0.030456517 -0.05807706 -0.020862592 -0.1454209 -0.0022563937

network_body._body_endoder.seq_layers.4.weight f4 [128, 128]
00000000: 23e1 aabd 8d27 253e 9303 aabd 0224 e83d
00000010: 7ee6 183d feb3 16be 0884 64be 9e57 253e
00000020: e7ba bebc 8ee9 77be 7c93 16bd 9270 44be
00000030: 0810 8f3d bb84 2d3d 4ccd 023e 4ff1 0abe
00000040: b83d 93b9 cf11 ca3c 127e 50be 2692 9abd
00000050: a5cc 053c 2a46 de3d 0e4f 9d3d 9474 05be
00000060: 6f2d d9bc 80a5 433d d028 c93b 9623 d23d
00000070: 42c3 b9bc 07df ac3d 3122 83be ee7f 91bd
00000080: 4de8 efbd 28fb f1bd 8251 2f3e ea2e 063e
00000090: f7cc ad3d fa12 b73b be44 c13d 8ee1 58be
000000a0: 869c e53a 9c80 63be 25fa a6bc 122d b53d
000000b0: a559 8a3d d057 0f3e 7c4a e03d ce3e a13c
000000c0: e3d5 dc3b 7524 13be 94bd eebd adcb 1dbe
000000d0: f2da 36be 8b86 cb3d 90d0 08be b440 aa3d
000000e0: a54d 91be b736 453e 09dd c43d f041 263d
000000f0: cb47 78be f773 dd3d 534a 6abc d7e9 b5bb
00000100: 2aea 283e c008 7d3b f5e3 173d 4755 d7bd
00000110: 1fd5 e93c 295a 813e 2c9e 813e 7e42 bdbd
00000120: 66e6 2a3a 19a6 22bd 8a01 e8bd e4c8 583c
00000130: ef3b 23bd f6ca 483d 47b1 b43d deac 54bd
00000140: 2a79 363e fba4 3bbd 4d9d 373d f23a c9bd
00000150: bf65 893d 2219 d53d aa09 013e 9684 803d
00000160: b7ba e63d 337c 193d 4a49 11bc 34ac b8bd
00000170: c77b 9cbd 1ee3 e1bd ee3c f9bd a328 4d3e
00000180: 85c7 1e3c 5f4a d7bd 0f72 87be 128f b3bd
00000190: 00c7 e4bd 4719 d73d cd87 143e bfba 483d
000001a0: 5223 343c 4491 23bd 9f9f 91be 8477 1c3d
000001b0: a0ec c8bd e222 bdbd 86af 5d3e 921c b4bd
000001c0: d4d7 f7bd 75d8 dd3d a715 273e 0a65 fb3d
000001d0: 0b52 e3ba ba0b 60bd 4cd8 443c 6eeb e5bc
000001e0: d7c5 1bbd 6e9d 6fbc be1c 93bb b829 fdbc
000001f0: 638b d63d 423a 44be f6ed 75be c7af a13d
00000200: d6ad b8bd 3961 1b3d d21b c6bd 5717 cebd
00000210: 02f6 33be 755e c9bc 5db6 323e a656 85bc
00000220: 3e65 bebd 81d3 41be 6139 c5be 5987 5fbe
00000230: f167 80bd 6af4 00be 5102 1e3e 4eea 3fbe
00000240: a5cf 9f3d f29c 8e3c 2826 86be 8d57 ac3e
00000250: 278a 10be 197d 043e 402f 5f3d d728 953d
00000260: 153e a13d 5683 103d a808 0ebe 6d64 5ebe
00000270: b55b 393e 0787 18be b25f 40be 3780 11be
00000280: dc84 3d3d 3a15 8f3d 2b90 513e 042f 6f3d
00000290: acf6 d33c 9d89 6fbe 9989 2a3e c12c c83d
000002a0: 7a7f d6bd 6ed9 6a3d 319b cd3d 05af 20be
000002b0: 6879 523e 9389 203c 3e1f 09be 7290 1fbe
000002c0: 0568 efbd 8b5e e33d 9025 233e 01e0 d4bd
000002d0: ee65 803d c15e c6bd 4c0c d23b c427 823b
000002e0: 38aa f0bd 549e 0e3e 5cb0 493d 2e58 7c3b
000002f0: f00b 91bd 2f63 db3d 5572 073e c863 7c3e
00000300: 9fb9 72bc cfa4 473d 48bb 91bd a877 21be
00000310: d476 28be 1c9b f0bd 6dd0 d7bd e1f4 cd3b
00000320: cd25 9f3d 3c12 0bbc 8531 2dbe c2b0 573e
00000330: 4a2e 543c 1c07 473e 3cf7 dbbd bae8 87bd
00000340: 3804 80be 7b3c 37bd 41f4 33be ce02 39be
00000350: 968e af3d 2d57 1ebe 8720 21bd 144b 6dbe
00000360: a458 13bd a139 ddbc 94a3 e5ba 1ada ed3d
00000370: c1e6 a6bd ffef 2ebc 6f01 983c 357e bebd
00000380: 2f48 8fbe 145f 4f3c cd1e 3bbd 39fc 0fbd
00000390: efaf 1c3c 089d b9bc 5012 6abd b038 b8bd
000003a0: b24b 8cbd e375 f13d ba3b 25be 00f2 2e3e
000003b0: 55d3 873d 4fb3 0cbd e2bc b4bd cfb3 d0bc
000003c0: dccf 0abe 49c9 ab3b bf94 8dbe 5372 073e
000003d0: 2da2 d4bd 32dc 6d3e d342 61be 2508 9fbe
000003e0: 489c 13be 34fc 44be ecd1 d2bd d589 d9bc
000003f0: 40f9 96bd 99b4 92ba a5d0 5abd cc4c f4bd
-0.08343723 0.16128369 -0.08301463 0.11334993 0.03732919 -0.14717099 -0.22315991 0.16146705
-0.023282481 -0.24210188 -0.036761746 -0.19183567 0.069854796 0.04236291 0.12773627 -0.13568614
-0.0002808401 0.024666695 -0.20360592 -0.07547407 0.008166467 0.108532265 0.07681094 -0.13032752
-0.026510922 0.047765255 0.0061388984 0.10260694 -0.022676114 0.084409766 -0.25612023 -0.07104479
-0.1171423 -0.118154824 0.17120937 0.13103834 0.084863596 0.005586979 0.0943694 -0.21179792
0.0017517961 -0.2221703 -0.02038295 0.08846487 0.067553796 0.13998342 0.10951707 0.019683268
0.0067393645 -0.14369376 -0.11657253 -0.15409727 -0.17856959 0.099377714 -0.1336081 0.083131224
-0.2837955 0.19259153 0.096124716 0.040590227 -0.24246137 0.10813134 -0.014299947 -0.0055515575
0.16495577 0.0038609952 0.03708263 -0.10514312 0.028544007 0.252641 0.25315988 -0.09241198
0.00065193174 -0.039709184 -0.113284186 0.01323149 -0.03985208 0.049021684 0.088228755 -0.05192267
0.17819658 -0.045811635 0.044827748 -0.09825696 0.0670886 0.10405184 0.12601343 0.06275289
0.11266082 0.03747196 -0.008867571 -0.0901722 -0.07640796 -0.11029647 -0.121698245 0.20035033
0.009691124 -0.10512232 -0.26454207 -0.08767523 -0.11170769 0.10502868 0.14504929 0.04900622
0.010994749 -0.039933458 -0.28442094 0.038199916 -0.09810758 -0.09235169 0.21648988 -0.08794512
-0.12101713 0.108323015 0.16316853 0.12275131 -0.0017343176 -0.054698683 0.01201446 -0.028066363
-0.03803047 -0.0146249365 -0.0044895103 -0.030903682 0.10475805 -0.19162849 -0.24016556 0.07894855
-0.090175316 0.037934516 -0.09673275 -0.100630455 -0.17574313 -0.024581173 0.17452379 -0.016276669
-0.09296654 -0.18928339 -0.3852034 -0.21828975 -0.06269825 -0.12593237 0.15430571 -0.18741724
0.07803277 0.017408822 -0.26200986 0.33660546 -0.14115201 0.12938346 0.05448842 0.0728318
0.07873169 0.0352815 -0.1387049 -0.21717997 0.1810139 -0.14895259 -0.18786505 -0.14209066
0.046269283 0.069864705 0.20465152 0.058394447 0.025874458 -0.23392339 0.16654052 0.09774161
-0.10473533 0.057336263 0.10039366 -0.15691765 0.20554125 0.009798425 -0.13390824 -0.15582445
-0.11689762 0.11102017 0.15932298 -0.10394288 0.062694415 -0.096860416 0.0064101573 0.0039720256
-0.11751217 0.13927585 0.049240455 0.0038504708 -0.07082355 0.10712277 0.13227208 0.24647439
-0.014814763 0.048741158 -0.07115799 -0.15768301 -0.1645158 -0.11748335 -0.10537801 0.0062852954
0.07770882 -0.008488234 -0.16913421 0.21063522 0.012950489 0.19436306 -0.107405156 -0.06636186
-0.2500322 -0.044735413 -0.17573644 -0.18067476 0.08572118 -0.15462942 -0.03933766 -0.23173171
-0.035973206 -0.027005019 -0.0017520064 0.11613865 -0.081494816 -0.010677337 0.018555371 -0.09301416
-0.2798476 0.012656946 -0.04568367 -0.035152648 0.00956343 -0.022657886 -0.05714637 -0.08995187
-0.06850375 0.11790063 -0.16136065 0.17084503 0.06632105 -0.03435069 -0.08825089 -0.025476364
-0.13555855 0.005242501 -0.27652547 0.13227205 -0.10382495 0.23228529 -0.21998148 -0.310609
-0.14415085 -0.19236833 -0.10293946 -0.026554981 -0.073717594 -0.0011192738 -0.053421635 -0.1192871

network_body._body_endoder.seq_layers.4.bias f4 [128]
00000000: 1d16 eabd e17c 7dbd 5717 d9bd 4d20 21be
00000010: edf7 32bd 8b4c 003d 74b0 8b3d a4b6 313c
00000020: 4e51 0dbd 560d b9bc 8966 ebbc 347f 643d
00000030: e539 97bc 327e 783c 7b3c 92bd 3dc4 3ebd
00000040: 3906 473c ce98 bb3d 98cf 963d 1e20 ec3c
00000050: 970a 013c 46af b43d 6227 82bd 3bb9 923c
00000060: 9012 fe3c f57e a2bd 32fa 043e 10a9 9bbd
00000070: 68b1 e6bd 08af ccbb 3ffa 17bd 8dd4 e2bd
00000080: 42e5 ba3c 70ca 39bc 0ffb 4f3c 501e 58bd
00000090: 18d1 2b3d b539 babd 8d4e 973d 6f61 8e3c
000000a0: 8501 373b 30a9 81bd 1cc4 02bd c505 02be
000000b0: d8fc 233d 3aec be3c 22b5 fe3c d613 6e3d
000000c0: 367d a8bd 4eb9 22bd cbf9 0ebd 1aaf 77bd
000000d0: 3716 f63c 4db6 003d 6f19 9b3d 4283 9abd
000000e0: 5469 d7bd 1437 52bd a897 c83c c297 84b9
000000f0: dc8d 78bc d459 27bd 398d 15be 661c 263b
00000100: 4f19 a2bc dc15 e63d b53c d7bc c1f1 f83d
00000110: e8bf 033c f2aa c93c 635c 9fbd fc0c 0a3d
00000120: c177 1e3c fb36 ab3d 8b61 c2bb 2e6d 12bc
00000130: 713e de3d e251 a9bc 473c d13d caec 4bbd
00000140: cfaa 373d 3603 dc3c a03d 373a b17a bb3d
00000150: db6c 33bc a234 033d 9f87 8d3c aec5 1d3d
00000160: 1f74 8c3d b988 49bd b1a2 75bc 113d 03bd
00000170: 58a9 b1bc 9520 813c 86f1 843d 2c64 ddbd
00000180: 2408 f93c 9045 423d 0a35 72bd a561 89bd
00000190: 5f83 c4bd 1f85 9bbd 39e6 233c 2aab 2cbe
000001a0: d7a2 9ebd 4df0 643a 0f01 1fbd 53e5 9e3b
000001b0: 20c2 00bd 1698 afbc 7e34 09bd d2f6 e03c
000001c0: 7c01 033c aaa7 ea3c ef21 ff3c 3c33 21bc
000001d0: 791e 103c 4a56 4e3d 65dd a9bd 63f0 cb3c
000001e0: 8de5 3abd cb09 98bd 93ad c9bb fc83 ca3c
000001f0: 1252 24bd 74d3 8a3a 64d9 fd3c f0f2 183d
-0.11429999 -0.061886672 -0.10600155 -0.15734978 -0.04369347 0.031322997 0.06820765 0.010846768
-0.034501366 -0.022589367 -0.028735416 0.055785373 -0.018460223 0.015166806 -0.07140442 -0.046573866
0.01214748 0.091600046 0.07363814 0.028823908 0.00787606 0.08822493 -0.06355168 0.01791059
0.03101471 -0.079343714 0.12986067 -0.076006055 -0.11264306 -0.0062464513 -0.037103888 -0.11075697
0.022814397 -0.011339769 0.012694134 -0.052763283 0.041947454 -0.09093038 0.07388029 0.017380444
0.002792449 -0.06331098 -0.031925306 -0.12697513 0.040036052 0.023306001 0.03109223 0.058124386
-0.08227007 -0.0397275 -0.03490619 -0.060469724 0.03003989 0.031423856 0.075732104 -0.07544567
-0.105181366 -0.051322058 0.024486378 -0.0002529007 -0.015170541 -0.04085715 -0.14604653 0.0025346517
-0.019787459 0.11234638 -0.026274065 0.12155486 0.0080413595 0.024617646 -0.07781293 0.03370379
0.009672106 0.08360096 -0.005932038 -0.008937163 0.108517535 -0.020668928 0.10216575 -0.049786367
0.04484063 0.026857 0.0006990079 0.09154261 -0.010951246 0.032032616 0.017276583 0.0385186
0.06858086 -0.049202655 -0.014992402 -0.03204066 -0.021687195 0.015762607 0.064913794 -0.10810122
0.03039939 0.04742962 -0.059132613 -0.06708077 -0.095953695 -0.0759375 0.01000362 -0.16862169
-0.07745903 0.00087333174 -0.03881937 0.004849115 -0.031435132 -0.021434825 -0.033497326 0.027461443
0.007995959 0.028644402 0.03114411 -0.009838875 0.008796328 0.05037526 -0.08294181 0.024894899
-0.045629073 -0.07423743 -0.006154725 0.024721138 -0.04011733 0.0010591582 0.030987449 0.03734106

action_model._continuous_distribution.log_sigma f4 [1, 39]
00000000: 7b0f 073d 4a28 3dbe 02eb 47be daa0 203d
00000010: e43f efbd 2b90 afbd 7dd6 24bd b5fc 94bd
00000020: e01b 66be 12d1 39be dc85 46bd 4100 82bd
00000030: 4ff9 95be 5887 71be d77b a3bd e1be f1bd
00000040: 699a b7bc 5987 53bd 9f4d 4fbe 8a93 723d
00000050: 5b7e 58bd 6405 fcbd 8b2c 2cbc d6b6 34be
00000060: b562 afbe d14f 5cbe 0df9 23be b18e 9abe
00000070: 9d33 4bbd 5da8 83be 500f 0bbe d187 7b3d
00000080: c2c0 cebd b96d 85be 0d46 1fbe 7d3d 14be
00000090: 44ac d3bd fb92 45be 3ac2 3dbd
0.032973748 -0.184724 -0.19523242 0.0392159 -0.11682108 -0.0857242 -0.040243614 -0.072747625
-0.22471571 -0.1814616 -0.048467502 -0.06347705 -0.2929177 -0.23586786 -0.07982605 -0.118039854
-0.022412496 -0.05164275 -0.20244454 0.059222735 -0.052854877 -0.12305716 -0.010508667 -0.17647871
-0.34254995 -0.21514823 -0.16012974 -0.3018699 -0.04960977 -0.25714388 -0.1358006 0.06140882
-0.100953594 -0.26060274 -0.15554066 -0.14476581 -0.103355914 -0.1929435 -0.046327807

action_model._continuous_distribution.mu.weight f4 [39, 128]
00000000: bff8 833d 6c18 a73d 872d abbc ee97 8c3d
00000010: eb57 a83d 53ce 853b fbee 0b3e 3004 f33c
00000020: 8a32 ed3d 1643 36bc 6c3a 653d ec66 f0bd
00000030: 0194 89bc eb61 363e 91d6 313b 94d9 a03d
00000040: 57c6 23bc a78a 2abe 1a5b ac3d ce91 91bd
00000050: 03d5 11be e0a9 aebd 9b7c 273b 6553 41be
00000060: 37a8 273e 141d 4ebd 1cf5 253d f283 55bd
00000070: 5075 a2bc 4c92 98bd 2f23 f63d 3bda 9f3c
00000080: 7ed2 d3bd 02e4 393e 2849 ee3d 5054 9f3d
00000090: f7e2 023e ac8e 9f3d 1a05 4f3d c02d a2bd
000000a0: 6f71 9bbd 7ab6 e43d 8ec5 d2bc 397d 98bc
000000b0: 06c3 123d 3d8f 713e 2eb0 4dbd fa05 dd3c
000000c0: 60b3 cabc eab3 a8bd d16a bcbd 6d18 a43d
000000d0: d1c5 fc3c f1c1 c2bd 9d87 29bc 43e3 e23c
000000e0: 77b3 7ebc 4df7 853e 86ef 0abd 9b7a d63c
000000f0: b12e 8d3d 309d 933e ea51 71bc da16 383e
00000100: f7d8 3bbd 06a6 a4bd 0f81 61be 0db5 873d
00000110: 76b8 40bd 4e88 77bd b167 2c3e c299 da3d
00000120: 6a6b 933d b1c2 f2bc 6dc6 9d3d deaa 7abd
00000130: 3d42 ca3c 15b9 5fbd 5fb7 9e3c 5c32 a93c
00000140: a04f bf3c ce91 393e bddc 473c 894d c3bd
00000150: db9c 753c 5754 8bbc 7ce1 f9bd 90e3 0f3d
00000160: 347b 22be 3759 ffbd a467 21bb e26b efbd
00000170: f48e e5bc 6b7b 7fbd 1b22 a2bd c759 aa3d
00000180: 0c44 70bd 5e38 313d 9dd7 e2bd 23ec 5ebd
00000190: 8446 2cbe 2413 8dbd 4738 f43c 6662 af3d
000001a0: 0be7 72be 00f2 d03d d6e5 9f3d 864a 023c
000001b0: 0973 2f3d 8f6b c8bc 18c5 c53c 44c5 68bb
000001c0: d486 243e ed11 a53c 3cc6 3f3d acb8 bfbd
000001d0: 60cf a03d ea93 583b b835 0b3d a6f1 173e
000001e0: b6a1 fa3d 2d51 b23c e2eb 133e e108 9c3d
000001f0: ed32 b63c f177 cb3d 87dd 00be 6a27 8b3d
00000200: d1b0 c63d c64b 733b c594 cd3c c9f8 ff3d
00000210: 2aeb 01be b21e 3f3d 8cdf 22be 2c36 d73d
00000220: 8058 8a3d ba00 da3d d3d2 6d3d aa19 af3d
00000230: 74fd d53d e325 8c3d 28c9 a03d 2e87 e93d
00000240: f3ab 213c 3b96 4c3d 21c8 783d 7cb2 bd3d
00000250: cee1 673d 9fe0 b0bd c9dd b23b 026d d23d
00000260: e5e1 63bd 75d9 c7bd cba7 2bbe 4975 b4bb
00000270: 763d b8bc e1be 813e 05aa c3bc 78ee 983d
00000280: 4516 acbc e125 8d3d aa80 22bc 30c2 ff3d
00000290: 4d37 88bd 63dc 583d af3c 5abc c68e 393d
000002a0: acbb ad3d 58eb cdbc 7caf 9b3d 94ec 5d3d
000002b0: f95a bbbd ddbf 79bd 9e4d 583b cf14 bcbd
000002c0: cd04 143e 9adb 22be f226 db3d fd41 893c
000002d0: 6427 653d 6124 1d3e 3ad6 3dbd e571 793d
000002e0: e264 4bbd 5a54 463d 9507 8bbc 915e 5ebd
000002f0: 43a3 e1bd d986 8fbd 5ba3 203e a5aa b3bd
00000300: 6a23 723d b21e 3cbc fcd7 09be dffe 763c
00000310: 7c39 8d3c ea0b 94bd c5e9 b5bd 6216 273d
00000320: 9f99 d7bd 4879 96bd bd03 d0bd 5ed8 27bd
00000330: 501e 8cbd d799 02be 2812 d2bd f178 973c
00000340: 87a9 80bd c73b 94bc c182 c2bd 4e86 f8bd
00000350: 41de 863d c2e7 4dbd 9ec3 48bd d7f7 9d3d
00000360: 5750 0f3c cfcb 973d 94bb 51bb 0004 3dbe
00000370: ba52 e3bd d12f 563a b3cf 703d 5f6a f03d
00000380: c08f 84bd 70a9 b5bd c65b a6bc 5e8c 103e
00000390: b3d3 8abd d5c7 e83d 90ae b03c f736 9cbc
000003a0: 9672 75bd 56fa 2ebc c62c cd3d c8e2 53bd
000003b0: 66f5 0d3e c310 f0bc d165 2fbe 91d9 e0bd
000003c0: d259 1f3e 9d2a dfbb f4f0 ad3c a001 d23d
000003d0: 2752 aa3d 8065 d8bb 9cc3 f13d 11f0 1fbc
000003e0: 9a91 793b 4321 043b 21fe a8bd 1c45 5cbe
000003f0: 117b 383d a478 c43d 7ada 4bbc 71de 073e
0.06443929 0.08158955 -0.020895733 0.06864916 0.08219894 0.0040834337 0.13665383 0.029665083
0.11581905 -0.011124393 0.05596392 -0.11738381 -0.016794207 0.1781079 0.0027135948 0.07854
-0.009996018 -0.16654454 0.08415814 -0.07107888 -0.14241414 -0.08528495 0.0025556448 -0.18879469
0.16372763 -0.0503207 0.040516958 -0.052127786 -0.01983133 -0.07449779 0.120184295 0.01951324
-0.103428826 0.18153384 0.11635047 0.07779753 0.12781893 0.077908844 0.050541975 -0.07918882
-0.07589995 0.11167617 -0.025728967 -0.018614398 0.03583052 0.23589797 -0.050216846 0.026980389
-0.024743736 -0.08237441 -0.09200061 0.08012471 0.030856045 -0.09509648 -0.010347274 0.027696257
-0.015545717 0.26165238 -0.033919834 0.02618151 0.06893671 0.28830862 -0.0147290025 0.17977467
-0.04586121 -0.08039479 -0.22021888 0.066263296 -0.047050916 -0.060432725 0.1683643 0.10673858
0.07198222 -0.029633852 0.07703862 -0.061198108 0.024689788 -0.054619867 0.019374548 0.020653896
0.023353398 0.18122026 0.012198624 -0.09536273 0.014991011 -0.01700799 -0.12201211 0.03512913
-0.15867311 -0.12468188 -0.0024628425 -0.11690499 -0.028022267 -0.06237356 -0.07916661 0.08317905
-0.058658645 0.043266647 -0.11076281 -0.054424416 -0.16823775 -0.068884164 0.029811991 0.0856369
-0.23720948 0.10202408 0.078075096 0.007952338 0.042834315 -0.02446535 0.024141833 -0.003551797
0.16067058 0.02015015 0.04681991 -0.09361395 0.07852054 0.0033047148 0.033986777 0.14838275
0.12237875 0.021767223 0.14445451 0.07618881 0.02224108 0.099349864 -0.12584506 0.06794627
0.09701694 0.0037124022 0.025095353 0.12498624 -0.12687364 0.046660133 -0.15905589 0.10508379
0.06755161 0.1064467 0.058062386 0.08549817 0.10448733 0.06843164 0.078508675 0.114027366
0.009867656 0.04994796 0.060737733 0.09262559 0.05661183 -0.08636593 0.0054585678 0.10274698
-0.05563535 -0.097582735 -0.16763227 -0.0055071455 -0.022490244 0.25340942 -0.023884783 0.07467359
-0.021006713 0.068919905 -0.009918371 0.1248821 -0.06651173 0.052944552 -0.013320132 0.045302175
0.08483061 -0.025136635 0.0760183 0.054180697 -0.09148211 -0.06097399 0.0033005248 -0.091836564
0.14454956 -0.15904084 0.107007876 0.016755098 0.05594577 0.15345909 -0.04634688 0.060899634
-0.049656756 0.048420288 -0.016971389 -0.054289404 -0.11017468 -0.07008142 0.15687315 -0.08772782
0.059115805 -0.011481928 -0.13461298 0.015075414 0.017239325 -0.07228835 -0.088824786 0.04079283
-0.10527348 -0.07347351 -0.10156963 -0.04097783 -0.06841719 -0.12753998 -0.10257369 0.018490287
-0.06282335 -0.01809491 -0.094975956 -0.121349916 0.0658536 -0.05026985 -0.04901468 0.07713287
0.008747182 0.0741192 -0.0032002674 -0.18458557 -0.11099763 0.00081705773 0.058791827 0.11739039
-0.06472731 -0.08870208 -0.020307433 0.14116046 -0.0677866 0.1136624 0.021567613 -0.019069178
-0.05992373 -0.010679802 0.100183055 -0.051729947 0.13863143 -0.029304868 -0.17128684 -0.109789975
0.15561607 -0.0068105 0.02123306 0.10254216 0.083164506 -0.0066038966 0.11804888 -0.009761826
0.003808117 0.0020161427 -0.08251596 -0.21510738 0.04503924 0.09593323 -0.012442226 0.13268448

action_model._continuous_distribution.mu.bias f4 [39]
00000000: 60c5 43bd 3141 c4bd 3ef7 c93d c994 a93d
00000010: 5074 b33d ce7d 663d 9533 113e 3a6a 493d
00000020: 04ab adbd b407 91bd aff0 66bc 5c48 9abd
00000030: 152f 7fbd e19d 853d 35ce 373d b986 9c3d
00000040: 8df8 393e e3a7 bebd 51ad 1dbd 5c60 c2bc
00000050: 5529 00be 445c a1bc 48b1 06bc 50f4 3dbe
00000060: 9bc4 01be 55d0 603d 88f9 123d 5cc2 92bc
00000070: 6c50 783d 183e d8bd e2a3 dfba b0c2 303c
00000080: 6e1f 223c 0e80 c9ba fc3b a23d 3ed1 b03b
00000090: 88c7 eabd 391a 3a3d 302c 78bd
-0.047795653 -0.09582747 0.09861611 0.08280332 0.08762419 0.05627232 0.14179833 0.04917357
-0.08479884 -0.070815474 -0.014095469 -0.07533333 -0.06230076 0.06524254 0.04487439 0.07642884
0.18161221 -0.093093656 -0.038495366 -0.023727588 -0.12515767 -0.019697316 -0.008220978 -0.18550229
-0.12672655 0.05488618 0.035882503 -0.017914943 0.06062357 -0.105587184 -0.0017062391 0.010788605
0.009895189 -0.0015373246 0.07921597 0.0053960374 -0.11463839 0.045435164 -0.060589015
