Assets/Brains/ArvidTests/fresh3/LastWalkTest4/Zombie Walker/Zombie Walker-29499859.onnx (onnx, 827693 bytes, 11 tensors)

network_body.observation_encoder.processors.0.normalizer.running_mean f4 [246]
00000000: 762c 4d40 57aa 20bd af8b 50be ab68 923f
00000010: abef b634 0000 0000 e56a 8740 f40a 433a
00000020: f0b5 ef3e b0c7 a340 4d98 1ab8 f8ed 1a3d
00000030: 0b31 0a3d ae10 753f 84c1 003b 946e b33c
00000040: b3c5 483d 7d0d 7a3f ffb7 5539 b229 ed3e
00000050: f46e a440 4c3b 4d39 749c 85bc ab8a 2dbe
00000060: 3e73 8d3f 2262 2c3f 4cea debb f92d 97bd
00000070: 6a39 ceb9 ce75 82bb 647a 673c 04bc ea39
00000080: bd2a 52bc fe98 acbe e5a5 993f c4f4 233e
00000090: cfcd 62bd 5a5a b4bd 450b 883d 4979 d53e
000000a0: 57f4 b83d 1b9b 64bc 00ff 9e3c b0dc 583a
000000b0: b9e8 7d3f 31e6 373f a86d ee39 6e49 7ebc
000000c0: bc1f 93be 1144 923f 62fb 143f 8380 84bd
000000d0: 92b9 5e3d 0e9e dc3c 214f 433e 1d66 203d
000000e0: aa78 d03d f75c 37bc 98dc a6bd 049d 713f
000000f0: 1fc7 283f abd4 ea37 bc76 b6bc 0bee b2be
00000100: d542 9b3f f77e 38bc eb34 953c d8cf 643d
00000110: b2fe 0a3e 2609 4e3f 23ab 1f3e a2f2 25bd
00000120: fb81 7d3a 8df8 05bc d563 7e3f 4e1f 323f
00000130: b0f6 213a 1563 6ebd 3b7b 13be 5b7c 813f
00000140: f0c0 5dbe 3517 e73d 29d2 fcbe 84d8 e8bd
00000150: 58bd 5ebe 5523 31bd 01c1 ba3d aa37 46bc
00000160: 8246 273d eb91 743f 4727 403f 0000 0000
00000170: d45a 93bd cd06 35bc 94f3 663f 894b 4c3f
00000180: 2c01 793e 7f2d da3d 3e53 86bd ac53 d6be
00000190: 8fb4 3cbe 1d13 973e fc03 b33b ea89 083d
000001a0: 3350 683f 91b6 483f 0000 0000 38b2 c1bd
000001b0: 275a 923c c73c 573f 74ce 773d 3f80 9f3d
000001c0: e251 ebbe 08c9 09bd 82aa 01bf 5919 97be
000001d0: 00fc 4bbd 2eb2 2f3c 1280 dfbd a2a3 773f
000001e0: 5f55 393f f723 3b3a acf0 58bd 61d7 1cbe
000001f0: fd74 803f 605e 193f 8151 46be fe29 3b3d
00000200: c868 e73d fc8a 44be f72d ba3d 2998 bcbe
00000210: 508d 123d 2318 903d 752e 5e3f 5520 273f
00000220: 0000 0000 8ff6 abbd ac21 cdbc f604 6b3f
00000230: 42ea 1a3f 3745 91bd f6fe da3e c06d e93d
00000240: 557d c0be 23e3 0d3e 6e93 d23e 580a 32bc
00000250: e0e4 86bc a7fb 5f3f 69ad 4e3f 0000 0000
00000260: 92f9 d3bd 963c 253d a074 5d3f 9170 143f
00000270: b480 bc3d 4dab b73e a7c8 e03d 6745 00bf
00000280: 483f f33d 7bee edbd 689d 643c 27d4 c43b
00000290: 08c4 793f 1872 393f 23d5 6039 83b2 663d
000002a0: 73f2 99be ef49 9e3f b0cd f3be 1ae6 2c3f
000002b0: 5a5f aabe b5a2 80be 54fd fb3e ecfe 103e
000002c0: ae7f 07bd 9627 373e a96d 04be 32ca 613f
000002d0: bcd4 523f fbe8 4739 cc29 5c3e 3041 98be
000002e0: fae6 ac3f dd3a 55be 2917 4a3f 25b8 c23e
000002f0: d272 ccbe 8458 033f 337d 8e3e b39c 423b
00000300: df10 9d3e b3bb 5c3c 1f4f 663f 8cdb 3c3f
00000310: ce3d 3e39 dded a03e fc19 94be e3ab bb3f
00000320: 5b26 54be a14a 483f c7d1 c33e 2706 efbe
00000330: ef3e 003f dcc9 cc3e 55dd 5f39 7b7e d3bd
00000340: b358 9dbe da1b 9d3f 2be8 7bbe 90c9 03be
00000350: a872 c83e 608a c33e 4bca d43e f4c3 0a3e
00000360: 1adf 29bd c46c 06be 24cf 393e 0ad1 643f
00000370: ae15 4e3f 56fe 7139 96c4 80be 8a3d a6be
00000380: 3ae0 a73f 73ef dcbe 8cba 0cbe 06a8 23bd
00000390: 87e0 063f 3def e23e ea24 833e c2bc f13b
000003a0: bc35 7cbe 83d0 91bc 0481 703f ef28 323f
000003b0: c370 b439 3315 a7be 90e6 a5be fbc6 b33f
000003c0: 59a9 dcbe 1b7e 0ebe 723d 2bbd b89c 153f
000003d0: 3535 e73e 341c be3e
3.2058387 -0.03922495 -0.20365785 1.1438192 3.4074523e-07 0.0 4.2317986 0.0007440292
0.46818495 5.118126 -3.6858302e-05 0.0378246 0.033738177 0.95728576 0.0019646594 0.021903314
0.049016666 0.9767683 0.00020381807 0.46320873 5.138544 0.00019572413 -0.016309954 -0.16947429
1.1050794 0.6733724 -0.0068028327 -0.073818155 -0.0003933416 -0.0039813286 0.014128301 0.0004477204
-0.012827572 -0.33710474 1.2003752 0.1601134 -0.055372056 -0.08806296 0.066427745 0.41694096
0.09030979 -0.013952996 0.019408703 0.0008272631 0.9918323 0.7183562 0.00045476598 -0.015520437
-0.2873515 1.1427022 0.5819608 -0.06469824 0.054376192 0.026930835 0.19073154 0.039159883
0.10179265 -0.011191598 -0.08147544 0.9438021 0.65928835 2.7994005e-05 -0.022273414 -0.34947237
1.212977 -0.0112607395 0.01821371 0.055862278 0.13573721 0.8048271 0.15592627 -0.040514596
0.00096705527 -0.008176935 0.9937108 0.6957902 0.0006178422 -0.05819996 -0.14402477 1.0116075
-0.21655631 0.11283723 -0.4937909 -0.11369422 -0.21751916 -0.043246586 0.09118844 -0.012098232
0.040838726 0.95535153 0.7505993 0.0 -0.071950585 -0.011048985 0.9021542 0.7980276
0.24316853 0.10653209 -0.06558846 -0.41860712 -0.18428253 0.2950677 0.0054631215 0.03333465
0.90747374 0.78403574 0.0 -0.09457821 0.017865254 0.84077114 0.060499623 0.07788133
-0.4596091 -0.033638984 -0.506508 -0.29511526 -0.049800873 0.010723634 -0.10913099 0.9673406
0.7239589 0.0007138843 -0.052963898 -0.15316536 1.0035702 0.5990963 -0.19367029 0.045694344
0.11299282 -0.19193643 0.09090798 -0.3683484 0.035779297 0.07035854 0.8678964 0.6528371
0.0 -0.08396637 -0.02504047 0.91804445 0.605137 -0.0709328 0.42772645 0.11397886
-0.3759562 0.13856177 0.41128105 -0.010866724 -0.016466558 0.87493366 0.8073335 0.0
-0.10350336 0.040340982 0.8650608 0.5798426 0.09204236 0.3587288 0.109757714 -0.501059
0.11877304 -0.11617752 0.013953544 0.006006736 0.97564745 0.7243972 0.00021441704 0.056322586
-0.30067787 1.2366313 -0.47617865 0.6753861 -0.33275872 -0.25124136 0.49216712 0.14159745
-0.03308075 0.17886195 -0.12932457 0.8819915 0.82355857 0.00019064911 0.21500319 -0.29737234
1.3507988 -0.20823236 0.7894159 0.38031116 -0.3993135 0.5130694 0.27829894 0.002969545
0.30676934 0.013472485 0.8996448 0.737725 0.00018142836 0.31431475 -0.28926075 1.4661831
-0.20717756 0.78238875 0.38245985 -0.4668438 0.5009603 0.39997756 0.0002134939 -0.103268586
-0.30731735 1.2274125 -0.24600284 -0.12869859 0.39149976 0.3819151 0.41560587 0.13551313
-0.04147253 -0.13127428 0.18145424 0.8938147 0.8050183 0.00023078299 -0.25149983 -0.32468826
1.3115304 -0.43151435 -0.13743037 -0.03995516 0.5268635 0.4432315 0.256141 0.007377238
-0.24629873 -0.017799621 0.9394686 0.6959371 0.0003441629 -0.3263336 -0.32402468 1.4045099
-0.43097952 -0.13915293 -0.041806646 0.5844226 0.4515778 0.37130892

network_body._body_endoder.seq_layers.0.weight f4 [256, 246]
00000000: d72f ea3d c6e9 603e 81aa 3ebd 7691 cbbd
00000010: 7b95 4cbc 5452 b63d c53a f93d 0f64 0fbe
00000020: 8cf6 6cbb e885 2fbe 4f27 353c 210e 523d
00000030: 14e5 09bd 2cad 043e 41cd c13d 5840 893d
00000040: ede6 863d f249 103c 89a8 f4bd 5e9b 5abc
00000050: 9e56 7dbe 5808 95bd 0d7f 043e 2b07 ed3c
00000060: c49a 003c dfce 35bd cc59 263e e638 b93a
00000070: 8ad9 a0bd 4d14 5c3e 4c4d 753d 4758 33bd
00000080: 113a 463e 2ef1 2ebc 044f 10be 18c1 e3bd
00000090: 9ea7 2f3e e1ee 1ebd 34a2 893d 93ea 163d
000000a0: f440 023e 205e e7bd fe34 6cbd 67da 4cbe
000000b0: 6da6 a23d bd82 66be 035e a33d 0e14 893d
000000c0: 8d94 153d de60 6cbd 018e 133b f30d a93d
000000d0: 801a e83c 1aba 37bd 9934 0c3e a0d0 02bd
000000e0: 1c1c aebc 46d1 a83c 7a48 8dbd f314 673d
000000f0: 3d62 e4bc dd89 20bd 75a8 2d3e 614c 2fbd
00000100: a9a3 1bbd 0c40 023e 4869 8a3d 7e1e c9bd
00000110: e969 71bd 274c c5bd 16b5 c1bc dc42 ecbc
00000120: d773 6b3b c10a 10bd af6d a43d eb8a b9bb
00000130: 7d3c 6bbd 9e1b 0a3e 6c0a 6cbd 9b12 873d
00000140: 52f7 2fbe c755 693d 3c10 94bd b4aa 15be
00000150: 53ef a7ba 7901 e0bd 20fa 973b d1a5 053d
00000160: fced 1bbd e6f3 3f3d a38e bdbd 7b86 27bd
00000170: 51ea c83c 8627 0ebe 091d 4bbd 22b8 9e3d
00000180: 448e 8abc 4828 9e3d c223 563d a8ff 6c3e
00000190: f25b c9bd 1346 cc3d 7e7f ebba b1cc 8a3a
000001a0: c4f2 f0bc d9aa 1f3d eec6 fb3d e28a eebd
000001b0: 9b9f 41bc 27eb e0bb b4ac 853c 10b3 2b3c
000001c0: 9482 733c 46cc 5f3d 2496 ba3d 2001 97bc
000001d0: e64f 233d 5041 893c a412 40bd db45 83bc
000001e0: 0122 b13b 1641 90bd 07f9 63bd 5d3a 75bd
000001f0: c107 1a3e 2ab7 f7bd 7e35 e3bd 3399 1fbe
00000200: 85b6 b5bd 8a76 983b d905 16bd c187 0fbe
00000210: 7c5f b6bd b368 53be 8518 08be 585c c5bd
00000220: a6cd c83c b618 d53c e6a5 613d 6dce be3d
00000230: b293 f039 de01 29be 8260 ec3a 1f39 80be
00000240: f5ff 2b3e 6ab0 843e 5937 94be 7c90 95bd
00000250: 8ee5 10be 74d8 3a3e 140c 97bc f892 cd3c
00000260: 405a e6ba 2d98 dfbd 3cf4 6ebc 11e2 f4bb
00000270: 9e14 1cbd fea5 67bd 995b adbe 59e5 543e
00000280: 6232 493e 6509 9f3e 4604 75bd a02a 0d3d
00000290: 4e82 dd3d 4791 ac3d 2c6a 1abd 72e7 67bd
000002a0: 11e3 e5bd a980 d8bc 5e59 aa3d 8869 c1bb
000002b0: 0fe9 633d 589a 533d 9e6b 033e fc80 343d
000002c0: cc5b 4f3d d617 ab3d 989f 83bd 7a15 0dbe
000002d0: 4348 d13c 8546 37be 122d 1a3d 8a9c abbd
000002e0: 66de 9fbd 6f1c 1abd 204d d1bd 1dc6 b6bd
000002f0: dd19 0d3d b288 1fbc 27f3 603c f20b 743c
00000300: cf74 8a3d 2bab a2bc fa29 aebd a9d0 cdbc
00000310: 713b 74bd 269b 05be 77e5 ccbd b09e ab3d
00000320: 7217 12bc 606c 8ebe 5dca aabc c29b 10bd
00000330: 944c 173c 7b58 0cbc bf07 95bd a880 cc3d
00000340: 96bb ad3b 26c3 7fbd 75b5 b73c 3d1c 5b3d
00000350: 46b9 9f3c 05e3 173e b451 83bd 535d d8bc
00000360: d5a6 45be 0950 fdbd 6242 813d d164 903d
00000370: 8ffa 663e 8862 c0bd dc89 be3d d81a dcbd
00000380: 428f c6bc 423f 003b fa7b 8f3d 4bb9 a0bd
00000390: 0df8 a4bc cdaf e93d 228e 8d3d ed0d 8abc
000003a0: 4d44 a63d 3bcc 91bb 292d 543e 6ba8 60bc
000003b0: d141 b8bd fe69 b13d 9056 2cbe 0945 79bc
000003c0: b384 253c e74a e13d 8597 8f3c f7dc 9abd
000003d0: ca6e df3c 87cf 7b3d 4a86 003e ea31 9ebc
000003e0: ad2e 13be 88ba 963d 3586 9b3d 2cee 8d3d
000003f0: 9f65 563e a604 40be b7a3 8d3d 843a ee3c
0.11434906 0.21964177 -0.046549324 -0.09939854 -0.012486811 0.089024216 0.121694125 -0.14003013
-0.0036157696 -0.17140925 0.011056735 0.051283006 -0.03366573 0.12956685 0.09462977 0.06701726
0.06587014 0.008806692 -0.11946208 -0.0133427065 -0.24740073 -0.07276982 0.12939091 0.028934082
0.007849399 -0.04438674 0.16245192 0.0014131337 -0.07853992 0.21492119 0.05988817 -0.04378536
0.19358088 -0.010677619 -0.14092642 -0.11120814 0.17153785 -0.03880203 0.06720391 0.0368448
0.1272009 -0.1129725 -0.057667725 -0.20005189 0.079418994 -0.2251081 0.07976916 0.06693278
0.036518622 -0.057709567 0.002251506 0.08254614 0.028332949 -0.044855215 0.1369194 -0.03193724
-0.021253638 0.020607602 -0.068985894 0.056416463 -0.027878875 -0.039193977 0.16958793 -0.04279745
-0.037997875 0.12719744 0.06758362 -0.09820269 -0.058938894 -0.096336655 -0.023645919 -0.028840475
0.00359272 -0.035166506 0.08028733 -0.0056623123 -0.057430733 0.13487098 -0.057627127 0.065953456
-0.17184189 0.05696657 -0.07229659 -0.146159 -0.0012812413 -0.10937781 0.0046379715 0.032628838
-0.038068756 0.04686346 -0.092557214 -0.040899735 0.024525793 -0.13882264 -0.049588237 0.07749964
-0.01691354 0.07722527 0.052280195 0.231444 -0.0983199 0.09974303 -0.0017967073 0.0010589567
-0.029412635 0.038981292 0.12293802 -0.116475835 -0.011817838 -0.00686397 0.016317703 0.010479704
0.014862675 0.05463817 0.09110668 -0.018433154 0.03987112 0.016754776 -0.046892777 -0.01602452
0.005405665 -0.07043664 -0.055657413 -0.059870113 0.1504202 -0.12095483 -0.11094187 -0.15585785
-0.088727035 0.004652803 -0.03662667 -0.1401663 -0.08904931 -0.20645408 -0.13290603 -0.09636754
0.024512123 0.02601276 0.055089854 0.09316716 0.0004588641 -0.16504619 0.0018034133 -0.2504358
0.16796859 0.25915843 -0.28948477 -0.07302949 -0.14150068 0.18246633 -0.018438376 0.025094494
-0.0017574504 -0.10917697 -0.014584597 -0.0074732383 -0.0381056 -0.056554787 -0.33858946 0.20790614
0.19648126 0.31061855 -0.05981853 0.03446448 0.10815869 0.08426147 -0.03769891 -0.056617208
-0.1122495 -0.026428537 0.08317827 -0.005902473 0.055642184 0.051660866 0.12834021 0.04406832
0.050624654 0.08354156 -0.064269245 -0.13777724 0.025547152 -0.17897995 0.03764064 -0.08379467
-0.07806091 -0.037624773 -0.102197886 -0.08924506 0.034448493 -0.009737181 0.013729847 0.014895426
0.06760561 -0.01985701 -0.085041 -0.025123911 -0.059627 -0.13047466 -0.100047044 0.083798766
-0.008916723 -0.2781706 -0.020848447 -0.035304792 0.009234566 -0.008566017 -0.07276868 0.09985477
0.005301903 -0.062441967 0.022425393 0.053493727 0.019497525 0.14832695 -0.06412068 -0.026411688
-0.19301923 -0.12368781 0.0631149 0.07050479 0.22556518 -0.09393793 0.09303638 -0.107473075
-0.024238233 0.0019568955 0.070060685 -0.07847842 -0.020137811 0.114104845 0.06911875 -0.016852343
0.08118496 -0.004449395 0.20720352 -0.013712029 -0.089969285 0.086627945 -0.16829896 -0.015214213
0.010102439 0.110006146 0.017528305 -0.07561677 0.027274508 0.06147721 0.12551227 -0.01931091
-0.14373274 0.07359797 0.07593957 0.06930193 0.20937203 -0.18751773 0.06915992 0.029080637

network_body._body_endoder.seq_layers.0.bias f4 [256]
00000000: 4a72 a43d 2643 3dbd 5006 bf3c 0f6a 8d3d
00000010: 536e 663d 6627 48bc 759a 22bd be53 a53d
00000020: 664a 913d 8da5 79bd 601b 8e3d 5064 51bc
00000030: a8a0 a73d f107 6f3b 72ff 223b 9d35 933d
00000040: a855 d5bc 7d57 ac3c e544 b73c e4a6 f13c
00000050: 75b1 c7bd 0053 963c fd5e 62bd 2bd0 c63c
00000060: 548d 1a3d c263 60bb cd34 a13d 1d49 be3c
00000070: 3063 4e3b 18f1 bdbc 738e 823d 849a 303c
00000080: b064 433c 03ea 053c 1d0a b7bb daf8 2dbd
00000090: 7741 6cbc c9d2 52bc bdcc 89bd a119 0a3d
000000a0: 6b15 c6bb 4724 a6bd 673b c03d a692 af3d
000000b0: 8897 433d 1215 babc 12f8 a5b8 926c 733d
000000c0: 85a6 923b 9a71 433d 3027 0f3c 359a 4a3d
000000d0: 0b20 563c 1ed1 c03d 3ee2 0d3c 3187 203d
000000e0: 4e26 683c 5a1c 7cb9 fc9a a63c 2e76 153d
000000f0: 4999 e8bc 0c16 1ebd c543 a63d 2d4d d23d
00000100: 0459 403c d735 bf3b 0a8e 1bbd f738 b73d
00000110: 3349 dd3c d481 a73c 53ab 243d dbb7 1a3d
00000120: 0f92 cb3c 66fc 7dbd 1091 42bc 1410 9dbc
00000130: 51d8 153d faeb abbc 67f1 c7bd 0086 3b3d
00000140: 6771 07bc 7585 a93d ebf1 943b 2437 c7bd
00000150: ef15 523d 1de6 46bc c29c 8cbc 05df 2b3d
00000160: 5b49 133d ca27 6c3c af04 00bd 0b2f 003d
00000170: fd6e 0fbd ab0a 2bbd 801c 893d ed07 5cbc
00000180: 855e 51bc e81d bc3c 4416 d3bc 0fe3 56bd
00000190: ebcb 2e3d a757 133d c103 ccbb 1ce2 2ebc
000001a0: 3326 a2bc 097c 2bbd 9648 42bd 9b28 6bb7
000001b0: 6792 453d 313f 4abc 94e4 a53c 0838 6a3c
000001c0: 7480 533c e0fd be3b eea3 0bbd f4ec d83c
000001d0: 5dd1 873d c7c0 973b c226 d13c b9cb 0bbc
000001e0: 52eb 7fbd ef80 7c3d a25e eb3c f971 ef3d
000001f0: 7145 b3bc efef 23bd e9cf 863d 2ff9 37bd
00000200: 3030 0bbe 0e0d 52bc 645d 513c 342c 93bc
00000210: 7df9 903c ace4 0abd 8f86 793c 5985 97bb
00000220: 7308 7f3c 478d 9cbd d755 10bc 7c62 6a3c
00000230: 8388 e33c fd4f 323d 54b5 b6bd e2fc 1fbd
00000240: 3260 b2bc dadc 753d a393 81ba abf3 8f3c
00000250: 44cd 33bd af37 6ebd 8e1d 92bc 090f 2c3d
00000260: 322a 873b cea2 c6bc 38f0 433c 6171 4d3b
00000270: 00b9 423d bf41 f23a 1b23 943c e24b f53b
00000280: a86e 3cbb 9da3 55bd c56b c13c b355 aa3c
00000290: 6795 5c3d 1dbf 983d 0761 01bb a4f5 77bd
000002a0: 3612 6cbd e31c 2fbd 38e6 8ebd 5b62 703c
000002b0: e676 54bd 3746 fc3c fb7d 103d 899d 11bc
000002c0: 9bf2 39bd 2f91 8abd 82af e83d ebb6 673d
000002d0: e0f1 bd3d 6c09 d63c 0d98 8d3d 8521 05bd
000002e0: 8cd1 e83c f9d3 203d afee 013e cc30 253c
000002f0: ca59 30bd 767a 33bd fc6e 693d c753 483d
00000300: 9ed1 52bd 4ae6 83bd 04f6 a73a 9c15 a53c
00000310: 1a9a b6bd 3c52 0d3c d94f 7b3c b876 0fbb
00000320: 981d ef3c d998 f5bd 14c7 b1bc f6a4 313d
00000330: 0348 61bc c530 28bd c6ad c5bb a5ba ed3c
00000340: af1a ae3a 7d5f 66bb 48a4 01be 5911 72bd
00000350: f593 d93d 6add 26bd e4df 053d 6238 a73c
00000360: c9e5 a03d 64c7 14be c9b8 ce3d 9b07 b13d
00000370: 845d d03c 778d 8dbc 2b4a 9f3d 458e 823d
00000380: 0e2b f93c 8b4c d23d f1c7 d73d e161 40bd
00000390: 1207 963c 681e 943d ac8b 3e3c 936c 26bd
000003a0: f64e ae3d 4d84 0fbd c719 a53d 1ebf 2b3d
000003b0: a3d2 73bc e0a2 e3bb adc9 8b3d 244b 21bd
000003c0: aee1 4cbd fc41 9e3c 0785 27bd ef1b 693d
000003d0: 6459 8e3d 6bc5 8f3c 2b71 2abd 5669 44bd
000003e0: 3482 03bc 7ac0 0cbe b5ad 09bd cc4b fc39
000003f0: ec22 0c3d c50e f8bc 385e 8abd f10f 2dbd
0.080296114 -0.046206616 0.02331844 0.06904995 0.056257557 -0.012216425 -0.039698083 0.08072613
0.070942685 -0.060948897 0.06938815 -0.012780264 0.081849396 0.003647324 0.0024871496 0.0718796
-0.02604182 0.021037811 0.022371719 0.029498525 -0.09750644 0.018350124 -0.05526637 0.024269184
0.037732437 -0.0034239148 0.07871399 0.023228223 0.0031492226 -0.023186252 0.06374826 0.010779027
0.011925861 0.0081734685 -0.0055859224 -0.04247365 -0.014419905 -0.012867638 -0.06728504 0.033715848
-0.0060450337 -0.08112388 0.0938633 0.08572893 0.047751933 -0.022715125 -7.91402e-05 0.059429713
0.004475417 0.04771576 0.00873737 0.04946347 0.013069163 0.09414886 0.008659897 0.03919143
0.014169289 -0.00024043155 0.020337574 0.036489658 -0.028393405 -0.038595244 0.08118395 0.10268626
0.011739973 0.0058352756 -0.037977256 0.08946412 0.027012443 0.020447649 0.04020245 0.037772994
0.02484992 -0.062008284 -0.011875406 -0.019172706 0.03658325 -0.020986546 -0.09762841 0.04578209
-0.008266783 0.08277408 0.0045454404 -0.09727314 0.05129045 -0.012139824 -0.017164592 0.041960735
0.03595863 0.014413783 -0.031254467 0.031294864 -0.035017956 -0.04175822 0.06694889 -0.013429624
-0.012778883 0.02296348 -0.025767453 -0.052462634 0.04267494 0.035972264 -0.0062260334 -0.010674026
-0.019793605 -0.041866336 -0.047432505 -1.4016546e-05 0.048235323 -0.012344168 0.020250596 0.014295585
0.012909044 0.005828604 -0.034091882 0.026480176 0.0663173 0.004631135 0.025531176 -0.008532458
-0.06248028 0.0616464 0.028731648 0.116916604 -0.021883698 -0.04002374 0.065826245 -0.044915374
-0.13592601 -0.012820495 0.012778614 -0.017965414 0.01769709 -0.033909485 0.015229835 -0.0046240506
0.015565979 -0.07644134 -0.008809528 0.014305707 0.027775055 0.043533314 -0.08921304 -0.039059527
-0.021774385 0.060025074 -0.0009885918 0.017572245 -0.04389693 -0.058158573 -0.017836358 0.042006526
0.004124903 -0.024247553 0.011959128 0.0031348097 0.04753971 0.0018482729 0.018083146 0.0074858526
-0.002875248 -0.052157987 0.023610959 0.020792818 0.05385342 0.07458327 -0.001974167 -0.060536996
-0.057634555 -0.042752158 -0.069775045 0.014671887 -0.051871203 0.0307952 0.035276394 -0.008887657
-0.045397382 -0.06765973 0.113616005 0.05657093 0.092746496 0.02612754 0.06913767 -0.03250267
0.028420232 0.039264653 0.12688707 0.010082435 -0.04305438 -0.04381796 0.05699061 0.04890802
-0.051469438 -0.064404085 0.0012814407 0.020151906 -0.08916111 0.008625563 0.015338861 -0.002189083
0.029188916 -0.11992044 -0.021701373 0.04337021 -0.013750079 -0.041062135 -0.0060326783 0.029019663
0.0013283099 -0.003515213 -0.12660325 -0.059098575 0.10623924 -0.0407385 0.032684222 0.020412628
0.07856328 -0.14529186 0.10093839 0.08644029 0.025435217 -0.01727937 0.07777818 0.06374792
0.030416038 0.10268506 0.10536183 -0.046968345 0.018313918 0.07232362 0.01162998 -0.04063089
0.08511154 -0.03503828 0.08061557 0.04193031 -0.014881763 -0.0069469064 0.06825576 -0.0393783
-0.050019912 0.019318573 -0.04089835 0.056911405 0.06950644 0.01755019 -0.04161183 -0.04795202
-0.008026648 -0.13745299 -0.033612926 0.0004812166 0.03421299 -0.03028048 -0.06756252 -0.04225153

network_body._body_endoder.seq_layers.2.weight f4 [256, 256]
00000000: 2889 17be 948a 973d 087c ab3d d008 e9bc
00000010: 6fc4 593e 2a13 a2bd 72f8 f23d ae9f bd3d
00000020: 4606 bbbd 96a5 c33d 23aa 6dbd db76 e4bc
00000030: f27a adbd 7361 15bd f83b 71bd 101b 0b3e
00000040: d971 54bd 0b13 88bd dd58 efbd 698c 8f3d
00000050: 095d 843d 972e a0bd 2150 cfbc 4ddc 86bd
00000060: ddad 1cbb 58b6 87bc 6fdc bc3d da60 78bd
00000070: b82f 85bc 293b 0a3b d92e cbbc eb0b 043e
00000080: 0a04 16be 2cea 943d e7de 43be 5ad4 97bd
00000090: baea 1dbd 75a7 9b3d bbd4 bd3c cf06 32bc
000000a0: dcc5 843d 6c08 bfbd a92a 45bd 31c1 bd3d
000000b0: 1208 923c ba96 0b3d ecfa c83c 37ed 5abd
000000c0: a25a ec3a faea 27bd 6273 ab3c d8cc ee3d
000000d0: fe26 a43d a99f 7c3e 62ed 683c 1e45 633e
000000e0: efde 11be 1633 b63c e9de 1b3d 6560 92bd
000000f0: 68fb 433d 3522 40bd 5068 0bbe 6bf5 e8bd
00000100: c9f4 4e3d 17c0 633d 8035 703e 9ffe e03d
00000110: 636b 4d3d f7b6 ba3c 06fd 8cbd 6d8f 0c3e
00000120: 97bb a5bd 4fbb d5bd 00e3 2e3d dee9 04bd
00000130: 811d 1fbd 2c5a afbd 693d a83d c461 e0bd
00000140: 8c9c 0f3e f4b7 af3d 140b 063e c098 2a3e
00000150: 2f94 4b3d c804 9bbd 59e3 3cbd b2c1 c3ba
00000160: fc39 29bd dd8b 1abe 82c0 a93d 4188 3cbc
00000170: 64d5 d3bd a47d e5bd f390 953c 77c6 383d
00000180: 3b06 983d 493d 933d a443 c23d d146 36bd
00000190: afb1 a0bc a334 bd3c 7346 043d 26ee 72bd
000001a0: 4130 e2bd 0a39 49bd d507 153d ab95 8e3a
000001b0: f862 b0ba a43f b3bb 7d0b e13d 7843 c43c
000001c0: fab8 bdbc 77d6 2c3e 2e3c 533d fb6f 94bd
000001d0: ba58 a93d 9cc1 543d b78d 2b3d 1752 3cbe
000001e0: 2c1c 253d 2e45 e4bd a522 a33d 50a2 99bc
000001f0: 2f66 aebd 6f72 f4bb 32b6 153e 9d59 cebc
00000200: 6184 af3d b1e6 57bc bc68 de3d a2a4 d4bc
00000210: f631 f3bc 9973 703d d8cb 093c de27 223e
00000220: 3f29 a4bb bb80 e5bd f608 19bd b683 19bc
00000230: ce3c 02bd a854 d43d 1bab 643b 61e5 39bd
00000240: 33f9 01be 4fc9 053d a158 58bd 0256 1b3d
00000250: a378 8ebd b47a 9bbd 6530 a83d af22 4dbd
00000260: 7dc7 a03d f0dd 9abd dd93 97bd 0505 ff3c
00000270: 996c 3ebe b0cc 69bb 6ef3 083e 8218 3ebd
00000280: bc91 5fbd e924 78bd d7e7 e6bc 4b54 1a3d
00000290: ba40 d8bc aecd ba3d f224 2bba ad7d c23c
000002a0: e5be c43d d7f9 1cbe d6db 0c3e c07a 5bbc
000002b0: 29f4 58bd 1587 3d3d 4c79 c6bc a231 a13c
000002c0: d3a9 733c 8629 50bd 611a c4bd 931e efbc
000002d0: aef2 3fbd ae92 a3bd 6a1b 063e f5a9 193d
000002e0: 4d7c d0bc 5294 75bc 0e8b 2f3d 0a6f 323d
000002f0: ac2c 17bc c081 a5bd 25a4 23be 9139 26be
00000300: e6e1 18be d67c 3d3c ef87 7bbd 287f 053e
00000310: 736e 9d3d fc1c 16bd 2dcd 0a3e d958 8e3d
00000320: f8d4 a93d 78d0 063e 0c5d 44bb bfb4 743c
00000330: 69a7 a8bc f81b 863d 2441 8e3d 820a a13d
00000340: 2eac 1ebd 5a7f 27be a5b4 0cbe 88d0 b1bc
00000350: 3fab f1bb cfab ef3d 896e 60bd f8ff b63c
00000360: a33f 9c3d f6ad 1fbe f460 243c 946e c63c
00000370: ec0e 5dbd a7b6 62bd 1b4a e53d d060 7d3d
00000380: 399e 863b d23f 0c3c 4130 d1bc 15ef 0cbd
00000390: 2cc5 82bb 62dc 2d3e 24f1 50bd 54e5 883d
000003a0: c8d4 843d 8628 87bd 6872 99bc de5d ca3b
000003b0: 80d1 493d 6bd3 f8bd 3775 cbbb 8ddb cb3d
000003c0: 9315 18be 981c 093e 2c02 31bb 2480 563d
000003d0: 924d d93c 834e 223d b0c6 1abe c1a7 98bd
000003e0: 9102 563d 7d81 cabd 1f6c 1b3e e8d4 85bd
000003f0: 9a1b 0a3e 9f17 70bd 7acf bb3c 8f29 22be
-0.14798415 0.073994786 0.083732665 -0.028446585 0.2126634 -0.079138115 0.118637934 0.09258972
-0.09132056 0.095530674 -0.058023583 -0.027888706 -0.084707156 -0.036469888 -0.05889508 0.13584542
-0.051866386 -0.06644257 -0.11686871 0.07009203 0.064630575 -0.07821386 -0.025306763 -0.06584988
-0.0023907342 -0.01656644 0.09221732 -0.06063924 -0.016258106 0.002109239 -0.024802612 0.12895171
-0.14649978 0.07271227 -0.19127999 -0.0741355 -0.03855393 0.07600299 0.023172727 -0.010865881
0.06483051 -0.09327778 -0.048136387 0.09265364 0.017826114 0.03407929 0.024533711 -0.053448882
0.0018032382 -0.040995575 0.020929042 0.116601646 0.0801525 0.2467028 0.014216753 0.22194335
-0.14245199 0.022241157 0.03805438 -0.07147292 0.04784718 -0.046907622 -0.13614011 -0.11374935
0.050526414 0.055603113 0.23457909 0.10986065 0.05015124 0.022792323 -0.06884198 0.13726588
-0.080924205 -0.10436117 0.042696953 -0.032449596 -0.038846496 -0.08562121 0.08214838 -0.10956147
0.14024562 0.08580008 0.13090163 0.16659832 0.049701866 -0.07569271 -0.046115253 -0.0014935045
-0.041315064 -0.15092416 0.08288671 -0.011507095 -0.103434354 -0.11205605 0.018257594 0.045111146
0.07423063 0.071894236 0.09485558 -0.04450113 -0.019615976 0.023096388 0.032293748 -0.059309147
-0.1104436 -0.049126662 0.036384422 0.0010878345 -0.0013457229 -0.005470233 0.10988519 0.023957953
-0.023159493 0.16878687 0.051571064 -0.07247921 0.082688764 0.051942453 0.041883197 -0.1839069
0.04031007 -0.111460075 0.07965592 -0.018754154 -0.08515584 -0.0074599306 0.14620283 -0.025189215
0.08570171 -0.01317756 0.1085982 -0.02595741 -0.02968691 0.058703993 0.008410417 0.1583552
-0.0050097997 -0.11206194 -0.03736206 -0.009369781 -0.03179627 0.103677094 0.0034892026 -0.04538477
-0.12692718 0.032662686 -0.052818898 0.03792382 -0.069566034 -0.07591763 0.082123555 -0.050081905
0.07850549 -0.075618625 -0.074012496 0.031130323 -0.18596114 -0.0035674982 0.13374111 -0.04641009
-0.054582343 -0.060582075 -0.028186722 0.037678044 -0.026398052 0.091212615 -0.00065286376 0.023741568
0.09606723 -0.15329681 0.13755736 -0.013395965 -0.052967224 0.046271402 -0.02422776 0.019676987
0.014872032 -0.05082085 -0.09575344 -0.029189384 -0.046862297 -0.07986961 0.13096395 0.0375156
-0.025449896 -0.014988976 0.042857222 0.043562926 -0.009226959 -0.080813885 -0.15980585 -0.16232897
-0.14929923 0.011565408 -0.061408933 0.13036788 0.07687082 -0.036648735 0.13554831 0.0695054
0.08292574 0.13165462 -0.0029962687 0.014935671 -0.02058764 0.06548303 0.06946018 0.07863332
-0.038738422 -0.16357175 -0.13740785 -0.02170588 -0.0073751505 0.11702692 -0.054792915 0.022338852
0.07629325 -0.15593705 0.010032881 0.02422265 -0.05396931 -0.055349972 0.11195775 0.061859906
0.004108217 0.008560138 -0.025535705 -0.034407694 -0.00399079 0.169786 -0.05101122 0.06684366
0.06485897 -0.06599526 -0.018731311 0.0061757406 0.04927206 -0.121497 -0.0062090415 0.09953985
-0.1485198 0.13389814 -0.0027009351 0.0523683 0.026526246 0.039625656 -0.15114856 -0.074538715
0.05224854 -0.09887979 0.15177964 -0.06534749 0.13487092 -0.058616277 0.022926081 -0.15836166

network_body._body_endoder.seq_layers.2.bias f4 [256]
00000000: 98ea ad39 e13d 613b ec4e 083d 1612 893c
00000010: c5f9 f1bc 5ce4 323d 23f2 b53c 0ea2 4dbc
00000020: ce02 bf3c 7120 93bc 6283 a0bc 3294 1f3d
00000030: e11e c7bb 733d d9bc 2010 2a3c c211 493c
00000040: 10cc 913c 7d85 a63c acc1 d2bc f925 3b3d
00000050: e10c 4d3d 526b 803d 5638 013d e284 883d
00000060: 464a adbd 5559 3ebd d316 49bd 0006 9bbd
00000070: e158 803c 98a0 adbb a17d f639 143e a2bd
00000080: 826d fabc 30f6 f0bc 2525 303c 0758 a0bb
00000090: 7b6f 94bb 381a b5bc 78b6 26bd 852d 663c
000000a0: 80a4 17bd ca84 6abd 08fb 963c 4517 813c
000000b0: f4b5 1b3c 7128 f7bb d815 423d 6957 373d
000000c0: b44d 2e3c 1df9 dbbb 0e71 553c 413d 243d
000000d0: 9932 1e3c 1f0e 4e3d 9652 573d 7d77 bc3c
000000e0: 9826 a43d 7a15 563c 5c8b b93c 10cf a9bd
000000f0: c7b0 fb3a 1d9b dc3d 5fe1 99bd 2ebf 64bc
00000100: 478e 80bd b572 883d 3666 44bd 2b30 bebb
00000110: 3ea5 39bd f0fb 493d d0ee 283c 836c adbc
00000120: 9e13 2fbb c370 13bc 1fe8 683d 9983 5a3c
00000130: d95b 063d 4307 f8bc 7dfd ca3b d675 98bc
00000140: dff6 813d 5b30 8f3d f436 88bd b194 1ebd
00000150: 4967 843c fe04 33bc 68c4 403d 9063 e539
00000160: 481c abbd cdaf dabc 976c c0bc e12a 18bd
00000170: 98ec 183d 99af 07bc 9f6d 363b 4de0 5bbd
00000180: 3de9 453d 8b64 87bd 310a 41bd c15d 573d
00000190: 40ca 513d c889 143d db2e d1ba 5ccb d0bd
000001a0: 0126 d1bb bab4 e4bd b6e6 c0bb 3eca 433c
000001b0: 250f d83c 0e84 593d 2191 573d db88 ca3c
000001c0: 550b 3b3d a3bd b33d e26c a73d f337 1cbc
000001d0: 623c d93c 6282 433d c76d 183d dc8a 9cbb
000001e0: 0d7e 523b 9473 8fbd a710 01bc b599 d83c
000001f0: a6e3 8e3c 428e 85bd 8d1f 013d ed37 233c
00000200: 0364 5bbd 772e e63c be9e 663d 2399 8d3c
00000210: ff19 203d 7f5d ec3b 8bc0 8b3c 0c51 80bd
00000220: 33b4 d53c 4ba5 123c 41e4 a03d d918 9bbc
00000230: 1433 debc a561 8c3b d7a5 18bd ce75 14bc
00000240: 8d34 dd3c d067 79bc 4f15 3b3d 56a9 04bc
00000250: 5b45 3b3d 8341 463d f305 483d e782 08bc
00000260: 40ad 383d c81d fcbc 78c7 3abd 3793 4ebc
00000270: b84e dcbc 3a1e 003d f4b1 e53c e005 4ebc
00000280: 2623 823d ca83 e1bd d62c 99bc 6d0c 793d
00000290: 042c ad3a a3d1 883d fb71 a2bc bd72 a53c
000002a0: 1eec 633c a744 23bd 4342 853c 3ab2 133d
000002b0: 1a50 613b 6b4b 203c 6720 e33c 903d 8c3c
000002c0: 7402 5dbb 0c3d dcbc 37f5 3a3c 48a0 fe3c
000002d0: 8b28 783c 5b37 dc3c 452a 0abd 5e02 9fbd
000002e0: baa4 8cbc e78a 803c 61cc 143c be02 35bd
000002f0: 2587 edbc 9193 0ebd 5728 053d b267 263d
00000300: a9e5 743c 693e debc 4e6f ab3d 88fd adbd
00000310: 81eb 923c 18a7 7fbc 6e52 693c 0cef a3bc
00000320: 66e8 6b3d 9845 253d d198 a13d 282d 0bbd
00000330: 3595 b8bb 84a2 a33b 525f 9bbc b94d 10b9
00000340: 9e27 953d 2c27 bbbd 78fc 873c cc51 85bd
00000350: fbc5 a1bc 14d2 313c 8a92 513c a660 8ebd
00000360: 075e 6bbc 6dbb f539 e02a 9bbc 1ebd 56bd
00000370: 5d67 9dbb 3941 043d 4589 893c bc1f 26bd
00000380: 1709 46bd 7ab5 32bd c3eb 993d a82d 12bd
00000390: 6a1e 573c 562b 613c 55c7 7fbd 4f2a 013d
000003a0: 94e6 813d 025c 8bbb 0897 223d d5b8 4a3c
000003b0: f6fb 74bb dcfa f23c eb89 483d 8307 2aba
000003c0: 4932 9c3b 709f cfbc 219d cbbb d92e 673c
000003d0: f1a2 3f3d e09f 51bd 461a d23a 6cd7 17bd
000003e0: 35ba 9abd c297 33bd 1156 2bbd fd2c 023d
000003f0: 5c36 873b ac4f 0d3d 02d2 223c b3e4 7d3d
0.00033171917 0.0034369158 0.03327839 0.016732257 -0.029538045 0.04367481 0.022210186 -0.012550844
0.023316767 -0.017959805 -0.019593898 0.03895969 -0.006076679 -0.02651856 0.010379821 0.0122723
0.0177975 0.020327324 -0.025727116 0.04569051 0.05006111 0.0627047 0.031547867 0.066659704
-0.08461432 -0.046471912 -0.049094032 -0.07569504 0.01566738 -0.0052986853 0.00047014377 -0.07921997
-0.030569796 -0.029414266 0.010751043 -0.004893306 -0.004529891 -0.022107229 -0.04070136 0.014048939
-0.037022114 -0.057255544 0.018430248 0.015758166 0.00950383 -0.007542663 0.047384113 0.044761095
0.010638643 -0.006713046 0.013027443 0.04009748 0.009655618 0.050306436 0.052568994 0.023006195
0.08015174 0.013066644 0.02264946 -0.08291447 0.0019202464 0.10771773 -0.07513689 -0.013961596
-0.06277137 0.06662504 -0.04794904 -0.005804082 -0.045323603 0.049312532 0.010310844 -0.021169906
-0.0026714574 -0.008999052 0.056861993 0.013337039 0.032802437 -0.0302769 0.006194769 -0.018610876
0.06345915 0.06991645 -0.066511065 -0.038716022 0.016162531 -0.010926483 0.047062308 0.00043752464
-0.083550036 -0.026695156 -0.02348928 -0.037150268 0.03733501 -0.008281612 0.0027836335 -0.053680707
0.048318136 -0.06610974 -0.04712886 0.052579645 0.05121827 0.03626421 -0.0015959399 -0.10195038
-0.0063827042 -0.11167283 -0.005886878 0.011950074 0.026374409 0.053104453 0.05262864 0.02472346
0.045665104 0.08776405 0.081750646 -0.009534824 0.02651805 0.047731765 0.037214067 -0.0047772955
0.003211859 -0.07004467 -0.007877505 0.02644048 0.017442536 -0.06521274 0.03152423 0.009962064
-0.053562175 0.028098328 0.056303732 0.017284935 0.03908729 0.007213294 0.017059585 -0.062654585
0.026086902 0.008950542 0.07856036 -0.018932747 -0.027123965 0.004284101 -0.037267532 -0.00906129
0.027002597 -0.015222505 0.04567462 -0.008097013 0.04572044 0.04840232 0.0488338 -0.008331991
0.0450871 -0.03077592 -0.045600384 -0.012608341 -0.026893005 0.031278826 0.028038956 -0.012574643
0.0635436 -0.11011465 -0.018698137 0.060802866 0.001321197 0.0668061 -0.01982974 0.020196313
0.013911275 -0.039860394 0.016266948 0.036058642 0.003438002 0.009783606 0.027725412 0.017119199
-0.0033723386 -0.026884578 0.011411003 0.031082287 0.015146385 0.026881864 -0.033731718 -0.077641234
-0.017168391 0.015691234 0.009081931 -0.04419207 -0.028995106 -0.0348087 0.032509174 0.040626235
0.014947333 -0.027129369 0.08370839 -0.08495623 0.017934563 -0.015603803 0.014240844 -0.020011447
0.05759468 0.040349573 0.078904755 -0.03397861 -0.0056330212 0.0049937386 -0.01896635 -0.00013761864
0.07282947 -0.09138331 0.016599879 -0.06509742 -0.019747725 0.010853309 0.012791285 -0.06952028
-0.01436568 0.00046869685 -0.018941343 -0.05242645 -0.0048035816 0.032288764 0.016789088 -0.040557608
-0.048348513 -0.0436301 0.07515671 -0.035688072 0.01312981 0.013743242 -0.062445957 0.03153449
0.063428074 -0.0042529115 0.039694816 0.012373169 -0.0037381626 0.029660635 0.048959654 -0.00064861047
0.0047667366 -0.02534458 -0.0062137996 0.01411029 0.046786252 -0.05117786 0.0016029559 -0.037070677
-0.075550474 -0.0438459 -0.041830126 0.031781185 0.004126353 0.03449981 0.009937765 0.061985683

network_body._body_endoder.seq_layers.4.weight f4 [256, 256]
00000000: 9456 8c3d 6f6d c0bb d089 d43c 7d86 173c
00000010: a4bd 16be e6c9 61be c679 43bd 109f a93d
00000020: 29c4 66bd 34f4 4abd 62c5 933d e34d 36be
00000030: 284a f5bc 7212 da3c 1bb7 3cbd 31e9 4e3c
00000040: 4e30 18bd 46ba 6f3d 2cca 593c 333e 14bc
00000050: c400 703a c63f 71bc 880c d5bd 3afb 79be
00000060: 4141 e03d 88c4 c13d 797c dbbb 16a0 9bbc
00000070: 7046 033c 6cc2 fdbb af6a 0bbe cf6b 19bd
00000080: 7ce5 473e de91 b03d 0587 0ebe 5d0e 073e
00000090: b54e a33d c9a5 eabd ce88 00bc d523 533e
000000a0: a4de 77bd cf00 45bd 692f 92bd ed8d 1f3d
000000b0: 891c eebc aaf3 04be 19b1 40bd c2a1 7f3a
000000c0: e077 0f3d 7718 173e e469 f23d dbb1 723c
000000d0: 1170 253e f72e 833a 05e4 f5bd 73e6 ba3d
000000e0: 8d67 c43d 8067 05be 0d33 73bc fca4 a33d
000000f0: f9e9 db3d 24a4 ecbc b595 343d c73c 173c
00000100: 16b7 dcbb e0f1 3dba 7cf1 3c3d 8134 81bd
00000110: a7f0 c43d 27cd 28be 1b71 3dbc 175c bd3d
00000120: 0c30 4dbd 2318 3abd 5b73 a53d aa0f 113b
00000130: 7ee2 78bd 49d7 aabd c5d6 91bc a620 71bd
00000140: 2da1 1dbd 91de abbd 76f5 aabd 7b54 7bbd
00000150: 5fef 443c a688 e5bd 2da8 85bc 8217 c33b
00000160: 293f 413d 24ed f93c 8084 113e 529f 5f3d
00000170: 56dc 483c 479f c6bc c400 983d 0056 193e
00000180: d33f 893d cf77 823d 2dd0 5c3d 14a8 b6bd
00000190: d94f 133e 6c4e a6bd e620 713d 5552 05bd
000001a0: 09bb dcbd 3aec 04bd d454 fdbc 980f 0cbe
000001b0: 0d95 9c3d 11f1 72bd f8b6 b53c 5bd8 f63d
000001c0: 099e 8cbc 0c20 08bd cbae 2bbb b788 a3bd
000001d0: 2f9f 3fbe d97e d7bd 821e 943d bb2c f63d
000001e0: ecc9 8cbd 1712 aa3d b433 633d f3d3 2dbe
000001f0: 5fac 623d 18e0 38bd 4e90 d0bd 8607 a6bd
00000200: bd29 183d fff5 9dbd 7e8f 1d3d 020e 3d3d
00000210: a062 143c 18eb edbc b5b0 f33d d63b a9bd
00000220: 5b88 3cbd 8a0b 843b 355b 413d e9a3 0dbe
00000230: 8f9d 2c3e ef46 48be e100 10be f9b9 f63c
00000240: 2005 993b e99d 4cba d0fe 51be 53a9 673d
00000250: 9934 7f3d 0abe 0ebe be8a 963d 0196 593c
00000260: 3180 993d 917e aa3d 3379 cabd c65b 2cbd
00000270: 4859 9a3d d821 c7bd 3e32 033d 87e9 b03d
00000280: ef4b 1f3e 8f0a c5bc c442 413d 2b4c 9a3d
00000290: 00bf d83d 6dca f23d ddec 9a3d e821 5a3b
000002a0: c892 8abe 37eb 23be f983 fcbd fe0d 2abe
000002b0: 45ab 773a e43d 5d3d 3019 683e 743b 1c3d
000002c0: 6222 0abe 7d14 233e 6489 313e c590 613d
000002d0: 30fe 39bd d57b c23c 71c5 813c 5a7d 013e
000002e0: 7f85 bcbd d35b 923d 3012 dd3d 61a7 c83d
000002f0: 57f6 303d e780 debd bfd2 b6bd 8936 b43d
00000300: cf3a 313c 7a58 413d 1342 51be 3744 3e3e
00000310: 7bae 77bd c30e cb3b 7b98 1fbc 3086 b03d
00000320: b364 203e efb9 b9bd 5eb6 d53c d8de a43d
00000330: ab60 d8bc fa52 89bd fd6f b5bd 7d06 b13c
00000340: 9c31 773e 379a 1dbc 7ab9 0b3d 57f1 053e
00000350: 93de 8cbc 8e0e 86bd cd63 af3d 8ff1 b03d
00000360: 6b8b 83bc 43c7 25be 7627 0cbd add1 fb3d
00000370: 9d8d 19bc 86e2 d33c 6391 e93b 35e6 06bd
00000380: f5c8 483e f508 88bd f3ae 87bd 6113 61be
00000390: 317c d638 14ed 7a3d 71c6 dc3d 1bdf 363b
000003a0: 1edf a03d b0b2 bbbd b6f2 c23d 5695 31be
000003b0: f77b 223e c900 34bd b1f7 1cbd 64dd a6bc
000003c0: 0359 a5bd 5a55 e43d c1ab 283e d422 5e3d
000003d0: d83d 39be 6a52 d03c 1cac 48bd 532b 563e
000003e0: d162 0e3d 6f9d 92bd 0091 04be 75a4 15be
000003f0: 9680 a43d c9ab e53b b95e e03d cd32 703c
0.06852451 -0.0058724205 0.02594462 0.009248373 -0.1472078 -0.22049674 -0.047723554 0.08282292
-0.056339417 -0.049549296 0.07215382 -0.17803149 -0.029942587 0.026620124 -0.04607306 0.012628839
-0.037155442 0.058527254 0.01329283 -0.009048033 0.00091553875 -0.014724677 -0.10402781 -0.24412242
0.10949946 0.094613135 -0.006698188 -0.018997233 0.008012399 -0.007744124 -0.13614915 -0.03745633
0.19521135 0.08621572 -0.13918693 0.13189073 0.079739965 -0.11457402 -0.007845117 0.20619138
-0.06051506 -0.048096474 -0.07137949 0.03895371 -0.029066341 -0.12983575 -0.047043893 0.0009751582
0.03502643 0.14755426 0.11836603 0.014812912 0.16156031 0.0010008503 -0.12006382 0.09125986
0.09590063 -0.13027763 -0.014843714 0.07990453 0.10737986 -0.028886862 0.044088084 0.009230799
-0.0067356927 -0.000724582 0.046128735 -0.063088425 0.09616213 -0.1648451 -0.011562611 0.0924608
-0.05009465 -0.045433175 0.08078643 0.002213458 -0.060762875 -0.08341844 -0.017802605 -0.058869027
-0.038483787 -0.083920605 -0.08347599 -0.061359864 0.012019961 -0.11207704 -0.016315544 0.00595373
0.047179375 0.030508585 0.14210701 0.0545953 0.012259563 -0.024245871 0.07422021 0.14974213
0.06701627 0.06370508 0.05390947 -0.08918777 0.14385928 -0.081204265 0.058869265 -0.03254922
-0.107778616 -0.032451846 -0.030924238 -0.13677824 0.07645617 -0.05931193 0.022181973 0.12052985
-0.0171652 -0.033233687 -0.0026196714 -0.07985061 -0.18713067 -0.10522241 0.072323814 0.120202504
-0.06874451 0.083042316 0.05546923 -0.16975383 0.055340167 -0.045135587 -0.10183774 -0.08106904
0.03714918 -0.07712936 0.038466923 0.046155937 0.009056717 -0.029042765 0.118989386 -0.08263366
-0.046028476 0.004029696 0.047206122 -0.13832058 0.16856979 -0.19558309 -0.14062835 0.030117976
0.0046698004 -0.0007805513 -0.2050736 0.056557965 0.06230602 -0.13939682 0.07350682 0.013280393
0.07495154 0.08324922 -0.09886398 -0.04207971 0.0753656 -0.09723252 0.032030337 0.08638292
0.1555631 -0.024052886 0.047182813 0.07534059 0.10583305 0.11855016 0.07564709 0.003328437
-0.2706511 -0.16007696 -0.12329859 -0.166069 0.00094478234 0.0540141 0.22665858 0.038142636
-0.13489679 0.15925784 0.17337567 0.055069704 -0.045408428 0.023740688 0.015841218 0.12645474
-0.0920515 0.0714642 0.107944846 0.0979755 0.043203678 -0.1086443 -0.089269154 0.08799464
0.010817244 0.04720352 -0.20435362 0.1858071 -0.060469132 0.006196828 -0.009740944 0.08619344
0.15663414 -0.09068667 0.026087936 0.080503166 -0.026413282 -0.0670528 -0.08859251 0.02160954
0.24140018 -0.009619287 0.03411243 0.13080345 -0.017195975 -0.06545745 0.08563957 0.08639824
-0.01605769 -0.16189294 -0.03421732 0.12295852 -0.009372142 0.02586485 0.007127927 -0.032934386
0.19607909 -0.066423334 -0.06625166 -0.21980049 0.00010227448 0.06126125 0.10780037 0.0027903977
0.07855056 -0.09164941 0.0951895 -0.17342123 0.15867601 -0.04394606 -0.038322154 -0.02036924
-0.08073618 0.11149092 0.16471769 0.054232433 -0.18089998 0.025429923 -0.04899226 0.20914964
0.034762207 -0.07158934 -0.12945938 -0.14613517 0.08032338 0.007009004 0.10955567 0.014660549

network_body._body_endoder.seq_layers.4.bias f4 [256]
00000000: 2dc4 94bd 4289 0dbb 3ecb 493c 439a 63bd
00000010: f2ea 48bc f558 b33c c907 4c3d b8b2 05bd
00000020: 4431 ac3c 9fa7 2a3d e0e8 f93d 0f82 743c
00000030: bc7f a1bd 5553 683c 04b9 813d 6bf3 ee3d
00000040: 7003 0c3d 90a6 0c3d eaa1 d7bd b98e eebb
00000050: 4363 463d 3221 90bd 6598 15bc 95b5 e13c
00000060: 9e49 743c cd08 94bc 8ab0 163d 0e01 25bc
00000070: 20d8 b03d 3616 efbc 6785 f43d 403e 603d
00000080: b34f 1c3d f58b 7e3d 012e 69bd e547 7c3d
00000090: e35f 95bd c1e3 453d 5c7e 263d 39bc c93c
000000a0: 4174 173d 428d 73bd 7a8a 7c3c 0f39 c63d
000000b0: 2a36 9b3c da9f 7e3d 65d0 0a3d d48e 72bc
000000c0: 7d44 883d 0688 aabc 86bf 88bd e6c4 8e3d
000000d0: e537 97bc db76 aa3c e038 57bc 44cf 753d
000000e0: 6988 743d 90ce 13bc fdd3 5abd 5563 423d
000000f0: 6290 4c3d 7d29 383d 4548 2d3c 49d0 e33c
00000100: 5ef4 483d 41c9 b83b ca74 153d c1ea 9fbd
00000110: 5b65 4e3d d066 94bd e6a8 23bc 4d70 cfbc
00000120: a741 7c3d 3747 983d bac2 28bd c198 1f3c
00000130: a8b5 733c 8dc9 2dbd 8ea4 e9bc 6a1c 8d3d
00000140: d6ea 35bd c16c 643d d988 e3ba 57de 113d
00000150: 5085 8abc fe69 e23c 13bd 7b3d 4b9b 95bd
00000160: 6917 233c 96eb afbc 1c8d 543d e0b4 833d
00000170: d171 853d 9ea2 febc 429f 8dbd 99db 143d
00000180: 43a3 81bd 022a 39bc 90a8 973c 952b b8bb
00000190: a534 24bc b58c 1f3d 716e b73c 0f4a febc
000001a0: ce9d 0a3c e3a2 933d 523d 28bd 6578 e73c
000001b0: 6542 373d 336a 42bc 0f03 9fbd c871 903b
000001c0: 32aa 47bd 72b3 40bd 7d9c 9e3d 49d7 fb3c
000001d0: fff3 b9bd 804b 5abd 80c1 243d a6eb 7ebb
000001e0: e09c 9e3d b989 53bd 8ec1 703d 3fee 56bd
000001f0: cfcb 233d 763e 06bd 8463 90bd 37fe 273d
00000200: 199c 87bd 39fc f63c 6029 9a3c 2124 e93b
00000210: 42e9 51bb 2de1 01bc 7162 3bbd f6c1 dabc
00000220: a611 26bc b812 7fbd e2fd 49bd 5203 b33c
00000230: 3124 fe3c a090 dfbb 13e5 01be 8bc8 39bd
00000240: 8043 47bd d937 563d fca0 07bc d20e 02bc
00000250: 5383 503d b3fa 163d 6397 7e3d 3f68 7d3d
00000260: c3a6 7c3c 5e50 2bbd 7879 c8bd f8c5 88bd
00000270: f42c 9c3c f74a d53d 4968 a3bc 0c64 a23c
00000280: d428 f13d 2a97 7bbd 8369 64bd d082 14bd
00000290: f0a4 94bb be3c b13d c437 4bbd ff0c d33c
000002a0: a2b3 b4bc 923a 04bd 0955 803d 6778 4e3d
000002b0: 721f 42bb b035 bb3d ce15 423d 8da1 5b3d
000002c0: 7e80 0a3d dc37 fabc d71d 9fbc e187 93bd
000002d0: a64c 743d 1e55 8bbd d94a 973b 0325 4f3d
000002e0: f9fa 843d 0a93 5b3d 9c4c e63c 56ef bf3b
000002f0: 964d 16bd dc59 d93b a0cf 893a c2d5 003e
00000300: 51c6 0f3a 4750 743d 3d96 623c 9de8 003b
00000310: 56eb 3dbd 0a6d a63c 092a 033d a8f6 08bc
00000320: 89b9 80bc f4f7 f0bb b34c d43b a874 003e
00000330: 5d09 d63c 8475 383d 65bd 5bbd ec5c 8b3d
00000340: 7395 413d 94eb 713c ceea 06bd a9a7 243d
00000350: 3db2 c63c 0927 9e3d 29f1 463d cc4f 863d
00000360: ebca a93d 05ae 96bd c06d 223d 2ad2 df3d
00000370: 2972 d73d b4eb 333c 3560 e63d d563 0ebc
00000380: f0f2 84bd 6cbc 8cbc 3fed a63d 8b75 7a3d
00000390: 8e91 27bc 1032 0c3d 85d2 a3bb 206f 05bc
000003a0: 3c55 8e3b aab3 cb3c 8f11 423d e11a 7ebd
000003b0: 6df0 d73d c63e 8fbd 9ecc 723d da39 183c
000003c0: c741 1a3d a11a 0a3d 4181 0a3d 482d 8cbd
000003d0: 056a 423d 91a3 a3bb 6438 063d e298 563d
000003e0: 2bdd 83bd 3df9 cbbd 36b4 68bc fc76 c53c
000003f0: a844 673d ea7f 10bc 641f 913d 8806 a1bb
-0.0726398 -0.0021596705 0.012316523 -0.055567037 -0.012263047 0.021893004 0.049812112 -0.032641143
0.021019585 0.041663762 0.122026205 0.0149235865 -0.078856915 0.014180024 0.06334117 0.11667522
0.034182966 0.034338534 -0.105289295 -0.0072801975 0.048434507 -0.070375815 -0.009130572 0.027552405
0.01491013 -0.018070603 0.036789455 -0.010071052 0.086349726 -0.029185396 0.11939507 0.054746866
0.038161945 0.062145192 -0.05692864 0.061592 -0.072936796 0.048312906 0.04064785 0.024625884
0.036976103 -0.059460886 0.015413875 0.09678852 0.018946726 0.062164165 0.033890147 -0.014804561
0.06653688 -0.020816814 -0.06677155 0.06971149 -0.01845927 0.020808628 -0.013136119 0.060012117
0.059700403 -0.009021416 -0.053424824 0.04745801 0.04994238 0.04496144 0.010576312 0.027809279
0.04906117 0.0056392257 0.03648833 -0.07808448 0.05038963 -0.072461724 -0.009988999 -0.025322104
0.06158605 0.07435458 -0.04120133 0.009741009 0.014874853 -0.042428542 -0.028520849 0.06890185
-0.04441341 0.05576778 -0.0017359509 0.03561243 -0.016909271 0.027638432 0.061459612 -0.073050104
0.009954312 -0.02147464 0.051892385 0.064309835 0.065158494 -0.031083401 -0.06915142 0.036342237
-0.06329968 -0.011301519 0.018512994 -0.0056204298 -0.010022317 0.038952548 0.02239153 -0.031041173
0.008460475 0.072088026 -0.041074105 0.02825565 0.044741053 -0.01186614 -0.07764255 0.004408095
-0.048746295 -0.047046132 0.077446915 0.030742304 -0.09079742 -0.05329466 0.0402236 -0.0038897782
0.07744765 -0.051645014 0.058778338 -0.052473303 0.03998929 -0.03277441 -0.07050231 0.041013923
-0.0662157 0.030149566 0.018818557 0.0071149026 -0.0032029902 -0.007927221 -0.045748178 -0.026703816
-0.010136044 -0.06227371 -0.049314387 0.02185217 0.031023117 -0.0068226606 -0.12685041 -0.04535727
-0.048648357 0.052299354 -0.008278128 -0.007938104 0.05090649 0.03686018 0.062156092 0.061866995
0.0154206185 -0.04182469 -0.09788793 -0.066783845 0.019064404 0.10414689 -0.019947188 0.019823097
0.117753655 -0.06142346 -0.055764686 -0.036257565 -0.0045362636 0.08654164 -0.04961373 0.025763033
-0.022058312 -0.03228242 0.06266219 0.050407793 -0.0029620794 0.091410995 0.047384076 0.053620864
0.033813946 -0.030544214 -0.019423408 -0.07203651 0.05964341 -0.06803344 0.004617077 0.050572407
0.06493182 0.053607024 0.028112702 0.0058573885 -0.036695085 0.0066330265 0.0010514148 0.12581542
0.00054845685 0.05964687 0.013829765 0.0019669898 -0.046367012 0.020315666 0.03202251 -0.008359589
-0.01571347 -0.007353777 0.00647887 0.12544501 0.026127512 0.045033947 -0.053647418 0.06804833
0.047261667 0.014765639 -0.03293877 0.040198956 0.024254913 0.07722289 0.048569832 0.06558189
0.08290657 -0.0735741 0.039655447 0.109287575 0.10519821 0.010981489 0.11248819 -0.008690794
-0.06491649 -0.01717969 0.0815072 0.061147254 -0.010227574 0.03422743 -0.004999461 -0.00814417
0.004343657 0.024865944 0.047380026 -0.062037352 0.105439045 -0.06994395 0.05927717 0.009291137
0.037660386 0.0337168 0.033814672 -0.06844574 0.04746439 -0.004993864 0.032768622 0.052391894
-0.06438669 -0.09959648 -0.014203122 0.024104588 0.05646196 -0.00881956 0.070860654 -0.0049141087

action_model._continuous_distribution.log_sigma f4 [1, 39]
00000000: 2865 81bf a5e6 9cbf 1804 edbe 4983 c2be
00000010: 56ad 13bf 4558 acbe e1a5 20c0 a52d debf
00000020: 95c1 1ac0 eba3 dabf d1b3 cabf d537 d4bf
00000030: ed42 b0bb 5d82 23be a1bb 503d e4d3 563e
00000040: c3e1 9ebe 38dd ce3e e5d8 16c0 0d5f 17c0
00000050: 221b 12c0 1347 1ac0 9fba cbbf 209e bebf
00000060: 625c 3fbf 9518 61bf abc1 f7bd 816d 183e
00000070: 405a 023f d40c 02be ef8d 023e f74c fa3d
00000080: 2d8d 04be 63c9 053f e387 cd3e c677 ba3e
00000090: b868 023f 0f60 f73e 8992 033e
-1.0108995 -1.2257887 -0.46292186 -0.37990788 -0.57686365 -0.33661094 -2.5101244 -1.735768
-2.4180653 -1.7081274 -1.5836126 -1.6579539 -0.005379072 -0.15967698 0.050960187 0.20979267
-0.31031618 0.40403152 -2.3569882 -2.3651764 -2.282906 -2.410588 -1.5916327 -1.4892006
-0.7475034 -0.87928134 -0.12097486 0.14885522 0.5091896 -0.12700206 0.12749456 0.12221711
-0.1294448 0.52260417 0.40142736 0.36419505 0.5094104 0.48315474 0.12848867
