Assets/Brains/ArvidTests/fresh3/LastWalkTest4/Zombie Walker/Zombie Walker-30000102.onnx (onnx, 827693 bytes, 11 tensors)

network_body.observation_encoder.processors.0.normalizer.running_mean f4 [246]
3.204112 -0.0390072 -0.20275751 1.1436701 3.4059784e-07 0.0 4.230262 0.000741181
0.46814483 5.103862 -3.1029274e-05 0.037756328 0.03344336 0.9573073 0.0019650166 0.021873392
0.048704896 0.9767986 0.00020435126 0.46319595 5.124296 0.00019474511 -0.016188344 -0.16835964
1.1053495 0.6716991 -0.0072775707 -0.07499506 -0.000389739 -0.0039637024 0.013960168 0.00044548136
-0.012734258 -0.33575407 1.2000175 0.15972888 -0.055322565 -0.08796494 0.06627303 0.41719225
0.08967357 -0.014146655 0.019344883 0.0006795138 0.9918323 0.71939534 0.0004524903 -0.015416536
-0.2861068 1.1426239 0.58091056 -0.064626835 0.05451094 0.026842024 0.19084841 0.038828604
0.10135666 -0.011187774 -0.081234485 0.94396996 0.65995926 2.785401e-05 -0.022156293 -0.34793758
1.2124834 -0.011380046 0.018156752 0.055927936 0.13579252 0.8052096 0.15487356 -0.040204138
0.0009760979 -0.008654969 0.99371076 0.697177 0.0006151297 -0.057805594 -0.14344221 1.0121734
-0.21977067 0.113024786 -0.49364316 -0.11360999 -0.21757104 -0.043125816 0.09067066 -0.012013855
0.04062373 0.95532864 0.75119656 0.0 -0.07132547 -0.011075551 0.9027982 0.7949402
0.24426275 0.10644963 -0.0655425 -0.41870576 -0.18403383 0.29594514 0.0054735695 0.03316017
0.907136 0.7838411 0.0 -0.09396976 0.017372968 0.8418073 0.050812673 0.07649522
-0.45925802 -0.03366811 -0.506652 -0.29494587 -0.049855683 0.010595595 -0.1091203 0.967294
0.7247206 0.00071064604 -0.05273144 -0.15254474 1.004194 0.5985903 -0.19360965 0.045796376
0.11299649 -0.19201733 0.090823025 -0.36795872 0.035712805 0.07033935 0.8680901 0.6534993
0.0 -0.08373628 -0.024875008 0.91881615 0.60419387 -0.07280679 0.42670998 0.11393011
-0.37606865 0.13834742 0.41189674 -0.010982159 -0.016422741 0.8745548 0.80811054 0.0
-0.10322101 0.0401038 0.8660698 0.5779359 0.09104706 0.35832638 0.1096992 -0.50109273
0.11836851 -0.11624582 0.013758747 0.0059924005 0.9756303 0.72533077 0.00021334429 0.056250818
-0.2992888 1.2360321 -0.4769776 0.6722704 -0.33459827 -0.25159523 0.49255964 0.14080416
-0.03305156 0.17846192 -0.12961267 0.88232404 0.82416 0.00018969504 0.21414626 -0.29602697
1.349721 -0.2093894 0.78658074 0.37867665 -0.39989206 0.5139006 0.27740395 0.002996394
0.30694464 0.0135097 0.8996365 0.73808724 0.00018055065 0.31292355 -0.28790092 1.4646672
-0.2083437 0.77958417 0.38081703 -0.46755776 0.5021235 0.39915475 0.00021242573 -0.102825664
-0.30588192 1.2267954 -0.24535802 -0.1272848 0.39182422 0.3818938 0.41607568 0.13486098
-0.04154028 -0.13149573 0.18187049 0.8938643 0.8054582 0.00022963855 -0.25041997 -0.3232125
1.3106824 -0.42812985 -0.13629366 -0.03926479 0.52682877 0.4440565 0.2555765 0.0073889997
-0.24685326 -0.017815156 0.9391679 0.69672656 0.00034254222 -0.3248578 -0.32246095 1.4033904
-0.4276027 -0.13800406 -0.04110217 0.58431643 0.45261192 0.37088835
00000000: 2c10 4d40 04c6 1fbd aa9f 4fbe c863 923f
00000010: 69db b634 0000 0000 4e5e 8740 d14b 423a
00000020: aeb0 ef3e d652 a340 6e25 02b8 61a6 1a3d
00000030: e8fb 083d 1712 753f 82c7 003b d42f b33c
00000040: c97e 473d 790f 7a3f 2047 5639 0528 ed3e
00000050: 3cfa a340 7e34 4c39 6b9d 84bc 7866 2cbe
00000060: 187c 8d3f 79f4 2b3f b078 eebb 0397 99bd
00000070: e255 ccb9 f2e1 81bb 30b9 643c 7f8f e939
00000080: 59a3 50bc f5e7 abbe 2c9a 993f f88f 233e
00000090: ea99 62bd f626 b4bd 28ba 873d 399a d53e
000000a0: c7a6 b73d 5fc7 67bc 2979 9e3c 6621 323a
000000b0: b9e8 7d3f 4b2a 383f 383c ed39 a395 7cbc
000000c0: 977c 92be 8041 923f 8eb6 143f 135b 84bd
000000d0: dd46 5f3d cee3 db3c c46d 433e be0a 1f3d
000000e0: 1594 cf3d ed4c 37bc 445e a6bd 04a8 713f
000000f0: 17f3 283f 08a8 e937 1d81 b5bc e024 b2be
00000100: a832 9b3f 5f73 3abc 78bd 943c b114 653d
00000110: 320d 0b3e 3722 4e3f 2d97 1e3e 18ad 24bd
00000120: d2e0 7f3a 92cd 0dbc d463 7e3f 317a 323f
00000130: a840 213a 8fc5 6cbd 84e2 12be e68e 813f
00000140: 900b 61be 8a79 e73d ccbe fcbe 5bac e8bd
00000150: f1ca 5ebe b2a4 30bd 8ab1 b93d c3d5 44bc
00000160: 1165 263d 6b90 743f 6b4e 403f 0000 0000
00000170: 1713 92bd 3a76 35bc c81d 673f 3381 4b3f
00000180: 0420 7a3e 4302 da3d 253b 86bd 9a60 d6be
00000190: 5d73 3cbe 1f86 973e a15b b33b f5d2 073d
000001a0: 113a 683f cfa9 483f 0000 0000 3873 c0bd
000001b0: c151 8e3c af80 573f f320 503d 87a9 9c3d
000001c0: de23 ebbe 92e7 09bd f2b3 01bf 2503 97be
000001d0: 7935 4cbd 2699 2d3c 777a dfbd 94a0 773f
000001e0: 4a87 393f a64a 3a3a ecfc 57bd b034 1cbe
000001f0: 6e89 803f 373d 193f 9c41 46be fb94 3b3d
00000200: b46a e73d 31a0 44be 6c01 ba3d 1665 bcbe
00000210: 9747 123d 140e 903d 273b 5e3f bb4b 273f
00000220: 0000 0000 ed7d abbd acc6 cbbc 8937 6b3f
00000230: 73ac 1a3f ba1b 95bd bb79 da3e 3154 e93d
00000240: 128c c0be f2aa 0d3e 21e4 d23e 83ee 33bc
00000250: fc88 86bc d3e2 5f3f 55e0 4e3f 0000 0000
00000260: 8965 d3bd e243 243d c0b6 5d3f 9bf3 133f
00000270: e276 ba3d 8e76 b73e f9a9 e03d 9d47 00bf
00000280: 306b f23d 4a12 eebd 5e6c 613c e65b c43b
00000290: e8c2 793f 47af 393f 2cb5 5f39 4267 663d
000002a0: 623c 99be 4d36 9e3f 6836 f4be ea19 2c3f
000002b0: 7750 abbe 17d1 80be c730 fc3e f72e 103e
000002c0: 1361 07bd b9be 363e 2fb9 04be fddf 613f
000002d0: 26fc 523f e0e8 4639 2849 5b3e d990 97be
000002e0: a8c3 ac3f 2d6a 56be 5b5d 493f e8e1 c13e
000002f0: a7be ccbe fd8e 033f e407 8e3e 265f 443b
00000300: d927 9d3e ca57 5d3c 944e 663f 49f3 3c3f
00000310: 3252 3d39 8437 a03e c067 93be 377a bb3f
00000320: 0d58 55be d492 473f 73fa c23e bb63 efbe
00000330: 2a8b 003f 035e cc3e 99be 5e39 4396 d2bd
00000340: 8e9c 9cbe a207 9d3f 223f 7bbe f256 02be
00000350: 2f9d c83e 9687 c33e df07 d53e ff18 0a3e
00000360: 2426 2abd d1a6 06be 423c 3a3e 4ad4 643f
00000370: 8232 4e3f 21cb 7039 0c37 80be 1c7c a5be
00000380: 71c4 a73f d633 dbbe 9190 0bbe 1ed4 20bd
00000390: 40de 063f 605b e33e ecda 823e 6c1f f23b
000003a0: 1ac7 7cbe 17f1 91bc 4f6d 703f ac5c 323f
000003b0: 3d97 b339 c353 a6be 9a19 a5be 4ca2 b33f
000003c0: beee dabe f050 0dbe c05a 28bd c395 153f
000003d0: c0bc e73e 14e5 bd3e

network_body._body_endoder.seq_layers.0.weight f4 [256, 246]
0.11417055 0.21973221 -0.046550725 -0.09955993 -0.0125988135 0.089024216 0.12149621 -0.13990174
-0.003635231 -0.17140538 0.010916046 0.051358823 -0.033655386 0.12953104 0.09440447 0.066998646
0.065847054 0.008817123 -0.11930195 -0.013363122 -0.24739695 -0.07280817 0.12946074 0.028909283
0.007813828 -0.044433136 0.16239326 0.0013848369 -0.07845803 0.21496184 0.05980465 -0.043823674
0.19365387 -0.010669847 -0.14102678 -0.11113275 0.1715201 -0.03879469 0.06730826 0.036853574
0.12710123 -0.11293322 -0.057618488 -0.20002845 0.07937709 -0.22504027 0.079730846 0.06697419
0.036519494 -0.057788536 0.0021882236 0.08251246 0.028356088 -0.044851955 0.13694946 -0.032032646
-0.021370811 0.02060802 -0.0690788 0.056408774 -0.027774153 -0.039232295 0.16955706 -0.04274783
-0.03814472 0.12709382 0.067570545 -0.09802711 -0.05879908 -0.096346416 -0.023728881 -0.02874482
0.0036802273 -0.035192344 0.08025059 -0.005651633 -0.057485044 0.13497722 -0.057577785 0.06584278
-0.1718506 0.05686596 -0.07232114 -0.14609714 -0.0013340537 -0.10952815 0.0047761598 0.032554064
-0.038107757 0.046906848 -0.092535466 -0.040899735 0.024617644 -0.13874738 -0.04967658 0.07749283
-0.016931858 0.07733897 0.052325442 0.23144118 -0.098468535 0.09973038 -0.0017230132 0.0010614367
-0.029341945 0.03907084 0.12293802 -0.11641016 -0.01168684 -0.006953157 0.0165002 0.010644061
0.014944656 0.05468048 0.091136046 -0.018570058 0.03986187 0.01678251 -0.046919733 -0.016018812
0.0054715974 -0.07044521 -0.055558655 -0.06002153 0.15037492 -0.120849356 -0.11088809 -0.15571983
-0.088680774 0.004600334 -0.036567446 -0.140179 -0.08896284 -0.20641275 -0.13289064 -0.096180305
0.024512123 0.026145685 0.05487328 0.093152985 0.00048423692 -0.1650457 0.0017413198 -0.25039318
0.16780202 0.2592329 -0.2895558 -0.073039986 -0.14155747 0.18255499 -0.018193183 0.025094494
-0.0016933146 -0.10940343 -0.014576134 -0.0073912507 -0.038040925 -0.056814194 -0.33854336 0.20770451
0.19655521 0.3106455 -0.059962638 0.034478445 0.108042106 0.08444962 -0.037737206 -0.056464683
-0.112236194 -0.026559116 0.08320573 -0.0059039565 0.055532183 0.0517708 0.1284309 0.04398175
0.05057797 0.08354174 -0.06436787 -0.13779344 0.025673127 -0.17901844 0.037700817 -0.083675906
-0.078110956 -0.037717376 -0.10223511 -0.08931726 0.034561567 -0.009640299 0.013698411 0.014932008
0.06771918 -0.019896638 -0.08510864 -0.025070999 -0.059668638 -0.1304661 -0.09989899 0.083758555
-0.009007832 -0.2782095 -0.020922024 -0.035199158 0.009330837 -0.008533477 -0.07280701 0.09992427
0.0053440034 -0.062534615 0.022367032 0.053593114 0.01955304 0.14842473 -0.0641749 -0.026492676
-0.19295754 -0.123774305 0.06307304 0.070446506 0.22543061 -0.093976244 0.09299763 -0.107444435
-0.024399515 0.0020357023 0.07002425 -0.07840134 -0.020016478 0.11406441 0.06902923 -0.016951675
0.081343494 -0.0043824688 0.20741996 -0.013768162 -0.0900042 0.08655288 -0.16827719 -0.015348127
0.010177325 0.109969735 0.017605593 -0.07547576 0.027246734 0.061372668 0.12550811 -0.019362213
-0.14391306 0.07366356 0.07604658 0.06930193 0.20936507 -0.18751858 0.06933867 0.02914688
00000000: 40d2 e93d 7b01 613e f9ab 3ebd 14e6 cbbd
00000010: 416b 4ebc 5452 b63d 01d3 f83d 6742 0fbe
00000020: 0e3d 6ebb e484 2fbe 37d9 323c a15d 523d
00000030: 3bda 09bd c9a3 043e 2157 c13d 9636 893d
00000040: d2da 863d b275 103c 9554 f4bd fff0 5abc
00000050: a055 7dbe 731c 95bd 5b91 043e 29d3 ec3c
00000060: 9205 003c 85ff 35bd 6b4a 263e 6a83 b53a
00000070: 9bae a0bd f51e 5c3e b8f5 743d 7480 33bd
00000080: 334d 463e 95d0 2ebc 5369 10be 9199 e3bd
00000090: f7a2 2f3e 2ee7 1ebd ead8 893d c6f3 163d
000000a0: d326 023e 8849 e7bd 5d01 6cbd 42d4 4cbe
000000b0: 7590 a23d f570 66be ed49 a33d c429 893d
000000c0: 7795 153d acb3 6cbd 4d68 0f3b 4bfc a83d
000000d0: 074b e83c afb6 37bd 7b3c 0c3e aa34 03bd
000000e0: d711 afbc 26d2 a83c 3079 8dbd e30c 673d
000000f0: 9f86 e3bc 0bb2 20bd 5ea0 2d3e 5918 2fbd
00000100: a33d 1cbd e224 023e 6d62 8a3d 70c2 c8bd
00000110: 4ed7 70bd 4551 c5bd 1263 c2bc 427a ebbc
00000120: f82f 713b d925 10bd 6c5a a43d 5531 b9bb
00000130: 7075 6bbd 7837 0a3e afd6 6bbd 94d8 863d
00000140: 9bf9 2fbe 48ec 683d 1b1d 94bd 7d9a 15be
00000150: 6adb aeba 4b50 e0bd 5581 9c3b 6957 053d
00000160: e116 1cbd 6521 403d 3c83 bdbd 7b86 27bd
00000170: f1aa c93c cb13 0ebe ab79 4bbd 90b4 9e3d
00000180: aeb4 8abc e563 9e3d 3453 563d ebfe 6c3e
00000190: dfa9 c9bd 713f cc3d bbd6 e1ba e81f 8b3a
000001a0: 855e f0bc bf08 203d eec6 fb3d 7368 eebd
000001b0: 297a 3fbc 4fd7 e3bb 6d2b 873c 6d64 2e3c
000001c0: 6eda 743c a4f8 5f3d 89a5 ba3d 3c20 98bc
000001d0: 3346 233d 797b 893c e82e 40bd e239 83bc
000001e0: 164b b33b 9445 90bd 7991 63bd 23d9 75bd
000001f0: e2fb 193e de7f f7bd 4c19 e3bd 0575 1fbe
00000200: 449e b5bd 66be 963b bfc7 15bd 158b 0fbe
00000210: 2632 b6bd dd5d 53be 7c14 08be 2efa c4bd
00000220: a6cd c83c 7a2f d63c cec2 603d fec6 be3d
00000230: 2ee1 fd39 bd01 29be ff3c e43a 8933 80be
00000240: 4bd4 2b3e 2dba 843e a840 94be fd95 95bd
00000250: 71f4 10be b2ef 3a3e df09 95bc f892 cd3c
00000260: 36f2 ddba e80e e0bd bdd0 6ebc 4e32 f2bb
00000270: cdd0 1bbd 00b6 68bd 8e55 adbe 7eb0 543e
00000280: c545 493e ed0c 9f3e 629b 75bd 4539 0d3d
00000290: 2e45 dd3d ecf3 ac3d 5492 1abd 8347 67bd
000002a0: 17dc e5bd 8192 d9bc c467 aa3d fa75 c1bb
000002b0: b775 633d 9e0d 543d 6483 033e 3526 343d
000002c0: d82a 4f3d ef17 ab3d 4dd3 83bd b919 0dbe
000002d0: 7350 d23c 9c50 37be 2c6c 1a3d 465e abbd
000002e0: a3f8 9fbd 897d 1abd a460 d1bd f8eb b6bd
000002f0: 6e90 0d3d 58f2 1dbc 4d6f 603c 62a5 743c
00000300: 5ab0 8a3d 46fe a2bc 704d aebd b261 cdbc
00000310: 1a67 74bd e898 05be d797 ccbd 9b89 ab3d
00000320: 9695 13bc 7a71 8ebe aa64 abbc fe2c 10bd
00000330: 5ee0 183c ffcf 0bbc d71b 95bd 18a5 cc3d
00000340: c01c af3b 2612 80bd 113b b73c 7484 5b3d
00000350: b22d a03c a7fc 173e 216e 83bd 2b07 d9bc
00000360: a996 45be 627d fdbd 702c 813d 4246 903d
00000370: 48d7 663e 9e76 c0bd 8b75 be3d d40b dcbd
00000380: 7ee1 c7bc 6b69 053b e068 8f3d e290 a0bd
00000390: 99f9 a3bc 9a9a e93d 325f 8d3d 3dde 8abc
000003a0: 6b97 a63d d09a 8fbb e665 543e db93 61bc
000003b0: 1f54 b8bd a342 b13d db50 2cbe b676 7bbc
000003c0: ccbe 263c d037 e13d 9b39 903c 0993 9abd
000003d0: 8b34 df3c e861 7b3d 3385 003e 819d 9ebc
000003e0: f25d 13be ecdc 963d 4fbe 9b3d 2cee 8d3d
000003f0: cc63 563e df04 40be 6f01 8e3d 70c5 ee3c

network_body._body_endoder.seq_layers.0.bias f4 [256]
0.08033467 -0.046280548 0.023286805 0.06905219 0.05613715 -0.012164979 -0.039637107 0.080880456
0.07091129 -0.060819913 0.06943353 -0.012694594 0.08193716 0.0036799903 0.0025347336 0.07181796
-0.02598233 0.02091343 0.022419252 0.029472327 -0.097502396 0.01823594 -0.05519911 0.02419349
0.0376821 -0.0034339656 0.078639545 0.023244048 0.0032068403 -0.023073422 0.06368699 0.010788328
0.011971985 0.008167813 -0.005565697 -0.042384982 -0.0144731 -0.012982037 -0.06728714 0.033770576
-0.0061883605 -0.08112622 0.09399448 0.08565275 0.047837198 -0.022726104 -0.00010146667 0.0595183
0.0043907333 0.047694534 0.008786865 0.049339265 0.013099458 0.09410965 0.008653426 0.03917505
0.014191774 -0.00013723063 0.020210488 0.036431685 -0.028320331 -0.038606636 0.081156254 0.102742985
0.011692897 0.005825178 -0.037885003 0.08944938 0.027023762 0.020380666 0.040270258 0.03780857
0.02483889 -0.062004026 -0.011760493 -0.019144494 0.036569018 -0.021196589 -0.09755012 0.04589366
-0.008252363 0.082545295 0.004481445 -0.0972427 0.051127374 -0.0121775335 -0.017216621 0.041897617
0.036081374 0.014355976 -0.031104965 0.03138878 -0.035067286 -0.041583903 0.06700497 -0.013482198
-0.012853318 0.022963837 -0.025626428 -0.052384406 0.0426632 0.03590343 -0.006222916 -0.010461237
-0.019730395 -0.04188359 -0.047681186 6.6364606e-05 0.04817946 -0.0123585835 0.020265391 0.0144163435
0.012992616 0.0056022126 -0.03411784 0.026386116 0.066284664 0.0046521034 0.025552765 -0.008637948
-0.062443253 0.06171133 0.028810652 0.11689616 -0.021950962 -0.04007875 0.065883204 -0.04486595
-0.13591245 -0.012928675 0.012671617 -0.017762529 0.017742792 -0.0338308 0.015342301 -0.0048038596
0.015420488 -0.07642864 -0.008656638 0.014264305 0.027726054 0.043568026 -0.089360684 -0.039084896
-0.021741157 0.06001862 -0.000927518 0.01750651 -0.04388022 -0.058120564 -0.017821465 0.042015202
0.0042112805 -0.024255423 0.01191603 0.002994663 0.047626078 0.0018846423 0.018092131 0.00753863
-0.0028325645 -0.05212895 0.023559807 0.020782022 0.054092776 0.07452924 -0.0020868676 -0.060644038
-0.057727244 -0.042713165 -0.06974767 0.014674994 -0.05190027 0.030595373 0.035254475 -0.008880173
-0.045397125 -0.067726046 0.11372019 0.05659322 0.09266834 0.02595642 0.069030255 -0.03259331
0.028364114 0.03927481 0.12697025 0.010174475 -0.043284554 -0.04387577 0.056775562 0.049122423
-0.05146294 -0.064292304 0.0012094714 0.020152647 -0.08920982 0.008584089 0.015455646 -0.0021206888
0.029194431 -0.11988795 -0.0216599 0.0435019 -0.013805838 -0.040974382 -0.0059754425 0.029051172
0.0013403823 -0.0035119944 -0.126688 -0.0590419 0.10608027 -0.040562063 0.032973632 0.02035658
0.07873258 -0.14518033 0.10093045 0.086391866 0.025477417 -0.017243931 0.0778009 0.063794516
0.030392004 0.10258364 0.10536119 -0.047037512 0.018162906 0.07229459 0.011671183 -0.040588513
0.084994316 -0.034973107 0.080799446 0.041793425 -0.0148701705 -0.0070756054 0.0681959 -0.03942988
-0.050075486 0.019352166 -0.04101048 0.056891423 0.06938495 0.017530309 -0.041602515 -0.047910254
-0.007908649 -0.13744736 -0.033771988 0.0005806516 0.034209117 -0.03034812 -0.06748528 -0.042292938
00000000: 8186 a43d ac90 3dbd f8c3 be3c 3c6b 8d3d
00000010: 11f0 653d 9f4f 47bc 855a 22bd a7a4 a53d
00000020: f039 913d 4d1e 79bd 2b33 8e3d fdfc 4fbc
00000030: abce a73d fe2b 713b c61d 263b 4b15 933d
00000040: e5d8 d4bc a452 ab3c 94a8 b73c f36f f13c
00000050: 56af c7bd 8a63 953c 7618 62bd 6d31 c63c
00000060: 8c58 1a3d 620c 61bb c50d a13d 4d6a be3c
00000070: da29 523b 7904 bdbc 536e 823d 87c1 303c
00000080: 2526 443c 4ad2 053c 7360 b6bb e09b 2dbd
00000090: 9520 6dbc 9cb2 54bc d7cd 89bd 0453 0a3d
000000a0: bbc7 cabb 8125 a6bd 2e80 c03d b66a af3d
000000b0: f0f0 433d 182c babc 81ca d4b8 76c9 733d
000000c0: 24e0 8f3b 585b 433d c8f6 0f3c f817 4a3d
000000d0: 1c9f 563c 8fbc c03d 19c7 0d3c 0476 203d
000000e0: 9d84 683c 91e5 0fb9 7790 a53c 6439 153d
000000f0: 0a00 e8bc fe21 1ebd 4035 a63d ea6a d23d
00000100: 9193 3f3c 23e1 be3b 4e2d 1bbd 3d31 b73d
00000110: f060 dd3c 5bf5 a63c 6df2 243d 29dd 1a3d
00000120: ee7a cb3c eff7 7dbd 15af 40bc ead4 9cbc
00000130: 65c9 153d 78a4 adbc 5bc8 c7bd fefa 3b3d
00000140: eb34 07bc 820d a93d 16d9 923b 2e27 c7bd
00000150: f06a 513d 4784 47bc df09 8dbc d69c 2b3d
00000160: 10ca 133d 5435 6b3c d7cf febc 8591 003d
00000170: b7a2 0fbd e253 2abd e739 893d 70e4 5cbc
00000180: b996 52bc a81e bc3c 84ee d1bc 0891 56bd
00000190: 9cbf 2e3d 7a0f 133d 9ae9 cbbb 9c65 2bbc
000001a0: a3a1 a1bc 218e 2bbd 594d 43bd 3a2d 8b38
000001b0: d357 453d a87b 4abc 9b03 a63c 8732 6c3c
000001c0: fbde 543c c492 b73b 26bf 0bbd b227 d83c
000001d0: 41c0 873d ac70 983b 0854 d13c 2e86 0dbc
000001e0: 7fc4 7fbd 05c5 7c3d 5104 ec3c 4167 ef3d
000001f0: 81d2 b3bc 9e29 24bd c6ed 863d 5cc5 37bd
00000200: a22c 0bbe cbd2 53bc 9d9c 4f3c b982 91bc
00000210: 5559 913c 2a92 0abd 465e 7b3c b269 9dbb
00000220: 37a6 7c3c 9e86 9cbd 92d4 0dbc d5b4 693c
00000230: c021 e33c 6374 323d bc02 b7bd 7c17 20bd
00000240: 831a b2bc 16d6 753d ae24 73ba d069 8f3c
00000250: bfbb 33bd d40f 6ebd 52fe 91bc 2218 2c3d
00000260: c8fe 893b 4fb3 c6bc 743b 433c 1c42 443b
00000270: 9013 433d 1a06 f73a f335 943c 9d06 f73b
00000280: 8ca2 39bb 2a85 55bd 7f00 c13c 0f3f aa3c
00000290: 6390 5d3d c9a2 983d d4c3 08bb e265 78bd
000002a0: 6773 6cbd 00f4 2ebd ded7 8ebd 636f 703c
000002b0: 6195 54bd 26a3 fa3c ff66 103d 257e 11bc
000002c0: 56f2 39bd f4b3 8abd 22e6 e83d 4bce 673d
000002d0: e6c8 bd3d 8fa2 d43c bc5f 8d3d 9080 05bd
000002e0: dc5b e83c a0de 203d 7d04 023e d7b2 263c
000002f0: 254b 31bd 14b7 33bd 7e8d 683d 9834 493d
00000300: ceca 52bd afab 83bd 2087 9e3a 2a17 a53c
00000310: a3b3 b6bd 47a4 0c3c ae39 7d3c 41fb 0abb
00000320: 2929 ef3c d087 f5bd 1a70 b1bc 0c2f 323d
00000330: e231 62bc c1d4 27bd a5cd c3bb b9fc ed3c
00000340: c4af af3a 7d29 66bb 80ba 01be ebd5 71bd
00000350: 9d40 d93d 6824 26bd 5c0f 073d d8c2 a63c
00000360: 8c3e a13d 27aa 14be a0b4 ce3d 38ee b03d
00000370: 04b6 d03c 2543 8dbc 1456 9f3d b3a6 823d
00000380: a7f8 f83c 5f17 d23d 9cc7 d73d 68aa 40bd
00000390: 60ca 943c 300f 943d 7d38 3f3c 2440 26bd
000003a0: 8011 ae3d f63f 0fbd 2e7a a53d 952f 2b3d
000003b0: 04a2 73bc 7bda e7bb 4baa 8b3d 3a81 21bd
000003c0: f41b 4dbd 6f88 9e3c 9bfa 27bd fb06 693d
000003d0: b219 8e3d b99b 8f3c 6667 2abd 8b3d 44bd
000003e0: 4793 01bc 00bf 0cbe 7f54 0abd df36 183a
000003f0: dc1e 0c3d 9f9c f8bc b935 8abd 5c3b 2dbd

network_body._body_endoder.seq_layers.2.weight f4 [256, 256]
-0.14800663 0.07395679 0.083829865 -0.028558522 0.21274287 -0.07912781 0.11860687 0.09258519
-0.09136216 0.09551449 -0.058032166 -0.027806867 -0.08481569 -0.03646765 -0.058872174 0.13594525
-0.051878564 -0.0664086 -0.11681675 0.07019874 0.06472698 -0.078163564 -0.025363592 -0.06570422
-0.002334118 -0.01650918 0.092144534 -0.06047442 -0.01621316 0.0021120682 -0.024707505 0.12901777
-0.14651234 0.072765775 -0.19121702 -0.07409532 -0.03843043 0.07603468 0.023041615 -0.010984968
0.06484548 -0.09347283 -0.048240412 0.09285041 0.017813992 0.033806987 0.024504613 -0.053546637
0.001873644 -0.040938813 0.020967148 0.11659656 0.08000188 0.2468548 0.014170011 0.22195886
-0.14242408 0.022305558 0.038045466 -0.071550496 0.04774698 -0.046908237 -0.13616513 -0.11391167
0.050430708 0.055659473 0.23432304 0.10984268 0.050045278 0.022737846 -0.06886617 0.13721864
-0.08087894 -0.104377314 0.04275401 -0.032395717 -0.038973812 -0.08567392 0.08226132 -0.10955809
0.14010818 0.08588589 0.13087115 0.16654648 0.049744576 -0.07569248 -0.04609112 -0.0014398018
-0.041195143 -0.15074384 0.08285531 -0.011600453 -0.10345221 -0.11212415 0.018331215 0.0451667
0.07423922 0.07164445 0.09486696 -0.044562854 -0.019694643 0.023126239 0.032221276 -0.05932035
-0.110459514 -0.049238723 0.036380883 0.00112494 -0.0012907152 -0.0055187517 0.10987587 0.023836758
-0.023189766 0.16880214 0.051653385 -0.07239045 0.08281444 0.051824015 0.04186538 -0.18386647
0.04009412 -0.111390814 0.07959233 -0.018850893 -0.085072674 -0.0075318175 0.14616616 -0.025148608
0.08575015 -0.013124169 0.10851903 -0.026095532 -0.029760893 0.058786977 0.008479937 0.15841828
-0.0049352343 -0.11192225 -0.037367113 -0.009391664 -0.03178619 0.10370994 0.0035969159 -0.045300066
-0.12690027 0.032628026 -0.052846447 0.037830118 -0.06959919 -0.07587668 0.08220852 -0.05018044
0.07834301 -0.07581804 -0.074008375 0.031069962 -0.18596981 -0.0036003415 0.13368247 -0.046395116
-0.05452982 -0.060529616 -0.028012738 0.03783546 -0.026515076 0.091310434 -0.00063494587 0.023693928
0.09588057 -0.15349492 0.13742925 -0.013396492 -0.053112566 0.046313975 -0.02425684 0.019737463
0.014921042 -0.050934702 -0.095753945 -0.029173657 -0.04672614 -0.07987086 0.13093075 0.037489597
-0.025437737 -0.014973469 0.042833924 0.043533277 -0.009038042 -0.080689296 -0.1595124 -0.16222183
-0.14934821 0.011495307 -0.061376683 0.13030343 0.0766007 -0.03658822 0.13552134 0.069591805
0.08293837 0.13174708 -0.0030142074 0.014929082 -0.020593677 0.06542649 0.06955198 0.07868609
-0.038759578 -0.16370206 -0.13757016 -0.021601023 -0.0074196537 0.116912186 -0.054887902 0.022337703
0.07613023 -0.15578932 0.009910559 0.024375353 -0.053961206 -0.05539937 0.11192244 0.061895136
0.003976564 0.00851235 -0.025476893 -0.034394052 -0.003930647 0.16973022 -0.050994825 0.06680542
0.06489949 -0.066077024 -0.018764053 0.0061742635 0.049247235 -0.121480785 -0.0062518916 0.09966365
-0.1483276 0.1337265 -0.002777322 0.05249805 0.026562924 0.039719693 -0.1510702 -0.07447375
0.05230156 -0.098780386 0.15181324 -0.06545132 0.13502778 -0.058651213 0.0229957 -0.15833123
00000000: 0d8f 17be a876 973d feae ab3d 90f3 e9bc
00000010: 44d9 593e c30d a2bd 29e8 f23d 4e9d bd3d
00000020: 161c bbbd 1a9d c33d 23b3 6dbd 3acb e3bc
00000030: d9b3 adbd 1a5f 15bd f323 71bd 3b35 0b3e
00000040: 9e7e 54bd 3b01 88bd 9f3d efbd 5bc4 8f3d
00000050: 948f 843d 3814 a0bd 4fc7 cfbc ef8f 86bd
00000060: 00f8 18bb 433e 87bc 46b6 bc3d 07b4 77bd
00000070: 76d1 84bc a06a 0a3b 6567 cabc 3c1d 043e
00000080: 5507 16be 3906 953d 65ce 43be 4abf 97bd
00000090: 3a69 1dbd 12b8 9b3d c5c1 bc3c 4cfa 33bc
000000a0: b5cd 843d af6e bfbd bd97 45bd 5b28 be3d
000000b0: a6ee 913c 3279 0a3d e6bd c83c b853 5bbd
000000c0: 0f95 f53a 75af 27bd 4cc3 ab3c 2dca ee3d
000000d0: 07d8 a33d 81c7 7c3e 5529 683c 2f49 633e
000000e0: 9ed7 11be 25ba b63c 90d5 1b3d 1189 92bd
000000f0: 5692 433d da22 40bd df6e 0bbe 864a e9bd
00000100: 6e90 4e3d 30fb 633d 61f2 6f3e 33f5 e03d
00000110: 47fc 4c3d b844 ba3c b509 8dbd 0b83 0c3e
00000120: dca3 a5bd c6c3 d5bd d41e 2f3d 5fb1 04bd
00000130: 01a3 1fbd cf75 afbd 9f78 a83d fe5f e0bd
00000140: 8578 0f3e f1e4 af3d 1603 063e 298b 2a3e
00000150: f8c0 4b3d a904 9bbd 0bca 3cbd bbb7 bcba
00000160: 3dbc 28bd 985c 1abe 0bb0 a93d d40f 3ebc
00000170: c1de d3bd 59a1 e5bd 582b 963c b800 393d
00000180: bb0a 983d 53ba 923d 9c49 c23d 8a87 36bd
00000190: a956 a1bc 3d73 bd3c 75fa 033d e5f9 72bd
000001a0: 9938 e2bd 8bae 49bd 1f04 153d b972 933a
000001b0: 372d a9ba a5d6 b4bb 9a06 e13d 4e45 c33c
000001c0: 77f8 bdbc 78da 2c3e 8092 533d 7241 94bd
000001d0: 9e9a a93d 6b45 543d 087b 2b3d 7e47 3cbe
000001e0: bb39 243d de20 e4bd 4e01 a33d 306d 9abc
000001f0: 953a aebd 77cd f6bb 95ac 153e 7404 cebc
00000200: c69d af3d c106 57bc 3a3f de3d 4cc6 d5bc
00000210: 1ecd f3bc 9dca 703d 6fef 0a3c 6738 223e
00000220: bfb7 a1bb 7e37 e5bd 420e 19bd 7edf 19bc
00000230: 3c32 02bd e165 d43d 3cba 6b3b 908c 39bd
00000240: 25f2 01be f7a4 053d 8475 58bd c1f3 1a3d
00000250: 058a 8ebd 3c65 9bbd f15c a83d 018a 4dbd
00000260: 4d72 a03d 7d46 9bbd b491 97bd 6f86 fe3c
00000270: df6e 3ebe b5f3 6bbb 0fe4 083e ce08 3ebd
00000280: a95a 5fbd e7ed 77bd f87a e5bc 5bf9 1a3d
00000290: 2536 d9bc f700 bb3d 7f72 26ba c519 c23c
000002a0: 085d c43d c62d 1dbe 41ba 0c3e f67c 5bbc
000002b0: 908c 59bd b9b3 3d3d 48b6 c6bc 76b0 a13c
000002c0: 6377 743c e8a0 50bd a51a c4bd 98fd eebc
000002d0: e963 3fbd 5593 a3bd b612 063e b18e 193d
000002e0: cd62 d0bc 4853 75bc a072 2f3d f34f 323d
000002f0: 4c14 14bc 6e40 a5bd 3857 23be 7b1d 26be
00000300: bdee 18be d056 3c3c 1e66 7bbd 436e 053e
00000310: d4e0 9c3d 88dd 15bd 1bc6 0a3e 2686 8e3d
00000320: 98db a93d b5e8 063e 028a 45bb 1c99 743c
00000330: 12b4 a8bc 53fe 853d 4571 8e3d 2c26 a13d
00000340: 5dc2 1ebd 83a1 27be 31df 0cbe a1f4 b0bc
00000350: 9120 f3bb a86f ef3d 23d2 60bd 8ffd b63c
00000360: 2bea 9b3d 3c87 1fbe e65f 223c d2ae c73c
00000370: 6d06 5dbd 73ea 62bd 9837 e53d c185 7d3d
00000380: d64d 823b 6277 0b3c ebb4 d0bc c7e0 0cbd
00000390: a8cc 80bb c2cd 2d3e f3df 50bd 48d1 883d
000003a0: 06ea 843d 6453 87bd 12b7 99bc 7a51 ca3b
000003b0: 78b7 493d ebca f8bd abdc ccbb 751c cc3d
000003c0: 31e3 17be 9aef 083e bb03 36bb 3208 573d
000003d0: 7d9a d93c 1eb1 223d 26b2 1abe b285 98bd
000003e0: 293a 563d 5f4d cabd ee74 1b3e 570b 86bd
000003f0: b944 0a3e 413c 70bd 7a61 bc3c 9521 22be

network_body._body_endoder.seq_layers.2.bias f4 [256]
0.00025600387 0.0033743007 0.033289533 0.016617112 -0.029824106 0.043750808 0.022412224 -0.012570952
0.023226403 -0.017869567 -0.019580271 0.039031517 -0.0061846483 -0.026564438 0.01040476 0.012292955
0.017698603 0.02015504 -0.025631057 0.045721143 0.050080363 0.0626907 0.031337596 0.066644356
-0.0844666 -0.046457622 -0.049017787 -0.07570216 0.015686022 -0.0054630484 0.0006046984 -0.07920289
-0.030662857 -0.029448196 0.010661261 -0.005084603 -0.0045169313 -0.022245668 -0.04078491 0.014083629
-0.037053075 -0.056959417 0.018528054 0.015786137 0.009423956 -0.007541398 0.0472769 0.04461322
0.010745253 -0.0066620577 0.013010653 0.040187746 0.009621489 0.05023246 0.05273397 0.023034742
0.08007979 0.013066179 0.02268182 -0.08274096 0.0019148358 0.10771267 -0.07502412 -0.013924662
-0.06282043 0.066576354 -0.047927443 -0.00572389 -0.04506796 0.04932507 0.010375314 -0.021319019
-0.0027492633 -0.009044426 0.05673808 0.013219783 0.032656606 -0.030127985 0.006158817 -0.018660683
0.06319258 0.06988792 -0.06641018 -0.03857014 0.016188694 -0.011023473 0.04694286 0.00056475215
-0.08351536 -0.026705356 -0.023494616 -0.03708474 0.037466113 -0.008396301 0.002814438 -0.053553566
0.048167773 -0.06607557 -0.04701114 0.052626915 0.051227517 0.036294978 -0.0016489136 -0.101909906
-0.0066321474 -0.111512676 -0.006037651 0.01208402 0.02631778 0.05310258 0.05271602 0.024668533
0.04565295 0.08785045 0.08181729 -0.009629654 0.026679453 0.04781863 0.03727867 -0.004659347
0.003111794 -0.069993906 -0.007816945 0.026395157 0.017403882 -0.065045156 0.031567182 0.009954091
-0.053564593 0.027965758 0.056341745 0.017361864 0.03927797 0.007371201 0.01713932 -0.06270257
0.026278157 0.008949322 0.07855882 -0.01899969 -0.027270399 0.004538864 -0.037254836 -0.008918755
0.026966445 -0.0149472775 0.045765273 -0.008081406 0.045829467 0.04839511 0.048733383 -0.008177949
0.04490855 -0.030815324 -0.045609467 -0.0124757225 -0.026733886 0.031272806 0.02796882 -0.012520061
0.06352875 -0.10995144 -0.018840298 0.061049502 0.0014028214 0.06688494 -0.01987145 0.020134069
0.014006414 -0.039821725 0.016311027 0.035997555 0.0032947934 0.009690341 0.027748046 0.017164964
-0.003400711 -0.026806949 0.01131914 0.03113622 0.015195182 0.0269645 -0.033690497 -0.07768558
-0.017169824 0.015707009 0.009185849 -0.04416091 -0.02889083 -0.034754038 0.03254167 0.0404231
0.015005574 -0.027120858 0.0835991 -0.08498849 0.018085953 -0.015564283 0.014189241 -0.020164235
0.057765808 0.04040189 0.0788739 -0.03395085 -0.005577939 0.005032315 -0.018944472 -0.00024253197
0.07284164 -0.091240324 0.016793747 -0.06510637 -0.019875279 0.010966016 0.0127104735 -0.06947356
-0.014296973 0.0005092935 -0.01893384 -0.052329894 -0.004696108 0.03237332 0.016787492 -0.04051732
-0.048099585 -0.043660212 0.07514114 -0.035697814 0.0132661415 0.013816231 -0.062475786 0.03145387
0.06340335 -0.004373539 0.03961705 0.012401735 -0.003709661 0.029665608 0.048823465 -0.00049325946
0.0049204743 -0.02529282 -0.006146669 0.013832661 0.046928685 -0.05116726 0.0016265116 -0.03706915
-0.07548624 -0.043602254 -0.04178822 0.031608976 0.0041626175 0.03449297 0.010049476 0.06199046
00000000: 4238 8639 5f23 5d3b 9b5a 083d 9c20 883c
00000010: af51 f4bc 0c34 333d d799 b73c 65f6 4dbc
00000020: 4c45 be3c 3363 92bc ce66 a0bc 83df 1f3d
00000030: 97a8 cabb aa9d d9bc ba78 2a3c 6468 493c
00000040: a9fc 903c 2f1c a53c 39f8 d1bc 1846 3b3d
00000050: 1121 4d3d fb63 803d da5b 003d d67c 883d
00000060: d3fc acbd 594a 3ebd e0c6 48bd bc09 9bbd
00000070: f97f 803c 5f03 b3bb 9f84 1e3a 2035 a2bd
00000080: ac30 fbbc 583d f1bc 92ac 2e3c be9c a6bb
00000090: c402 94bb 8c3c b6bc 140e 27bd 05bf 663c
000000a0: f7c4 17bd 474e 69bd 25c8 973c ee51 813c
000000b0: f066 1a3c d51d f7bb 6ca5 413d 5abc 363d
000000c0: dc0c 303c 644d dabb a22a 553c e89b 243d
000000d0: 73a3 1d3c 8dc0 4d3d 93ff 573d 5bb3 bc3c
000000e0: df00 a43d 8713 563c 39cf b93c 1874 a9bd
000000f0: 3afb fa3a 7698 dc3d 3fa6 99bd 4424 64bc
00000100: ffa7 80bd 2f59 883d 914f 44bd 788f bbbb
00000110: 2e99 38bd 1609 4a3d 39fd 293c 39a5 aebc
00000120: fc2c 34bb 122f 14bc 3066 683d ca97 583c
00000130: efc2 053d f7ce f6bc e7cf c93b 4ade 98bc
00000140: 1d6b 813d 6621 8f3d 0f02 88bd b9fb 1dbd
00000150: 279e 843c cc9b 34bc 2847 403d e00b 143a
00000160: 1a0a abbd 31c5 dabc c877 c0bc 2be6 17bd
00000170: 1176 193d a490 09bc 6f72 383b fc5a 5bbd
00000180: 924b 453d a152 87bd c18e 40bd 528f 573d
00000190: f2d3 513d 0baa 143d 5c20 d8ba 24b6 d0bd
000001a0: 7c52 d9bb c260 e4bd 7dd7 c5bb 0efc 453c
000001b0: 6398 d73c 1782 593d c1ec 573d aa15 ca3c
000001c0: 96fe 3a3d f0ea b33d d38f a73d b2c5 1dbc
000001d0: de8e da3c 78dd 433d 85b1 183d 6fad 98bb
000001e0: 3def 4b3b f758 8fbd a512 00bc a83a d83c
000001f0: 9692 8e3c 6536 85bd 974c 013d 7c16 233c
00000200: 8c66 5bbd 7218 e53c 9ac6 663d 783a 8e3c
00000210: f0e1 203d 1e8a f13b c267 8c3c 346a 80bd
00000220: 4a45 d73c 2da0 123c 72e3 a03d 3da5 9bbc
00000230: 2c66 dfbc c0ba 943b 8798 18bd f81f 12bc
00000240: bce8 dc3c 6de5 74bc 5e74 3b3d e067 04bc
00000250: aeb7 3b3d f339 463d a89c 473d cefc 05bc
00000260: 07f2 373d 6b70 fcbc fed0 3abd f966 4cbc
00000270: 0601 dbbc ea17 003d de1e e53c f120 4dbc
00000280: 5c1b 823d 382e e1bd f856 9abc 0b0f 7a3d
00000290: e0de b73a f9fa 883d 73c9 a2bc 34f0 a43c
000002a0: 297b 653c 1b1c 23bd b49e 853c 2c72 133d
000002b0: 76ed 573b 3cc4 1e3c df4f e33c 8a9d 8c3c
000002c0: 77de 5ebb 3f9a dbbc ea73 393c 6311 ff3c
000002d0: 36f5 783c a8e4 dc3c 0cff 09bd 9e19 9fbd
000002e0: bba7 8cbc fcab 803c 3e80 163c 12e2 34bd
000002f0: 76ac ecbc 405a 0ebd 6a4a 053d b192 253d
00000300: f0d9 753c 902c debc 0136 ab3d 720e aebd
00000310: fe28 943c 5601 7fbc fe79 683c 772f a5bc
00000320: d79b 6c3d 747c 253d a488 a13d 0c10 0bbd
00000330: 25c7 b6bb 1ee6 a43b 7031 9bbc 2e50 7eb9
00000340: ff2d 953d 35dc babd 0a93 893c 7d56 85bd
00000350: 7bd1 a2bc ceaa 333c 973f 503c 2748 8ebd
00000360: da3d 6abc 1c82 053a 241b 9bbc df57 56bd
00000370: cfe1 99bb e399 043d ec85 893c 7df5 25bd
00000380: 1204 45bd 0dd5 32bd 99e3 993d df37 12bd
00000390: 3b5a 593c 795d 623c 9ce6 7fbd c6d5 003d
000003a0: 9ed9 813d e74f 8fbb 7d45 223d a630 4b3c
000003b0: c91d 73bb 4a05 f33c 1dfb 473d 154e 01ba
000003c0: ee3b a13b e332 cfbc ff69 c9bb 63a2 623c
000003d0: 4b38 403d c394 51bd ac30 d53a d2d5 17bd
000003e0: 8898 9abd 4798 32bd 202a 2bbd 6a78 013d
000003f0: 9166 883b 8048 0d3d 8fa6 243c b5e9 7d3d

network_body._body_endoder.seq_layers.4.weight f4 [256, 256]
0.06858668 -0.0057852943 0.025677994 0.009310299 -0.1472324 -0.22059226 -0.04788958 0.08292698
-0.056211248 -0.049550477 0.072003715 -0.17791171 -0.030037578 0.026797611 -0.04612012 0.012350573
-0.037133336 0.05829092 0.013201063 -0.009162117 0.00079170754 -0.015070249 -0.10409856 -0.244124
0.109413326 0.09454654 -0.0067931577 -0.01912392 0.007943937 -0.007739443 -0.13617013 -0.037486058
0.19516195 0.08627268 -0.13944228 0.13179642 0.07936452 -0.11475049 -0.007840465 0.20636368
-0.060491342 -0.04805903 -0.07141167 0.038785413 -0.029036045 -0.12989174 -0.047077984 0.0008998045
0.0348522 0.14772226 0.11836792 0.014953013 0.16163932 0.0010283362 -0.12028273 0.09137188
0.09593704 -0.13041416 -0.014972024 0.079659015 0.107483186 -0.028822042 0.044027783 0.009105352
-0.0068784496 -0.0007562 0.04632806 -0.06318132 0.09611164 -0.16481046 -0.01145044 0.09247367
-0.05016747 -0.045201376 0.08077576 0.002169259 -0.060653225 -0.083477214 -0.017937852 -0.058838356
-0.03857258 -0.08387132 -0.08363526 -0.0614551 0.011898895 -0.112037994 -0.016189111 0.005863053
0.04704815 0.030506086 0.1421406 0.05465954 0.011794226 -0.024216866 0.07434026 0.14963578
0.066953 0.063573234 0.05384133 -0.08959967 0.14377521 -0.08114437 0.058694143 -0.032588556
-0.10793553 -0.03260325 -0.03072052 -0.13689256 0.07653067 -0.059396002 0.02225033 0.12065632
-0.017021392 -0.03327878 -0.0029043746 -0.07992253 -0.18705553 -0.10550659 0.07231495 0.12016261
-0.06860239 0.08297631 0.055485945 -0.16968453 0.05528331 -0.04524258 -0.10181496 -0.08103137
0.037034757 -0.07736104 0.0384794 0.046123922 0.008928625 -0.02900974 0.11894726 -0.08261374
-0.046255916 0.00403429 0.047281757 -0.1382844 0.16863053 -0.19568437 -0.14052053 0.029913422
0.0046329414 -0.000753239 -0.20513605 0.05665439 0.06245177 -0.13928683 0.07367219 0.013350752
0.07485275 0.08329242 -0.09888473 -0.042187497 0.075516485 -0.09735245 0.032152884 0.086359225
0.15557632 -0.024088334 0.04707444 0.07505936 0.1059339 0.11868496 0.075617366 0.0034731082
-0.2707006 -0.1599921 -0.123250976 -0.16631584 0.0009872984 0.05404661 0.2267795 0.038161468
-0.1349311 0.1591277 0.17335378 0.055204254 -0.045386266 0.023773022 0.015746515 0.1263471
-0.09210198 0.07166658 0.10797835 0.09792051 0.043143105 -0.10867767 -0.08953848 0.08800273
0.01091211 0.047106367 -0.20460686 0.18564788 -0.060475722 0.006186432 -0.009684953 0.086204484
0.1566392 -0.0911435 0.026052339 0.0804149 -0.026433758 -0.0672064 -0.08866405 0.021767635
0.24140249 -0.009648152 0.034019023 0.13079546 -0.017195856 -0.0655315 0.08555946 0.08641874
-0.016011985 -0.16178639 -0.03439524 0.122874424 -0.00957367 0.02589114 0.0070718764 -0.032813415
0.19623229 -0.06625085 -0.06637571 -0.21988851 0.00021918146 0.06107934 0.10781183 0.0026821338
0.078591034 -0.091410406 0.095290564 -0.17336725 0.1588389 -0.044059567 -0.038356457 -0.020442905
-0.08083216 0.11169355 0.16468224 0.054319274 -0.18095307 0.02538956 -0.048875567 0.20924443
0.034638144 -0.07172028 -0.12965634 -0.14614727 0.08036057 0.0071429536 0.1095746 0.01463184
00000000: 2c77 8c3d 9192 bdbb a85a d23c 398a 183c
00000010: 17c4 16be f0e2 61be dd27 44bd 9fd5 a93d
00000020: c43d 66bd 71f5 4abd af76 933d 7d2e 36be
00000030: 5e11 f6bc aa86 db3c 73e8 3cbd 0f5a 4a3c
00000040: 2019 18bd 76c2 6e3d 4549 583c b41c 16bc
00000050: 988a 4f3a 35e9 76bc a031 d5bd a4fb 79be
00000060: 1814 e03d 9ea1 c13d 2399 debb c4a9 9cbc
00000070: 4927 023c 279b fdbb 2f70 0bbe fb8a 19bd
00000080: 89d8 473e bbaf b03d f5c9 0ebe a4f5 063e
00000090: de89 a23d 4e02 ebbd 4b75 00bc 0051 533e
000000a0: c5c5 77bd 8cd9 44bd 4840 92bd 74dd 1e3d
000000b0: 00dd edbc 5702 05be d8d4 40bd dce0 6b3a
000000c0: 2ec1 0e3d 8144 173e e16a f23d 7bfd 743c
000000d0: c784 253e 3dc9 863a cb56 f6bd 2e21 bb3d
000000e0: a47a c43d 4a8b 05be 384d 75bc 4424 a33d
000000f0: 2520 dc3d 341c ecbc 7a56 343d 9d2e 153c
00000100: 9e64 e1bb b93b 46ba 7ec2 3d3d 3565 81bd
00000110: 2ed6 c43d 13c4 28be a09a 3bbc d662 bd3d
00000120: 687c 4dbd 1425 39bd c36d a53d 202a 0e3b
00000130: 846f 78bd 1af6 aabd 67f2 92bc 7d00 71bd
00000140: 48fe 1dbd bac4 abbd f748 abbd 58b8 7bbd
00000150: 95f3 423c 2d74 e5bd 079f 84bc da1e c03b
00000160: 90b5 403d e6e7 f93c 4e8d 113e afe2 5f3d
00000170: 923c 413c 7362 c6bc b53f 983d 1f3a 193e
00000180: a81e 893d af32 823d ba88 5c3d 0880 b7bd
00000190: cf39 133e 052f a6bd 4569 703d 947b 05bd
000001a0: 4e0d ddbd fc8a 05bd 9aa9 fbbc 902d 0cbe
000001b0: 1dbc 9c3d 3949 73bd 5346 b63c a91a f73d
000001c0: 7270 8bbc 544f 08bd 5257 3ebb 6cae a3bd
000001d0: 7c8b 3fbe d713 d8bd dc19 943d d117 f63d
000001e0: 697f 8cbd 7cef a93d 3b45 633d c8c1 2dbe
000001f0: c170 623d 4950 39bd 5d84 d0bd c6f3 a5bd
00000200: c2b1 173d 776f 9ebd 939c 1d3d 70ec 3c3d
00000210: 5e49 123c d6a5 edbc 9f9a f33d 6431 a9bd
00000220: d876 3dbd 1432 843b 84aa 413d 6d9a 0dbe
00000230: 7bad 2c3e 7c61 48be 9de4 0fbe fe0c f53c
00000240: eecf 973b 0375 45ba 2f0f 52be 6f0e 683d
00000250: 6dcd 7f3d 35a1 0ebe 72e1 963d 1dbd 5a3c
00000260: 664c 993d 3795 aa3d 1484 cabd cccc 2cbd
00000270: 63a8 9a3d b960 c7bd beb2 033d 1bdd b03d
00000280: 664f 1f3e e654 c5bc 21d1 403d b9b8 993d
00000290: dff3 d83d 1a11 f33d 47dd 9a3d 169d 633b
000002a0: 4599 8abe f8d4 23be 026b fcbd b34e 2abe
000002b0: 3d68 813a fa5f 5d3d e338 683e 334f 1c3d
000002c0: 612b 0abe 5ff2 223e a783 313e db1d 623d
000002d0: f3e6 39bd a4bf c23c d6fe 803c 2261 013e
000002e0: f69f bcbd eec5 923d c123 dd3d 8c8a c83d
000002f0: d3b6 303d 6692 debd f35f b7bd c63a b43d
00000300: b5c8 323c 9bf2 403d 7684 51be 7a1a 3e3e
00000310: 64b5 77bd 8eb7 ca3b a3ad 1ebc fa8b b03d
00000320: 0766 203e 71a9 babd b76b d53c 91b0 a43d
00000330: 9c8b d8bc 82a3 89bd 7f95 b5bd 0a52 b23c
00000340: 3732 773e 4813 1ebc 8857 0b3d 3fef 053e
00000350: 53de 8cbc 6135 86bd cc39 af3d 4ffc b03d
00000360: 912b 83bc 55ab 25be 06e2 0cbd 96a5 fb3d
00000370: e2da 1cbc a819 d43c 33bb e73b 5c67 06bd
00000380: 1ef1 483e 87ae 87bd fdef 87bd 742a 61be
00000390: 13d4 6539 542e 7a3d 73cc dc3d bdc6 2f3b
000003a0: 56f4 a03d 6135 bbbd b327 c33d 2f87 31be
000003b0: aaa6 223e ce77 34bd a91b 1dbd e177 a7bc
000003c0: 558b a5bd 97bf e43d 76a2 283e e37d 5e3d
000003d0: c34b 39be c4fd cf3c bf31 48bd 2c44 563e
000003e0: bae0 0d3d 15e2 92bd a2c4 04be a1a7 15be
000003f0: 1594 a43d 700f ea3b a668 e03d 63ba 6f3c

network_body._body_endoder.seq_layers.4.bias f4 [256]
-0.07257007 -0.0021636416 0.012489436 -0.055398878 -0.012264581 0.02188863 0.04997813 -0.0326368
0.021043714 0.04163865 0.12207778 0.014878129 -0.0789601 0.014242135 0.06332177 0.11649124
0.03417487 0.034455515 -0.105350405 -0.007194907 0.04848105 -0.07021578 -0.00921061 0.027571589
0.014921286 -0.018069297 0.036881182 -0.010036606 0.08621216 -0.029025346 0.119478114 0.054762185
0.038288265 0.062105242 -0.056871187 0.061636254 -0.07308837 0.04846886 0.040635187 0.02483167
0.037163623 -0.059591204 0.015442585 0.09686882 0.019014413 0.062201887 0.034063257 -0.014875166
0.06659326 -0.0209192 -0.06659701 0.069627926 -0.018463086 0.020754669 -0.0129855415 0.05991576
0.059628043 -0.0089442115 -0.053444684 0.04741608 0.05004538 0.044981863 0.010510962 0.027600255
0.04903724 0.0056760428 0.03653746 -0.078140676 0.05045596 -0.07232252 -0.00999014 -0.025190359
0.06165191 0.0743561 -0.041073926 0.009638985 0.015040144 -0.042423904 -0.02868336 0.068946704
-0.044340797 0.05571268 -0.0019266638 0.035570443 -0.016927486 0.027374797 0.0615936 -0.07309246
0.009843477 -0.021212092 0.052225996 0.06437203 0.06516695 -0.031125674 -0.0690905 0.036276683
-0.063319154 -0.011151295 0.018477902 -0.0057312176 -0.010201237 0.038945027 0.022456571 -0.030960493
0.0084689725 0.07194086 -0.041230746 0.028236598 0.04471127 -0.011728932 -0.07749462 0.004400629
-0.04874172 -0.047012378 0.077511966 0.030611705 -0.09071422 -0.053317863 0.040193383 -0.003825354
0.07747682 -0.05176487 0.058711432 -0.052397072 0.03997805 -0.0328049 -0.07019454 0.041023478
-0.06592856 0.030068494 0.018773114 0.007266411 -0.0031889214 -0.0077581136 -0.04585073 -0.026544847
-0.010011125 -0.0621286 -0.049505696 0.021631498 0.03122341 -0.0069411723 -0.12699607 -0.045344345
-0.048676435 0.052320544 -0.008265365 -0.007861341 0.051018696 0.036932632 0.062292278 0.06195237
0.015307448 -0.041770015 -0.097963296 -0.06675938 0.01906027 0.104137585 -0.01990588 0.019698098
0.11779189 -0.061436366 -0.055799153 -0.036294125 -0.0046472684 0.08646201 -0.049497765 0.025768632
-0.021949029 -0.032360926 0.06266764 0.05049834 -0.0029127041 0.09148599 0.0476023 0.053424045
0.03392623 -0.030533511 -0.01929061 -0.07233226 0.059921265 -0.06803672 0.004347237 0.050447766
0.065064795 0.05369838 0.028072562 0.0059908223 -0.036647145 0.0065704305 0.0011120804 0.12582289
0.0004960624 0.05973275 0.0139126545 0.001976251 -0.04622048 0.020176593 0.032033384 -0.008277712
-0.015720056 -0.0074824514 0.0064397715 0.1255896 0.026250158 0.04493542 -0.053738154 0.06810608
0.047296673 0.0147599 -0.0328272 0.04014422 0.024266213 0.0772742 0.04861711 0.06558981
0.082930885 -0.07357272 0.039616942 0.10926081 0.1050616 0.011047289 0.112631544 -0.0087052155
-0.06498064 -0.017154219 0.08163443 0.061019994 -0.0101263765 0.034159306 -0.0051341318 -0.0082699405
0.004306779 0.025002271 0.047469623 -0.06202262 0.105473354 -0.0698107 0.0594014 0.009409456
0.037767448 0.033814635 0.03394533 -0.06843878 0.047463253 -0.004882252 0.03262075 0.052364927
-0.06415216 -0.09943319 -0.014185352 0.02401398 0.05655978 -0.0089233 0.07090111 -0.004832683
00000000: 9e9f 94bd e2cb 0dbb 7ea0 4c3c efe9 62bd
00000010: 62f1 48bc c94f b33c deb5 4c3d 2aae 05bd
00000020: de63 ac3c 4a8d 2a3d ea03 fa3d 65c3 733c
00000030: d5b5 a1bd d857 693c d8ae 813d f692 ee3d
00000040: f3fa 0b3d 3a21 0d3d f4c1 d7bd 41c3 ebbb
00000050: 1194 463d 4acd 8fbd 19e8 16bc d0dd e13c
00000060: 6978 743c 1006 94bc b910 173d 9470 24bc
00000070: 0090 b03d 90c6 edbc f1b0 f43d 504e 603d
00000080: 28d4 1c3d 1162 7e3d c3f1 68bd 4c76 7c3d
00000090: 5baf 95bd 4987 463d 1571 263d c96b cb3c
000000a0: e238 183d e815 74bd e502 7d3c 2963 c63d
000000b0: 1dc4 9b3c 68c7 7e3d ea85 0b3d f8b6 73bc
000000c0: 0c62 883d be5e abbc 0364 88bd 1699 8e3d
000000d0: e63f 97bc b205 aa3c 4fc1 54bc 3a6a 753d
000000e0: 893c 743d be8a 12bc d0e8 5abd 5d37 423d
000000f0: 62fc 4c3d e73e 383d 2c36 2c3c ee19 e23c
00000100: 46db 483d 19fe b93b 4ea8 153d 3808 a0bd
00000110: e9aa 4e3d d41d 94bd afad 23bc 035c cebc
00000120: b786 7c3d 0348 983d 223d 28bd d5ec 1d3c
00000130: f06a 763c b0c4 2dbd 5ef9 eabc ee33 8d3d
00000140: b29e 35bd fb32 643d 1c88 fcba 50b2 113d
00000150: 83ab 8abc 1c41 e03c 9249 7c3d 80b1 95bd
00000160: 8946 213c fbc4 adbc edea 553d 7cd5 833d
00000170: 4076 853d 45fb febc 527f 8dbd dc96 143d
00000180: 79ad 81bd ecb3 36bc f85e 973c f0cc bbbb
00000190: 1723 27bc d284 1f3d d8f6 b73c dca0 fdbc
000001a0: 72c1 0a3c bb55 933d 92e1 28bd 7050 e73c
000001b0: 2a23 373d b52a 40bc 80b5 9ebd 2733 903b
000001c0: 66a5 47bd 0d90 40bd 98be 9e3d 66c5 fa3c
000001d0: 61c8 b9bd d563 5abd d1a1 243d cab2 7abb
000001e0: 2bac 9e3d 6607 54bd 667b 703d 509e 56bd
000001f0: 06c0 233d 6e5e 06bd 28c2 8fbd 3c08 283d
00000200: 8e05 87bd 3452 f63c 13ca 993c 131b ee3b
00000210: 39fd 50bb c637 febb facd 3bbd 9474 d9bc
00000220: b405 24bc 8f7a 7ebd 7cc6 4abd 8a34 b13c
00000230: 3dc8 ff3c c672 e3bb 420b 02be feba 39bd
00000240: f160 47bd 114e 563d 746b 07bc dbcc 00bc
00000250: fbf8 503d ac46 173d 3026 7f3d c5c1 7d3d
00000260: 17cc 7a3c 0917 2bbd fba0 c8bd 24b9 88bd
00000270: 4924 9c3c 1646 d53d a811 a3bc e85d a13c
00000280: e03c f13d b3a4 7bbd a78d 64bd 26a9 14bd
00000290: 1d48 98bb ff12 b13d 2bbe 4abd bd18 d33c
000002a0: 73ce b3bc e48c 04bd e457 803d 59d7 4e3d
000002b0: 11e3 3ebb 025d bb3d a1fa 423d 2cd3 5a3d
000002c0: 3bf6 0a3d 6a21 fabc 5707 9ebc f022 94bd
000002d0: 0070 753d d656 8bbd 4473 8e3b 51a2 4e3d
000002e0: b140 853d d5f2 5b3d 6ef8 e53c a94e c43b
000002f0: 511b 16bd c44c d73b 3ac3 913a b7d7 003e
00000300: 2f0a 023a 54aa 743d e7f1 633c fd83 013b
00000310: b051 3dbd 6249 a53c 7035 033d 3e9f 07bc
00000320: 59c7 80bc 5a2f f5bb b804 d33b 8f9a 003e
00000330: 920a d73c 340e 383d 8a1c 5cbd 337b 8b3d
00000340: 28ba 413d 82d3 713c d075 06bd 446e 243d
00000350: f0c9 c63c f041 9e3d bc22 473d f353 863d
00000360: abd7 a93d 4bad 96bd 6045 223d 22c4 df3d
00000370: 892a d73d b0ff 343c 5eab e63d 52a0 0ebc
00000380: 9214 85bd 0187 8cbc f42f a73d 1af0 793d
00000390: 1ae9 25bc a1ea 0b3d 383c a8bb a57e 07bc
000003a0: e11f 8d3b 90d1 cc3c 826f 423d 6e0b 7ebd
000003b0: 6a02 d83d eaf8 8ebd e24e 733d 1e2a 1a3c
000003c0: 0ab2 1a3d 3781 0a3d 420a 0b3d a229 8cbd
000003d0: d468 423d 4cfb 9fbb 569d 053d 9b7c 563d
000003e0: 3562 83bd a1a3 cbbd ae69 68bc f7b8 c43c
000003f0: 3aab 673d 0833 12bc 9a34 913d 7c5b 9ebb

action_model._continuous_distribution.log_sigma f4 [1, 39]
-1.0109808 -1.2257973 -0.46309048 -0.37983546 -0.5765642 -0.33660942 -2.510406 -1.7359673
-2.4179015 -1.7081728 -1.5835137 -1.658222 -0.00536846 -0.15964086 0.0506873 0.20973048
-0.31044385 0.40408975 -2.3570573 -2.3653855 -2.2829485 -2.410566 -1.5919002 -1.4891714
-0.7474042 -0.8791892 -0.12099132 0.14899975 0.509201 -0.12706609 0.12745866 0.12231203
-0.1293728 0.52275175 0.40149626 0.3644049 0.50949335 0.48294646 0.12854777
00000000: d267 81bf ede6 9cbf 321a edbe cb79 c2be
00000010: b699 13bf 1258 acbe 7eaa 20c0 2d34 debf
00000020: e6be 1ac0 68a5 dabf 94b0 cabf 9e40 d4bf
00000030: e8e9 afbb e578 23be 7c9d 4f3d 96c3 563e
00000040: 7ff2 9ebe dae4 ce3e 07da 16c0 7a62 17c0
00000050: d41b 12c0 b746 1ac0 63c3 cbbf 2b9d bebf
00000060: e255 3fbf 8b12 61bf 4cca f7bd 6493 183e
00000070: ff5a 023f 9d1d 02be 8684 023e bb7e fa3d
00000080: 4e7a 04be 0fd3 053f eb90 cd3e 4793 ba3e
00000090: 286e 023f c244 f73e 07a2 033e
