Assets/Brains/ArvidTests/fresh12/Zombie Walker/Zombie Walker-3999987.onnx (onnx, 222824 bytes, 7 tensors)

network_body._body_endoder.seq_layers.0.weight f4 [128, 257]
-0.11340536 -0.7282369 -0.5143493 0.08287539 0.03934047 0.038510796 0.11462648 0.3751173
-0.21733625 -0.07000054 -0.114287145 0.048360493 0.03490439 -0.7280619 -0.6015721 -0.43986648
-0.10630786 0.035568796 0.18454015 0.07326859 0.07312746 0.16488467 -0.17547834 -0.3165485
-0.048821755 0.16888128 -0.26367086 -0.686714 -0.46540418 0.086603016 -0.5996754 -0.56193835
-0.40722027 -0.0021006681 -0.30653706 0.17241117 -0.20520969 0.016213803 -0.0002082852 0.0155007485
-0.32120672 -0.58176184 0.03199649 -0.42000228 -0.4340161 -0.36553654 0.05350109 -0.6886909
-0.5313191 0.22106051 0.05968503 -0.15490328 -0.202898 0.42857805 -0.40632394 0.0614262
-0.4819985 -0.14353174 -0.17029205 0.2676772 -0.35983318 -0.3960707 -0.5087 -0.011896726
-0.5533041 -0.48739344 0.32598135 -0.031272464 0.32581335 -0.09102869 0.14502348 0.0042433497
-0.002919564 0.18814024 0.3577416 0.52320206 -0.049542382 0.195707 -0.4699789 -0.65585876
0.0024052425 -0.756238 -0.5508371 0.38940084 -0.30015352 -0.14976805 0.38411072 0.19000106
0.044132598 0.029763397 -0.057110135 0.16606978 -0.678352 0.02865268 -0.010204348 -0.52522653
-0.42428872 0.027501028 -0.816344 -0.5392255 0.29851574 0.021502746 -0.15467075 0.009667576
0.16126317 0.05574961 -0.13766742 -0.244009 0.09195885 -0.26668784 -0.032422133 0.44878668
-0.49432963 -0.45272747 -0.068204805 -0.7569872 -0.6992746 0.33487588 -0.07113679 -0.17300342
-0.29209617 0.29364786 0.012936325 -0.42046022 0.16134305 0.34933472 0.16972585 -0.33748487
0.045662273 -0.4609313 -0.17591208 0.092949525 -0.6447071 -0.60211056 0.11464341 -0.2797238
-0.5862927 0.20248787 0.027330797 -0.16017543 -0.34247532 0.014957072 0.42596528 -0.6083696
-0.15240838 0.29179114 -0.59590757 -0.44389093 -0.03738986 -0.6587713 -0.6131713 0.047238324
0.077886134 -0.35482043 -0.072755106 -0.26415607 0.036809344 -0.33808213 -0.116630554 0.2672647
0.15142265 0.4062738 0.05172291 -0.5131851 -0.21769565 0.026146282 -0.7290859 -0.6688481
-0.31328535 -0.18146229 -0.33726275 0.21585225 -0.09502542 -0.22745067 0.15902592 -0.29893917
-0.3020674 0.004934683 0.19645633 -0.16844904 -0.5278583 -0.3219439 -0.0598982 -0.74417377
-0.6168665 0.15065014 0.32628694 -0.016864918 0.0627981 0.1160824 -0.06662735 0.028210647
-0.45255008 0.027372124 -0.43047255 -0.7887471 -0.11999647 -0.69903207 -0.3625053 -1.7758388e-05
-0.78275895 -0.6263488 0.31659633 0.1697889 0.19253592 -0.110222794 0.09444284 0.12751603
0.02291311 0.20597951 0.18135086 0.029297378 -0.6089196 -0.6331703 -0.1501369 0.3048217
-0.14621003 -0.04574777 0.12965553 0.21415605 -0.21065083 -0.2866893 -0.2933711 -0.14884377
-0.06859771 -0.22462279 -0.4366928 -0.43928048 -0.025139598 -0.77372444 -0.57409936 -0.08140696
-0.1820114 0.38212237 -0.03426974 -0.119960204 -0.14375511 -0.07849232 -0.1723941 -0.18486121
-0.3010777 0.0036406058 -0.052506562 -0.48221067 -0.20302564 -0.032297887 -0.7282933 -0.6321904
-0.2017851 -0.05133957 0.22455844 -0.05735677 0.026425514 -0.03975027 -0.21392602 0.16312279
00000000: 1241 e8bd bc6d 3abf 65ac 03bf 93ba a93d
00000010: 7923 213d 7fbd 1d3d 4ac1 ea3d 600f c03e
00000020: 658d 5ebe 715c 8fbd 610f eabd a715 463d
00000030: e8f7 0e3d 4462 3abf a100 1abf 2e36 e1be
00000040: efb7 d9bd 96b0 113d 18f8 3c3e d80d 963d
00000050: dac3 953d 87d7 283e 98b0 33be a512 a2be
00000060: 52f9 47bd 37ef 2c3e deff 86be 7dcc 2fbf
00000070: 7549 eebe ec5c b13d 5484 19bf 31db 0fbf
00000080: 2d7f d0be 5dab 09bb 6df2 9cbe 8e8c 303e
00000090: 7d22 52be cfd2 843c 2267 5ab9 daf6 7d3c
000000a0: 3575 a4be 58ee 14bf c00e 033d 8a0a d7be
000000b0: 5c37 debe 9b27 bbbe f523 5b3d 0c4e 30bf
000000c0: 8704 08bf b05d 623e 4a78 743d f79e 1ebe
000000d0: 7ec4 4fbe 956e db3e b109 d0be 0a9a 7b3d
000000e0: 82c8 f6be fcf9 12be 0a61 2ebe fc0c 893e
000000f0: 0e3c b8be c7c9 cabe 2a3a 02bf 7cea 42bc
00000100: 56a5 0dbf a28b f9be 07e7 a63e 8e17 00bd
00000110: 02d1 a63e 406d babd 0981 143e cc0b 8b3b
00000120: 2856 3fbb d6a7 403e e829 b73e 92f0 053f
00000130: f4ec 4abd 6a67 483e 13a1 f0be 5ce6 27bf
00000140: 46a1 1d3b d098 41bf a903 0dbf 8c5f c73e
00000150: b9ad 99be cc5c 19be 29aa c43e a38f 423e
00000160: 62c4 343d 5ed2 f33c 51ec 69bd 320e 2a3e
00000170: 7aa8 2dbf 06b9 ea3c 2330 27bc 3f75 06bf
00000180: 5f3c d9be d649 e13c ecfb 50bf af0a 0abf
00000190: 0ed7 983e 8726 b03c 0262 1ebe c164 1e3c
000001a0: 2c22 253e b459 643d b0f8 0cbe 7fdd 79be
000001b0: ec54 bc3d 4f8b 88be 12cd 04bd 5ec7 e53e
000001c0: c618 fdbe e5cb e7be f6ae 8bbd eac9 41bf
000001d0: a903 33bf da74 ab3e 2ab0 91bd cf27 31be
000001e0: a18d 95be 0359 963e e1f2 533c 9046 d7be
000001f0: 1d37 253e 00dc b23e 9dcc 2d3e d1ca acbe
00000200: 5d08 3b3d 30ff ebbe 4c22 34be 525c be3d
00000210: 860b 25bf eb23 1abf 2aca ea3d f537 8fbe
00000220: 4717 16bf fb58 4f3e d6e4 df3c 0705 24be
00000230: ed58 afbe 820e 753c 1f18 da3e 1cbe 1bbf
00000240: f110 1cbe a665 953e 668d 18bf ac45 e3be
00000250: 1c26 19bd 3ca5 28bf cbf8 1cbf f97c 413d
00000260: c482 9f3d 06ab b5be a100 95bd 773f 87be
00000270: 65c5 163d 1a19 adbe 00dc eebd ebd6 883e
00000280: 8a0e 1b3e 1f03 d03e 67db 533d 1960 03bf
00000290: 9ceb 5ebe ba30 d63c 60a5 3abf a139 2bbf
000002a0: f066 a0be 40d1 39be b4ad acbe 5f08 5d3e
000002b0: b09c c2bd d4e8 68be b1d7 223e 8e0e 99be
000002c0: 94a8 9abe 1fb3 a13b d92b 493e e87d 2cbe
000002d0: b921 07bf d5d5 a4be d157 75bd 2c82 3ebf
000002e0: f7ea 1dbf 0844 1a3e 150f a73e 4c28 8abc
000002f0: 4a9c 803d 9cbc ed3d ec73 88bd 041a e73c
00000300: a5b4 e7be 813b e03c e666 dcbe 54eb 49bf
00000310: b6c0 f5bd c4f3 32bf 4b9a b9be d9f7 94b7
00000320: e462 48bf 6558 20bf ea18 a23e 24dd 2d3e
00000330: 2328 453e 7dbc e1bd 3f6b c13d 9093 023e
00000340: 46b4 bb3c 4bec 523e 0ab4 393e 0e01 f03c
00000350: 28e2 1bbf 7317 22bf 7dbd 19be 9711 9c3e
00000360: 15b8 15be 0462 3bbd 6bc4 043e b94b 5b3e
00000370: dab4 57be f1c8 92be bd34 96be 806a 18be
00000380: f57c 8cbd 8403 66be 3396 dfbe 5fe9 e0be
00000390: 8ff1 cdbc ce12 46bf 2df8 12bf b1b8 a6bd
000003a0: 3261 3abe 8ba5 c33e 6d5e 0cbd b2ad f5bd
000003b0: 8a34 13be 95c0 a0bd 1488 30be 424c 3dbe
000003c0: db26 9abe 3b97 6e3b 1f11 57bd 51e4 f6be
000003d0: f4e5 4fbe ca4a 04bd 6e71 3abf 3bd7 21bf
000003e0: c1a0 4ebe 7149 52bd a6f2 653e efee 6abd
000003f0: 527a d83c 2ed1 22bd 6c0f 5bbe a909 273e

network_body._body_endoder.seq_layers.0.bias f4 [128]
-0.502577 -0.69953245 -0.55185497 -0.6448245 -0.45411304 -0.72720987 -0.63468367 -0.5114962
-0.408828 -0.68624717 -0.5484284 -0.66942114 -0.60757744 -0.52340317 -0.5750802 -0.872401
-0.57076377 -0.60086083 0.17761983 -0.63161767 0.07016084 -0.6701262 -0.509947 -0.18097137
-0.542572 -0.44085756 -0.5314555 -0.5165977 -0.49853832 -0.5723059 -0.5927437 -0.4635715
-0.8807481 -0.23602262 -0.5837174 -0.52998745 -0.5769346 -0.5335296 -0.6202764 -0.522656
-0.56098473 -0.73410314 -0.18714243 -0.6491111 -0.3346209 -0.15102418 -0.60734123 -0.19053453
-0.75066394 -0.6269026 -0.7233762 0.055538755 -0.11053168 0.053335685 -0.60100996 -0.5065827
-0.54912996 -0.3699139 -0.6512826 -0.465762 -0.41857404 -0.20989 -0.60622275 -0.05826628
-0.6448872 -0.4946432 -0.69205827 -0.5735896 -0.6065144 -0.57492036 -0.6835115 -0.5454064
-0.57711023 -0.36354053 -0.43943405 -0.6221922 -0.70149285 -0.36125335 -0.39600208 -0.56202054
-0.3847767 -0.6614087 -0.6259095 -0.45241883 -0.6492858 -0.46003774 -0.55606264 -0.5105796
-0.766322 -0.50026196 -0.58359396 -0.78659755 -0.7307937 -0.60594285 -0.51336443 -0.4075407
-0.2664604 -0.7614466 -0.6998981 -0.6093549 -0.6054163 -0.69125026 -0.692655 -0.49675074
-0.57856023 -0.5308597 -0.17800356 -0.53270084 -0.030419456 0.044121113 -0.5190379 -0.28354797
-0.66783416 -0.56897897 -0.604168 -0.6146891 -0.14851168 -0.6039332 -0.5409867 -0.639374
-0.79493666 -0.16405022 -0.58080226 -0.7550821 -0.50742835 -0.66861117 -0.03896507 -0.4557761
00000000: e3a8 00bf 8f14 33bf 5e46 0dbf 3813 25bf
00000010: 8181 e8be 6d2a 3abf a17a 22bf 6af1 02bf
00000020: e751 d1be e5ad 2fbf ce65 0cbf 2f5f 2bbf
00000030: 328a 1bbf c0fd 05bf 7538 13bf ac55 5fbf
00000040: 931d 12bf 04d2 19bf f9e1 353e b2b1 21bf
00000050: 7db0 8f3d 648d 2bbf e38b 02bf 8f50 39be
00000060: 00e6 0abf 15b8 e1be 780d 08bf bf3f 04bf
00000070: 6a40 ffbe a482 12bf 0dbe 17bf 3e59 edbe
00000080: b578 61bf eaaf 71be 816e 15bf 42ad 07bf
00000090: fcb1 13bf 6595 08bf 6fca 1ebf c9cc 05bf
000000a0: b29c 0fbf 2fee 3bbf 44a2 3fbe 252c 26bf
000000b0: 6e53 abbe 15a6 1abe b77a 1bbf 7c1b 43be
000000c0: 832b 40bf b07c 20bf 2f2f 39bf 9b7c 633d
000000d0: 6f5e e2bd 8576 5a3d cadb 19bf 67af 01bf
000000e0: c893 0cbf 5b65 bdbe 75ba 26bf 5b78 eebe
000000f0: 564f d6be 67ed 56be 6a31 1bbf 9fa8 6ebd
00000100: 5417 25bf e041 fdbe bb2a 31bf c5d6 12bf
00000110: 8744 1bbf fb2d 13bf 9cfa 2ebf c19f 0bbf
00000120: 7fbd 13bf fc21 babe 80fd e0be fd47 1fbf
00000130: 0995 33bf 33f6 b8be c9c0 cabe 94e0 0fbf
00000140: 7401 c5be 1552 29bf 9b3b 20bf 71a3 e7be
00000150: 9837 26bf 118a ebbe 1f5a 0ebf 58b5 02bf
00000160: ae2d 44bf 2b11 00bf 6a66 15bf 755e 49bf
00000170: 4c15 3bbf 121f 1bbf da6b 03bf 2da9 d0be
00000180: 7f6d 88be 2aee 42bf 862c 33bf affe 1bbf
00000190: 90fc 1abf c7f5 30bf d751 31bf 1d56 febe
000001a0: 861c 14bf 6ce6 07bf 9146 36be 155f 08bf
000001b0: 3932 f9bc 57b8 343d abdf 04bf 332d 91be
000001c0: 2ef7 2abf 9ba8 11bf c1aa 1abf 445c 1dbf
000001d0: 7213 18be 5e9b 1abf 1b7e 0abf 04ae 23bf
000001e0: f880 4bbf c8fc 27be 75af 14bf 0f4d 41bf
000001f0: d3e6 01bf 1a2a 2bbf d699 1fbd 7c5b e9be

network_body._body_endoder.seq_layers.2.weight f4 [128, 128]
0.29762432 0.1747962 -0.703525 -0.20370284 -0.01081236 -0.22941902 -0.07198349 -0.07012454
0.06790006 0.22312674 -0.2275586 0.053038582 0.13235813 0.11837125 0.023185078 -0.1528229
0.063822255 0.044341702 -0.87249714 0.2056868 -0.4367874 0.18864098 0.34418008 0.44980606
0.3880192 0.07264542 -0.2538575 -0.043082315 0.16364126 -0.20602965 -0.19770713 -0.2643768
0.0051158546 -0.55202556 -0.06203542 0.3208685 -0.41867054 0.04244957 -0.46957278 -0.10761347
0.0737137 -0.07233885 0.08493276 0.352612 0.17495781 -0.41087735 -0.14781645 0.04314585
-0.137375 -0.3011202 0.08906212 0.33078998 -0.23203363 0.02652878 -0.119516514 -0.45101294
0.030102478 -0.00929203 -0.123303324 -0.4147021 -0.3724959 -0.9812507 -0.02977516 0.09337821
0.077864796 0.0092310235 0.08287703 -0.46716106 -0.26548964 -0.17050676 0.20818348 -0.21737349
0.10868245 -0.22497515 -0.24718162 -0.21391995 0.36315292 0.38880232 0.19674537 -0.061753042
-0.0779662 0.3312335 0.016689045 0.13488042 0.062047552 0.025694842 0.3596623 -0.07534305
0.18117207 -0.16460049 0.08284078 0.12945598 -0.102693796 -0.48674226 0.40030363 -0.39282617
-0.25436875 -0.46340272 -0.048161805 -0.05974768 -0.3360534 0.02364107 -0.17768577 0.24936071
0.12994708 -0.029218785 0.31548542 0.2852219 -0.45277727 -0.28639624 -0.2791594 -0.46084076
0.16197768 -0.4924302 0.08914505 -0.08368358 -0.5145569 -0.31426892 -0.33348542 -0.33010623
-0.06792829 -0.22963904 0.0692173 -0.018426258 0.11844355 -0.12032847 0.032591123 -0.16637005
-0.02403188 -0.0066249394 -0.0336017 -0.20420057 -0.21772936 -0.15528291 -0.03638154 0.51399225
-0.23442264 -0.38873982 0.39499968 -0.09073065 0.11654327 -0.4733249 -0.41790876 0.025436008
0.2579334 -0.069336295 -0.24229285 0.45353413 -1.0109625 0.2448613 0.17044029 -0.30199698
0.607206 -0.03305119 0.014509162 0.13434258 0.17930304 -0.2748876 0.08787618 -0.0617111
-0.115558095 0.04759894 0.36245573 0.06572732 -0.085220434 0.16472636 -0.2934602 -0.1398564
0.08374326 -0.18149972 -0.4559258 -0.20580782 -0.12689744 -0.6217962 -0.25608796 -0.07399835
0.12905993 -0.12705247 -0.16141662 -1.0584137 0.0821102 -0.1849307 -0.0113934865 -0.37497264
-0.35982743 -0.82380813 -0.4912565 0.05471612 -0.16402617 -0.061615326 -0.30183274 -0.694417
0.051432945 0.08029743 0.5100706 -0.025380949 0.267321 0.24883819 0.21099801 -0.1455146
0.08636716 0.15685467 -0.018000757 -0.055090163 0.2296429 0.45514897 0.35199618 0.26881617
0.24145162 0.37772983 0.23711173 -0.49275285 -0.11562908 -0.06862665 0.4709509 0.3293054
0.015433474 -0.49841675 -0.2872301 -0.25921777 -0.29844567 -0.4191056 -0.040529303 0.29625735
0.076296575 0.27554673 -0.11004629 0.09814751 -0.2561554 -0.09576091 0.15313876 0.0061634355
0.0857484 0.12881142 -0.55354965 0.3159336 -0.125023 0.21835722 0.29634988 0.27121523
-0.17011225 -0.5988269 0.23677598 0.041594785 -0.007558516 0.30807367 0.09800754 -0.4235628
0.028396027 -0.12837799 0.26146087 -0.074079916 0.20501414 -0.18932287 -0.8693663 -0.26159018
00000000: 3762 983e c6fd 323e 371a 34bf 7a97 50be
00000010: 5326 31bc d2ec 6abe 146c 93bd 749d 8fbd
00000020: 300f 8b3d 567b 643e 1f05 69be fc3e 593d
00000030: e488 073e a06c f23d a2ee bd3c 9b7d 1cbe
00000040: 3eb5 823d a59f 353d f95b 5fbf 8f9f 523e
00000050: 99a2 dfbe 1a2b 413e 5f38 b03e fb4c e63e
00000060: 74aa c63e 1fc7 943d 9cf9 81be 1577 30bd
00000070: 9391 273e 70f9 52be bd73 4abe 655c 87be
00000080: e6a2 a73b 8c51 0dbf da18 7ebd e048 a43e
00000090: fc5b d6be 9adf 2d3d d86b f0be 7364 dcbd
000000a0: 35f7 963d 6426 94bd 3af1 ad3d 8f89 b43e
000000b0: 2428 333e 845e d2be 325d 17be b4b9 303d
000000c0: 08ac 0cbe 6d2c 9abe 3366 b63d 4e5d a93e
000000d0: 399a 6dbe e252 d93c 13c5 f4bd 2beb e6be
000000e0: 7999 f63c 993d 18bc 7486 fcbd d553 d4be
000000f0: c8b7 bebe 3f33 7bbf 09eb f3bc 133d bf3d
00000100: 9477 9f3d b83d 173c 6fbb a93d bc2f efbe
00000110: 42ee 87be 5399 2ebe 0d2e 553e 2897 5ebe
00000120: e894 de3d e35f 66be 2e1d 7dbe d50d 5bbe
00000130: 2eef b93e 1911 c73e 9e77 493e c2f0 7cbd
00000140: beac 9fbd 7097 a93e 77b7 883c 181e 0a3e
00000150: 9325 7e3d fd7d d23c a825 b83e 754d 9abd
00000160: 2c85 393e 088d 28be 6da8 a93d 1c90 043e
00000170: 2051 d2bd 4836 f9be 99f4 cc3e 8320 c9be
00000180: 9f3c 82be 1f43 edbe 5045 45bd fcb9 74bd
00000190: 310f acbe ebaa c13c 42f3 35be 6a58 7f3e
000001a0: d910 053e 3c5c efbc 4e87 a13e 9b08 923e
000001b0: 6cd2 e7be 87a2 92be fbed 8ebe 52f3 ebbe
000001c0: 7add 253e d01f fcbe ae91 b63d 4c62 abbd
000001d0: 00ba 03bf dbe7 a0be 9abe aabe af03 a9be
000001e0: fd1d 8bbd 7f26 6bbe cdc1 8d3d aaf2 96bc
000001f0: 8892 f23d c66e f6bd 457e 053d e95c 2abe
00000200: 81de c4bc 0516 d9bb f0a1 09bd f419 51be
00000210: 72f4 5ebe 7c02 1fbe cf04 15bd ff94 033f
00000220: 7d0c 70be e808 c7be 663d ca3e fed0 b9bd
00000230: 3dae ee3d a457 f2be 23f8 d5be 2d5f d03c
00000240: d90f 843e 3000 8ebd 9e1b 78be a035 e83e
00000250: 3867 81bf ecbc 7a3e e687 2e3e 599f 9abe
00000260: da71 1b3f af60 07bd d6b7 6d3c 1a91 093e
00000270: 379b 373e 11be 8cbe 6df8 b33d c7c4 7cbd
00000280: b9a9 ecbd 1bf7 423d cc93 b93e 0c9c 863d
00000290: 0d88 aebd 07ae 283e 6a40 96be 8436 0fbe
000002a0: 9681 ab3d 10db 39be 1b6f e9be 49bf 52be
000002b0: 67f1 01be 092e 1fbf f61d 83be 728c 97bd
000002c0: 4928 043e 0b1a 02be 664a 25be 1a7a 87bf
000002d0: 6429 a83d 795e 3dbe bfab 3abc 6afc bfbe
000002e0: 4d3b b8be 17e5 52bf f985 fbbe 031e 603d
000002f0: 7af6 27be 5a60 7cbd d289 9abe 50c5 31bf
00000300: 5aab 523d fb72 a43d fd93 023f b5eb cfbc
00000310: 4cde 883e 70cf 7e3e dd0f 583e c801 15be
00000320: 44e1 b03d 839e 203e 5376 93bc 39a6 61bd
00000330: 8227 6b3e 4909 e93e d838 b43e 46a2 893e
00000340: 183f 773e ce65 c13e 6bcd 723e 1a4a fcbe
00000350: f0ce ecbd 218c 8cbd 7a20 f13e b89a a83e
00000360: afdc 7c3c 7b30 ffbe d30f 93be 31b8 84be
00000370: dfcd 98be 0295 d6be 0e02 26bd 0baf 973e
00000380: 6141 9c3d 7614 8d3e f35f e1bd 9001 c93d
00000390: cd26 83be 4c1e c4bd 68d0 1c3e a5f6 c93b
000003a0: db9c af3d 24e7 033e 6eb5 0dbf 0cc2 a13e
000003b0: 0806 00be 0999 5f3e 2cbb 973e b9dc 8a3e
000003c0: e831 2ebe b84c 19bf 6775 723e 4b5f 2a3d
000003d0: 6ead f7bb d5bb 9d3e 2db8 c83d 39dd d8be
000003e0: c99e e83c 8575 03be 33de 853e 36b7 97bd
000003f0: 3aef 513e dbdd 41be ca8e 5ebf 26ef 85be

network_body._body_endoder.seq_layers.2.bias f4 [128]
-0.628161 -0.40234232 -0.6747572 0.33618656 -0.6525984 -1.3396131 -0.5629501 -0.69997597
-0.7411272 -1.2924029 -0.49357256 0.7464914 -0.59748137 -0.41482818 -0.6408542 -0.87605125
-0.66687363 -1.4413108 -0.10931597 -0.6807877 -0.3398179 -0.4679604 -1.4358904 -1.2396811
-0.52537227 -0.4152414 -0.7945208 0.18375419 -0.4085034 -0.29640552 -0.7507356 -0.53492725
-0.4210868 -0.42351964 -0.5691328 -0.0037296293 -0.28425196 -0.74973065 -0.7563433 -0.22186437
-0.99303967 -0.52229774 -0.9886124 -1.4139631 -0.52928656 0.10488921 -0.6803703 0.68329215
-0.44590142 -0.8341799 -0.8558701 -0.36707166 -0.8877887 -1.0123367 0.04565081 -0.96160185
-0.5132234 0.724771 -0.9311447 -1.4317739 -1.6672766 -0.55968535 -1.1356144 -1.2861611
-0.5749408 -1.1941574 -0.5193521 -0.61857814 0.46065792 -0.5786278 -0.20204541 -1.0762433
-1.1003895 0.44428647 -1.0529612 -0.95146483 -0.5922797 -0.36004636 0.06624913 -0.2718757
0.20714843 -0.7010225 -1.2764386 -0.8678156 -0.47760144 -0.44239667 0.235001 -0.4068534
-0.7285448 -0.3994822 -0.7549526 -0.5436124 -0.5625831 -0.23484175 -1.0995463 -0.6750432
-0.1791288 -0.55547804 -0.18098493 -0.63530266 -0.25493073 -0.62480295 -0.53819275 -0.8980179
-0.76900333 -0.330831 -0.39980897 -1.5215642 -0.4700873 -0.8633867 -0.06658685 -1.5466571
-0.3686802 -1.605634 -0.7690827 -0.817975 0.013105937 0.77318734 -1.1896346 -1.1762557
-1.1691984 -1.1049302 -0.08452894 -0.71768486 -1.0470701 -0.63523173 -1.374 -0.6414192
00000000: 29cf 20bf d0ff cdbe e3bc 2cbf a520 ac3e
00000010: b010 27bf 7178 abbf 7f1d 10bf a031 33bf
00000020: 83ba 3dbf 756d a5bf 8bb5 fcbe 0f1a 3f3f
00000030: 8af4 18bf 5c64 d4be 050f 24bf e544 60bf
00000040: 3bb8 2abf df7c b8bf 0de1 dfbd 1a48 2ebf
00000050: 9dfc adbe 8198 efbe 42cb b7bf dfad 9ebf
00000060: cc7e 06bf 859a d4be b765 4bbf 0f2a 3c3e
00000070: 5c27 d1be 77c2 97be 3530 40bf fef0 08bf
00000080: b098 d7be 91d7 d8be b0b2 11bf cc6c 74bb
00000090: 7989 91be 59ee 3fbf b79f 41bf 6a30 63be
000000a0: d937 7ebf 4eb5 05bf b415 7dbf befc b4bf
000000b0: 537f 07bf 27d0 d63d bf2c 2ebf 3cec 2e3f
000000c0: 314d e4be d08c 55bf 4e1a 5bbf d1f0 bbbe
000000d0: 1f46 63bf 4094 81bf 58fc 3a3d 8a2b 76bf
000000e0: 9c62 03bf 988a 393f 805f 6ebf 5e44 b7bf
000000f0: 5269 d5bf 8a47 0fbf d05b 91bf eda0 a4bf
00000100: 522f 13bf 26da 98bf 42f4 04bf 235b 1ebf
00000110: 5bdb eb3e f420 14bf fee4 4ebe 57c2 89bf
00000120: 90d9 8cbf 8479 e33e 6fc7 86bf 3393 73bf
00000130: a49f 17bf ff57 b8be a0ad 873d 4b33 8bbe
00000140: b81e 543e 3676 33bf 5762 a3bf 2a29 5ebf
00000150: 2d88 f4be d181 e2be 1aa4 703e 174f d0be
00000160: e981 3abf ee88 ccbe 9344 41bf 2f2a 0bbf
00000170: 7205 10bf 5b7a 70be efbd 8cbf a2cf 2cbf
00000180: 8a6d 37be cf33 0ebf 1d54 39be 32a3 22bf
00000190: 4886 82be 16f3 1fbf 00c7 09bf 80e4 65bf
000001a0: 67dd 44bf ae62 a9be c3b3 ccbe 9ec2 c2bf
000001b0: 48af f0be e906 5dbf b05e 88bd dcf8 c5bf
000001c0: a7c3 bcbe 6a85 cdbf 9be2 44bf cf66 51bf
000001d0: 49ba 563c 9bef 453f f245 98bf 8c8f 96bf
000001e0: 4ba8 95bf 5a6e 8dbf 821d adbd 32ba 37bf
000001f0: 6506 86bf 8c9e 22bf 3bdf afbf 0c34 24bf

action_model._continuous_distribution.log_sigma f4 [1, 39]
-1.2734599 -1.1053243 -1.4061663 -1.0126653 -1.1564004 -0.86778057 -1.1359266 -1.2943923
-0.5451755 -0.73777556 -1.2679288 -0.6765144 -0.9317749 -1.0740976 -1.2325946 -1.2747359
-1.0932288 -0.64112526 -0.9544461 -1.0525625 -0.90949047 -1.1762279 -1.2656219 -1.061891
-0.80364597 -0.7000486 -1.1788342 -1.0920863 -1.3397917 -1.2882768 -1.4043325 -1.2287688
-1.322198 -0.984985 -1.0552828 -1.3191383 -0.8711385 -1.0598053 -1.1489341
00000000: bc00 a3bf 447b 8dbf 42fd b3bf 049f 81bf
00000010: ee04 94bf de26 5ebf 0b66 91bf a6ae a5bf
00000020: 9f90 0bbf dcde 3cbf 7e4b a2bf 0c30 2dbf
00000030: cd88 6ebf 087c 89bf a9c5 9dbf 8c2a a3bf
00000040: ecee 8bbf c920 24bf 9456 74bf 5eba 86bf
00000050: 5ed4 68bf a38e 96bf e6ff a1bf 0bec 87bf
00000060: bebb 4dbf 6336 33bf 0ae4 96bf 7cc9 8bbf
00000070: 4b7e abbf 41e6 a4bf 2bc1 b3bf 4c48 9dbf
00000080: c93d a9bf fa27 7cbf 8213 87bf 86d9 a8bf
00000090: ef02 5fbf b3a7 87bf 4610 93bf

action_model._continuous_distribution.mu.weight f4 [39, 128]
0.2664122 0.16456963 -0.1698381 0.22410709 -0.6092913 -0.5886716 0.05332554 0.59156203
0.1685315 -0.19821201 -0.22094771 -0.048016693 0.16430934 0.18771008 -0.18370765 -0.20319612
-0.10689574 -0.32600638 0.09288969 -0.17620711 0.044927042 0.19530454 -0.42427003 -0.35611928
-0.20690441 -0.19372071 -0.22978468 0.08648501 -0.013782764 -0.119900614 -0.39189935 0.69977254
-0.2694828 -0.17482314 -0.005241958 -0.18086833 0.5561943 0.006821836 -0.52784896 0.31106806
-0.055297084 0.49890172 -0.02732201 0.070655 -0.24731186 0.1905422 0.06254132 -0.12295897
0.023942588 0.28114036 -0.7258591 0.20612854 -0.03068695 0.19534075 0.15784445 0.29676098
-0.41166416 0.48252118 -0.45193917 0.24485448 -1.0481178 -0.14276387 -0.49725196 -0.45392662
-0.031885266 -0.53788346 0.06974275 -0.14120473 0.2094898 0.77192235 0.52099776 -0.3946036
-0.62497514 -0.199584 0.12637386 -0.5057379 0.42341846 0.6128753 0.12914817 0.04322711
0.9996636 -0.046782702 -0.3643779 -0.34968898 -0.7218807 -0.4183902 0.2856674 0.110905305
0.097894005 0.81881684 -0.2205992 -0.35375467 -0.3987275 -0.37303922 0.42686513 0.11936784
-0.18816087 -0.24550465 0.24066354 0.23004586 -0.31746742 0.22939894 -0.19982411 0.12928599
0.5611651 0.037133474 -0.798047 -0.28497568 0.15664712 -0.6182157 -0.056440745 0.03227421
-0.09228256 -0.30152023 0.108638145 -0.08378474 0.4042389 0.12240662 -0.30467048 0.107307106
-0.45335916 -0.3447146 0.31602737 -0.053191464 0.32215038 -0.108945884 0.27452412 0.12388226
0.37602425 0.1501471 0.6139483 0.80757296 0.43130934 0.030518057 -0.3355806 0.47932696
0.10672716 -0.641423 0.11594292 0.50293314 -0.8552707 -0.16681868 -0.14061597 0.018080683
-0.5578812 -0.270044 -0.004357983 -0.12348416 -0.17104146 -0.370618 -0.5870411 -0.43591815
0.032245666 0.42276374 0.8119908 -0.46997207 -0.5488092 0.2058366 0.23130536 0.16791452
0.2672574 -0.47021973 -0.23573637 0.24523425 0.5661853 -0.3586622 0.067164935 0.3584564
-0.724088 -0.0864001 -0.69051963 -0.4342887 0.45918158 0.26304793 -0.34035456 -0.15490618
-0.69878685 0.052465245 -0.076023884 -0.8992726 0.2884633 0.4285401 0.02649181 0.34099576
0.62815505 -0.26957422 -0.014461995 -0.006361394 -0.5262834 0.22319986 -0.6572471 -0.2824001
0.030368408 -0.7738947 0.3387844 -0.78003013 0.0073608337 -0.14368504 0.38771144 -0.46753833
-0.075077645 -0.6725221 0.00995642 0.2841296 -0.0022344198 -0.34027973 -0.19432683 -0.4113102
-0.2489266 0.288388 -1.0045819 0.04515762 0.5859249 -0.36660516 -0.32057175 -0.61586
-0.5259229 0.08107518 -0.4351571 0.3487668 0.2333064 -0.49282223 -0.2834789 -0.13728493
0.46041504 -0.2452823 -0.21424557 -0.5339546 0.6864295 -0.013083131 0.22985023 0.38288924
-0.27613747 0.14854056 0.51031697 -0.62840146 -0.4528228 0.19040014 -0.16567913 -0.7239993
0.123120435 0.7127993 -0.22022459 -0.28102976 -0.49934775 -0.07159831 -1.0849377 -0.15555733
-0.6702992 0.17554972 0.55759704 0.23617782 0.47683096 -0.46654448 -0.25935307 0.12350808
00000000: 2e67 883e f184 283e 0aea 2dbe 547c 653e
00000010: 84fa 1bbf 2fb3 16bf e26b 5a3d 9c70 173f
00000020: 8693 2c3e 17f8 4abe 1e40 62be 27ad 44bd
00000030: b540 283e 1237 403e dc1d 3cbe a512 50be
00000040: 27ec dabd 4fea a6be f33c be3d a36f 34be
00000050: 6b05 383d eafd 473e ec39 d9be 4455 b6be
00000060: c0de 53be b95e 46be ad4c 6bbe 0e1f b13d
00000070: 1ad1 61bc 748e f5bd 08a7 c8be 4b24 333f
00000080: a6f9 89be d604 33be bbc4 abbb 8c35 39be
00000090: c062 0e3f b589 df3b 1c21 07bf 5044 9f3e
000000a0: 327f 62bd 0c70 ff3e 68d2 dfbc 92b3 903d
000000b0: 523f 7dbe 7f1d 433e aa15 803d ead1 fbbd
000000c0: 3f23 c43c a1f1 8f3e e7d1 39bf 5c13 533e
000000d0: 3363 fbbc 6807 483e faa1 213e 0ef1 973e
000000e0: a5c5 d2be 040d f73e 9264 e7be 22bb 7a3e
000000f0: b928 86bf b130 12be cf97 febe 1269 e8be
00000100: 209a 02bd bbb2 09bf 49d5 8e3d f997 10be
00000110: 7e84 563e b49c 453f 1c60 053f 7c09 cabe
00000120: 5ffe 1fbf c05f 4cbe 2668 013e 0a78 01bf
00000130: 4eca d83e 65e5 1c3f 6b3f 043e e90e 313d
00000140: f4e9 7f3f 389f 3fbd bd8f babe 6f0a b3be
00000150: 2ccd 38bf 3e37 d6be ff42 923e 5222 e33d
00000160: a77c c83d fb9d 513f c2e4 61be 551f b5be
00000170: 0326 ccbe fffe bebe 118e da3e 2077 f43d
00000180: 3ead 40be 9265 7bbe 8170 763e 2491 6b3e
00000190: 178b a2be 8ee7 6a3e b19e 4cbe 8c63 043e
000001a0: 84a8 0f3f 4519 183d cf4c 4cbf 55e8 91be
000001b0: 1a68 203e 6243 1ebf 692e 67bd f631 043d
000001c0: a4fe bcbd dc60 9abe ad7d de3d 5597 abbd
000001d0: 67f8 ce3e 52b0 fa3d c5fd 9bbe d4c3 db3d
000001e0: b11e e8be 6f7e b0be 57ce a13e 4bdf 59bd
000001f0: e5f0 a43e 051f dfbd 6d8e 8c3e fbb5 fd3d
00000200: 4086 c03e 29c0 193e b72b 1d3f 1abd 4e3f
00000210: 94d4 dc3e 0101 fa3c 38d1 abbe 586a f53e
00000220: c593 da3d 4c34 24bf 7b73 ed3d 3ac0 003f
00000230: 05f3 5abf 84d2 2abe a2fd 0fbe f11d 943c
00000240: 4dd1 0ebf 3543 8abe 69cd 8ebb 43e5 fcbd
00000250: 7e25 2fbe a4c1 bdbe 5348 16bf aa30 dfbe
00000260: 0814 043d 7d74 d83e a1de 4f3f 2ea0 f0be
00000270: c27e 0cbf d4c6 523e 50db 6c3e c9f1 2b3e
00000280: f6d5 883e a4c0 f0be e064 71be b01e 7b3e
00000290: 85f1 103f 92a2 b7be c58d 893d 9987 b73e
000002a0: d55d 39bf 89f2 b0bd e5c5 30bf 175b debe
000002b0: d919 eb3e 38ae 863e f442 aebe ba9f 1ebe
000002c0: b2e3 32bf cce5 563d 69b2 9bbd bb36 66bf
000002d0: 76b1 933e 9c69 db3e 5a05 d93c ff96 ae3e
000002e0: c5ce 203f a205 8abe 01f2 6cbc 3e73 d0bb
000002f0: 82ba 06bf 818e 643e 5941 28bf bf96 90be
00000300: 2bc7 f83c f71d 46bf 2675 ad3e 0eb0 47bf
00000310: 2633 f13b 2c22 13be 1d82 c63e 2f61 efbe
00000320: 4fc2 99bd 692a 2cbf 4120 233c 6f79 913e
00000330: 586f 12bb 2539 aebe 9dfd 46be 4097 d2be
00000340: 9de6 7ebe 98a7 933e 2496 80bf 32f7 383d
00000350: 2dff 153f acb3 bbbe fb21 a4be 00a9 1dbf
00000360: e2a2 06bf be0a a63d e9cc debe 9091 b23e
00000370: dfe7 6e3e 3253 fcbe 2524 91be 6c94 0cbe
00000380: 85bb eb3e 492b 7bbe 3163 5bbe 40b1 08bf
00000390: d8b9 2f3f a15a 56bc dc5d 6b3e 0f0a c43e
000003a0: e461 8dbe 041b 183e 22a4 023f ebde 20bf
000003b0: 64d8 e7be 41f8 423e caa7 29be 0558 39bf
000003c0: 9126 fc3d 047a 363f 8e82 61be 22e3 8fbe
000003d0: 82aa ffbe 22a2 92bd 3ddf 8abf 6c4a 1fbe
000003e0: ba98 2bbf 4ec3 333e aebe 0e3f 99d8 713e
000003f0: 3023 f43e ebde eebe edc9 84be cef1 fc3d

action_model._continuous_distribution.mu.bias f4 [39]
0.9625541 1.2984641 0.39612842 0.08522964 0.6560351 -0.63146114 -0.8824927 -0.2809951
0.22669677 -0.53247213 0.19503242 -0.092886925 0.37581012 -0.85826284 -0.017127601 -0.5145712
-0.06735411 -0.15556864 -2.608973 -0.82957447 -1.3612808 -0.78296363 -0.4141867 0.3495631
0.3800656 0.17686419 0.69502616 0.08190552 0.003707969 0.7548822 0.035355844 -0.57781446
-0.12681265 0.9324627 -0.3287353 -0.1573816 -1.101454 1.0266422 -0.19103688
00000000: f269 763f 1234 a63f 58d1 ca3e e18c ae3d
00000010: ebf1 273f 70a7 21bf 0beb 61bf 97de 8fbe
00000020: 3323 683e 1850 08bf 94b6 473e 803b bebd
00000030: 2f6a c03e 1db7 5bbf 2f4f 8cbc f0ba 03bf
00000040: f4f0 89bd 634d 1fbe 6af9 26c0 fe5e 54bf
00000050: 733e aebf 4e70 48bf 4710 d4be eff9 b23e
00000060: f597 c23e e31b 353e 3ced 313f 15be a73d
00000070: 6601 733b f63f 413f 4ad1 103d a6eb 13bf
00000080: 2ddb 01be e0b5 6e3f fe4f a8be a428 21be
00000090: 72fc 8cbf 0369 833f 2c9f 43be
