Assets/Brains/AdrianTests/AdrianUpdatedColTest7/Zombie Walker/Zombie Walker-999969.onnx (onnx, 302101 bytes, 9 tensors)

network_body._body_endoder.seq_layers.0.weight f4 [128, 281]
0	0x3c5e47d8	0.013566934
1	0x3d8ab8fb	0.067735635
2	0xbd82f765	-0.06394843
3	0x3de58f1f	0.11208939
4	0x3dacd5c4	0.0843921
5	0xbd92bbdc	-0.071647376
6	0xbafc1190	-0.0019231308
7	0xbd27b241	-0.04094148
8	0xbd52b3f8	-0.051441163
9	0x3ca7ce71	0.020484181
10	0xbe115c34	-0.14195329
11	0xbc8a726d	-0.016900266
12	0xbd239b3a	-0.039942957
13	0xbd80f2f6	-0.06296341
14	0x3b72c46a	0.0037043341
15	0xbc9943aa	-0.018709023
16	0xbddd8885	-0.10817055
17	0x3c437ac1	0.011931122
18	0x3d8b2e55	0.067959465
19	0xbda1f27a	-0.07907577
20	0xbd05f656	-0.032705627
21	0x3d5d0d34	0.05396767
22	0xbcf82a2d	-0.030293548
23	0xbd0c16dc	-0.034201488
24	0x3cb2f2b7	0.021844251
25	0x3d703290	0.05864197
26	0x39e5cc16	0.0004383034
27	0xbd939c37	-0.0720753
28	0x3cc4e94d	0.024037028
29	0xbd36daee	-0.04464238
30	0xbd384d35	-0.044995505
31	0x3ddf0f9c	0.10891649
32	0x3d6ce782	0.05783797
33	0xbdf6502a	-0.12027009
34	0xbd11b3b6	-0.035571776
35	0xbd479a35	-0.048731048
36	0xbc931aaa	-0.01795705
37	0x3ca56f23	0.020194596
38	0x3d5c7a89	0.053827796
39	0x3c5843bd	0.013199744
40	0x3d8564f2	0.065133944
41	0x3cb2254f	0.021746306
42	0x3d57491c	0.052559957
43	0x3e05c27b	0.1306247
44	0xbcedd0f0	-0.029030293
45	0xbddbe882	-0.10737707
46	0x3a82bd57	0.000997464
47	0x3d6c2a33	0.05765743
48	0x3d4a0529	0.049321327
49	0xbcb5a3ef	-0.022172896
50	0xbd4a38cf	-0.049370583
51	0x3c26e698	0.010186814
52	0x3d48b6c6	0.04900243
53	0x3d6b9450	0.05751449
54	0x3d665a18	0.056238264
55	0xbbc1fcc0	-0.0059200227
56	0x3d2e26f4	0.042517617
57	0x3cfe5966	0.031048488
58	0xbdd865e3	-0.10566308
59	0x3d92d64e	0.071697816
60	0xbd8cb508	-0.068704665
61	0x3cab1980	0.020886183
62	0xbb815843	-0.003947289
63	0xbbb795e0	-0.0056025833
64	0x3bb0a6f7	0.0053909975
65	0xbd1c1872	-0.03810925
66	0xbc716c06	-0.014735227
67	0x3cb19d1b	0.021681359
68	0xbd6a27cb	-0.057166856
69	0x3d4abeba	0.049498297
70	0x3d8b3c5e	0.067986235
71	0x3d60948a	0.054829158
72	0x3d1d52bf	0.03840899
73	0xbcfdcb6a	-0.030980784
74	0xbda304f2	-0.079599276
75	0x3c8ccd31	0.017187687
76	0x3d1e9c00	0.038722992
77	0x3d2b05db	0.04175363
78	0xbd649a9b	-0.055811506
79	0x3dbf3bd7	0.093375854
80	0xbdd7d1b4	-0.105380446
81	0x3dc17491	0.094460614
82	0x3d92551f	0.07145142
83	0x3d8a3852	0.067490235
84	0xbd29bcca	-0.04143981
85	0xbcd1f6bd	-0.02563035
86	0xbd96cfa5	-0.07363824
87	0xbc73f730	-0.014890477
88	0x3d4daa8d	0.050211478
89	0xbd4e8cb7	-0.050427165
90	0x3dd31457	0.10306614
91	0xbd554605	-0.05206873
92	0xbc20b70e	-0.009809269
93	0x3c790b03	0.015200379
94	0x3cc0218e	0.0234535
95	0x3ca445b0	0.02005276
96	0x3d7f66a4	0.062353745
97	0xbb1b9db6	-0.0023745126
98	0xbdc31b79	-0.09526724
99	0x3dc46b0e	0.095907316
100	0x3cacb179	0.02108072
101	0x3d0583a1	0.032596234
102	0x3cfb2a2d	0.03065976
103	0xbd1f24f4	-0.0388536
104	0x3dfb5371	0.122717746
105	0x3b9374ef	0.0045000236
106	0x3b85f1e6	0.0040876744
107	0x3c444b9d	0.011980918
108	0x3d318c77	0.04334685
109	0x3d08a647	0.0333617
110	0x3daf4c60	0.08559489
111	0x3d416dd6	0.04722389
112	0x3cd69772	0.026195262
113	0x3dba15b3	0.0908617
114	0xbcd69de2	-0.026198331
115	0x3d77187c	0.060326084
116	0x3d1d792f	0.038445648
117	0xbd359f26	-0.04434123
118	0x3d90a383	0.070624374
119	0xbd8c7746	-0.06858687
120	0x3da16c99	0.078820415
121	0xbd20a9ff	-0.03922462
122	0xbc8eb481	-0.017420055
123	0x3d7d6cdf	0.061871406
124	0x3dfcce40	0.123440266
125	0x3d6ed510	0.05830866
126	0xbcef8297	-0.029237075
127	0x3d114286	0.035463832
128	0x3ce3389d	0.027736956
129	0x3d85b0b8	0.06527847
130	0xbceccea5	-0.02890713
131	0x3c123ee5	0.008926128
132	0xbd5e9f9c	-0.054351434
133	0x3d064844	0.03278376
134	0x3da9649a	0.08271141
135	0x3beb4c82	0.0071807513
136	0x3cfea78d	0.031085754
137	0xbc39cec4	-0.011340801
138	0xbd0186da	-0.031622745
139	0xbde43c9b	-0.11144372
140	0x3dbf838c	0.093512625
141	0xbe19584f	-0.14975093
142	0xbe01c0aa	-0.12671152
143	0x3d1edb13	0.038783144
144	0xbc85d779	-0.016338097
145	0x3d2acc53	0.041698765
146	0xbc2f5f47	-0.010703868
147	0xbd2b86f9	-0.041876767
148	0xbd192ef8	-0.03739831
149	0xbcc020b8	-0.023453102
150	0xbd91be73	-0.071164034
151	0xbca35344	-0.019937165
152	0x3daf9111	0.08572591
153	0x3bee00af	0.007263265
154	0xbd1cd882	-0.038292415
155	0x3d42be89	0.04754499
156	0x3dac1dd7	0.08404129
157	0x3d35828e	0.04431396
158	0x3dabdbd4	0.08391538
159	0xbbf82501	-0.0075727706
160	0xbd70a997	-0.058755483
161	0xbba0f0c4	-0.004911514
162	0x3d5fd7e2	0.05464924
163	0x3d084ff4	0.033279374
164	0x3d0bc95a	0.03412757
165	0x3b593a5f	0.0033146364
166	0xbdea60a6	-0.114442155
167	0x3c1bc0bd	0.009506402
168	0xbd44f7bf	-0.04808783
169	0xbcac18fe	-0.021008011
170	0xbcbac6cd	-0.022799874
171	0xbdb62814	-0.08894363
172	0x3ce45c3e	0.027876016
173	0xbdb24967	-0.08705407
174	0x3d78af26	0.06071391
175	0x3d79270a	0.060828246
176	0xbcb55275	-0.022134045
177	0x3dab9093	0.08377185
178	0xbccdc23c	-0.025117032
179	0x3d9e78e7	0.07737904
180	0xbcabfbb6	-0.020994049
181	0xbcb5cc98	-0.022192284
182	0xbcc1348c	-0.023584627
183	0xbdb18847	-0.08668571
184	0xbe4da1c0	-0.20081234
185	0xbe1d42ae	-0.15357468
186	0x3c81591a	0.015789557
187	0xbdad6801	-0.08467103
188	0x3c12da24	0.008963142
189	0x3cf06072	0.029342864
190	0xbbbd391b	-0.00577463
191	0x3d56277b	0.052283745
192	0x3b0a9bef	0.0021150073
193	0xbdb6220b	-0.08893212
194	0x3d8ce409	0.06879432
195	0x3d564a49	0.052316938
196	0x3d1a1a80	0.03762293
197	0x3c90037d	0.017579788
198	0xbd13016c	-0.035890028
199	0xbae5057d	-0.0017472949
200	0x3d4b1d11	0.049588267
201	0xbdc41901	-0.095750816
202	0xbd19ca7a	-0.037546612
203	0x3c631dd3	0.013862091
204	0x3cf84f1e	0.030311164
205	0x3c89b8ca	0.016811747
206	0x3d17594f	0.036950406
207	0x3da00cbe	0.078149304
208	0x3dbd6e35	0.09249536
209	0x3da2a55f	0.07941698
210	0xbc559465	-0.013035868
211	0x3d317cdb	0.043331962
212	0x3d5537db	0.05205522
213	0xbc075aab	-0.008261363
214	0x3b4be547	0.0031112002
215	0x3d37d1a7	0.044877674
216	0xbd18914a	-0.037247933
217	0x3cacd20a	0.021096248
218	0xbd92698e	-0.07149039
219	0x3d267581	0.040639404
220	0xbcb3a031	-0.021926971
221	0xbdb46a66	-0.088093564
222	0x3d216c0d	0.039409686
223	0xbd063f1f	-0.03277504
224	0x3cdfdf1e	0.02732807
225	0xbb2ba0a2	-0.0026188274
226	0x3d2a730a	0.041613616
227	0xbc79941b	-0.015233065
228	0x3cbea6e2	0.023272935
229	0xb9d95bf4	-0.00041457976
230	0xbd21a16f	-0.039460596
231	0x3ca59445	0.020212302
232	0x3e23a0fa	0.15979376
233	0xbcf79c1c	-0.030225806
234	0x3c925e9f	0.017867384
235	0x3db053ad	0.0860971
236	0x3dd8a94b	0.10579165
237	0xbd948cb5	-0.072534
238	0x3c82ddb1	0.015974851
239	0x3db34ac5	0.087544955
240	0x3d63a200	0.055574417
241	0xbd473aa7	-0.04863992
242	0x3c29ae13	0.010356444
243	0x3d5f7d33	0.05456276
244	0x3ca7d921	0.020489277
245	0x3cc8c2e0	0.024506986
246	0x3e02b46f	0.12764142
247	0xbcfd8a77	-0.030949814
248	0x3d7f041e	0.062259786
249	0x3be067be	0.0068483045
250	0x3d441895	0.047875006
251	0xbb329ddb	-0.0027254734
252	0x3d271fbd	0.040801752
253	0x3d91fc54	0.07128206
254	0x3c4e6d77	0.012599341
255	0xbdc00375	-0.093756594

network_body._body_endoder.seq_layers.0.bias f4 [128]
0	0xb9e6b76e	-0.00044005684
1	0xb9a67ba5	-0.0003175411
2	0xb9077cae	-0.0001292105
3	0x39033f30	0.00012516673
4	0x39cdb3ad	0.00039234516
5	0xba5eabc6	-0.0008494224
6	0x3a87334b	0.0010314969
7	0xba14d4ea	-0.00056774786
8	0x378b0a88	1.6574995e-05
9	0x3a4be1df	0.0007777493
10	0xba88d8a7	-0.0010440544
11	0x3a84bac1	0.0010126458
12	0x389fb2b3	7.614996e-05
13	0x391a3443	0.00014706053
14	0x39609857	0.00021419056
15	0x392648d5	0.00015858126
16	0x39996269	0.00029255755
17	0x3a077a5c	0.0005168074
18	0x3869f590	5.5780227e-05
19	0xb9b100c0	-0.0003376063
20	0x3925e964	0.00015822571
21	0xb89a0f9e	-7.346201e-05
22	0x39b55d81	0.00034592676
23	0xbab03928	-0.0013444768
24	0x3a47a270	0.00076154526
25	0x39ef840d	0.00045684018
26	0x3a72c6eb	0.00092612085
27	0x3903d0c3	0.00012570903
28	0xb9f75a0e	-0.00047178607
29	0x38947886	7.079639e-05
30	0xb9b43bfb	-0.00034376964
31	0x39ab38be	0.00032657938
32	0xb96566cd	-0.00021877438
33	0x39005fb5	0.00012242685
34	0x3a46f063	0.0007588921
35	0x38cb874b	9.7049946e-05
36	0x39d5b7d8	0.000407635
37	0xb891bfa9	-6.949838e-05
38	0xb9649132	-0.00021797864
39	0x3a549584	0.0008109438
40	0xb9cdaa1f	-0.00039227397
41	0xb9188c10	-0.00014548027
42	0xb98b928f	-0.0002662134
43	0x3aaa4158	0.0012989445
44	0x3a029d21	0.00049825205
45	0x39ecc498	0.00045159901
46	0xba244bae	-0.00062673807
47	0x399fbb18	0.0003046624
48	0xba83fd26	-0.0010069951
49	0xba966728	-0.0011474835
50	0xb9089157	-0.00013024114
51	0x3a30428e	0.00067237846
52	0xba2c2966	-0.0006567448
53	0x3a6f37f0	0.0009125462
54	0x3aa505d9	0.0012590244
55	0xb907d05a	-0.0001295222
56	0x39ebb200	0.00044955313
57	0xb90293fd	-0.00012452896
58	0x391e4f4a	0.00015097592
59	0x3a4088ad	0.0007344585
60	0xb79f4876	-1.898802e-05
61	0x3a133c3f	0.00056165823
62	0x398158d0	0.00024670968
63	0x3a946759	0.0011322304
64	0xba582df9	-0.00082465966
65	0xb93df941	-0.00018117299
66	0xb95dfe8d	-0.0002117103
67	0x3a943985	0.0011308646
68	0x38474c75	4.7516503e-05
69	0x3988743f	0.00026026551
70	0xb948f329	-0.0001916407
71	0xb988b6f4	-0.00026076252
72	0x3a97712c	0.0011554114
73	0x3a501386	0.00079374795
74	0xba494bab	-0.0007678817
75	0x398b5a5a	0.00026579463
76	0x3a05b92c	0.000510114
77	0x397960c0	0.00023782533
78	0x391ba0d9	0.00014841872
79	0x3a3dde47	0.00072429
80	0xb8ebb78c	-0.000112398615
81	0xbaa3bbbe	-0.0012491865
82	0x39503df0	0.000198595
83	0x3a6d9da5	0.00090643234
84	0xb8bba2ec	-8.9472014e-05
85	0xb86dde1e	-5.6712066e-05
86	0x3a771e8f	0.0009426856
87	0x39c5bb9e	0.00037714554
88	0x3a313a9c	0.00067607476
89	0xbaec9583	-0.0018049929
90	0x39039caf	0.00012551503
91	0xb941189e	-0.00018415085
92	0x3a377b31	0.0006999253
93	0xb984364e	-0.00025217462
94	0x391db6c8	0.00015040778
95	0x369cae66	4.669465e-06
96	0x3999103f	0.00029194538
97	0x398cdbf4	0.0002686676
98	0x393727ba	0.0001746704
99	0x3a009386	0.0004904795
100	0x391d5f67	0.00015008227
101	0xba781168	-0.0009463043
102	0xba2649ec	-0.00063434127
103	0x3a5b8775	0.00083743717
104	0xba0ac6b2	-0.000529389
105	0x3a91f5f9	0.0011135928
106	0xba1a5ea8	-0.00058887387
107	0x39dd79d8	0.00042243185
108	0xb99b013e	-0.0002956483
109	0xb915660f	-0.00014247767
110	0x39ce97e4	0.0003940455
111	0x3a37bb3b	0.00070087955
112	0x3977d16e	0.00023633774
113	0xb933c56b	-0.00017144314
114	0xb9e59377	-0.00043788154
115	0xb9303988	-0.000168061
116	0xb998ce71	-0.0002914551
117	0x39add08c	0.0003315251
118	0xba0f2c7e	-0.0005461647
119	0x3a11c5d8	0.0005560792
120	0xba35191c	-0.00069083436
121	0x3a96be35	0.0011500778
122	0xba866375	-0.0010253029
123	0x39b0f39e	0.00033750845
124	0x39e37b3b	0.00043388628
125	0x39b1805e	0.00033855712
126	0xb994ed5d	-0.0002840561
127	0x3ae3b495	0.0017372543

network_body._body_endoder.seq_layers.2.weight f4 [128, 128]
0	0x3dbc9b8a	0.09209354
1	0xbdb532a8	-0.088475525
2	0xbc8dbc27	-0.017301632
3	0x3d3e0551	0.04639179
4	0x3dc7bbfb	0.09752651
5	0xbd5c0b04	-0.053721443
6	0x3cad29a4	0.02113802
7	0x3a6581bb	0.0008754988
8	0xbb5f323e	-0.0034057046
9	0xbdc99e39	-0.09844632
10	0x3e37ef55	0.17962392
11	0xbe277107	-0.1635171
12	0xbcc81078	-0.024421915
13	0x3d7652ee	0.06013768
14	0xbcb3f904	-0.021969326
15	0x3e34ebdd	0.176681
16	0x3e61a566	0.22035751
17	0x3d8abaaf	0.06773888
18	0x3d5a75ad	0.05333488
19	0x3d598388	0.053103954
20	0xbd254cdd	-0.040356506
21	0xbd42b829	-0.04753891
22	0xbdf1dac3	-0.118093036
23	0x3d343e60	0.044004798
24	0x3db54824	0.0885165
25	0xbe40b334	-0.1881836
26	0x3c6106a3	0.0137344925
27	0xbd993867	-0.07481461
28	0xbd185af3	-0.03719611
29	0x3bd2bcfb	0.0064312196
30	0x3d83f04f	0.064423196
31	0x3d8fd3ff	0.07022857
32	0xbc29b81e	-0.010358838
33	0xbdd87624	-0.105694085
34	0x3d815fd1	0.06317104
35	0x3b82f1cc	0.0039961096
36	0xbdba3557	-0.09092205
37	0xbdd7b5c9	-0.1053272
38	0xbda94cb5	-0.08266584
39	0x3e01ad02	0.12663653
40	0x3c594984	0.013262156
41	0xbd8122c6	-0.06305461
42	0x3e1a88f7	0.1509131
43	0x3d536fe2	0.05162037
44	0x3d88784c	0.0666357
45	0xbdbc79ee	-0.09202944
46	0xbd2b24eb	-0.041783255
47	0xbc1b71b8	-0.009487562
48	0x3b3e8e3d	0.002907648
49	0xbdfe146b	-0.12406238
50	0x3d10946b	0.035297792
51	0x3cd81ab3	0.026379919
52	0xbe31ce69	-0.17363895
53	0x3d23f52e	0.040028743
54	0x3d049b05	0.0323744
55	0x3cbd44d1	0.023104103
56	0x3e2143f6	0.15748581
57	0x3e77aa5b	0.24186079
58	0xba1a7311	-0.000589178
59	0xbe51dc32	-0.20494154
60	0xbcb9e2a6	-0.022691082
61	0xbcfb3037	-0.030662639
62	0xbdbe53ed	-0.09293351
63	0x3cf55b7e	0.029950853
64	0xbd086a6a	-0.03330461
65	0x3d4ffe40	0.05077958
66	0x3b629529	0.003457377
67	0xbd13e9bc	-0.03611158
68	0x3d32e5f6	0.04367634
69	0x3d76d859	0.06026492
70	0x3e1ce276	0.15320763
71	0x3d0480ea	0.032349505
72	0x3ca026ac	0.01954969
73	0x3dd41a28	0.103565514
74	0x3db0a4ca	0.08625181
75	0xbaef6d7e	-0.0018266884
76	0xbe33bb9f	-0.1755204
77	0x3db6f502	0.0893345
78	0xbe60437d	-0.21900745
79	0x3da72f58	0.08163327
80	0xbcbbc783	-0.022922283
81	0x3c4ad96e	0.012380941
82	0x3dc5dddb	0.09661456
83	0x3d3d8f5b	0.046279293
84	0x3e256b94	0.16154319
85	0xbdb988a3	-0.090592645
86	0x3dcc6ec2	0.09982063
87	0x3e1d91f9	0.15387715
88	0xbd45c26e	-0.048281126
89	0x3d7f5cdb	0.062344413
90	0x3d3bc2bb	0.045840006
91	0xbd15aff3	-0.03654475
92	0xbdecc141	-0.11560298
93	0x396159f6	0.00021491185
94	0xbce428b8	-0.027851447
95	0xbcb701d7	-0.022339744
96	0x3db95f2b	0.09051355
97	0xbac16414	-0.0014754557
98	0x3d7f045a	0.06226001
99	0x3e2a3656	0.1662229
100	0x3c8905b8	0.01672636
101	0xbddddcd1	-0.10833133
102	0xbc7dd07d	-0.015491602
103	0x3d0ba92f	0.034096893
104	0x3dbbc553	0.09168496
105	0xbca3454f	-0.01993051
106	0x3ce82427	0.028337551
107	0xbbad8dd6	-0.005296449
108	0xbc184e89	-0.009296068
109	0xbd451152	-0.04811222
110	0x3dd6e779	0.10493369
111	0xbd24ef75	-0.040267427
112	0xbdeecc37	-0.11660045
113	0xbd17861b	-0.036993127
114	0x3a75adb4	0.0009371892
115	0xbd49833f	-0.04919743
116	0x3ddc00c1	0.10742331
117	0xbce98834	-0.02850733
118	0xbe2cdfc4	-0.16882235
119	0xbe00ccc4	-0.12578112
120	0xbd985453	-0.074379586
121	0x3c6a0255	0.014282783
122	0x3bd06714	0.006359944
123	0xbc387c0f	-0.011260047
124	0x3da4ea94	0.08052555
125	0x3d16a6b9	0.036780093
126	0xbc7f0caf	-0.015566989
127	0xbe0d4151	-0.13794447
128	0x3e0cb8dc	0.13742393
129	0xbd2fb228	-0.042894512
130	0xba9f309c	-0.0012145224
131	0xbd09d81a	-0.033653356
132	0xbd3b9e42	-0.045805223
133	0x3d5407d7	0.05176529
134	0x3aee1854	0.0018165209
135	0xbd494268	-0.049135596
136	0xbcced238	-0.025246724
137	0xbe0798d1	-0.13241889
138	0x3d5e3c13	0.05425651
139	0x3d872af9	0.06599993
140	0x3bd7fef9	0.0065916744
141	0xbc637418	-0.013882659
142	0x3dea2623	0.11433055
143	0xbd90c9b3	-0.07069721
144	0x3d46429c	0.048403367
145	0xbd5789bc	-0.052621588
146	0x3cf56bde	0.029958662
147	0xbd3080d9	-0.04309163
148	0x3d4cdabe	0.050013296
149	0xbd8b4abe	-0.06801365
150	0xbd8dc8ff	-0.069231026
151	0x3db839fe	0.08995436
152	0x3d1a58df	0.03768241
153	0x3e19827f	0.14991187
154	0x3cdedc54	0.02720467
155	0xbd0e7a4c	-0.0347846
156	0xbd240a80	-0.040049076
157	0xbe4e3a72	-0.20139483
158	0x3c46ab82	0.012125852
159	0x3c949243	0.01813615
160	0xbd1f8470	-0.03894466
161	0xbd9928cc	-0.074784845
162	0xbe1b0236	-0.15137562
163	0xba8a1fe1	-0.0010538065
164	0x3d6d5732	0.057944484
165	0xbd143f9e	-0.036193483
166	0xbd30ec53	-0.043194126
167	0xbe09f8d0	-0.1347382
168	0xbcee0ffb	-0.029060354
169	0xbdc3bc8f	-0.09557449
170	0xbdc37a7b	-0.09544846
171	0xbd0a7360	-0.033801436
172	0xbcb68b72	-0.02228329
173	0x3d5d9334	0.054095462
174	0x3d7e63c6	0.06210687
175	0xbb0f204f	-0.0021839326
176	0xbc9b86f8	-0.018985257
177	0x3c1eafce	0.00968547
178	0xbbdb9d70	-0.0067021176
179	0x3db98f26	0.090605065
180	0x3da58175	0.080813326
181	0xbe0affdb	-0.13574164
182	0x3daeed91	0.08541406
183	0xbca20762	-0.019778911
184	0x3d6f3764	0.058402434
185	0x3db4fae4	0.08836916
186	0x3d4c9523	0.049946915
187	0xbd922f42	-0.0713792
188	0xbde5c0ca	-0.11218412
189	0xbd8f6f9c	-0.0700371
190	0x3d8b3cbc	0.067986935
191	0x3daf32f9	0.08554644
192	0x3dcdd6a2	0.100507036
193	0x3e3d4527	0.18483411
194	0xbd9c4277	-0.07629865
195	0x3dad3383	0.08457091
196	0x3d115867	0.035484698
197	0xbd6f40c8	-0.05841139
198	0xbc589796	-0.013219735
199	0xbd8ac16d	-0.06775174
200	0x3d1d083f	0.038337942
201	0x3c05458a	0.008134255
202	0x3da68a81	0.08131886
203	0x3d62e334	0.05539246
204	0x3dc1f3eb	0.09470352
205	0xbcc93823	-0.0245629
206	0xba3eedec	-0.0007283378
207	0x3d56fff8	0.052490205
208	0xbc832d48	-0.016012803
209	0xbd0f784f	-0.035026845
210	0xbcf8f7e1	-0.030391635
211	0xbd7dc33f	-0.06195378
212	0x3de75a07	0.11296468
213	0xbdab80f0	-0.08374202
214	0xbacb47ac	-0.0015509031
215	0xbd9c7a39	-0.076404996
216	0x3d958518	0.07300776
217	0x3cabe6fd	0.020984167
218	0x3d12f225	0.03587546
219	0x3df5f9fd	0.12010572
220	0xbe039c9d	-0.12852712
221	0xbdc6b98a	-0.097033575
222	0xbc7546ba	-0.014970476
223	0xbd20c96f	-0.039254602
224	0x3d9af4a9	0.075661965
225	0xbdc28af5	-0.0949916
226	0x3d2d7e74	0.042356923
227	0xbd105eb1	-0.035246555
228	0xbe045e8a	-0.12926689
229	0xbd6312b0	-0.055437744
230	0xbe32861d	-0.17433973
231	0xbe177ed4	-0.14794475
232	0x3dcd4aa3	0.100240014
233	0xbde88037	-0.1135258
234	0x3d872ff1	0.06600941
235	0xbe1a4aa1	-0.15067531
236	0x3d82cfc6	0.06387286
237	0xbdbf1c7e	-0.09331606
238	0xbd135622	-0.035970815
239	0xbe43eb0c	-0.19132632
240	0xbdb067ad	-0.086135246
241	0x3d8ea7fb	0.069656335
242	0xbc319e02	-0.010840895
243	0xbdb0cd7b	-0.08632942
244	0x3df0d5d7	0.11759537
245	0xbcdeda8d	-0.027203823
246	0x3db1ebad	0.0868753
247	0xbd21a835	-0.039467055
248	0x3ce6b677	0.028163178
249	0x3c317357	0.010830722
250	0xbe1f9c70	-0.1558702
251	0xbd27e6c8	-0.040991575
252	0xbd3a07b2	-0.045417495
253	0x3ce69527	0.028147293
254	0x3d4d2744	0.050086275
255	0xbd497556	-0.049184166

network_body._body_endoder.seq_layers.2.bias f4 [128]
0	0x3a0fd614	0.0005486917
1	0x39eafbeb	0.00044819652
2	0xb891c615	-6.9510344e-05
3	0x39b44760	0.00034385454
4	0xb98a8fd9	-0.00026428586
5	0xb8bc3e7c	-8.976177e-05
6	0xb9adf438	-0.00033179088
7	0xb80adc22	-3.310678e-05
8	0x3988bb74	0.00026079605
9	0xbac213f6	-0.0014806974
10	0x39b8b6df	0.00035231464
11	0x3a907d4b	0.0011023668
12	0x3a206135	0.00061180006
13	0xb917afd4	-0.00014465983
14	0xba92aaf7	-0.0011189868
15	0x3a90a36b	0.001103503
16	0x39133095	0.0001403711
17	0x3a88f14a	0.0010447886
18	0x397aa003	0.00023901467
19	0x39c86f6d	0.0003822999
20	0x3a7891af	0.0009482158
21	0x3994f4c7	0.00028411133
22	0xb946a7c6	-0.00018945252
23	0x395f2cea	0.00021283669
24	0x3a4c56a8	0.0007794895
25	0xba3787c0	-0.00070011243
26	0x38daf27d	0.00010440217
27	0xb9c8d9d8	-0.0003830928
28	0x38cd1b81	9.780285e-05
29	0xba1600b0	-0.00057221483
30	0xb8355a58	-4.3237902e-05
31	0xb9c8ec53	-0.00038323048
32	0x38f29500	0.00011567213
33	0xba0b3bcc	-0.00053113396
34	0xb9c92c98	-0.00038370932
35	0x3a589cdc	0.000826312
36	0x3955f77a	0.00020405455
37	0xb8ab92e4	-8.181276e-05
38	0x3973995c	0.00023231417
39	0xb9f359dc	-0.00046415522
40	0x397b7c15	0.0002398345
41	0xb969cec3	-0.00022297636
42	0x399cab70	0.0002988237
43	0x37fb4d71	2.9957593e-05
44	0xb9fb6dad	-0.00047956166
45	0xb96ebab3	-0.00022767
46	0xbabd43f6	-0.001443981
47	0x3a9d4824	0.0011999649
48	0x3a85b19b	0.0010200025
49	0x39043e36	0.00012611676
50	0x393b29d0	0.00017849286
51	0xba1b6513	-0.0005927842
52	0x3a394761	0.0007067826
53	0xb9d6e286	-0.00040986034
54	0x397f9b7a	0.00024376615
55	0x390250ba	0.00012427839
56	0x38bf0a2e	9.109486e-05
57	0xb9f8ca8c	-0.00047453155
58	0xb978e350	-0.00023735804
59	0xb99de115	-0.00030113073
60	0xbac05a9d	-0.0014675442
61	0x3a1cc74a	0.0005980624
62	0xb8fb3b7e	-0.00011979694
63	0xba5fd1dc	-0.00085380464
64	0xba7385da	-0.000928966
65	0x3a41ef78	0.00073980493
66	0xb9adeac7	-0.00033172054
67	0x3881e492	6.193774e-05
68	0xb9f6b444	-0.00047055085
69	0xba48cd2a	-0.00076599664
70	0x39f114d4	0.0004598262
71	0xba6c7264	-0.0009019731
72	0x3a6cb7c1	0.0009030067
73	0x3a1df244	0.0006025175
74	0xbaa355c2	-0.0012461471
75	0x393014a7	0.00016792362
76	0x3984260d	0.00025205352
77	0x37e7a230	2.761287e-05
78	0xb94d5b7b	-0.00019584403
79	0x39a0947f	0.00030628216
80	0x3970d205	0.00022966422
81	0xba11bc7c	-0.00055593974
82	0x3a51ce70	0.0008003479
83	0x39fda75e	0.0004838062
84	0xb669db39	-3.484731e-06
85	0xb9052e98	-0.00012701226
86	0xb9875d2a	-0.0002581862
87	0xb692ca03	-4.3746563e-06
88	0x3ac98932	0.001537597
89	0x39de062d	0.0004234774
90	0x39e85e46	0.00044320727
91	0x3a8fc2ce	0.001096809
92	0xb8b3d886	-8.575716e-05
93	0x39b456b7	0.00034396883
94	0xb93d94de	-0.00018079902
95	0x3a8d151e	0.001076374
96	0x38b0fc7c	8.439363e-05
97	0xb908d0f1	-0.00013047807
98	0x3a349255	0.000688826
99	0xba290474	-0.0006447502
100	0x392adae1	0.00016294002
101	0x3a1e4df1	0.0006038836
102	0x3a46e20d	0.0007586785
103	0x3948c361	0.0001914627
104	0xb9bccc03	-0.00036010155
105	0xb9042ae2	-0.00012604476
106	0x3a791895	0.0009502259
107	0xb95fd966	-0.00021347924
108	0xb9ec7b2a	-0.00045105192
109	0xba2de54d	-0.0006633595
110	0x3aaac0c8	0.0013027424
111	0xb93aa40b	-0.00017799453
112	0xba0afdc1	-0.00053020945
113	0x3a0aafa0	0.00052904524
114	0x399a0942	0.00029380067
115	0x3986ab17	0.00025685944
116	0xb90403f9	-0.00012589981
117	0xb9f10630	-0.00045971712
118	0x38aab698	8.1402424e-05
119	0x39244398	0.0001566544
120	0xba6ee7e5	-0.00091135345
121	0xb983a09f	-0.0002510594
122	0xb849d512	-4.812057e-05
123	0x39e0b6c5	0.00042860783
124	0x39643994	0.00021765224
125	0x3a0fbd2f	0.00054832076
126	0xb8b10548	-8.4410014e-05
127	0x398b4547	0.00026563762

network_body._body_endoder.seq_layers.4.weight f4 [128, 128]
0	0x3d8eac5b	0.06966468
1	0xbccb20b0	-0.02479586
2	0xbd9e0eb2	-0.07717647
3	0xbd24c054	-0.04022248
4	0xbe014ace	-0.12626192
5	0xbb96158c	-0.0045802053
6	0xbcb2b13a	-0.021813024
7	0xbca35da3	-0.01994211
8	0x3dbe2366	0.092840955
9	0x3dcefd17	0.10106867
10	0x3d8bc09d	0.068238474
11	0xbcb01708	-0.021495357
12	0xbe120088	-0.14258015
13	0x3e223e31	0.15844037
14	0x3d42e891	0.047585074
15	0x3d5cbbec	0.053890154
16	0x3d63cad1	0.055613343
17	0xbe005adf	-0.12534665
18	0xbd75dd0d	-0.060025264
19	0x3ca84907	0.020542635
20	0x3d42f99b	0.047601324
21	0xbd513a95	-0.05108126
22	0xbdda5002	-0.106597915
23	0x3d1df48f	0.038563307
24	0x3d0256d5	0.03182109
25	0xbda9e29a	-0.08295174
26	0x3dc30d19	0.095239826
27	0xbd20c325	-0.039248604
28	0x3cca9997	0.02473144
29	0x3d2c87db	0.04212175
30	0xbc58d945	-0.013235395
31	0xbdac8521	-0.0842383
32	0xbc070f07	-0.008243329
33	0xbc4816f7	-0.0122125065
34	0xbda68add	-0.08131955
35	0x3da39ba4	0.079886705
36	0x3dda46ca	0.10658033
37	0x3e74e305	0.23914726
38	0x3da41e45	0.08013586
39	0x3dcd158b	0.100138746
40	0xbba9a469	-0.00517707
41	0xbdf8e2e8	-0.12152654
42	0xbbcae346	-0.006191644
43	0xbd8633c8	-0.06552845
44	0x3d3a878f	0.045539435
45	0x3dd28056	0.102783844
46	0x3e69f18c	0.22846049
47	0x3d8caa3c	0.06868407
48	0x3ddfe12a	0.109316185
49	0x3d27ea3b	0.040994864
50	0xbde0f3ce	-0.10984002
51	0xbda5b976	-0.080920145
52	0xbbacd57f	-0.005274474
53	0xbd2476c4	-0.040152326
54	0x3ccae4cc	0.024767302
55	0x3cfabdf4	0.030608155
56	0xbda1eaaa	-0.07906087
57	0xbdbeb7fb	-0.09312435
58	0x3c848bc5	0.016179929
59	0xbdc59298	-0.09647101
60	0x3d4cc5c9	0.04999331
61	0x3bcf6abb	0.006329862
62	0xbd07cec5	-0.033156175
63	0xbdb46603	-0.0880852
64	0x3b9eda2f	0.004847787
65	0x3dd49242	0.10379459
66	0xbc7d5b23	-0.015463623
67	0x3cdaf8c0	0.026729941
68	0xbd8b51dc	-0.06802723
69	0x3d8e546e	0.069496974
70	0xbd01dee4	-0.031706706
71	0xbd85a442	-0.0652547
72	0x3ddabd14	0.10680595
73	0x3d765e4f	0.060148533
74	0x3e0e6d7b	0.13908951
75	0x3e0124f5	0.12611754
76	0xbd7b747a	-0.061390378
77	0x3d778fde	0.060439937
78	0xbd077528	-0.033070713
79	0xbdaf8858	-0.085709274
80	0x3d956666	0.072949216
81	0x3c0cef24	0.008601937
82	0x3ceef901	0.029171469
83	0xbdac3b41	-0.08409739
84	0xbe02d8a9	-0.12777962
85	0x3c03ec86	0.008051997
86	0xbb9c0e96	-0.004762481
87	0xbc73cba4	-0.014880095
88	0xbd7ac60b	-0.061224025
89	0xbc7d930b	-0.015476952
90	0xbdae9752	-0.08524956
91	0xbdd3418a	-0.10315235
92	0x3d2bd484	0.041950718
93	0xbdc41ca5	-0.09575776
94	0x3d72b902	0.05925847
95	0x3def3aa4	0.11681107
96	0x3d9b617e	0.075869545
97	0xbde24674	-0.11048594
98	0x3db1718b	0.08664235
99	0xbc2d1c92	-0.010565894
100	0xbcafe735	-0.021472553
101	0xbe08c42d	-0.13356085
102	0x3b68406f	0.0035438796
103	0xbd13145d	-0.03590809
104	0xbd84876f	-0.064711444
105	0x3e27c9a0	0.16385508
106	0xbdf29822	-0.11845423
107	0x3e07675e	0.13223025
108	0xbddedf1c	-0.108823985
109	0xbdd14e06	-0.1021996
110	0x3bdf0bae	0.0068068122
111	0xbd323bb8	-0.043513983
112	0x3d127455	0.035755474
113	0x3e06dd4f	0.1317036
114	0x3ddfdd4c	0.10930881
115	0x3db2b330	0.087255836
116	0x3d6ca105	0.057770748
117	0x3d142f17	0.03617772
118	0xbcffdca0	-0.031233132
119	0xbd554741	-0.052069906
120	0xbdad0fe3	-0.08450296
121	0xbdd94c3e	-0.10610245
122	0xbd7b0819	-0.06128702
123	0x3dddb2dd	0.10825131
124	0xbd7acd00	-0.06123066
125	0x3df7bda5	0.12096719
126	0xbe235549	-0.15950502
127	0xbd32a207	-0.043611553
128	0x3e38a70c	0.18032473
129	0x3da39bad	0.07988677
130	0xbcfd79f2	-0.030941937
131	0x3e618a3d	0.2202539
132	0x3e5a58e1	0.21322967
133	0x3cfba10b	0.03071644
134	0x3e1a5b84	0.15073973
135	0x3db328f8	0.087480485
136	0xbcb7a436	-0.022417169
137	0xbde977a6	-0.11399774
138	0x3d57274d	0.052527715
139	0x3ea12f04	0.31481183
140	0xbdb4ecc4	-0.08834222
141	0x3e00f775	0.12594397
142	0xbde66a7e	-0.112507805
143	0xbc574d38	-0.013140969
144	0x3c5758b2	0.013143705
145	0xbda7e544	-0.08198026
146	0x3d9371ec	0.07199463
147	0x3d8efe17	0.069820575
148	0x3c447398	0.01199045
149	0xbd9924eb	-0.07477745
150	0x3e1780e5	0.14795263
151	0xbd16f158	-0.036851257
152	0x3d51a1d7	0.051179733
153	0xbc935ebd	-0.01798951
154	0xbc5ef7fa	-0.013608927
155	0x3d94cb69	0.0726536
156	0xbc806960	-0.015675247
157	0xbb3f5109	-0.0029192588
158	0xbdcfb244	-0.10141423
159	0xbd6a7a06	-0.057245277
160	0x3c9936e7	0.018702937
161	0x3d783c0e	0.060604148
162	0xbc925264	-0.017861553
163	0x3e10ac2e	0.14128181
164	0xbd6b5d64	-0.05746211
165	0x3d845101	0.06460763
166	0xbd9910a1	-0.07473875
167	0xbe2d305e	-0.16912982
168	0x3d0e59fc	0.034753785
169	0x3deefa23	0.116688035
170	0x3d63e60d	0.055639315
171	0x3da09f3a	0.0784287
172	0x3d0c99aa	0.034326233
173	0xbe18cbfd	-0.14921565
174	0xbda8de0d	-0.08245478
175	0xbd7f304b	-0.062301915
176	0x3c8f12f7	0.017465098
177	0xbc6d9ff5	-0.014503469
178	0x3c6d6a44	0.014490668
179	0x3da35db0	0.07976854
180	0x3c16e7c0	0.009210527
181	0xbd1251fb	-0.035722714
182	0xbcb0515c	-0.02152317
183	0xbd76fd0d	-0.06029992
184	0x3e151f4f	0.14562725
185	0x3dc5abba	0.09651895
186	0xbcf64eaf	-0.030066816
187	0xbdca321d	-0.098728396
188	0xbe0ec114	-0.13940841
189	0x3dc26249	0.09491403
190	0x3e05a70a	0.13052002
191	0xbe0392c4	-0.12848955
192	0x3d4f8e54	0.050672844
193	0x3e06fe97	0.13183056
194	0x3bca5cd9	0.006175619
195	0x3d32f67d	0.0436921
196	0x3dcf1742	0.10111858
197	0xbd2c6ff1	-0.042098943
198	0xbe3c8a40	-0.18412113
199	0x3dea6964	0.11445883
200	0xbc857f76	-0.01629613
201	0x3c0a46f4	0.008439768
202	0xbe28b13b	-0.16473858
203	0xbd915420	-0.07096124
204	0xbdcedd3d	-0.101007916
205	0xbc47c56e	-0.012193067
206	0xbb048387	-0.0020219998
207	0x3d86e8e4	0.06587389
208	0x3ba5ef74	0.0050639454
209	0xbcdc28d4	-0.026874937
210	0xbce61983	-0.028088337
211	0xbc31e04b	-0.010856698
212	0x3e30b7da	0.17257634
213	0x3d6b0020	0.057373166
214	0x3d69eb26	0.05710902
215	0x3c86e154	0.016464867
216	0xbdbbd0a3	-0.09170654
217	0x3e43f3bd	0.19135948
218	0xbdd0269c	-0.10163614
219	0xbda27ece	-0.07934342
220	0xbd43335a	-0.047656395
221	0xbe308bae	-0.17240784
222	0x3dcbee61	0.099575765
223	0xbd90ac85	-0.070641555
224	0xbd40ab8f	-0.04703861
225	0xbc8cc35b	-0.017182996
226	0x3c2b1474	0.010441888
227	0x3d47c792	0.04877431
228	0x3dcee2dd	0.101018645
229	0xbe027290	-0.12739015
230	0xbc62ab74	-0.013834823
231	0xbe0e64e5	-0.13905676
232	0x3c7bf4da	0.015378201
233	0xbd58010c	-0.052735373
234	0x3d058640	0.032598734
235	0x3da500db	0.08056804
236	0x3d249a03	0.04018594
237	0x3e4119d4	0.18857509
238	0xbd3ddf8d	-0.046355773
239	0x3d8c049c	0.06836817
240	0x3da17316	0.07883279
241	0x3e0463da	0.12928715
242	0xbda78e29	-0.08181412
243	0xbca1a836	-0.01973353
244	0xbb537317	-0.0032264644
245	0x3bcba9da	0.0062153162
246	0xbc2cbf31	-0.01054363
247	0xbe453b67	-0.19260941
248	0x3d46fcbd	0.048580874
249	0x3b89b715	0.0042027333
250	0xbe36a2ed	-0.17835589
251	0x3d51b1ee	0.051195078
252	0xbd02015d	-0.03173958
253	0x3db701c5	0.089358844
254	0xbce3abb2	-0.027791832
255	0x3cf530c2	0.029930476

network_body._body_endoder.seq_layers.4.bias f4 [128]
0	0xbaa02e5d	-0.0012220849
1	0xba1d69eb	-0.0006004858
2	0xba73cd9b	-0.0009300352
3	0x3a5d7e74	0.0008449324
4	0xba460acb	-0.0007554709
5	0xba824789	-0.0009939532
6	0xb90b0f8f	-0.00013261869
7	0x394bf623	0.00019451282
8	0x3a952a27	0.001138036
9	0xba984e6b	-0.001162005
10	0x3aa2a992	0.0012410155
11	0xb701e0f2	-7.741373e-06
12	0xb9a3d78f	-0.00031250386
13	0x3aa18b03	0.0012324754
14	0x39de6bd4	0.00042423478
15	0x39d71ccf	0.0004102946
16	0xba80a2c1	-0.000981413
17	0xba4cbc02	-0.0007809998
18	0x39932155	0.0002806286
19	0x3a6c237f	0.0009007975
20	0x39aa865d	0.00032525035
21	0x3a29cb96	0.0006477175
22	0xba2af64d	-0.0006521687
23	0x3a884dfb	0.0010399217
24	0xb9a9259e	-0.0003226222
25	0xb9f89d87	-0.00047419613
26	0x3a0426af	0.00050411647
27	0x3a28deca	0.00064418896
28	0xba48caf6	-0.0007659638
29	0x3994c7c7	0.00028377605
30	0x38f57147	0.0001170361
31	0xba95b635	-0.00114221
32	0x3a1c8ab5	0.00059715967
33	0xba90b422	-0.0011040012
34	0xb8880882	-6.48657e-05
35	0xba45c1c8	-0.0007543829
36	0xb9dd40c9	-0.00042200673
37	0xba9fb36f	-0.0012184213
38	0x3901dec2	0.00012385382
39	0x3a5e50a6	0.00084806455
40	0x3a8c2e4d	0.0010694951
41	0x3ab2dba5	0.0013645781
42	0x3a0c849e	0.00053603377
43	0xb994f031	-0.00028407716
44	0x391995f7	0.00014647083
45	0xba150340	-0.0005684383
46	0xb998026a	-0.00028993498
47	0xb97db578	-0.00024195563
48	0x3902d246	0.00012476099
49	0xb9b3cfa1	-0.00034296236
50	0xb99d9071	-0.0003005299
51	0x397ff004	0.00024408108
52	0xb96ffac2	-0.0002288623
53	0xba36e2dd	-0.0006976554
54	0x38fb1046	0.00011971644
55	0x38db0923	0.000104444356
56	0x38c19073	9.229863e-05
57	0x3a511dc9	0.00079771556
58	0x3a4570ac	0.0007531743
59	0x3a8691fc	0.0010266895
60	0x3a752421	0.0009351392
61	0x39d4a8c2	0.00040561525
62	0xb916fd69	-0.00014399517
63	0xb9bbc270	-0.00035812287
64	0x39ae65d7	0.00033263743
65	0xb7c32b1f	-2.3265891e-05
66	0x369b7127	4.6325326e-06
67	0x3a4b9214	0.0007765603
68	0xba853ee6	-0.001016584
69	0xba2de3d3	-0.0006633375
70	0xb9239197	-0.00015599128
71	0x3aab1107	0.0013051339
72	0xba23e917	-0.00062526896
73	0x39e1e00e	0.00043082278
74	0xba4aece6	-0.0007740989
75	0xba6ca578	-0.00090273423
76	0xba051d0a	-0.00050778745
77	0x392318cb	0.00015554127
78	0x3abb4709	0.0014288138
79	0xba27f32c	-0.000640678
80	0x3a5038c6	0.000794303
81	0x3a23d143	0.0006249139
82	0xb91a239d	-0.00014699851
83	0xba25f149	-0.0006330205
84	0x39782eb0	0.00023668515
85	0x39ae69c4	0.00033266668
86	0xba6aa62a	-0.0008951152
87	0xb96fb0e7	-0.00022858717
88	0xb9ac0862	-0.00032812642
89	0xb9a6ed7d	-0.0003183893
90	0xba344b33	-0.00068776606
91	0xba626dfe	-0.0008637606
92	0xb98de368	-0.00027063047
93	0x38bdcdbd	9.050544e-05
94	0xba828b2b	-0.0009959688
95	0x3964e284	0.00021828158
96	0x390a088c	0.0001316389
97	0x38f1f098	0.000115365896
98	0x3a4c0100	0.00077821314
99	0x39fae2fd	0.00047852835
100	0xb9f2d79e	-0.00046318484
101	0xba247154	-0.0006272991
102	0xba21467b	-0.0006152165
103	0xb8212b47	-3.8425696e-05
104	0xb9af9aac	-0.0003349384
105	0x3791c7e6	1.7378432e-05
106	0xb7d01aa0	-2.480793e-05
107	0xba75b2dc	-0.00093726604
108	0xb9d0ad39	-0.00039801912
109	0x3728fab7	1.0071954e-05
110	0x3a2760d7	0.00063849747
111	0x399f2a84	0.0003035852
112	0x3a06fe44	0.0005149583
113	0x3a952ca7	0.0011381105
114	0x39ea127c	0.0004464573
115	0xb933563d	-0.00017102897
116	0x3a922a4b	0.001115152
117	0x39df3492	0.00042573042
118	0xb9b9dbf6	-0.00035449833
119	0x39bd012c	0.00036049762
120	0xbae7b71c	-0.0017678472
121	0x39a18c6e	0.0003081294
122	0xba3c3de7	-0.0007180855
123	0x398936aa	0.00026171404
124	0x391cab32	0.00014941095
125	0xb99267f6	-0.00027924747
126	0xba4fde30	-0.0007929532
127	0xb9bcf787	-0.00036042577

action_model._continuous_distribution.log_sigma f4 [1, 39]
0	0xb8b9f51e	-8.867144e-05
1	0x3a19d11a	0.00058676454
2	0xba8baa48	-0.0010655606
3	0xba183cf7	-0.00058074243
4	0xb951780e	-0.00019976517
5	0xb8cae4e0	-9.674742e-05
6	0x3a75aaea	0.00093714765
7	0xb9b6a5cc	-0.00034837273
8	0xba397728	-0.00070749456
9	0xba4482b1	-0.0007496281
10	0xb9cfc8ea	-0.0003963181
11	0x39acfb86	0.00032993796
12	0xb9890266	-0.00026132463
13	0xba2b748c	-0.0006540499
14	0xba02244b	-0.00049645145
15	0x39a6fcdc	0.00031850382
16	0xba374674	-0.00069913943
17	0xb898a80c	-7.279226e-05
18	0x38d86f52	0.00010320418
19	0xb9655191	-0.00021869528
20	0xba467fb8	-0.0007572132
21	0xb996fc28	-0.000287981
22	0xba306f30	-0.00067304354
23	0x3a1309c9	0.0005609063
24	0x3a20f8d1	0.0006140592
25	0x3a0114b4	0.00049240445
26	0x3965950f	0.0002189467
27	0xb84039e3	-4.583028e-05
28	0x3a54c148	0.00081159594
29	0x39a637d5	0.00031703585
30	0x39a784be	0.00031951623
31	0x38bbe89b	8.960181e-05
32	0xb88923af	-6.539316e-05
33	0x39f79b4c	0.00047227216
34	0x3a490f13	0.0007669788
35	0x3a6821fa	0.00088551606
36	0xb9336636	-0.00017108847
37	0x371a45cd	9.195367e-06
38	0xb8899af8	-6.561534e-05

action_model._continuous_distribution.mu.weight f4 [39, 128]
0	0x3a913922	0.0011079649
1	0xbcf2c071	-0.029632779
2	0xbb5678d3	-0.0032725825
3	0xb9e9591e	-0.0004450762
4	0x3a89fade	0.0010527035
5	0x3b1070fe	0.0022040005
6	0xbbb9f229	-0.0056746197
7	0x3c8586b3	0.016299581
8	0xbc8bc09f	-0.017059622
9	0xbc9ff3c2	-0.019525412
10	0x3bbdd09f	0.005792692
11	0xbcf1044c	-0.029420994
12	0xbca5458c	-0.020174764
13	0x3c5f5d89	0.01363314
14	0xbb46d16b	-0.0030337225
15	0xbb5fab55	-0.0034129221
16	0xbbba4b92	-0.005685278
17	0xbc9a1860	-0.018810451
18	0x3bf98595	0.007614801
19	0x3c6ac4f1	0.014329181
20	0x3af82ab1	0.0018933621
21	0xbc7061f3	-0.01467179
22	0x3cbb30a1	0.022850337
23	0x3cf569ca	0.02995767
24	0x3ba511bb	0.005037514
25	0x3b8f0d1d	0.004365577
26	0x3ada1068	0.001663697
27	0x3d0e0914	0.034676626
28	0x3c7598f4	0.01499008
29	0x3bbcdec9	0.0057638627
30	0xbc9e5330	-0.019326776
31	0xbc7e3115	-0.015514632
32	0xbccb18ee	-0.02479216
33	0x3baa8ae3	0.005204545
34	0xbcfe1d7f	-0.031019924
35	0x3d3cdd82	0.046109684
36	0x3c880bdd	0.01660722
37	0x3c9d2810	0.019184142
38	0xbcb64f59	-0.022254633
39	0x3c275fb4	0.0102156885
40	0xbc4f6a46	-0.012659615
41	0xbc4ef067	-0.012630559
42	0x3ae12d11	0.0017179569
43	0x3c8fd153	0.017555868
44	0xbcbce381	-0.023057701
45	0xbca3a819	-0.019977616
46	0x3af84d6a	0.001894397
47	0x3c4d4efb	0.012531037
48	0xbd005e5e	-0.031339996
49	0x3d096553	0.033543896
50	0xbd0ba078	-0.03408858
51	0xbc0069cb	-0.007837723
52	0x3b9d22ec	0.004795423
53	0xbcb6a191	-0.022293838
54	0x3b362b49	0.0027796796
55	0x3cdee063	0.027206605
56	0xbc8e3b2d	-0.017362202
57	0x3c7e31e5	0.0155148255
58	0x3ca98365	0.020692537
59	0xbcb59a1a	-0.022168208
60	0xbd5066a4	-0.050879136
61	0xbd29efd9	-0.041488502
62	0xbccf48bc	-0.025303237
63	0x3ce3e013	0.027816808
64	0xbc8a3cd3	-0.016874706
65	0x3a8969e4	0.0010483828
66	0xbc6201f2	-0.013794409
67	0x3b1ba988	0.0023752172
68	0xbaf06b20	-0.0018342473
69	0x3ac88743	0.00152991
70	0x3bb5b5ee	0.0055453693
71	0x3cbffde9	0.023436503
72	0x3bf778e9	0.0075522554
73	0x3c4d45f7	0.012528888
74	0xbaa818e7	-0.0012824804
75	0x3c2ced0a	0.010554561
76	0xbbb79a25	-0.0056030923
77	0x3c252d5d	0.010081616
78	0x3c985f68	0.01860018
79	0x3b4d9ab9	0.003137274
80	0xbc86fae9	-0.016477065
81	0xbcc4cc1a	-0.024023104
82	0x3cb6ae4e	0.022299912
83	0xbcee6527	-0.029100968
84	0x3cc0d1c8	0.023537531
85	0xbcec9198	-0.028878018
86	0x3c340355	0.010987123
87	0xbc5c657b	-0.013451929
88	0xbc943b81	-0.01809478
89	0x3c886209	0.01664831
90	0x3ceb61db	0.028733185
91	0xbc95ce86	-0.018286955
92	0x3b44ea65	0.0030046937
93	0xbcd31d1e	-0.02577072
94	0x3cf2b487	0.029627098
95	0x3b66f675	0.0035242115
96	0xbbbcfd95	-0.005767534
97	0xbbfa15f4	-0.0076320115
98	0xbc95e488	-0.018297449
99	0xbc9614a9	-0.018320398
100	0xbaa973a2	-0.0012928138
101	0xbcc90168	-0.024536803
102	0x3b846652	0.004040518
103	0xbc45fa0c	-0.012083542
104	0xbb084711	-0.0020794312
105	0xbaf74fc1	-0.0018868373
106	0xbcaa4a94	-0.020787515
107	0xbb137a92	-0.0022503478
108	0x3c622006	0.01380158
109	0x3d31331a	0.043261625
110	0xbcbbd925	-0.022930691
111	0x3b4a70e4	0.0030890042
112	0x3ba5aa29	0.005055685
113	0xbd0fdd8c	-0.035123393
114	0xbb838171	-0.0040132334
115	0xba1fe144	-0.0006098936
116	0x3b5e11ea	0.003388519
117	0x3c7637d4	0.015027959
118	0xbc02c880	-0.007982373
119	0xbd0befbf	-0.034164187
120	0x3c83d167	0.016091062
121	0x3cd67c13	0.02618221
122	0xbc22087b	-0.009889717
123	0xba0581a1	-0.00050928636
124	0xbb05c51f	-0.0020411683
125	0xbce1f5d2	-0.027583037
126	0x3c41a952	0.011820154
127	0xbd75c7e1	-0.060005073
128	0x3bf88c99	0.00758512
129	0xb9ccb004	-0.00039041054
130	0x3baac912	0.0052119577
131	0xbcbb647d	-0.022875065
132	0x3bbbc21a	0.005729926
133	0x3c431dab	0.011908929
134	0xbcb48bc7	-0.022039307
135	0xbc401aaf	-0.011725112
136	0xbaa14a1c	-0.0012305412
137	0xbc9ac341	-0.018891932
138	0xbb534204	-0.0032235393
139	0xbc8c707d	-0.017143482
140	0x3c53dd3b	0.012931163
141	0xbc7cf5e4	-0.015439484
142	0x3c013b17	0.007887623
143	0xbc40f2ae	-0.011776609
144	0x3bda46df	0.0066612805
145	0xbc6a10bd	-0.014286217
146	0xba1ad7a5	-0.00059067673
147	0x3c1b9602	0.009496214
148	0xbd0ea799	-0.034827802
149	0xbcd00d03	-0.02539683
150	0x3b087fef	0.0020828207
151	0xbcc8b327	-0.024499489
152	0x3c85cb57	0.016332312
153	0x3c8a0256	0.016846817
154	0x3cd2b7d3	0.02572242
155	0xbc61004e	-0.013732983
156	0xbb82b369	-0.0039886725
157	0x3cad8d89	0.021185653
158	0x3be5664e	0.007000721
159	0x3adfbd93	0.0017070047
160	0xbd1fb866	-0.038994215
161	0x3c3e8394	0.01162805
162	0x3c5fcf5e	0.01366028
163	0xbd1f750f	-0.038929995
164	0xbc674a0e	-0.014116777
165	0x3c5f1008	0.013614662
166	0x3d07bf4f	0.03314143
167	0xbc03e2aa	-0.008049646
168	0x3c89defb	0.016829958
169	0xbd0576a7	-0.03258386
170	0xbc0b47ec	-0.008501034
171	0xbb8796ad	-0.004137835
172	0x3a0198ab	0.0004943709
173	0xbc99d864	-0.01877994
174	0xbcd22f2e	-0.025657263
175	0xbcb0d1b6	-0.021584373
176	0x3c416a69	0.011805155
177	0xbc99f027	-0.018791271
178	0x3c42340e	0.011853231
179	0x3b98ecae	0.0046668863
180	0x3cae09b1	0.021244856
181	0xbb31725c	-0.002707622
182	0xbca58bf0	-0.020208329
183	0x3bc752c2	0.0060828635
184	0xbc677427	-0.014126814
185	0xbcecd26a	-0.028908927
186	0x3c23eba7	0.010004914
187	0xbb8eb47f	-0.004355013
188	0xbba6f336	-0.005094911
189	0xbcbcd697	-0.023051543
190	0xbc64e364	-0.01397023
191	0x3c07282b	0.008249323
192	0x3c03b4f9	0.008038753
193	0xbc209d77	-0.009803168
194	0x3ae3adfc	0.0017370577
195	0xbc86f9d6	-0.016476553
196	0x3cf95767	0.030437184
197	0xbb9ed773	-0.004847461
198	0xbc5d40b3	-0.013504195
199	0xbc82113a	-0.015877355
200	0xbb8ebfda	-0.0043563666
201	0xbcad5b2c	-0.021161638
202	0x3bbe8efb	0.0058153844
203	0x3c8886a2	0.01666576
204	0xbca17513	-0.019709146
205	0xbcb361f2	-0.02189729
206	0xbcb5698d	-0.022145057
207	0x3bd689f1	0.0065472056
208	0xbc80e303	-0.015733248
209	0xbcb16c6a	-0.021658141
210	0x3c8497c5	0.01618565
211	0x3bca1870	0.006167464
212	0xbbb58429	-0.0055394364
213	0xbd03fe60	-0.032225013
214	0x3b15007d	0.0022735887
215	0x3c7a2b69	0.015269139
216	0xbaa64599	-0.0012685537
217	0x3aae6ec4	0.0013308157
218	0x3cb01ecc	0.02149906
219	0xbc4c9ed4	-0.012489039
220	0xbd20ba5c	-0.039240226
221	0xbc454a37	-0.01204162
222	0x3bb1578c	0.0054120477
223	0xbc9494eb	-0.018137416
224	0x3c2230d7	0.00989934
225	0xbaaf1e7d	-0.0013360527
226	0xbb77e85a	-0.0037827701
227	0x3be056e6	0.0068462966
228	0x3c1e0825	0.0096454965
229	0x3c0e298a	0.008676896
230	0x3ca650e5	0.020302245
231	0x3cbbea07	0.022938741
232	0x3b37ed88	0.0028065164
233	0x3ba4e4c0	0.005032152
234	0x3cd357b9	0.025798665
235	0x3c94d6c4	0.018168814
236	0x3c8e97f3	0.01740644
237	0x3d110352	0.035403557
238	0x3aedeec7	0.0018152826
239	0xbca99e0a	-0.020705242
240	0xbcb98f4e	-0.02265134
241	0x3c1abde9	0.009444692
242	0x3cd1f54d	0.025629664
243	0x3cb72f43	0.022361403
244	0x3c7d3d59	0.015456521
245	0x3cca62e4	0.024705358
246	0xbbf8a762	-0.007588313
247	0xbb956995	-0.0045597055
248	0xbc236bbc	-0.009974416
249	0x3c4088ef	0.0117513975
250	0x3cad17e0	0.021129549
251	0x3bb5dde4	0.005550133
252	0xbcfef517	-0.031122727
253	0xbb6015e6	-0.003419274
254	0x3c6ee60d	0.014581216
255	0xbc601e84	-0.0136791505

action_model._continuous_distribution.mu.bias f4 [39]
0	0xb9848afd	-0.00025280556
1	0xbaab172c	-0.001305317
2	0xb894dca5	-7.098288e-05
3	0xb96522cf	-0.00021852109
4	0x3acc02e3	0.0015564825
5	0xba32088a	-0.00067914336
6	0xba023a98	-0.00049678376
7	0xb85b202d	-5.2243635e-05
8	0xb995d66e	-0.00028579257
9	0x3a0e28c8	0.0005422947
10	0xb8b0d09d	-8.431191e-05
11	0x3a313108	0.00067593204
12	0xba3ff75f	-0.0007322933
13	0x3ada85ba	0.0016671934
14	0xb871d5dc	-5.765805e-05
15	0x3ac50700	0.0015031993
16	0x3a3d4c9f	0.0007221195
17	0x3a2da76d	0.00066243747
18	0x3ab2ff32	0.0013656376
19	0x3a9022e0	0.0010996722
20	0x37744a6e	1.4560863e-05
21	0xb9f72fd3	-0.00047147143
22	0x3a4eb26a	0.0007884862
23	0xb98a8565	-0.00026420798
24	0x3a452c1e	0.00075215276
25	0x3a03fb21	0.00050346745
26	0x399ba6a8	0.00029688072
27	0xba39db94	-0.00070899096
28	0xb94ec680	-0.00019719638
29	0xb90859e4	-0.00013003458
30	0xb9a8e92b	-0.0003221718
31	0xba3bdd65	-0.0007166474
32	0xb9f6671a	-0.00046997593
33	0xb935f24f	-0.00017351772
34	0xba17654f	-0.0005775289
35	0xb9e059f0	-0.00042791618
36	0x3a2be6ba	0.0006557513
37	0x3927b2db	0.0001599299
38	0x39558ff1	0.00020366885
