Assets/Brains/AdrianTests/Test8/Zombie Walker.onnx (onnx, 280597 bytes, 9 tensors)

network_body._body_endoder.seq_layers.0.weight f4 [128, 239]
0	0x3e09d352	0.13459519
1	0xbc355978	-0.011068694
2	0xbd95eeda	-0.07320948
3	0x3d77d12b	0.060502212
4	0x3ce3d9f1	0.027813883
5	0xbe6c4682	-0.23073772
6	0x3d10c320	0.035342336
7	0x3d934bf4	0.07192221
8	0x3dc54bb3	0.09633579
9	0xbd98643f	-0.074409954
10	0xbd7f35a8	-0.06230703
11	0xbdf6459e	-0.12024997
12	0xbcd88812	-0.02643207
13	0xbd148003	-0.036254894
14	0x3d0563d0	0.03256589
15	0xbdd30342	-0.10303356
16	0x3e092542	0.13393119
17	0xbd003245	-0.03129794
18	0xbde9a6ba	-0.11408754
19	0x3d81d00e	0.063385114
20	0x3da0334d	0.07822285
21	0xbd900960	-0.07033038
22	0xbcc06361	-0.023484888
23	0x3d62f8cf	0.055413064
24	0xbd92bd13	-0.07164969
25	0x3dce8adf	0.10085081
26	0x3b8d0b65	0.004304337
27	0xbab7d041	-0.0014023856
28	0x3e160829	0.1465155
29	0xbd583a7b	-0.052790146
30	0x3d9cf18e	0.076632604
31	0xbe0309cd	-0.12796707
32	0xbc60fb5f	-0.013731807
33	0x3dbcab53	0.09212365
34	0xbd691ecd	-0.05691414
35	0xbe2dc417	-0.16969334
36	0xbe385ef8	-0.18004978
37	0x3cebf61a	0.028803874
38	0xbd43605f	-0.04769933
39	0xbd8db945	-0.06920103
40	0xba842959	-0.0010083123
41	0x3d313e97	0.04327258
42	0x3df44179	0.119265504
43	0x3ddb9dc6	0.10723452
44	0x3e1a6864	0.15078884
45	0xbe358cef	-0.17729543
46	0xbdcd8203	-0.100345634
47	0xbd085e64	-0.033293143
48	0x3df3c95d	0.119036414
49	0xbde5b2f2	-0.11215772
50	0xbd394695	-0.045233328
51	0x3dd1d528	0.102457345
52	0x3dbd6635	0.0924801
53	0x3d3e83e2	0.046512492
54	0x3e365b34	0.17808229
55	0xbe09dccb	-0.13463132
56	0x3c3f3f49	0.011672803
57	0x3d7182cb	0.058962625
58	0x3e02f454	0.12788516
59	0xbd4edcc3	-0.050503504
60	0x3e00e664	0.12587887
61	0xbe28dc21	-0.16490223
62	0xbdb97860	-0.09056163
63	0x3d8fedc0	0.07027769
64	0x3cd3e80f	0.02586749
65	0x3e08d0d7	0.13360916
66	0x3d64f1c0	0.055894613
67	0x3dc2251b	0.094797336
68	0xbdb268d0	-0.08711398
69	0xbd7f11e2	-0.062272914
70	0xbe38b1e3	-0.18036608
71	0xbc447d08	-0.0119927
72	0xbe213762	-0.15743783
73	0x3de3d23f	0.11124086
74	0x3d0f596d	0.034997392
75	0xbd76a897	-0.060219374
76	0x3d28ed63	0.041242015
77	0x3ccdb156	0.025108974
78	0xbd6d231b	-0.057894807
79	0xbda4396c	-0.08018765
80	0x3c3bad38	0.011454873
81	0x3e41be61	0.1892028
82	0x3d898cae	0.06716286
83	0x3d9739d0	0.07384074
84	0x3c2898fa	0.010290379
85	0xbdf2724a	-0.11838205
86	0x3da79a3d	0.081837155
87	0x3d5f977a	0.05458782
88	0xbd5b84a7	-0.053593304
89	0x3d71ac6f	0.059002336
90	0x3dffeb6d	0.12496076
91	0x3e174b19	0.14774741
92	0xbd635f64	-0.055510893
93	0x3b7cd213	0.0038577362
94	0xbded6d50	-0.11593115
95	0xbd303e23	-0.04302801
96	0x3e0cca2d	0.13748999
97	0xbd2abb13	-0.041682314
98	0x3d08a0be	0.03335642
99	0xbdcebc85	-0.10094551
100	0xbc82a23e	-0.015946504
101	0x3e41c5a8	0.18923056
102	0xbe098758	-0.13430536
103	0xbda68926	-0.08131628
104	0x3ca75b13	0.02042917
105	0x3ce32ba7	0.027730776
106	0x3dbc3437	0.09189647
107	0xbd39d83f	-0.045372244
108	0xbd413f8d	-0.047179747
109	0x3cc802c7	0.024415387
110	0xbe8316fc	-0.25603473
111	0xbe391daa	-0.18077722
112	0xbe12cef9	-0.14336766
113	0x3dbd646f	0.09247672
114	0x3ca2c413	0.019868886
115	0xbd34b539	-0.04411814
116	0x3c961386	0.018319856
117	0x3cc32e99	0.02382593
118	0xbd8e3cb6	-0.069451734
119	0xb9d06e9e	-0.00039755268
120	0x3ab5bfc5	0.0013866356
121	0x3e2223ed	0.15834017
122	0x3bf42707	0.0074509415
123	0xbdce1a19	-0.100635715
124	0x3d2eabdf	0.042644378
125	0x3c920b85	0.017827759
126	0x3dcb2d35	0.09920732
127	0xbe1c4f6f	-0.15264677
128	0xbd837392	-0.06418528
129	0x3c1f58f5	0.009725799
130	0xbea02d34	-0.31284487
131	0xbe5e9c8c	-0.21739405
132	0x3cbee8a4	0.023304291
133	0xbbcfb3ac	-0.006338557
134	0xbd161459	-0.0366405
135	0x3e35acd1	0.17741705
136	0x3e56557d	0.20931049
137	0x3e061930	0.13095546
138	0xbd9c1484	-0.076211005
139	0xbda1bd11	-0.0789739
140	0xbcb26d82	-0.021780733
141	0x3c8641fd	0.016388888
142	0xbda3641c	-0.07978079
143	0x3d7c12d1	0.061541382
144	0x3e1237da	0.14279118
145	0xbe034a49	-0.12821306
146	0xba61ba61	-0.00086108415
147	0x3d9107ea	0.070815876
148	0xbd3998d3	-0.04531176
149	0x3d0f5062	0.03498877
150	0xbdb0bfa1	-0.086303
151	0x3e9f7343	0.31142625
152	0x3baa3185	0.0051938915
153	0xbe2cb477	-0.16865717
154	0xbdb18efe	-0.08669852
155	0xbd2b4f4f	-0.04182368
156	0x3daccf6b	0.08437999
157	0xbd8afe69	-0.06786806
158	0xbd292c32	-0.041301914
159	0xbcc3041b	-0.023805669
160	0x3e26e6b1	0.1629894
161	0x3d3443dd	0.044010032
162	0x3d1cd01e	0.038284414
163	0x3db93389	0.09043033
164	0x3dc75976	0.0973386
165	0x3dfd03a7	0.12354212
166	0xbe4b3da4	-0.19847733
167	0xbc8cba9b	-0.017178824
168	0x3def519a	0.11685486
169	0xbcdae841	-0.026722075
170	0x3dc5d3e2	0.09659554
171	0xbe0ad0ac	-0.13556165
172	0x3e2f06b1	0.17092396
173	0x3da77012	0.081756726
174	0xbd0ce6bb	-0.03439973
175	0x3e222e98	0.15838087
176	0xbe12844f	-0.14308284
177	0xbd2de529	-0.042454872
178	0xbda8e10d	-0.0824605
179	0x3e1572d9	0.14594592
180	0x3e30307f	0.17206
181	0xbe32417f	-0.17407797
182	0x3b1b7196	0.0023718826
183	0x3d83004e	0.063965425
184	0x3d601de0	0.05471599
185	0x3c653844	0.013990466
186	0x3c82f259	0.015984701
187	0x3dbf218b	0.0933257
188	0xbcdcbb76	-0.026944857
189	0xbdc7e34f	-0.097601525
190	0x3db08392	0.08618845
191	0xbe338152	-0.175298
192	0x3e2c4ecc	0.16826934
193	0xbda87ac0	-0.08226538
194	0x3e177011	0.14788844
195	0x3e3d3247	0.1847621
196	0xbe15d0e0	-0.1463046
197	0xbdb20f1b	-0.086942874
198	0x3dbb97ea	0.09159835
199	0xbcde0ea4	-0.02710659
200	0xbe585a2c	-0.21128148
201	0x3cb20e11	0.021735223
202	0x3d623aef	0.055231985
203	0x3cd76e76	0.026297789
204	0x3e3a67fc	0.1820373
205	0xbe363afe	-0.17795941
206	0xbe349e6b	-0.17638557
207	0x3d418729	0.04724804
208	0xbbdc325c	-0.0067198705
209	0xba2b48f3	-0.00065340026
210	0xbdc63951	-0.09678901
211	0x3d6c09e5	0.057626624
212	0x3e1e005c	0.15429825
213	0xbd0ed5fe	-0.034872048
214	0x3d1db077	0.038498368
215	0xbe816b75	-0.25277296
216	0xbdf7bbec	-0.1209639
217	0xbc954733	-0.018222427
218	0xbcab1794	-0.020885266
219	0x3db9d47b	0.090737306
220	0x3cdc857a	0.026919115
221	0xbcd4b4be	-0.02596509
222	0xbcbb02f5	-0.022828558
223	0x3d24b821	0.04021466
224	0xbe056997	-0.1302856
225	0xbc88133f	-0.01661074
226	0xbdfb073a	-0.12257238
227	0x3b979d03	0.0046268716
228	0xbcb68c65	-0.022283742
229	0x3d826f0e	0.06368838
230	0xbe142e13	-0.14470701
231	0xbc511664	-0.012761686
232	0x3dd1c151	0.1024195
233	0x3e45ec6a	0.19328466
234	0x3ba81a39	0.005130079
235	0xbd8df41d	-0.069313265
236	0x3cb9e5ab	0.022692522
237	0x3d9315d0	0.07181895
238	0x3d3359f1	0.043786947
239	0xbc9d1076	-0.019172888
240	0x3d4d4ff5	0.05012508
241	0x3e12f06d	0.14349528
242	0x3ddafc36	0.10692637
243	0xbd2a6664	-0.041601554
244	0x3e0ab5ea	0.13545957
245	0x3dfb9f6f	0.12286269
246	0x3da0f8d9	0.07859964
247	0x3e18f0e8	0.14935648
248	0x3b49fae7	0.0030819715
249	0x3d93ce79	0.07217116
250	0x3c144acc	0.009051036
251	0x3cc66657	0.024218721
252	0x3de20422	0.110359445
253	0xbdb5226d	-0.08844457
254	0xbdebde12	-0.11516966
255	0x3dbe3241	0.09286929

network_body._body_endoder.seq_layers.0.bias f4 [128]
0	0xb8edd485	-0.000113406255
1	0xbbebc84e	-0.007195509
2	0x3c803f20	0.0156551
3	0x3c0236af	0.007947608
4	0x3c94959d	0.018137747
5	0x3c12c810	0.008958831
6	0xbd603454	-0.054737404
7	0x3d85077b	0.064955674
8	0xbca62fc0	-0.02028644
9	0xbcd12eee	-0.025535073
10	0x3c7445dd	0.014909235
11	0x3aeecef8	0.001821964
12	0xbcab47ad	-0.020908201
13	0xbcbd0025	-0.023071358
14	0xbdaf0a22	-0.085468546
15	0xbce7d760	-0.028300941
16	0xbb5a09bc	-0.0033269962
17	0x3d0873eb	0.033313673
18	0xbbb8658f	-0.005627341
19	0x3cc7199f	0.02430421
20	0x3d844726	0.06458883
21	0x3cb052de	0.02152389
22	0xbd780532	-0.06055183
23	0xbc994fde	-0.018714841
24	0xbccae411	-0.024766954
25	0x3aa851e0	0.0012841783
26	0xbc90fc2a	-0.017698366
27	0x3c73097b	0.014833803
28	0x3c4fbe96	0.012679717
29	0xbd45d6b3	-0.048300456
30	0xbce47fb1	-0.02789292
31	0xbd859b6b	-0.06523784
32	0xbcfe574a	-0.031047482
33	0x3d49df26	0.049285077
34	0x3da75286	0.08170037
35	0xbc089626	-0.008336579
36	0x3d094efd	0.033522595
37	0x3ca2ef15	0.019889394
38	0xbd35ae23	-0.044355523
39	0xbd088181	-0.03332663
40	0x3d6ce000	0.05783081
41	0x3ccc2650	0.024920613
42	0xbc0ddc6b	-0.008658509
43	0x3d711839	0.05886099
44	0xbd5def76	-0.054183446
45	0xbd1d7ff1	-0.038452093
46	0x3c371690	0.011174813
47	0x3cf70636	0.030154329
48	0xbc71bb96	-0.014754197
49	0x3c737ca8	0.014861263
50	0xbd27a0b4	-0.040924743
51	0x3d238b52	0.039927788
52	0x3cb1142b	0.021616062
53	0xbc29db76	-0.010367265
54	0xbd954777	-0.072890215
55	0x3d4eba02	0.05047036
56	0xbca31b60	-0.019910514
57	0xbd556afe	-0.05210399
58	0x3b897b48	0.0041956045
59	0x3cc28a50	0.023747593
60	0xbbd3af72	-0.0064601237
61	0xbced7a23	-0.028988903
62	0xbca4012c	-0.02002009
63	0xbc527c3b	-0.012847002
64	0x3ca599d3	0.02021495
65	0xbc81149d	-0.0157569
66	0x3d7fee8b	0.06248335
67	0x3d6944fe	0.05695056
68	0x3d1552f7	0.036456075
69	0x3d3f2f02	0.04667569
70	0xbd04a6b5	-0.032385547
71	0x3cf5c7b4	0.030002452
72	0x3ba91738	0.0051602386
73	0x3c06d169	0.008228638
74	0x3cf88944	0.03033889
75	0x3ab9d5e8	0.0014178129
76	0xbd3ff4b9	-0.046864245
77	0xbcff3f94	-0.031158246
78	0x3daeb8fe	0.08531378
79	0x3d24f29a	0.040270425
80	0xbcf2fb5e	-0.029660877
81	0x3c89a3be	0.016801711
82	0xbd725044	-0.05915858
83	0x3c79a0af	0.015236064
84	0x3ca7a9ac	0.020466648
85	0xbd801cad	-0.062554695
86	0xbc80bd1f	-0.01571518
87	0xbd9d0d4c	-0.07668552
88	0xbbaef88a	-0.0053396868
89	0xbd87b035	-0.06625406
90	0x3be8b80b	0.0071020178
91	0x3d585682	0.052816875
92	0xbdd41436	-0.103554174
93	0x3cbad03e	0.022804376
94	0xbc02ebd1	-0.007990793
95	0xbb1b292d	-0.0023675666
96	0x3d024f93	0.03181417
97	0x3cd57bc3	0.02605999
98	0xbd336742	-0.043799646
99	0x3d121d6b	0.035672586
100	0xbc854350	-0.016267449
101	0x3cb1c7db	0.021701744
102	0xbd19a2e2	-0.037508853
103	0x3cfa4f11	0.03055528
104	0x3c87746c	0.016535006
105	0xbc757b3e	-0.0149829965
106	0xbd878c60	-0.06618571
107	0xbd00ee3f	-0.03147721
108	0x3da0e7aa	0.078566864
109	0x3b9adb10	0.0047258213
110	0xbccc5565	-0.024943063
111	0xbcf96f96	-0.030448716
112	0xbc0e3586	-0.008679753
113	0xbcc00e7c	-0.023444407
114	0xbdc7e5ea	-0.097606495
115	0xbcc863ac	-0.02446159
116	0x3d46f599	0.048574064
117	0xbc5b7206	-0.0133938845
118	0xbda76a3e	-0.08174561
119	0xbd3475ae	-0.04405754
120	0x3c008c86	0.007846003
121	0xbd26841e	-0.04065334
122	0xbcb32761	-0.021869363
123	0x3bf0c964	0.0073482264
124	0xbd1e6585	-0.038671035
125	0x3c3c0da2	0.01147786
126	0xbd13c275	-0.03607412
127	0xbd8a80ca	-0.06762846

network_body._body_endoder.seq_layers.2.weight f4 [128, 128]
0	0xbe1615ba	-0.14656726
1	0xbd81d0ec	-0.06338677
2	0x3e29e3a0	0.16590738
3	0xbded9ac5	-0.116017856
4	0x3d7e21b0	0.062043846
5	0x3df485fc	0.11939618
6	0xbd82deae	-0.06390129
7	0x3e4a6de7	0.19768487
8	0x3b6655e0	0.00351464
9	0xbd305c69	-0.04305688
10	0x3bbdb348	0.0057891943
11	0xbe572f63	-0.2101417
12	0x3d920ae6	0.07130985
13	0x3c846368	0.016160682
14	0x3d0fb17d	0.035081375
15	0xbd4a10f9	-0.049332593
16	0xbe82ff69	-0.25585487
17	0xbe85b3e2	-0.26113802
18	0xbe8636f1	-0.26213792
19	0xbcf5c564	-0.03000135
20	0xbd4f9fa6	-0.050689362
21	0xbc81215e	-0.015762981
22	0xbe61934b	-0.22028844
23	0xbb1f9b22	-0.002435394
24	0x3d402e29	0.04691902
25	0xbda0c00e	-0.078491315
26	0xbec4e6f1	-0.38457444
27	0x3e2296a4	0.15877777
28	0x3d16216e	0.036652975
29	0xbc9fb6a9	-0.019496279
30	0xbe7a92f2	-0.24470118
31	0x3da2570b	0.079267584
32	0x3dd96d57	0.10616558
33	0xbe112ec0	-0.1417799
34	0xbe79777a	-0.24361983
35	0xbd1a6a51	-0.037699047
36	0x3e82116e	0.25403923
37	0x3da023e2	0.07819344
38	0x3d69d940	0.05709195
39	0x3ca2948a	0.01984622
40	0xbe384d4b	-0.17998235
41	0xbdcdf069	-0.1005562
42	0xbd5523a0	-0.052035928
43	0xbe24e078	-0.16101253
44	0xbe097a45	-0.13425548
45	0x3ccf0e21	0.025275292
46	0xbe0707c2	-0.13186553
47	0xbc2d2775	-0.010568489
48	0x3ce5d25e	0.028054412
49	0x3d882d82	0.06649305
50	0xbd7b7468	-0.06139031
51	0x3d82dc1f	0.06389641
52	0x3db33b03	0.0875149
53	0xbe76ed25	-0.24113901
54	0xbe65c9d4	-0.22440273
55	0x3e1f5842	0.15561011
56	0xbd8b034e	-0.0678774
57	0x3c859d3b	0.016310325
58	0xbcd3b8d4	-0.025844969
59	0x3d107ce3	0.03527535
60	0x3e1d6e9e	0.15374228
61	0x3e37c044	0.17944437
62	0x3cd6637c	0.026170485
63	0xbdbb794a	-0.091539934
64	0xbe263213	-0.1623004
65	0xbd9b8da8	-0.07595378
66	0x3db51b32	0.08843078
67	0x3dc16915	0.09443871
68	0x3dbbe9b9	0.091754384
69	0x3e1abeaa	0.15111795
70	0xbd8006cb	-0.06251296
71	0xbdb13c2c	-0.08654055
72	0xbd2e41e7	-0.042543318
73	0xbd233f72	-0.039855428
74	0xbd6be606	-0.057592414
75	0xbdf8dd07	-0.121515326
76	0xbe08a461	-0.13343956
77	0xbc191d8b	-0.0093454225
78	0x3d2f9b0a	0.042872466
79	0xbda48c42	-0.080345646
80	0x3ba5d427	0.005060691
81	0xbe736102	-0.23767474
82	0xbe294cb3	-0.16533165
83	0x3c37a54b	0.0112088425
84	0xbdf81680	-0.121136665
85	0xbd7a43cd	-0.061099816
86	0x3c1e2f9f	0.009654908
87	0x3de9adb4	0.11410084
88	0xbcf9a6b8	-0.030475006
89	0x3e0d429f	0.13794945
90	0xbce6191b	-0.028088143
91	0xbdaae66f	-0.08344733
92	0xbd6150c7	-0.055008676
93	0xbca263a5	-0.019822905
94	0xbccffb82	-0.025388483
95	0x3e243995	0.16037591
96	0x3d9e7c9e	0.077386126
97	0xbd157ecd	-0.03649788
98	0xbe220d73	-0.15825443
99	0xbdc40097	-0.09570425
100	0x3e007584	0.12544829
101	0xbd10d3c1	-0.035358194
102	0xbdadebc2	-0.08492233
103	0xbd0ff178	-0.035142392
104	0x3e29b6d3	0.16573648
105	0xbe193825	-0.14962824
106	0x3e02e41f	0.12782334
107	0xbd9b6aa5	-0.075887
108	0x3b00b410	0.0019638576
109	0xbd93462c	-0.071911186
110	0xbd14dd34	-0.03634377
111	0xbe3b37d2	-0.18283013
112	0xbe03882b	-0.12844913
113	0xbe50464f	-0.2033932
114	0x3dd87c41	0.105705746
115	0xbc62361f	-0.013806849
116	0xbe7fa7c5	-0.24966343
117	0xbd255019	-0.04035959
118	0xbcbe13f2	-0.02320287
119	0x3d0db3a3	0.034595143
120	0x3e1d3cc9	0.15355219
121	0xbd4bfa56	-0.049799286
122	0xbe5e72eb	-0.21723525
123	0x3e22c5bb	0.1589574
124	0xbde37007	-0.11105352
125	0x3e052f4f	0.13006328
126	0x3e5d9348	0.21638215
127	0x3da671c0	0.08127165
128	0xbe999924	-0.2999965
129	0x3bf5e9f9	0.0075046984
130	0x3e4a1b7c	0.19737047
131	0xbc14c756	-0.0090807285
132	0xbca992d8	-0.020699903
133	0x3d80d0b6	0.062898085
134	0xbdcd5a4e	-0.1002699
135	0x3d389fff	0.04507446
136	0x3c891837	0.01673518
137	0xbe119bf5	-0.14219649
138	0xbe05e4fe	-0.13075635
139	0x3ba96849	0.0051699025
140	0xbc95120c	-0.018197082
141	0x3c8ddbf0	0.017316788
142	0xbd4be080	-0.049774647
143	0x3d1db81e	0.038505666
144	0xbda3231d	-0.07965682
145	0x3d1f622e	0.03891199
146	0xbe3e78d9	-0.18600787
147	0xbe405813	-0.18783598
148	0x3e3d6004	0.18493658
149	0x3e11de49	0.14244951
150	0xbdfb8674	-0.12281504
151	0xbe177dfe	-0.14794156
152	0x3dbaad0d	0.09115038
153	0xbdda8ee6	-0.10671787
154	0x3e2ad985	0.1668454
155	0xbdb80457	-0.08985203
156	0xbd8e1271	-0.06937111
157	0x3dce58d0	0.100755334
158	0xbddc1d23	-0.10747745
159	0x3c75b989	0.014997848
160	0xbd3129a5	-0.043252606
161	0xbd037cc9	-0.032101426
162	0xbd0643b2	-0.032779403
163	0x3e1c8b50	0.15287519
164	0x3dd513f2	0.10404195
165	0x3da9bcac	0.082879394
166	0xbe2af9be	-0.16696832
167	0x3da75e18	0.08172244
168	0x3d794f2a	0.060866512
169	0xbbee87cb	-0.0072793714
170	0xbd93ccef	-0.07216822
171	0xbcc7d34e	-0.02439275
172	0x3d9fe1d2	0.07806744
173	0x3d36c794	0.044623926
174	0xbdf2ea68	-0.11861116
175	0x3eb7db00	0.3590927
176	0x3b21982f	0.002465736
177	0xbe3f13b6	-0.18659863
178	0x3d450d1c	0.048108205
179	0xbd05bce3	-0.03265084
180	0xbd9cf07b	-0.076630555
181	0x3e585604	0.21126562
182	0xbe54e154	-0.20789081
183	0x3df3e864	0.11909559
184	0xbd6bd347	-0.057574537
185	0x3c8dea1f	0.017323552
186	0x3c11de8a	0.008903155
187	0x3d948d78	0.072535455
188	0xbe2e7149	-0.17035402
189	0x3e00031a	0.12501183
190	0xbd530bd1	-0.05152494
191	0xbc39ba68	-0.011335947
192	0x3d80945d	0.06278298
193	0xbea7b450	-0.32754755
194	0xbdb5369d	-0.08848307
195	0x3e3deb93	0.18546896
196	0xbe0ee16e	-0.13953182
197	0x3d961af7	0.07329362
198	0x3d8f0ed7	0.06985252
199	0x3e622c6e	0.22087261
200	0x3c15621a	0.0091176275
201	0xbb6267af	-0.0034546664
202	0xbe0ed72b	-0.13949268
203	0xbc80b74b	-0.0157124
204	0x3c213178	0.009838454
205	0x3b1a5701	0.0023550394
206	0x3e19bb4b	0.15012853
207	0x3e7d5f4d	0.24743386
208	0xbd4e775a	-0.05040679
209	0xbc9bbc1e	-0.0190106
210	0xbe3a7f0f	-0.18212532
211	0xbe7c7742	-0.24654868
212	0x3e3ba6b8	0.18325317
213	0x3cb8eefb	0.022574892
214	0x3d8f8b04	0.07008937
215	0xbd5657a4	-0.052329674
216	0xbe8ec074	-0.27881205
217	0xbc9e329d	-0.019311244
218	0x3d95b366	0.07309608
219	0x3b451730	0.0030073635
220	0xbd54bc32	-0.05193729
221	0xbcc1c25d	-0.02365225
222	0x3d86a364	0.06574133
223	0xbd16f874	-0.036858037
224	0xbb3ba23a	-0.002863063
225	0x3d0a9229	0.033830795
226	0xbda032e5	-0.07822207
227	0x3e706d70	0.23479247
228	0x3d6841e5	0.056703467
229	0x3d63bede	0.055601947
230	0x3d03c40c	0.032169387
231	0xbcbc0dec	-0.022955857
232	0x3e1245d0	0.14284444
233	0xbb5b968a	-0.0033506476
234	0xbcb811a0	-0.022469342
235	0xbc718bd5	-0.014742811
236	0x3dce3d33	0.100702666
237	0x3be6d8ed	0.0070449025
238	0xbe0906dd	-0.13381524
239	0x3d84e37b	0.06488701
240	0xbc81f49d	-0.015863711
241	0x3d17b8d9	0.03704152
242	0xbda848c6	-0.082170054
243	0x3dd47044	0.103729755
244	0xbdd07296	-0.101781055
245	0x3dd3f774	0.10349932
246	0xbdc34b42	-0.09535839
247	0xbe1e0003	-0.15429692
248	0x3c76f131	0.015072153
249	0xbdd86d20	-0.10567689
250	0x3b2d3c1a	0.0026433528
251	0xbdc09fbb	-0.09405466
252	0xbc88e441	-0.016710402
253	0x3d12d503	0.035847675
254	0xbe9c93d3	-0.3058153
255	0xbd6dfa56	-0.058100067

network_body._body_endoder.seq_layers.2.bias f4 [128]
0	0xbcef1c75	-0.029188374
1	0x3d84c20f	0.06482326
2	0xbacb2b5b	-0.0015500592
3	0x3db0c2ad	0.086308815
4	0x3d4990f2	0.049210496
5	0x3c7022fd	0.014656779
6	0xbd06d92e	-0.032921962
7	0x3bc44dbe	0.005990713
8	0x3da601ac	0.08105788
9	0x3d9d78d6	0.07689063
10	0xb9a0e775	-0.00030690027
11	0x3d93cd0d	0.07216845
12	0x3c589308	0.013218649
13	0x3d01c651	0.03168327
14	0xbb829141	-0.003984601
15	0x3dd1aa88	0.102376044
16	0xbcbbe881	-0.022938015
17	0x3ccde5ed	0.025134051
18	0xbd81a202	-0.06329729
19	0xbd5cb2df	-0.053881522
20	0x3c8f802b	0.01751717
21	0xbd39cc42	-0.04536081
22	0x3cca4e82	0.024695639
23	0x3da16c25	0.07881955
24	0x3cd6b241	0.026208045
25	0xbd53e696	-0.051733576
26	0xbdbf10a0	-0.09329343
27	0xbd5e54ce	-0.054280095
28	0xbce8d3ab	-0.028421244
29	0xbb461875	-0.003022698
30	0xbd36d9b3	-0.044641208
31	0x3d86e2e7	0.06586247
32	0xbc2fbb73	-0.010725844
33	0x3daaedae	0.08346115
34	0xb7adea7d	-2.07324e-05
35	0x3d72775f	0.059195872
36	0xbd303146	-0.04301574
37	0x3d0b0921	0.033944253
38	0xbd86c56d	-0.06580625
39	0x3bfc4ffc	0.0076999646
40	0x3d000692	0.031256266
41	0xbcf45575	-0.029825905
42	0xbd55b86f	-0.052177843
43	0xbd1f1ce1	-0.0388459
44	0x3d9677d0	0.07347071
45	0xbdb13310	-0.086523175
46	0x3d789712	0.060690947
47	0xbd8bd3e4	-0.06827524
48	0x3d0d0723	0.034430634
49	0xbcd00f68	-0.025397971
50	0x3d3c08e2	0.04590691
51	0xbdb17fd3	-0.08666959
52	0x3d8e6691	0.06953157
53	0x399e06b2	0.00030141097
54	0xbc05b731	-0.008161352
55	0xbd102eee	-0.035201006
56	0x3d2f5f68	0.042815596
57	0xbd08b581	-0.03337622
58	0xbc0a9594	-0.008458514
59	0x3d009f71	0.031402055
60	0x3cdbb150	0.026817948
61	0x3cfbe544	0.03074897
62	0xbcbf0f41	-0.023322703
63	0x3d797b5a	0.060908653
64	0x3dbfec83	0.09371283
65	0x3cf303f2	0.029664967
66	0x3d52afc6	0.051437162
67	0x3cc5f9c0	0.024166942
68	0xbc8a8bdc	-0.016912393
69	0x3c52ef1a	0.012874389
70	0x3db80de3	0.08987024
71	0xbd6da41a	-0.058017828
72	0xbd0be82c	-0.034156963
73	0xbca5f5a1	-0.020258727
74	0xbd59e8fa	-0.0532007
75	0x3d17fc5d	0.037105907
76	0x3d3395a8	0.043843895
77	0x3d00fe0e	0.031492285
78	0x3d732574	0.05936189
79	0xbd87808b	-0.066163145
80	0x3d8b9668	0.06815797
81	0x3d3a1b52	0.04543621
82	0x3cfa5ed0	0.030562788
83	0x3d256794	0.040381983
84	0xbb8bb98d	-0.0042640627
85	0xbd8ea9c9	-0.06965978
86	0xbcb5719e	-0.022148903
87	0xbd21eee3	-0.03953446
88	0x3d2224ac	0.039585754
89	0xbcc1d5e0	-0.023661554
90	0x3da2752d	0.07932506
91	0xbcade23a	-0.021226037
92	0x3d19b384	0.037524715
93	0x3d809bdb	0.06279727
94	0x3ca91854	0.020641483
95	0x3d3d8d78	0.046277493
96	0x3cfe30e7	0.031029178
97	0x3c4f0917	0.0126364445
98	0x3cd8834e	0.026429798
99	0x3ce98e6a	0.028510291
100	0x3dd17b48	0.10228592
101	0x3d805b92	0.06267466
102	0x3dd06c9f	0.10176968
103	0xbe0055fa	-0.12532797
104	0x3b837e20	0.004012838
105	0xbc57c380	-0.013169169
106	0xbd5fddb9	-0.05465481
107	0x3c903a4a	0.01760592
108	0x3c83e5da	0.016100813
109	0x3da10d69	0.07863886
110	0x3b90ebcc	0.0044226404
111	0x3d7714dd	0.06032263
112	0xbd0b2432	-0.033970065
113	0xbcbbc485	-0.022920856
114	0xbccc76cb	-0.024958989
115	0xbbdebe23	-0.0067975684
116	0xbd57cdae	-0.052686386
117	0x3d97bfa8	0.074096024
118	0xbdb30dc8	-0.08742863
119	0x3d7481f3	0.05969424
120	0xbbe35e3f	-0.0069387252
121	0xbccf369b	-0.025294593
122	0x3b8670a3	0.004102783
123	0xbd40a06e	-0.047027998
124	0x3cba4cd0	0.022741705
125	0x3ca2307b	0.019798508
126	0x3d4d5652	0.05013115
127	0x3d013d1c	0.03155242

network_body._body_endoder.seq_layers.4.weight f4 [128, 128]
0	0x3e0ede98	0.139521
1	0x3dffc7ec	0.12489304
2	0xbe85d337	-0.26137707
3	0x3e16dc2e	0.1473243
4	0x3e3851e3	0.17999987
5	0x3dada919	0.084795184
6	0xbe1ff061	-0.15619041
7	0xbe3e9266	-0.18610534
8	0x3db3c2bb	0.08777376
9	0xbd2c9515	-0.042134363
10	0x3bfc5e20	0.0077016503
11	0xbcca36e6	-0.02468438
12	0xbd09635c	-0.033542022
13	0xbdedb427	-0.11606627
14	0xbe3a7e3e	-0.1821222
15	0xbda46da7	-0.08028727
16	0xbcd55639	-0.02604209
17	0xbe331133	-0.1748703
18	0x3e1a21af	0.15051912
19	0x3d0d61c3	0.03451706
20	0xbd92074d	-0.07130299
21	0xbd843a3d	-0.064564206
22	0x3e5a73da	0.21333256
23	0x3de2b1c9	0.11069066
24	0xbde95bc0	-0.11394453
25	0x3c65faf5	0.014036884
26	0xbb19e725	-0.002348372
27	0x3ad3a61c	0.0016147527
28	0x3d82c216	0.06384675
29	0xbc73b311	-0.014874236
30	0x3d559d40	0.05215192
31	0x3cb7362e	0.022364702
32	0xbde7a4f1	-0.11310757
33	0xbe1799e7	-0.14804803
34	0xbd23f0f7	-0.040024724
35	0xbe60c888	-0.21951497
36	0x3d24ddba	0.040250517
37	0xbd987bde	-0.07445501
38	0xbd9078de	-0.070543036
39	0xbb946965	-0.0045291656
40	0x3d3f8e09	0.046766315
41	0x3e66d434	0.22541887
42	0xbe792efe	-0.24334332
43	0xbd5f82f2	-0.05456824
44	0x3d8ee493	0.06977191
45	0xbcd23eea	-0.025664765
46	0xbd864647	-0.06556373
47	0x3e175d24	0.14781624
48	0xbdbc4666	-0.09193115
49	0xbcad733f	-0.021173118
50	0x3cbcd6c9	0.023051636
51	0x3c8a26f3	0.016864276
52	0x3c91fc6b	0.017820558
53	0x3d695609	0.056966815
54	0x3e02d1a8	0.1277529
55	0x3e19da39	0.15024652
56	0xbd400fd0	-0.04689008
57	0xbe542f46	-0.20721158
58	0x3e6e555f	0.23274754
59	0xbe187254	-0.14887363
60	0x3e08430e	0.1330683
61	0x3df43875	0.11924831
62	0xbe8f1431	-0.27945092
63	0xbdab90eb	-0.0837725
64	0xbe4ca212	-0.199837
65	0xbe89e77e	-0.26934427
66	0x3e23a6a2	0.15981534
67	0x3db143ac	0.086554855
68	0x3d02836f	0.031863626
69	0xbe0dc0c3	-0.13843064
70	0xbcb46596	-0.022021096
71	0xbe3ba311	-0.18323924
72	0xbe428309	-0.18995298
73	0xbe8133fc	-0.25234973
74	0xbd6e2b82	-0.05814696
75	0xbe222b8b	-0.15836923
76	0xbe0db5a9	-0.13838829
77	0xbd9ae6d9	-0.07563562
78	0x3d0c280a	0.03421787
79	0x3cd05323	0.025430268
80	0xbe111d94	-0.1417144
81	0xbd6dd496	-0.058064066
82	0x3e10e8d6	0.1415132
83	0x3e5539c3	0.20822816
84	0x3c0f67d4	0.008752782
85	0xbcccff0e	-0.025023963
86	0xbdc66c51	-0.096886285
87	0xbd765c64	-0.060146704
88	0xbe4e53cd	-0.20149155
89	0x3ce4d8c4	0.027935393
90	0x3dc101c5	0.09424166
91	0x3d877a61	0.06615139
92	0xbd802a65	-0.06258086
93	0x3dd66a66	0.10469513
94	0x3be244fd	0.0069051967
95	0xbe81b6c0	-0.2533474
96	0xbd54de35	-0.051969726
97	0x3cbc365e	0.022975143
98	0x3dcefc8f	0.101067655
99	0x3dd3e27c	0.10345933
100	0x3da625bf	0.08112668
101	0xbe39e96c	-0.1815545
102	0x3e9eec1d	0.31039515
103	0x3de6f481	0.11277104
104	0xbd7af20c	-0.06126599
105	0xbbb1dafd	-0.0054277168
106	0xbd8fa558	-0.07013959
107	0xbc189017	-0.009311697
108	0xbd363db6	-0.044492446
109	0xbd524b81	-0.051341537
110	0xbd313632	-0.043264575
111	0x3decbd4c	0.11559543
112	0xbbef0c9e	-0.0072952053
113	0xbdb581ea	-0.0886267
114	0x3d5d250c	0.05399041
115	0xbd9761f9	-0.07391734
116	0x3d89e260	0.06732631
117	0x3cd9c73a	0.026584256
118	0xbe93ba7a	-0.28853208
119	0x3cdee429	0.027208405
120	0xbd913c1a	-0.070915416
121	0xbd96d4c8	-0.073648036
122	0xbdcf71bd	-0.10129116
123	0x3da9525a	0.082676604
124	0xbca82b4c	-0.020528458
125	0xbccc0036	-0.024902444
126	0xbe2cb9ac	-0.16867703
127	0xbe38ded1	-0.18053748
128	0x3e32812d	0.17432089
129	0xbcf011b1	-0.02930531
130	0xbd86bf55	-0.065794624
131	0xbe36caa9	-0.17850746
132	0x3e3dd1e2	0.18537095
133	0xbda46a4c	-0.08028087
134	0x3d8db2ff	0.069189064
135	0xbddbf3d9	-0.107398696
136	0x3d335cc1	0.04378963
137	0xbe3222cf	-0.17396091
138	0xbe12cb49	-0.1433536
139	0xbe04392a	-0.12912431
140	0x3e117517	0.14204822
141	0x3d319cb0	0.04336232
142	0xbdd589af	-0.10426652
143	0xbe1148c1	-0.1418791
144	0x3d47d9bb	0.04879163
145	0x3df7e07f	0.12103366
146	0x3d9f1e9f	0.077695124
147	0x3dd033be	0.10166119
148	0xbccb6a84	-0.024831064
149	0xbe3af869	-0.18258823
150	0xbe138bb8	-0.14408767
151	0x3d8426c4	0.064527065
152	0x3dc8fb35	0.09813539
153	0xbd8ade60	-0.06780696
154	0x3b9db43b	0.004812745
155	0xbdd7b171	-0.10531891
156	0xbdce0dfc	-0.10061261
157	0x3e8105a3	0.25199613
158	0xbd7fca00	-0.0624485
159	0xb9d51b80	-0.00040647015
160	0xbd7eb960	-0.062188506
161	0x3c5403c3	0.01294035
162	0xbb2d8b64	-0.0026480788
163	0xbe159f57	-0.14611565
164	0x3d394f29	0.04524151
165	0x3db955f1	0.09049595
166	0xbd50b8ed	-0.05095761
167	0xbd243ef5	-0.040099103
168	0xbdb4f23e	-0.088352665
169	0x3e184094	0.14868385
170	0xbc6120a1	-0.0137406895
171	0x3d383118	0.044968694
172	0x3e39c55b	0.18141691
173	0x3d8a58aa	0.067551926
174	0xbd05c14f	-0.032655057
175	0xbe361d56	-0.17784628
176	0x3d1020c2	0.03518749
177	0x3d2d5665	0.04231872
178	0xbdd4810b	-0.103761755
179	0x3d447dac	0.047971413
180	0x3db110cd	0.086457826
181	0x3c360de6	0.011111712
182	0x3d576798	0.05258903
183	0xbd03a3ed	-0.032138754
184	0xbdb33c38	-0.0875172
185	0xbd7e4afe	-0.062083237
186	0xbd3fe778	-0.046851605
187	0xbdf18e1a	-0.11794682
188	0xbe15bb06	-0.14622125
189	0x3d323219	0.043504808
190	0x3e052e30	0.130059
191	0xbd80a77e	-0.062819466
192	0x3e138c3e	0.14408967
193	0xbd08e137	-0.033417907
194	0xbdbecdbe	-0.09316586
195	0xbc46fdb4	-0.0121454485
196	0x3b448544	0.002998666
197	0xbd2a8396	-0.041629396
198	0xbdb1f804	-0.08689883
199	0x3de1b7bf	0.11021375
200	0xbb969cec	-0.0045963433
201	0x3e22abf8	0.15885913
202	0x3ca42a45	0.020039687
203	0xbe989321	-0.2979975
204	0xbdf13484	-0.11777595
205	0xbe1df374	-0.15424901
206	0x3ce05c8e	0.027387884
207	0x3d7703c9	0.060306344
208	0x3d724825	0.059150834
209	0x3db36fb8	0.08761543
210	0x3cdcf335	0.026971439
211	0xbe3412a8	-0.17585242
212	0xbd0d1bb7	-0.03445026
213	0x3d2a0f1f	0.041518327
214	0xbde1ca13	-0.11024871
215	0xbe060d67	-0.1309105
216	0x3da3a0c5	0.07989649
217	0x3d8950a1	0.06704832
218	0x3dbcf919	0.09227199
219	0xbdf9ba31	-0.12193716
220	0xbe294c3a	-0.16532984
221	0xbd8043d7	-0.062629394
222	0xbd38ce7b	-0.04511879
223	0xbd8e7670	-0.06956184
224	0x3b4cdfe2	0.0031261374
225	0xbb3ada0a	-0.002851131
226	0x3cb51efc	0.022109501
227	0xbd8a0daa	-0.067408875
228	0xbe10234f	-0.14075969
229	0x3d2b44d7	0.041813698
230	0xbdedf0ce	-0.116181955
231	0x3bdd7422	0.006758229
232	0x3de515f5	0.111858286
233	0x3e735b7a	0.23765364
234	0x3e6c7f92	0.23095539
235	0x3d547c06	0.05187609
236	0xbd8bbc47	-0.068230204
237	0x3d8affb7	0.06787055
238	0xbc1d39b0	-0.009596273
239	0xbd0e1be4	-0.034694567
240	0x3d01adbd	0.03165983
241	0x3d8d1dbd	0.06890438
242	0x3e8c4c97	0.27402183
243	0x3e36386e	0.17794964
244	0x3cab5f25	0.020919392
245	0x3c3b0b18	0.011416219
246	0x3d4eb01a	0.050460912
247	0xbd9a3c23	-0.075310014
248	0x3d681a51	0.056665722
249	0x3e11837e	0.14210317
250	0xbce4e4a6	-0.02794106
251	0x3d70c085	0.05877735
252	0xbadf309c	-0.0017028037
253	0x3d44236f	0.047885355
254	0x3dbbb5dc	0.09165546
255	0x3db1efd3	0.08688321

network_body._body_endoder.seq_layers.4.bias f4 [128]
0	0x3d0a403d	0.03375267
1	0xbda0337c	-0.0782232
2	0x3da24c39	0.079246946
3	0x3a54ce8b	0.00081179355
4	0xbdea6a4c	-0.11446056
5	0xbd68fd0a	-0.05688194
6	0xbbab6c1c	-0.0052313935
7	0xbc276931	-0.010217951
8	0xbd993096	-0.0747997
9	0xbc93939b	-0.01801472
10	0xbc6c6583	-0.014428499
11	0x3d90ca9a	0.07069893
12	0x3d6ef08c	0.058334872
13	0x3d18e005	0.037323017
14	0x3cfd3114	0.030907191
15	0xbce504e9	-0.027956443
16	0xbc57fe55	-0.013183196
17	0xbe03d821	-0.12875415
18	0x3cbb4b6a	0.022863109
19	0x3d299526	0.041402005
20	0xbbc40429	-0.0059819412
21	0xbd9736d3	-0.07383504
22	0xbcb11711	-0.021617444
23	0x3dabd3c5	0.08390001
24	0xbd7a4fca	-0.06111125
25	0xbd60976a	-0.0548319
26	0xbcaefb9c	-0.021360211
27	0xbdd15c1c	-0.102226466
28	0x3c33a3c0	0.010964334
29	0x3daa2b7f	0.083090775
30	0xbc06d08c	-0.008228432
31	0x3d329e40	0.04360795
32	0xbcd8f47b	-0.026483765
33	0xbdb160c1	-0.086610325
34	0xbd3bc268	-0.045839697
35	0xbc436d66	-0.011927938
36	0x3ccddc4d	0.025129462
37	0x3d7215dd	0.05910288
38	0xbb9b589b	-0.004740787
39	0xbd8b8e2c	-0.068142265
40	0xbd75006b	-0.05981485
41	0x3d42c02e	0.047546558
42	0xbc8b376a	-0.016994197
43	0xbd0cf06d	-0.034408975
44	0xbdb2d68f	-0.0873233
45	0x3d8f04b6	0.069833204
46	0x3d393cf0	0.04522413
47	0x3bd8a833	0.006611848
48	0x3c7c38c3	0.015394392
49	0xbd659a41	-0.05605531
50	0xbd64578d	-0.055747557
51	0x3d10e4c3	0.035374414
52	0xbd6eef3b	-0.058333617
53	0x3bb6b387	0.0055756005
54	0xbd1499d5	-0.03627952
55	0x3d4c81c8	0.049928457
56	0x3ab7b722	0.001401637
57	0x3d04fd7f	0.032468315
58	0x3c6a0c07	0.014285094
59	0x3d0a50f1	0.033768598
60	0xbc0f163c	-0.008733328
61	0x3d659755	0.056052525
62	0xbdfb6461	-0.12275005
63	0x3d690e2f	0.056898292
64	0x3d03dbb8	0.032191962
65	0x3b628591	0.0034564475
66	0xbb888535	-0.00416627
67	0xbcba80b0	-0.022766441
68	0xbd72e6e6	-0.059302233
69	0x3d84db23	0.064871095
70	0xbd345c1f	-0.044033166
71	0xbd127a95	-0.035761435
72	0xbc8d23fc	-0.017229073
73	0x3d7b8ec8	0.061415464
74	0xbcf6a9a8	-0.030110195
75	0x3c868a83	0.01642347
76	0x3d2c8406	0.042118095
77	0x3be05584	0.0068461318
78	0x3c939279	0.01801418
79	0xbdbe82f2	-0.093023196
80	0x3da13d62	0.07873036
81	0x3d0f71ca	0.035020627
82	0x3bf4c17b	0.0074693537
83	0xbdf39926	-0.11894445
84	0xbce21ad6	-0.027600687
85	0x3d67fec7	0.05663946
86	0x3cc88a14	0.024479903
87	0x3c8ce7fa	0.017200459
88	0xbd24bf71	-0.040221635
89	0xbd169883	-0.03676654
90	0x3cc12482	0.023576979
91	0x3cf55143	0.029945975
92	0x3cb3a8a4	0.021931
93	0xbb9b077f	-0.004731118
94	0x3c42c706	0.011888271
95	0x3d480ca9	0.0488402
96	0xbc1484b1	-0.009064839
97	0x3d44788b	0.04796652
98	0xbbeda64a	-0.007252489
99	0xbb9a799c	-0.004714204
100	0x3dcb9db6	0.0994219
101	0xbcaf1034	-0.021370031
102	0x3df84b1b	0.121237
103	0x3da3527f	0.07974719
104	0xbca4cfdd	-0.020118648
105	0x3d90056e	0.07032286
106	0x3cdf2b97	0.027242465
107	0x3d7f59b2	0.0623414
108	0x3de7c659	0.11317129
109	0x3db881cf	0.09009134
110	0xbd1492fc	-0.036272988
111	0x3ddeb74f	0.10874807
112	0x3d4212da	0.04738126
113	0x3d7d65bf	0.06186461
114	0x3cda4e89	0.026648777
115	0x3c333092	0.010936873
116	0x3caf0a9c	0.021367364
117	0x3cdecc0c	0.027196907
118	0xbd368fff	-0.04457092
119	0x3d684d16	0.05671414
120	0x3d2d6aaf	0.04233807
121	0xbd0808e4	-0.033211604
122	0x3d0cfd04	0.034420982
123	0x3d92cf65	0.071684636
124	0x3deca189	0.11554248
125	0xbdb899fd	-0.09013746
126	0xbd2099a9	-0.03920904
127	0x3c4301f5	0.011902322

action_model._continuous_distribution.log_sigma f4 [1, 39]
0	0xbee2e121	-0.44312385
1	0xbea307f7	-0.31842014
2	0xbf23f192	-0.6404048
3	0xbee2bb54	-0.44283545
4	0xbf0ae7a6	-0.5425972
5	0xbf0cb94b	-0.54970235
6	0xbec5089c	-0.3848313
7	0xbf0d90c7	-0.5529904
8	0xbecfbedf	-0.4057531
9	0xbedecbe3	-0.43514928
10	0xbea50f51	-0.32238248
11	0xbea8d48c	-0.3297466
12	0xbefab428	-0.48965573
13	0xbf0700ca	-0.5273558
14	0xbede4949	-0.43415287
15	0xbeef2953	-0.46711215
16	0xbf07cf00	-0.5305023
17	0xbeb7a681	-0.3586922
18	0xbf009f3e	-0.50242984
19	0xbeace2c3	-0.33766755
20	0xbf021c5f	-0.5082454
21	0xbf0e3f7c	-0.5556562
22	0xbf0e0949	-0.5548292
23	0xbedbab4f	-0.42904136
24	0xbebb82ba	-0.36623174
25	0xbee18203	-0.44044504
26	0xbef047ec	-0.46929872
27	0xbee11d06	-0.43967456
28	0xbf161fb8	-0.5864215
29	0xbedc24e7	-0.42996904
30	0xbee7889d	-0.45221415
31	0xbef201fc	-0.4726714
32	0xbf15e5cf	-0.58553785
33	0xbf014e05	-0.50509673
34	0xbec58da3	-0.38584623
35	0xbec8c9e0	-0.39216518
36	0xbf019552	-0.5061847
37	0xbed3afb4	-0.41344988
38	0xbf14178f	-0.5784845

action_model._continuous_distribution.mu.weight f4 [39, 128]
0	0xbd410709	-0.04712585
1	0xbc7ae61b	-0.0153136505
2	0x3d3ccb63	0.046092402
3	0xbdb93bfc	-0.09044644
4	0xbb9e9cc9	-0.0048404676
5	0x3c09853c	0.008393582
6	0xbdb8f294	-0.09030643
7	0x3da2a57d	0.07941721
8	0xbdb8cec7	-0.09023815
9	0xbe0ebfad	-0.13940306
10	0xbd24da00	-0.040246964
11	0xbd026290	-0.031832278
12	0x3d452d8f	0.04813915
13	0x3d1f146a	0.038837828
14	0xbd1ac378	-0.03778407
15	0x3d1f741e	0.038929097
16	0xbd6967b8	-0.05698368
17	0xbc84e6c0	-0.016223311
18	0x3d8e2cc9	0.06942136
19	0x3cfb6534	0.030687906
20	0x3d377d60	0.0447973
21	0xbd9ca006	-0.076477095
22	0x3c4a70e3	0.012356016
23	0x3d074dfe	0.033033364
24	0x3c9fcd26	0.019507002
25	0xbc98c9ac	-0.018650852
26	0xbc9ee242	-0.019394998
27	0xbd4cfefb	-0.050047856
28	0x3bcaf3f1	0.006193631
29	0x3d661214	0.056169584
30	0x3b2c6baf	0.0026309302
31	0xbd8bcda0	-0.06826329
32	0xbca1dba3	-0.019758051
33	0x3d9ba9ec	0.076007694
34	0x3e03d0e9	0.12872662
35	0x3d3218b6	0.043480597
36	0x3ccdc8c5	0.025120148
37	0xbe148bb3	-0.14506416
38	0x3da49628	0.080364525
39	0xbd3f4ba4	-0.046702996
40	0x3d36e9a8	0.044656426
41	0xbc2cdbad	-0.010550422
42	0xbcbffaf9	-0.023435103
43	0xbb4e5003	-0.0031480796
44	0xbda21d0a	-0.07915695
45	0x3cfac622	0.030612055
46	0xbd02d773	-0.03194375
47	0xbd938bea	-0.07204421
48	0xbdd91db6	-0.1060137
49	0xbd669500	-0.05629444
50	0x3b9a48f3	0.0047084033
51	0x3d4cd7a4	0.05001034
52	0x3da504df	0.0805757
53	0x3e0e2f04	0.13885123
54	0xbdeb544d	-0.114906885
55	0x3e0a6ce9	0.13518108
56	0x3deb2e7f	0.11483478
57	0x3e0450e3	0.12921481
58	0x3cfb5b13	0.030683076
59	0xbc86117a	-0.016365755
60	0x3d81d661	0.06339718
61	0xbd0b958f	-0.034078177
62	0xbd81c415	-0.06336228
63	0x3df0844e	0.11743985
64	0x3bb71c4f	0.0055880914
65	0xbe24a4f7	-0.16078554
66	0xbd30d857	-0.043175068
67	0x3bc810b1	0.0061055054
68	0xbc313d41	-0.010817827
69	0xbd6c31cf	-0.05766469
70	0x3d8765d1	0.06611217
71	0xbdcfb7e6	-0.10142498
72	0xbcd4df2d	-0.025985325
73	0x3c1a743a	0.009427125
74	0xbbc3d1f1	-0.0059759547
75	0xbd5d55b1	-0.0540368
76	0xbcb98c4f	-0.022649912
77	0xbcc9b7bd	-0.024623746
78	0x3e1ff4e1	0.15620758
79	0xbcdde903	-0.027088648
80	0x3e5aa2b2	0.21351126
81	0x3a6f30af	0.0009124381
82	0x3ce7f445	0.028314719
83	0xbd41446a	-0.047184385
84	0x3dba96ea	0.09110816
85	0x3c31d6bc	0.010854419
86	0xbb8221a5	-0.003971296
87	0x3c9cbc64	0.0191328
88	0x3c96f0a5	0.018425295
89	0x3c0c980c	0.008581173
90	0xbbbbc603	-0.005730392
91	0xbd1a3ca1	-0.037655476
92	0xbd250d06	-0.040295623
93	0x3c0763c3	0.008263531
94	0x3dd81f04	0.10552791
95	0x3dcee4b7	0.10102218
96	0x3ccedf67	0.02525301
97	0xbdd51805	-0.10404972
98	0xbcb6cc06	-0.022314083
99	0xbd95f86c	-0.07322773
100	0x3d6a8c3e	0.05726265
101	0xbd44a8a8	-0.048012406
102	0x3db91c6c	0.09038624
103	0x3df10d0a	0.11770065
104	0xbb947a24	-0.004531162
105	0x3d89da70	0.06731117
106	0xbcd92554	-0.026507057
107	0xbdd6df0f	-0.10491764
108	0xbc3ae0cb	-0.011406134
109	0x3c8258a8	0.015911415
110	0x3becfce8	0.007232297
111	0xbcd59cac	-0.026075684
112	0xbdcb7635	-0.099346556
113	0x3b9aff76	0.0047301603
114	0x3de414d9	0.11136789
115	0xbce3a275	-0.027787426
116	0x3dd86e2c	0.105678886
117	0xbcd82398	-0.02638416
118	0x3cac6755	0.021045366
119	0x3ca9ac29	0.020711975
120	0x3cd7f10b	0.026360055
121	0xbd5edab3	-0.054407787
122	0xbb1a648b	-0.0023558463
123	0xbdcf9117	-0.101350956
124	0x3cfe0c18	0.031011626
125	0x3bd0c8ef	0.0063716094
126	0xbc98dace	-0.018659022
127	0xbe0fef97	-0.1405624
128	0xbe22dd7a	-0.15904799
129	0xbb00c3fa	-0.001964806
130	0x3d1ac84e	0.03778868
131	0xbcccb323	-0.024987763
132	0xbd5c6035	-0.053802688
133	0x3d3a32db	0.045458656
134	0xbd989e31	-0.074520476
135	0x3cde1240	0.027108312
136	0xbd7f3f78	-0.062316388
137	0x3aa51ceb	0.0012597119
138	0xbd955269	-0.07291109
139	0xbdb74044	-0.089478046
140	0x3cfa0b58	0.030522987
141	0x3d56c5ed	0.05243485
142	0x3d618e47	0.055067327
143	0xbc987c07	-0.018613828
144	0xbd94cf4b	-0.072661005
145	0xbd26a09b	-0.04068051
146	0x3d8cbd51	0.06872047
147	0x3c8a0a1d	0.016850526
148	0x3d635128	0.05549732
149	0xbd68709d	-0.05674802
150	0xbc032869	-0.00800524
151	0xbbab004d	-0.0052185417
152	0xbc29a1b7	-0.010353497
153	0xbda2a79e	-0.07942127
154	0xbd574a6f	-0.05256122
155	0x3b0c8a72	0.0021444825
156	0xbd8a6d81	-0.067591675
157	0xbe056d81	-0.13030054
158	0xbdc4eba1	-0.09615255
159	0x3dda4478	0.10657591
160	0x3d7bac82	0.061443813
161	0xbda3c5d6	-0.079967186
162	0xbd65cbc2	-0.05610252
163	0x3d9c8d3e	0.07644127
164	0xbd965064	-0.07339552
165	0x3c191386	0.009343034
166	0x3dad4123	0.084596895
167	0x3d8839d7	0.06651657
168	0x3db40190	0.087893605
169	0x3d4002a0	0.046877503
170	0x3c8756cd	0.016520882
171	0xbccd4894	-0.025059022
172	0x3d864698	0.065564334
173	0xbe4360d9	-0.19079913
174	0xbc2d240e	-0.010567678
175	0xbd4b9c8f	-0.049709853
176	0x3d9b3a22	0.07579447
177	0xbdf3fc99	-0.119134136
178	0x3c774fca	0.015094707
179	0x3ddb2370	0.107001185
180	0x3d3a4857	0.045479145
181	0x3d81276e	0.06306349
182	0x3e3b8c40	0.1831522
183	0x3d03aa9c	0.032145128
184	0xbd584a05	-0.052804966
185	0x3beadaed	0.0071672113
186	0x3d6a6e44	0.057234064
187	0xbd2cf8b8	-0.042229384
188	0x3e059e95	0.13048775
189	0xbdaee47a	-0.08539672
190	0xbda5bac5	-0.08092264
191	0x3d6f0fe7	0.058364775
192	0x3d7c3516	0.061574064
193	0xbd119066	-0.0355381
194	0xbd08a757	-0.033362713
195	0xbb8fc937	-0.0043880004
196	0x3cf7d2b3	0.030251836
197	0x3d17bd13	0.03704555
198	0xbd1b12c6	-0.0378597
199	0xbe01ecac	-0.1268794
200	0x3c52d998	0.012869261
201	0xbd50e085	-0.05099537
202	0xbe08df9b	-0.13366549
203	0xbdca8eee	-0.09890543
204	0xbd85060b	-0.06495293
205	0x3ba5fbdf	0.0050654258
206	0x3bd89a2e	0.0066101765
207	0x3d0c4117	0.034241762
208	0xbddc4c62	-0.10756756
209	0x3d2d06ca	0.042242803
210	0x3dcccaf7	0.0999965
211	0xbd0709d0	-0.032968342
212	0xbcdfcdcf	-0.027319817
213	0xbc830d8b	-0.015997669
214	0x3d78de3c	0.060758814
215	0x3dbad594	0.09122768
216	0x3e28e450	0.16493344
217	0xbcb9c634	-0.022677518
218	0xbb7e765c	-0.0038827872
219	0xbd97ae74	-0.07406321
220	0xbd5ed4ea	-0.05440227
221	0xbdbbb748	-0.091658175
222	0xbd2113c4	-0.03932549
223	0x3d3c8bd2	0.04603178
224	0x3d6bd195	0.05757292
225	0x3e05b24b	0.13056295
226	0xbcb9b77a	-0.022670496
227	0xbddfc09b	-0.109254085
228	0xbd8cd3e6	-0.06876354
229	0x3d3ffac6	0.046870016
230	0x3df3fc4e	0.11913358
231	0xbe3eee70	-0.18645644
232	0x3c780160	0.015137047
233	0xbc1badf0	-0.009501919
234	0xbdacf621	-0.08445383
235	0x3d1ed39c	0.038776025
236	0xbd80d417	-0.06290453
237	0x3c7b6ff1	0.015346513
238	0xbd3823fb	-0.04495619
239	0x3d253028	0.04032913
240	0x3d714d65	0.0589117
241	0xbd6f48c3	-0.058419
242	0x3e0253b4	0.12727243
243	0xbe532e53	-0.2062314
244	0xbd82a3a7	-0.063788705
245	0xbe00c464	-0.12574917
246	0xbd69ec56	-0.057110153
247	0x3bce91fe	0.0063040247
248	0xbd33c1f4	-0.04388614
249	0xbd0e885d	-0.034798015
250	0xbdb37f8a	-0.087645605
251	0x3d60cb6e	0.054881506
252	0x3e0b156b	0.13582389
253	0x3c8502ab	0.016236624
254	0xbde4d387	-0.11173158
255	0x3d091690	0.033468783

action_model._continuous_distribution.mu.bias f4 [39]
0	0xbd01c38e	-0.031680636
1	0xbca671b4	-0.02031789
2	0xbde03a26	-0.10948591
3	0x3c978579	0.018496262
4	0xbd099e5a	-0.03359828
5	0xbdce33f2	-0.100685015
6	0x3de0c2fb	0.109746896
7	0x3d5b4f2b	0.053542297
8	0xbd0cbefe	-0.03436183
9	0x3d319f8d	0.04336505
10	0xbc6e9323	-0.014561447
11	0xbc161525	-0.009160315
12	0xbcc437ac	-0.023952328
13	0x3d69b5a7	0.057058003
14	0xbce3da60	-0.02781409
15	0xbcc4133a	-0.02393495
16	0x3ce53424	0.027978964
17	0xbd59b6a6	-0.053152703
18	0xbe0f205a	-0.13977185
19	0x3ddfa7c6	0.10920672
20	0xbd368cdb	-0.044567924
21	0xbdd60be5	-0.104514875
22	0xbd5411ae	-0.051774673
23	0x3d24bb24	0.040217534
24	0xbc705bd0	-0.014670327
25	0x3d1b4494	0.037907198
26	0x3d76899a	0.06018982
27	0xbc9497a4	-0.018138714
28	0xbcd89129	-0.026436405
29	0xbd2419f0	-0.0400638
30	0x3c204aa3	0.00978342
31	0xbd38a985	-0.04508354
32	0xbdc7ba21	-0.09752298
33	0x3c9c89a2	0.019108597
34	0xba4068d8	-0.00073398417
35	0xbcf4e981	-0.0298965
36	0xbcf06f5f	-0.02934998
37	0xbd421f54	-0.047393158
38	0x3d294842	0.041328676
