Assets/Brains/ArvidTests/LLegTest1/Zombie Walker/Zombie Walker-8499682.onnx (onnx, 827693 bytes, 11 tensors)

network_body.observation_encoder.processors.0.normalizer.running_mean f4 [246]
00000000: 27a0 a441 e04b 2a3b dcde 9bc1 db74 333c
00000010: 41da 2134 0000 0000 9317 b040 ad0c a8b9
00000020: 12be 6f3f 4d02 1f41 457a f03b f023 8fbc
00000030: 3625 013f 7b35 353f cc78 db3c bc75 6b3d
00000040: dc21 053f fc9d 283f d53c 29b9 80b3 6f3f
00000050: 9c03 1f41 0000 0000 0ec2 f63b eb27 5eba
00000060: ef0b 8c3c 0f60 463c a95c a53d e90a 403c
00000070: faff 26b8 fbd3 efb8 a066 0fb8 0000 0000
00000080: 5cd6 94bb dcaa 87bb d912 2c3c 674d c33d
00000090: fc0e f2bc 903d 9cbd 58e7 3bbe 8ace ba3d
000000a0: b994 2dbe 28c3 e3bd f156 863c fb86 e1bb
000000b0: bb91 7c3f 198e 013f 0000 0000 f1f7 003c
000000c0: dcc7 54bc 7d09 9e3c 889f 893e 7085 16bd
000000d0: 4ec0 70be 6332 b8bd 9a74 cf3b d735 a4bd
000000e0: f3e3 953e 9c59 99be 1e76 7a3e 009e af3e
000000f0: 81a4 f63e 0000 0000 bb28 e0ba 86cf e6bc
00000100: 46b9 653b 4caa f23a cc3a c3bc 1670 8bbc
00000110: cad7 afbe dc02 6b3e 1157 9ebe 99a9 d43d
00000120: 797c a73a 4066 7dbc c59c 7d3f 372b f83e
00000130: 0000 0000 4de0 6d3c 68da 5c3b a93d 573c
00000140: e960 f5bd 9dfe dd3c 3fec 31bd 71cb 0d3e
00000150: 52f2 c8bc f219 f73c ab17 1dbe d9bc ec3b
00000160: a821 4a3d 5aab 773f 257e 023f 0000 0000
00000170: 300e cdba 61c7 1bc3 dca7 24bb d103 703c
00000180: 29d4 223c 8445 a33c 2199 6a3e 59c8 1cbd
00000190: 9519 f13d 21fc 013f 8dc3 35b9 0b7e 7339
000001a0: 100b 593f f352 fa3e 0000 0000 bd0d 0f36
000001b0: 6cc5 1bc3 613f 8535 c302 7a3c 434b c0b9
000001c0: 9872 a43c 29a6 8b3e 6827 0abb 7e37 273e
000001d0: 2f05 ad3c 393a 8dbc 9740 f43b 1326 7f3f
000001e0: 14a0 f83e 0000 0000 c512 2c3c 871b 9dba
000001f0: 4501 8a3c 8f7d 263d 73cf abba ec54 a23c
00000200: bfd1 633d ef56 e3bc c98e 193e 3ac8 35be
00000210: c98c 933b 682b 293d 6673 763f 59ff e83e
00000220: 0000 0000 6ace 27bc 98b3 41ba 7fba 3b3c
00000230: 6ad6 cc3c 6f6a 043d b9a3 223d 081c 193e
00000240: 61e1 763c 5be4 8b3e ccf8 d63e 002a 423a
00000250: a096 bf3a 27eb 643f c13d 093f 0000 0000
00000260: f22e 14bc db54 633c d060 5a3c 0049 97bb
00000270: b000 093d a3aa fb3d 8e5e 483e daa7 e33d
00000280: 26b9 b03e 54fc 963a f28b 013b 4479 26bc
00000290: dce1 7e3f 89f9 073f 0000 0000 168f 973b
000002a0: 4bff d6bc dc3e 303c 7862 34be f1bf 83bd
000002b0: 0a39 0d3e aeef e2bd 78ae a83d 5e41 a5be
000002c0: 3f57 77bd 0ed9 8c3e 2da7 74be fb1d 533f
000002d0: 2dbd fc3e 0000 0000 936b fd3b dbe9 08bd
000002e0: 8483 b63c 51d3 8e3d f5c3 dd3c 58b2 ec3c
000002f0: 34fa 30be 388c d63c c107 c5be 3a35 36bd
00000300: 9bd6 273f fe1c 49bd 7a42 2d3f a0e3 013f
00000310: 0000 0000 2e81 8c3c efef a7bc 219b 763c
00000320: f785 663d 3bf9 fe3c 1830 233d c7f9 83be
00000330: 9f01 40bd f376 c0be 0000 0000 dd97 0abc
00000340: f3c2 28bd a498 433c eb68 7b3d 7820 4d3d
00000350: 7676 e73d 821b adbe c988 cd3d c938 babd
00000360: f65f a6bd be4d 83be 57e3 6e3e fad1 5d3f
00000370: b672 013f 0000 0000 8896 0c3c 37ed b1bc
00000380: c93e 8e3b 537c 213d 2207 3dbd 47b5 ca3c
00000390: 99a7 e4be a0c2 273d 6946 f9bd b4c3 dbbc
000003a0: 59d3 e4be 2d99 063d 0bce 5c3f 0d0c 073f
000003b0: 0000 0000 659e b4ba c7f4 80bc 0ad3 063c
000003c0: 01bc e5bc 968f 27bd 6d59 84bd f475 febe
000003d0: 2b80 38bd c5b1 27be
20.5782 0.0025985166 -19.483818 0.0109531535 1.5073694e-07 0.0 5.5028777 -0.000320529
0.936494 9.938062 0.0073387944 -0.017473191 0.50447404 0.7078473 0.026790999 0.057485327
0.5200479 0.65866065 -0.00016139758 0.9363327 9.938381 0.0 0.0075304573 -0.0008474576
0.017095534 0.012107863 0.08074314 0.011721351 -3.981588e-05 -0.000114358925 -3.4189434e-05 0.0
-0.004542155 -0.004140241 0.0105025405 0.09536248 -0.02954816 -0.076289296 -0.1834997 0.091214254
-0.16951264 -0.111212075 0.016398879 -0.006882546 0.9865987 0.5060745 0.0 0.007871614
-0.012987103 0.019291634 0.26879525 -0.03674835 -0.23510858 -0.089939855 0.0063310387 -0.08018082
0.29275474 -0.2995118 0.2445912 0.34300232 0.48172382 0.0 -0.0017101982 -0.028175127
0.0035053059 0.0018513887 -0.023831747 -0.01702122 -0.3434432 0.2295031 -0.309258 0.10383911
0.0012778185 -0.015466273 0.99067336 0.4847047 0.0 0.0145188095 0.0033699516 0.0131372595
-0.11981375 0.027098948 -0.043438192 0.13847138 -0.02452961 0.030163739 -0.1534106 0.007224661
0.049348503 0.96745837 0.5097373 0.0 -0.0015644487 -155.77882 -0.0025124466 0.014649347
0.009938278 0.019930609 0.22909977 -0.038277004 0.117724575 0.50775343 -0.00017334353 0.0002322124
0.84782505 0.4889141 0.0 2.1316657e-06 -155.77118 9.927718e-07 0.0152594475 -0.00036677168
0.020074174 0.27275208 -0.0021080617 0.16329762 0.021120636 -0.017239677 0.007453989 0.9966747
0.4855963 0.0 0.010502522 -0.0011986353 0.016846308 0.040647086 -0.0013108089 0.019815885
0.05561995 -0.027751414 0.14995874 -0.17752162 0.004502867 0.04130116 0.96269834 0.45507315
0.0 -0.010242084 -0.0007389127 0.011458038 0.025004584 0.032328065 0.03970692 0.149521
0.015068383 0.2732266 0.41986692 0.0007406771 0.0014617033 0.89421314 0.53609854 0.0
-0.009044396 0.013875212 0.013328746 -0.0046168566 0.03344792 0.12288406 0.1956732 0.111159995
0.34516257 0.0011519291 0.0019767252 -0.010160748 0.99563384 0.53115135 0.0 0.0046252115
-0.02624478 0.010757174 -0.17615688 -0.06433094 0.1379129 -0.110808715 0.08236402 -0.32276434
-0.06038594 0.2750935 -0.23891897 0.8246762 0.4936308 0.0 0.007733771 -0.033426147
0.022279508 0.06973899 0.027070979 0.028893635 -0.17282945 0.026189908 -0.38482478 -0.044484355
0.65561837 -0.049099915 0.6767956 0.50737953 0.0 0.017151441 -0.020500151 0.015051634
0.056280103 0.031124702 0.039840788 -0.25776502 -0.046876546 -0.3759075 0.0 -0.008459059
-0.041201543 0.011938248 0.061379354 0.050079793 0.113018915 -0.3381005 0.10035855 -0.09092862
-0.08123772 -0.2564525 0.23328911 0.86648524 0.5056566 0.0 0.008580811 -0.021719558
0.0043409807 0.039425205 -0.04614938 0.024744643 -0.44659117 0.040957093 -0.12171633 -0.026826717
-0.44692495 0.032860924 0.86251897 0.52752763 0.0 -0.0013780115 -0.015741719 0.008229027
-0.028043749 -0.04090842 -0.06462369 -0.49699366 -0.045044105 -0.16376407

network_body._body_endoder.seq_layers.0.weight f4 [256, 246]
00000000: cfad be3b d1b3 973c 0e89 04bd 9fd7 b13d
00000010: 6ca9 c5b9 f117 17bd 173e ba3d f0a6 dfbd
00000020: 7d8e 3abd 7fd1 d43c 1c02 a53d 21df d9bc
00000030: 8c8d 7b3c bb7b 6fbd 8e69 a2bb 6aab 26be
00000040: 8e3d 1dbd b459 213d 0a7a 21be e722 c63c
00000050: 7f7b cb3d 7f9e 9c3d ec72 403c 5aa1 79bd
00000060: b261 0c3c f62a 86bd 17ba 373d c0e3 5b3a
00000070: c5a4 15be f5aa 86bd 21e6 23be 91e0 db3d
00000080: 33e7 bb3d b54f 5abc 2de9 743c 98e0 493d
00000090: 2f27 7a3c b5ac ef3c ac76 a1bd a77c e83c
000000a0: 2547 39bd e839 cabc b6f3 333d 6231 2f3d
000000b0: 017a 41be ecc4 93bb 1ca4 c3bc 59a8 e93d
000000c0: ad97 813b 1683 ad3d fb60 9e3d 5464 ca3c
000000d0: 497f 923b 3d49 f7bd ab44 d9bd 3dd7 b8bc
000000e0: 0114 89bd aada 973b 96aa 3e3c 7cad e93c
000000f0: 5217 c0bc 8a28 e93c 1e61 953d 8f86 bf3d
00000100: 5b26 ee3c 0d0c 96bc 536e a73d 9549 103c
00000110: 39fa c1bd dc43 40bd 4825 0aba b14c 9d3d
00000120: 76d7 eebc 55f1 3dbd ee0c 68bd a215 bdbd
00000130: 69c5 5f3c e899 6fbd 69d2 db39 f1ce acbd
00000140: 60a2 413e d366 62bd 56e9 d4bc 09f9 2ebe
00000150: 86ff 563d c7df 803c cf72 ffbd 420f 22be
00000160: 45d3 793b ea2a 5c3c 93d1 623d a420 3d3d
00000170: 3377 5dbd 51eb 993b 975e 8fbc 9341 f43d
00000180: 9074 8b3d 8e96 7b3c 3fe3 c8bd 2c4f 883d
00000190: 4b51 33bc 7ff4 29bd b6be 2a3d bc58 483e
000001a0: ac62 d9bc 87d1 613d d8af 703d fb15 6cbd
000001b0: 0a23 7e3d 15c9 adbc 1409 983d e8b3 75bd
000001c0: 3d9c 9fbd a3f0 0abe bb5c 923d 6a94 1cbe
000001d0: 632d 383c cc5a 8abc f78a 6a3d 1a1f 713d
000001e0: 166e b83d f6cb ad3d 656c e9bd ec0d f93b
000001f0: db8c 9c3d 4445 c13d a55e c73d b2f9 103c
00000200: f4f2 2fbc 4933 883d 7925 bdbb 61eb c83c
00000210: fdbb b7bc c30b 033d 735c ad3c a792 133e
00000220: 01c1 d53d dda5 19be 6559 46bd 6bd3 00bc
00000230: 36fb e3bb d00c d13d 40df 91bd 86f6 13bc
00000240: a4af 61bc 3b16 f13a 72a5 af3d 14b6 9abd
00000250: ba58 99bd 52a3 203d ae5b a73d a71d 5ebc
00000260: 25bf 29be 2fdc 0ebd fbbb 3bbc f667 2abc
00000270: 4769 4bbc 3dff 3abd a07d 8a3c a863 df3d
00000280: cb2f 23be 677f af3d 1f4c cb3b 38cc 4dbd
00000290: 9746 6f3d 93aa a8bd e893 a93d 8622 da3d
000002a0: 8e77 fdbd 6b99 c9bd d955 0fbb 341f 603d
000002b0: 95bc aabb a606 063b 219d 71bc 1c2a 97bd
000002c0: cdba b73d f7ad d03d 7f15 283d 1ecc 05bd
000002d0: da73 903c 3f21 4cbd d225 473d a251 e7bc
000002e0: bf55 c1bd 4277 993d db3b c03d 182e ab3c
000002f0: ea27 df3b f46f f6bb f17f e53d e80c ab3d
00000300: 459f 35bd 5a7e 593d c488 92bd 774c 063e
00000310: 3c98 1f3b a7be 7fbc 41ae 01bd d4c8 eabc
00000320: f0b6 303d 972c bc3d baa9 933d d03c 1f3d
00000330: 82bc 973d cf69 ec3b 7160 16bc e77c f13d
00000340: e70c a63b 9ea9 123e b05f 353e 6679 5fbd
00000350: 8dd4 a8bd d610 8e3d 3709 55bd ca4b 593d
00000360: f9af f83d d4ef e8bc 47b8 aa3b 690f 14bd
00000370: 169e a9bd e024 003e 1562 623d 0341 bc3d
00000380: ab05 0a3e 71b8 ba3c 4cb3 21bc f5d1 f83d
00000390: 3a65 413d 8e41 0dbe 19bc e83d b813 58bd
000003a0: fce1 ab3d 7930 843d 5af0 653d b245 61bd
000003b0: dfe7 f23c f523 9d3b 9310 b6bc 3e1a b53d
000003c0: d230 793d 91b5 3ebd a798 733d 6dcf c03c
000003d0: 130b 2f3d 5481 ba3d 3568 81bd e509 92bd
000003e0: 57a4 e1bc d96d 533d 35fc c63d 7778 073d
000003f0: 8fc8 26bc 2b45 5abd 89a6 163d 292e 843d
0.0058190594 0.01851836 -0.032357268 0.086837046 -0.00037700997 -0.036888067 0.09093874 -0.10920513
-0.045546044 0.025978802 0.08057043 -0.026595654 0.015353572 -0.058467608 -0.0049564308 -0.16276327
-0.03838878 0.03939219 -0.1576921 0.024186565 0.099356644 0.07647418 0.0117461495 -0.060944892
0.008568214 -0.06551163 0.044855203 0.00083881244 -0.14613636 -0.06575576 -0.16005756 0.10736192
0.09174957 -0.013324668 0.014948172 0.049286455 0.015268131 0.029257158 -0.07883963 0.028379751
-0.045233864 -0.024685815 0.043933593 0.042771704 -0.18894197 -0.004509559 -0.023881964 0.11409063
0.0039548487 0.08472268 0.07733341 0.024706043 0.00447074 -0.12074516 -0.106088005 -0.022563571
-0.066932686 0.004634221 0.011637351 0.028525107 -0.02344862 0.028461713 0.07293914 0.09351837
0.029071024 -0.018316293 0.081753395 0.008806606 -0.09471554 -0.046939716 -0.00052698376 0.07680643
-0.029155474 -0.04637273 -0.056652956 -0.09232642 0.013657906 -0.058496386 0.00041927703 -0.084379084
0.18909597 -0.055273842 -0.02599017 -0.17087187 0.05248978 0.015731705 -0.1247307 -0.15826133
0.0038120311 0.013437966 0.055375647 0.046173707 -0.054068755 0.0046972414 -0.017501159 0.1192657
0.06809342 0.015355719 -0.09808969 0.06655726 -0.010944675 -0.041492935 0.041685782 0.195651
-0.026536308 0.05513146 0.058761448 -0.05763815 0.062045135 -0.021214047 0.074236065 -0.059986025
-0.07793472 -0.13568358 0.07146593 -0.1529099 0.01124129 -0.016888998 0.057261433 0.05886755
0.09005372 0.08486168 -0.11397628 0.0076005366 0.076440535 0.094370395 0.09734849 0.0088485945
-0.010739077 0.06650407 -0.0057722894 0.0245263 -0.022428507 0.03199364 0.021162247 0.14411412
0.10437203 -0.15004678 -0.048425097 -0.007862906 -0.006957437 0.10207522 -0.0712266 -0.009030944
-0.013774786 0.0018393466 0.08576478 -0.0755426 -0.074876264 0.039218254 0.081717834 -0.013556874
-0.16576822 -0.034877952 -0.011458392 -0.010400763 -0.012415237 -0.04565357 0.016905606 0.1090768
-0.159362 0.08569222 0.0062041427 -0.050243586 0.05841693 -0.082356595 0.08280164 0.10651116
-0.12376319 -0.09843715 -0.0021871238 0.054717258 -0.005210469 0.002045074 -0.014746935 -0.073810786
0.08971176 0.10189431 0.041036125 -0.032665364 0.017633367 -0.049836393 0.048620053 -0.028237168
-0.09440183 0.0749345 0.093864165 0.020896003 0.006810178 -0.00752067 0.112060435 0.08352071
-0.044341344 0.053099014 -0.07154992 0.13115107 0.0024352213 -0.01560942 -0.031660322 -0.028660215
0.043143213 0.09188192 0.07210107 0.038876355 0.07409002 0.007214762 -0.009178267 0.11791401
0.005067456 0.14322516 0.17712283 -0.054559134 -0.08243666 0.06936805 -0.05201074 0.053050794
0.12142939 -0.028434671 0.005209956 -0.03614751 -0.082821056 0.12514067 0.05526932 0.091920875
0.13478725 0.022793027 -0.009869408 0.12149421 0.047215678 -0.13794538 0.11364002 -0.05275318
0.083927125 0.06454558 0.05613742 -0.054998107 0.02965158 0.004795546 -0.0222247 0.08842896
0.060837574 -0.046559874 0.059471752 0.023536408 0.04273517 0.09106699 -0.06318704 -0.071307935
-0.027544184 0.05161843 0.097160734 0.03307387 -0.010179653 -0.05328862 0.036779914 0.06454117

network_body._body_endoder.seq_layers.0.bias f4 [256]
00000000: 7abc 273d 8599 3b3c 6aa3 e83d 7f33 023d
00000010: 878f 953d bb11 be3c 1e8c ce3c 3a39 0c3c
00000020: 798a e2ba 84a9 5d3c 9981 15bc 5c21 42bc
00000030: 067b 4f3d 0809 ef3b 7adc ab3c be60 da3c
00000040: 945a dcbb 0fee ebbc 7d9d a53c a86c 3b3c
00000050: 826d 69bc 2a14 57bc f837 033c 7745 213d
00000060: da12 79bc bb69 2c3c b7ec f7bb 4629 bebb
00000070: a052 23bd 1395 c43c d73f 133d 68a3 2b3d
00000080: e684 f6bb 0054 17bc 57e7 f03c 907d 043d
00000090: 6f9f 4c3d c3ce 93bc e37d 673c 0870 203d
000000a0: 321a d43b 002e 263d 80bc 163d dfac b1bc
000000b0: 1edb 993c 843f 9fba d6b2 a73c 717f 5c3d
000000c0: ca1a 83bb 7582 87ba 3bc2 c4bc 1f64 21bc
000000d0: 58cf 063d dfa0 a83c 6dba 873b 4e02 a23c
000000e0: 5e43 763c 6b99 0bbc d78a 1ebd 81b9 8cba
000000f0: 0e6c a4bc 5725 a03c 990f 303d 7bac 383d
00000100: d8c2 aa3c 0326 3a3c 6443 133c 0f54 faba
00000110: 9802 233d 3e45 e6ba 1cfa 2a3c 465a 12bd
00000120: 692d c1bb c957 f1bb 79c0 9c3c 3c3a 0f3d
00000130: 7d6b 613d 6b33 4c3d 059e a0bc aeeb 16bc
00000140: 67ba 043d e4f6 153c 978c 68bc ca95 db3c
00000150: c1ab 45bc 7986 14bd c653 7fbb eb77 633b
00000160: fb78 cc39 c780 843c bf82 90bc 06b0 903c
00000170: 7f3b 533b e64a 183d c234 d93c 7d43 303c
00000180: 6662 95bb 573c 583c 411f 563b 624e 24bc
00000190: cbaa ec3b c796 84bb ab63 9d3c d33e 4fbb
000001a0: 25ce 623c 777c 6e3c 59e4 55bc 1ef8 5fbb
000001b0: 0600 c03c 8045 07bc 16e8 cbbb 0d1a 91bc
000001c0: 1f2b e5ba 1e1e 7bbb 3b74 a3bc d7ca 1d3d
000001d0: a0ac 99bc 062c 8abc 733a 623d 0002 563b
000001e0: 97e9 29bc ba41 58bc 654f 863c 5cce 163c
000001f0: 5dff dcba 9c77 97bc c6e0 4b3b e5b9 aa3c
00000200: 7ed0 2f3c 0ddc af3c 4dd6 613b 0b61 f03c
00000210: b463 5ebc 4aa9 27bb 7689 cc3a 5084 743b
00000220: 5ccb 1b3c f31c 153d 8821 403c cd67 55bc
00000230: 31b1 8d3c 6cac d1bc 841c 14bc d454 553c
00000240: 9273 11bc fc5f 983c b492 55bc 540c 453a
00000250: ff3c cc3c 630d c5bb de3b c03b 16ff 69bc
00000260: 1ac6 713c 9774 bdbc e896 fe3a ee6b ee3c
00000270: b2c3 023c a133 f63b 4480 093c a9e0 193d
00000280: f9ba 7e3b af90 05bc 8bd3 1c3c 5ed5 bd3b
00000290: 4f3f 6fbc 35e7 a43b bbd7 5fbc 3d71 863b
000002a0: 6bf1 953c 097b 71bc ec5d 66bc ceec 293d
000002b0: 7b4a 063c b1e8 05bb 6b0d 87b9 3b81 113d
000002c0: 0616 c6bc 1c88 053c 8229 cf3c 749c 943d
000002d0: 9a45 38bc aa20 b03c b6ca 553c d1d0 b13d
000002e0: ab66 a53c 3446 903b 06ec 933c a8f4 4dba
000002f0: 62ef 06bd e55a 89bb 5e30 e3bb afd5 2f3d
00000300: 5d4a 103d 82c5 503c 51e7 1b3d 5b38 023d
00000310: b044 94bb e087 113d 963c 2abc cded 0c3c
00000320: 7d58 1bbb 234b 6fbb bc0d 79bb 67ad 94bb
00000330: 985c 11bc ae19 093c 5b60 81bb ddf5 7eba
00000340: fc5b abbc 1fb3 fabb 2154 cb3c 1642 d2bc
00000350: 677d 953c 12fa 3a3d 08a2 2cbb a64e 763d
00000360: cbbc 073c d9c9 bb3c 66fd abbc 2b04 803c
00000370: af54 aabc 7d0a 5e3d 52ac 2b3d 43e7 63bc
00000380: afa6 513c 2c19 b03c d67b 58bc 8d94 ee3b
00000390: 0b11 18bc 0563 e63c 7f30 06bc 7e50 bf3c
000003a0: 075f 513c 7a5b e1bc 7d4e 0a3d 3178 8ebc
000003b0: 4d96 473d bc31 cfbc 9054 20bd 17e0 82bc
000003c0: 0942 babb 8d1a 663c 60ab 583c ea6a 213d
000003d0: e8cb 5f3d c704 343d 25c8 383d 0653 9b3c
000003e0: f309 8f3b c523 763d 7ea5 e23c c488 4c3b
000003f0: 7887 b7bb a5f7 61bc 3d5d 813c ea13 533c
0.04095123 0.011450176 0.11359294 0.03178739 0.07302766 0.023201814 0.025213297 0.008558566
-0.00172837 0.013529185 -0.009125137 -0.011848774 0.050654434 0.007294778 0.020979155 0.026657458
-0.006724665 -0.028800039 0.020216698 0.01143948 -0.0142473 -0.013127366 0.008008949 0.039372887
-0.0152022485 0.010523255 -0.0075660604 -0.00580326 -0.03987372 0.023996865 0.035949554 0.041903883
-0.007523167 -0.009236336 0.029407186 0.03234631 0.049956735 -0.018042928 0.014129135 0.03916934
0.0064728493 0.040571213 0.03680086 -0.021688877 0.018781241 -0.0012149666 0.020471018 0.053832475
-0.0040009962 -0.0010338562 -0.024018398 -0.009850531 0.032912582 0.020584522 0.0041420967 0.01977649
0.01503071 -0.008520464 -0.038706627 -0.0010736437 -0.020071056 0.019549055 0.042983625 0.045086365
0.020844862 0.011361602 0.008988235 -0.0019098538 0.039797395 -0.0017568243 0.010435607 -0.035730623
-0.005895306 -0.007365201 0.019134747 0.034967646 0.05503415 0.049853723 -0.0196066 -0.009211464
0.03240433 0.009153102 -0.0141936755 0.026804823 -0.012064875 -0.036261056 -0.0038959845 0.0034708928
0.0003900005 0.016174687 -0.01764047 0.01766206 0.0032231507 0.037180804 0.026514415 0.010758278
-0.004558849 0.01319798 0.0032672437 -0.010028454 0.0072225085 -0.0040462944 0.019212564 -0.003162314
0.013843094 0.014556042 -0.013054931 -0.003417499 0.023437511 -0.008256316 -0.006222735 -0.017712617
-0.0017484165 -0.0038317512 -0.019952884 0.03852352 -0.018759072 -0.016866695 0.055231523 0.0032655
-0.010370634 -0.013199264 0.01639528 0.009204473 -0.0016860772 -0.018489651 0.0031109317 0.020840595
0.010730861 0.021467233 0.0034460009 0.029343149 -0.013573576 -0.0025583082 0.0015604931 0.003731031
0.009508934 0.03640456 0.0117267445 -0.013025236 0.017296406 -0.025594912 -0.009040002 0.013020713
-0.008877652 0.018600456 -0.013035465 0.00075167906 0.024931429 -0.0060135587 0.0058665117 -0.014282009
0.014756704 -0.023126883 0.0019423636 0.0291042 0.007981228 0.007513479 0.008392397 0.03756777
0.0038868769 -0.008152171 0.00957192 0.0057932576 -0.014602496 0.005032445 -0.013662274 0.0041028545
0.018303594 -0.0147388065 -0.014060479 0.0414856 0.008196468 -0.0020432884 -0.00025759204 0.035523634
-0.024180423 0.008150127 0.025288347 0.072564036 -0.011247063 0.02149995 0.013048818 0.08682407
0.020190557 0.0044029 0.01805688 -0.0007856586 -0.032943137 -0.0041917437 -0.006933256 0.042928394
0.03522717 0.012742402 0.038062397 0.031792026 -0.0045247898 0.03552997 -0.010390421 0.008601618
-0.0023703866 -0.003651329 -0.003800257 -0.0045372727 -0.008872174 0.008367939 -0.003948254 -0.00097259675
-0.020917885 -0.0076507474 0.02482039 -0.025666278 0.018248273 0.045648642 -0.0026341695 0.0601336
0.008284758 0.022923397 -0.020994853 0.015626987 -0.020792333 0.05420922 0.041912384 -0.013910118
0.012796088 0.021496378 -0.013213119 0.007280892 -0.009281407 0.028123388 -0.008190273 0.023353811
0.012779004 -0.02750944 0.03376626 -0.017391296 0.048727322 -0.02529227 -0.039143145 -0.015975995
-0.0056841415 0.014044416 0.013224453 0.0394086 0.05463782 0.04394987 0.045112748 0.018960487
0.0043651997 0.060092706 0.027666803 0.0031209448 -0.005600866 -0.013791953 0.01579153 0.012883166

network_body._body_endoder.seq_layers.2.weight f4 [256, 256]
00000000: c19f 2cbc f636 013e c3db 86bc 4ad0 0c3c
00000010: 5fa9 983d e738 c7bd 9dac 81bc 8c65 27bb
00000020: 4bc5 773d ebe6 d93c 3370 1abd 2793 8d3d
00000030: a1ff 163d bc36 cbbc ad99 d43c 5752 673d
00000040: 4c05 d4bc 69fe 013e a66e 82bd 5969 bcbd
00000050: 9c44 c3bd d2c3 38bd 1089 733c 59d3 2d3e
00000060: 13e7 ee3c 631a 89bd 2058 9fbc 93f9 883d
00000070: 5d24 da3b 490d 12bc 60db 96bc 728c 033e
00000080: b87e 36bc 7aef dc3d 85ce aabc 2a04 adbc
00000090: 6379 6c3d fb8c 843d 0f12 3d3d 5616 09bd
000000a0: 0c54 65bd fe2c c13d 8b7b 4a3d 9c76 8bbd
000000b0: eae2 bdbc c355 21be e2c1 a6bc f236 543d
000000c0: 9aea f53c 5420 a23c 825a 9b3d 8612 0f3e
000000d0: 514d a63d 0898 a53d d414 8dbc be1f d9bc
000000e0: 91de 053d 4dc3 0cbe ed7f d3bc 433b dd3c
000000f0: 7e85 61bd aebf 933c b90c b43c cc84 073d
00000100: e80d 41be c5fa 36bd 7b27 9dbd 0e4b 2b3d
00000110: e422 2fbb 5ea2 6c3b 6869 5abe f609 45bd
00000120: e868 19be bd32 b93c ad29 10bd 2c55 6d3d
00000130: 1c21 97bd 2cbe 9c3c f274 e8bd f8f7 1d3d
00000140: 157f b7bc 52a6 de3d f70d ccbc 1c3c b13d
00000150: b0c0 f33c d16e 33bd 0240 34be d9a4 dd3d
00000160: a903 1c3d 9736 79bd 4088 1ebd 8dcc 9ebc
00000170: cc15 833d b10d 0c3e a7be f33d a95c 04bd
00000180: 1996 68bd 8dfc a63d c6c2 c43d cb2d eebd
00000190: 0dd0 d43d fc20 573d 4efd f83b 2568 91bd
000001a0: 44e2 933d 18f3 b8bd 0b90 233d 65ce 94bd
000001b0: ebe1 793d ed7d 62bd 3073 6c3d d2f7 70bc
000001c0: 4b21 19ba ee6f 01bd ade6 1bbd 065f 6d3d
000001d0: 8b0f b03d ea6c bebd 62ee c53d d174 82bd
000001e0: 7dec 443c d1ce ad3c 525e 7abd 7216 683d
000001f0: a9ed 3fbc 8770 23be c3c3 cb39 4108 e93c
00000200: 9177 3ebd a21d 003d 1ce5 e3bc 181d c33c
00000210: 3a2f ed3b 2197 7c3c 64c7 e4ba cb7d 85bd
00000220: d031 42bd 0145 223e 46dc 013c 1aa8 c0bd
00000230: 6135 d6bc ba6c fbbd 5b82 d23c c516 0c3d
00000240: d86e 51bd 6642 833b f447 e53c 2f7a 22bd
00000250: 893e ff3d a613 7abd 648f 2fbd 9956 6f3d
00000260: c44f 13bd 28f8 03bd 3992 89bd a712 ec3d
00000270: 4659 443d c4ba 2c3d 8f54 b4bd 4984 033d
00000280: fead 8e3d 06fb 503e 6738 5dbb 00c7 90bd
00000290: ccc0 4e3d 9965 a1bc 94f5 7b3d 5393 60bd
000002a0: 5f0e afbb 1257 a2bd 4cc3 b03d 7104 57bd
000002b0: 5b20 e33b 9211 a53c b9e8 3dbd bf20 953d
000002c0: a249 d63b bc37 2abd f88c ee3c 72c6 bcbd
000002d0: 029d e13c d0ae 2a3d 57a4 87bd f0dc c73d
000002e0: 4904 11bd 1d25 1e3d cfab e73c f80c 4bbc
000002f0: c410 b5bc ec3a 093d 9188 80bb b9ef 9c3d
00000300: 881d ec3d 3461 4dbd 034c 9c3d eff0 cc3c
00000310: 53d2 c0bc a3a3 82bd 78db 5fba dc1d 013e
00000320: 001f 0cbd 41a6 38bd af8a 73bd d94f b8bd
00000330: 9221 6dbc 5332 c2bd b139 8a3d 047e 7f3d
00000340: 0ec2 16be fa52 d63d 87c8 fdbb ab58 7e3b
00000350: 080f 1d3e 7082 363d db9e 923d 3531 b9bb
00000360: f30f 82bb 1b54 cfbc ab65 f83c c7cf a3bc
00000370: 8519 c7bc 9797 313d 22a7 67bd 7ebc 11bc
00000380: ea18 c8bd d73b f7bc fca9 c3bc 4560 b93d
00000390: 7eb7 d6b8 6a15 e5bd fd82 073d 898f d43d
000003a0: 9480 793d e7e7 e8bd a22f 16bd 87f0 2b3c
000003b0: 306b 023d 98a3 41bd 4c7f 293c 71dc c2bd
000003c0: c78d 41be f3c5 823d 9c04 743c fa94 b93d
000003d0: 6e49 7ebc 6c61 8d3d a710 883b a75d 3fbd
000003e0: c685 9fbd 943e 093e d141 943c 69f9 4d3d
000003f0: 274d 9cbd 0ce7 a9bc 3210 bc3d 8a80 403d
-0.010536135 0.12618622 -0.016462212 0.008594582 0.0745418 -0.0972765 -0.015829379 -0.0025542704
0.060490888 0.026599368 -0.037704658 0.06912833 0.03686488 -0.024806373 0.025952185 0.05647501
-0.025881432 0.12694706 -0.06368761 -0.09199781 -0.095345706 -0.045108624 0.014864221 0.16975154
0.02916292 -0.06694486 -0.019451201 0.066882275 0.006657167 -0.0089143 -0.018415153 0.12846544
-0.011138611 0.10787864 -0.02085043 -0.02112015 0.05773295 0.064722024 0.0461598 -0.033468567
-0.055988356 0.0943241 0.049434226 -0.06809732 -0.02317949 -0.15755372 -0.020356122 0.051810212
0.030019093 0.019790806 0.07585622 0.1397191 0.08120216 0.08085638 -0.017221846 -0.026504394
0.03268296 -0.13746376 -0.025817836 0.027005797 -0.05505895 0.018035736 0.021978723 0.03308563
-0.18852961 -0.044672746 -0.07673546 0.041819625 -0.0026723677 0.003610752 -0.21329272 -0.048105203
-0.14981425 0.022607202 -0.035195995 0.057942554 -0.07379362 0.01913365 -0.113504305 0.03856656
-0.022399465 0.10871567 -0.024909003 0.08654043 0.029754966 -0.043806855 -0.17602542 0.10822458
0.038089428 -0.060843077 -0.038704157 -0.019384647 0.06400642 0.13677098 0.119015984 -0.03231493
-0.05678377 0.08153639 0.096074626 -0.11629828 0.10391245 0.05252169 0.0075985556 -0.07099942
0.07220891 -0.090307415 0.039932292 -0.07265929 0.061006468 -0.055295873 0.05772704 -0.0147075225
-0.0005841448 -0.031600885 -0.038061786 0.05795195 0.085967146 -0.092981175 0.096646085 -0.06369937
0.012019274 0.021216782 -0.061125107 0.05666203 -0.011714377 -0.15960895 0.0003886503 0.028446319
-0.046500746 0.03127826 -0.027819209 0.023817584 0.007238296 0.015416891 -0.0017454443 -0.06518134
-0.047410786 0.15846635 0.007926052 -0.09407063 -0.0261485 -0.12276597 0.025696924 0.034201402
-0.0511311 0.004005718 0.027988411 -0.039667305 0.124630995 -0.061053894 -0.042861357 0.058432195
-0.035964742 -0.032219082 -0.06717343 0.11526995 0.0479367 0.0421703 -0.08805191 0.03210858
0.0696678 0.20408258 -0.0033755542 -0.07069206 0.050476834 -0.019701766 0.0615135 -0.054828
-0.0053422893 -0.079267636 0.08631 -0.05249447 0.0069313473 0.02014998 -0.04636452 0.072816364
0.0065395394 -0.04155706 0.029119954 -0.09217538 0.027540687 0.04167062 -0.06623142 0.09758937
-0.035404477 0.038609613 0.028280167 -0.012393229 -0.022102721 0.033503458 -0.00392253 0.07662911
0.1152907 -0.05014153 0.076316856 0.02501723 -0.02353779 -0.063788675 -0.00085394783 0.12609047
-0.03420925 -0.045080427 -0.05945843 -0.08999605 -0.014473336 -0.09482255 0.06749285 0.062376037
-0.14722463 0.10465045 -0.007744852 0.0038810174 0.15337765 0.04455799 0.071592055 -0.005651618
-0.0039691865 -0.02530866 0.030321917 -0.019996537 -0.02430416 0.043357458 -0.056555875 -0.008895038
-0.09770377 -0.030179901 -0.023884766 0.09051565 -0.00010238493 -0.11185725 0.033083905 0.1037894
0.060913637 -0.11372357 -0.03666652 0.010494358 0.031840503 -0.047275156 0.010345291 -0.09514702
-0.1890174 0.06385412 0.014893677 0.09061618 -0.015520437 0.069033474 0.0041523757 -0.046720173
-0.07789187 0.13402778 0.01809779 0.050286684 -0.07631903 -0.020740055 0.091827765 0.046997584

network_body._body_endoder.seq_layers.2.bias f4 [256]
00000000: 4cbc 2d3c 9be6 05bc 29cd 3b3c 4a05 e9bc
00000010: 63a5 153d a026 983a d1d2 db3b 17cd 4a3c
00000020: b921 b03b 0d0d 033c e82e 9fbc 565b a03c
00000030: 2e28 b53c feff bcbc 6c14 aebc fcdd 1c3d
00000040: 13e4 b53a 830e 0cbb a80b 0b3c e865 e5b9
00000050: 3f22 0dbc b439 ae3b 55ba 2dbb b0d1 8abc
00000060: 7473 eb3c 33d1 da3b 3ac3 fb3b 6872 a5bc
00000070: f770 083b cba1 69bb e9c7 833c 22b6 8f3c
00000080: c864 e7bb 0069 813c c7b5 ad3c 4aaf 11bb
00000090: 1656 ff3c 06d2 33bc 5ea6 a43b bf9d 003c
000000a0: 4a93 fabb fbf9 e63b 6d69 16b8 970f c73b
000000b0: b67e 2fbc 699e 61bc 05b1 d13a a07b c53c
000000c0: 2762 2b3c c4c8 c7bb ddfa a0bb c636 8abc
000000d0: 9092 9dbc 7523 ef3a 58da acbb e10b 8a3c
000000e0: d5b4 873b 5617 4b3c 2a0b 41bc 318c ae3c
000000f0: 7d4b 9bbb 064f 983c 3029 833c 4a6f 8abc
00000100: f5bb d7bc 5bf1 953c f26e 26bc d9b2 0c3d
00000110: 85b7 da3c 161d d43a e68a 08ba b616 b23c
00000120: 59fb 393d 4bca c13c c7e1 883a e1cd a33b
00000130: 519a 93bc 0fc8 ff3c 5ce2 19bc b4fa f8bb
00000140: a373 593c e11d 683c f8b2 303a eece b63c
00000150: b694 083d e30c 89bb c8b2 fdbc 4359 b63c
00000160: f06a c1bb b152 233c 4b96 6fba f1e4 6c3c
00000170: a23b 6dbc 2b0b 2ebc 958c 91bb 534d 2fbc
00000180: aa21 983a d1f8 e8bb fda2 70bc 93da a8b9
00000190: 4157 e0bc 6a1b a8bb db9b 723c 4aa6 e53c
000001a0: fe40 383b 5037 9dbc 7eee 393c 6a7d b9bc
000001b0: 2172 d43c 7f62 4bbd bbc6 36bb dbd8 e63c
000001c0: 4d0c f93c e7e1 0fbc dc12 13bc ea08 69bc
000001d0: eac9 863b 3940 aa3c 05a5 0b3c 756a 92bc
000001e0: 3a05 433c 1200 de3b 57a4 c33c 4828 90ba
000001f0: fb09 903c ebb0 b53c 9cf1 21bc d28d 433d
00000200: 9fd0 cc3c 612c 3c3c afe0 ca3b bfbb 453c
00000210: 8f5e 17bd 325c c6bc 9097 e73b 50c8 403d
00000220: 9b36 8c3c ab96 1ebb 5bbe e338 1b11 053d
00000230: e261 f7bc 6201 71bc 1c7e 623c 96f9 41bc
00000240: 33ff 5f3d 7945 8e3c 892c c93c aa5e 10bb
00000250: 8744 4b3c 9df1 0cbb f7e6 a5bc 113f 923c
00000260: ab27 053d 5097 e8bb c12d c5b9 efac b93a
00000270: 2356 063d fb1c b23c a389 59bc fece 863b
00000280: de60 883c 2c31 6e3c 63d2 983c 1b53 4b3c
00000290: 13e2 0abc a40c 42bc 9d8b 58bc 03e7 833b
000002a0: 5442 8c3c df48 62bc 1bb9 eebb 12ca b6bb
000002b0: 8364 53bc afa8 1e3c f1b6 453c 5222 8dbc
000002c0: 2c00 463b 07e7 d63c 6626 6c3a cf0e 1bbc
000002d0: 9ff9 94bb 0c1c 563c ab1f 02bc 4368 68bc
000002e0: e56d 63bc 71e4 a53b 0f25 e7bb eb76 243d
000002f0: b4ef 87bb 7dbf b53b 1e0e 043c 2184 e6bc
00000300: 500b 11bc 9c30 6e3c d6c3 04bb 43cd 17bc
00000310: 2b73 963c f35c 05bc a862 44bd 5d3d 9cbc
00000320: 76aa 823b f30f 5f3c 9567 a3bc 973e 2b3d
00000330: 5961 46bc 3896 b53c 80f4 e23b a6d4 013b
00000340: 54e0 b83c c835 d03b a092 c43c 1ad7 e9bb
00000350: 68f5 9fba 32a7 073d e886 4a3b f2eb f63c
00000360: 8fb9 18bc 84cc d33b 90f2 92bb 8d1f 5e3c
00000370: 1a42 a9bb 7fdc bcbb 172f 1b3c 2a12 733b
00000380: 656c bf3b 7c3e 76ba ac13 923c bfcd 753c
00000390: e38f 2abc 1810 f83b e2c4 113d 25c8 773c
000003a0: 3953 1c3c a577 24bb aced 613c e6f0 99bb
000003b0: e637 a03c 1cfa 0c3d a4ea 8fbc 0e69 153c
000003c0: 79c4 c53c cbc1 c5bc b25d ed3c 2666 243d
000003d0: 3e48 3fbc 7e30 073c 537c 06bc 5985 abbc
000003e0: 6c39 683c 55eb a53c 96ce 8c3c df56 9339
000003f0: 7130 2cbc 966c 17bb 9cca 9a3b c62f edba
0.0106039755 -0.008172656 0.011462488 -0.028444905 0.03653468 0.0011608191 0.006708481 0.012377999
0.005375114 0.007998717 -0.019431546 0.019574802 0.022113886 -0.023071285 -0.021249972 0.03829764
0.0013877176 -0.0021370954 0.008486666 -0.0004375421 -0.008614122 0.0053169373 -0.0026508768 -0.01694569
0.028741576 0.0066777705 0.007683185 -0.020196155 0.0020819285 -0.0035649415 0.016086536 0.017542902
-0.0070615746 0.015797138 0.021204842 -0.0022229725 0.031168979 -0.010975366 0.0050247153 0.00785011
-0.0076469528 0.007048843 -3.5860972e-05 0.0060748565 -0.010711363 -0.013770678 0.001599819 0.0241068
0.010460413 -0.006096931 -0.0049127177 -0.016871821 -0.019234926 0.001824482 -0.005275052 0.016851367
0.00414143 0.0123957 -0.011782447 0.021307083 -0.0047392235 0.018592369 0.01601085 -0.01689877
-0.026334742 0.018303564 -0.010158287 0.03435025 0.026698837 0.0016182985 -0.0005208686 0.021739345
0.04540572 0.023656031 0.0010443263 0.004998908 -0.01801792 0.031223325 -0.009392347 -0.0075982455
0.013272199 0.01416728 0.00067405356 0.022315469 0.033344947 -0.0041824444 -0.030969039 0.02225936
-0.0059026405 0.009968446 -0.0009139522 0.014458881 -0.01447955 -0.01062278 -0.0044418075 -0.010699588
0.0011606712 -0.0071097394 -0.014687297 -0.00032206308 -0.027385356 -0.005130221 0.014807667 0.028033394
0.002811491 -0.019191414 0.011348365 -0.02264281 0.025933327 -0.04965448 -0.0027889449 0.028179577
0.030401373 -0.008781887 -0.008976664 -0.014223317 0.0041134255 0.020782577 0.00852323 -0.017873028
0.011903102 0.0067749107 0.023882074 -0.0010998333 0.017582884 0.022179088 -0.009884264 0.047742672
0.025001822 0.01148519 0.006191335 0.012068688 -0.036955412 -0.024213884 0.007067628 0.047066033
0.017115882 -0.0024198692 0.0001085966 0.032487016 -0.030198041 -0.014709802 0.013824012 -0.011839291
0.054686736 0.017367112 0.024557369 -0.002202908 0.012406475 -0.0021506317 -0.020251734 0.017852338
0.032508533 -0.007098116 -0.00037608857 0.0014165918 0.03279699 0.021742335 -0.013277444 0.004114031
0.016647752 0.014538091 0.018655008 0.012409951 -0.008476752 -0.011843834 -0.01321688 0.0040253415
0.017121471 -0.013811319 -0.00728525 -0.005578288 -0.012902382 0.009683772 0.012067542 -0.01722828
0.0030212505 0.02623321 0.00090084074 -0.00946398 -0.0045463587 0.01306821 -0.007942121 -0.014185014
-0.013881181 0.0050626327 -0.0070539783 0.04015247 -0.004148448 0.005546509 0.008060006 -0.028139176
-0.008852795 0.014537957 -0.002025833 -0.009265247 0.018365463 -0.008139837 -0.04794565 -0.019072229
0.0039876057 0.013614642 -0.019946853 0.041807737 -0.01210817 0.022166356 0.0069261193 0.0019810586
0.022567905 0.0063540675 0.023995697 -0.007136238 -0.0012203874 0.033118434 0.0030903164 0.030141804
-0.009321584 0.006463589 -0.004484482 0.013557327 -0.0051653506 -0.00576359 0.009471676 0.0037089684
0.005841779 -0.0009393466 0.017831646 0.015002667 -0.010410282 0.007570278 0.035588153 0.015123402
0.009541326 -0.0025095728 0.013789576 -0.004697907 0.019557904 0.03441821 -0.01756794 0.009119285
0.024141537 -0.02414026 0.028975341 0.04013648 -0.011674939 0.0082513075 -0.008208352 -0.020937609
0.014173847 0.020253817 0.017188352 0.0002810275 -0.010509596 -0.0023105494 0.00472386 -0.0018095903

network_body._body_endoder.seq_layers.4.weight f4 [256, 256]
00000000: 2bc2 debc 1891 88bd 50a6 2b3d fc55 cfbc
00000010: 4db2 94bc 8696 0dbd e1d2 47be d05c 383d
00000020: c39b eebc afb0 34bd 8a0b 0a3d d77f 87bd
00000030: 6167 213b 6e48 5cbd c144 78bd 997e 333e
00000040: 4372 96bd d634 803d b844 d9bc 9708 593d
00000050: de94 f3bd f837 95bc b041 97bc 6a94 c7bc
00000060: a78d 22be c8df c03c 198d e33c 3562 2b3d
00000070: 781c 35bd aa4a bebd 8950 be3d 17a0 6cbd
00000080: fe68 9c3c 09ed eebd 89f0 97bc 4854 f5bc
00000090: abc4 60bd e87c a23d e363 c03d e9d4 d33d
000000a0: 7497 fcbd 8660 163c fc87 08bd cf69 5b3b
000000b0: 1039 083d 0b31 6bbd b052 143c dfeb 8dbd
000000c0: 3cc3 93bd 8d54 033d ff05 0fbd c6f4 bfbd
000000d0: 870d 14be 5ea7 2cbd 6473 1b3d cfad 733d
000000e0: cdfa 4ebe b012 623d 4334 10bc fe46 80bc
000000f0: 8e94 ca3c cd5a d93d 27a3 bf3d 38c4 913d
00000100: 22ba aabd 0c77 52bd e2de 3ebc 40b9 323d
00000110: 1036 053d fc16 52bd d112 5dbd 818e a13d
00000120: b2f5 a3bc 425e 1ebd 5416 c6bc 2f36 9bbd
00000130: 4330 683c 7309 053e eb9d 54bc 50fe ed3d
00000140: d09d c9bc e95d a93d b113 493d c5c9 29be
00000150: 6b9f e03d 8f38 bd3d e5b2 523d 5090 e3bc
00000160: 0740 85bc 19e7 2fbd 7f75 443c 05c2 40bb
00000170: 5acb 43bd 1c2d 833d 73de 3b3d f621 613c
00000180: 3eb4 41bd 3a70 b2bc 9928 a9bd c718 153d
00000190: 0192 9cbb eb19 6c3d 73fd a9bc 3b64 3a3d
000001a0: d165 233d b51e c73a 79f3 79bd 6a9b 313c
000001b0: 7211 f13d 5227 ca3c 1539 573d 3c55 493e
000001c0: 00a6 453c d3fe 86bd 1f98 6e3c 4d39 083d
000001d0: 7756 173d a264 d5bd 9f97 4b3a 1c32 183e
000001e0: 0ee8 253e 02d2 aebd caca 79bd 5548 c63c
000001f0: c601 f53b 6699 b33d 4a4b b1bc 7496 f7bd
00000200: e5eb f8bb f000 113e 7e75 9d3d fc0d 20bd
00000210: a79c b7bd 519c 73bd dc40 9f3d 6a06 f9bd
00000220: aeac 523d 880d 30bd 3e20 a53c bb7c b43d
00000230: 9f19 44bd baa8 06bc 5c03 1b3d 1a41 213d
00000240: c8f3 38be 0d16 15be df4e 353d 9ec6 103d
00000250: cf7f 84bd c915 833b 461f 73bd a8c2 c7bc
00000260: 8251 a9bc 3728 263d e91d 81bd 582a 61bd
00000270: ad06 a43c 524e 07bc e04e 903d 4fad 4ebd
00000280: b441 1bbd 2244 7cbd 64f7 e23c 9902 04bd
00000290: ea2f 4d3e 5f74 de3d 492b babd 5c40 94bd
000002a0: 6437 cc3b bdf3 6a3d b0bb a03c 3888 fc3c
000002b0: e023 453d 078c 993d 6952 3fbd 923f 00be
000002c0: a6fb 33bd 3e61 93bd 85eb 293c 76e0 b53c
000002d0: 5030 3bbd 1900 8d3d 9f23 9a3b 26f9 8fbd
000002e0: 4e18 873d 99fe 8cbd ef38 cebd 7448 b63c
000002f0: 2f75 5abd 943b fa3c b663 d4bd 23d6 f0bd
00000300: 11c2 c0bd eca1 32bd c222 4fbc 2fd1 e03b
00000310: 731a 1abe 5718 533d 8033 b13c ee1f f83b
00000320: db44 18bd 4834 4a3c 0a83 cdbb 801a 6b3b
00000330: a372 143c dc30 6ebd 5cd5 fbbc 8a8b 33bd
00000340: 4908 843b 3a75 bd3d f179 b5ba ccb0 b53c
00000350: b089 f6bd 672f 803d 8be3 093e 1c1d a4bc
00000360: a696 ca3c 7e21 82bd e551 523d 22b1 033d
00000370: 9ed9 acbb 3fd4 1fbd 56da 02be 8648 36ba
00000380: ab56 b43d a8f2 24bd 468a 70bd 6fb8 373d
00000390: 877e 313e 568c abbc 0e28 89bd 1670 29be
000003a0: 5a50 cbbd eafc 4dbd 0d23 1d3d 6311 123d
000003b0: 10dd c1bd 467a 293d b0e2 003c 0b66 f9bb
000003c0: 5db4 df3b 70cd 803b 3ff8 92bc 6938 1dbd
000003d0: a484 d33c a172 afbb ffd2 9b3c ecce 673e
000003e0: 74d7 81bd f277 ca3c 0606 3ebe 68a9 d2bd
000003f0: 4b99 903b b163 d0bd 7e2b b93c 4249 b03d
-0.027192196 -0.066682994 0.041906655 -0.025309555 -0.018151427 -0.03456738 -0.19514038 0.045010388
-0.029127007 -0.04411381 0.03370241 -0.066161804 0.002462827 -0.05378001 -0.060612444 0.17528762
-0.073460124 0.06260078 -0.026522025 0.052986708 -0.118936285 -0.018215165 -0.01846394 -0.024362762
-0.15874349 0.023544207 0.027777242 0.041841704 -0.044216603 -0.09291585 0.092927046 -0.05776986
0.019093033 -0.116663046 -0.018547313 -0.029947415 -0.054875057 0.0793398 0.09394052 0.10343344
-0.12333575 0.009178286 -0.03333281 0.0033479815 0.033257544 -0.057419818 0.009052917 -0.069297545
-0.072149724 0.032063056 -0.034917828 -0.09372859 -0.14458285 -0.0421518 0.037951842 0.05949193
-0.2021286 0.055193603 -0.008801523 -0.015658852 0.02472904 0.10613022 0.09357291 0.07117504
-0.08336283 -0.051383063 -0.011649819 0.0436337 0.03252226 -0.05129145 -0.053973023 0.078885086
-0.020014618 -0.03866411 -0.024180569 -0.07578694 0.014171663 0.12991886 -0.012977104 0.11620772
-0.024611384 0.08269865 0.049091045 -0.16580875 0.109679066 0.09239303 0.05144014 -0.027778774
-0.016265882 -0.042945 0.011990904 -0.002941252 -0.047801353 0.06405088 0.04586644 0.013741007
-0.047291033 -0.02178203 -0.082596965 0.036400583 -0.004778147 0.057641905 -0.020750737 0.045505743
0.03989202 0.0015191647 -0.06102321 0.010840276 0.117709056 0.024676953 0.052544672 0.1966142
0.012063503 -0.065915726 0.014562636 0.03325777 0.036947694 -0.10419585 0.0007766429 0.14862865
0.16201803 -0.085361496 -0.06098441 0.024204412 0.007477018 0.08769493 -0.021642346 -0.120892435
-0.00759648 0.14160514 0.076884255 -0.039075837 -0.08965426 -0.059475247 0.07776043 -0.121594265
0.05143421 -0.042981654 0.020156976 0.08812853 -0.047875997 -0.0082189385 0.037845 0.039368726
-0.18061745 -0.14559193 0.04426467 0.035345666 -0.0646969 0.0040003997 -0.059355997 -0.024384812
-0.020668749 0.040565696 -0.06304533 -0.054972023 0.020022715 -0.008258419 0.07046294 -0.05045825
-0.037904456 -0.061588414 0.027705856 -0.03222904 0.20037809 0.1086204 -0.09090287 -0.07238838
0.006232189 0.057361353 0.019620746 0.030826673 0.048129916 0.07497411 -0.04670945 -0.1252425
-0.043941163 -0.07196282 0.010371094 0.022201758 -0.04570037 0.06884784 0.0047039534 -0.07029943
0.065964326 -0.06884498 -0.10069453 0.022251345 -0.05333441 0.030545987 -0.10370581 -0.11759593
-0.09412015 -0.043611452 -0.012642564 0.006860874 -0.15049152 0.051536884 0.021631002 0.0075721657
-0.03717504 0.012341566 -0.0062717246 0.003587395 0.009060535 -0.058152065 -0.030741386 -0.043834247
0.004029308 0.09250875 -0.0013845545 0.02217903 -0.120379806 0.06259041 0.13465707 -0.020033412
0.024730038 -0.063540444 0.051347632 0.03215135 -0.0052749654 -0.039020773 -0.12778601 -0.0006953556
0.08805593 -0.040270478 -0.058725618 0.044853624 0.17333423 -0.02094094 -0.06697093 -0.16546664
-0.09927435 -0.050290026 0.038363505 0.035661113 -0.094659925 0.041376375 0.0078665465 -0.0076110414
0.006826921 0.00393074 -0.017940639 -0.038383875 0.025820084 -0.005354241 0.01902151 0.22637528
-0.063399225 0.024715398 -0.18556985 -0.10286218 0.004412805 -0.101752646 0.022603747 0.08607723

network_body._body_endoder.seq_layers.4.bias f4 [256]
00000000: bbb5 293b bbbc ac3c 1a9d f93a fc63 c83a
00000010: 97a4 65bc f72b 96ba 080a 6dbc ea02 a33b
00000020: 35cf 01bb 21ce d73c cb3c 893c 165d ee3c
00000030: 306c a1bb 5eb8 1c3c 784b 933c 3a0a adbc
00000040: af12 663c ddce 22bb ed0d 57bb 66b1 da3b
00000050: 9044 5bbc 8762 8b3c b950 25ba b051 093b
00000060: 7d26 c7bb e9ad 433c fa8d b13a d134 233b
00000070: c7d5 a5b9 895d a5bb ce33 bcbc caf1 c5bb
00000080: d0cf c7bc 9c8c 57bc 0b9b d63b 3f0f 153c
00000090: 963b 213c e833 303b ede8 b43c 5966 9d3c
000000a0: f001 16bc b53d 83bc 0a84 71bc 4708 bd3b
000000b0: 02ac cb3c dfba cf3b 5875 e33c 9f40 e53c
000000c0: d35c 3f3c cf02 42bc 03f0 2dbc 34b0 0c3c
000000d0: c56b abbc 3401 d33c 9d43 d23a 26d2 89bb
000000e0: 455a d13c c7d1 a43c 7c0f 07bc d065 a4bc
000000f0: a399 e43c 379d 62bc 4b0a 0fbc b428 a6bc
00000100: 16e7 fb3c a2b7 2dba a5b6 aabb 4dbc 96bc
00000110: 0bbb b5bb 0a1c 3b3b 2ddf de3c 39f5 39bb
00000120: 059a 163d 6b04 263c 0bc4 d5bb 672b 3dbc
00000130: 63c4 76bb 8226 0a3c 3c96 093c fdcb 043d
00000140: 573b 28bd a5e7 9dbb d817 213c b092 b03c
00000150: 8123 65bc 087b 103c b0bc ec3b 3307 483c
00000160: bf70 323c 5412 19bd d086 70bc 2a8f d93c
00000170: bedf 0f3d 6760 98bb 6118 533c 21fa 87bc
00000180: bb02 58bc 9aa4 1c3c c234 993c 9ca5 803a
00000190: 2954 863c b383 013c 2d20 ea3c e77f a9bc
000001a0: c9dd 103c 38b4 7d3c afc5 0abd ec06 8d3c
000001b0: 8192 02bc f013 2a3b 3683 2f3c b34e 68bc
000001c0: 91a8 073c d4ba 483c 814f 3d3c 2e59 f03c
000001d0: f276 cf3c 24a5 f83c 2c7c c4bc 8cd0 cabc
000001e0: c396 103c 0aa3 463c f085 ab3b b9c3 8c3c
000001f0: 48cd ae3c 114e a4bb 2b9f 133c c0ea 99bb
00000200: 5628 23bc 7b33 56bc 4e02 03bd 7d02 a5bc
00000210: 0a4c ea3c 7bc2 d93c ed3c 003c 93c5 cebb
00000220: 92fb 8e3b 15fc fa3a ad33 893c f70a e9bb
00000230: ec16 583a b899 94bc 8f39 e8bb e2c3 063b
00000240: 6347 1e3c c243 22bd 6444 d83c 9abe 073c
00000250: 248d 733c ad75 4cbc d62a 843b 3636 123c
00000260: 50c1 ab3a d169 0e3d 0935 9e3c 4920 e1ba
00000270: d89d bf3a 275c 5a3c 105d d43c 8a86 a03c
00000280: 4ea5 493b 93b4 e8bc a155 503d c991 d63c
00000290: d645 5f3c d825 c3bc 8797 bfbc ca90 f03b
000002a0: 8688 633c 815e 823c ed81 95bc 5bd1 a2bc
000002b0: f972 b03b 6e58 183d 63da b73c b20a b8bb
000002c0: bda6 5b3d 8396 c33c 45b5 19bc 323c bdbb
000002d0: 3a06 c73b 4d10 093b 0a97 08bd de62 22bc
000002e0: 38f4 a63c d2a4 a0bb e0ef 37ba 11a1 183d
000002f0: c620 963c 244e ab3c a8ed a13a 2074 023c
00000300: 7588 cc3c 3927 e0bb 421f 353d 2dd8 d539
00000310: 6d29 a43c a066 78bc f1e0 7a3b 04e9 283c
00000320: e0ad 0e3d 6592 5abc 1540 b43c 6bef 30bc
00000330: 30d4 0e3d e9c9 8cbc 2042 843c 0fbb 7ebc
00000340: 08a1 80bc 5837 883c 26f3 f33c a7f8 f7bc
00000350: f484 093c ecd9 3a3c 82a6 d83c 9052 04bc
00000360: 288b 463c bd0c 3a3b af39 e3bb 42a7 fd3b
00000370: 90c9 513a 4582 3ebc 388b c23a 62ea cf3b
00000380: 8104 7ebc f430 0e3d 1c60 263c 6863 df3b
00000390: 54ab a43b 7f7c 683c 632d 093c 6448 343d
000003a0: 48c3 4aba fb43 0abc 87da f73c 93ac 033c
000003b0: 65df af3c 7369 a0bb 96fc b53b bc85 f93b
000003c0: 4c91 ad3c 5c25 6f3c cf13 52bb 1e73 7c3a
000003d0: a683 f83c e153 c5bb 4a99 9f3c ed6f 563b
000003e0: e13d 40bc af97 d63b 1501 473c 8f85 8dbb
000003f0: 9bd3 4c3c 1393 983c 1c21 2bbc a188 9e3c
0.0025895673 0.021086087 0.0019044012 0.0015288587 -0.014016292 -0.0011457194 -0.014467724 0.0049747126
-0.0019807343 0.026343407 0.016752621 0.029097121 -0.004926227 0.009565441 0.017980322 -0.02112304
0.01404254 -0.0024842538 -0.0032814697 0.0066739796 -0.013383046 0.017014755 -0.0006306279 0.002095323
-0.006077586 0.011943319 0.0013546341 0.0024903307 -0.0003163053 -0.0050465507 -0.022973921 -0.0060407864
-0.024391085 -0.0131560825 0.0065492443 0.009097873 0.009840867 0.0026886407 0.022083724 0.019213842
-0.009155735 -0.016020635 -0.014740953 0.005768809 0.024862293 0.0063394154 0.027765915 0.027984915
0.011679846 -0.01184149 -0.010616305 0.008586932 -0.020925412 0.02575741 0.0016041879 -0.00420596
0.02555574 0.02011956 -0.008243438 -0.02006808 0.027905291 -0.013831428 -0.008730481 -0.02028308
0.030749839 -0.00066267897 -0.005209761 -0.018400336 -0.005545979 0.0028550648 0.027206028 -0.0028374924
0.03676798 0.010132889 -0.0065236143 -0.011545992 -0.0037653677 0.008432033 0.008397635 0.0324211
-0.041072216 -0.004818874 0.009832345 0.021554321 -0.013985516 0.008818395 0.0072246417 0.012208748
0.010891139 -0.037370995 -0.014680579 0.026557524 0.035125487 -0.004650164 0.01288423 -0.016598763
-0.013184245 0.009560728 0.018701915 0.000981498 0.016397553 0.007904935 0.028579796 -0.020690871
0.00884194 0.015484862 -0.033879932 0.017215215 -0.0079695 0.0025951825 0.0107124355 -0.01417892
0.008279935 0.012251575 0.0115546 0.0293394 0.025325272 0.030352183 -0.023984991 -0.024757646
0.008825007 0.0121238325 0.0052344725 0.017183172 0.02133812 -0.005014189 0.009010117 -0.004697174
-0.009958347 -0.013073797 -0.03198462 -0.020142788 0.028600711 0.026581993 0.007827026 -0.006310174
0.0043634856 0.0019148613 0.016748274 -0.007111903 0.0008243162 -0.018139705 -0.0070869396 0.0020563533
0.009660575 -0.0396154 0.026399799 0.008285189 0.0148651935 -0.012479228 0.0040334268 0.008924058
0.0013103876 0.034768883 0.019312399 -0.001717576 0.0014619185 0.013327635 0.025923282 0.019595403
0.0030768695 -0.028406417 0.050862912 0.026192563 0.01362749 -0.023821756 -0.023387684 0.007341479
0.01388753 0.015914204 -0.01825043 -0.01987522 0.0053847996 0.037193708 0.022443002 -0.0056165094
0.05362581 0.02387548 -0.009381597 -0.005774998 0.0060737403 0.0020914257 -0.033347167 -0.009911267
0.020380124 -0.0049024606 -0.000701664 0.03726298 0.018326174 0.020911284 0.0012354152 0.007962257
0.024967412 -0.006840613 0.044219263 0.0004078759 0.020039285 -0.015161186 0.0038281048 0.0103094615
0.03483379 -0.013340567 0.022003213 -0.010799269 0.034870327 -0.017186122 0.016144812 -0.015547528
-0.015701786 0.016627952 0.029779028 -0.030269934 0.008393515 0.011404496 0.026446585 -0.008076325
0.012118138 0.002838894 -0.0069343667 0.007740886 0.00080027524 -0.011627738 0.0014842516 0.0063450793
-0.0155040035 0.034714654 0.01015475 0.00681727 0.0050253067 0.014189838 0.008372637 0.04401435
-0.00077347877 -0.008439059 0.03025557 0.00803675 0.021468828 -0.004895383 0.005553792 0.0076148193
0.021187447 0.0145963095 -0.0032055264 0.0009630191 0.030336212 -0.006021962 0.019482274 0.0032720522
-0.011733503 0.006548844 0.012146254 -0.0043189 0.012501623 0.018624818 -0.010444906 0.01935226

action_model._continuous_distribution.log_sigma f4 [1, 39]
00000000: 5137 033e 855c ce3d 10bf f23d f86b db3d
00000010: b67a d73d 166c 1a3e 984d df3d 6bb7 e83d
00000020: fd93 0f3d 230c f03d 2cd3 223e 7107 d43d
00000030: 55ea 253e 80ab 113e 8096 343e db5f bf3d
00000040: 061e fe3d 00a4 e03d ae05 c63d 5b24 f33d
00000050: be14 333d 9dd8 093d ae28 f83d c5fc 173e
00000060: cefd e43d ce22 333e e716 f13d 7636 db3d
00000070: 1d76 0e3e 54ed 293e dc71 023e e99d df3d
00000080: 808f c03d 6671 bd3d fb43 103e e302 f83d
00000090: 4277 0a3e 4ef2 cc3d b9fc 323e
0.1281407 0.100762405 0.118528485 0.10713953 0.10521452 0.15080294 0.10903472 0.11363109
0.035053242 0.11721065 0.15900868 0.10352982 0.16202672 0.14225578 0.17635536 0.09344455
0.1240807 0.109687805 0.09669052 0.11872169 0.043720953 0.033653844 0.12117134 0.14842518
0.11181222 0.17493746 0.117719464 0.10703747 0.13912244 0.1659444 0.12738746 0.10918791
0.094023705 0.09250145 0.14088432 0.121099256 0.13522056 0.100071535 0.17479219
