Assets/Brains/AdrianTests/AdrianUpdatedColTest4/Zombie Walker/Zombie Walker-1499968.onnx (onnx, 302101 bytes, 9 tensors)

network_body._body_endoder.seq_layers.0.weight f4 [128, 281]
00000000: bd2b 463b acbd 89bc 2ab3 e2bc d254 303c
00000010: 805b 10bc 3286 6c3c 9f04 f6bc a27c a43d
00000020: 2b94 993c 65b3 023d abb1 093d b75c cdbd
00000030: 2be5 f33b cf0d 953d a722 98bd 02c3 4bbd
00000040: a57f 393d 45b9 afbd a8d3 fbbc 5c69 28bc
00000050: 2c93 1d3d 9020 c3bc ad0b 7bbc 8dc7 91bd
00000060: 1d6f 8c3c 9ccb 573d b27e 3bbd 5cef f83d
00000070: d399 2c3d e514 a1bc 7c59 043c 0081 0bbd
00000080: b2dd 6b3b b230 5f3d e24c bc3c bd08 05bd
00000090: 7823 b93c b267 813d d330 913c 34a9 20bc
000000a0: 5587 2dbd c7e8 7cbc 8f59 ff3d 1c11 6b3d
000000b0: 6981 a43c b0ef 423d f3b6 a9bc 055c 243d
000000c0: 1ae1 1c3d 02be 5abd 2c07 51bd cba3 73bd
000000d0: 1235 3cbc 6a32 7d3c 3fdd 1fbd a5de 87bc
000000e0: 2852 383d af15 6ebd 2170 bf3c db32 e9bc
000000f0: 9c01 90bd e5d9 4f3d 1dd3 0e3e 40cc 0cbc
00000100: 71c0 343c 3ff1 de3d 3e84 ddbd d677 b63c
00000110: 71d6 3d3d 2499 4bbe a6c9 8abc 9374 c73d
00000120: ac6f 703c 1caa c83c 2409 d1bc 0b37 8f3d
00000130: c469 e4bb ce1a debc ae2a 453c ddcc c63d
00000140: afb0 a63c db31 b8bc 6dbd a53d 3d28 d0bc
00000150: 0146 b0bc c3eb 01ba 72f6 cbbc 5af0 15bc
00000160: 9b7a 18bd 806f 6dbd 803c 04be 1be7 42bd
00000170: 9b50 573d 6578 09be 8d07 0cbd 9f5e 2f3d
00000180: 5dd3 323d 3bda 8a3c 9fe5 86bc 0a77 03be
00000190: 7924 48bd 984c 8abd 3721 efbc 55f3 533d
000001a0: eb74 cdbd f877 183d d066 8f3b fdad 423d
000001b0: 6511 df3d e46b 683e 245a 50bd d970 803d
000001c0: cf23 c6bd 9901 b63c 7dfd 073c acd6 d1bd
000001d0: db9e a53c 2c2b b53c 548d 4c3c 68fa 2ebd
000001e0: bd6f cfbd 8097 f5bc a1eb 66bd 9c47 e8bd
000001f0: 2480 d6bd a0e5 493d 47c7 8fbc 199a aa3d
00000200: d785 ea3d 3bc1 8fbc e826 0cbe 3ca2 efbc
00000210: c7e4 0abe 4702 a93d f7bf 2f3d 6478 8b3d
00000220: ace8 afbc 4647 3ebc 3b7a d0bb 23ac 413e
00000230: 92c7 e03d 3852 3f3d 6457 8abd 1f00 0cbd
00000240: 8e2e b03c 9ea7 7abd 3e0f 3c3d ac92 9c3d
00000250: ec63 8abd c1b8 4c3c 22f9 68bd 3fd7 e7bd
00000260: 6ebf baba 6fbe 033e ae9d e2bd dd93 58bd
00000270: ff38 153d 78d6 153d 7e5a 03bd b060 93bc
00000280: 7ab9 7c3d b2e4 11be d28d a23d f8d8 41bd
00000290: 6f16 373d 9ee5 92bb 3dd2 a7bd d3df 8c3c
000002a0: 8279 433b cc8c 903d 6977 443d fe4e cf3c
000002b0: af7e 31bd b679 0c3d 6255 0e3d ec62 273d
000002c0: 11e5 913d a4d0 16bd a72e 813d fffa da3d
000002d0: 4755 cc3c c08f e4bc 4b7b 6ebd 946e 3fbd
000002e0: f37e 923d c029 3abb b257 823d 4059 a6bd
000002f0: 449a 163d 73f3 8cbc 45bf 9fbb 2624 7f3d
00000300: b1ed 8a3d 87c1 c83d 799f c6bd cf2e b9bd
00000310: 1509 e43d be10 bebd 853f 2c3e e5d7 d3bc
00000320: 260d 073d 8d60 c23b 5380 3e3d 029b c9bd
00000330: 1955 96ba ccf4 8e3c ba6a d4bc f480 2e3c
00000340: 13d3 123d 2975 6c3d fe9d c23c bd25 553d
00000350: 30bd dbbc 8ad1 59bd 08f0 793d 278c bcbc
00000360: 47fb c3bc ebca c8bb ad9e ba3c 1d18 9e3d
00000370: 67e6 dcbd d18e 403c dfdd 94bb 7ae1 b23d
00000380: 998f 243d 658a 9cbc dd45 99bd 52f1 153d
00000390: 6f8e be3c badc 83bd d082 e03c 19bc 303e
000003a0: 9b95 b8bc c36e 6f3d d0db f43d 0dfd 11bc
000003b0: 774d 18bc b05b f13d 795b 90bd fca1 1abc
000003c0: b41e 9fbb 5593 f53c 02ce c43d 6fe2 a23d
000003d0: 5f81 243c 75d0 72bb 3dc5 abba 669b 8f3d
000003e0: 8f11 ac3c 98fb a2bc 4567 34bb 0eaa 033d
000003f0: 3c18 4dbd 6a28 a4bd c887 0dbe bd2e 473d
0.0030238472 -0.016814075 -0.027673323 0.01076241 -0.008810878 0.0144362915 -0.0300315 0.08031584
0.01874741 0.031909365 0.033616703 -0.100274496 0.0074430904 0.072780244 -0.074284844 -0.04974652
0.045287747 -0.08580259 -0.030740574 -0.010279026 0.038470432 -0.023819238 -0.015322608 -0.071181394
0.017142827 0.05268441 -0.045775123 0.12155029 0.042138886 -0.019663284 0.008077975 -0.03405857
0.0035990295 0.0544898 0.02298588 -0.032479037 0.02259992 0.063186064 0.017723477 -0.009805966
-0.04236539 -0.015436358 0.12468254 0.057389364 0.020081239 0.047591865 -0.02071712 0.04012682
0.03830061 -0.05340386 -0.05103223 -0.059482377 -0.011487262 0.015453914 -0.039029356 -0.016585657
0.045000225 -0.058126148 0.023368897 -0.028466633 -0.07031557 0.05074491 0.13947721 -0.008593619
0.01103221 0.10885858 -0.10816239 0.02227394 0.046347085 -0.19882637 -0.016941857 0.09739032
0.014675062 0.024495177 -0.025517054 0.069929205 -0.006970616 -0.02711239 0.012034101 0.09707043
0.020347921 -0.02248471 0.08092771 -0.025409812 -0.021517755 -0.00049560907 -0.024897788 -0.009151543
-0.0372263 -0.057967663 -0.12913704 -0.04758368 0.052567106 -0.13424833 -0.03418689 0.042814847
0.043658603 0.016949764 -0.016466914 -0.12838379 -0.048862908 -0.0675289 -0.029190643 0.05174573
-0.10032066 0.037223786 0.00437627 0.04752921 0.108919896 0.22697407 -0.050867215 0.06271524
-0.09674799 0.022217559 0.008300182 -0.102460235 0.02021735 0.022115313 0.012484867 -0.042719275
-0.10128734 -0.029979467 -0.056377057 -0.113417834 -0.1047366 0.049291253 -0.017551078 0.08330173
0.11451309 -0.017548194 -0.13686717 -0.029252164 -0.13563834 0.082523875 0.04290768 0.06810072
-0.021473251 -0.011613673 -0.0063622273 0.18913321 0.10975565 0.04670927 -0.0675495 -0.034179803
0.021506574 -0.06119501 0.045912974 0.07645163 -0.0675734 0.012495221 -0.056878217 -0.11320352
-0.0014247724 0.12865613 -0.11065231 -0.05287539 0.03643131 0.036581486 -0.032068722 -0.01799044
0.06170032 -0.14247397 0.07937206 -0.04732606 0.04469913 -0.004482939 -0.08194397 0.017196571
0.0029827063 0.07058105 0.04796544 0.025306221 -0.043333706 0.03429576 0.034749396 0.040865824
0.07123769 -0.03682007 0.06307726 0.10692405 0.024943007 -0.027900577 -0.05822305 -0.046736315
0.0715312 -0.0028406233 0.06364383 -0.08122492 0.036768213 -0.01720593 -0.004875096 0.062290333
0.06783617 0.098025374 -0.09698386 -0.09042131 0.11134545 -0.09280537 0.16821106 -0.025859782
0.032971524 0.00593192 0.0465091 -0.098440185 -0.0011469453 0.017450713 -0.025929797 0.010650862
0.035845827 0.05772892 0.023756977 0.052037943 -0.02682361 -0.053178348 0.061019927 -0.023016049
-0.02392353 -0.0061277053 0.02278074 0.07719443 -0.10786133 0.0117528 -0.0045430507 0.087344125
0.040176008 -0.01910896 -0.074840285 0.036607094 0.023261277 -0.064385846 0.027406126 0.17259254
-0.022532275 0.05845524 0.119559884 -0.00891043 -0.009295813 0.11785066 -0.07048697 -0.009438034
-0.004855955 0.02997748 0.09609605 0.07953345 0.01004061 -0.003705052 -0.0013105046 0.07012062
0.021004466 -0.01989536 -0.0027527374 0.0321446 -0.05007194 -0.08015521 -0.13821328 0.048628557

network_body._body_endoder.seq_layers.0.bias f4 [128]
00000000: dad2 a539 2096 42ba 2b6b 66ba a7a2 4aba
00000010: 359f d7b9 a552 ac38 1aa5 1bb9 2a6f 5d3a
00000020: 8046 35ba cf26 e039 d109 733a e2e6 0d39
00000030: a5b7 be38 071e 0439 c759 afb9 309a 373a
00000040: 79f8 b8b8 b99d d7b8 4795 273a 5749 bd3a
00000050: 48ca 2d3a 1a05 823a 98fc 0b38 9fbf 23ba
00000060: 2d1c b738 9b00 2938 474d 6539 7f41 fc39
00000070: 0901 8338 99e4 ebb8 577f 4f3a 3f0d a0b9
00000080: d373 b539 dcf8 9d38 0c46 3739 3e07 9c39
00000090: 44fc 1f3a 8f7f ae39 b2a3 2b3a 34a3 5938
000000a0: 4418 7d39 fed3 8b39 fe59 443a 9036 9239
000000b0: 36c8 b0ba b615 c139 7c47 98b9 b51e 3cba
000000c0: c9da 10ba 3af9 693a d73f f2b6 ba01 fb39
000000d0: ac45 9739 2941 673a 8564 2c39 a49e 0939
000000e0: ac34 b1b9 ca18 8137 06e1 b739 339d b0b8
000000f0: 8adf 9239 a653 66b9 049f a43a e8cf d839
00000100: 381c adb9 8d19 32ba 005f 033a 2263 9ab9
00000110: 9dc3 9aba ce10 5639 f577 2d3a 10e5 013a
00000120: 9b05 fb39 ca74 16ba b42e 51ba cec8 85b9
00000130: 4b6c 1ab9 86db 9ab9 7b05 603a f89b fc39
00000140: 7d95 643a 114f 9db9 def4 0aba 5cd0 8639
00000150: a34a 40ba 51ce 17ba 44bd da39 a6cd 9f39
00000160: a142 99b9 9c82 91ba 2fff d938 17ba a73a
00000170: aeb2 f839 e6b0 06ba 86ba 293a 21ec e639
00000180: 54b8 59b9 bfe1 b539 a405 7538 545a afb9
00000190: 7aab 80ba 9f11 acb9 a523 c5ba 73dd 9dba
000001a0: 182f 01ba 7519 8739 85a8 fb39 85ad 5c3a
000001b0: 8b47 c239 a55a a9ba 5c3b 8638 d3a6 02ba
000001c0: 128b c039 a23e 863a ba29 0c3a 992c 7c37
000001d0: 7b26 22ba fd43 2bba cf78 3a38 7537 a6b9
000001e0: 77ee 203a d987 bd39 2f0d d033 050e 93ba
000001f0: 6709 a839 c317 6338 7be4 603a 1c9b c138
0.0003162835 -0.0007422883 -0.0008789773 -0.00077299256 -0.00041126614 8.216993e-05 -0.00014843457 0.00084470457
-0.00069151074 0.00042753524 0.0009271177 0.00013532818 9.0941125e-05 0.00012599687 -0.0003344549 0.0007003872
-8.820085e-05 -0.00010281377 0.00063927885 0.0014441413 0.00066295685 0.0009919733 3.337543e-05 -0.00062465103
8.731368e-05 4.0293304e-05 0.0002186793 0.00048113984 6.2467596e-05 -0.00011248253 0.00079153985 -0.00030527447
0.00034609306 7.532697e-05 0.00017478334 0.00029760035 0.0006102959 0.00033282905 0.0006547525 5.1888826e-05
0.00024137 0.00026670092 0.00074902165 0.00027887942 -0.0013487402 0.00036828005 -0.0002904496 -0.00071762066
-0.00055257656 0.0008925382 -7.219594e-06 0.00047875737 0.00028852874 0.00088216603 0.00016440645 0.00013124436
-0.00033799314 1.5389542e-05 0.00035072136 -8.4216146e-05 0.0002801384 -0.00021965671 0.0012559597 0.00041353633
-0.00033018156 -0.00067939685 0.00050114095 -0.0002944703 -0.0011807565 0.0002041489 0.0006617301 0.00049550924
0.00047878627 -0.0005739449 -0.00079796766 -0.00025517348 -0.00014726927 -0.00029536727 0.00085457385 0.0004818139
0.0008719785 -0.00030004283 -0.000530077 0.00025713712 -0.00073353405 -0.00057909364 0.00041721214 0.00030480063
-0.00029232076 -0.0011101547 0.00010394898 0.0012796548 0.00047435373 -0.0005138054 0.00064746325 0.00044044948
-0.000207634 0.00034691204 5.8417805e-05 -0.000334459 -0.0009816729 -0.00032819525 -0.001504053 -0.0012044146
-0.0004927977 0.00025768174 0.00048000008 0.00084181904 0.00037055867 -0.0012920691 6.4006745e-05 -0.0004983965
0.0003672471 0.0010242055 0.0005346794 1.5030754e-05 -0.00061855436 -0.00065332634 4.4458367e-05 -0.00031703306
0.00061390497 0.00036150104 9.688153e-08 -0.0011219388 0.00032050462 5.4143147e-05 0.0008578968 9.2318485e-05

network_body._body_endoder.seq_layers.2.weight f4 [128, 128]
00000000: adbf 423e c104 c7bd ef28 863d f821 433e
00000010: 8f7f 28be de69 853d 0c7a e63d 5792 a8bd
00000020: e014 0fbd 7913 313d 0f44 11be 7ebf ecbd
00000030: e408 c63b 43e0 383d 01f5 523e 57c3 673d
00000040: 4b38 9d3d 76d1 f93c cb0f b03b a87b 8fbd
00000050: fd5b 8cbd 3ddf eebd 1a64 dcbd 2452 08bd
00000060: 39a0 54bd 28fe daba 3918 55bc f5b7 833b
00000070: 9a22 c7bd 1610 18bd 7ce0 333e 17aa 9f3c
00000080: 7acb c73c 4b89 a73d 4004 05be a099 903d
00000090: 2a03 3dbd 80e6 a2bc 66fb b7bd ce5e 5c3d
000000a0: b0ae ebbc ff38 5cbd a394 023d 1908 b83d
000000b0: ce0e 033e 1788 b53d 0ce5 153c 9ae0 a1bd
000000c0: 1131 ec3d e7ca 823d cf85 213d 031c d6bd
000000d0: 4bf4 a4bd dfe5 9fbb d2c3 9fbd ad16 67be
000000e0: dee9 603d 64d8 433d 66dc 1fbc 3f2b 113e
000000f0: a7cc c7bd 7e34 7e3e 8b74 f33d 5670 1ebb
00000100: 9e98 0a3e 6f14 873d e73a bfbd bb36 d3bd
00000110: ed4e 9f3c 1ad3 243d 56f1 5fbe eba4 c23d
00000120: 411a 433c 8166 0a3e ddda 8bbd 7760 c23d
00000130: 13cc 65bd 207c b03d b7b5 c83d 9483 f3bc
00000140: 5e33 c53d f3bf d83d 9750 eebd b0de 1d3d
00000150: 46d7 e9bc 4837 a33d e160 3d3b 89ae 253d
00000160: 2f0c c9bd d23a 8a3c 29b0 b53d b440 6dbc
00000170: 52a6 83bd 93f3 6bbe 04f8 333c 0498 c53c
00000180: 6fe0 f93c a37c e03d 4e61 5e3e f856 df3d
00000190: 7664 b33d 6c59 5a3d 865d 21be efe9 1e3d
000001a0: 778e 6d3c 9496 d53d ae1d 46bd abdf 95bb
000001b0: ceb3 0e3d 97d5 c0bd c648 11bd b181 0fbc
000001c0: e09e 7cbd 50cc 67bd e593 173e a3cc e23d
000001d0: e25a 88bd adec 45bd 7e2e f1bd 5bc3 723d
000001e0: 33eb 9f3d 3163 23bd 23c7 87b8 f031 82bd
000001f0: faf6 4bbd 97ae 023e d61a 1abc cbca f4bc
00000200: 895f 9d3e dab8 0d3d d2d2 6ebd 146e 303c
00000210: 7d89 833b d2be 8dba 44fb 123d 5d45 da3d
00000220: 4218 633d 0f97 023d cb82 19be 6231 a73d
00000230: 1644 a73d 3bc2 463d 8766 5d3d 759c 14bd
00000240: 9635 8dbd c144 06be d942 993d fde7 ce3d
00000250: 8f5c 7a3d e3f5 f53d 8c10 82bd 2eea 59bd
00000260: 1a89 673e fd9f 18bd 7142 f03d 67a2 0fbe
00000270: 913e 9a3d b681 a2bd 0316 b7bc aa69 8b3c
00000280: 6a83 afbd ec59 ca3c 3157 90bd 3eea f33c
00000290: 51c9 f4bd 0d97 ef3d 7375 abbd 8afb 8abd
000002a0: 4a63 ac3d 5959 253c d66d 39bd 5322 a7bd
000002b0: aa6b a5bd 90a8 0b3d 8a78 563d 4921 14bd
000002c0: b0c6 5dbd ee0c 3fbd fb9b e43d 2817 6dbd
000002d0: 201a 183e e896 c23d 6c05 ef3d df51 44bd
000002e0: ea5e 513d a847 203e 77fc 5c3d 75da 6b3d
000002f0: c784 af3d b31e 9a3d 437e 37bc a6eb 4a3e
00000300: 4d48 72bc 85f5 3e3e bc98 3fbd 820d 4f3d
00000310: 37b0 15be b87f e83d 2065 f33d 15f8 0cbc
00000320: 6f00 9d3d 79f0 90bd 3c20 313e e880 623c
00000330: d1bc 7c3d 5bc2 443e cd17 a73d 2292 d23d
00000340: 6070 d1bd c32f 4f3d 2f70 1a3d 8a4d b83c
00000350: d84d d73d cf4f 563d e7d7 72bc fc66 db3d
00000360: fe5a 1b3e 00fb 903d bbd6 1bbe b47e ea3d
00000370: 579c 47bb 3ea0 50bd 72e9 c9bc a38f afbd
00000380: 75fb 8d3d 86d3 eb3d db67 00be ffe5 c53d
00000390: f46b 973d a381 24bc 4553 06be 9669 133d
000003a0: cae4 d53b f182 0ebd 307b 903d ffb1 5d3d
000003b0: f74a 78bc 692c 473c dd49 393e 18ef c03d
000003c0: 9ced acbd 2fd1 97bd f892 ccbc 6ecb 463e
000003d0: c6dc aebd f761 9a3d c234 92bd ae5b 73bc
000003e0: 2782 2e3c 02b4 073e 0227 403d 9e53 01be
000003f0: 7d72 7fbc 86f4 debc ed1f 053c 3089 0dbc
0.19018431 -0.097177036 0.06550776 0.19055927 -0.1645491 0.06514333 0.11253747 -0.08231037
-0.034932017 0.04323146 -0.14186119 -0.11559962 0.0060435403 0.045135748 0.20601274 0.056582775
0.07676753 0.030495387 0.0053729764 -0.070060074 -0.06853483 -0.11663673 -0.1076128 -0.03328146
-0.051910613 -0.0016707825 -0.013006263 0.004019732 -0.097233966 -0.037124716 0.17566103 0.019490285
0.024389017 0.081804834 -0.12989902 0.07060552 -0.046145596 -0.019885302 -0.08983497 0.05380135
-0.02876982 -0.053765293 0.031880032 0.089859195 0.12798616 0.08863848 0.009148847 -0.079041675
0.11532796 0.06386357 0.03943425 -0.104545616 -0.08054408 -0.0048796977 -0.07801022 -0.22567244
0.054910533 0.047813788 -0.009757137 0.14176653 -0.09755831 0.24824712 0.11887463 -0.0024175844
0.13534781 0.06595694 -0.093374066 -0.103131734 0.019446814 0.040240385 -0.21869406 0.09504112
0.011908115 0.13515665 -0.06828854 0.094910555 -0.056102823 0.08617425 0.09800284 -0.029725827
0.09628938 0.105834864 -0.11636465 0.03854245 -0.028545033 0.079695284 0.0028896856 0.040449653
-0.09816777 0.01687375 0.088714905 -0.014480758 -0.064282075 -0.23042135 0.0109844245 0.024120338
0.030502526 0.109612726 0.21716806 0.1090526 0.08759396 0.053307936 -0.15758333 0.038797315
0.014499298 0.10429111 -0.04836815 -0.0045737824 0.034839444 -0.09415739 -0.035469793 -0.008758948
-0.061674953 -0.056591332 0.14802511 0.110741876 -0.066579595 -0.048321415 -0.11776446 0.059268337
0.078085326 -0.03988952 -6.474394e-05 -0.06357181 -0.049796082 0.12761913 -0.009405812 -0.029881855
0.3073695 0.034600116 -0.058306523 0.010768432 0.0040141926 -0.0010814315 0.035884157 0.10657761
0.055443056 0.031882342 -0.149913 0.08163716 0.08167283 0.048525076 0.054052856 -0.03628202
-0.06894986 -0.13112165 0.07483453 0.10102842 0.061123427 0.1200979 -0.06350812 -0.053201847
0.22610894 -0.03726195 0.11731423 -0.14026795 0.07531465 -0.07934897 -0.022349363 0.017018158
-0.08569987 0.024701081 -0.070478804 0.029774781 -0.119524606 0.116987325 -0.08372011 -0.067862585
0.084173754 0.010092103 -0.045270763 -0.08160844 -0.08077176 0.0340963 0.05236105 -0.036164556
-0.05414456 -0.04664319 0.111625634 -0.05788341 0.14853716 0.09501439 0.11670956 -0.04792964
0.051115908 0.15652335 0.053951707 0.057581384 0.08570247 0.07525387 -0.011199537 0.19816455
-0.014787746 0.18648346 -0.04677652 0.05054999 -0.14618002 0.113524854 0.118845224 -0.008604069
0.07666098 -0.070771165 0.17297453 0.013824679 0.061703507 0.19214766 0.081588365 0.10281779
-0.10226512 0.05058266 0.037704643 0.022497911 0.105128944 0.052322205 -0.014821983 0.10713002
0.1517143 0.070791245 -0.15218632 0.11449948 -0.0030458176 -0.05093407 -0.024647448 -0.085723184
0.06932727 0.11514954 -0.12539618 0.09663009 0.07393637 -0.010040673 -0.13117702 0.035989366
0.006527518 -0.034792844 0.07054746 0.05412483 -0.015154592 0.012156584 0.18094583 0.094206035
-0.08443758 -0.074129455 -0.024972424 0.1941354 -0.08538203 0.075382166 -0.07138969 -0.014853401
0.010651148 0.13252261 0.0469122 -0.12629554 -0.015591261 -0.027216207 0.0081252875 -0.008638665

network_body._body_endoder.seq_layers.2.bias f4 [128]
00000000: 10e8 48ba cb39 2cb8 9e73 823a ca13 79ba
00000010: 7b23 52b9 cd6f 473a c38f 2fba 69a1 fcb9
00000020: 03c3 82ba 39b5 a339 401a 3138 607b 083a
00000030: 81e3 9fb9 b991 6eb8 0dcb 113a 1dc4 503a
00000040: 1db4 64b9 12b2 11ba b251 57ba 61e6 96ba
00000050: 6eae a9ba 97d5 2cba 547b afb9 6807 f939
00000060: 1f8a f139 6e08 6639 addf 053a a755 a1b8
00000070: a22d 65b8 e2f2 0338 18b1 0d39 b15d 22b9
00000080: 7b01 833a 0fdc f539 7e64 68b9 c44f 663a
00000090: 117c 083a 1e05 de39 7adb 163a 1c70 b03a
000000a0: 7e94 243a 08f9 993a db56 25ba 0bbe 2fb8
000000b0: d733 893a bd33 92b9 8d17 9bba 1e6a 5eb9
000000c0: 4d66 a4ba 8986 c6b9 a02f 0b38 b23f 5038
000000d0: 2362 71b9 e5d5 b1b9 3c61 15ba e061 83ba
000000e0: a21c a039 69f2 e7b6 620d e339 f5a0 163a
000000f0: 6c89 93b9 96ee 2139 2e42 e8b9 f81b 9eb9
00000100: f29a 14b8 1219 8f39 88a5 cfba cd1d 39ba
00000110: 3262 a53a 8df8 5d3a 059d cdb9 9aa2 f138
00000120: a313 9f39 744b 0939 cee7 deb9 49e3 153a
00000130: 3343 2dba 6337 e839 e1aa 5a3a 6f0b df39
00000140: 77fa 413a 773d 75ba 9bfa 1aba 0d18 48ba
00000150: 6a9a d239 b0ea f1b7 42ae 6eb9 bcaf 9f3a
00000160: 94b2 8ab9 2131 a437 a250 b539 e98c 88ba
00000170: 6d5d 38ba 976d 2039 83fa b5ba df8e 83b9
00000180: 826f 96b9 7acd c0b9 1d7f 74b9 6a19 6bba
00000190: 9d71 373a 4b45 2237 1239 ac39 136d 5b39
000001a0: 26d1 efb9 561c 88ba de20 f4b9 1f23 f3b9
000001b0: d9b4 d4b8 46cf 0f3a fbe1 f6b9 9c2f b939
000001c0: 7fe3 9db9 c0e3 243a 4484 493a c5c3 47b8
000001d0: fac5 6eb9 c641 8439 db7b 50ba d4f5 f3b8
000001e0: 6040 bf3a cbd7 baba 858c 5f3a efb4 36ba
000001f0: bd08 e43a 508a 0a3a 6301 223a c8f4 1aba
-0.00076639745 -4.106182e-05 0.000995267 -0.0009501545 -0.00020040378 0.0007607907 -0.00066971424 -0.00048185445
-0.0009976331 0.00031224804 4.2224536e-05 0.00052063726 -0.00030496347 -5.6879337e-05 0.0005561568 0.00079637935
-0.00021810872 -0.00055578456 -0.00082137727 -0.001151275 -0.0012945661 -0.00065931067 -0.00033470488 0.000474985
0.0004607001 0.0002193765 0.00051068777 -7.693032e-05 -5.4640353e-05 3.1459036e-05 0.0001351278 -0.00015484427
0.0009994948 0.00046893998 -0.0002216268 0.000878569 0.00052064756 0.00042346952 0.00057547505 0.0013461146
0.00062782306 0.0011747191 -0.0006307193 -4.1900243e-05 0.001046772 -0.00027885838 -0.001183258 -0.00021211102
-0.0012542695 -0.0003786574 3.3184537e-05 4.9650385e-05 -0.0002302011 -0.00033919435 -0.0005698388 -0.0010023676
0.0003053891 -6.9125567e-06 0.00043306785 0.00057460304 -0.00028140412 0.00015443037 -0.00044299796 -0.00030156947
-3.5430254e-05 0.00027293764 -0.0015842179 -0.00070616306 0.0012617765 0.0008467518 -0.00039217636 0.000115220624
0.00030341474 0.00013093447 -0.00042515848 0.0005717767 -0.000660944 0.00044291755 0.0008341503 0.00042542393
0.0007399688 -0.0009355167 -0.0005911977 -0.00076329784 0.0004016937 -2.8838724e-05 -0.00022762365 0.001218311
-0.00026454462 1.9573201e-05 0.00034583086 -0.0010417971 -0.00070329645 0.00015299614 -0.0013883862 -0.00025092714
-0.0002869331 -0.00036774186 -0.00023317007 -0.00089683256 0.00069978257 9.672086e-06 0.00032848917 0.00020926101
-0.0004574146 -0.0010384421 -0.00046563795 -0.0004637474 -0.00010142633 0.0005485903 -0.00047089145 0.00035321421
-0.0003011487 0.0006290041 0.00076872506 -4.7627622e-05 -0.00022771201 0.00025226007 -0.0007953026 -0.00011632932
0.0014591329 -0.0014254985 0.0008527714 -0.000696971 0.0017397624 0.00052848924 0.0006180016 -0.0005911109

network_body._body_endoder.seq_layers.4.weight f4 [128, 128]
00000000: a953 033e 8a0b 413d f355 8c3d 0ff1 f23d
00000010: 96cd 613d 8295 763c 9b0b e3bc 395f ac3c
00000020: b08c be3c 77a0 f5bc 5f67 713d 731c 5dbd
00000030: 0d71 313d f2b3 a7bc de1a a93c 0828 0a3c
00000040: e46a 8ebc 6be8 bc3b 9370 103e fdfc 8e3d
00000050: f227 e03d cd4a 5d3e 8382 e13d 13cb babd
00000060: d923 c63d c179 8bbd fdd9 0ebb f1ce 853d
00000070: b290 de3c 29c2 76bd e422 933d 0270 6abd
00000080: f7b4 92bd 08dd b1bb e977 2abc b5be d53d
00000090: a833 0b3b 37f3 043e d5ab da3c 97e5 44bd
000000a0: 00d3 9fbc 6363 d3bd 7847 64bd f1d2 ebbc
000000b0: 1cfe 933b e426 853d 60cf 763c 01c1 e03c
000000c0: 53d3 133d 73de 68bc 9444 693c 114f 4a3d
000000d0: b665 a6bd f8ec eebd cb27 183e da01 ce3c
000000e0: 2c49 ce3b e70f 373d 030b a7bc 64d7 283e
000000f0: 50e9 e7bd fd3f ce3d d52e 023e 2cbb b0bb
00000100: 6fd4 aebc 8367 b43b b840 5f3d 4ee5 48bc
00000110: f4fa 463d 5c9c 36bc e929 96bd f2a5 ad3c
00000120: e07e 60bd 172a 0cbd 2503 b5bd 8dad 4a3e
00000130: fe13 c6bb d301 20bd d945 be3d b3ee b9bd
00000140: fe21 a73d 214a 02bd 67d3 ca3d 3902 9a3d
00000150: 7703 fe3d ce18 193d 167f b1bd c5bd 0abe
00000160: a516 4d3d a9dc c3bd 883f 29bd e07a ddbc
00000170: dbbe 8dbd 1ac8 98bd 99a5 0d3b 8080 d2bd
00000180: 6167 d53c 8330 213c 4735 dabd 4f1f 3fbd
00000190: 2170 45bd 451a b7bd d5f9 053e d7ba aebd
000001a0: feec 073e 366c 09be 07f7 3ebd 2390 9a3c
000001b0: b974 353c 8992 153e 6160 283c 5a11 97bc
000001c0: 9810 b53c a80a 1f3d 8091 8bbd a951 51bd
000001d0: 0017 f23c cf27 18be 5e76 c33d 6985 593e
000001e0: fe54 123d 0d27 243e bba5 8b3d 558a 67bd
000001f0: d6a9 a9bd 3f54 51bd 5dec 9abd 18b7 4cbe
00000200: 2cad 3f3d 7920 af3d 548c b3bd a928 eebc
00000210: 80cf c63d e166 19be ec2a bc3d cab4 963c
00000220: ef23 293e 13f1 cebc feb1 2b3e de01 b4bd
00000230: 938a 903c 2b02 323c c00c 27bd adaf 023c
00000240: 5872 523d 10a0 87bc 0824 043d bad1 053e
00000250: 3b4b d13c 40fb 6e3d caa3 a53d e23d 2f3d
00000260: 90e8 60bc 76c4 773d e4ac 00bd c382 04be
00000270: bc10 dabd b244 37bd 0ea5 b13c 7edd c1bd
00000280: ee25 19be 6e9b 3e3d 69c2 483d d2e4 fdbd
00000290: ba2c 0a3c 4959 113e bb37 6cbc f98e 1dbe
000002a0: e167 6e3d d301 8e3d 517a efbc 1fb0 c3bd
000002b0: e5a7 8fbd 1b95 343c 4997 3a3d 88bb dbbd
000002c0: 92ad c538 9019 4fbd aa60 07be e4e6 5f3d
000002d0: 0cc2 003d 05db 173e 0946 153c 710f 9f3d
000002e0: f36a ae3d 90de 743d 4e45 cb3d 3a65 11bc
000002f0: c605 55bd 72cd 8fbc 6f28 d6bd 33fd c13b
00000300: 73f1 ce3d 4142 a43d 0dbd 013e ae4c c33d
00000310: 2c69 833d 2692 fc3d be48 0d3e 30de 313e
00000320: a14e 6b3d 23df 7abd a2b3 103d 7568 963c
00000330: 30c6 debd 6712 5abc 9472 0c3c f3c0 413d
00000340: 3150 6ebd c63f f93d de3c 0c3c 8239 64bc
00000350: bbef 5fbe ab5f 65bd 827c ec3d 9566 8cbd
00000360: 324c c13d 5e01 843d a43f 37be 624c 2abe
00000370: ed27 9cbd cc48 863d a168 d33c 22f4 913d
00000380: 6243 fc3d d639 0d3c eb67 62bd 8c14 53be
00000390: 885a 13be 3ffa 473d fa87 bdbd f6b3 3ebd
000003a0: 2697 013e 0ba1 393c f182 a63d 542e 8d3d
000003b0: c1d5 fe3c 596c 3dbd 1ec2 1f3d 1400 9fbd
000003c0: 711b 94bd c3f7 4cbb a07b afbd 8fd2 a93d
000003d0: b856 153e 76ed 9dbc 16d9 853d 8e8a f73d
000003e0: 0082 8dbd 6b11 643d 711d 94bc 03b3 293c
000003f0: 49d1 493d 4bc3 a13d c271 afbd b1fa c83d
0.12824883 0.047130145 0.06852331 0.118623845 0.055127703 0.015050294 -0.027715495 0.0210415
0.023260444 -0.029983742 0.058936473 -0.05398221 0.043320704 -0.020471547 0.020642694 0.008432396
-0.017384954 0.005765011 0.14105444 0.069818474 0.10945119 0.21610565 0.11011221 -0.091207646
0.09674806 -0.06810332 -0.0021797412 0.065336116 0.027168605 -0.06024376 0.07184389 -0.057235725
-0.071634226 -0.0054279603 -0.010404565 0.10436765 0.0021240506 0.12983404 0.026693264 -0.048070516
-0.019509792 -0.10321691 -0.05573222 -0.028787108 0.004516376 0.065015584 0.0150640905 0.027435781
0.036090206 -0.014213192 0.014237542 0.04939181 -0.081248686 -0.11666292 0.1485893 0.025147367
0.006295344 0.0446929 -0.020390993 0.16488415 -0.11323798 0.100707985 0.12713178 -0.0053934064
-0.02134153 0.0055055036 0.05450508 -0.012261702 0.04857917 -0.011145677 -0.073322125 0.021197293
-0.054808497 -0.034219828 -0.088384904 0.19792767 -0.0060448637 -0.03906424 0.09290666 -0.090787314
0.0816078 -0.031808976 0.09903603 0.07519955 0.124030046 0.03737717 -0.08666818 -0.13548954
0.050070424 -0.09563572 -0.041320354 -0.02703613 -0.069211684 -0.07460041 0.0021613596 -0.10278416
0.026050271 0.009838226 -0.10654693 -0.046660718 -0.048202638 -0.089405574 0.13083585 -0.085317306
0.13273999 -0.13420185 -0.046622302 0.018867558 0.011075192 0.1460668 0.010276885 -0.018440891
0.02210264 0.038828522 -0.06814861 -0.051103268 0.029551983 -0.14858936 0.09544061 0.21242298
0.035725586 0.16030522 0.0681872 -0.056528408 -0.08284347 -0.051105734 -0.07564614 -0.1999172
0.04679601 0.085511155 -0.08767 -0.029072123 0.09707546 -0.14980651 0.09187874 0.018396754
0.16517614 -0.025261438 0.16767117 -0.08789419 0.017644202 0.010864775 -0.040783644 0.007976455
0.051378578 -0.016555816 0.032260925 0.13068286 0.025548568 0.05834508 0.08087881 0.042783625
-0.013727322 0.060490094 -0.03141488 -0.12940507 -0.10647723 -0.044743247 0.02168515 -0.094660744
-0.14955875 0.046534948 0.04901353 -0.1239716 0.008433515 0.14194216 -0.014417584 -0.15386571
0.058204535 0.06933942 -0.02923313 -0.09555077 -0.07014445 0.011021878 0.045554433 -0.10729128
9.426022e-05 -0.050561488 -0.13220468 0.054663554 0.031435058 0.14829643 0.009110936 0.07766617
0.08516493 0.059782565 0.09925328 -0.008874232 -0.05200746 -0.017554019 -0.10456931 0.0059200763
0.101046465 0.080204494 0.12669773 0.0953611 0.06416544 0.12332563 0.1379728 0.17369914
0.057448033 -0.061247956 0.03532756 0.018360356 -0.10877645 -0.0133100515 0.008572239 0.04730315
-0.058181945 0.12170367 0.008559434 -0.013929727 -0.21868794 -0.05599944 0.115471855 -0.068555035
0.09438361 0.06445573 -0.1789537 -0.166307 -0.07624803 0.06556854 0.025806727 0.07126643
0.1231754 0.008619746 -0.055274885 -0.20613307 -0.14390004 0.048822638 -0.09254451 -0.046558343
0.12655315 0.0113299 0.08130444 0.06893602 0.031107785 -0.046245907 0.039003484 -0.07763687
-0.072317965 -0.0031275607 -0.085685015 0.08292114 0.14583862 -0.01927827 0.065355465 0.12086974
-0.06909561 0.055680674 -0.018080445 0.010357621 0.049271856 0.07898577 -0.085666195 0.098134406

network_body._body_endoder.seq_layers.4.bias f4 [128]
00000000: 030f 0fb9 c1e1 6cb9 bedf a7b9 2dd0 6fba
00000010: f007 9939 5d95 943a 35b9 8fb9 8691 84b9
00000020: 528e 92b9 fc69 12ba 9545 eeb9 570e 233a
00000030: 2b9d a6b9 0037 f639 1356 e139 6c68 303a
00000040: 3ddd 30ba 4e63 213a af99 333a 6a13 83b9
00000050: edab 923a 3cdd 7939 1de4 3fba 5e7b 973a
00000060: e3e7 8eb7 6e69 c3b9 0e11 943a 0427 023a
00000070: eeed 2839 b67d d539 33f9 dab9 1a5c 4139
00000080: 52a0 25ba 5428 823a 1def 7c3a f6b2 3a3a
00000090: b884 4039 21f9 d93a b7c2 68ba d578 ac3a
000000a0: f06f 0fbb 0e38 9c39 a212 813a 2f7b 5a3a
000000b0: cf4f ecb8 1ded 8339 c0f2 e539 4ac4 d0b9
000000c0: adfa a9ba 1fab c1b9 a0cc db39 33e7 5b38
000000d0: 8119 6eb9 9907 3139 da5c 983a a87a 2c3a
000000e0: 6876 ecb8 2fcc 9039 5ec0 ba39 4589 d0ba
000000f0: 247f bcb9 9884 e838 0b69 943a da87 6b3a
00000100: d82e 89ba 660e 6139 e2ad 69ba 7035 ff39
00000110: 5ed2 4538 a43b 143a ffd8 54b9 d3b8 e439
00000120: 54c7 bab7 f769 8c3a 2ed4 e239 3492 deba
00000130: 93e4 2db9 beee 513a 6425 f7b9 1105 493a
00000140: b715 74ba 22f3 92ba 48e6 c9b9 bc58 28ba
00000150: 5972 9ab9 5e29 e6ba b5c0 243a d09a 8f38
00000160: 3cac b339 727f cc38 0f41 183a 4d79 0a3a
00000170: 4e21 1ab9 43b0 b539 37f6 9139 98c4 e839
00000180: 7a7c 9e39 1ac6 9639 28e1 78ba b45e 2e39
00000190: 9611 0d39 7fde 3339 9958 87b9 d38d 9c39
000001a0: 1277 d238 fd08 5339 fbe0 46b9 a6d3 43b9
000001b0: 4f25 aa39 ff45 8c3a b48b 7aba e77a 8e3a
000001c0: e273 243a 9abd 5eba b23e 7cba 49a7 823a
000001d0: 5558 94ba d597 1fb9 beb3 873a 1e87 853a
000001e0: 1e50 2e3a 4ca5 a4ba 5f7d 71ba 74a4 043a
000001f0: 8645 47ba 3584 d739 24ad 033a d453 98b8
-0.00013643135 -0.00022590814 -0.00032019423 -0.0009148147 0.00029188348 0.0011336018 -0.00027413075 -0.00025285425
-0.00027953327 -0.0005585251 -0.0004544674 0.00062200933 -0.00031779087 0.00046961755 0.00042979475 0.0006729427
-0.0006746834 0.000615646 0.0006851209 -0.00025000732 0.0011190154 0.00023828907 -0.00073200633 0.0011557152
-1.70357e-05 -0.0003727185 0.0011296587 0.000496492 0.00016110364 0.00040720188 -0.00041765868 0.00018440225
-0.000631814 0.0009930232 0.0009648668 0.0007122004 0.00018359988 0.0016630032 -0.00088791124 0.0013158569
-0.0021886788 0.00029796403 0.0009847472 0.0008334396 -0.000112682224 0.0002516293 0.00043859147 -0.00039819098
-0.0012968384 -0.00036939324 0.00041923393 5.242899e-05 -0.0002270695 0.00016882866 0.0011624352 0.00065795565
-0.00011275412 0.0002761795 0.0003562001 -0.001591005 -0.0003595288 0.000110873196 0.0011322809 0.0008984782
-0.0010466231 0.00021463036 -0.0008914155 0.00048677204 4.716438e-05 0.0005654639 -0.00020298733 0.00043625254
-2.2265747e-05 0.0010712732 0.00043264165 -0.0016980828 -0.00016583716 0.00080082926 -0.0004713937 0.00076682965
-0.0009311097 -0.0011211375 -0.0003850928 -0.0006421914 -0.00029458365 -0.0017559936 0.0006284819 6.8476074e-05
0.00034269865 9.7512166e-05 0.00058080343 0.00052823575 -0.00014698991 0.00034654335 0.0002784 0.00044396962
0.0003022885 0.00028757827 -0.0009494 0.00016629213 0.00013453359 0.00017153657 -0.00025815217 0.00029860306
0.00010035759 0.00020125876 -0.00018966563 -0.00018675494 0.00032452724 0.0010702013 -0.00095575606 0.0010870368
0.00062733714 -0.0008496881 -0.00096223794 0.0009968068 -0.0011317829 -0.00015219983 0.001035325 0.0010187363
0.00066495116 -0.0012561469 -0.0009212102 0.0005059906 -0.00076016074 0.00041106498 0.00050230534 -7.263539e-05

action_model._continuous_distribution.log_sigma f4 [1, 39]
00000000: df76 c639 df39 94b9 5750 8239 baae 09ba
00000010: f5ad 4cb8 6622 d8b9 671e 8d38 71ba 723a
00000020: 9044 9f3a e8f5 4339 b137 823a 1de7 7739
00000030: c2f2 413a 17c6 153a 4977 9e3a fe74 c339
00000040: 30c0 efb9 4a18 233a ab2b c33a b46d 1d3a
00000050: fff7 223a b05c 903a 08c2 f63a 93ad abb9
00000060: e8ce 403a be1b 7a3a 9ccd 50b9 58a7 023a
00000070: 1d20 79b9 1b8f e83a 8ca2 1cb7 1cb5 d73a
00000080: c314 92ba 342e a239 ac1a b432 1392 8eb8
00000090: e3e8 583a f960 353a 1ff4 cc3a
0.0003785407 -0.00028271877 0.0002485539 -0.00052521715 -4.87994e-05 -0.0004122436 6.729067e-05 0.00092593493
0.001215117 0.00018688256 0.000993481 0.00023641852 0.00073985395 0.00057134166 0.0012089993 0.00037280464
-0.00045728823 0.0006221576 0.0014890333 0.0006005422 0.0006216764 0.0011013951 0.0018826136 -0.00032744984
0.000735505 0.0009540877 -0.00019913021 0.00049840426 -0.00023758454 0.0017742844 -9.3361705e-06 0.0016457173
-0.0011145103 0.00030933472 2.0966887e-08 -6.798296e-05 0.0008274449 0.0006919052 0.0015636719

action_model._continuous_distribution.mu.weight f4 [39, 128]
00000000: 7f19 d7bb 1c2b eabc 432c a13c f6e5 343b
00000010: 1322 873b b755 02bd 51af f23b c223 db3c
00000020: 017a 44bc dc7b c3bb 0aa0 65bc 84c9 19bc
00000030: ce2b da3b d3f2 d1bb 650e dc3c 211d 8bbb
00000040: 083a 393d 8beb c3bb fdf9 c7bc 2347 4ebb
00000050: af21 ad3a a7f7 bfbc 35e7 863b 9371 f03b
00000060: ed7b d23a 1bea 173d 19ea aa3c 42fb f13c
00000070: 210e 143b da70 aebc a407 d53c 6954 073c
00000080: 4e16 b23c 14d7 87bc 4526 97bc c1e4 06bd
00000090: 6c47 0c3d bd46 713a c02a a5bb 5354 6cbc
000000a0: e5db dc3a 0977 e43b 5f38 033c a584 bbbc
000000b0: 9a2f d93b 798d 35bb 9254 81ba 5f00 823c
000000c0: f68f cdbc 411f 523b 2586 673a 16c0 8a3c
000000d0: 1792 1a3c db54 183d f797 bd3c 01ae c5bc
000000e0: 4497 89bb 70bf dd3b c82a 20bc 5fa0 1cbb
000000f0: f8ab bebc cb43 68bc bf2d 01bc 68e8 e43a
00000100: 2f2d fbbb d6a3 733c d174 5b3c a336 b8ba
00000110: 7c41 4b3c 1390 aa3a 6a21 353c 2f8c 603c
00000120: 4f3b db3a 68be ad3b 0e56 cd3b f2b5 073c
00000130: ff4f babb 4a9f a0bc cf8a 373c 1ccc 17bc
00000140: 2e7d 4a3d 1d9f 17bb e9b6 05bd 0df1 513d
00000150: 3c54 c33c 8b0b cfbb 782c 153d 23a3 32bc
00000160: 163e c53c 840f 77bc 585f 9fb8 c491 553a
00000170: 2d5a b63a b2f6 de3c b49d 1bba 7d55 1fba
00000180: 725d 963c 951e 8f3b d615 7cbc fa7c d03c
00000190: 8332 d439 3f11 523b 5240 f33c cfb7 62bb
000001a0: cfd5 80bb 4f4a 8abc d8d7 ba3b dc93 bebc
000001b0: ba8b 9cbc 55ca 6f3b 185c c13c 64a4 563b
000001c0: e3aa ecbc 4cb0 67bc f844 b93c 9e3d 693c
000001d0: 896d 873c 5210 eabb a67d 9fbb e212 8f3c
000001e0: 8f45 82ba 83d0 533c 8209 2dbc ff4e 963c
000001f0: f7e3 853c c479 4e3b f53d a7bb 12a1 17bd
00000200: e4d1 cf3b 5c4c a1bb 5e2e 9f3b 678e 563c
00000210: 6b21 b7b9 aa5b b73c 526e e93c 5b7d 063d
00000220: 8d8b f2bc dade 413c f91d 8c3b 134a e7ba
00000230: c049 a2bc 49bf 6b3c bea8 3dbc 158f 893b
00000240: 3d4b 26bc d0db bc3c 46f4 da3c 6d93 f53c
00000250: c460 e1ba b2f6 1abd a0e4 3a3a f141 a6bc
00000260: ab23 fe3a 24a9 8b3a 48d2 d93c b779 37bc
00000270: 221e 4a3c a119 9d3c 3d0e 083d 827f 363c
00000280: ad2c ec3b 3b2c ed3a e28b c03c 08cc 9db9
00000290: 3a89 eb3a ce66 623c 3a40 4f3b 7830 573c
000002a0: 59df a33b 91f7 9e3c 191f daba 5860 20bd
000002b0: c22c 413b bb43 e2bb 4bce 7cbc bdbd a03c
000002c0: 8a3b 19bc 298b fabb ac77 93bc c345 4ebd
000002d0: 9fc7 1dbd 0397 bb3c e1df 6d3c 0135 763b
000002e0: fce7 1f3c 4b68 503c 224f 9cbc f13a 97bc
000002f0: 0970 6e3c cb3f a93b 2322 183c 31b0 0dbc
00000300: 3bba 4dbb 839c c7ba 30d5 72bc 67ab 9cbc
00000310: a4fe 823b 1aad 09bd 49df 313c d667 043b
00000320: 18a2 73bc f1e1 d43c 3f1b 693b ec9a a1bc
00000330: 18e5 57bc 7e73 2ebb fa45 003d c775 0cbc
00000340: 7ca6 b13c 7648 e9bc a7ba a1bb 6320 deba
00000350: b3e2 8dbb e796 d73b cbe0 fa3c 3a39 f3bb
00000360: 4580 9dbb e47b c7bb eee0 a3bc fb11 d4bc
00000370: a877 d13a 7b9d b0bb 4a35 0fbd 9009 e83c
00000380: 1bfe 0b3c 5ed8 62bc 2eb4 45bb ffed b13c
00000390: 2325 39bc 5868 2e3b a00e 4ebb 8fdd b2bc
000003a0: 2580 f83c 909a 983c 0a1b 08bc b1e1 143b
000003b0: f49a 8e3b d403 b73c e5ef a63a 31fa 53bc
000003c0: b3ef b03c 6510 7abb e146 1ebc 6b94 9b3c
000003d0: 7b99 873c fac7 333c 47d9 9c3c 791a 49bc
000003e0: 29f2 e63c 68e0 3fbc 5b07 9fbc 8da5 a6bc
000003f0: 3f55 1fbc 9d3f 0bbd 8ce2 e63b 1eb8 1fbd
-0.0065643187 -0.02858501 0.019674426 0.0027602888 0.004123935 -0.031820025 0.0074061533 0.02675045
-0.011991979 -0.005965693 -0.014015207 -0.009386424 0.006658054 -0.0064071207 0.026862333 -0.004245416
0.04522136 -0.0059790066 -0.024411196 -0.0031475506 0.0013208891 -0.02343352 0.0041169175 0.007337758
0.0016058661 0.037088495 0.02086358 0.029538754 0.002259143 -0.021294046 0.02600462 0.008259871
0.021739151 -0.01658205 -0.018450866 -0.032933 0.0342478 0.0009203961 -0.0050404966 -0.014424401
0.0016850202 0.006972198 0.008009045 -0.022890398 0.006627989 -0.0027702732 -0.0009867123 0.015869318
-0.02509306 0.0032062086 0.000883194 0.016937297 0.009434245 0.0371903 0.023143752 -0.024130823
-0.0041989405 0.006767206 -0.009775825 -0.00238993 -0.02327536 -0.014176319 -0.007884442 0.0017464282
-0.0076652984 0.0148706045 0.01339455 -0.0014054369 0.012405749 0.0013012908 0.01105533 0.013705297
0.0016726049 0.005302239 0.006266362 0.008283125 -0.005685806 -0.019607205 0.011202528 -0.009264972
0.049435787 -0.002313561 -0.03264514 0.051255275 0.023843877 -0.0063185147 0.03641936 -0.010903153
0.024077456 -0.015079383 -7.59947e-05 0.0008147026 0.0013912373 0.027217243 -0.00059362804 -0.00060781074
0.018355105 0.0043676593 -0.0153860655 0.025450218 0.00040473425 0.0032053737 0.029693756 -0.0034594422
-0.003931738 -0.016881136 0.005702 -0.023263864 -0.019109596 0.0036589105 0.023603484 0.0032751793
-0.028890079 -0.014141154 0.022615895 0.014235882 0.016531723 -0.007143059 -0.0048672734 0.017465059
-0.0009938943 0.012928131 -0.010561349 0.018348215 0.016344054 0.0031505683 -0.0051038214 -0.037018843
0.0063421596 -0.004922433 0.0048578223 0.013095475 -0.00034929378 0.022382576 0.028494988 0.032834392
-0.029607559 0.011832917 0.004276034 -0.0017645977 -0.019810557 0.014388868 -0.011575876 0.004197965
-0.010149774 0.023054034 0.026727807 0.029977525 -0.0017194976 -0.037832923 0.00071294047 -0.020295115
0.0019389292 0.0010655266 0.026589528 -0.011198453 0.012336286 0.01917726 0.033216704 0.011138799
0.007207474 0.0018094847 0.023504201 -0.0003009739 0.0017969974 0.013818456 0.0031623975 0.013134114
0.0050009903 0.019405158 -0.0016641348 -0.03915438 0.002947614 -0.0069050468 -0.015430043 0.019621724
-0.009352574 -0.0076459837 -0.0180014 -0.0503595 -0.03852045 0.022899156 0.014518709 0.0037568214
0.009759899 0.012720178 -0.019080702 -0.018460723 0.014553078 0.0051650754 0.009285483 -0.008647964
-0.003139152 -0.0015229139 -0.014821336 -0.0191247 0.0039976407 -0.03361235 0.010856458 0.0020203493
-0.014870189 0.025986644 0.0035569218 -0.019727193 -0.013177179 -0.0026619132 0.031316735 -0.008573002
0.021685831 -0.028476935 -0.004935581 -0.0016946908 -0.004330003 0.0065792683 0.030624768 -0.0074225934
-0.0048065507 -0.006087767 -0.020004716 -0.02588748 0.0015981095 -0.005389867 -0.03496293 0.028324872
0.00854447 -0.013845531 -0.003016721 0.02171993 -0.011300358 0.0026612487 -0.0031441823 -0.021834163
0.030334542 0.018628389 -0.008307228 0.002271753 0.004351968 0.022340693 0.0012736289 -0.012938068
0.021598672 -0.0038156745 -0.009660454 0.01899167 0.016552677 0.010972971 0.019146575 -0.012274378
0.028191643 -0.011711217 -0.019412687 -0.020342613 -0.009724914 -0.033996213 0.0070460495 -0.038993947

action_model._continuous_distribution.mu.bias f4 [39]
00000000: c074 43ba 90e1 1c3a 738d cc3a 36ff 4eba
00000010: b554 1c3a 65ac 63ba 5fea d839 d614 d539
00000020: 5635 16b9 6b62 02ba 1ebe c7b9 5e19 6938
00000030: efec 483a b27d 2a39 e48b bbb8 f2f5 403a
00000040: 6060 6a38 e43c fcb9 6462 9db9 a5ac 06ba
00000050: c8d7 ff39 120d 75ba a4e4 2739 c974 1739
00000060: b704 3ab9 9b8f 4b39 a10c b5ba 807a 07bb
00000070: 3b27 1bba c6d6 86ba a1cc 2239 2a75 a43a
00000080: 1589 dcba 3542 5cba 60e4 7cb9 c79c a939
00000090: 8838 6fba 96b2 1fba 91d4 34b8
-0.0007456057 0.0005984539 0.001560612 -0.0007896306 0.000596355 -0.00086850516 0.0004137335 0.0004064205
-0.00014324984 -0.0004973772 -0.00038097886 5.5575154e-05 0.00076647004 0.00016259289 -8.9429115e-05 0.00073608675
5.5879704e-05 -0.00048110553 -0.0003001868 -0.00051374204 0.0004879816 -0.0009347956 0.00016011536 0.00014443988
-0.00017740099 0.00019413086 -0.0013812968 -0.002067238 -0.00059186266 -0.0010287396 0.00015525754 0.0012547125
-0.0016825522 -0.00084021996 -0.00024117669 0.00032351 -0.000912555 -0.000609198 -4.3113312e-05
