Assets/Brains/ArvidTests/fresh10/Zombie Walker/Zombie Walker-4999957.onnx (onnx, 222824 bytes, 7 tensors)

network_body._body_endoder.seq_layers.0.weight f4 [128, 257]
0	0xbdeb0f67	-0.11477547
1	0xbf202559	-0.6255699
2	0xbebf50b6	-0.37366265
3	0x3dc85617	0.09782045
4	0x3d12dd7d	0.03585576
5	0x3dac0b8a	0.084006384
6	0x3dc95610	0.09830868
7	0x3ecb8111	0.39746907
8	0xbe885793	-0.26629314
9	0xbd33b47a	-0.043873288
10	0xbda3a421	-0.079902895
11	0x3dc2bed8	0.09509057
12	0x3d095bac	0.03353469
13	0xbf2019e1	-0.6253949
14	0xbeebfa90	-0.46089602
15	0xbee14364	-0.43996727
16	0xbd43d6be	-0.047812216
17	0xbc491552	-0.01227315
18	0x3e6914d7	0.22761856
19	0x3dab0c2d	0.08351932
20	0x3d410619	0.047124956
21	0x3e14bc8b	0.14525048
22	0xbdaddf99	-0.084899135
23	0xbe871d5c	-0.26389587
24	0xbdd518cb	-0.104051195
25	0x3e30719f	0.17230843
26	0xbea8027b	-0.32814392
27	0xbf2afb04	-0.6678927
28	0xbeef7857	-0.467715
29	0x3dae8ecf	0.08523332
30	0xbefe77e8	-0.49700856
31	0xbed7ae9a	-0.42125398
32	0xbeaf8542	-0.34281355
33	0x3c7f38b5	0.015577485
34	0xbe968595	-0.2939879
35	0x3e2eb1b9	0.17059983
36	0xbe3dd2de	-0.1853747
37	0xbc49375c	-0.012281265
38	0xbc3a9d40	-0.01139003
39	0x3d1abc45	0.037777204
40	0xbe8d8b11	-0.27645162
41	0xbf0287e9	-0.5098863
42	0xbbfd0772	-0.007721835
43	0xbec30485	-0.38089386
44	0xbece4fc9	-0.40295246
45	0xbeac9978	-0.33710837
46	0x3d5587b2	0.052131362
47	0xbf1605a9	-0.58602387
48	0xbec80114	-0.39063323
49	0x3e40d831	0.1883247
50	0x3daef139	0.08542103
51	0xbe198829	-0.14993347
52	0xbe47ed3e	-0.19524094
53	0x3ebb285e	0.36554235
54	0xbeee9561	-0.46598342
55	0x3cfc8222	0.03082377
56	0xbecc61d4	-0.39918387
57	0xbd8b6261	-0.06805874
58	0xbddbcd22	-0.10732485
59	0x3eac03c4	0.33596623
60	0xbec2a918	-0.38019633
61	0xbec436bb	-0.38323006
62	0xbf0104c7	-0.50397915
63	0xbc5959ad	-0.013266009
64	0xbee6b94f	-0.45063254
65	0xbeb18404	-0.34671032
66	0x3ea655ab	0.32487234
67	0xbc8a11a4	-0.016854115
68	0x3ec6b1be	0.38807482
69	0xbcccb6e7	-0.024989558
70	0x3df24ab3	0.11830654
71	0xbc50280f	-0.012704863
72	0xbcbcbe7c	-0.023040049
73	0x3e7c3c80	0.24632454
74	0x3ea919e1	0.33027557
75	0x3ef09c9f	0.46994492
76	0xbd811f60	-0.063048124
77	0x3e13dcbb	0.1443967
78	0xbedf9874	-0.43671
79	0xbf1de257	-0.6167349
80	0x3a87c7c1	0.0010359214
81	0xbf27506c	-0.6535709
82	0xbed1ff8a	-0.41015273
83	0x3ebc94de	0.36832327
84	0xbe8e0ac2	-0.27742583
85	0xbe009685	-0.12557419
86	0x3ed1e05e	0.4099149
87	0x3e2c350e	0.16817114
88	0x3d15ec29	0.036602173
89	0x3c5f7944	0.013639752
90	0xbc0170ff	-0.0079004755
91	0x3e119a13	0.14218931
92	0xbf1e2b89	-0.6178518
93	0x3d1c7121	0.038193826
94	0xbcd07b93	-0.02544955
95	0xbefc314e	-0.49256366
96	0xbeb457c3	-0.35223207
97	0x3cd61197	0.026131434
98	0xbf36b389	-0.713677
99	0xbecc0d76	-0.3985402
100	0x3e98b185	0.29822937
101	0x3cad00e0	0.021118581
102	0xbddcba8d	-0.10777769
103	0x3d025942	0.031823404
104	0x3e23d322	0.1599851
105	0x3d7397a1	0.059470776
106	0xbe04fcfb	-0.1298713
107	0xbe378712	-0.17922619
108	0x3d918149	0.07104737
109	0xbe5b45be	-0.21413323
110	0x3d818934	0.063249975
111	0x3eb5199f	0.3537111
112	0xbeeca921	-0.46222785
113	0xbeea8608	-0.45805383
114	0xbd8e7d08	-0.069574416
115	0xbf278187	-0.6543202
116	0xbf0f0076	-0.5586008
117	0x3e78006e	0.24218914
118	0xbe020efd	-0.1270103
119	0xbdede6d0	-0.116162896
120	0xbe31614f	-0.17322277
121	0x3e9a9c14	0.30197203
122	0xbd2c0b60	-0.042003036
123	0xbeab3f82	-0.3344689
124	0x3e15a973	0.14615421
125	0x3eb503c2	0.3535443
126	0x3de49e85	0.11163048
127	0xbeb80642	-0.35942274
128	0xbc63b17b	-0.013897295
129	0xbedbdd2b	-0.42942175
130	0xbe2a14a7	-0.1660944
131	0x3dbb8e49	0.09157998
132	0xbf0ac323	-0.54204005
133	0xbeec4122	-0.46143442
134	0x3d85d97e	0.06535624
135	0xbe63ad99	-0.22234191
136	0xbf02f82f	-0.5115995
137	0x3e8c9867	0.27460024
138	0xbd627dee	-0.055295877
139	0xbe18d8dc	-0.14926475
140	0xbe95a1b1	-0.29224923
141	0x3d039885	0.032127876
142	0x3ed86569	0.4226487
143	0xbf083ebf	-0.5322074
144	0xbdda6539	-0.10663838
145	0x3ebab53a	0.3646639
146	0xbf10582a	-0.5638453
147	0xbee7ffa2	-0.4531222
148	0xbd1ec1ea	-0.03875915
149	0xbf0e5cd9	-0.55610424
150	0xbef1eb2e	-0.4724974
151	0x3d9d8478	0.07691282
152	0x3e2f26fb	0.17104714
153	0xbe943bce	-0.28951877
154	0x3ac1319f	0.001473952
155	0xbe87fde6	-0.26560897
156	0xbd954d9f	-0.07290196
157	0xbe94d509	-0.29068783
158	0xbde5b027	-0.11215239
159	0x3e87264f	0.26396415
160	0x3e2bb52e	0.16768333
161	0x3eeb9df4	0.46018946
162	0x3c61231b	0.01374128
163	0xbef66320	-0.481225
164	0xbe5acf9b	-0.21368258
165	0x3ccaf8b7	0.0247768
166	0xbf205cfd	-0.6264189
167	0xbf07366f	-0.52817434
168	0xbe955bd4	-0.29171622
169	0xbda3fc8d	-0.080071546
170	0xbebf677a	-0.37383634
171	0x3e64e69d	0.22353597
172	0xbe145c78	-0.14488399
173	0xbea2eb12	-0.3181997
174	0x3deb2bc0	0.11482954
175	0xbe7e4e6f	-0.24834608
176	0xbe8ad9d6	-0.2711932
177	0xbd12362e	-0.0356962
178	0x3e430d26	0.19047984
179	0xbe06ef72	-0.13177279
180	0xbef99afc	-0.48751056
181	0xbe85ecc4	-0.261572
182	0xbd7af392	-0.061267443
183	0xbf2439c8	-0.6415067
184	0xbef3cf88	-0.4761927
185	0x3e433b53	0.19065599
186	0x3ea848cf	0.3286805
187	0xbc0928c5	-0.008371537
188	0x3bdb04c4	0.0066839177
189	0x3e3b6897	0.18301617
190	0xbdd33071	-0.10311974
191	0xbd1df79a	-0.03856621
192	0xbed77890	-0.4208417
193	0x3cea30e2	0.028587762
194	0xbebda64f	-0.37040946
195	0xbf496ac8	-0.7867856
196	0xbe09cc06	-0.13456735
197	0xbf3cbcf5	-0.73725826
198	0xbe9c94ff	-0.30582425
199	0xbab5d023	-0.0013871234
200	0xbf2e1a81	-0.6800919
201	0xbef8aa66	-0.48567504
202	0x3e8b7ef0	0.27245283
203	0x3e428cc3	0.18999009
204	0x3e3bbfc4	0.18334872
205	0xbe1ccf33	-0.15313415
206	0x3e2e84d4	0.17042857
207	0x3e0037b8	0.12521255
208	0xbd58d782	-0.0529399
209	0x3e4ca46c	0.19984597
210	0x3e330fd3	0.17486505
211	0x3ce4c8a1	0.027927699
212	0xbf0199c4	-0.5062525
213	0xbefc2871	-0.49249604
214	0xbd08ccb7	-0.033398356
215	0x3ec626c8	0.38701463
216	0xbe2ca812	-0.16860989
217	0xbc9c8ab1	-0.019109102
218	0x3e4d0e36	0.20024952
219	0x3e5e8b50	0.21732831
220	0xbe4b76da	-0.19869557
221	0xbe8582cc	-0.26076353
222	0xbe5396a1	-0.20662929
223	0xbda3b916	-0.07994287
224	0xbd3cba87	-0.046076324
225	0xbe3a6fa2	-0.18206647
226	0xbeca7cef	-0.39548442
227	0xbed2f324	-0.41201127
228	0xbcd92971	-0.026509019
229	0xbf2bca6b	-0.6710574
230	0xbedde892	-0.433415
231	0xbd08b8e9	-0.03337947
232	0xbdebcceb	-0.115136944
233	0x3eb56a10	0.35432482
234	0xbd772c78	-0.060345143
235	0xbd46f394	-0.048572138
236	0xbe53aa11	-0.20670344
237	0xbdb4b637	-0.08823817
238	0xbe0e665c	-0.13906235
239	0xbd9b00a5	-0.07568482
240	0xbeb01302	-0.34389502
241	0xbd5c4889	-0.053780112
242	0xbcd3ad04	-0.025839336
243	0xbef1d2ba	-0.47231084
244	0xbe1d7e52	-0.15380219
245	0xbd09e68f	-0.033667143
246	0xbf20290b	-0.62562627
247	0xbefba802	-0.49151617
248	0xbe524c0f	-0.20536827
249	0xbda67b75	-0.08129016
250	0x3e844d9c	0.2584046
251	0xbd89e967	-0.06733971
252	0x3dbe6c87	0.09298044
253	0xbdb89357	-0.09012478
254	0xbe63d00c	-0.22247332
255	0x3dd4a8f8	0.10383791

network_body._body_endoder.seq_layers.0.bias f4 [128]
0	0xbef10099	-0.47070768
1	0xbf15b659	-0.58481365
2	0xbeaf4c03	-0.3423768
3	0xbef4e214	-0.47828734
4	0xbed0d145	-0.4078466
5	0xbf19a4d4	-0.6001713
6	0xbf04f024	-0.51928926
7	0xbef60311	-0.48049214
8	0xbee7fb95	-0.4530913
9	0xbedc1437	-0.42984173
10	0xbee061bc	-0.43824565
11	0xbf087271	-0.53299624
12	0xbee60cf6	-0.44931763
13	0xbf1b77d0	-0.60729694
14	0xbf11bc18	-0.56927633
15	0xbf632aa4	-0.8873694
16	0xbef2b928	-0.47406888
17	0xbedd53bb	-0.43227944
18	0x3d821086	0.06350808
19	0xbef91264	-0.48646843
20	0x3d7e6e31	0.062116805
21	0xbee0fb12	-0.4394155
22	0xbebcd20a	-0.36878997
23	0xbe15add6	-0.14617094
24	0xbef917d9	-0.48651007
25	0xbeb264e9	-0.34842613
26	0xbee85380	-0.45376205
27	0xbf18e36c	-0.5972202
28	0xbf0b123f	-0.54324716
29	0xbee09b34	-0.4386841
30	0xbf0ed7c6	-0.55797994
31	0xbed1064c	-0.40825117
32	0xbf5254a2	-0.8216039
33	0xbe2261bb	-0.15857594
34	0xbee7bd6e	-0.4526171
35	0xbf08fee9	-0.5351396
36	0xbf0d1f3a	-0.5512577
37	0xbf05579a	-0.52086794
38	0xbe879992	-0.26484352
39	0xbf0cd80b	-0.55017155
40	0xbf1a7936	-0.60341203
41	0xbf156b58	-0.5836692
42	0xbe0d47cd	-0.13796921
43	0xbf1086b6	-0.5645555
44	0xbe6b5efb	-0.22985451
45	0xbdfaaf8c	-0.12240514
46	0xbf04f2bc	-0.51932883
47	0xbe2f51f4	-0.17121106
48	0xbe9b5cec	-0.3034433
49	0xbf0b676b	-0.5445468
50	0xbf1fcc4b	-0.624211
51	0xbce5ed86	-0.028067362
52	0xbdcf6286	-0.10126214
53	0xbd13abb4	-0.03605242
54	0xbf0b0254	-0.5430043
55	0xbee584e9	-0.44827965
56	0xbf07fec8	-0.5312314
57	0xbe877fd5	-0.26464716
58	0xbf174764	-0.5909331
59	0xbf04bff9	-0.5185543
60	0xbec49f18	-0.3840263
61	0xbd4668d7	-0.048439827
62	0xbf1f6316	-0.6226057
63	0xbc820649	-0.015872138
64	0xbef16c98	-0.47153163
65	0xbedbb3e6	-0.4291069
66	0xbf17a4d9	-0.5923591
67	0xbee204cf	-0.44144294
68	0xbf15595f	-0.58339494
69	0xbed4465c	-0.4145993
70	0xbf260d11	-0.6486369
71	0xbe821ac7	-0.25411054
72	0xbf12c27e	-0.5732802
73	0xbe80d3b2	-0.2516151
74	0xbec4958d	-0.38395348
75	0xbf1ae3f8	-0.605041
76	0xbf337391	-0.70098215
77	0xbe60cdf3	-0.21953563
78	0xbe79343a	-0.24336329
79	0xbed8777f	-0.42278668
80	0xbead92b5	-0.3390099
81	0xbf000236	-0.50003374
82	0xbee034a7	-0.4379017
83	0xbe321195	-0.1738952
84	0xbf0f30f9	-0.559341
85	0xbf0bfcaf	-0.5468244
86	0xbf056459	-0.52106243
87	0xbe87da07	-0.2653353
88	0xbf2879c4	-0.658108
89	0xbf11550b	-0.5677039
90	0xbf153fbb	-0.5830037
91	0xbf3263e8	-0.69683695
92	0xbf479838	-0.7796664
93	0xbf18e681	-0.5972672
94	0xbeddd401	-0.4332581
95	0xbe82e24f	-0.25563285
96	0xbe4fa53e	-0.20277879
97	0xbf23a4ef	-0.63923544
98	0xbf135ef0	-0.5756674
99	0xbf093d2f	-0.53608984
100	0xbee6c9ca	-0.45075828
101	0xbf267dbd	-0.6503561
102	0xbe825be1	-0.25460723
103	0xbef07242	-0.46962172
104	0xbf077e15	-0.5292676
105	0xbede7ca3	-0.43454465
106	0xbdbacbfc	-0.09120938
107	0xbf005f26	-0.50145185
108	0x3d174722	0.036933072
109	0xbbbcb49b	-0.0057588345
110	0xbf1990e2	-0.599867
111	0xbe990dce	-0.29893345
112	0xbf2a3537	-0.6648745
113	0xbec0d42c	-0.37661874
114	0xbf177d83	-0.5917589
115	0xbf198f0e	-0.5998391
116	0xbe399cae	-0.18126175
117	0xbef7465c	-0.48295867
118	0xbe937757	-0.28801987
119	0xbf232958	-0.6373496
120	0xbf3c97d5	-0.7366918
121	0xbc07745a	-0.0082674865
122	0xbf0b1e1c	-0.5434282
123	0xbf25ac42	-0.6471597
124	0xbeef254d	-0.46708146
125	0xbeeb95fc	-0.46012866
126	0x3cf21a00	0.029553413
127	0xbec7bcd7	-0.3901126

network_body._body_endoder.seq_layers.2.weight f4 [128, 128]
0	0x3ea3b0b7	0.3197076
1	0x3e52aa49	0.20572771
2	0xbf2add97	-0.6674437
3	0xbe5cd130	-0.21564174
4	0xbc3ea529	-0.011636057
5	0xbe31a66c	-0.17348641
6	0xbd1944b4	-0.037419036
7	0xbd91c505	-0.071176566
8	0x3d6cccdf	0.057812568
9	0x3e964725	0.29351154
10	0xbe53ef6d	-0.20696802
11	0x3d695294	0.05696352
12	0x3d9af031	0.07565344
13	0x3e1ec531	0.1550491
14	0x3cfc2feb	0.030784568
15	0xbe129277	-0.14313684
16	0x3e0fede2	0.14055589
17	0x3e21aeba	0.15789309
18	0xbf6ad545	-0.91731673
19	0x3e1c1839	0.15243615
20	0xbdd62e90	-0.104581
21	0x3e0539b0	0.13010287
22	0x3eab2642	0.33427626
23	0x3f0346aa	0.512797
24	0x3e60b49d	0.21943898
25	0x3dde7163	0.108614706
26	0xbe5d2b68	-0.2159859
27	0xbd274142	-0.04083372
28	0x3e258e8e	0.16167662
29	0xbe71380f	-0.23556541
30	0xbe5e4fc4	-0.21710116
31	0xbea00bec	-0.31259096
32	0x3c5d073d	0.013490495
33	0xbf17f2b3	-0.59354705
34	0xbde098d0	-0.10966647
35	0x3eaf7f37	0.34276745
36	0xbf0028e9	-0.50062424
37	0xbc73ecab	-0.014887969
38	0xbec2ad9e	-0.38023084
39	0xbdfda7d2	-0.12385525
40	0x3d2b2a3e	0.041788332
41	0xbd8cb6e9	-0.06870825
42	0xbe3cdff0	-0.184448
43	0x3eb41ec4	0.35179722
44	0x3e425ff8	0.18981922
45	0xbe7c7fa4	-0.24658066
46	0xbcc1ecb3	-0.023672437
47	0xbe3029b6	-0.17203411
48	0xbd87c896	-0.066300556
49	0xbea66388	-0.3249781
50	0x3da120ff	0.07867622
51	0x3ea99dba	0.33128148
52	0x3e21b906	0.15793237
53	0xbe51604f	-0.20446895
54	0xbe0a0971	-0.13480164
55	0xbee43839	-0.44574144
56	0x3cce5924	0.02518899
57	0x3e335af4	0.17515165
58	0xbdd4c5fe	-0.103893265
59	0xbecf6c85	-0.4051248
60	0xbeb74d37	-0.35801098
61	0xbf62ba6c	-0.8856571
62	0xbca821ec	-0.020523988
63	0x3dba7437	0.091041975
64	0xbc2c3680	-0.010511041
65	0x3c50ea4b	0.012751172
66	0x3d8145f5	0.06312171
67	0xbefab71e	-0.48967832
68	0xbe6b0e28	-0.22954619
69	0xbdc79eb2	-0.097470656
70	0x3e1c211e	0.15247008
71	0xbe648049	-0.22314562
72	0x3de56a4a	0.11201914
73	0xbe4fe66a	-0.2030274
74	0xbe3f3db1	-0.18675877
75	0xbe50952a	-0.20369402
76	0x3ea6746d	0.325107
77	0x3d3d3eaf	0.046202358
78	0x3e6015a0	0.2188325
79	0xbe04b3f1	-0.12959267
80	0x3e3a4d3f	0.1819353
81	0x3e5a72ae	0.2133281
82	0xbd8620fe	-0.065492615
83	0x3d028ea5	0.031874318
84	0x3e0ceef0	0.13763022
85	0x3d5844a3	0.052799832
86	0x3e46ea6c	0.19425362
87	0x3dec3f40	0.115355015
88	0x3e51f556	0.20503744
89	0xbe27de60	-0.16393423
90	0x3db788e7	0.08961659
91	0x3dbe392d	0.09288249
92	0xbdfcaef2	-0.12338056
93	0xbef103b9	-0.47073153
94	0x3ef6d8b2	0.482122
95	0xbdb957fa	-0.09049983
96	0xbf0807ec	-0.5313709
97	0xbefc0837	-0.49225017
98	0xbd6947f2	-0.056953378
99	0xbd89ae2c	-0.06722674
100	0xbd824140	-0.06360102
101	0x3d364505	0.044499416
102	0xbe2b815e	-0.16748568
103	0x3e829705	0.25505844
104	0x3df5dc6e	0.12004934
105	0xbccf15d6	-0.025278967
106	0x3f06c7bb	0.52648515
107	0x3e8f2f18	0.27965617
108	0x3db79a1a	0.089649394
109	0xbea06b37	-0.31331798
110	0xbe4bf9b7	-0.19919477
111	0xbde76393	-0.11298289
112	0x3e33f166	0.17572555
113	0xbeb11b2c	-0.34591043
114	0x3dc75b07	0.09734159
115	0xbd99229b	-0.074773036
116	0xbf7062c2	-0.9390069
117	0xbe89d5d6	-0.26920956
118	0xbe4f5e5d	-0.2025084
119	0xbea6767c	-0.3251227
120	0xbd8765f5	-0.06611244
121	0xbcd3f85f	-0.025875269
122	0x3da802fa	0.08203693
123	0xbc9f3fa7	-0.019439531
124	0x3e903970	0.2816882
125	0xbd35d976	-0.04439684
126	0x3e9f2194	0.31080306
127	0xbdead7f6	-0.114669725
128	0xbcc41488	-0.023935571
129	0xbb8eed87	-0.0043618116
130	0xbcbea975	-0.023274163
131	0xbe3c59ff	-0.18393706
132	0xbe5ab732	-0.21358946
133	0x3b9b7478	0.0047441088
134	0xbd2c9b93	-0.042140555
135	0x3f03a8a1	0.5142918
136	0xbe7005e4	-0.23439747
137	0xbe92e0c0	-0.28687096
138	0x3ecb0810	0.3965459
139	0xbdb52499	-0.08844871
140	0x3d3c3c80	0.045956135
141	0xbee9ff7e	-0.45702738
142	0xbed63be1	-0.4184256
143	0x3d2b91e9	0.041887198
144	0x3e6766f4	0.22597867
145	0xbe107958	-0.14108789
146	0xbeb67fe5	-0.3564445
147	0x3ef72b71	0.4827533
148	0xbf38fb2b	-0.7225825
149	0x3e833095	0.25623003
150	0x3e12cc10	0.14335656
151	0xbf0a63a3	-0.54058284
152	0x3ed56b5b	0.41683468
153	0xbd0101c4	-0.031495824
154	0x3d08f519	0.03343687
155	0x3e15ad9c	0.14617008
156	0x3e372148	0.1788379
157	0xbe935308	-0.28774285
158	0x3dac5333	0.084143065
159	0xbc1f544a	-0.009724686
160	0xbdecebdf	-0.11568426
161	0xbeb02473	-0.3440281
162	0x3e67b012	0.22625759
163	0x3dbde56a	0.09272273
164	0xbdd19312	-0.102331296
165	0x3e2f2da0	0.17107248
166	0xbeb85a71	-0.360065
167	0xbe0ec27a	-0.13941374
168	0x3d964c54	0.07338777
169	0xbe3593d0	-0.17732167
170	0xbecaa788	-0.3958094
171	0xbe58c2a7	-0.21168004
172	0xbed4b5df	-0.41545007
173	0xbeebbe61	-0.46043685
174	0xbe752d85	-0.23943146
175	0xbe928fb8	-0.28625274
176	0x3e5451fb	0.20734398
177	0xbe024e4a	-0.12725177
178	0xbe2b8636	-0.16750416
179	0xbfa59b1c	-1.2937961
180	0xbf0f8cb9	-0.560741
181	0xbebfd77a	-0.37469083
182	0xbccc15dd	-0.024912769
183	0xbec2c2d9	-0.38039282
184	0xbeb212ca	-0.3477996
185	0xbea39f2b	-0.31957373
186	0xbee60cd7	-0.4493167
187	0x3d5bc3e8	0.053653628
188	0xbe2cf3a6	-0.1688982
189	0xbeaa5093	-0.33264598
190	0xbe99067b	-0.29887757
191	0xbfa31b9c	-1.2742801
192	0xbd13888d	-0.036018897
193	0x3da47ed8	0.08032006
194	0x3efd0d89	0.4942439
195	0x3cbd79b8	0.02312933
196	0x3e8c632b	0.2741941
197	0x3e5a4520	0.21315432
198	0x3e43d0fa	0.19122687
199	0xbebada13	-0.36494502
200	0x3dafaf42	0.0857835
201	0x3bd8ce49	0.006616388
202	0xbd7ce79d	-0.06174432
203	0xbd6fcd58	-0.05854544
204	0x3e6e69e2	0.23282579
205	0x3eca2243	0.39479265
206	0x3c32e555	0.010918935
207	0x3e8c5365	0.27407375
208	0x3e0c34ea	0.1369206
209	0x3eca022f	0.3945479
210	0x3e5e9f12	0.21740368
211	0xbf11e00c	-0.56982493
212	0xbdfbb44a	-0.12290247
213	0xbd957a00	-0.0729866
214	0x3ebf404e	0.37353748
215	0x3ece25d5	0.4026324
216	0x3d0abfcc	0.033874318
217	0xbefeeca0	-0.49789906
218	0xbe959a66	-0.2921936
219	0xbe8cd102	-0.2750321
220	0xbe9b3a9a	-0.30318147
221	0xbed69858	-0.41913104
222	0x3d23ecbf	0.0400207
223	0xbd865f55	-0.06561152
224	0xbe849949	-0.25898197
225	0x3e74ab43	0.23893456
226	0xbdeaa564	-0.11457327
227	0x3dc80c69	0.09767992
228	0xbea8e36a	-0.32986003
229	0xbdb98ea4	-0.0906041
230	0x3dc0c714	0.09412971
231	0x3c502383	0.012703779
232	0x3dc88b6f	0.0979222
233	0x3e02b2b4	0.12763482
234	0xbf5bb43d	-0.85821897
235	0x3ea26f0c	0.31725347
236	0xbe944d76	-0.28965348
237	0x3ea0dc82	0.31418234
238	0x3e83697a	0.2566641
239	0x3e1a90ae	0.15094253
240	0xbe2e0547	-0.169942
241	0xbe9d8560	-0.3076582
242	0x3e7309dc	0.2373423
243	0x3d2d325e	0.042284362
244	0xbdf490a4	-0.119416505
245	0x3e855f24	0.2604915
246	0xbbe4b43a	-0.0069794925
247	0xbed13d5d	-0.4086713
248	0x3d0e73c7	0.034778383
249	0xbe06ad4d	-0.13152047
250	0x3e7492c0	0.23884106
251	0xbd98787a	-0.07444854
252	0x3e062818	0.13101232
253	0xbec01126	-0.37513083
254	0xbf43938a	-0.76397
255	0xbe9fbd40	-0.31199074

network_body._body_endoder.seq_layers.2.bias f4 [128]
0	0xbec0b5ee	-0.376388
1	0xbe6aa243	-0.2291346
2	0xbd809e63	-0.0628021
3	0x3de94298	0.11389655
4	0xbf1e74c7	-0.6189694
5	0xbfa69020	-1.3012733
6	0xbf521bea	-0.82073843
7	0xbf02ae18	-0.51046896
8	0xbf1c2f05	-0.61009246
9	0xbf64a900	-0.89320374
10	0xbec4eb68	-0.3846085
11	0x3ec66816	0.38751286
12	0xbeeb9197	-0.46009514
13	0xbead9d9b	-0.33909306
14	0xbeb88709	-0.36040524
15	0xbec2a2b1	-0.3801475
16	0xbf03cd4f	-0.5148515
17	0xbf8945c6	-1.0724418
18	0xbd165246	-0.036699556
19	0xbf58fcaa	-0.84760535
20	0xbe2c1fd2	-0.16809013
21	0xbe88ed6f	-0.26743647
22	0xbf5cf1d8	-0.86306524
23	0xbf2205bd	-0.63290006
24	0xbf0c06d8	-0.5469794
25	0xbdbae08f	-0.091248624
26	0xbf080dbf	-0.53145975
27	0x3f0a556b	0.5403659
28	0xbeef105a	-0.46692163
29	0xbeb82f66	-0.35973662
30	0xbf189dc7	-0.5961575
31	0xbe02fe8f	-0.12792419
32	0xbe3c49b4	-0.1838749
33	0xbeb213c1	-0.34780696
34	0xbeae34c7	-0.3402464
35	0xbce803ab	-0.028322062
36	0x3e917e3f	0.2841663
37	0xbec52b9f	-0.38509843
38	0xbf5e928a	-0.8694235
39	0xbe2ab47b	-0.1667041
40	0xbf8dc98c	-1.1077132
41	0xbd84435c	-0.0645816
42	0xbf59a46c	-0.8501651
43	0xbf68c23b	-0.9092137
44	0x3db9ace4	0.090661794
45	0x3e218565	0.15773542
46	0xbf1ab5d9	-0.6043373
47	0x3f1713c9	0.59014565
48	0xbe315ade	-0.1731982
49	0xbf2e314e	-0.68043983
50	0xbf38ed1c	-0.722368
51	0xbd10925e	-0.035295837
52	0xbe542598	-0.20717466
53	0xbf38cbdf	-0.7218608
54	0xbe53a44d	-0.20668145
55	0xbf7184e0	-0.94343376
56	0xbe27b4d0	-0.16377568
57	0x3f01e822	0.5074483
58	0xbea177a4	-0.3153659
59	0xbf837e03	-1.0272831
60	0xbf48c441	-0.7842446
61	0xbd6fde2c	-0.05856149
62	0xbf96d876	-1.1784809
63	0xbf7a18ff	-0.9769439
64	0xbf3514f2	-0.70735085
65	0xbf3aa2c4	-0.7290461
66	0xbeaa69a6	-0.33283728
67	0xbf05a784	-0.52208734
68	0x3f6b9109	0.9201818
69	0xbe85bc8f	-0.2612042
70	0xbeeb987a	-0.46014768
71	0xbf5b32f6	-0.85624635
72	0xbed7f8b7	-0.42181942
73	0x3e911b17	0.2834098
74	0xbef49941	-0.47773173
75	0xbf45750c	-0.77131724
76	0xbe591530	-0.21199489
77	0xbf0335d1	-0.5125399
78	0xbde13b47	-0.109976344
79	0x3e074faa	0.13213983
80	0xbdc6e76d	-0.0971211
81	0xbebb21bf	-0.36549184
82	0xbf73bd51	-0.9521075
83	0xbf2310cf	-0.6369752
84	0xbedeed91	-0.43540624
85	0xbe0a4823	-0.1350408
86	0x3ed0c092	0.4077192
87	0xbdfd4928	-0.12367469
88	0xbe63681c	-0.22207683
89	0xbee0088c	-0.4375652
90	0xbf3c43a1	-0.73540694
91	0xbefd35d4	-0.4945513
92	0xbe388485	-0.18019302
93	0xbe858329	-0.2607663
94	0xbeb45b08	-0.352257
95	0xbf1f7b5b	-0.622976
96	0xbebca2b7	-0.36842892
97	0xbea7d930	-0.32782888
98	0xbeceebae	-0.40414184
99	0xbe6e8c13	-0.23295622
100	0xbf0420e4	-0.5161269
101	0xbe4b2be5	-0.19840963
102	0xbda316ee	-0.07963358
103	0xbef8bd3a	-0.48581868
104	0xbf06b464	-0.52619004
105	0xbdfe362f	-0.124126785
106	0xbed78210	-0.42091417
107	0xbf94a543	-1.1612934
108	0x3d9274a7	0.07151156
109	0xbebbc5c6	-0.36674327
110	0x3e5330ff	0.2062416
111	0xbf541d88	-0.8285756
112	0xbf02d928	-0.51112604
113	0xbf667cc1	-0.9003411
114	0xbefd4f4f	-0.4947457
115	0xbf09860f	-0.5372018
116	0x3e794b6c	0.24345177
117	0x3effd52b	0.49967322
118	0xbf6f2b1a	-0.9342514
119	0xbf514040	-0.8173866
120	0xbf5e7fd3	-0.86913794
121	0xbf6c7d12	-0.9237834
122	0xbe3dbc94	-0.18528968
123	0xbef1e2cb	-0.47243342
124	0xbf56556e	-0.83724105
125	0xbefcd9c6	-0.49384898
126	0xbf37223d	-0.7153662
127	0xbe971818	-0.2951057

action_model._continuous_distribution.log_sigma f4 [1, 39]
0	0xbf8860dd	-1.065456
1	0xbf6d86be	-0.92783725
2	0xbf93ff10	-1.1562214
3	0xbf885fe5	-1.0654265
4	0xbf5eb066	-0.8698791
5	0xbf8b63b2	-1.08898
6	0xbf8d2775	-1.1027666
7	0xbf567fdd	-0.83788854
8	0xbf42f352	-0.7615253
9	0xbf3a0211	-0.72659403
10	0xbf8adca6	-1.0848587
11	0xbf42def4	-0.7612145
12	0xbf48070d	-0.7813576
13	0xbf84c4e9	-1.0372592
14	0xbf62f351	-0.8865252
15	0xbf82dd12	-1.0223715
16	0xbf7ee01d	-0.9956072
17	0xbf75ed5d	-0.9606531
18	0xbf596a7e	-0.8492812
19	0xbf8752cb	-1.0572141
20	0xbf91780a	-1.1364758
21	0xbf8bde9f	-1.0927314
22	0xbf9d24b1	-1.2276822
23	0xbf83c52f	-1.0294551
24	0xbf4fc2b8	-0.8115649
25	0xbf4c0a2f	-0.7970304
26	0xbf8a07c3	-1.0783619
27	0xbf409dde	-0.75240886
28	0xbf9c6d6a	-1.222089
29	0xbfa451ab	-1.2837423
30	0xbf9e1083	-1.2348789
31	0xbfa3a5d1	-1.2784978
32	0xbf615b49	-0.88029915
33	0xbf6897f6	-0.90856874
34	0xbf911b36	-1.1336429
35	0xbf95f455	-1.1715189
36	0xbf456418	-0.77105856
37	0xbf439b63	-0.76408976
38	0xbf7741a9	-0.96584564

action_model._continuous_distribution.mu.weight f4 [39, 128]
0	0x3e8b9d77	0.27268574
1	0x3ee85feb	0.4538568
2	0xbe9c5682	-0.3053475
3	0x3ef1914d	0.47181168
4	0xbd966643	-0.073437236
5	0xbe443b8b	-0.19163339
6	0xbe7a0627	-0.2441641
7	0x3de9f55e	0.11423753
8	0xbe2dec07	-0.16984569
9	0xbeb09026	-0.34484977
10	0xbe18def0	-0.14928794
11	0x3f028319	0.5098129
12	0x3e85796e	0.26069206
13	0x3ec1e5ea	0.37870723
14	0x3dc30e77	0.09524243
15	0x3d5f52d2	0.054522343
16	0xbde2931c	-0.11063215
17	0x3e8a4eb6	0.27013177
18	0x3ad52556	0.0016261737
19	0xbe6c84c9	-0.23097529
20	0x3ee24c37	0.44198772
21	0x3e90d0e0	0.2828436
22	0xbf195961	-0.59902006
23	0xbde32078	-0.11090177
24	0xbe97fe66	-0.29686278
25	0xbeaa2412	-0.33230644
26	0x3e77c11c	0.24194759
27	0x3d90c81a	0.07069416
28	0xbd172187	-0.03689721
29	0xbbf2a583	-0.0074049844
30	0xbe7970b8	-0.24359405
31	0x3e967176	0.2938344
32	0xbe9b40de	-0.30322927
33	0xbd854549	-0.06507356
34	0xbe491899	-0.1963829
35	0xbbc079a3	-0.005873875
36	0xbd863e30	-0.0655483
37	0x3e7ea857	0.24868904
38	0xbeb42b31	-0.35189202
39	0x3e14246d	0.1446702
40	0xbe9b3b74	-0.30318797
41	0x3e95e698	0.29277492
42	0x3ba0164e	0.0048854714
43	0xbe733cd9	-0.2375368
44	0xbf12f89b	-0.5741059
45	0x3efae689	0.4900401
46	0x3e92da4a	0.28682166
47	0x3eeba87a	0.46026975
48	0xbe6c1980	-0.23056602
49	0xbc88b4f1	-0.016687842
50	0xbf28254c	-0.6568191
51	0x3e9b2b8c	0.3030666
52	0xbe6b9f74	-0.23010045
53	0x3eb25b0e	0.34835094
54	0xbd68c91d	-0.05683242
55	0x3f19433f	0.59868234
56	0xbe9fc776	-0.31206864
57	0xbcc84790	-0.024448186
58	0xbe1651ae	-0.14679596
59	0x3c056a6f	0.0081430515
60	0xbf13f928	-0.5780206
61	0x3e8406b0	0.25786352
62	0xbe39baac	-0.18137616
63	0xbf127481	-0.5720902
64	0x3ee5b817	0.44867012
65	0xbe6e61ec	-0.23279542
66	0x3db22f63	0.087004445
67	0x3e7d2265	0.24720152
68	0x3eb67672	0.35637242
69	0x3f320f35	0.69554454
70	0x3ee569c2	0.4480725
71	0xbf67a4d9	-0.9048591
72	0xbe9cb9b2	-0.30610424
73	0x3db99c2a	0.09062989
74	0x3df10a72	0.117695704
75	0xbf1c9f41	-0.611805
76	0x3ece3342	0.40273482
77	0x3e2ea2bc	0.17054266
78	0x3e43b120	0.19110537
79	0x3c39c6b3	0.0113388775
80	0x3f512529	0.81697327
81	0xbbc1618b	-0.0059015206
82	0xbf12c1b8	-0.5732684
83	0x3dc61e63	0.096737646
84	0xbebebfdd	-0.37255755
85	0xbf084f06	-0.5324558
86	0x3e5b6273	0.21424274
87	0x3e8eed2a	0.27915317
88	0x3db2b22b	0.08725389
89	0x3f153340	0.58281326
90	0xbeb340fb	-0.35010514
91	0xbe2e1ed7	-0.17003952
92	0xbeef188f	-0.46698424
93	0xbea1ca5d	-0.31599703
94	0x3e981796	0.29705495
95	0xb9f15e89	-0.00046037536
96	0xbe11cee8	-0.14239085
97	0xbe9c9cf3	-0.30588493
98	0x3e556174	0.20837957
99	0x3f03a229	0.5141931
100	0xbe5c6ec6	-0.21526632
101	0x3df54911	0.11976827
102	0xbea1c0cd	-0.31592408
103	0x3da9a45e	0.08283304
104	0x3ebc3e72	0.36766392
105	0xbda09891	-0.078416
106	0xbf044d9c	-0.5168092
107	0xbd16eaef	-0.036845144
108	0xbdf79e32	-0.1209072
109	0xbe50331e	-0.20332
110	0x3e8414dd	0.25797167
111	0x3e54cbcc	0.20780867
112	0x3e776d6f	0.2416284
113	0x3ca7b1d0	0.02047053
114	0x3f022bd6	0.5084814
115	0xbf23018f	-0.63674253
116	0xbca1a377	-0.019731266
117	0xbe883c37	-0.2660844
118	0xbde89d07	-0.113580756
119	0x3e21940e	0.15779135
120	0xbf110755	-0.5665181
121	0xbce38960	-0.027775466
122	0x3ea434e2	0.32071596
123	0x3e69eb8a	0.22843757
124	0xbd27bd97	-0.04095229
125	0xbe2e17be	-0.17001244
126	0x3f116e6a	0.56809103
127	0x3ea1cf8f	0.31603667
128	0x3b351c51	0.0027635286
129	0x3a6c9882	0.0009025411
130	0x3f0ec580	0.5577011
131	0x3ef587f6	0.47955292
132	0x3e9c06a4	0.30473816
133	0xbe1088d2	-0.14114693
134	0xbe6005bf	-0.21877192
135	0x3f3922e4	0.72318864
136	0xbdcf3b9b	-0.10118791
137	0xbf75aebb	-0.9596974
138	0x3e478ab8	0.19486511
139	0x3eae8e6a	0.34093028
140	0xbee29d05	-0.4426042
141	0xbed6dcce	-0.41965336
142	0xbe762303	-0.24036793
143	0xbea9164e	-0.3302483
144	0xbef7cdec	-0.48399293
145	0xbd280bc7	-0.041026857
146	0x3ea3a332	0.31960446
147	0xbd3c789d	-0.046013463
148	0xbc83bd97	-0.016081614
149	0xbf34d170	-0.70632076
150	0xbebfc8d3	-0.37457904
151	0x3e96a87b	0.29425415
152	0xbda94080	-0.082642555
153	0x3dd0a646	0.10187964
154	0x3ea93767	0.3305008
155	0x3d9d4931	0.07679976
156	0xbf4c22d4	-0.79740644
157	0xbe326d77	-0.1742457
158	0x3ea32c57	0.31869766
159	0x3df8b9d4	0.12144819
160	0x3d28b2e6	0.041186236
161	0xbe93c634	-0.28862154
162	0xbed5a71d	-0.4172906
163	0x3e26bf05	0.16283806
164	0xbd041ec4	-0.032255903
165	0xbcaff248	-0.021477833
166	0x3e88551a	0.26627427
167	0x3ee2ffdf	0.4433584
168	0xbe8e526b	-0.27797255
169	0x3e236d72	0.15959719
170	0xbeafbca2	-0.34323603
171	0xbf1aac14	-0.6041882
172	0xbcf1e395	-0.029527465
173	0x3e7b3bd3	0.2453454
174	0x3e83c35e	0.2573499
175	0xbd1ebb58	-0.038752884
176	0xbf71e3dc	-0.9448831
177	0xbe9064a9	-0.28201798
178	0xbee03a9c	-0.43794715
179	0xbe872505	-0.2639543
180	0x3e118f15	0.14214738
181	0x3e8c9e3c	0.27464473
182	0x3e12cac7	0.14335166
183	0xbe96e3aa	-0.2947057
184	0x3e5ca530	0.21547389
185	0xbe2f070f	-0.17092536
186	0xbd91c7fc	-0.07118222
187	0xbec6c7cf	-0.38824317
188	0xbdf3c6fe	-0.11903189
189	0x3eaa9638	0.33317733
190	0xbf35a760	-0.7095852
191	0xbd82b0a1	-0.063813455
192	0xbef39f5e	-0.47582525
193	0xbf29b172	-0.66286385
194	0x3e6d14f1	0.2315252
195	0xbd4d99bc	-0.05019544
196	0x3e6b531d	0.22980924
197	0xbe6e5838	-0.2327584
198	0x3f0c7bca	0.5487639
199	0xbf2bcf60	-0.67113304
200	0xbe29095a	-0.16507474
201	0xbf44b643	-0.7684061
202	0x3e61179b	0.21981661
203	0x3e49ec35	0.19719012
204	0x3ed44023	0.41455182
205	0xbf0d1633	-0.55112
206	0x3d2dd57b	0.04243992
207	0xbe9dd2f6	-0.30825013
208	0xbf012217	-0.5044264
209	0x3f0d857e	0.5528182
210	0xbf003f6c	-0.50096774
211	0xbe25f1e6	-0.16205558
212	0xbd134901	-0.035958294
213	0xbf7293d3	-0.9475681
214	0xbe5a6839	-0.2132882
215	0xbe0ca162	-0.13733438
216	0xbf20de1e	-0.62838924
217	0xbf1f9c8e	-0.6234826
218	0xbeda84f8	-0.42679572
219	0x3e62f2a2	0.2216287
220	0x3ee1410a	0.43994933
221	0xbe449e2a	-0.1920096
222	0xbe6b282c	-0.22964543
223	0xbf051716	-0.5198835
224	0x3eae9501	0.34098056
225	0xbeaf0805	-0.34185806
226	0xbe838f54	-0.25695288
227	0xbeef8902	-0.46784216
228	0x3e8648e1	0.26227477
229	0x3ed436cf	0.41448066
230	0x3eb61fff	0.35571286
231	0x3e36f0e8	0.17865336
232	0x3cec8da5	0.028876135
233	0x3ea54624	0.32280076
234	0xbe2cd379	-0.16877545
235	0xbf137359	-0.5759788
236	0xbeda2621	-0.42607215
237	0x3d2c7e18	0.04211244
238	0x3e618eee	0.2202718
239	0xbf07ef78	-0.53099775
240	0xbeec00bf	-0.4609432
241	0x3902c7e7	0.00012472236
242	0xbe14b4cb	-0.14522092
243	0xbed7dee5	-0.42162243
244	0xbe95953c	-0.2921542
245	0x3f0bea9b	0.54654855
246	0xbf3e8b9e	-0.7443179
247	0xbe8ae801	-0.2713013
248	0xbf3523c3	-0.70757693
249	0xbd2c2fe8	-0.042037874
250	0x3e786ea9	0.24260963
251	0xbdd8131d	-0.105505206
252	0x3e6f96be	0.23397347
253	0xbda5962e	-0.08085285
254	0xbf0b6889	-0.54456383
255	0x3e982e25	0.29722705

action_model._continuous_distribution.mu.bias f4 [39]
0	0x3f492a15	0.7857984
1	0x3f96fc60	1.1795769
2	0xbdd2780e	-0.10276805
3	0xbd693c75	-0.056942422
4	0x3ef93046	0.48669642
5	0xbf65727b	-0.8962781
6	0xbf3aa638	-0.7290988
7	0xbcb9b63b	-0.022669902
8	0x3ef2b97b	0.47407135
9	0xbe4788c7	-0.1948577
10	0x3e9b3809	0.3031619
11	0x3df71618	0.12064761
12	0x3ef547dd	0.4790639
13	0xbf2b2f32	-0.6686889
14	0xbe242319	-0.16029014
15	0xbce863ff	-0.028367994
16	0x3de657fd	0.11247251
17	0x3eba4bbb	0.36385903
18	0xbfc15791	-1.5104848
19	0xbe5a04fa	-0.21290961
20	0xbf60439d	-0.8760317
21	0xbf2f4c80	-0.68476105
22	0xbe812d86	-0.25230044
23	0x3eee7ab0	0.46577978
24	0x3ea4a722	0.32158762
25	0xbc85e8bf	-0.016346334
26	0x3ec3ae8c	0.38219106
27	0x3dc47039	0.09591717
28	0x3ea15337	0.315088
29	0x3ea2f428	0.318269
30	0xbec61e86	-0.38695163
31	0xbf0b9fff	-0.5454101
32	0xbe7ad1e0	-0.24494123
33	0x3efa590d	0.48896065
34	0xbe84fe19	-0.2597511
35	0xbe8a064f	-0.26957938
36	0xbf68b87e	-0.9090651
37	0x3f560d51	0.8361407
38	0xbcca95be	-0.024729606
