Assets/Brains/ArvidTests/fresh10/Zombie Walker/Zombie Walker-3999976.onnx (onnx, 222824 bytes, 7 tensors)

network_body._body_endoder.seq_layers.0.weight f4 [128, 257]
00000000: d918 e2bd d86c 1ebf 7160 bcbe 4938 bf3d
00000010: 25b7 083d be58 aa3d 4992 ca3d 303f cd3e
00000020: db8d 86be acb4 39bd d285 9cbd 9388 c93d
00000030: 7748 1b3d 6061 1ebf 4b0a e9be 9cb1 e2be
00000040: 5cf5 4ebd 4805 3fbc e1bb 603e 66de a03d
00000050: fc34 473d 4431 123e 02d0 acbd c199 85be
00000060: e3d8 dcbd 1558 2f3e e76d a7be cbc4 2abf
00000070: eb2b eebe 5d85 b73d bf06 fbbe 55be d4be
00000080: a7f4 afbe 7f4b 5f3c 6be6 98be d852 2c3e
00000090: dda6 3ebe 7971 6bbc 172a 4bbc 656b 173d
000000a0: 7974 8cbe b280 01bf 85b3 55bc 7552 c2be
000000b0: 56b3 cdbe 3278 adbe 7d74 673d 284d 14bf
000000c0: cf10 c5be 2584 3b3e 87c9 b53d 27d5 1bbe
000000d0: 05a6 4ebe f035 bb3e 5ae7 f0be 3c3e f93c
000000e0: 0715 c7be 084b 8bbd 9a10 d6bd cbe6 ac3e
000000f0: b59f c3be 3fc3 c3be fd1c 01bf dea7 11bc
00000100: 2648 e3be bf93 aebe 7f61 a73e bc3e bdbc
00000110: 1db5 c63e 542c cebc 6eed f73d 40e4 99bb
00000120: 3220 cbbc 1fb9 7e3e 637e a83e b265 f13e
00000130: 567d 73bd 5c6b 163e b915 dfbe e18d 1dbf
00000140: 5156 b13b eb97 25bf 450f cfbe 2614 bc3e
00000150: b486 8abe 8a2d 00be 7c1d d13e 7170 293e
00000160: 8d3b 2d3d 1da7 f13b 5e51 17bc 9246 0f3e
00000170: 2540 1dbf 5367 153d 9857 cbbc 26a2 fbbe
00000180: 38fd b2be faea f93c 08fb 34bf 311d c9be
00000190: 9978 993e 3545 cb3c c548 cebd 19d9 103d
000001a0: bc4b 233e 4c30 773d e45b 0cbe 8328 36be
000001b0: 6142 8b3d fc1f 5cbe ce01 723d 1ff8 b43e
000001c0: d834 ecbe 9e9d ebbe 8386 85bd 06c9 25bf
000001d0: 4288 0dbf 6b0f 773e 8ac4 01be ece5 eabd
000001e0: cd93 34be ac67 9d3e 1156 eabc 3099 aabe
000001f0: c6f7 133e 31fe b53e f21b e53d 56f3 b8be
00000200: 10d8 44bc 2f53 dbbe 55ae 27be d784 c43d
00000210: a20a 09bf dd50 e9be f8fc 803d 4b28 60be
00000220: a916 02bf 0729 8e3e 4208 79bd 7dbc 0dbe
00000230: b9db 95be 4ee2 073d b1a2 d83e c91e 07bf
00000240: dea4 ddbd 77af bb3e ad20 10bf 6ad1 e5be
00000250: 29d5 0cbd 58a4 0cbf e9fa eebe cced 903d
00000260: a80b 303e 290c 91be 1b16 e03b 80ec 8abe
00000270: 2119 90bd 660e 95be 0bf6 e0bd d081 873e
00000280: fb3a 2c3e a236 ed3e deea 723c b7ef f5be
00000290: 8e73 58be 17d2 ee3c 7ca4 1ebf 3bbe 05bf
000002a0: cec3 98be b8f2 a8bd 0019 bfbe b5ad 5f3e
000002b0: 5238 13be b3ae 9fbe 871e e03d ac4a 75be
000002c0: 29c8 88be a4b1 ecbc 2fe4 433e f759 0fbe
000002d0: 8408 f9be 05d6 86be c806 69bd 4781 22bf
000002e0: 43df f0be 7c1e 473e 85c9 a63e bd14 a3ba
000002f0: 317b 3bba 6747 403e dd6e cdbd f478 32bd
00000300: 178b d6be 2309 043d 9a5e babe 30aa 47bf
00000310: e232 08be 2aca 3dbf a2ce 9dbe 0ae1 433b
00000320: 0062 2cbf 21ba f5be f784 8c3e fd85 3e3e
00000330: 0c94 403e 08dd 1bbe 931f 333e a41a fb3d
00000340: 06c6 6bbd 922c 4a3e afda 393e 2051 043d
00000350: b8c2 ffbe 2c38 f9be 73a9 0bbd bc09 ca3e
00000360: 0bdb 2cbe 1c8b 03bd baaf 4e3e dc9d 633e
00000370: 088d 4bbe 43f6 83be 9600 50be 1bba 9dbd
00000380: 59f3 32bd 81dd 39be 5ceb cbbe 4a8f d1be
00000390: 4650 b5bc ea11 2abf 4df8 dabe 5beb f8bc
000003a0: 6319 dbbd 9a6f b23e 1627 7fbd 75b7 2ebd
000003b0: 734b 50be a0e3 b3bd 34ce 07be 481e 93bd
000003c0: 8cac afbe 4315 5dbd b2c8 ebbc d8a0 f1be
000003d0: 57f4 1dbe f2f3 efbc 8a70 1ebf bdb7 f8be
000003e0: cfe3 4ebe d8bb 97bd cfab 813e d96c 8abd
000003f0: 94a8 cb3d 1c0d b0bd 3ba2 60be 4795 de3d
-0.110398956 -0.6188483 -0.3679233 0.093369074 0.033377785 0.083177075 0.09891183 0.4008727
-0.26280102 -0.045338318 -0.07642712 0.098405026 0.037910905 -0.6186733 -0.45515665 -0.4427613
-0.05052696 -0.011658974 0.2194667 0.07854919 0.048634514 0.14276606 -0.08438112 -0.26093867
-0.10783555 0.17123444 -0.32701036 -0.6670653 -0.46517882 0.08960984 -0.49028584 -0.41551462
-0.34366342 0.0136288395 -0.29863295 0.16828477 -0.18618341 -0.014370316 -0.012400172 0.036967654
-0.27432612 -0.50587 -0.013043289 -0.37953535 -0.40175885 -0.33880764 0.056507576 -0.5793023
-0.38489386 0.18312128 0.08876329 -0.1521803 -0.20180519 0.3656459 -0.47051507 0.030425183
-0.3888323 -0.068014205 -0.10452385 0.3376983 -0.38207784 -0.38234898 -0.5043486 -0.00889012
-0.44390982 -0.34097096 0.3269157 -0.023101203 0.38810053 -0.025167622 0.12105833 -0.004696399
-0.024795625 0.24875306 0.32908925 0.471479 -0.0594457 0.14689392 -0.4357126 -0.61544615
0.005411901 -0.64684933 -0.40441337 0.36734122 -0.27055895 -0.12517372 0.40842807 0.16546799
0.04229312 0.007374658 -0.009235708 0.13991764 -0.61426 0.03647549 -0.024822041 -0.49147147
-0.34958816 0.030507553 -0.70695543 -0.39280084 0.2997482 0.024813274 -0.100724734 0.03536329
0.15946859 0.060348794 -0.13706928 -0.17788891 0.0679977 -0.21496576 0.059083752 0.3534555
-0.46134067 -0.4601869 -0.06519797 -0.6475986 -0.5528604 0.24126975 -0.1267263 -0.11469635
-0.17634507 0.30743158 -0.028605493 -0.33319998 0.14449987 0.35545495 0.11186971 -0.3612315
-0.012014404 -0.42836902 -0.16375096 0.0959565 -0.5353185 -0.45569506 0.0629825 -0.2189037
-0.50815827 0.27765676 -0.06079889 -0.13841434 -0.29269198 0.033174805 0.42311624 -0.5278135
-0.108224615 0.36657307 -0.5629986 -0.44886333 -0.034382973 -0.5493827 -0.46675804 0.07076606
0.17191947 -0.2832959 0.0068385727 -0.2713356 -0.07036043 -0.29112548 -0.10984429 0.26466227
0.16819374 0.46330744 0.0148265045 -0.4803445 -0.2113783 0.029152913 -0.61969733 -0.52243394
-0.29836887 -0.0824942 -0.3732376 0.21843608 -0.14376953 -0.31187972 0.10943323 -0.23954266
-0.2671521 -0.0288933 0.19130014 -0.13999163 -0.4863931 -0.2633516 -0.056891233 -0.6347851
-0.47045335 0.19445223 0.32575622 -0.0012442094 -0.0007151841 0.18777238 -0.10030911 -0.04357238
-0.41902992 0.032235276 -0.364003 -0.7799406 -0.1330066 -0.741366 -0.3082171 0.0029888772
-0.67337036 -0.47993568 0.27445194 0.186058 0.18806475 -0.15221035 0.17492513 0.12260941
-0.057561897 0.19743565 0.18149827 0.03230393 -0.49953246 -0.48675668 -0.034097146 0.39460552
-0.16880433 -0.032115087 0.20184222 0.22228187 -0.19878018 -0.2577382 -0.20312724 -0.077015124
-0.043689106 -0.18150903 -0.39828002 -0.40929633 -0.022133004 -0.66433585 -0.42767563 -0.030385664
-0.106982015 0.3485077 -0.062293135 -0.042655427 -0.20341282 -0.087836504 -0.13262254 -0.0718351
-0.3431133 -0.053975355 -0.028782222 -0.47193027 -0.1542524 -0.029291127 -0.6189047 -0.4857768
-0.2020409 -0.07408875 0.25326392 -0.06759042 0.09944263 -0.085962504 -0.21936886 0.10868316

network_body._body_endoder.seq_layers.0.bias f4 [128]
00000000: 898f f0be a211 16bf a433 acbe 1323 f0be
00000010: 7614 d1be b5b7 18bf 34d6 05bf 9492 f3be
00000020: 1c8c e8be df2a d9be 356d e2be 139b 08bf
00000030: 0646 efbe 4fb4 1bbf 7933 12bf 5c5b 63bf
00000040: 18f3 f0be de46 d9be b962 763d 5d3d 00bf
00000050: 2f47 993d 6ea7 dfbe b365 c0be e240 15be
00000060: 5d32 f6be df12 b6be bc4e e8be 80c7 17bf
00000070: bc65 0abf f747 d0be e6b1 0fbf 5348 d1be
00000080: a93a 52bf 59d2 14be d801 eabe 245b 08bf
00000090: 40a8 0dbf 2574 05bf 11ea 8dbe f026 0cbf
000000a0: 2708 17bf 925c 16bf 8023 0dbe 18fe 0fbf
000000b0: 3437 69be 96e3 f5bd 53c5 03bf d5a2 30be
000000c0: 489f 99be 7a03 0bbf 1b16 20bf bec9 bfbc
000000d0: e875 cebd f7b1 31bd 8ea8 07bf f073 e0be
000000e0: f75e 09bf 682d 87be c959 16bf e5d0 03bf
000000f0: dbb7 cfbe c620 39bd bda2 1fbf 4d82 b3bc
00000100: 4848 f2be 78e4 d7be c8a2 17bf 34d3 e1be
00000110: e2e6 13bf 7802 d2be a686 29bf 41cc 85be
00000120: efa9 12bf c1f9 73be 76e2 c1be 0800 19bf
00000130: 65e6 33bf 1809 61be af28 71be c708 dabe
00000140: d836 a8be 3835 05bf dc11 debe a6bf 2dbe
00000150: 4919 10bf de05 0cbf cdb9 06bf c7ff 82be
00000160: 8aae 28bf 80c2 11bf 0185 15bf 2f36 30bf
00000170: 3c94 48bf 72d9 17bf 8027 e3be eb46 81be
00000180: e080 51be d0b1 23bf 019f 12bf 1d1f 0abf
00000190: 86c1 eabe 7872 27bf 4af6 85be c748 f1be
000001a0: 3fd4 07bf d5ef debe 6e92 c8bd 943e 00bf
000001b0: ee3a f83c b89a ff39 8b9e 16bf 059c 99be
000001c0: 5b1f 29bf 9890 c0be 45a0 17bf bfe7 17bf
000001d0: 0160 40be cfc2 fdbe d7bf 9bbe a3fe 24bf
000001e0: e44e 3dbf 1e03 01bc 776c 0abf 36f0 24bf
000001f0: 0f29 edbe 98af edbe 1bcf d93c d017 cbbe
-0.4698451 -0.58620656 -0.3363315 -0.4690176 -0.40835923 -0.59655315 -0.52279973 -0.47572768
-0.45419395 -0.4241552 -0.44223943 -0.53361624 -0.4673311 -0.60822004 -0.5710979 -0.8881128
-0.47060466 -0.4243688 0.060152743 -0.5009363 0.0748428 -0.43682426 -0.3757759 -0.14575532
-0.480853 -0.35561273 -0.4537257 -0.5928879 -0.54061484 -0.40679905 -0.56130826 -0.40875491
-0.8212076 -0.14533366 -0.45704532 -0.5326407 -0.55334854 -0.5213035 -0.2771764 -0.54746914
-0.58996814 -0.58735 -0.13783073 -0.5624709 -0.22774965 -0.12006299 -0.5147297 -0.17249615
-0.30004334 -0.5430218 -0.6253373 -0.023411628 -0.100810826 -0.04338261 -0.5299157 -0.43838453
-0.5366053 -0.2640183 -0.5873075 -0.5149062 -0.40569958 -0.04519727 -0.62357694 -0.021912718
-0.4732077 -0.42166495 -0.5923276 -0.44106448 -0.57774174 -0.41017509 -0.6622108 -0.26132396
-0.5729055 -0.23825742 -0.37868088 -0.5976567 -0.7027343 -0.21976125 -0.23550676 -0.42584822
-0.32854342 -0.5203433 -0.43373 -0.1696764 -0.5628858 -0.5469645 -0.5262726 -0.25585768
-0.65891325 -0.5693741 -0.5840607 -0.6883268 -0.7835119 -0.5931617 -0.44366074 -0.2524942
-0.20459318 -0.63943195 -0.5727387 -0.53953725 -0.45850772 -0.6540904 -0.26164466 -0.47125837
-0.53058237 -0.43542352 -0.09793554 -0.50095487 0.030301537 0.00048752665 -0.5883567 -0.30001846
-0.6606347 -0.37610316 -0.59228927 -0.5933799 -0.18786623 -0.4956269 -0.304198 -0.64451045
-0.739485 -0.007874278 -0.54071754 -0.6442903 -0.46320388 -0.4642303 0.026588013 -0.39666605

network_body._body_endoder.seq_layers.2.weight f4 [128, 128]
00000000: 1629 a33e d1c1 513e fb79 2bbf ada2 5fbe
00000010: 3cd0 2abc 42d5 3abe a5fc d2bc 6ff8 94bd
00000020: 4c57 653d 9ab5 943e 6d59 3fbe a7f9 643d
00000030: 71eb 7f3d e02a 1c3e ead1 fc3c d90b 12be
00000040: 91c7 0a3e f50d 233e 33f2 66bf 9714 193e
00000050: 9790 f4bd 7950 ed3d f50f 9f3e 59cc 033f
00000060: 7205 663e 409b de3d 617a 5dbe 9a28 26bd
00000070: 6a2f 233e 1232 67be 6fac 5ebe 31cf a3be
00000080: df96 603c 251c 17bf 92ba f1bd 9906 b03e
00000090: e941 00bf cee5 54bc 94a7 d4be 01e1 febd
000000a0: 7a8c 293d f1d3 85bd c27f 4bbe a722 b43e
000000b0: 6c3b 4c3e 6314 61be ddee cfbc 746a 3ebe
000000c0: 411d 00bd cbf0 a5be 5a59 a03d fff6 a93e
000000d0: e86a 3e3e bfa9 4bbe 5c45 14be 989a e5be
000000e0: 785e d13c bd2a 2c3e 981b d2bd 838a cfbe
000000f0: bb42 b7be cdb6 65bf 1064 a8bc 9b72 773d
00000100: 0b7a 18bc 2517 523c 703d 843d 1a63 fdbe
00000110: fb03 6bbe dcf5 d2bd 7a4d 1f3e 145b 65be
00000120: 2366 e43d c5fb 4bbe 99d2 3ebe a99f 56be
00000130: 3485 a83e 1ced 1f3d ea73 563e 2182 03be
00000140: fc02 253e 57fc 573e d1f8 8ebd be36 e73c
00000150: 2afd 073e 04cb 563d c03b 433e f0b4 113e
00000160: ef30 543e 9ce2 27be 19eb b73d 7aa3 ba3d
00000170: 9e48 febd 342b f1be 6b41 f53e b983 cbbd
00000180: 378a fdbe 44f3 fabe f3a9 77bd ddc6 89bd
00000190: 5b02 95bd b4a0 353d 6864 f6bd a553 813e
000001a0: 05a5 f53d 3a94 e0bc 57c8 053f 2023 8f3e
000001b0: 2f91 ce3d 0aa7 91be 677b 52be 4ce6 01be
000001c0: 3400 343e 25a4 bebe a2e6 c63d 7127 9abd
000001d0: 17ec 77bf c164 8bbe dc90 5dbe 0b02 abbe
000001e0: b070 86bd 5f07 07bc de32 9a3d ac46 9fbc
000001f0: 4752 963e 1046 28bd c5bf 8e3e 46f7 edbd
00000200: 4c07 c4bc 92a8 8ebb f147 0ebd b629 3dbe
00000210: 34a8 5abe 113b 103c bd62 42bd a0a8 033f
00000220: 4208 70be 597b 96be f4b7 cd3e 2625 b5bd
00000230: 67a4 883d 499d ecbe 2e3b d6be b891 2b3d
00000240: fe28 633e 420b 15be 49a3 bbbe 8c1c f73e
00000250: d4f3 3bbf 174e 873e 0e41 133e 8ea2 09bf
00000260: ffdc d83e a1ee 00bd c81b 093d 7ba2 133e
00000270: 1c1d 373e a1d9 9dbe a942 ac3d b001 4cbc
00000280: c1e7 ecbd 0cb0 afbe 1fb6 673e ec70 be3d
00000290: f97e d4bd f926 2f3e 36e9 c0be 15c2 0ebe
000002a0: 954c 963d 2194 35be d834 cabe 57c2 58be
000002b0: 2db9 dbbe 54c2 03bf 558e 73be b993 97be
000002c0: 7ad4 3e3e 0c4d 02be 2286 2bbe 3d67 a7bf
000002d0: fa2b 10bf 2031 aabe 41b0 d8bc 11c3 c2be
000002e0: 6612 b2be cf59 a4be 9d18 e6be 65c4 5b3d
000002f0: 66f0 23be d6fd 9fbe 069b 99be 7c54 a6bf
00000300: bdea f4bc da7f a43d 5e9b fd3e 6ac9 b73c
00000310: 3c65 8c3e 169e 583e f287 3b3e 9c06 b0be
00000320: 55af af3d 6727 083c 74ee 7ebd 6851 71bd
00000330: 8461 6e3e 9038 ca3e e212 053d 7eee 8a3e
00000340: 1ceb 0e3e d373 cb3e f14a 5c3e b589 14bf
00000350: a06f fbbd cb7f 95bd e774 c13e 5a8f c73e
00000360: 81cd 0a3d a0ec febe 669a 95be 73d0 8cbe
00000370: 983a 9bbe 5898 d6be 1b33 243d 86dc 5ebd
00000380: 99c5 89be 8891 743e 5599 f1bd 970c c83d
00000390: 64af a2be 0c74 b9bd 40e4 9c3d a52d 4d3c
000003a0: 9f90 c83d cbdc 033e a792 53bf d56e a23e
000003b0: 1417 8bbe 1c14 953e 7a66 833e 087a 283e
000003c0: 4705 2ebe 6af4 9dbe a309 733e b033 2d3d
000003d0: 811c 64bd 98e5 833e 91c4 3ebd 9883 d1be
000003e0: 8974 0d3d 5fe9 05be aece 723e 6478 98bd
000003f0: 49e0 013e 290d b8be 2307 45bf c530 9fbe
0.31867284 0.20484091 -0.66983 -0.218394 -0.0104256235 -0.18245414 -0.025755236 -0.072739474
0.055991456 0.290448 -0.18686457 0.05590215 0.062480394 0.1525073 0.030861814 -0.14262332
0.13552691 0.15923293 -0.90213317 0.1494926 -0.11941641 0.115876146 0.31066862 0.51483685
0.22463015 0.10869455 -0.21628715 -0.040566064 0.15936056 -0.22577694 -0.21745466 -0.31994012
0.0137078455 -0.5902732 -0.118031636 0.34380034 -0.5010057 -0.012994243 -0.41534102 -0.1244526
0.041393735 -0.06534565 -0.19872954 0.35182688 0.19944543 -0.21980433 -0.025382454 -0.18595296
-0.0312779 -0.32410273 0.078295425 0.33196256 0.18595469 -0.19888972 -0.14479584 -0.44844508
0.025557742 0.16813178 -0.10259169 -0.40535364 -0.357931 -0.89732057 -0.020555526 0.06041203
-0.009306441 0.012822901 0.06457031 -0.4948967 -0.22950737 -0.103008 0.15556899 -0.22398025
0.111522935 -0.19920261 -0.18635024 -0.20959343 0.32914126 0.039044484 0.20942655 -0.12842609
0.1611442 0.21092354 -0.06981052 0.028224345 0.13280168 0.052439705 0.19065762 0.14229178
0.20721792 -0.16395038 0.08980388 0.09113212 -0.124161944 -0.47103274 0.47901472 -0.099372335
-0.49519512 -0.49013722 -0.06046481 -0.06727383 -0.0727584 0.04434271 -0.1203087 0.25259128
0.119943656 -0.02741443 0.5225882 0.27956486 0.10086285 -0.28447753 -0.20554887 -0.12685508
0.17578202 -0.37234607 0.097119585 -0.07527054 -0.9684462 -0.27225307 -0.2163729 -0.33399996
-0.06564462 -0.0082415035 0.075292334 -0.019442879 0.29359648 -0.04108244 0.27880684 -0.11619429
-0.02392926 -0.0043535912 -0.034736577 -0.18472943 -0.21353227 0.008803145 -0.047457445 0.51429176
-0.2344065 -0.29390982 0.40179408 -0.08844976 0.06671982 -0.4621375 -0.41842026 0.041887015
0.22183606 -0.14555076 -0.36648014 0.48263967 -0.7341893 0.26426765 0.14380285 -0.53763664
0.42356107 -0.031477574 0.03347376 0.1441745 0.17882198 -0.308301 0.08411152 -0.012451574
-0.11567641 -0.34314 0.22628067 0.09298882 -0.103757806 0.1710471 -0.37677926 -0.13941224
0.073388256 -0.17732288 -0.39493442 -0.21167885 -0.42914715 -0.51468396 -0.23784764 -0.2960489
0.18635741 -0.12724704 -0.16750386 -1.3078381 -0.563171 -0.33240604 -0.026451232 -0.3803945
-0.34779662 -0.3209977 -0.44940653 0.053654093 -0.16009673 -0.3124835 -0.30001086 -1.2994533
-0.029897088 0.08032198 0.49532598 0.022434909 0.27420986 0.21154055 0.18313578 -0.34380043
0.08578364 0.0083101755 -0.062239125 -0.058915526 0.23279387 0.3949628 0.03248871 0.2713508
0.13956875 0.39736804 0.21512963 -0.58022624 -0.1227715 -0.07299765 0.37784502 0.38976556
0.03388739 -0.49789906 -0.2921936 -0.27502784 -0.3031814 -0.41913104 0.0400878 -0.054409526
-0.26908568 0.23883641 -0.11796824 0.09768026 -0.31774437 -0.09055337 0.07660723 0.01252309
0.09793209 0.12877195 -0.8264565 0.31725183 -0.27166045 0.29116905 0.2566412 0.16452801
-0.169942 -0.30850536 0.23734145 0.04228562 -0.055691246 0.25761104 -0.04657418 -0.4092071
0.034534965 -0.13077305 0.23711655 -0.07444838 0.12683214 -0.3594754 -0.76964015 -0.31091896

network_body._body_endoder.seq_layers.2.bias f4 [128]
00000000: fbfa cbbe d293 59be 375e efbc 96fa 063e
00000010: 4408 24bf ef1a a8bf 31ed 4ebf 6507 00bf
00000020: 1e9b 28bf 0758 61bf 06f0 c0be f94b bd3e
00000030: e9bd e9be 7ba2 aebe effc c0be 2ded b7be
00000040: 88fd 02bf 3d2e 86bf 2bcd 2fbd 9415 58bf
00000050: 4a5b 06be 3ba8 79be 58b8 5cbf 3609 23bf
00000060: af96 18bf 15fc 8cbd 9ce7 fabe 0479 083f
00000070: de1b f3be 164d bdbe 8fab 16bf 2bde 17be
00000080: 1df9 45be e40b adbe 337e babe 9cb5 67bd
00000090: 13b6 b13e 3d7b bbbe df9d 67bf f129 40be
000000a0: 0742 89bf dfc1 13bd 339b 57bf 4f4a 65bf
000000b0: d593 b63d dfc0 273e 4014 1fbf 43a9 1c3f
000000c0: 9a91 1ebe 23f4 31bf 1109 38bf 2f3f 47bd
000000d0: 9e70 54be 7dcf 3dbf be41 53be 978d 71bf
000000e0: 0dca 07be 9658 fc3e 7d7c a7be e8e2 85bf
000000f0: e64d 40bf e6cc b4bd c4f9 99bf 5bfd 81bf
00000100: 4ee8 3bbf 7494 42bf 2e7c 96be d4ae 02bf
00000110: 6a0e 5e3f 93c3 8dbe 040f e7be e477 5fbf
00000120: ae4d e5be 7e52 893e 461b 02bf b24e 45bf
00000130: e9f6 72be fd6f fbbe 005b 09be 1e1a 023e
00000140: 81cc dfbd f890 c5be ae11 77bf 1946 1fbf
00000150: ad7e e2be b9d9 13be d223 d83e 0546 e9bd
00000160: 88c7 8fbe 4b2c eebe 100d 3dbf 3f46 05bf
00000170: 341b 34be 451f 86be 736b b8be 7601 17bf
00000180: f2af ccbe 0938 abbe e74b e0be b7be 67be
00000190: 058f ffbe 7830 66be 5288 adbd b37a fabe
000001a0: e520 0dbf 5c84 11be 89f6 debe 36b6 94bf
000001b0: 754e 623d ba74 b4be 2a1d 583e c590 58bf
000001c0: ac29 fbbe 439a 61bf bb79 f7be c136 15bf
000001d0: b29b 7f3e 883f f73e 89c0 74bf cdaf 51bf
000001e0: c057 66bf 1ac2 6fbf f41b 43be e214 e5be
000001f0: 9555 54bf faef fcbe 4285 33bf 2f92 8dbe
-0.3983992 -0.21247795 -0.02921973 0.13181528 -0.6407511 -1.313322 -0.80830675 -0.50011283
-0.6586169 -0.88024944 -0.37683123 0.36972025 -0.45652702 -0.34108338 -0.37692973 -0.35923138
-0.5116811 -1.0482861 -0.042920273 -0.84407926 -0.13120762 -0.24380581 -0.86218786 -0.6368593
-0.59604925 -0.06884018 -0.4900483 0.53309655 -0.47482198 -0.36972874 -0.5885553 -0.14830844
-0.1933331 -0.33798134 -0.36424407 -0.05656968 0.34709224 -0.3661746 -0.9047527 -0.18766
-1.0723275 -0.03607356 -0.8422119 -0.8956651 0.089149155 0.16382168 -0.62140274 0.6119577
-0.1548523 -0.6951315 -0.71888834 -0.04864424 -0.20746085 -0.74144727 -0.20630547 -0.94356674
-0.1326067 0.49286336 -0.32712165 -1.0459871 -0.75118864 -0.08828144 -1.2029347 -1.0155443
-0.73401344 -0.7600777 -0.29391617 -0.51048017 0.86740744 -0.27688274 -0.45128644 -0.87292314
-0.44785827 0.2682075 -0.50822866 -0.77073205 -0.23727001 -0.49108878 -0.1341362 0.12705275
-0.10927678 -0.38587165 -0.9651135 -0.62216336 -0.4423727 -0.14438523 0.4221483 -0.11390308
-0.28081918 -0.46518168 -0.73848057 -0.5206031 -0.17588502 -0.26195732 -0.36019477 -0.58986604
-0.39977986 -0.3344119 -0.4380791 -0.22631346 -0.49913803 -0.22479427 -0.08473267 -0.48921737
-0.5512832 -0.14210647 -0.43547466 -1.1618106 0.055250604 -0.35245305 0.21104875 -0.845959
-0.4905523 -0.8812601 -0.4833506 -0.5828667 0.24961737 0.48290658 -0.95606285 -0.81908876
-0.89977646 -0.9365555 -0.19053632 -0.44742495 -0.8294309 -0.49401838 -0.7012521 -0.27650592

action_model._continuous_distribution.log_sigma f4 [1, 39]
00000000: 2d68 84bf bb3f 49bf 15b8 89bf 126c 6cbf
00000010: 278b 46bf 7e9f 7ebf f550 83bf f838 38bf
00000020: 2392 27bf 4138 21bf 6d4e 78bf 614b 22bf
00000030: f681 33bf 902b 6bbf 7dc1 3ebf 10b0 70bf
00000040: 74dd 71bf aa9c 5dbf da3b 42bf 4e52 70bf
00000050: d8fa 7fbf 5045 76bf dfac 8dbf ec66 68bf
00000060: dbf8 3bbf 586d 2ebf 1ff7 79bf 273c 21bf
00000070: fb8f 8ebf b93d 98bf 9350 8fbf 1fb7 92bf
00000080: c797 52bf d862 55bf 239b 7cbf 9e3b 89bf
00000090: 37d8 2abf 9a90 2dbf de60 62bf
-1.0344292 -0.7861287 -1.0759302 -0.923524 -0.7755608 -0.99462116 -1.0259081 -0.7196193
-0.6545736 -0.6297646 -0.9699467 -0.6339627 -0.7012018 -0.91863346 -0.7451399 -0.9401865
-0.94478536 -0.86567175 -0.75872576 -0.93875587 -0.9999213 -0.9619951 -1.1068381 -0.90782046
-0.734266 -0.68135595 -0.976427 -0.6298241 -1.1137689 -1.1893836 -1.1196464 -1.1462134
-0.82262844 -0.8335395 -0.9867422 -1.0721319 -0.6673617 -0.6779877 -0.8842906

action_model._continuous_distribution.mu.weight f4 [39, 128]
00000000: a592 843e 56d9 f93e 0caf a0be 27d3 eb3e
00000010: 384a 74bd 1ef8 22be 3b5b 70be 8f8e f43d
00000020: 33ef 28be 444f acbe dde9 00be fe4c 043f
00000030: f48f 803e 90de c33e 5bfd 903d c153 6d3d
00000040: ad2d bdbd aa4a 9a3e fdfe f73a 92cf 80be
00000050: 6e20 e03e 6987 893e 7d1c 11bf 33e2 23be
00000060: 8544 91be 22c5 9dbe 594f 7d3e c380 b33d
00000070: bbef 1bbd 3e75 0dbd e2b4 87be 5dda 9d3e
00000080: 9a8e 9cbe e75d 8abd 8ffe 4ebe f5e4 d53b
00000090: 2ce4 68bd 2181 7b3e 5b3e afbe 108e 243e
000000a0: 3160 8fbe da7d 993e e129 ddbb 9d4c 73be
000000b0: b0b2 0dbf 0271 023f 6790 893e 63d3 f03e
000000c0: 0e9d 72be 483b f6bc a846 25bf 4ede ae3e
000000d0: cd24 57be 865c b03e 1641 d9bc 8bd9 153f
000000e0: 1df2 9cbe 75b8 0abc fe44 f0bd 3c97 c33c
000000f0: 1e63 0fbf a791 833e 7665 35be bdd5 0abf
00000100: 86c8 d43e 16ae 46be c97f 723d f63f 813e
00000110: 1551 b63e 7fb9 2f3f b7da dc3e 0d99 59bf
00000120: b301 8bbe 0347 7a3d 09c5 fa3d ae15 15bf
00000130: 5800 ce3e 6d1d 363e 11a3 3d3e 5f20 e53a
00000140: 697f 503f 6a63 87bc e597 0bbf 67b8 ad3d
00000150: 9019 bbbe 6f01 09bf 695c 453e e4dd 8b3e
00000160: 107d f13d 3a68 173f 80fc b5be 0736 2fbe
00000170: 979b e7be 6da3 98be 0515 8f3e 2771 db3c
00000180: 48b0 08be 8615 9fbe 34aa 483e 1dd7 083f
00000190: f769 4dbe 453c 003e 9a0d abbe 61f6 b23d
000001a0: c130 a83e b773 a8bd b1f3 04bf 28d1 95bb
000001b0: b483 f8bd 1d6b 50be f15a 803e 2cb2 833e
000001c0: 8efe 653e b34b 3cbb e5f5 013f 831a 1bbf
000001d0: f557 84bc 90b7 68be 96d7 ccbd f5b5 2b3e
000001e0: eed0 06bf 502a 2abc eb81 ae3e 4a57 713e
000001f0: 28fc 3cbc c97d 31be 5671 163f b9da 883e
00000200: f105 eb3b fc03 5b3d 4299 0f3f adf1 ea3e
00000210: 3df8 b93e 8af5 0abe 8244 5dbe e3b7 433f
00000220: 0c8d e6bd 00e5 70bf 4174 4f3e a4b2 ae3e
00000230: 8dab d9be 2ff3 d4be 6a30 85be 0566 a4be
00000240: c9e3 f5be b86b 83bd 52c6 b53e 0df4 a2bd
00000250: 6277 e8bc 751b 35bf ee1d b2be 1466 903e
00000260: 0d91 cebd 41d2 c63d e2c3 bd3e 5c6c ea3d
00000270: 227e 45bf 7ed5 37be 05d1 9d3e 6bfb fa3d
00000280: d664 5dbb d1e2 70be c691 d3be 7720 ff3d
00000290: 1094 44bd b3be 9fbc 3b2a 833e 1879 f73e
000002a0: 1cb3 8cbe 604e 223e bc0b 9fbe 0a73 19bf
000002b0: 571e 07bd 8fbb 8b3e d70e 803e f6aa 9abc
000002c0: 71ad 6bbf b422 91be 26df c8be 9048 8fbe
000002d0: 6e3f 193e 805e 8e3e 5a83 e63d cb1e a0be
000002e0: bf0e 743e 9398 2dbe be79 6bbd 5027 c7be
000002f0: 8eeb ecbd 8ab6 ac3e cf14 3cbf b20e 2abd
00000300: c698 e3be 9475 2bbf 37d9 5d3e 7e9b 94bc
00000310: 16a3 873e 49b5 45be fbe2 0c3f 2de9 30bf
00000320: b7b3 e3bd 02d2 42bf d8b5 5e3e bf41 5e3e
00000330: 2fa6 e53e aa1a 08bf 236c 4c3d 19b7 96be
00000340: 4dd1 f0be c639 0c3f 7de1 02bf 00c6 12be
00000350: c0eb 09bd 15c3 6abf 249c 4ebe 1215 0cbe
00000360: ea01 19bf 6e64 2abf 2ab4 dfbe 7ef5 6e3e
00000370: 79f1 cf3e 10d5 43be 4484 5fbe 3eb2 05bf
00000380: 323a b13e dd2b aabe 17d5 87be e52e f0be
00000390: 8e3c 903e ac2c d93e daa3 9b3e 6a73 0f3e
000003a0: eef7 ee3c 577b a63e 97bd 2cbe 7a60 11bf
000003b0: 6046 cebe 678a 963d 0291 753e 0de0 fdbe
000003c0: 2c66 00bf e0f9 c33b 3c13 2dbe 9737 eabe
000003d0: dbd3 a0be 32aa 073f 76a1 4dbf f663 84be
000003e0: a259 3cbf 192d 30bd c5a4 803e d3aa f0bd
000003f0: cf5e 913e 34d7 e1bc dbeb 03bf 5a16 9f3e
0.2589313 0.48798627 -0.3138355 0.46059534 -0.059641093 -0.15914962 -0.23472302 0.119412534
-0.16497497 -0.33654225 -0.12589212 0.5167998 0.25109828 0.3825574 0.07079574 0.057941202
-0.092372276 0.3013509 0.0018920597 -0.25158364 0.43774742 0.26861122 -0.56684095 -0.16004257
-0.2837259 -0.30814463 0.247373 0.08764794 -0.03807042 -0.03453564 -0.2650519 0.3083066
-0.30577546 -0.06756192 -0.20214294 0.006527538 -0.056858227 0.24560978 -0.3422726 0.16069818
-0.28003076 0.2997883 -0.006749377 -0.23759694 -0.5535078 0.50953686 0.26867983 0.47036275
-0.23692724 -0.030057564 -0.6456094 0.3415398 -0.21010132 0.3444559 -0.026520293 0.5853507
-0.30653468 -0.00846683 -0.11731909 0.023875825 -0.56010616 0.2569706 -0.17714486 -0.5423239
0.41559237 -0.19402346 0.059203897 0.2524411 0.35608736 0.6864242 0.43135616 -0.8499916
-0.27149734 0.06110288 0.12244613 -0.58236206 0.40234637 0.17784663 0.18519236 0.0017480961
0.8144441 -0.016526897 -0.5452865 0.084824376 -0.3654294 -0.5351781 0.19273533 0.27317727
0.11791432 0.5914341 -0.35544205 -0.17110454 -0.45235893 -0.29812184 0.27945724 0.026787354
-0.13348496 -0.3107111 0.19596177 0.53453237 -0.20059954 0.12522991 -0.33408815 0.08738399
0.32849696 -0.08225196 -0.51934344 -0.0045720525 -0.121344954 -0.2035336 0.25069383 0.25721872
0.22460386 -0.0028731644 0.5076583 -0.6058733 -0.016155222 -0.22726274 -0.10002057 0.1676863
-0.5266255 -0.010386065 0.34083495 0.23568454 -0.011534728 -0.1733314 0.58766687 0.26729372
0.007172339 0.053470597 0.5609323 0.4588751 0.36322203 -0.13570228 -0.21608165 0.76452464
-0.11257371 -0.94099426 0.20259191 0.34120667 -0.42513695 -0.41591784 -0.260135 -0.32109085
-0.4802535 -0.0641703 0.3550287 -0.07956705 -0.028377239 -0.7074502 -0.3478846 0.2820288
-0.1008626 0.097080715 0.3706351 0.11446449 -0.7714559 -0.17952535 0.30823532 0.122549854
-0.0033782027 -0.23524024 -0.41322154 0.12457364 -0.047992766 -0.019500112 0.25618157 0.48334575
-0.274804 0.1585021 -0.3106364 -0.5994116 -0.03298792 0.27291533 0.25011322 -0.018880349
-0.92061526 -0.2834679 -0.3923275 -0.27985048 0.14965603 0.27806473 0.11255522 -0.31273493
0.2383375 -0.16952734 -0.05748915 -0.3889718 -0.11568366 0.33733016 -0.7346925 -0.04151792
-0.44452494 -0.66976285 0.21664892 -0.01814055 0.26491612 -0.19307436 0.55033845 -0.691058
-0.11118262 -0.76101696 0.21749055 0.21704768 0.4485335 -0.53165686 0.049907815 -0.29436567
-0.47034684 0.54775655 -0.5112532 -0.14333344 -0.033672094 -0.9170392 -0.2017675 -0.13679913
-0.59768546 -0.66559494 -0.43692142 0.23335835 0.40613917 -0.19124246 -0.21827799 -0.522251
0.34614712 -0.3323659 -0.26529762 -0.46910778 0.281712 0.42416894 0.30398446 0.1400887
0.029170956 0.32515976 -0.16869198 -0.56787837 -0.40288067 0.07350617 0.23981097 -0.49585
-0.501559 0.005980715 -0.16901869 -0.45745537 -0.31411633 0.5299407 -0.80324495 -0.25857514
-0.7357427 -0.04301176 0.2512571 -0.11751332 0.28392646 -0.027568437 -0.5153176 0.3107174

action_model._continuous_distribution.mu.bias f4 [39]
00000000: 71a9 463f 889a 953f 6352 e3bd a7d2 96bd
00000010: c20e f63e ff4c 69bf f903 38bf 470d abbc
00000020: 1707 f03e 9d9f 2ebe abc6 963e 3bba d93d
00000030: b966 f73e eab0 24bf a39e 3abe 1d9b 73ba
00000040: 004d f03d 13f6 a13e 2f90 bfbf fca1 59be
00000050: 9fc8 5fbf 9712 2fbf 35be 82be 0009 e63e
00000060: 0d6f 9a3e 0d74 d0bb 1c51 da3e 8ecd c23d
00000070: 0dab 8d3e 923c 983e 4c2e ccbe 31aa 0cbf
00000080: 1e0c 74be 8233 fe3e 0b44 87be fdcd 5bbe
00000090: de0e 73bf 7b53 523f d110 03bd
0.776023 1.1687784 -0.110996984 -0.073643975 0.48058134 -0.9113311 -0.7188106 -0.020880355
0.4688041 -0.17053075 0.29448447 0.10631224 0.4832056 -0.6433245 -0.18224578 -0.0009292828
0.117334366 0.31633052 -1.4965876 -0.21253198 -0.874155 -0.6838774 -0.2553574 0.4492874
0.3016285 -0.0063614906 0.42640007 0.09511863 0.27669564 0.2973371 -0.39879072 -0.5494719
-0.23832747 0.49648672 -0.264191 -0.21465297 -0.9494456 0.8215863 -0.03199846
