Assets/Brains/ArvidTests/LForearmGone1/Zombie Walker.onnx (onnx, 827693 bytes, 11 tensors)

network_body.observation_encoder.processors.0.normalizer.running_mean f4 [246]
00000000: 1894 9640 9ff4 e6bc 5697 cfbf 28a6 7e3f
00000010: 9bc1 a234 0000 0000 1bfe 8f40 5658 1b3a
00000020: 488f ef3e 92b1 b340 bf67 683a 1a33 403d
00000030: 8aee 553b 8461 733f f211 093b f941 023d
00000040: b841 ec3c eb05 783f c852 9139 df74 ed3e
00000050: 7c47 b440 926d 4539 4e43 0cbc fa22 e6bd
00000060: 38b5 7d3f b0d2 083f 8745 98bb 3d09 f9bd
00000070: 17b9 02b8 4537 51bb a53d da3b 2e75 8c39
00000080: 42fd d3bb b48f 87be 4460 853f 6bdd fa3d
00000090: 3272 6cbd e892 9ebd 37af 763d 7016 dd3e
000000a0: 2673 493d 0609 c3bb 05b9 eb3b b418 0ebc
000000b0: 3ed8 7d3f 0996 473f 03b9 8d39 65e8 f9bb
000000c0: 8e12 64be a8fe 803f 8e18 083f 44ec 6cbd
000000d0: a787 15bc c011 ae3c 89a6 4a3e 4f05 8c3c
000000e0: e28c 843d b2e1 4dbc 07c8 9bbd e018 723f
000000f0: f749 303f e784 c437 3f24 14bc 8a71 8cbe
00000100: a368 853f 9dbc acbc 1f2a 11bc c8fc 403d
00000110: 2e0e 113e 6543 543f e772 b93d 3712 f4bc
00000120: 4dfb 443a 0fa7 adbc 4869 7e3f 26a7 483f
00000130: 2cc8 d539 3a1b 17bd b330 f2bd be1e 693f
00000140: 3c04 c8be a740 2a3d 7dcf e1be b92d cfbd
00000150: 9ad3 64be 8ae6 0abd c6fe 923d 43da cabb
00000160: 615f f03c 1a67 743f 5532 433f 0000 0000
00000170: a864 fbbc 1a96 99bc 6776 4f3f 3f16 1a3f
00000180: 60a1 663e 2849 853d 4507 55bd 9989 d8be
00000190: fccb 28be 5925 b53e 83e7 58ba 689b c63c
000001a0: 7cab 633f 4a29 4b3f 0000 0000 87d1 42bd
000001b0: 5c8b 49bb 308a 443f b528 6fbe 4823 dabb
000001c0: 7764 ccbe 5b83 b6bc 5856 01bf 2747 8ebe
000001d0: 337f 8cbd 08e7 2e3b 9304 d2bd 8ece 773f
000001e0: d7a4 473f 0148 083a 631f 04bd 827f f6bd
000001f0: af9e 683f 4041 fb3e 8f81 33be f774 363d
00000200: 5862 dd3d b8d5 46be ef1f ba3d e63d b0be
00000210: 514a e03c c8c1 743d 4eea 603f 9e1c 2d3f
00000220: 0000 0000 a195 82bd bc32 c0bc 3a99 593f
00000230: 12bb 093f 80e2 87be 0098 be3e c163 de3d
00000240: 4393 c4be 0e49 073e 4ae7 e83e 0ab7 88bc
00000250: 84fe 44bc a9cd 593f bee4 5b3f 0000 0000
00000260: 6855 9fbd a4f9 cf3c 4240 503f 0a0d d33e
00000270: 2ab4 163d ce60 8c3e 983f df3d b632 02bf
00000280: 55b7 d33d ed4d 02be 23f1 f43a 7003 93b9
00000290: 48bf 793f 1a53 4d3f 1f18 1839 3ced 483d
000002a0: 7d66 71be db33 873f 6ac8 fbbe 8b58 ed3e
000002b0: 2974 e8be 3692 84be abcd 013f 4713 ab3d
000002c0: 9bc6 cfbc fbd5 223e 7855 b7bd 7911 683f
000002d0: b623 5a3f feda 0c39 ccf4 0f3e b3a7 3ec1
000002e0: 665d 8c3f d43e 4ebe 99ea 243f b6ee 7e3e
000002f0: 8b2c d7be 6b5c 063f e468 563e 4ed6 7f3b
00000300: a497 a83e 8955 5e3c 7240 663f 0dd9 4b3f
00000310: a033 0639 2adc 523e f4a0 3ec1 310a 973f
00000320: 36d8 4dbe 15e5 233f 6834 803e 2339 ffbe
00000330: 5381 023f 4287 aa3e d0d8 0639 26a3 a0bd
00000340: 86b5 6fbe 3fa7 863f 8e18 62be c617 09be
00000350: 6b9a b53e 0597 bc3e 347c d63e d9cb c33d
00000360: e959 06bd 1c06 05be ce00 173e cd4b 673f
00000370: 458f 5c3f 7a9c 1539 b04f 49be 58d2 83be
00000380: a74d 8d3f 1c2c 86be db4d 23be f2d6 a4bc
00000390: 4b89 043f 87a7 db3e 39c7 5c3e 8466 033c
000003a0: 067d 89be 0d6b 98bc 69e0 6d3f a25c 393f
000003b0: 43e6 7939 2e0d 80be 4ab1 84be ff87 953f
000003c0: 79f4 85be a4e6 24be 89aa a6bc 0c01 143f
000003d0: bb18 d93e c5f5 aa3e
4.705578 -0.028192816 -1.6218059 0.99472284 3.0315718e-07 0.0 4.4997687 0.0005925944
0.46789002 5.615426 0.0008865557 0.046923734 0.00326434 0.9507067 0.0020915237 0.031801198
0.02883993 0.9688403 0.00027718232 0.46378228 5.633726 0.00018828202 -0.008560969 -0.1123714
0.9910464 0.53446484 -0.00464696 -0.12159965 -3.1166794e-05 -0.0031923812 0.0066601806 0.00026790187
-0.0064693997 -0.26476824 1.0420003 0.122492634 -0.057726093 -0.07742864 0.06022569 0.4318118
0.04918208 -0.0059520034 0.007193687 -0.008672882 0.99158084 0.7796331 0.0002703146 -0.0076265805
-0.22272703 1.0077715 0.5316247 -0.057842508 -0.00912658 0.021248698 0.1979009 0.017092375
0.06472184 -0.012566017 -0.076065116 0.94569206 0.6886286 2.3426908e-05 -0.009041845 -0.27430373
1.0422558 -0.021086032 -0.00886014 0.04711607 0.14165565 0.82915336 0.09055119 -0.029793842
0.00075142534 -0.021197824 0.99379396 0.7838005 0.00040775666 -0.0368912 -0.11825695 0.91062534
-0.3906573 0.041565564 -0.44103613 -0.10116143 -0.22346345 -0.033911265 0.071775004 -0.0061905696
0.029342355 0.9546982 0.76248676 0.0 -0.030687645 -0.018748332 0.8104004 0.60190195
0.22522497 0.06508094 -0.052008886 -0.4229248 -0.16484064 0.35380057 -0.0008274244 0.024244025
0.8893354 0.7935988 0.0 -0.047563102 -0.003075323 0.7677336 -0.23355372 -0.006657038
-0.399204 -0.022279432 -0.50522375 -0.2778866 -0.06860199 0.0026687998 -0.10254779 0.9679955
0.779859 0.00051987177 -0.032256495 -0.12036039 0.9086713 0.4907322 -0.17529891 0.04454514
0.10809773 -0.19417465 0.09088122 -0.34422225 0.027379187 0.059755117 0.8785752 0.6762179
0.0 -0.06376196 -0.023461692 0.8499943 0.5380107 -0.26539993 0.37225342 0.1085887
-0.38393602 0.13211462 0.4548896 -0.016688842 -0.012023572 0.8507944 0.8589591 0.0
-0.07779962 0.025387593 0.8134805 0.41220886 0.03679291 0.27417606 0.109008014 -0.5085863
0.10337702 -0.12725039 0.0018687587 -0.00028040586 0.975575 0.8020493 0.00014504835 0.04905437
-0.23574252 1.05627 -0.4917634 0.46356615 -0.45401123 -0.258928 0.5070445 0.08353286
-0.025363257 0.1590194 -0.08951849 0.9065166 0.8521074 0.00013433021 0.14058226 -11.915942
1.0966003 -0.20141155 0.6442047 0.24895748 -0.4202617 0.5248477 0.2093845 0.0039037648
0.32928193 0.013570198 0.89942086 0.7962807 0.00012798468 0.20591798 -11.914295 1.1799985
-0.20102009 0.64021426 0.25039983 -0.4984828 0.50978583 0.3330632 0.00012860005 -0.07843618
-0.2340909 1.051979 -0.2207968 -0.13387975 0.35469374 0.3683397 0.41891634 0.09560365
-0.03280059 -0.12990612 0.147464 0.9035004 0.8615611 0.0001426804 -0.19659305 -0.25746417
1.1039323 -0.26205528 -0.15947668 -0.020122025 0.5177199 0.4290125 0.21560372 0.008020047
-0.26853198 -0.018605733 0.9292055 0.7240697 0.0002383227 -0.25010055 -0.2591651 1.1682128
-0.2616308 -0.16103607 -0.02034499 0.578141 0.4240168 0.33390632

network_body._body_endoder.seq_layers.0.weight f4 [256, 246]
00000000: fcd5 bc3d ff83 473e ee4f 54bd 132e 02be
00000010: 441a 4c3d 5452 b63d a38f a33d ec84 47be
00000020: 437d d4bc c1d9 f3bd 8b55 1d3d 62a8 6d3d
00000030: 011e 8ebd 6ebc 043e d79b 193c dcc1 9e3d
00000040: 57dc 623d 05fe 6d3c f9c4 39be 5223 11bd
00000050: 81eb 47be 7b7a 87bd 8023 113e bc8a c83c
00000060: a796 883a 6dc2 9dbd 3318 243e 5632 abbc
00000070: 9e40 83bd 1d97 763e 8cbc de3d 3ba3 38bd
00000080: 3385 363e a5aa c4bc 821a 27be f50d f0bd
00000090: 5c1c d23d 3742 e8bb 71ca b13d f94b 523d
000000a0: d562 0b3e 2bb4 ddbd fcc5 52bd a150 39be
000000b0: 1ba9 c53d 4514 50be 9c8e aa3d d5dc a03d
000000c0: 2e8a c23c ded0 9bbd c323 14bd b30d b23c
000000d0: a17e 823d 1623 5bbc 1345 1c3e 9574 43bc
000000e0: 86af 17bd 5c9c cb3b 1742 97bd 5f05 3d3d
000000f0: 6c96 533c a6ad 8cbd ca8a c03d 2026 85bd
00000100: 01cb 5abd a561 323e 68df 7cbc d83b 91bd
00000110: ba12 6cbd 8464 bfbd a163 aabc 8152 d0bc
00000120: cfa3 1cbd 10f3 91bd cdd4 c43d 28b7 b8bc
00000130: 46d2 0abe 42f5 1e3e cfb1 80bd 5d95 423d
00000140: 21fb 4dbe 2dd7 733d de3e 93bd 6153 25be
00000150: 055b 41bc 1333 bebd dd82 f43c b90c fe3c
00000160: 8923 06bd b105 4d3d be76 b9bd 7b86 27bd
00000170: 99f2 013d faa1 13be e209 97bd 7141 d63d
00000180: cd8e e73c ce7d fa3d 024c 3a3d dbe2 5c3e
00000190: f851 c2bd b37e ce3d 19b7 183d 825f 1b3c
000001a0: 9574 f9ba bd81 023d eec6 fb3d 6332 02be
000001b0: 7a95 b7bb 44ac 10bd 58e4 c23c 774f 6a3c
000001c0: 72b5 163c aac3 4b3d 4b45 a83d 09b8 94bc
000001d0: 7b43 713d 4d30 2a3d b9fc 31bd 5617 a9bc
000001e0: a722 863c 4915 febd 1bdc 5abd 8e38 05bd
000001f0: c465 0e3e ae41 28be 9b2f f8bd 29ae 0fbe
00000200: 38a7 06be ff2c 543b 6cc3 3ebc bb40 16be
00000210: e152 f9bd 2387 6ebe 05b8 0abe 3aec 63bd
00000220: a6cd c83c a2a0 4bbd f54a be3d 1eca 993d
00000230: 8fb0 8dbc 7e99 24be ae68 8cbd 8c85 9fbe
00000240: 4d68 413e 38fb 903e 3ea2 9fbe 2801 b6bd
00000250: 9f23 04be 5d30 473e 686d 62bd f892 cd3c
00000260: 44fd f9bd d4a3 b9bd 9c08 1cbd 3ecc 98bd
00000270: 9021 d1bb dd69 5dbd 229d d3be 47bd 683e
00000280: a468 673e 6565 a93e 0514 39bd 2c57 493d
00000290: d236 0a3e 613e 063e 4d99 92bd 6135 85bd
000002a0: c90b 1bbe 1d27 a2bd 723c 8d3d 7f95 2cbc
000002b0: 88dd 273d bff9 513d b5b0 183e e895 263d
000002c0: 1201 aa3d ebc6 723d ee41 bbbd 4a0b d8bd
000002d0: ee81 693d a57e 15be 2c03 823d dae7 dfbd
000002e0: 1eae b8bd 68ce 6bbd 8d04 d0bd 2f34 aebd
000002f0: 6ca2 0c3d b30a ba3c b5a4 ec3b 2a46 ccba
00000300: dabd 893d bb21 f3bc e59c aebd c412 86bd
00000310: 7ac6 83bd 111a e0bd a368 edbd 591b bd3d
00000320: e431 e8bc 9687 8dbe b1a4 7ebc cf5d f4bc
00000330: 2c55 563d cfd6 1cbc 98a0 9cbd 857a 723d
00000340: 5a4f c6b8 efa9 8ebd 5fbd d8bc 6b13 373d
00000350: 3fd4 693c bdb9 2b3e 1e28 5ebd bf1e ebbc
00000360: 8679 67be 6775 01be be84 713d 65b5 ef3d
00000370: d9c7 6b3e 7172 8abd 8eaf 8d3d cd21 edbd
00000380: ef8f e2bc 665d 82bc b7a9 7a3d eb82 b0bd
00000390: 5b8f 833c de2d 013e de31 5f3d 1a58 91bc
000003a0: a818 fd3d 55b3 ddbb b849 713e 348e 30bd
000003b0: 8fde e2bd 0593 973d 72e6 34be fd14 afbc
000003c0: 3a36 23bc 4f1f cd3d 506e 313c e8ee 09bd
000003d0: fa09 243d 4bbd 2a3d f64e b33d ab4f 85ba
000003e0: 1e4d 25be 5602 a33d 82e8 9f3d 2cee 8d3d
000003f0: 2301 423e d1f6 32be 6491 833d 199c d33d
0.09220502 0.19483946 -0.05183404 -0.12712888 0.049829736 0.089024216 0.07986381 -0.194843
-0.025938636 -0.11906768 0.03841166 0.05802191 -0.069393165 0.12962505 0.009375534 0.077518195
0.055385914 0.014525895 -0.18141545 -0.035434075 -0.19523431 -0.06615158 0.14173698 0.024480216
0.0010420874 -0.077030994 0.16024856 -0.020898025 -0.06408809 0.24081083 0.10875806 -0.045077544
0.17824249 -0.02400715 -0.16318706 -0.11721412 0.10259315 -0.0070879715 0.08681191 0.051341984
0.1361192 -0.1082538 -0.051458344 -0.18097164 0.09651395 -0.20320232 0.08327982 0.0785462
0.02374753 -0.07608198 -0.036166918 0.021735048 0.06371809 -0.013375064 0.15260725 -0.011929651
-0.037032627 0.006213708 -0.073856525 0.0461477 0.012914281 -0.06869058 0.09401472 -0.065014124
-0.053416256 0.17420061 -0.015434124 -0.070914924 -0.057635047 -0.09345344 -0.02079946 -0.025429966
-0.038242158 -0.071264386 0.09610901 -0.022548273 -0.13556775 0.15523246 -0.06283914 0.047505725
-0.2011533 0.05953138 -0.07189725 -0.16145088 -0.011801486 -0.092870854 0.029847557 0.031011926
-0.032748733 0.050054256 -0.090558514 -0.040899735 0.0317255 -0.14417258 -0.07374932 0.10461701
0.028266335 0.122310266 0.045482643 0.21570913 -0.094882905 0.1008276 0.03728399 0.00948322
-0.0019031937 0.03186201 0.12293802 -0.12714534 -0.005602536 -0.035320535 0.023790523 0.014301172
0.009198533 0.049747147 0.082163416 -0.018154161 0.058902245 0.04154997 -0.043453906 -0.02064101
0.016373945 -0.124064036 -0.053432565 -0.032524638 0.13906008 -0.16431305 -0.12118455 -0.1403128
-0.13149726 0.0032375453 -0.011643272 -0.1467313 -0.12174011 -0.23293738 -0.1354676 -0.055645205
0.024512123 -0.04971374 0.09291641 0.07509254 -0.017296104 -0.16074178 -0.068559036 -0.31156576
0.18887444 0.28316665 -0.31178468 -0.08886939 -0.12904213 0.19452043 -0.05528012 0.025094494
-0.1220651 -0.09064451 -0.038094148 -0.07460831 -0.006382175 -0.054056037 -0.4133082 0.22728454
0.22598511 0.3308517 -0.045185108 0.0491554 0.13497475 0.13109733 -0.07158146 -0.06504322
-0.15141214 -0.079176165 0.06896295 -0.0105336895 0.040982753 0.051263567 0.14911158 0.040670305
0.083009854 0.059271734 -0.091434345 -0.10549028 0.057008676 -0.14599092 0.06348261 -0.10932894
-0.09017585 -0.05756989 -0.10157118 -0.08506047 0.034334585 0.02271018 0.007221783 -0.0015584875
0.067256644 -0.02967917 -0.08526019 -0.06546548 -0.06434341 -0.10942472 -0.115922235 0.09233732
-0.028344102 -0.27642506 -0.015542195 -0.029829888 0.05232732 -0.009572699 -0.07647818 0.059198875
-9.456156e-05 -0.06966006 -0.026457487 0.044696253 0.014271795 0.16770072 -0.054237477 -0.028701184
-0.22604951 -0.12642442 0.058964483 0.1170452 0.23025455 -0.06760109 0.0691825 -0.115787126
-0.027656524 -0.015913676 0.06119701 -0.086187206 0.016059568 0.12615153 0.054490916 -0.017742205
0.123582184 -0.006765763 0.23563278 -0.043104365 -0.11077606 0.074010886 -0.17666033 -0.021372313
-0.009961659 0.10015737 0.010829523 -0.033675104 0.040048577 0.04168443 0.08755295 -0.0010170838
-0.16142699 0.0795943 0.07808019 0.06930193 0.18945746 -0.17476965 0.064242154 0.10332508

network_body._body_endoder.seq_layers.0.bias f4 [256]
00000000: 49ee a43d 0c08 61bd 5562 d83b 601d 8b3d
00000010: cc26 7a3d a3df c4bc f7c6 79bd 0d59 7b3d
00000020: 7c19 913d 5bc4 c2bd 70e8 e93c edbe 14bd
00000030: 2c66 cd3d 28f0 8ebc 27c6 25bc bda5 393d
00000040: a1ef dbbc 49b2 133d fa94 693c 18c0 ad3b
00000050: 07c1 d2bd f4e3 abbb d085 cdbd 050d d33a
00000060: 4fa7 8c3b dd28 25bc 2a2f a03d 11c8 89bb
00000070: 722a 3abd f8ea 3ebd 9923 7a3d 60e9 c23b
00000080: 9570 6dbc 4dfd b53c f70b 6abd a4fa 72bd
00000090: 5a2f 50bd 7eb0 1f3b afdf b9bd af9e ff3c
000000a0: 7b9f fabc 2ae7 a1bd 1fbc d63d 1593 8e3d
000000b0: 85c5 213d cb83 23bd 80d0 b3bb 90f3 633d
000000c0: 799f 32bd 08e5 e93c f410 56bc eb78 4d3d
000000d0: ef59 a33b 8153 9e3d 7dff 95bb 3a19 433d
000000e0: 5fe9 8b3c d6cc f9bc 06ae b63a 34a9 1b3d
000000f0: 6549 39bd e0cf 82bd a406 833d 52e6 e13d
00000100: 9ab0 bdbc 1f26 a3bc 2a41 12bd 9be8 993d
00000110: 6d27 943c 6df5 793c 1131 8b3c 5ecd 583d
00000120: ecd4 9a3c 5d14 b3bd dd7f 9fbc 0da2 0dbd
00000130: c0c0 c43c 7d07 36bd f005 eabd afdd 133d
00000140: af5a bbbb 6d14 543d 27af f73b a2e7 fbbd
00000150: eacd 113d d74f ddbc 7e90 82bc 802a b23c
00000160: 4793 5c3c 9514 4c3c e80c 46bd 7e57 9c3c
00000170: 5c1f 4fbd 10e4 60bd f9d2 723d b57f 5bbc
00000180: af52 99bd 7b74 333c 1875 56bd dc7b b1bd
00000190: f3f9 373d b1ba 183d 5928 d1bc 2ee8 8bbc
000001a0: fc3a 94bd 35f8 9dbd 53b0 7bbd 37b2 2cbc
000001b0: 6ec6 0c3d 7a21 94bc 841a 033c 7e04 cfbb
000001c0: d124 dd3a e344 e53b d608 67bd 4630 90bc
000001d0: 704e 6b3d 09b9 913b 97e0 91bc 2641 81bc
000001e0: 6788 b6bd 2a54 8a3d 3167 0b3c 0119 be3d
000001f0: ab6f 2bbd 54ef 4fbd 9482 6b3d d1a2 90bd
00000200: 1a68 1cbe e94a c1bc 4fa2 20bd 5a1e b7bc
00000210: ec44 a9bc 1904 01bd e3aa e83b d9cb 81ba
00000220: 3b3f debb 9e5d aabd e1a1 63bd eb26 253c
00000230: eae5 923c 8af0 8d3d 593e 02be 5530 48bd
00000240: db36 6bbd 1346 873d fb76 fcbc 4220 d43b
00000250: be56 b4bd a99a 98bd 4339 a6bc ec7e 93b8
00000260: 6554 a3bc 50bc ecbc 3682 e7bc ba3a 17bc
00000270: f41a 9f3c fe8c 19bd ee77 ae3b 7c6c 1ebc
00000280: 7787 6ebd 3f54 b0bd 48be aab9 e194 2abc
00000290: f299 163d 12e0 c73d caba 41bd 0880 9bbd
000002a0: a1d8 88bd 935b 7bbd 51b0 8bbd f139 94bc
000002b0: ce47 9cbd fb3c 3b3c 8195 ab3c 0246 3fbd
000002c0: 5f85 b9bd 01a2 02be cd22 093e f73c 343d
000002d0: 53f6 c13d 56d1 8cb9 67fc 8c3d 14b3 3fbd
000002e0: 1508 b139 6220 103d a4c6 013e 01f2 edbc
000002f0: e95f 8abd 5acb 9fbd f7c7 1f3d c5e0 053d
00000300: 08e5 97bd 783e abbd 71f4 c5b9 b1a8 75bc
00000310: 1948 dabd 120a 35bc 689d bcba 51a1 b0bc
00000320: 7937 fabb 4918 2abe 6cb8 8dbd 08af 4c3c
00000330: d6f4 a3bc 6e4b 89bd e68e b1bc dfbc 913c
00000340: 48d6 80bc b22c 0ebd cc76 26be a1ac e3bd
00000350: 9f6c da3d c5cb 78bd ec77 043d 754c 063d
00000360: 9620 c33d 426f 26be e73e d43d 2a6e a53d
00000370: 35da c13c 4e30 3abd 1e2e a03d 494f a73d
00000380: 0b91 d5bb 3e66 f63d c6c2 b73d 5472 acbd
00000390: 9097 70bc fba7 b13d 0e24 30bc b78a 9dbd
000003a0: a154 6e3d f412 80bd c984 483d f84a fb3c
000003b0: f6b4 eabc 7bd1 95bc c7c5 8b3d 2baf 85bd
000003c0: da12 aebd 9052 babb 4c73 33bd f1a8 a33c
000003d0: 8fe2 b03d 7f41 413c b40c 2abd c478 debd
000003e0: baa3 7dbc b529 0cbe 1f62 0cbd 572b 00bd
000003f0: 065a 593d 9e42 c6bd 3c81 c7bd b44f 0cbd
0.08053262 -0.054939315 0.006603519 0.06792712 0.061072156 -0.02403242 -0.060980763 0.061364222
0.07084939 -0.09510108 0.028553218 -0.036314894 0.10029253 -0.0174485 -0.010118044 0.045324076
-0.026847662 0.036058698 0.01425671 0.0053024404 -0.10290723 -0.00524568 -0.10035288 0.0016101903
0.0042924057 -0.010080543 0.07821496 -0.004204758 -0.045450635 -0.046610802 0.061069105 0.0059482306
-0.014492174 0.02221551 -0.057140317 -0.05932106 -0.050826408 0.0024366672 -0.090758674 0.031203596
-0.030593624 -0.07905419 0.104851 0.069616474 0.03949501 -0.03992061 -0.0054875016 0.0556522
-0.043609116 0.028551593 -0.013065565 0.050164144 0.004985086 0.07730771 -0.0045775757 0.04763148
0.017079053 -0.030493181 0.0013937361 0.03800316 -0.04523601 -0.06387305 0.06397751 0.11030258
-0.0231555 -0.019915638 -0.035706677 0.07515069 0.018085206 0.015256268 0.01699117 0.05293023
0.018900357 -0.08744118 -0.01947015 -0.03457837 0.024017692 -0.044440735 -0.11426914 0.036100086
-0.0057175974 0.051777292 0.0075587216 -0.1230004 0.035596766 -0.02701561 -0.01593804 0.021748781
0.013462848 0.012456079 -0.048352152 0.019084688 -0.050567016 -0.054904997 0.05928323 -0.013397147
-0.07486474 0.010953064 -0.052357763 -0.086662024 0.044916105 0.037287418 -0.025531935 -0.017078485
-0.07237813 -0.07713357 -0.061447453 -0.010540537 0.034368925 -0.01808237 0.008001927 -0.006317674
0.0016871934 0.0069967373 -0.05640491 -0.017601144 0.05744785 0.0044471067 -0.017807288 -0.015778136
-0.089127354 0.06754334 0.0085084895 0.09282113 -0.04185454 -0.05076535 0.057497576 -0.07062305
-0.15274087 -0.02359529 -0.03921729 -0.02235334 -0.020662747 -0.03149805 0.0071004494 -0.000990267
-0.00678244 -0.08318637 -0.0555743 0.01008008 0.017931897 0.06930645 -0.12719096 -0.048874218
-0.05742536 0.066051625 -0.030818453 0.006473572 -0.08805607 -0.07451374 -0.020290976 -7.033147e-05
-0.019937703 -0.028898388 -0.028260332 -0.00923031 0.019422032 -0.037487976 0.0053243553 -0.009669419
-0.058234658 -0.08609819 -0.00032566697 -0.010411472 0.036767907 0.09759535 -0.047297277 -0.075927794
-0.06681944 -0.06136663 -0.06820739 -0.018094035 -0.07630883 0.011428113 0.020945312 -0.046697624
-0.09058642 -0.12757112 0.13392182 0.044003453 0.09470811 -0.00026858848 0.068840794 -0.04680164
0.00033766092 0.035187133 0.12673432 -0.02904606 -0.06756575 -0.07802458 0.03900906 0.03268506
-0.07416731 -0.08361524 -0.0003775689 -0.014993832 -0.10658283 -0.011049764 -0.0014390172 -0.021561297
-0.0076360074 -0.16610827 -0.06919941 0.012492903 -0.020014208 -0.0670384 -0.021674585 0.017790256
-0.015727177 -0.034710594 -0.16256255 -0.11116911 0.10665249 -0.060741205 0.03234093 0.03278776
0.095277 -0.16253379 0.1036356 0.08077653 0.02366362 -0.045456223 0.07821296 0.08169419
-0.0065175346 0.1203122 0.08972697 -0.08420244 -0.014684573 0.08674618 -0.010750784 -0.076924734
0.058186177 -0.06253615 0.04895476 0.030675396 -0.028650742 -0.018288365 0.068248324 -0.06527551
-0.084996894 -0.0056861117 -0.043811128 0.019978018 0.086369626 0.011795401 -0.04151602 -0.10862878
-0.01548093 -0.13687785 -0.034273263 -0.031291332 0.05306437 -0.09680675 -0.097414464 -0.0342557

network_body._body_endoder.seq_layers.2.weight f4 [256, 256]
00000000: 6d0d 2abe 6e54 c23c 8d26 9f3c 4447 06bc
00000010: b7e1 793e 1127 b7bd 95b0 0a3e b462 9f3d
00000020: 3c37 c8bd a1cb 363d 0428 9abd 4967 c1bd
00000030: 2e7e b7bd df2a 7ebc 8d6d 89bd a99f de3d
00000040: 221d d4bc 75ba 3abd 5470 ecbd bce3 ac3d
00000050: f647 b23d e2db afbd 9053 4abc 279c b1bc
00000060: 7eb2 57bd a182 6abd c324 5c3d 1ac1 dcbd
00000070: 381d 16bd 307c f33c 1a70 9abd 7e21 133e
00000080: 57ca 1cbe f79a 293d 8021 90be f453 f8bd
00000090: 3a79 c1bd 72f9 e43c 937b 193d 2cb3 25bd
000000a0: 7624 b43c 8e4c 82bd b85b 45bd 8586 bd3d
000000b0: 94bf d53c a35c 683d 2a1d 8ebc dbab d2bd
000000c0: 096a 4ebc 0ffa 823c 3367 993c 0ad1 1b3e
000000d0: e9cf 033d 032f 8b3e 2465 233d 48d9 8f3e
000000e0: 7add e1bd d8b5 943b ed2a b33c 9449 7bbd
000000f0: 858e 533b 2969 a2bc a56f 3abe 04b9 0bbe
00000100: b3f4 903c 7535 7e3c 63eb 7b3e c76d f93d
00000110: c157 1ebd 1866 8c3c a66b a1bd a777 513d
00000120: 401e d2bd 5529 d0bd 1036 523d 32b3 b2bd
00000130: e7b3 5dbd 7c21 ccbd c75d 663d ad90 0abe
00000140: 8a22 0c3e 5659 653d 3cf4 2f3e ba3e 3f3e
00000150: 6967 9c3b 5007 bcbd a21b b5bd 3a81 323d
00000160: 8960 c5bd a76e 42be 085a 353d e0a0 8fbc
00000170: 360b debd 9027 21be 3617 163b 6ce4 95bc
00000180: 5634 a23d 0004 133d b56c f83d 2406 8fbc
00000190: c3bf 97bd 49ac 8f3d 47e4 563d dd56 af3c
000001a0: 8774 11be 1ae2 2bbd 50eb 413d 8e2a 8d3c
000001b0: b83f 66bc 11ea f6bb d535 fa3d 5d67 ecbc
000001c0: e2f5 92bd 0f4e 0c3e 11f5 7e3c c077 e0bd
000001d0: c671 c83d 1ce5 1c3d 78e5 b53d 9649 1cbe
000001e0: e5cc d63d a21b 05be ab78 413d 961b 07bd
000001f0: e803 a1bd 780c 24bc 7c59 0a3e 2296 81bb
00000200: 3d5f 0f3e 5439 e1bc a611 ca3d 560b 9cbd
00000210: facc 6bbd c57b b53d c3bb be3b d30c 503e
00000220: 53f5 30bb 2c74 05be 2f11 debd 6e12 0b3d
00000230: 18f7 66bd 3d84 dbbc 1873 ae3b 1b31 88bb
00000240: cfe6 0cbe 760d cd3b 98f2 d1bc bbf0 383d
00000250: 9b35 c7bd d04d afbd d64c 933d ffcc f3bd
00000260: 35dd ae3d dda3 96bd 7039 d3bd 1cbe 033d
00000270: aa26 57be cb41 d53c 897a d33d 0dcb 4bbd
00000280: 8913 68bd 6e7e a2bd 83de 02bb d2d0 933c
00000290: af4d c5bd 041e ee3d b76a dabc 9ae2 ca3d
000002a0: 46fd 1a3e 7bdd 24be 24f7 c33d 27e9 5ebd
000002b0: 67db c0bd 55d1 303d 8690 83bd a08f 7bbb
000002c0: 3823 46bc 6862 97bd 2923 ecbd 7cd8 a5bc
000002d0: 84f6 f4bc d804 aabd 10fe 523e a823 cc3d
000002e0: ed8c 3fbd cd20 febb d963 063d 1d18 1f3d
000002f0: 979e 673c bb3a 52bd 2bca 01be abfe 10be
00000300: 7f2a ecbd 5874 853c 7585 82bd e405 983d
00000310: f287 513c fe5c c6bc 60c5 ed3d a633 2c3d
00000320: 64df 6b3d bac6 cb3d 8e89 d3bc 5ecd 77bd
00000330: 19fc 82bd 05a0 4f3d eff6 823d e9ce 853d
00000340: b2e3 8ebd d125 38be b3aa dcbd 4e57 acbd
00000350: f021 cf3b 2767 083c 051d fbbd 1f89 ca3c
00000360: 6447 8c3d 7c2d aebd 0db9 78bd ab4f 2e3c
00000370: 947f cebd fb08 8abd 2fb6 8b3d a369 ed3c
00000380: 86ad 14bc ed94 9bbc 35bb 56bc 86ee d0bd
00000390: dcea 16bc b44f 303e 9065 27be c6e0 b63c
000003a0: dc71 30ba 05e8 7ebd 9d64 13bd 69d3 81bb
000003b0: f3c7 083d c051 e2bd 223c 02bd 9e5c 863d
000003c0: 0def 08be 0966 553e c785 d43c 38df 723d
000003d0: 9197 623c 46a0 283d c1d1 25be 3b96 c8bd
000003e0: 0324 8d3d e6ec 75bd c76e 493e 7477 f9bd
000003f0: f004 1a3e d26e 8abd bb8f 543d f8a8 3cbe
-0.16606684 0.0237219 0.019427562 -0.008195702 0.2440251 -0.08942998 0.13543923 0.07782498
-0.0977616 0.04462779 -0.075271636 -0.09443528 -0.08959614 -0.015513151 -0.06710348 0.108702965
-0.025892798 -0.045587976 -0.115448624 0.084418744 0.08705132 -0.08586861 -0.012349024 -0.021680905
-0.052660458 -0.057253484 0.053745996 -0.10779019 -0.03664896 0.029722303 -0.07540913 0.14368245
-0.15311562 0.04140755 -0.28150558 -0.12125388 -0.0944695 0.027950976 0.037471365 -0.040454075
0.021990042 -0.06362258 -0.048183173 0.09254173 0.026092328 0.05672897 -0.01734789 -0.10286685
-0.012598523 0.015988378 0.018725967 0.15216461 0.0321807 0.27184305 0.039891377 0.2809546
-0.110285714 0.004538279 0.021871055 -0.061349466 0.0032280993 -0.019825535 -0.18206652 -0.13644797
0.017694807 0.015515675 0.24601512 0.121791415 -0.038657907 0.017138526 -0.078818604 0.0511395
-0.10259676 -0.101641335 0.05132109 -0.08725585 -0.054126646 -0.09967324 0.056241777 -0.13531752
0.1368505 0.0559934 0.17183012 0.18676272 0.0047730696 -0.09181082 -0.08843161 0.04358027
-0.09637553 -0.18987523 0.044275314 -0.017532766 -0.10841982 -0.15737748 0.0022902018 -0.018297397
0.079201385 0.035892487 0.12130109 -0.017458983 -0.074096225 0.07015283 0.052463796 0.021403724
-0.14204608 -0.041963674 0.047343552 0.017232206 -0.014053278 -0.007535227 0.12217299 -0.028857881
-0.07175805 0.13701652 0.015561358 -0.109603405 0.097873256 0.038304433 0.08881658 -0.15262446
0.10488299 -0.12998822 0.04723422 -0.032985292 -0.07862073 -0.010012738 0.13510698 -0.003954665
0.14001174 -0.027493156 0.098666474 -0.0761935 -0.057568528 0.08861498 0.005820723 0.20317392
-0.0027001693 -0.13032597 -0.10843121 0.033953123 -0.05638799 -0.026796455 0.005323779 -0.0041562445
-0.13759921 0.006257708 -0.025628373 0.045151453 -0.09727021 -0.085597634 0.0719239 -0.11904334
0.08538286 -0.07355473 -0.1031369 0.032163724 -0.21010843 0.02603235 0.10326106 -0.04975419
-0.056659255 -0.07934271 -0.0019969053 0.01804391 -0.096339576 0.11626819 -0.026662214 0.09906502
0.15135679 -0.16100113 0.09568623 -0.05442157 -0.09416848 0.043168385 -0.0642405 -0.0038385168
-0.012093358 -0.073918164 -0.11530144 -0.02024483 -0.029902704 -0.08301705 0.2060473 0.099677384
-0.046765257 -0.007755375 0.032810066 0.038841356 0.014136932 -0.05132554 -0.12674777 -0.14159648
-0.11531543 0.016290829 -0.06373111 0.074229985 0.01278876 -0.024214264 0.11609912 0.042041443
0.05758609 0.099500135 -0.025822427 -0.060498588 -0.0639574 0.050689716 0.06394755 0.065336056
-0.06977023 -0.17983176 -0.10774746 -0.084150895 0.0063211843 0.008325375 -0.122613944 0.024723588
0.06849554 -0.08504769 -0.060723353 0.0106391115 -0.10082927 -0.06739994 0.06821858 0.028981036
-0.009074574 -0.018991912 -0.013106157 -0.10201745 -0.009211268 0.17217904 -0.16347337 0.022323977
-0.00067308336 -0.06223299 -0.035984624 -0.0039619696 0.03339381 -0.11050749 -0.03179563 0.06560634
-0.1337244 0.20839705 0.025942696 0.05929491 0.013830082 0.041168474 -0.16193296 -0.09794279
0.06891634 -0.060040377 0.19671164 -0.12180987 0.15040946 -0.067594185 0.051894885 -0.18423831

network_body._body_endoder.seq_layers.2.bias f4 [256]
00000000: 898d 9ebc 9fcd 3dbc 32e2 dcba 0b79 fd3c
00000010: 68ce cabc c4ae b63b b012 c73b 3e90 1bbd
00000020: 9e59 5fbc 64ad 3bbd 6aef 21bd a12c ee3c
00000030: cf66 c0bc 2bcd 5bbd 8286 513c f4c6 b13c
00000040: 2a84 5a3c 29f0 9e3b d2a6 3ebd fb17 2c3d
00000050: 220a 253d 7b24 983d 7595 903c 5d45 903d
00000060: 7216 cdbd 83e8 28bd 2c3c 64bd 8a78 eebd
00000070: 4330 233d 6f3a 1abb b289 f63a dffa d0bd
00000080: 047f f1bc f7be 8dbd a7c2 abbb 1add 83bd
00000090: f6be 0cbd 8d61 bdbc a221 7bbd e6ae d73c
000000a0: ebbc 88bd 6635 b9bd 08a4 ab3c 2bc6 f0bb
000000b0: c447 49bc df89 e0bb 6c96 313d 69ed 183d
000000c0: 43f1 d43c 2ac4 97bd 06bc 983c 145c 073d
000000d0: 6d81 713b f6e4 493d 462c 863d 8b0a 8bbc
000000e0: 3e5a 563d 7724 ceba 360a 943c 8c30 01be
000000f0: 7021 7d3c 2ce0 953d 61cb f8bd 647a 62bd
00000100: 4e5a c7bd 4de7 8b3d 0c34 87bd 7662 5ebb
00000110: 93d8 84bd 2b8c 063d 38ff 583c 9566 82bd
00000120: e7a5 f7bc bdbe 52bc 7d92 0d3d 3660 c1bb
00000130: bbc6 2ebc 5511 8abd 73a6 11bc 43df 93bd
00000140: f604 c13c 0e94 903d 38d8 b1bd f0d1 80bd
00000150: a33e 3eba 6f91 5ebd 1ab2 283d 3082 7cbc
00000160: 79c6 eebd d8fe edbc b85d 06bd d822 a0bd
00000170: 28ee 1d3d 9bc5 fbbc 0720 9b3a bf00 67bd
00000180: 5d1c ce3c c11c aabd 35ba c6bd bd29 3f3d
00000190: 415d 573d 98c1 a73c 5d70 d8bc 136f 06be
000001a0: a8da 9abb c9c0 f9bd e2e3 edbc fd43 c0bc
000001b0: ea89 eeba 2ebe 713d 2958 e53c cba2 093d
000001c0: 195b d13c c421 803d daa5 7d3d 9851 42bc
000001d0: cfc0 9a3c c30d d73c 7e15 493c 8132 1ebd
000001e0: fb05 9a3a da48 34bd a5c5 5fbc 6b52 d5bc
000001f0: c7cb 2a3c 7398 d0bd f2f8 f83b 1afe 403b
00000200: 95c4 95bd 2ce5 2e3c 92c4 283d 9acb f5bb
00000210: df80 d53c 3bcb 25bc ef10 a13c 3e08 91bd
00000220: 109b a33c 202c 763c 75f9 e73c 09e8 08bd
00000230: dfba 0fbd 06fd 993c 07d2 bcbd d67f 47bd
00000240: 96b1 053c 40eb 1bbd 406e 3d3d 4407 bcbc
00000250: 9d5a e83c 8c1c 643c 6908 b13c c7c6 06bd
00000260: f047 123d bc50 eabc 9694 b5bd 46f8 cabc
00000270: 091b 3dbd 410d c33c f404 b23c 6110 97bc
00000280: 50ef 8d3d 5912 f1bd c4a0 2ebd fab2 193d
00000290: 7e81 0ebc 4f01 aa3d 8ac9 c9bb 0e54 a43c
000002a0: acaa 063b 5a0e 89bd 61c5 90bb 2296 013d
000002b0: 4529 4b3c 26ed 00b9 7fef c73b 38d4 213b
000002c0: eacf 80bd 89bd a6bd dacb debc 5fad 893c
000002d0: 992e b0ba 47f7 013d a56e 4fbd 1334 e9bd
000002e0: e975 debc 411a 103d fee4 4bbc 27c6 8abd
000002f0: 54b6 50bd 8395 e4bc d0df 843c 809f 3b3d
00000300: 8931 a6bb 61e5 78bd d5ef a93d 9ad4 c7bd
00000310: 3e2b 173c 5417 7fbd b119 b3bc be3a 00bd
00000320: c94a 3e3c 9d28 d73c b864 863d f397 43bd
00000330: 1dd4 34bd fc76 d63c 8a8d a1bc dfd3 c8bc
00000340: 0949 8c3d 39a7 c7bd 3f31 d039 6aa1 cebd
00000350: 488f 50bd 2577 453c 5432 d83c b4d6 01be
00000360: 0523 8bbc fad1 a2bc 2b8c 40bd 181b b3bd
00000370: c923 58bc e614 a73c c5aa 4d3c fd01 91bd
00000380: 0372 5abd effe 6dbd 7352 953d b1eb b3bd
00000390: b921 a6ba a444 53bc 5cc2 d7bd f20b c23c
000003a0: f0fb 393d d77e 9abc 0796 003d 8287 57ba
000003b0: 47ce 93bc ab5b c3bb b161 eb3c 4776 82bc
000003c0: e962 abbb eb0d 9abd 09c8 2ebd 2602 16bd
000003d0: c6dd 403d 9b0c 2fbd 4007 79bc 5fd3 82bd
000003e0: 6eb7 c8bd 086d 9ebc 2bb0 8fbd c40d 00bd
000003f0: 33f0 9fbc d120 f73c f011 b7bc 6e69 343d
-0.019354599 -0.011584668 -0.001685208 0.030941507 -0.024756625 0.005575033 0.006075226 -0.037979357
-0.013632206 -0.045819655 -0.039534964 0.029074015 -0.023486523 -0.05366246 0.012788417 0.021701314
0.013337174 0.0048504067 -0.04654581 0.042015057 0.040292867 0.07428833 0.017649392 0.0704448
-0.10014047 -0.041237365 -0.055721447 -0.11644085 0.039840948 -0.0023533364 0.0018809347 -0.102041
-0.029479511 -0.06921189 -0.00524171 -0.06438656 -0.034361802 -0.023117805 -0.06131137 0.026328515
-0.06676658 -0.09043388 0.02095224 -0.007347842 -0.012285177 -0.006852373 0.043356344 0.037335787
0.025993949 -0.07410462 0.018644344 0.033046797 0.0036850825 0.04929062 0.06551413 -0.0169728
0.052332155 -0.001572742 0.018071275 -0.12616175 0.015449867 0.07318148 -0.121481664 -0.055292502
-0.09734021 0.068312265 -0.06601724 -0.00339332 -0.06486621 0.03284852 0.013244443 -0.06367222
-0.030230476 -0.012862858 0.03456353 -0.005901362 -0.010667498 -0.06741587 -0.008889782 -0.07220318
0.023561936 0.07059489 -0.086838186 -0.062900424 -0.00072572584 -0.054337915 0.041185476 -0.0154118985
-0.116589494 -0.029052183 -0.03280422 -0.07819146 0.0385572 -0.030733874 0.0011835106 -0.056397196
0.025160009 -0.083062656 -0.09703485 0.046670664 0.05257917 0.020478055 -0.026420766 -0.13128309
-0.004725773 -0.12194974 -0.029039327 -0.02346992 -0.001819906 0.05901926 0.02799614 0.033602517
0.025556134 0.0625644 0.061925747 -0.011860274 0.018890766 0.02625168 0.012273191 -0.038622383
0.001175105 -0.04401479 -0.013657962 -0.026040277 0.010424561 -0.101853274 0.007598036 0.0029448331
-0.07312886 0.010674756 0.04120309 -0.007501078 0.026062427 -0.010119255 0.019661395 -0.0708165
0.0199714 0.015025169 0.028317193 -0.03342441 -0.035090324 0.018797409 -0.09219747 -0.0487059
0.008160016 -0.03806615 0.04624772 -0.022952683 0.02836352 0.013922822 0.021610456 -0.032904413
0.035713136 -0.02860295 -0.08866231 -0.02477659 -0.04616836 0.02381003 0.021730877 -0.018440427
0.06930411 -0.11771078 -0.042633787 0.0375242 -0.0086978655 0.08301031 -0.0061580585 0.020059612
0.0020548506 -0.066921905 -0.0044180606 0.03163732 0.012399976 -0.00012295376 0.006101548 0.0024693143
-0.062896565 -0.0814162 -0.027196813 0.016806303 -0.0013441622 0.031729963 -0.05064263 -0.113868855
-0.027155833 0.035181288 -0.012444733 -0.06776076 -0.05095513 -0.027903324 0.016220003 0.045806408
-0.005071823 -0.060765628 0.082976975 -0.097573474 0.009226618 -0.062278107 -0.021862837 -0.03130602
0.01161451 0.026264483 0.06562179 -0.047752332 -0.0441476 0.026179783 -0.019720811 -0.02451509
0.06849868 -0.09748692 0.00039709543 -0.10089381 -0.050917894 0.012052332 0.026391186 -0.12679559
-0.016984472 -0.019875515 -0.047008675 -0.08745402 -0.013192126 0.020395707 0.012552922 -0.07080457
-0.053331386 -0.05810445 0.072911166 -0.08785189 -0.0012674845 -0.012894783 -0.10535118 0.023687337
0.045406282 -0.01885931 0.031393077 -0.00082217914 -0.018042697 -0.0059618554 0.028733106 -0.01592554
-0.005230297 -0.07522186 -0.042671237 -0.036623143 0.0470865 -0.04273663 -0.015199482 -0.06387972
-0.098006114 -0.0193391 -0.07016023 -0.031263128 -0.019523716 0.030167015 -0.02234742 0.044045858

network_body._body_endoder.seq_layers.4.weight f4 [256, 256]
00000000: ba79 da3d 0a03 b13c 936c f8bc c58f b3bc
00000010: af72 55be f5e6 2ebe 9b77 00be 92f3 c33d
00000020: 7958 6fbb 2225 8ebd 4146 a53d d9c2 b7bd
00000030: 3007 94bc ddae 22b9 fdab 93bd 0465 bcbb
00000040: 3c7a 99bd 079e 133d 8ce6 3e3d f30d 133d
00000050: 91b4 26bd 80e8 6c3d 9c97 10be 6e88 65be
00000060: 0d5b f23d 8f8d f93d 5031 183d b9ea b9bd
00000070: c8ad c03b 2177 073d 19c7 51bd 38a4 ddbd
00000080: 757d 313e 7092 e73d f2ed 56be 8147 593d
00000090: 3a43 c8b9 e908 a4bc 6352 de3c 25e6 673e
000000a0: ca42 eebd e576 98bc 36f2 9cbd 43c5 8ebc
000000b0: effa ccbd 037d 24be c3e8 93bd 3366 95bc
000000c0: 2287 d03d 72e3 2c3e 3041 2a3e 3c26 403d
000000d0: b01c 573e b49e 2e3d 84b4 00be 668e 073d
000000e0: 5021 e33d 46c3 ebbd 4bde b7bc 1c52 e93d
000000f0: 133f db3d c94c 23bd 4c01 a43d 4119 f23b
00000100: 5d25 53bd b281 b53d e5dc 3e3d cdf5 683d
00000110: 7f6e d13d 1cd4 52be ebdf afbd 54f1 9d3d
00000120: b63b 4bbd 26c4 83bd a2ba 973d 70b0 513d
00000130: e0f6 b1bd a952 6ebd 054e a2bd 4075 02ba
00000140: 0ea1 37bd ad0a d8bd 691a 0cbe 883c c0bd
00000150: 5934 8cbd 58f6 06be 788a 21bd 02e8 843c
00000160: 7375 39bc 081d 053d 8d8b 623e 2bca df3d
00000170: db78 893b 617e 83bd 5a5a a13d e81e 503e
00000180: d541 ad3d 6dfb ca3d 6690 5a3d 774b 32be
00000190: f2dc 353e b423 8cbd 277a b3bc 156d b33b
000001a0: bf63 2ebe b778 3bbb 3325 96bd 3090 e1bd
000001b0: 0172 8b3d 4e0a 9dbd 22f5 403d 8369 ff3d
000001c0: 7b6c ae3c f404 c4bc d6da 8abd 4764 47be
000001d0: a0b4 13be 5ee4 eebd 01a1 e13d fd0b bd3d
000001e0: 88e8 76bd 484d c33d 4e51 ca3d 119a 54be
000001f0: cb06 9abc 1bb4 9ebc 4699 bbbd 429c 78bd
00000200: 7e68 103c 9a06 f9bd 6cf0 083d 350a b73d
00000210: a9b6 dd3c 7741 8ebc 027e 123e ebd9 a5bd
00000220: 6461 9bbc 7d14 c73c fddc e63c 62a6 d1bd
00000230: bb83 f43d 0f2d 85be 6be2 2cbe ee3c 02bd
00000240: a518 f9bb 73b5 553c 190e 61be 5654 c63d
00000250: ef9a ee3d 637f c5bd 73f1 89bc 2c5e 37bd
00000260: 0177 e43d 2add b33d ff4b 90bd 9c02 fa3d
00000270: 2025 833d c51a c7bd ad8d d03b 70dd 093e
00000280: dbea 0d3e d3d5 fa3a a451 eb3c 4a62 a2bc
00000290: 0949 993d e7ef 0e3e 048e 373d 0e41 e83a
000002a0: 7941 75be 5042 0abe 5c11 f3bd a246 2bbe
000002b0: 396a 22bd 5a79 593d c291 813e 6d85 7a3d
000002c0: 56b9 2ebe cd0e 5e3e a0d8 2a3e 5da2 e73c
000002d0: f37d c2bd f134 b43d f722 b33c b073 f03d
000002e0: a21b 2bbe 7bfe 933d 3f99 373e 0204 ca3d
000002f0: 90e4 d23c 8d7d 47be 743f 87bd c440 013e
00000300: 5150 b03c 3b5b 8f3c edf8 3cbe 88d4 4d3e
00000310: f18e f1bc 9fec 84bd 8654 52bd e5de 433d
00000320: cb43 2f3e d292 debd 83a8 c43c a2a8 383e
00000330: eebe d9bc 4272 26be 7f1c f9bd 1eeb 40bb
00000340: 9383 363e f3ec 33bc e69a 85bc 743e e93d
00000350: f32d 72bd d59b aabd f4da 343e 333d 9f3d
00000360: 107c b3bc 26f9 c8bd 5bd5 8cbd 43df 1c3e
00000370: 65ff d33c c886 56bc 6f13 cfbb 672b bebd
00000380: 128b 6b3e b4fa e8bd db28 9ebd 0ec7 15be
00000390: 5244 88bb d8d7 293e 313e 293e feef 38bb
000003a0: 6fdc 963d 024b 6abd 7055 bc3d f662 5bbe
000003b0: f4a6 1d3e d17e 80bd 7105 4e3b 33bc 91bd
000003c0: 83f2 aabc fe5d 1e3d 1652 7f3e 8430 d53d
000003d0: 0678 4abe 0a0f b03c 1587 84bd 2402 553e
000003e0: b93d c23b de30 d1bd 324a 46be 9a96 47be
000003f0: 7deb 043d 02fd ee3c 2201 1f3d f6d0 4e3d
0.10667749 0.021607894 -0.03032521 -0.02191914 -0.2084453 -0.1708029 -0.12545626 0.09567942
-0.003652124 -0.06940676 0.080700405 -0.08972711 -0.018069834 -0.00015514666 -0.072105385 -0.0057493467
-0.074940175 0.03603938 0.046606585 0.035901975 -0.040699545 0.057838917 -0.14120334 -0.22415325
0.11833773 0.12185203 0.037156403 -0.09077973 0.0058800913 0.033072595 -0.051215265 -0.10822338
0.17333014 0.113072276 -0.20989206 0.053046707 -0.0003819706 -0.02002378 0.027138894 0.22646387
-0.11633833 -0.01861138 -0.076633856 -0.017428046 -0.10008799 -0.16063313 -0.0722213 -0.018237209
0.101820245 0.16883639 0.1662643 0.046911463 0.21007037 0.04263182 -0.12568861 0.033094786
0.11090338 -0.11511855 -0.022444865 0.11392614 0.1070539 -0.03986815 0.0800806 0.0073882644
-0.051549304 0.08862628 0.04659738 0.05687504 0.102261536 -0.20588726 -0.08587631 0.07712045
-0.04961749 -0.06433897 0.07408644 0.051193655 -0.08689666 -0.0581843 -0.07925037 -0.0004976578
-0.044831328 -0.10548911 -0.1368195 -0.093865454 -0.06845922 -0.1317991 -0.039438695 0.016223911
-0.011319506 0.03249839 0.22123547 0.10927232 0.0041953153 -0.06420589 0.07878561 0.2032429
0.08459822 0.09911237 0.053360365 -0.174116 0.17760065 -0.06842747 -0.021908833 0.00547565
-0.17030238 -0.0028605887 -0.07331314 -0.1101383 0.06808854 -0.07667981 0.047108777 0.12471297
0.021291962 -0.023928143 -0.06780021 -0.19471847 -0.14424372 -0.11664651 0.11017037 0.09230802
-0.060280353 0.095362246 0.09878789 -0.20761897 -0.018802067 -0.01937299 -0.09160094 -0.060695894
0.008813975 -0.12159462 0.03343241 0.08937494 0.027064638 -0.0173652 0.1430588 -0.08098205
-0.018967338 0.024301762 0.028181547 -0.10236813 0.11939188 -0.2601094 -0.16883247 -0.03179639
-0.007601815 0.013043749 -0.21978034 0.096840546 0.11650645 -0.09643438 -0.016838765 -0.044767544
0.11155511 0.08782418 -0.07045745 0.12207529 0.064035654 -0.09721903 0.0063645453 0.13463378
0.13859122 0.0019137211 0.028725453 -0.019822259 0.074846335 0.13958703 0.04481317 0.0017719583
-0.23950757 -0.13501859 -0.118685454 -0.16726163 -0.039652083 0.053094245 0.25306517 0.0611624
-0.17062888 0.21685334 0.16684198 0.028275663 -0.09496679 0.0879916 0.021867258 0.11740816
-0.1670976 0.07226273 0.17929552 0.09864046 0.025743753 -0.19481488 -0.066038996 0.12622362
0.021522673 0.017499557 -0.18454333 0.20100605 -0.029487105 -0.064904444 -0.05135014 0.04781999
0.17115705 -0.108678475 0.024006134 0.18033078 -0.0265803 -0.16254523 -0.12163638 -0.0029437016
0.17823629 -0.010981786 -0.016309213 0.11388865 -0.05912585 -0.08330504 0.17661649 0.07775345
-0.021909744 -0.09813146 -0.06876632 0.15319543 0.025878618 -0.013093658 -0.0063194553 -0.09285622
0.2300227 -0.11375943 -0.07722636 -0.14626715 -0.004158535 0.16586244 0.1652763 -0.0028219218
0.07366263 -0.05720044 0.091959834 -0.2142447 0.15395719 -0.06274188 0.0031436349 -0.07115974
-0.020867592 0.038663857 0.24933657 0.10409644 -0.19772348 0.021491546 -0.06471077 0.20801598
0.005927768 -0.10214399 -0.19364241 -0.19491044 0.03245114 0.029173378 0.03881944 0.05049225

network_body._body_endoder.seq_layers.4.bias f4 [256]
00000000: bb9b d2bd cb2a c43c 814c bd3c f709 95bd
00000010: b75b 00bd 8dde 87bc d3a1 7a3d bb75 0ebd
00000020: 0efb 0f3d 725b 393d 2257 f33d 430b 853d
00000030: 611a a6bd 7c6c a43c 2f66 1e3d 7909 043e
00000040: f862 183d 907d 163d c545 f1bd 2b55 67bc
00000050: da74 833c 5470 d4bd b0fc 8bbc 4199 cb3b
00000060: 350d 2e3d af19 a3bc d277 a03b 1495 1cbd
00000070: bf6d 903d 09dc 65bd 20ec 0f3e fabf 0f3d
00000080: 3dc6 aabb f341 673d f34e a0bd c7da 4e3d
00000090: ddf5 c6bd b6c6 483d 78c4 183d c333 923c
000000a0: 680e bc3c 0643 d9bd 20d9 05bc db48 bb3d
000000b0: 5b4c 933c a990 b23d 4ca8 073c e78c 2ebd
000000c0: eca5 a03d 18f7 18bd 1f0d b5bd 4c3c 1c3d
000000d0: 621d c8bc 904e c53c a097 80bd 358a 9d3d
000000e0: 7493 2b3d d18c ecbc 8f22 b8bd 19d6 033d
000000f0: 7ebd 153d 8668 793d aae1 46bc 8c94 f63c
00000100: 94f6 833d f549 dfbb a90a d93c 36fd d7bd
00000110: 12f4 a93c 27ec 92bd 194c 46bc 58d7 37bd
00000120: 4323 bf3d cb95 a73d fdb2 7dbd 41c9 2a3c
00000130: 5dd7 58bc 04c1 32bd e00d 9fbd 544d 8c3d
00000140: 35fa 5dbd 5f40 533d 4560 c9bb 3580 633d
00000150: f18f 98bb b5df 2d3d 622a a33d 1117 c9bd
00000160: 92ff b2bc 0708 7fbd 2486 8f3d b1cf 413d
00000170: acfa 673d 45a3 59bd 3a49 dbbd 5668 663c
00000180: 0be6 9dbd 19fa 2ebc 153f 483c 990d 52bd
00000190: 96e1 dabc 6b91 3c3d aed7 3f3d 5074 14bd
000001a0: cc14 0f3c d527 923d 75b4 c3bc 4844 133d
000001b0: ba9a 2d3d 3985 9bbc a7e8 dbbd 96e5 5ab9
000001c0: 1c99 26bd 118b aebd 02ff bc3d 19f3 083c
000001d0: 9369 bebd 9e32 b4bd c59b 2e3d 2001 e4bc
000001e0: f147 b93d 1a45 adbd 960d 453d 27ab cabd
000001f0: 528d 1e3d acbd cdbd ee09 fabd 5efb 2a3d
00000200: 52f4 e1bd a680 e53c 31c1 893c bbff 15bc
00000210: 24ba f2b9 f421 613c 5462 adbd b6bb dfbc
00000220: 0b3a 88bc 1188 a7bd 1d1c 83bd 7799 933c
00000230: df47 e13c 2a1d 193b c342 45be 5420 99bd
00000240: 4dcf 1dbd e15f 1b3c 9c04 a93c b437 3abd
00000250: 09dd d43c 0817 0bbc 1183 1d3d 0224 8a3d
00000260: 7c76 15bc c4da b1bd 6ee1 00be e069 ccbd
00000270: 51e1 a73c b928 f73d 9965 a8bc 2ca4 023d
00000280: 221c 0e3e d109 aebd 764e 0bbd fd83 66bd
00000290: ce0f 3cbc 6ca3 eb3d 39bf a5bd 6453 203d
000002a0: 2e76 2bbd 7cf8 f0bc 86cb 8b3d fd8c 193d
000002b0: 6c36 f5bc f8a8 b63d dab8 823d b5f5 303d
000002c0: feec 24bd 790d 66bd 89dd 3139 bc71 ccbd
000002d0: f555 6a3d 9247 adbd ac95 243c 96da 993c
000002e0: 9c31 c53d b76c 273d 23f0 423d 24ed 07bd
000002f0: 8092 29bd 176d db39 cb60 43bc 574f 113e
00000300: 86de 5eba 5c8e 993d fa3b 683b 59ca b5bc
00000310: cc1b e5bc 726d 7b3a 8518 9abb 9d2e 2b3c
00000320: 7f60 fcbc f1dc d5bc a362 0cba 4223 213e
00000330: e5c9 b6bc b994 203d 794b a3bd 2d42 4b3d
00000340: 6b37 c63c fb72 f7bc a0d4 46bd 8ee7 0c3d
00000350: 7d5c d3bb 7fff c93d c1bd 3a3d fafb a13d
00000360: 0f87 013e 5110 ecbd 8752 ee3c 9e05 c13d
00000370: 6155 e93d 5dc0 433c 1ffd ff3d a46e babb
00000380: 8389 ecbd e29f 0cbd 31bb bb3d 9276 9a3d
00000390: d29c 7dbc d4d6 b33c e0f2 e9bc 7823 fcbc
000003a0: 3af7 14bd 4cdf d03c 47df 133d e93c 50bd
000003b0: 7f1e f53d e58a 3bbd 9031 b93d 11eb 4cbc
000003c0: 27c2 063d 281e 003b 9887 253d 32cd 00be
000003d0: 87d9 70bc f8f0 43bd 7f19 8e3c f610 a83c
000003e0: da72 8cbd 3c08 ffbd 3f78 7fbd cfca aa3a
000003f0: 6e0e b93d fe80 64bd 7254 b73d 378c 03bd
-0.102836095 0.023946187 0.023107769 -0.07277291 -0.031337466 -0.016585613 0.061189484 -0.034780245
0.035151534 0.045253225 0.11881854 0.064962886 -0.081105 0.02007126 0.03867167 0.12894239
0.03720376 0.03674084 -0.117808856 -0.014119427 0.01604693 -0.103729874 -0.017088264 0.0062133376
0.042493064 -0.019909708 0.004897096 -0.03822811 0.070521824 -0.056118045 0.14054918 0.035095192
-0.00521162 0.05645938 -0.07827558 0.05050161 -0.097148634 0.04901763 0.037296742 0.017846948
0.022956088 -0.10608487 -0.008169442 0.091447555 0.017980745 0.08718998 0.008279871 -0.042614844
0.07844147 -0.037345022 -0.08840393 0.03814344 -0.024428073 0.024085313 -0.0627892 0.076923765
0.04188867 -0.02887574 -0.089909665 0.0321866 0.036557667 0.060890697 -0.012138763 0.03010013
0.064435154 -0.0068142363 0.026494341 -0.10546343 0.020746265 -0.07173949 -0.012103104 -0.044883102
0.093328975 0.081828676 -0.061938275 0.010423959 -0.01323494 -0.043641105 -0.07766318 0.06850687
-0.054193694 0.05157506 -0.0061455094 0.05554219 -0.004655831 0.04244967 0.07967068 -0.09818853
-0.021850381 -0.062263515 0.07008007 0.04731721 0.056635544 -0.05313422 -0.10707326 0.014062962
-0.07709893 -0.010679745 0.012222071 -0.0512825 -0.026718896 0.04603712 0.046836548 -0.036243737
0.008732986 0.071365036 -0.02388976 0.03595379 0.042383887 -0.018984424 -0.10737734 -0.00020875628
-0.04067336 -0.085226186 0.092283264 0.00835874 -0.092974804 -0.08798717 0.042629022 -0.027832568
0.09046925 -0.08460446 0.04810866 -0.09895926 0.038708992 -0.10045943 -0.12208925 0.04174363
-0.110329285 0.028015446 0.016815754 -0.009155209 -0.00046296522 0.013741005 -0.0846602 -0.027311187
-0.01662924 -0.081802495 -0.064018466 0.018017514 0.027500091 0.002336333 -0.19263749 -0.07476869
-0.038527776 0.0094833085 0.02063208 -0.04546328 0.025984304 -0.008489378 0.038455073 0.06745149
-0.009122487 -0.08684304 -0.12585995 -0.099811316 0.020493181 0.12068314 -0.020556258 0.031894848
0.1387792 -0.08497966 -0.034010373 -0.056278218 -0.0114783775 0.115057796 -0.080931135 0.039142027
-0.04186075 -0.029415362 0.068259284 0.037487973 -0.029933177 0.08918947 0.06382914 0.043203074
-0.040265076 -0.056165192 0.00016962564 -0.099826306 0.05721088 -0.084609166 0.01004545 0.018780988
0.09628603 0.040875163 0.047592293 -0.03318514 -0.04139948 0.00041852213 -0.011924933 0.14190422
-0.00085017865 0.07497856 0.003543614 -0.022191213 -0.027967356 0.0009591199 -0.00470263 0.010448125
-0.030807732 -0.02610633 -0.0005355274 0.15736106 -0.022313068 0.039204333 -0.0797338 0.049623657
0.024196347 -0.030206194 -0.04854262 0.034400515 -0.0064502344 0.09863185 0.04559112 0.07909389
0.12649177 -0.115265496 0.029092086 0.094248995 0.11393238 0.011947718 0.12499451 -0.005689459
-0.11549666 -0.034332164 0.09166563 0.07542147 -0.015479283 0.021953024 -0.028558195 -0.030778632
-0.036368586 0.025497101 0.036101606 -0.05083934 0.11968707 -0.045786757 0.090426564 -0.012507216
0.0329 0.0019549225 0.040412515 -0.12578276 -0.0147003 -0.047837228 0.017346142 0.0205159
-0.06857844 -0.124527425 -0.062370535 0.0013030412 0.09035955 -0.05578708 0.089516535 -0.03211614

action_model._continuous_distribution.log_sigma f4 [1, 39]
00000000: 2950 f8bf 4dcd 01c0 bfcb d3bf d27f bfbf
00000010: bb72 cebf dbeb cebf fed3 39c0 a607 12c0
00000020: ccb8 32c0 5b39 1bc0 1092 0ec0 fc81 0fc0
00000030: cc46 64bf 2b30 b5bf 5a9b 8fbf 9005 08be
00000040: 6209 cabf c6a2 49bd 2312 3cc0 0de2 37c0
00000050: f9e3 37c0 6f52 40c0 e4cb 25c0 0372 11c0
00000060: a7f3 dfbf 2b2f 01c0 897b 2fbf ef50 f93d
00000070: ce63 d53f 1f8d 0abf be04 dfbe 517c 48be
00000080: 71ac 32bf 135c 9e3f 6f7b 473f 3f26 423f
00000090: 736f b43f efc2 9b3f 2fca f63e
-1.9399463 -2.0281556 -1.6546553 -1.4960883 -1.6128763 -1.6165727 -2.903564 -2.2817168
-2.792529 -2.4253757 -2.227665 -2.2423086 -0.8917053 -1.4155325 -1.1219285 -0.13283372
-1.5784113 -0.0492275 -2.938607 -2.873172 -2.8732893 -3.0050313 -2.5905695 -2.2725837
-1.7496232 -2.018504 -0.68547875 0.1217364 1.6671083 -0.54121584 -0.43558306 -0.19578673
-0.69794375 1.2371849 0.7792272 0.7583961 1.4096512 1.2168864 0.4820113
